results/FoodAgentAltered_V2.3680.1/MoveToGoal/MoveToGoal-499956.pt (torch, 535695 bytes, 63 tensors)

discrete_act_size_vector f4 [1, 3]
000000 00 00 40 40 00 00 40 40 00 00 00 40
       3.0 3.0 2.0

network_body._body_endoder.seq_layers.0.weight f4 [128, 6]
000000 f6 c2 2d be 5a 7f 21 be 8d 96 e1 3d be 82 77 be
       -0.16968903 -0.15771237 0.110150434 -0.24170968
000010 d9 dc 72 bf ac d6 10 bf 69 bd c3 3e a4 86 95 be
       -0.94868237 -0.56577563 0.38230446 -0.29204285
000020 11 c0 98 3e 4d 96 a4 bf 3f f4 9a 3b f6 92 88 be
       0.29834035 -1.2858368 0.0047288234 -0.26674622
000030 89 44 06 be da 58 14 3e 86 42 bb 3e bc 84 25 be
       -0.13112082 0.14487019 0.3657419 -0.16163915
000040 61 6c af 3c 05 03 38 3f 8d f6 3e bd e7 60 15 be
       0.021413984 0.7187961 -0.046621848 -0.14587747
000050 b2 f1 0e bf da 56 ec 3d ae b8 11 3f 16 aa 9d bd
       -0.5583755 0.11540003 0.56922424 -0.07698457
000060 b6 a0 bf be be 2c 65 3f c9 bc 7f 3f 71 59 bf be
       -0.374273 0.89521396 0.9989744 -0.37372926
000070 0a 09 62 bc 9d a9 a1 3e 52 6b ea 3e a4 30 2d bd
       -0.0137961 0.31574717 0.45785004 -0.042282715
000080 d4 c5 61 be 27 f2 ff be d2 8c 1a bd ec d2 a7 be
       -0.22048122 -0.49989435 -0.037731953 -0.32778108
000090 f6 75 5c be 25 0e 3d bf bb b3 49 3f 5a f3 a7 3d
       -0.21529374 -0.7384971 0.7878987 0.082007125
0000a0 3d 34 6f be c5 be 0f 3f b1 ef d3 3e 8e f2 b0 3e
       -0.23359771 0.56150466 0.41393808 0.34560055
0000b0 bf 5f 10 3f b6 f9 ad bf 6f dd e4 3e 54 1c 71 3e
       0.56396097 -1.3591831 0.4470019 0.23545963
0000c0 46 23 01 3f 1d 86 7e 3d 54 83 20 3f bd ae e2 be
       0.5044445 0.06213962 0.6270039 -0.4427394
0000d0 4d 8c 58 bf fb f8 60 3e 4c 35 d5 bd 33 c8 ba bb
       -0.8458908 0.21969979 -0.10410556 -0.005700135
0000e0 25 5d b8 3c 07 36 14 3e 77 77 07 bf f7 2f 9f 3e
       0.022505352 0.14473735 -0.52916664 0.31091282
0000f0 2a 01 b5 3e 38 6d bd 3d 37 69 35 bf 4e ef 7c 3e
       0.3535245 0.092493474 -0.7086367 0.24700662
000100 e0 bc 34 bf 49 51 1b 3f 91 72 0d 3f f2 87 9e bc
       -0.706007 0.60670906 0.5525294 -0.019351933
000110 3b ba 5d 3e 96 17 d9 3d b5 a0 26 be 85 ba 1b be
       0.21653073 0.10600202 -0.16272242 -0.1520787
000120 cb 01 6d be d8 a3 dd bd 87 aa 33 3e 54 b4 c0 3e
       -0.23145215 -0.10822266 0.1754552 0.3763758
000130 e4 ca d3 be a1 c0 8d 3e 03 5c ff bd 67 d9 c2 be
       -0.4136573 0.27686027 -0.12468722 -0.3805649
000140 14 4c 14 3f 47 de 00 bf fa b6 79 3e 65 ae b4 3e
       0.57928586 -0.5033917 0.24386206 0.35289302
000150 28 5b 13 bf 12 21 1a be 52 8e c0 3e c3 1f 1a 3f
       -0.5756097 -0.15051678 0.37608582 0.60204715
000160 97 b0 43 bf cb 4a c3 be 8c bc 4d 3e 7f df 16 3f
       -0.7644133 -0.38143 0.20091456 0.5893478
000170 cc d3 00 3f 3c 3e 14 be e9 00 17 be a0 f6 3e 3f
       0.50323176 -0.14476866 -0.14746441 0.7459507
000180 f8 a4 ea bd 04 4c 30 bf 04 dd 94 bf b5 85 59 bd
       -0.114572465 -0.6886599 -1.1629949 -0.05310603
000190 7e 38 dd 3d 39 9a 76 be e8 4c 14 be ee 99 4b 3f
       0.10801791 -0.24082269 -0.14482462 0.79531753
0001a0 5e 2d ba bd be 16 41 be 9c 77 13 3f 6f b6 2b 3f
       -0.09090684 -0.18856332 0.57604384 0.67075247
0001b0 7e 33 b7 be 11 28 48 3f 13 f2 cd bd 24 12 3f be
       -0.35781473 0.78186136 -0.100559376 -0.18659264
0001c0 b6 fc d9 bd f1 0a 5f 3e 74 a0 f4 bd d6 e8 12 bf
       -0.10643904 0.21781518 -0.119446665 -0.5738653
0001d0 ab 6c 7d 3e b5 94 a8 be 04 f3 87 3f e4 ff 8f bf
       0.24748485 -0.32925954 1.0621037 -1.1249967
0001e0 9f 7d 54 3c af 2b ea bd d0 d8 1f bf 93 ce fa 3e
       0.0129694035 -0.11434113 -0.62440205 0.4898573
0001f0 63 a8 a2 bd 1f df 65 3f 6c 66 2b bf 91 01 37 3f
       -0.079422735 0.8979358 -0.6695316 0.71486765
000200 dc 61 13 bf cc f1 c3 3d 10 22 87 3e 64 0a 42 bf
       -0.57571197 0.095676035 0.26393175 -0.75797105
000210 0a 6f b5 3e 0d 30 c5 bd 44 8b 51 be 26 62 1b be
       0.3543628 -0.096283056 -0.20463282 -0.1517416
000220 29 f4 ff 3e b4 86 21 bf ce bd ae be 3f 23 09 be
       0.49990967 -0.63096166 -0.34129184 -0.13392352
000230 01 72 42 3e 7c b6 e5 be 92 2c 00 3f fc cb aa be
       0.18988802 -0.44865787 0.5006801 -0.33358753
000240 e7 90 c2 3e 31 7c 62 3d 2e 86 00 3f fd 7a f0 be
       0.38001177 0.05529422 0.5020474 -0.46968833
000250 e6 2c 30 3f c3 e5 c8 be 5a a3 6c bd a4 df b7 3e
       0.6881851 -0.39237794 -0.05777297 0.35912812
000260 b7 ef c2 3d 42 59 30 bf 84 b1 a1 be 65 64 1b 3f
       0.09518378 -0.68886197 -0.31580746 0.60700065
000270 cd ee b6 3d 59 84 6e be 9a 03 16 3e 3a e2 72 bd
       0.089322664 -0.23292674 0.14649811 -0.059297778
000280 be 92 e3 bd e6 61 2e 3f 69 08 f6 be cd 48 f6 be
       -0.11111973 0.6811813 -0.4805329 -0.48102418
000290 c7 e7 ba bd ea 92 0d 3f bb 59 e4 bd 4d 4e 53 3e
       -0.09126239 0.553023 -0.11149927 0.20635338
0002a0 2e f7 74 3f 26 b4 99 be 16 8d f2 bc 28 c8 86 3e
       0.95689666 -0.30020255 -0.02960829 0.26324582
0002b0 11 2a e7 3d 6f 67 4c 3f 1a 97 ff be 60 ac 23 3f
       0.112873204 0.7984533 -0.4991997 0.639349
0002c0 be de 60 3f 44 a2 6e 3d f4 48 9d 3d 11 38 28 bf
       0.8783988 0.058260217 0.0767993 -0.6571055
0002d0 62 31 3c bf 78 18 1b bf d1 f4 a7 3e d4 06 80 be
       -0.7351285 -0.6058421 0.32803968 -0.2500521
0002e0 c7 7a a8 3f 01 7e 9d 3e dd ce 3e bf 97 3e 4a 3e
       1.3162469 0.30760196 -0.745344 0.19750439
0002f0 9a 52 91 3f f3 32 cf bc b3 50 d6 3d 2a e0 61 3c
       1.1353333 -0.02529285 0.10464611 0.013786355
000300 0c 12 95 3e bc c1 1e bd 2e 9a 3d 3e 4f f8 b5 3d
       0.2911533 -0.03875898 0.18515846 0.08885252
000310 d1 40 29 3e 5b b1 84 3e b0 23 17 bf 7d d3 3b 3e
       0.16528632 0.2591656 -0.5903883 0.18342395
000320 f8 e9 aa bd 52 77 5c 3f e9 b8 f4 3e 17 93 52 bf
       -0.08345407 0.8611957 0.47797325 -0.8225569
000330 58 52 dd bc 52 cf 23 bf c9 54 6d bf d5 ed 27 be
       -0.027016804 -0.6398822 -0.92707497 -0.1639932
000340 4b 55 8d bd 8a 3c ef 3e 74 4d bd 3e 33 32 2a 3f
       -0.06901034 0.46725875 0.36973155 0.6648285
000350 76 51 44 bf fd 2d fa be 18 9d e8 3e c4 f7 62 bf
       -0.766868 -0.4886321 0.45432353 -0.8865931
000360 48 f6 34 3c 38 00 42 be 49 0d 86 3b 43 f9 fd 3e
       0.011045046 -0.18945396 0.004090939 0.49604234
000370 17 1d f6 be 61 e4 ca be 2a c4 3d 3e b0 0a ea bb
       -0.4806907 -0.39627364 0.18531862 -0.0071423873
000380 8e 2a 3c bd 13 60 28 3f 2b 9f ce 3e 08 8b dc 3d
       -0.04593902 0.657716 0.4035581 0.107687056
000390 ac 5a 7e be 1f bf 06 3f 00 f0 13 3e c3 e3 0e 3f
       -0.24839276 0.5263538 0.14447021 0.55816287
0003a0 19 6b 23 bf 9f 9c 0c 3f 77 4e 87 3e 15 e4 18 3c
       -0.63835293 0.54926485 0.2642705 0.009331723
0003b0 f8 58 04 3f 52 f4 8c be 4c 47 66 3e 1d c3 97 3c
       0.51698256 -0.27530152 0.22488135 0.018525654
0003c0 43 7f a5 be 82 bb ff 3d 4a c3 18 bf 88 3e c5 3e
       -0.32323655 0.12486936 -0.5967299 0.3852427
0003d0 93 32 13 3e 14 8b c0 3e b1 e7 02 bf c5 05 bb be
       0.14374761 0.37606108 -0.51134783 -0.3652784
0003e0 dc f8 45 bf 23 86 28 3f ed 2a d3 be 83 36 62 3f
       -0.77332854 0.65829676 -0.41243687 0.8836443
0003f0 81 b6 37 bd 30 f0 73 be 45 7b 05 bf 13 a9 00 bf
       -0.044851784 -0.23822093 -0.5214122 -0.50257987

network_body._body_endoder.seq_layers.0.bias f4 [128]
000000 ad e1 2f 3d 3a e6 56 3c 1e 48 64 3c 16 e5 37 3d
       0.04293983 0.013116414 0.01393321 0.044896208
000010 7b ca e0 3d 72 ae 99 3d 17 43 8f 3d fc b4 ef 3c
       0.1097612 0.07503976 0.06995218 0.029261105
000020 05 89 ed bb 7f 74 38 3c 43 9b 4b 3d 81 f2 96 3c
       -0.007249 0.011258244 0.049708616 0.018426182
000030 c0 55 7e 3d 8b c6 9f bc 1e bc 5a 3c a7 11 10 3d
       0.062093496 -0.019503852 0.013350515 0.035173085
000040 b2 b2 01 3e 6a 2e 8d 3d c1 a4 13 3d 14 b4 59 bc
       0.12665823 0.068936184 0.036045793 -0.013287563
000050 a0 7f fb 3d c6 ff ca 3d 8b 71 86 3d ed 4b 5a bb
       0.12280202 0.09912066 0.06564625 -0.0033309415
000060 94 7b 8f 3d 5c c3 a9 3d 4a 41 ce bb 19 86 8b 3d
       0.070059925 0.08289215 -0.006294404 0.068126865
000070 39 ca a7 3d ea 44 cb 3d c5 d8 ac bc fc ea 35 3e
       0.08192868 0.09925254 -0.021099458 0.1776542
000080 1e c6 c8 3c 8a 59 40 3d d5 b5 0c 3e 3b 2d 8f 3d
       0.024508532 0.04696039 0.13741238 0.06991049
000090 72 72 dc 3c 4b b1 6a 3c 1f 15 84 3c cd 43 4b 3d
       0.02691004 0.0143244965 0.016123353 0.049625207
0000a0 3f bb 66 3d af 2a 3e 3e 3a 4f 58 3d 1f 07 a2 3c
       0.056330916 0.1857097 0.05280993 0.019778786
0000b0 0f 39 1b 3d aa 95 a7 bc be 8f 38 3d 6d f6 66 3d
       0.037896212 -0.020457108 0.04505896 0.056387354
0000c0 1e 0f 10 3e 91 dd 24 3c 58 fc cc 3d 8a 54 a7 3c
       0.14068267 0.010062591 0.10009068 0.020426054
0000d0 e8 1a 9c 3c 18 d0 14 3d a1 c0 bb 3d 63 b3 f7 3d
       0.019055799 0.036331266 0.091676004 0.12094762
0000e0 88 d7 c3 3d b4 d2 3b 3d 1b 4c c4 3c 05 94 f9 bb
       0.09562594 0.04585524 0.023962071 -0.0076165223
0000f0 9c 58 88 3d 2b d1 77 3d 33 27 2e 3d 79 83 09 3d
       0.06657526 0.060502212 0.042517852 0.033572648
000100 3a 94 c9 3c 8f 94 63 ba 65 a4 ed 3d 67 65 96 3d
       0.024606813 -0.00086815 0.116036214 0.0734356
000110 5b e5 77 3c 7a f6 a3 3d 12 9a 90 3d b2 38 bd 3d
       0.015130366 0.08005996 0.070606366 0.092393294
000120 dd 15 17 3d 8d 7d 5c 3c f0 8e 04 3d ad 82 2b 3d
       0.036886085 0.013457668 0.03236288 0.04187267
000130 56 7b b8 bc 50 b1 a8 3c 8b 10 d0 bc b6 67 b7 3d
       -0.022519749 0.020592362 -0.025398513 0.08955328
000140 5d d7 8e 3d 04 ea 6d 3d fc cf 2f bd 90 cc b0 bc
       0.06974671 0.058084503 -0.04292296 -0.021581918
000150 5a b8 e2 3d 51 86 9e 3d 1d 0f 61 3e 0d 5a 8d ba
       0.110703185 0.077404626 0.21978422 -0.0010784284
000160 ce d6 f8 3c a7 31 42 3d be aa 19 3d 69 58 0d 3d
       0.030375864 0.047410633 0.037516348 0.034508143
000170 cd 83 c1 3b b5 08 6d 3c 1f a6 73 3c ab 6f 11 3e
       0.0059056045 0.014467408 0.014871149 0.14202754
000180 ab 88 84 3c ea 58 dc bc 5d 2a 4e 3d ca 1d d6 3d
       0.01617845 -0.026897866 0.05033337 0.104549006
000190 3c 62 6b 3d ac b6 b6 3d fc 34 b7 3c 83 23 70 3d
       0.05746673 0.08921561 0.022364132 0.058627617
0001a0 ce ed ad 3d 47 c4 08 3e 3b 22 5d 3b b7 fd 61 3d
       0.08492623 0.13356124 0.0033742327 0.055173602
0001b0 7b a0 1f 3d f3 fd 36 3d b5 0a e2 3d aa b0 2b bc
       0.038971405 0.04467578 0.110371985 -0.010479132
0001c0 14 c3 87 3d 98 eb 41 bb 9e 40 35 bd 3b 84 1c 3d
       0.06629005 -0.0029589888 -0.044251077 0.038212042
0001d0 80 ad 4f 3c d5 33 44 3d 11 82 f1 bc aa 8f 6a 3d
       0.012675643 0.047900993 -0.029480966 0.057265915
0001e0 d2 73 f4 3d c3 0d c0 3c 8c 03 3f 3e 87 c6 04 bc
       0.119361535 0.023444062 0.18653697 -0.008103973
0001f0 73 14 64 3d 46 7d 2d 3d 55 20 ea 3d ec 3a fb 3c
       0.055683564 0.0423558 0.11431948 0.030667745

network_body._body_endoder.seq_layers.2.weight f4 [128, 128]
000000 e3 57 4b bd 84 c9 91 3d 8e fb 38 3d 6c 2e 84 bc
       -0.049644362 0.07118514 0.045161776 -0.016135417
000010 34 2b 05 3d 30 67 64 be 81 bb cf bb b7 52 8e bd
       0.032511905 -0.22304988 -0.006339491 -0.0694937
000020 d6 da 63 be 1a 65 01 3e 47 dd 33 3c 2a 0d 99 bd
       -0.22251448 0.12636223 0.01097805 -0.07473214
000030 5e b1 87 3d 83 04 ae bd 76 ca ea bc 14 d2 2d 3d
       0.06625627 -0.08496954 -0.028660994 0.042436674
000040 a8 6a 6a 3d 00 ad c8 bd 4b 44 49 bd 97 5c 33 3d
       0.05723062 -0.09798622 -0.049137395 0.043789472
000050 86 91 b4 bd c9 4e c5 3d 7e d4 9e 3d 5f 0a 6e 3b
       -0.08816819 0.09634168 0.077553734 0.00363221
000060 a2 1e a2 3d cd 9f ea bd be fc c6 3d 6d 01 a0 bc
       0.07915999 -0.11456261 0.097161755 -0.01953193
000070 ba 95 46 be 71 19 04 be 51 5b 94 3d c2 55 34 bd
       -0.19393054 -0.1290033 0.0724398 -0.044027098
000080 21 d9 13 bd 51 8c a8 bd 19 31 76 bd 8c d4 1b be
       -0.036095742 -0.08229888 -0.060105417 -0.15217799
000090 ff 49 9e bc 26 79 b7 bd 86 6e 4b bb d2 96 90 3d
       -0.019322393 -0.08958654 -0.003104122 0.07060017
0000a0 16 4e ba 3d 27 9e 15 3d f7 74 03 bd e4 af 0f 3e
       0.09096925 0.03652778 -0.03209397 0.1403194
0000b0 f4 75 f5 bd 00 26 19 be 74 cb 0d 3e 22 b5 44 bc
       -0.119853884 -0.14955902 0.13847142 -0.012006076
0000c0 83 5a 99 bd ea 43 51 3e 84 41 19 be f3 c9 35 3d
       -0.07487967 0.20436063 -0.14966398 0.044382047
0000d0 1f 0e e1 3d eb 01 9b 3c 1c b2 c5 3d 52 12 92 be
       0.109890215 0.018921813 0.09653112 -0.28529602
0000e0 d9 d8 ad 3c 2b c1 66 be 37 b4 7b 3d ba f0 5a 3d
       0.021221565 -0.22534625 0.061451163 0.05345223
0000f0 c7 70 60 3d fc 2b 24 bd 1c c2 b5 3d db 39 4d bd
       0.054795053 -0.04008101 0.08874914 -0.050104003
000100 b1 b8 59 bd 31 83 cf bd bc 68 04 be 29 00 5e bd
       -0.05315465 -0.10132445 -0.12930578 -0.05419937
000110 52 22 15 3e 3f 21 16 be 31 18 6f bc 56 3a 0c be
       0.14563873 -0.1466112 -0.01459317 -0.13694128
000120 68 92 7c be 34 77 34 3d 7c 09 7e bd e7 89 a2 bd
       -0.24665225 0.044058993 -0.062020764 -0.07936459
000130 72 f0 e2 3c 95 89 bb bd ad 97 92 bd d2 fe 52 bd
       0.027702544 -0.09157101 -0.07157836 -0.051512547
000140 1d 3f dd bd 2d dc 2b 3d 3f 63 c9 3d 90 8a e8 3d
       -0.108030535 0.041958023 0.09833383 0.11354554
000150 c9 0d d9 bd 17 cb 35 bd 1f e4 5c 3d 69 a3 0e be
       -0.105983324 -0.044383135 0.05392849 -0.13929524
000160 cd c4 b7 3d 63 56 05 3d 53 2d 1a 3e 84 7e 66 3e
       0.08973084 0.032553088 0.15056352 0.225092
000170 c9 4c 58 bd 9a 3c b8 3c 59 b4 b1 3d 36 9e 4d bd
       -0.052807603 0.022489835 0.08676977 -0.05019971
000180 97 26 55 be 3b 85 e2 bd 66 92 e3 bc 75 69 9c 3c
       -0.20815502 -0.11060568 -0.02777977 0.019093255
000190 6c 02 54 bd c4 65 ad bc 84 b1 d6 3d 92 ee 51 be
       -0.051760122 -0.02116669 0.10483077 -0.20501164
0001a0 7e 48 f4 3d 5e bc 9f 3c c0 0a 96 3b cc f5 d9 bd
       0.11927889 0.019499 0.004578918 -0.10642585
0001b0 a7 71 63 3e 9f 96 4f 3d 22 f3 46 bd 88 c3 30 bc
       0.22211324 0.050680753 -0.048571713 -0.010788806
0001c0 ea 2b bc bd eb 23 39 3d 4a a2 9d 3d 69 67 a2 bd
       -0.091880634 0.04520027 0.0769697 -0.0792988
0001d0 09 1c 4f 3d ef 02 fc bb 6d 2d ae bd ec cc 5f bd
       0.050563846 -0.0076907794 -0.08504758 -0.054638788
0001e0 5d 82 d7 bd 37 7b 0c 3d dd 1e 47 be ea 33 59 bc
       -0.10522912 0.034297194 -0.19445367 -0.013257006
0001f0 67 ad 62 be 49 e1 98 3d 63 e4 0c bd 33 5e 31 bc
       -0.2213646 0.07464845 -0.034397494 -0.0108256815
000200 ac dc 11 3e aa f8 99 3d 79 3d 8a 3d 31 89 72 3d
       0.14244336 0.07518132 0.06750006 0.059212867
000210 9b 16 5e bd 04 1c 52 bc 13 fc 15 3e f1 ec c2 bc
       -0.054220777 -0.012824062 0.1464694 -0.023794623
000220 d1 94 05 3e 80 1a 11 be 5b 10 7a be 6f 03 4b bb
       0.1304505 -0.14170265 -0.24420302 -0.0030977388
000230 4b 0e 2a be b0 85 ae 3d b8 56 71 bd 36 e0 01 be
       -0.16607015 0.085215926 -0.058920592 -0.12683186
000240 7c ab c7 3d 39 5f 5a 3b db 8c 91 bd 5a f0 d1 3d
       0.09749505 0.0033320917 -0.07106944 0.102509215
000250 a7 d2 6e be 01 53 18 bd d3 7e 8a 3d e0 8c c3 3d
       -0.23322545 -0.037188534 0.06762471 0.09548354
000260 34 c3 b5 bc 7b 5e db bd 8e e4 57 bd 87 d5 4e 3d
       -0.022187807 -0.1071138 -0.0527082 0.050496604
000270 cb 3d 75 bd bc fd 1d bd d1 b4 37 3d 06 9b 0c 3e
       -0.059873383 -0.038572058 0.044850174 0.13731012
000280 7a 21 8b bd 6e 06 31 3d a2 75 ad bd 7a 87 52 3d
       -0.067934945 0.043219022 -0.08469702 0.05139873
000290 42 f6 24 be 4e 95 7c be ea 6e 04 be 0f 7d e2 3c
       -0.16109565 -0.2466633 -0.12932935 0.027647523
0002a0 77 5f e4 bd 6a 27 c3 bd aa 23 18 3d 9f cc f6 bd
       -0.11151021 -0.09529002 0.037143387 -0.12050747
0002b0 4b 5d 97 bd 38 07 71 3d 7b 6f 0a 3d c6 ae 1d bc
       -0.07390841 0.058844775 0.033797722 -0.009624189
0002c0 72 51 4e 3e 38 08 81 3d 56 01 ad bc dd 6f 22 3d
       0.20148256 0.06300396 -0.021118801 0.039657462
0002d0 83 84 5f be a5 7a a0 3c 78 14 27 3d 4a 8e 86 3d
       -0.21827893 0.019589731 0.040791005 0.06570108
0002e0 17 16 1a be 6b af 1c 3e 98 88 0b be 80 d1 c9 3d
       -0.15047489 0.15301292 -0.13626325 0.09854412
0002f0 64 b6 56 bd 9d 47 28 3e a9 90 6c bd 77 c4 25 3d
       -0.052420035 0.16433568 -0.057755146 0.040470567
000300 91 bb 6f bd c6 a6 de 3d 8e 2f c3 3d f0 6a 9b bd
       -0.058528487 0.10871653 0.09530555 -0.07588756
000310 d7 03 60 3d ad c5 ac bd d7 61 c3 3d 31 88 da 3d
       0.054691162 -0.08436141 0.09540146 0.10670508
000320 e8 6a f6 3d 40 ac b9 bd e8 27 d3 3d a4 f5 85 be
       0.120321095 -0.09066057 0.10310346 -0.2616397
000330 bf 6c 56 3e 8a 5f e9 bd 63 a8 9a b9 7a c2 ec ba
       0.20939921 -0.11395176 -0.00029498627 -0.001806333
000340 a8 a1 3f 3e e5 86 0f bd 27 3c f9 3d 3b c3 22 be
       0.1871401 -0.035040755 0.12169676 -0.15894787
000350 fe 98 b7 3d 86 e4 14 be 3d de a4 3d b8 3e 27 3e
       0.08964728 -0.145403 0.08050201 0.16332519
000360 0c 5c f9 bb 55 c0 a8 bd a8 1b a7 bd ee 7c 01 be
       -0.00760985 -0.082398094 -0.08159572 -0.12645313
000370 2e 7d 82 bd 93 1f b6 3d 8f b4 61 3b cb 77 e4 bd
       -0.063715324 0.08892741 0.0034439897 -0.11155661
000380 dc 1e 0d bd 63 74 b1 3c 5b 25 fc 3c 93 66 eb 3a
       -0.034453258 0.021661943 0.030779531 0.0017959647
000390 02 ff d0 3c 1e e6 e4 3d b2 b4 03 be dd 2d b7 bd
       0.025512222 0.11176704 -0.12861899 -0.089442946
0003a0 6a 8b 7a bd 1a 1d b7 bd 55 9b 05 3e 7c f0 f2 bd
       -0.06116811 -0.089410976 0.13047536 -0.11862275
0003b0 95 ee ef bd c6 8f df bd af 95 82 bd b4 6d 48 bc
       -0.11715428 -0.109160945 -0.06376206 -0.0122331865
0003c0 13 ae f7 3d 2d 40 b2 3d a2 67 c1 3d 73 f9 cf 3d
       0.12093749 0.08703647 0.094435945 0.101550005
0003d0 27 db aa 3d eb 8d 8e 3d c1 a3 6d bd a1 a3 3f bd
       0.08342581 0.069606625 -0.058017496 -0.046786908
0003e0 e7 6b d2 3d 84 e0 41 3d 1d 31 ea bd d4 54 7d bd
       0.10274487 0.047333255 -0.11435149 -0.061848477
0003f0 7b c3 1c 3e 9e 36 16 bd 97 07 4d 3d 49 34 09 bc
       0.15308945 -0.03667318 0.050056066 -0.008374282

network_body._body_endoder.seq_layers.2.bias f4 [128]
000000 4f 2b 51 bc b6 5d 74 bd fd a3 65 bc d1 73 89 3d
       -0.012766673 -0.059659682 -0.014016149 0.06711543
000010 ed 46 93 3c 8d c4 63 ba 6e 1a 27 3d 78 4a e7 3b
       0.017978156 -0.0008688651 0.04079669 0.007058438
000020 3c 7c a8 3c ff b7 3d 3d b5 b1 66 3c 5c a5 5f bd
       0.020567052 0.04631805 0.014080455 -0.05460106
000030 3f 23 ec 3b 1a a6 ae 3c 9a 3f 76 3c f3 a6 59 bc
       0.00720635 0.021319438 0.015029812 -0.013284433
000040 c9 2a 2a bd 7b 13 90 bc 54 cb 07 3d b7 8d 3a bd
       -0.04154471 -0.017587414 0.033152893 -0.045545306
000050 8e f3 ad 3c b0 ad c4 3c 76 60 cb bd 95 93 d4 bb
       0.0212343 0.024008602 -0.09930508 -0.0064873197
000060 30 66 aa 3c 24 6f 15 3d e4 d9 cf 3c 86 f8 46 3a
       0.02080068 0.036482945 0.025372453 0.00075901335
000070 d7 64 9f 3c 86 e6 4f 3c b7 b5 c5 3a e1 80 2b 3c
       0.019457264 0.012689238 0.0015084062 0.010467739
000080 a8 58 ab 3c 70 84 51 3c 9e a1 ac bc c0 18 79 3b
       0.020916298 0.012787923 -0.021073159 0.0038009137
000090 d2 bf a3 bd dc 69 d9 bd fa 3e 19 bd ef e1 be 38
       -0.07995571 -0.10615894 -0.037413575 9.1019894e-05
0000a0 62 4d 28 3d f8 a6 77 3b 0a 74 81 3c 36 c8 aa 3a
       0.041089423 0.003778873 0.015802402 0.0013029638
0000b0 38 4d 53 3c 53 1c d1 bc f6 6b 62 bc ce fd bc 3c
       0.012896828 -0.025526201 -0.013819685 0.023070242
0000c0 40 6f b8 3c bf 6e 8c bc ea df 15 bc b8 bb 0e bb
       0.022513986 -0.017142652 -0.009147624 -0.002177937
0000d0 c7 ca 1e 3a 96 bb ef 3c bf 99 11 bd aa d6 19 3c
       0.0006057438 0.029264253 -0.035547014 0.009389559
0000e0 b8 ea 73 3c 6e 99 80 bb 6c 69 d8 bb e6 db 05 3c
       0.014887504 -0.0039245402 -0.006604364 0.008170104
0000f0 8d 1f ca 3a fa 2e 6d bb 9e fc 2e 3d e3 76 67 ba
       0.001542078 -0.003619133 0.042721383 -0.0008829666
000100 47 0f 76 3d 13 d9 2f 3d 7d c7 aa 3c 49 f3 8d bb
       0.060073163 0.042931627 0.020847077 -0.0043319804
000110 12 2f 18 3b 2e 18 80 3c 3f 27 2d bc b4 1e ef bb
       0.0023221415 0.01563653 -0.010568439 -0.0072973613
000120 2f f7 4e 3c 94 f6 4b bd 76 0f 23 3d 33 f4 e4 bb
       0.012632175 -0.049795702 0.039809667 -0.0069871186
000130 2a 63 09 3d 3e c6 d4 bc 8e 5e 16 3c e2 c6 7b 3c
       0.033541836 -0.025973435 0.009177817 0.015367242
000140 02 ca f1 3c 8e 1e ca bb 61 fb 28 bc 1d b0 b4 3c
       0.02951527 -0.006168193 -0.01031384 0.022056634
000150 c4 88 2d 3c a4 77 0b 3c 35 44 49 3c 4c dc bf 3b
       0.0105916895 0.008512411 0.012284328 0.005855119
000160 2f ca 93 3b 64 f0 5e 3c dd bb 54 3c 07 d7 7c 3c
       0.004510186 0.013607118 0.012984243 0.015432126
000170 08 b7 5d bb 28 44 0d 3d 11 66 db 3c 0b 59 91 bb
       -0.003383102 0.034488827 0.026782067 -0.0044356636
000180 3b 92 39 3c 41 65 f9 bc 10 4c c2 bc 99 75 76 ba
       0.011326368 -0.03044379 -0.02371791 -0.00094016787
000190 4e 7c 4f bd 5c 7e 06 bc 7b 20 ff 3b b0 9b e4 bd
       -0.050655656 -0.008208837 0.0077858544 -0.111625075
0001a0 35 56 84 3d c4 68 39 bd 18 27 bd 3c c4 11 8a 3b
       0.06461755 -0.045265928 0.02308993 0.0042135436
0001b0 c5 05 dd bc 7d de a2 3c c1 a1 39 3d 8b 6e d8 3c
       -0.02698029 0.019881481 0.045320276 0.026419898
0001c0 14 32 23 bd 67 4a 6b bc 29 b7 a5 3a 85 84 9f 3b
       -0.03984268 -0.014361001 0.0012643087 0.0048680925
0001d0 35 ae 81 bc 8c 62 1c 3c 73 ba 7f bd f2 9c f3 3c
       -0.015830139 0.00954498 -0.06243367 0.029737923
0001e0 87 ae a4 3c 0c ba 50 3c b4 5c 43 bd 82 7f b4 3c
       0.020102752 0.0127396695 -0.04769583 0.022033457
0001f0 96 74 01 bd 6f cf 82 bc 67 ab 0a bb 31 c2 51 3c
       -0.031605326 -0.015968053 -0.0021159293 0.0128026465

action_model._continuous_distribution.log_sigma f4 [1, 3]
000000 91 ec 2f bf 7e a5 38 bf aa fa 37 bf
       -0.68720347 -0.7212752 -0.7186686

action_model._continuous_distribution.mu.weight f4 [3, 128]
000000 02 38 90 3b 0e bd d5 3b d2 43 11 3c e1 f1 a2 3b
       0.004401208 0.006522781 0.008866267 0.004972682
000010 e6 1e ee bc 79 16 6b 3c e0 05 68 bb a2 d1 55 bc
       -0.029067468 0.01434862 -0.0035403892 -0.013050469
000020 3c 25 3e 3b 10 44 24 bc 39 9c 37 3c e9 98 c8 3c
       0.0029013893 -0.010025993 0.01120668 0.024486976
000030 81 82 c4 bb b6 a2 b3 bb 60 68 1c bc 42 b6 09 3b
       -0.0059970026 -0.005482043 -0.009546369 0.0021013175
000040 26 64 7c 3c 8c e0 7b 3c ea 77 99 3b 3c 42 87 3c
       0.015404737 0.01537336 0.0046834843 0.016511075
000050 a9 b8 0f bc b2 7b 99 3a 1e f0 4a bd 4f 23 13 bb
       -0.008772054 0.0011709838 -0.0495454 -0.0022451465
000060 ab 8e 80 bb df a0 c0 3a 3c 52 43 39 a2 fa fe 3b
       -0.0039232573 0.0014696381 0.00018627284 0.0077813426
000070 f4 4a c2 bc bc e8 86 bc fe a5 90 bb ca 10 ad bb
       -0.023717381 -0.016468398 -0.004414319 -0.0052815424
000080 3b 58 05 bc 63 48 94 bc 43 c4 1e bc c3 33 8f 3b
       -0.008138712 -0.018100923 -0.009690347 0.004370184
000090 2d 45 3d 3c 3f 44 50 bc 63 29 cc 3a a7 41 c2 bc
       0.011552137 -0.012711584 0.0015576299 -0.023712946
0000a0 6f d6 df bc fc 2f c0 bb b1 45 38 bd 56 89 66 3a
       -0.02732393 -0.005865095 -0.044988338 0.00087942684
0000b0 7b 2e 7a bc eb 2f 19 3b 62 f0 89 3b f7 f2 84 bb
       -0.015269871 0.0023374509 0.004209564 -0.004057284
0000c0 7f 73 ad bc 90 37 c8 bb 3d 71 09 3c dd 45 9f bb
       -0.021173237 -0.006110139 0.0083888145 -0.0048606233
0000d0 89 c7 41 bc bb b1 f2 ba 7d 21 2f bc dd a2 0f ba
       -0.011827358 -0.0018516103 -0.010689137 -0.00054792856
0000e0 67 a2 b7 bb 8f 32 c4 3a 69 ee e3 bc f1 7d 50 3c
       -0.0056040767 0.0014968681 -0.027823644 0.012725339
0000f0 f0 21 c1 bb 55 9a 37 bb 4f 40 20 bd 3f 61 df 3b
       -0.0058939382 -0.0028015573 -0.03912383 0.0068170126
000100 e6 33 61 bc d5 28 ab bb 8d d7 96 3a fd b8 97 bc
       -0.013745284 -0.0052233734 0.0011508331 -0.018520826
000110 fa f5 a1 3b 3b f6 f0 3c 79 89 a6 38 b6 59 3c 3c
       0.004942653 0.029414287 7.941103e-05 0.011495998
000120 3e 8f 22 bc c2 a2 c8 3c 9a 08 b1 ba 05 b1 e2 bc
       -0.009921847 0.024491671 -0.0013506592 -0.0276723
000130 6d 22 a6 3a 2d 00 d1 bb 89 1e 2f bc 77 06 7d 3c
       0.0012675055 -0.006378195 -0.0106884325 0.015443436
000140 12 f5 82 bb bb c9 ff 3b b1 62 ab 3a eb 5b 08 3b
       -0.0039965 0.0078060306 0.0013075677 0.002080674
000150 17 68 87 bc 7f c5 ed bc f8 76 89 bb 34 b9 2d bd
       -0.016529126 -0.029024838 -0.0041950904 -0.04241295
000160 30 8e cf bc 1f ce 2d bc ba d6 04 3b e4 9d ba bb
       -0.025336355 -0.010608225 0.0020269589 -0.0056950916
000170 97 c4 29 3b 8e 43 61 bc 27 61 ea bc a9 3b 22 bb
       0.002590453 -0.013749016 -0.028610779 -0.0024754799
000180 5a f7 bb bc 88 7e 1a bb ab aa d5 bb e4 e3 f5 3b
       -0.022945095 -0.0023573954 -0.0065205893 0.0075039733
000190 dc 8d 72 3b 14 24 e9 bb 4a a9 bf 3b 7b 47 48 bd
       0.0037010824 -0.0071148966 0.0058490383 -0.048896294
0001a0 e3 4f ca bc f3 bf 9f 3c e3 10 6f b9 d6 7f 33 3b
       -0.024696296 0.019500708 -0.00022799107 0.0027389429
0001b0 0b bf ae bc 45 f1 4e b9 6f 09 b4 3a 93 27 d6 3b
       -0.02133133 -0.00019735571 0.0013735722 0.0065354793
0001c0 d6 1f 89 ba bc ec 85 bc f8 7d c3 3b b3 e3 72 3a
       -0.0010461758 -0.016348235 0.0059659444 0.0009265497
0001d0 cb ae 1b 3c 2e 16 7c bc c1 a2 47 3d b7 fb 07 bc
       0.009502123 -0.015386147 0.0487392 -0.00829976
0001e0 4c 08 9e bc 70 f8 77 bb b2 3e 0e 3c 9d a2 d1 bb
       -0.019291066 -0.003783729 0.00868194 -0.006397559
0001f0 73 ff 03 3d 77 a8 82 3c ef 61 9e 3c dc 28 dd bb
       0.032226037 0.01594947 0.019333808 -0.0067492556
000200 1a 14 f6 3b 8f 72 8d 3c 8f 91 fb bb f0 18 3b 3c
       0.0075097205 0.01726654 -0.007677264 0.01141952
000210 8e 06 22 3b 41 6e 33 3c fc 0f 15 3b e7 0b b5 bc
       0.0024723145 0.01095158 0.0022745123 -0.022100402
000220 9f ce 0d 3d b8 ed 19 bc 48 21 ed bb d2 b7 0c 3c
       0.034620877 -0.0093950555 -0.0072366334 0.008588748
000230 59 72 76 bc 38 87 55 bc a5 6c c9 bc a9 ab a2 ba
       -0.015041911 -0.013032727 -0.024587939 -0.0012410778
000240 c7 6b db 3c be b2 a7 3c 12 d3 8d 3c 54 e8 28 3b
       0.02678479 0.020470973 0.01731256 0.0025773244
000250 30 d1 9e 3c ea b2 57 3c 4b f7 c6 3c 16 be 38 bb
       0.019386858 0.013165215 0.02428784 -0.0028189472
000260 a9 bf 96 3c f2 0e aa 3b 1b 9e a6 bb 09 6c 65 3c
       0.018401938 0.00518977 -0.0050847656 0.014002808
000270 43 76 3a 3c 47 f7 3a 3b 30 85 d4 3b 67 b5 ce bb
       0.011380735 0.0028528736 0.0064856037 -0.006308246
000280 88 db c4 3b 09 4e d0 bb 1b 23 0c 3b 95 c9 e9 3c
       0.0060076155 -0.0063569588 0.002138323 0.028538505
000290 d7 59 f2 3b a4 01 75 3c 31 32 15 bd 9a 23 4d bc
       0.0073959637 0.014954004 -0.03642482 -0.012520695
0002a0 d1 6f 16 3c f2 1c 57 bc d4 fc bb bc 4a 80 a8 3b
       0.009181933 -0.01312946 -0.022947706 0.0051422464
0002b0 55 8b 6c bb 1a 85 ce ba b6 d1 39 3b 3e af 04 3c
       -0.003609379 -0.001575622 0.0028353757 0.008098422
0002c0 e1 5a 80 ba 16 48 95 bc 86 65 f8 3b 2f 48 f5 3a
       -0.0009792709 -0.01822285 0.007580462 0.0018713529
0002d0 98 d6 1e 3b eb 2a cd 3b 70 2f 14 3d 95 7a a6 bc
       0.0024236795 0.0062612197 0.036178052 -0.020322124
0002e0 55 54 55 3b a0 73 04 ba bb 2d 31 bd ab a3 ae bb
       0.0032551487 -0.000505263 -0.043256503 -0.0053295693
0002f0 81 10 d3 bb 3c 0a d7 3b e6 2c 2b bc 6b 78 03 bc
       -0.0064411764 0.0065624993 -0.010447716 -0.008024315
000300 80 76 7f bc 7c 50 51 3c 71 2f 01 bc e7 97 53 3b
       -0.015592217 0.012775537 -0.007884846 0.0032286586
000310 55 a6 80 3c 00 90 d3 bb 68 4c 1c 3b 20 c3 da bb
       0.015704313 -0.006456375 0.0023849253 -0.0066760927
000320 20 7d 50 bb 24 75 c9 3c 5c 7d 39 3c df e9 b9 bc
       -0.0031812862 0.02459199 0.011321392 -0.022694526
000330 56 d8 03 3c 0a b6 e3 bb f5 da b7 bb a5 cc 16 3c
       0.008047184 -0.006949191 -0.0056108185 0.0092040645
000340 71 d2 15 3c cd 20 26 bc aa 3a fa 3c ab e6 b5 3c
       0.009144411 -0.010139656 0.030545551 0.022204718
000350 7b e8 a3 bb 25 e6 4f 3d d4 96 84 3c 70 a3 de bb
       -0.005002079 0.050756592 0.016185202 -0.0067943856
000360 fd c9 23 bc 05 26 a4 3c 5b 06 d7 3b 57 14 49 3c
       -0.009996888 0.02003766 0.006562037 0.012272916
000370 7c 51 88 bb b8 e1 bb bc 39 33 80 bb cf 04 7d 3c
       -0.0041601043 -0.02293478 -0.003912356 0.015443041
000380 23 ee e3 bc 2e dd 4d bc fa 7b fb 3b a2 bc 1d 3d
       -0.027823513 -0.01256494 0.0076746913 0.038509972
000390 24 c2 42 3c 73 e8 8f ba 38 d5 cc bb 0f 53 e9 3c
       0.011887107 -0.001097931 -0.0062510036 0.028481988
0003a0 7c 0d 01 bc b6 c8 13 bd 90 1d 92 3c 3e 5a 49 3c
       -0.00787675 -0.036080085 0.017836362 0.012289582
0003b0 ec 30 ad bb 51 71 ab bb d3 dd 2d 3c 9b a6 93 3c
       -0.005285373 -0.005232014 0.010611969 0.01802378
0003c0 70 e6 61 bc 11 8a b8 bb 88 c0 54 bc 1a aa ba 3a
       -0.013787851 -0.005631693 -0.012985356 0.0014241368
0003d0 cf b2 57 3c 1b d3 88 bb a0 c6 8a 3a 92 4c 9b 3b
       0.01316519 -0.0041755564 0.0010587759 0.0047393525
0003e0 4f 1c 90 3c 50 4e 27 3d cd 73 12 bc 8c 53 69 3b
       0.017591624 0.04084617 -0.008938742 0.0035602776
0003f0 4e 09 cc bb 2b e1 34 3d 85 66 d3 3a 51 e1 cd 3c
       -0.006226695 0.04416005 0.0016128576 0.025131853

action_model._continuous_distribution.mu.bias f4 [3]
000000 3a ef 9d bc 01 1b 59 bb b8 90 c6 bb
       -0.019279111 -0.0033127668 -0.0060597323

action_model._discrete_distribution.branches.0.weight f4 [3, 128]
000000 27 0d 6b bd 9c 93 e7 3c 30 8f 0f 3b f6 74 34 3d
       -0.05738559 0.028268628 0.0021905415 0.044056855
000010 53 bc ab bd 5d 5a 21 bb 0c 57 be bd ef a5 e3 bc
       -0.08385529 -0.002462051 -0.092939466 -0.027789084
000020 4a 64 be 3d 2e 77 ed bd ae a9 2c bd 19 f3 ce 3c
       0.09296472 -0.11594997 -0.042154007 0.025262402
000030 b0 ac a8 bd cb 67 fb bd 07 b4 75 3d b6 a8 9e bd
       -0.082360625 -0.12275656 0.05998614 -0.07747023
000040 cc b9 78 bc fc fa 9c 3d e3 bf 40 bd 3b 37 a8 3d
       -0.015181016 0.07665059 -0.047057997 0.082136594
000050 a9 16 1a be 42 bf f2 bc a3 bd 0c 3e 70 09 49 3d
       -0.15047707 -0.029632214 0.13744216 0.049081266
000060 5d 0c 9b bd 8e 10 3c bd 3d a2 a9 bd da 2f 10 bd
       -0.075707175 -0.045914225 -0.082828976 -0.035201885
000070 b5 22 4a bd 9c 0d b7 bd 9d 82 0c bd d0 f3 d5 3b
       -0.049349505 -0.08938143 -0.03430425 0.006529309
000080 c3 4f 81 bd dc aa 2c bd 6a fe 42 3d 5c 0d a6 bd
       -0.063140415 -0.04215513 0.04760591 -0.08108017
000090 84 ce 2f 3d 7d 22 b8 3d 86 3c d7 bc 0a 95 72 bc
       0.042921558 0.08990953 -0.026273977 -0.0148060415
0000a0 24 06 00 3e 37 cd 96 bd 3a 42 2b 3d 77 3f d5 bc
       0.12502342 -0.073633604 0.041811205 -0.026031239
0000b0 af 9d 75 bd 6d 43 82 3d c6 31 99 bd d1 9f 7d bc
       -0.059964832 0.06360517 -0.07480197 -0.015479998
0000c0 be 31 ea bc 44 75 2e 3d c1 18 72 bd 9b ec a5 bd
       -0.028588172 0.042592302 -0.05910564 -0.081017695
0000d0 bd 98 20 bd bb 1d 17 bd a3 cc 51 bd f8 a4 d5 bc
       -0.039208163 -0.036893588 -0.051220547 -0.02607964
0000e0 88 53 ac 3d 4b 99 fb bc d6 df 7d 3c 5d 7d fd bc
       0.0841437 -0.030712744 0.015495261 -0.030943567
0000f0 2b d8 70 3d 3f 00 84 bb 0c 01 91 bd f4 43 c7 bd
       0.058799904 -0.0040283496 -0.07080278 -0.09729758
000100 39 29 e4 bc d6 4b 86 bd 9d 74 90 bd 85 10 af 3d
       -0.027851688 -0.06557433 -0.07053492 0.08548073
000110 b9 a5 cd bd 12 9e 31 3e 92 09 a3 3d 10 7d b6 3d
       -0.10041375 0.17345455 0.0796081 0.089105725
000120 38 0a 19 bd b2 fd f4 3c 49 61 88 bd 49 51 e5 3c
       -0.03736326 0.029906128 -0.06659181 0.027992861
000130 a8 c5 45 bc e2 af 4c 3d dd 6d 19 bd 3f 06 d6 bd
       -0.012071051 0.049972422 -0.03745829 -0.1045041
000140 9d 3c a1 bd 19 79 c5 bd df 05 36 bd 91 b2 31 bd
       -0.07872889 -0.09642238 -0.044439193 -0.043383185
000150 67 56 b4 bd d2 27 d0 3d 36 b0 4c bc c5 08 f8 3d
       -0.088055424 0.10163845 -0.012493184 0.12111048
000160 9f d4 ab 3d 3b 87 ab 3d 30 3e 92 bd b1 96 6c bd
       0.08390164 0.083754025 -0.071407676 -0.057760898
000170 c8 80 46 3d fd 3a 28 bd 4d 4c 4f 3d 20 05 35 bd
       0.04846266 -0.04107188 0.050609875 -0.04419434
000180 d4 82 02 3c 6c 9f 58 bb ca 03 a2 3d 0b fe e8 3b
       0.007965762 -0.0033054007 0.07910879 0.0071103624
000190 c8 3c e3 3a 80 50 13 3d 26 6b ce bd 00 93 bd 3d
       0.001733684 0.035965443 -0.10079031 0.09256554
0001a0 33 c6 31 3e c0 ef 95 3c 15 4b 81 bd 2c 45 57 bd
       0.17360763 0.018302798 -0.06313149 -0.0525562
0001b0 d3 05 a3 3c 6a ef b4 bc f8 0d 5f 3d 98 e9 01 bd
       0.019900238 -0.022086818 0.05445668 -0.031716913
0001c0 e2 fe e1 3c 2f dd 1b 3d bb fc fd bc 55 f5 6f bd
       0.027587358 0.038052734 -0.0310043 -0.058583576
0001d0 62 3c 2e bb db 97 8d bd e5 c8 9b 3d 40 d4 17 be
       -0.0026586284 -0.0691373 0.07606677 -0.1482706
0001e0 f3 76 03 bd 4b 09 e2 bc e4 1c b1 bd 7d bc 79 bd
       -0.03209586 -0.027592322 -0.086480886 -0.060970772
0001f0 de 38 9e 3d 61 21 fe bb 62 ec c1 bd da 4e bb bd
       0.0772569 -0.007755444 -0.094689146 -0.09145899
000200 78 fa 66 3e 14 46 1a 3b be d1 51 3e 61 bd 03 be
       0.22556484 0.0023540305 0.20490167 -0.12865211
000210 17 4a 00 3e 06 95 bf bd e2 96 5b bd 5d 9c d2 3d
       0.12528263 -0.09354596 -0.05361069 0.1028373
000220 f9 15 32 bd 98 14 8f bd a1 04 0c 3e a4 9f 3c bd
       -0.043477986 -0.0698635 0.13673641 -0.046050683
000230 89 4d ab 3c e8 69 dd 3c 63 82 e1 3c fc ec 66 3d
       0.020910995 0.02702804 0.027527994 0.05637835
000240 fe b9 92 bd 5e e9 91 bc d9 bc 1c be 21 56 49 bd
       -0.071643814 -0.017811473 -0.15306415 -0.049154405
000250 08 0c e7 3d 51 97 03 be 53 b4 05 3c 93 04 39 bd
       0.11281592 -0.12850691 0.008160668 -0.045170378
000260 f7 be 77 3e e3 77 bb bc 17 3b c6 3d 04 aa 65 bd
       0.24193941 -0.022884315 0.09679239 -0.056070343
000270 09 4e a8 3d ae 65 2e 3c 71 f6 c4 bd fa 38 9f bb
       0.08218009 0.0106443595 -0.096173175 -0.004859087
000280 f0 d7 96 bd c9 ba 01 3e ec 81 46 3c 92 cd b5 3d
       -0.073654056 0.12668909 0.012115937 0.088771
000290 aa 2c 35 3d 81 c5 c7 bd dc ab ea bd 7c 30 23 3e
       0.044232048 -0.09754468 -0.11458561 0.15936464
0002a0 83 a9 00 bd a5 c7 30 3c 09 64 3e 3d bb 31 42 3e
       -0.03141166 0.010789786 0.04648212 0.18964283
0002b0 e4 e3 1b 3e d4 ba 0c 3e 74 df 06 3e c6 b5 19 be
       0.15223652 0.13743144 0.13171178 -0.15010747
0002c0 79 8b 1e 3e b3 23 8c 3b ce 7a b1 3d e4 a8 60 3e
       0.15482892 0.0042767166 0.08666001 0.21939427
0002d0 76 9c ef bd 6c bf e6 bd c8 e9 ba bd b9 0b 01 3e
       -0.116997644 -0.112669796 -0.091266215 0.12602128
0002e0 bb 00 1d bd cb 6f 06 3e cd 59 f3 bc e3 f2 02 3e
       -0.038330775 0.13128583 -0.029705906 0.12787966
0002f0 9e 13 be bc 86 d2 0f 3e cd d5 e3 bd 19 4e 88 bb
       -0.023202714 0.14045152 -0.11124764 -0.0041597006
000300 77 3d 1b bd 6b e8 0e be 32 33 ea bd 70 ce e5 3c
       -0.037900414 -0.13955848 -0.11435546 0.028052539
000310 27 1d 1a 3d 46 36 53 be 35 b1 53 3d de 48 c9 bc
       0.037625458 -0.20626172 0.05168267 -0.024570879
000320 0e c7 e5 3d 65 3b 05 bd a0 47 34 bd 0d b0 20 be
       0.11219607 -0.032527346 -0.04401362 -0.15692158
000330 91 dc cd bd c8 bb bd bd af 53 2d 3e fc 33 cf bc
       -0.10051835 -0.09264332 0.16926454 -0.025293343
000340 13 e4 14 3e ad 6a ae 3d 38 eb dd 3d 0a f2 17 be
       0.14540128 0.085164405 0.1083588 -0.14838424
000350 ee 01 11 3e b6 ba af 3a e1 9c 0f be bb 1c 1b bd
       0.14160892 0.0013407085 -0.14024688 -0.037869196
000360 2e e2 86 bc 8d 33 fa 3b dd ca e3 bd 47 b9 a5 3c
       -0.016465273 0.00763554 -0.111226775 0.020229949
000370 07 dc 56 3c 99 6e 81 3c 7f 5c 97 3d 4c 4d 3e 3d
       0.013113982 0.015799807 0.07390689 0.046460435
000380 34 03 0d 3d 82 bb 51 3d 5c 20 77 bc da 96 fa bd
       0.034426883 0.051204212 -0.015083399 -0.12235804
000390 73 03 6a bc 66 18 7c bc 1a 0e 26 3e bd 5b 0a be
       -0.014283049 -0.015386676 0.16216317 -0.13511558
0003a0 5e dd 07 be 9b 3f 80 bc c5 0b b4 bd 16 fd 39 bd
       -0.13268039 -0.01565533 -0.08791307 -0.045407377
0003b0 14 0c ef 3d 88 b6 a5 3c c9 f3 b9 3c ea 4e 22 be
       0.116722256 0.02022864 0.022699254 -0.15850416
0003c0 eb 94 f3 bc 28 fa 02 be 71 c1 fd 3d 09 45 78 3e
       -0.029734096 -0.1279074 0.12390412 0.24245085
0003d0 48 fe 6b 3d 35 25 f9 bc e0 5e ce bd 82 81 4f 3d
       0.05761555 -0.03041325 -0.1007669 0.050660618
0003e0 71 68 28 be 1b 43 b2 bb 5d 57 f0 bc b5 21 e6 bd
       -0.16446091 -0.0054401285 -0.029338533 -0.11236898
0003f0 1e bb 2f bc 50 3a 8e bd 22 3c 5c 3e 6f 5a 29 bd
       -0.010725765 -0.06944716 0.21507314 -0.04134601

action_model._discrete_distribution.branches.0.bias f4 [3]
000000 f8 cc a7 bd b5 61 96 3b 4b 96 b5 3d
       -0.081933916 0.0045892843 0.08866557

action_model._discrete_distribution.branches.1.weight f4 [3, 128]
000000 31 19 cc 3c 7b fb 54 bd 23 25 3a 3c ed bd 88 3d
       0.024914356 -0.051997643 0.011361393 0.066768505
000010 1e 27 20 3d d1 94 1e 3d ad 96 ca 3c c0 b8 1d 3d
       0.039099805 0.03871614 0.024730051 0.03850627
000020 cd 1d 02 bc bd 2f ca 3c 4e 1c 02 3d e0 f9 9a bd
       -0.007941675 0.024680967 0.031765275 -0.07567191
000030 9d 67 0d 3c 2b 16 48 3c 40 a1 b7 3d 6f 78 2a 3d
       0.00863066 0.0122123165 0.08966303 0.04161876
000040 98 a9 0f be 7e 2d 94 bd f7 ce 6f 3d 01 62 f2 bc
       -0.14029539 -0.072352394 0.058546986 -0.029587748
000050 13 a2 d2 3b 8e 6c 2c 3c f4 6a 6a 3d a2 38 af bb
       0.006428012 0.010523928 0.057230905 -0.0053473273
000060 e1 57 9b 3c 15 02 94 3d 6f 26 af 3c 98 39 29 3d
       0.018962802 0.072269596 0.021380631 0.04131469
000070 ab c7 37 3d 8c 70 cb 3c bc 9f cf 3c 7c c8 13 3d
       0.044868153 0.02483394 0.025344722 0.03607987
000080 1e 19 d6 3c fb 18 9b 3c e0 16 9b bc 54 b2 8a 3d
       0.026135024 0.01893281 -0.018931806 0.06772295
000090 27 d3 2d bd 15 1c 06 3c b9 23 ea bd 4f 12 fe ba
       -0.0424377 0.008185406 -0.11432595 -0.0019384118
0000a0 22 ee b8 bd 4a de ce 3c 4f 2b ef bc a8 01 a3 3c
       -0.09029795 0.02525248 -0.029195456 0.01989825
0000b0 77 d0 90 3b 77 95 48 3b 29 e8 6c 3d a5 40 d2 3c
       0.004419382 0.0030606666 0.057838593 0.02566559
0000c0 cd 3a 02 3d 23 41 70 3c ac 91 a1 3d 69 dc a0 3c
       0.031794358 0.014663967 0.07889113 0.01963635
0000d0 7d f1 ee 3c 07 bf 1a 3d b0 e2 bd bd 65 9b a1 3c
       0.029167885 0.037779834 -0.09271753 0.019727418
0000e0 94 ee b1 bd 3f 0f 0d 3d 58 cc f1 3c 5e a9 99 3c
       -0.08688083 0.034438368 0.029516384 0.018757518
0000f0 3c 68 1a bd d2 37 d4 3c 5a bf 87 3c 88 99 cf 3c
       -0.037697062 0.025905523 0.016570736 0.025341764
000100 63 43 ee bc 48 b0 1d 3d 45 a1 ce 3c 63 01 1e bd
       -0.029084867 0.038498193 0.025223384 -0.03857554
000110 c6 fd 42 3c 62 22 8c 3d bd 4c 40 bd 2e 8a f4 bc
       0.011901325 0.068424955 -0.046948183 -0.029851045
000120 cc 7f 54 3d 5f b1 28 bd 61 3b 27 3d e8 9f 6e bd
       0.05187969 -0.04118478 0.040828113 -0.058257967
000130 f8 6a 2a bc cc 53 2c bc 96 60 2a 3d 8a 27 5b 3d
       -0.01040148 -0.010518026 0.041596018 0.053504504
000140 be 9f 04 3d 39 3c b1 3c 09 4e 95 3d 76 86 02 3d
       0.032378905 0.021635162 0.07290275 0.031866513
000150 09 fa 81 3c a5 f6 07 be 5c 28 67 3d 0c 03 3b bd
       0.015866296 -0.13277681 0.056434974 -0.045657203
000160 c1 6c ff 3b 5b 5c 54 bd c1 ec 17 3d 65 43 31 3d
       0.007794947 -0.05184589 0.03709102 0.043277163
000170 57 1e df bc e1 ae 0e bd 43 f3 86 bb 4f f4 99 3d
       -0.027236147 -0.034834746 -0.0041183545 0.07517301
000180 71 58 01 bc f3 e8 5b 3d 04 41 2b bd ef 29 25 3d
       -0.007894621 0.053688955 -0.04181005 0.040323194
000190 94 92 ee bd 5a 91 d4 3b cb 3b b7 3c 52 4b 47 3d
       -0.11649051 0.006487054 0.022367379 0.048655815
0001a0 07 6f 9e bd a5 fc b0 bd 2c 2a 3d 3d 67 e0 0d 3d
       -0.077360205 -0.08641938 0.046182796 0.034637835
0001b0 c9 9b 8b 3b 8f b1 9d 3c 7e 5b 47 3c 60 ad 7e 3d
       0.0042605144 0.019249706 0.0121678095 0.062177062
0001c0 26 49 43 bd 48 70 9e bd d8 90 18 3a 8c bd 94 3c
       -0.04767718 -0.0773626 0.0005819923 0.01815679
0001d0 a8 74 2b 3d c2 1d ea 3c 8a fa f9 3d e0 be 03 3d
       0.0418593 0.028578643 0.1220599 0.032164454
0001e0 96 42 dd bd a1 32 b4 3d 79 7a 26 be 90 51 4b 3d
       -0.10803716 0.08798719 -0.16257657 0.04963833
0001f0 3b a8 a2 bc 1a 08 d5 bc 92 ee 49 3d ec 5b 48 3d
       -0.01985561 -0.02600484 0.049299784 0.04891579
000200 9f f3 09 bd 73 19 0d 3c 62 d7 04 bd 2b dc 91 be
       -0.0336796 0.008612025 -0.032431968 -0.28488287
000210 1c 44 8b bd 8e 78 4b 3d 34 2c 3b 3d a2 92 c3 ba
       -0.068001 0.049675517 0.045696452 -0.0014921019
000220 07 d9 f2 3d 8f ad 79 3d 9c 64 36 be 54 39 0e 3d
       0.11857801 0.060956534 -0.17811817 0.03472264
000230 5f 28 5c 3d 9a a0 19 3d e7 0e d6 3c 38 13 58 bd
       0.05374944 0.037506677 0.026130153 -0.052752703
000240 e7 d1 75 3d a2 42 2c 3e b2 43 16 bd ff c8 62 3c
       0.06001463 0.16822293 -0.036685653 0.0138418665
000250 dc a5 c9 3c e4 13 3c be 52 09 fa bc 9e 31 d5 3c
       0.02461522 -0.18366963 -0.030522022 0.026024636
000260 d2 47 f3 bd ef a4 b7 bd 93 a5 56 be 21 d6 6e bd
       -0.11878933 -0.089670055 -0.20961599 -0.058309678
000270 43 9a 00 bc 54 57 a2 bc e8 70 60 bd 89 de 95 3d
       -0.007849279 -0.019817032 -0.054795176 0.07317836
000280 c0 94 a6 bd 7d 2e 2d be fa 09 51 3d 7a 49 06 be
       -0.081338406 -0.16912265 0.051034905 -0.13113967
000290 9d 10 28 bd 75 a2 8b 3c 73 07 2a 3d 40 4a 29 be
       -0.04103147 0.017045239 0.04151101 -0.1653223
0002a0 52 70 23 3e 79 bf 22 3d f7 9f c7 bb 1e ed dd bd
       0.15960816 0.039733384 -0.0060920673 -0.10836242
0002b0 d3 09 d6 bd cf a3 e9 3a 2e a1 2d 3b 78 d8 52 3d
       -0.104510926 0.0017825308 0.0026493776 0.051475972
0002c0 7a c7 39 be 9f 63 ae 3d e0 cb 3d bd ea 4e a0 bd
       -0.181425 0.08515095 -0.04633701 -0.07827552
0002d0 05 25 bc 3a 6c cc 7b 3b ff 47 9a bc ff 3d 73 3d
       0.0014354294 0.0038421405 -0.018833159 0.059385296
0002e0 ce 23 05 3e c6 7c 6b bd 8c 7f 04 3e 1e b0 07 be
       0.1300194 -0.05749204 0.1293928 -0.13250777
0002f0 d1 60 d5 3b 45 94 5b bd 54 f6 05 3d f5 97 fb 3b
       0.0065117856 -0.053608198 0.03270562 0.007678027
000300 5c dd 54 be 12 77 8d bb 48 3c ca 3c 44 05 16 3d
       -0.20787567 -0.004317173 0.024686947 0.036626115
000310 0e 97 83 bb 77 55 6d 3d 2a b7 fa 3c 7d 7a ea 3c
       -0.00401581 0.057942834 0.030604918 0.02862286
000320 ff c9 e0 3c 71 50 60 3c 73 b3 19 3d d0 e7 db 3d
       0.02744007 0.013691054 0.03752465 0.10737574
000330 c5 de 80 be a3 2e 1f 3d 12 03 c0 bd 55 49 ce 3b
       -0.2516996 0.038862836 -0.093755856 0.006295363
000340 b2 e7 36 be 4d 9f ff ba bc 88 cf bc 0a 73 4f bc
       -0.17861822 -0.0019502431 -0.025333755 -0.012661705
000350 2b 8b 98 bb 62 91 7b 3e e1 c2 23 bd 1b b4 85 3d
       -0.004655262 0.24567178 -0.039980773 0.06528493
000360 ee ce 9a bc ff f9 88 3d 8d ae 2c bd 2e a6 79 bd
       -0.0188975 0.06688308 -0.042158652 -0.060949497
000370 fc e7 d5 3c 24 d0 0b 3e 96 6d 47 be 44 2c f0 bc
       0.026111595 0.13653618 -0.19475397 -0.029317982
000380 a0 ac 67 bd 3c 04 62 bc f2 d1 a7 3c 23 c2 11 be
       -0.056561112 -0.013794955 0.020485852 -0.14234214
000390 d0 5c 4b bc 1c 9f 06 bd 32 c2 5c 3d 9c 99 a2 bd
       -0.012412265 -0.032866582 0.053896137 -0.07939455
0003a0 d3 bf a6 3e 3b cf 27 3d a1 b1 91 3a 44 3b 4e bd
       0.32568225 0.040969115 0.001111556 -0.05034949
0003b0 b5 34 ce bd 12 00 b8 3d d7 07 e7 3d ed ce 8c bc
       -0.10068647 0.089843884 0.11280792 -0.017188514
0003c0 98 e1 c4 3c e4 65 e8 3d 53 78 a5 bb 68 db bd bd
       0.024033353 0.11347559 -0.005049744 -0.09270364
0003d0 c7 6d 9c bd 47 b4 f7 bb 22 99 3b be 6a e9 19 3d
       -0.07638126 -0.0075593325 -0.18320134 0.037576117
0003e0 e0 f2 b5 3d c6 1e 17 be e2 0a aa 3d f2 e3 e2 bc
       0.08884215 -0.14757833 0.08302857 -0.027696583
0003f0 8d 2d d9 3c 35 57 c9 bd 34 3f 20 bd 81 02 99 bd
       0.026510978 -0.098310865 -0.039122775 -0.07471181

action_model._discrete_distribution.branches.1.bias f4 [3]
000000 e5 a2 04 3d dc 61 e3 bc 2d a9 27 bd
       0.03238191 -0.027756624 -0.040932823

action_model._discrete_distribution.branches.2.weight f4 [2, 128]
000000 5d 42 37 3d 68 a4 06 bc 3d 5a 28 3d 3b 9c 5c bd
       0.044741023 -0.008217908 0.041101683 -0.05385993
000010 2c ef 6f 3d 1c 70 c0 bc 7e f8 f3 bc 19 a7 9d 3d
       0.0585777 -0.023490958 -0.029781576 0.07697887
000020 f3 06 dc bc 0a a6 f5 3c 7f d2 3d 3d 43 85 87 bc
       -0.026858782 0.0299864 0.046343323 -0.016543036
000030 40 30 81 3d 2e c1 49 3c e4 36 1f 3c c4 78 3e 3c
       0.06308031 0.012314124 0.009717677 0.011625472
000040 a1 7b d1 3c 22 4b d9 bc 96 de 9e bd b8 8e ec 3a
       0.025571646 -0.026525084 -0.07757299 0.0018047905
000050 2d 62 83 3d 96 ac d7 bc d4 c3 82 bd 87 f3 32 bd
       0.0641521 -0.026327413 -0.063850075 -0.043689277
000060 6c 4e 25 3d b3 92 31 3d a2 6c 02 bd 3f 86 47 3c
       0.040357992 0.043352794 -0.03184188 0.012178003
000070 5b f6 6d 3d 3d 75 d6 bc 7e 99 84 bd aa 23 3f 3c
       0.05809627 -0.02617895 -0.06474589 0.011666218
000080 c3 5f 35 bd 82 c1 aa bc c9 4b 4a 3d 36 8a 52 3d
       -0.04428078 -0.020844225 0.04938868 0.05140134
000090 d4 92 bc 3d a3 48 63 bd 34 bb e0 bc 35 79 fe 3c
       0.09207693 -0.055489194 -0.027433015 0.031063655
0000a0 94 95 1e bd db 83 8c 3c ea 63 67 bc df e9 86 3d
       -0.038716868 0.017152717 -0.014122942 0.06587576
0000b0 de 1f 84 3d 38 e8 e1 3c 83 98 f4 3c 1d 49 e2 3b
       0.06451391 0.02757655 0.02985788 0.0069056884
0000c0 7f b8 ba 3c 35 65 99 bc e8 6f 91 3d 97 32 b8 3c
       0.022793053 -0.018725017 0.071014225 0.02248506
0000d0 37 b9 0b bc 49 28 a9 bd 0b 48 2c 3d 46 92 a0 3d
       -0.008528045 -0.08259637 0.042060893 0.078403994
0000e0 31 97 75 bd f9 d6 69 3d 7f 2c 1a bb 5c 06 6f 3d
       -0.05995864 0.05708978 -0.0023525057 0.058355674
0000f0 20 e3 e5 bc 86 a8 90 3d 46 44 1e bd 95 ba 8f 3c
       -0.028062403 0.07063393 -0.03863933 0.017545024
000100 41 fe 4b bd 32 18 e3 bd 8f f6 ad bd 2b db 96 3c
       -0.049803022 -0.11088599 -0.08494293 0.018415054
000110 0d 2a 99 3d f4 f0 a5 bd f3 c3 2b 3c 20 ae 53 bb
       0.07478724 -0.08102599 0.01048373 -0.0032299832
000120 8b 28 86 3d fd da 4c bd fa ca 8b bd 24 6c 02 3b
       0.06550702 -0.05001353 -0.06825824 0.0019900883
000130 ff 5d 15 bc 31 a7 6b 3c 11 92 20 3d ae 63 16 bd
       -0.009116649 0.014383123 0.0392018 -0.036716156
000140 ea dd 0b 3d b4 fb 13 3d 8e bc 34 3d 39 52 ba bd
       0.03414718 0.036128715 0.044125132 -0.09097714
000150 4e 9f 4d 3d 44 b0 c0 3d b1 b3 59 bc 0d 31 55 bb
       0.050200753 0.0940862 -0.013287471 -0.0032530457
000160 b8 29 09 3c a3 43 a0 3c d6 b5 6e bd 7c 77 d3 3c
       0.008371763 0.019563502 -0.05827888 0.02581381
000170 ad e6 87 bb 38 1b 93 bc 2a 47 05 bd 54 41 82 3d
       -0.0041473717 -0.017957315 -0.03253857 0.063601166
000180 41 be 27 bd ae 0f d9 3c 08 11 a8 3c 8d 79 93 bb
       -0.040952925 0.026496734 0.020515934 -0.004500574
000190 2f 91 84 3d 0b 97 14 39 9a fe 06 3d 0a fb bf bd
       0.06473004 0.00014170648 0.03295765 -0.09374054
0001a0 2e 40 1a bc 37 12 bd bc c3 ff c0 bd eb 69 1a bc
       -0.009414716 -0.023079975 -0.09423783 -0.009424667
0001b0 bc 8a 37 bc 99 94 93 3b 15 27 de bc 9f 6b 87 bd
       -0.01120251 0.004503798 -0.027118245 -0.06612324
0001c0 d8 f0 88 bc 27 79 93 bc 96 3c 64 3d ff 22 1c 3d
       -0.016716406 -0.018002106 0.05572184 0.038119312
0001d0 c1 a1 7f 3c cd f6 b6 bc 24 3c c5 bd f9 56 18 3d
       0.01560253 -0.02233448 -0.096306115 0.03719232
0001e0 4d 51 18 bc a6 5b 21 3d 98 d3 8f 3d e5 50 4d bd
       -0.009296727 0.039394043 0.0702278 -0.050125975
0001f0 8c 9d 6a ba 37 1b f0 bc 27 e9 d9 3c 89 64 3c bb
       -0.0008949868 -0.029309852 0.026600434 -0.0028746447
000200 33 19 21 bd f9 e5 7a bc f8 ca 5d bd fa 06 68 3d
       -0.039330672 -0.015313619 -0.054148644 0.05664728
000210 d9 79 86 bd ee cc f8 3c c4 00 2e 3d ea 94 93 bd
       -0.06566209 0.030371156 0.0424812 -0.072061375
000220 c8 65 23 3d 6e 3b 90 bc de 5b a1 bc fd 30 d9 3c
       0.039891988 -0.017606463 -0.019697126 0.026512617
000230 c6 b6 75 bd eb 34 f4 bb 43 85 a8 bc 8e 3a 69 3b
       -0.05998876 -0.0074525974 -0.020571357 0.003558788
000240 e5 1d 1a bd 48 6d 84 3c d9 50 75 3d b0 8f 00 bb
       -0.037626166 0.01616539 0.059891555 -0.0019616894
000250 e6 2f 8b bd c2 0d 09 3d 6a b1 96 3d 64 4f 98 3d
       -0.06796245 0.033460386 0.07358058 0.074370176
000260 1b 23 1f bd 2e d9 33 bd 9a ed a4 bb 89 c4 1c 3b
       -0.03885184 -0.04390829 -0.005033207 0.0023920855
000270 8a b5 67 bd 06 1f 04 3d 74 89 86 3d 4d ea 7b ba
       -0.056569614 0.03225615 0.06569186 -0.00096098037
000280 9c 0a 5f 3d d9 25 45 3b 29 8e 17 bd 7d 2c 4d bd
       0.054453477 0.0030082373 -0.03700081 -0.050091255
000290 81 e3 ab bd c2 2a 40 3d c3 b2 12 3d 84 5f dd bc
       -0.08393002 0.046915777 0.03581501 -0.027023084
0002a0 80 4f 19 3d ed 8d 53 bc 01 a1 c8 3c 80 aa 9b bd
       0.037429333 -0.012912256 0.024490835 -0.0760088
0002b0 e9 59 48 bd e2 49 a6 bc 14 ab 2e bd 1a f6 37 bc
       -0.04891387 -0.020298902 -0.04264362 -0.011228109
0002c0 74 a6 c6 bc 9b 28 11 3c 3e 35 3b bd 82 44 16 bc
       -0.024249293 0.008859779 -0.045705073 -0.009171607
0002d0 bf f0 e6 3b 5b a4 a1 3d e5 43 f1 bc 89 1e a6 bd
       0.007047742 0.078926764 -0.02945132 -0.08111293
0002e0 0a d6 7a 3d 96 3d 7d bd b2 59 1f 39 69 3a 6a bd
       0.06123928 -0.06182631 0.00015196836 -0.05718461
0002f0 1a e8 2c 3d b2 5e bb bd 70 2b 0f 3d cf c0 04 bd
       0.042213537 -0.09148921 0.034953535 -0.03241044
000300 69 68 f9 3c 74 d0 cc 3d 92 7f 8c 3d 23 c3 48 bb
       0.030445294 0.10000697 0.068602696 -0.0030633889
000310 b3 a9 85 bd fe 8e a3 3d ff 9a 43 bb 6e 5c 23 3c
       -0.06526508 0.07986258 -0.0029847024 0.009970767
000320 f5 65 67 bd ef f7 d3 3c bc 31 ba 3d 86 6c 08 b9
       -0.05649372 0.02587506 0.09091517 -0.00013010399
000330 cc 64 89 3a 09 0c 91 bc ef f7 41 bd 42 b6 16 3d
       0.001048231 -0.017705934 -0.04735559 0.03679491
000340 02 d6 0c bd 96 f2 2d bd 16 18 42 bd d4 ce c2 3d
       -0.03438378 -0.042467676 -0.04738625 0.095121056
000350 fa c7 20 bd 79 3b c0 bd 1a c3 74 3c aa 57 96 bc
       -0.039253213 -0.093863435 0.014939094 -0.018352348
000360 ff 93 8c ba 36 66 3f bc 85 38 4c 3d ec 72 05 bd
       -0.0010725259 -0.011682084 0.04985859 -0.0325803
000370 a4 c5 26 bb 5e 13 c5 3c 58 f0 63 3d c5 aa 4e bd
       -0.0025447393 0.024057087 0.05564913 -0.050455827
000380 03 04 47 3d 5f 87 cf bc 9b 35 9f bb c7 1c d6 3b
       0.04858781 -0.025333105 -0.004858685 0.0065341922
000390 c1 2f 25 bd f9 21 44 3b 23 62 4a bd 2e 00 b9 3d
       -0.040328745 0.0029927476 -0.049409997 0.090332374
0003a0 38 0b 14 3c 19 f3 fa 3c 0a 87 f5 3d 9f c7 85 bb
       0.009035878 0.030633496 0.11988647 -0.0040826346
0003b0 b1 63 0d bc 90 bf f8 bb 33 1f fa 3c af 92 98 3d
       -0.008629725 -0.0075911954 0.030532455 0.07449853
0003c0 77 71 b8 bb 88 dc 7b 3c 67 f3 74 bd 69 6d 25 bd
       -0.0056287604 0.015372403 -0.05980244 -0.040387545
0003d0 36 28 01 bd 43 da ec 3c 32 5c c7 3d bd 00 0f bd
       -0.03153249 0.028912669 0.09734382 -0.034912813
0003e0 d1 ce 1b 3c e3 45 32 bd 20 f3 9f bd 46 d5 8c 3d
       0.009509758 -0.04352368 -0.07810044 0.06876616
0003f0 44 e1 b4 3b 65 52 c1 3c 62 df 07 bd 57 c9 4d bc
       0.005520018 0.02359886 -0.03317202 -0.01256021

action_model._discrete_distribution.branches.2.bias f4 [2]
000000 ff 10 8d bc fd 10 8d 3c
       -0.017220018 0.017220015
