results/DodgeAgentBulletsTest11_Improved6/Dodge/checkpoint.pt (torch, 538935 bytes, 40 tensors)

discrete_act_size_vector f4 [1, 2]
000000 00 00 40 40 00 00 40 40
       3.0 3.0

network_body._body_endoder.seq_layers.0.weight f4 [128, 36]
000000 f0 72 ea be 0f df 54 bf 52 dc 8a be 05 ab 84 be
       -0.45790815 -0.8315286 -0.27121216 -0.25911728
000010 a1 46 67 bf 90 b5 a0 bf 0a 4f 69 be 79 e8 28 3d
       -0.90342146 -1.2555408 -0.22784057 0.04123733
000020 c3 f0 80 bf 94 25 ac bf ff c0 08 bf 66 89 10 3d
       -1.0073475 -1.3448968 -0.5341949 0.035287283
000030 40 1c 5e be 5f 62 9f bf 48 5c 58 be 2a 34 28 3f
       -0.21690464 -1.2451895 -0.21128953 0.65704596
000040 a7 c4 60 3c a7 ca 37 bf 15 f6 24 3e 24 4d 3c 3f
       0.013718761 -0.717936 0.16109498 0.7355521
000050 4e ff 71 be a4 8c 9a bf 79 bc 07 bf de 19 09 3f
       -0.23632547 -1.207417 -0.5302196 0.53555095
000060 8a 01 57 bf a6 01 6f bf fa 9b d4 3e d2 fc df bd
       -0.83986723 -0.9336189 0.4152525 -0.109368935
000070 64 5e f4 be 32 61 17 bf 84 6f 4b bd 07 98 d4 be
       -0.47728264 -0.59132683 -0.049666896 -0.41522238
000080 d7 47 5f 3b d3 58 a8 be ca a7 06 3d ec f6 3e bd
       0.003406992 -0.32880268 0.03287486 -0.0466222
000090 fc 40 93 3e 35 40 45 3d cd a5 9f be 5b d0 62 3e
       0.28760517 0.048156936 -0.31181183 0.22149794
0000a0 db 40 11 be ee 95 7b be a6 41 96 be 17 6c 78 bd
       -0.14184897 -0.24568912 -0.2934696 -0.060649958
0000b0 45 31 11 3e dc 8c 15 be 8c 67 6f 3e eb 0f f1 bd
       0.14178951 -0.14604515 0.23379344 -0.11770614
0000c0 ca ce 94 be 1a ba fc bd 29 53 b1 bd 10 2a 01 3e
       -0.29064018 -0.123401836 -0.0865844 0.12613702
0000d0 d7 f8 99 be 5e 3f 33 be 16 c2 cd bd c8 fe 03 3e
       -0.30072662 -0.17504641 -0.100467846 0.1289016
0000e0 12 2b 8b bb d9 6a a6 be 42 27 c0 be c4 5e 1c be
       -0.0042470777 -0.32503393 -0.3752995 -0.15270525
0000f0 7f 91 98 be 1a 68 ae bd 51 76 fd be 1a 99 ec be
       -0.29798505 -0.085159495 -0.4950433 -0.46210557
000100 53 0a 2f bf 64 03 e1 bd 61 84 81 be ac d2 ac be
       -0.6837513 -0.10986975 -0.2529631 -0.3375448
000110 3d ac 25 bf 3b 17 fc be 34 03 ee bc e8 92 89 be
       -0.6471594 -0.49236473 -0.029054262 -0.26869893
000120 7e 32 9d be 93 91 f6 be 0a 79 91 be 46 8e 8a bd
       -0.30702585 -0.4815794 -0.28412658 -0.06765418
000130 07 52 61 be bf f9 0f bd 07 b5 80 bc b2 30 8b be
       -0.22003947 -0.035150286 -0.01571132 -0.2718559
000140 08 9f b3 bd 61 95 d0 3d b7 7d fd 3d be e5 6f 3d
       -0.08770567 0.10184742 0.12377494 0.05856871
000150 a0 99 11 3e 29 1c 2a 3e 9e 62 24 be 5b 20 4d be
       0.1421876 0.16612305 -0.16053244 -0.20031874
000160 04 ce 1e 3f 08 de 12 3f 81 72 f3 3d 75 25 7c bd
       0.62033105 0.5737004 0.11887074 -0.06155916
000170 18 90 b5 3e ad 6a 72 3e f6 7e 85 be a0 c1 00 3d
       0.35461497 0.23673506 -0.26073426 0.031434655
000180 a6 d6 c5 bd e3 30 6c 3e 91 2b 92 be 40 ea 93 be
       -0.096600816 0.23065524 -0.28548864 -0.28889656
000190 cb fd 5e 3e 94 04 f5 bd 48 f9 44 be 00 7a 04 3e
       0.21776502 -0.11963764 -0.19235718 0.12937164
0001a0 ab e8 85 be 72 40 aa 3c ad bb 9b bd df 1e d1 be
       -0.26154074 0.020782683 -0.07604156 -0.40843865
0001b0 16 69 31 be 1b c6 7a 3d 20 96 af 3d ca 77 60 3e
       -0.17325243 0.061224084 0.08573556 0.21920696
0001c0 8d 90 9f be e2 67 3d bf a3 48 ae 3e c2 b8 71 3f
       -0.3116497 -0.7398664 0.34039792 0.94422543
0001d0 c8 b5 02 be ad 08 38 bf e9 03 01 3f c2 ad 94 3f
       -0.12764657 -0.7188824 0.5039659 1.1615527
0001e0 28 1d 7b 3b 0f 5b e7 be 0c 94 d3 3e 1f 3c 83 3f
       0.003831694 -0.4518666 0.41323888 1.0252723
0001f0 83 e6 bc 3e 16 d7 e2 be b6 0e d8 3d 49 f2 76 3f
       0.36894616 -0.44304723 0.10549681 0.9646345
000200 a5 38 e2 be 1c fa 89 bf 5d 23 06 3e ab e7 1b 3f
       -0.4418384 -1.0779452 0.13099428 0.6090037
000210 e4 dd 2f be e2 00 9e bf d6 3c 93 3d 82 59 8e 3e
       -0.17174488 -1.234402 0.07189338 0.27802664
000220 4e e2 84 be bb ca 4c bf 77 fc 66 3d f4 5b 9e bc
       -0.25953907 -0.7999684 0.056393113 -0.019330956
000230 05 4b b5 3c 13 24 6f bd 25 87 cb 3c 1a dc c9 3c
       0.022130499 -0.058384012 0.024844715 0.024641085
000240 01 a1 8f 3e 8e 23 c1 3e 70 52 58 3c 9d c4 ac 3e
       0.28052524 0.3772244 0.013203248 0.33743754
000250 a3 8c 15 3f 47 61 71 3f 00 dd 3d be c6 8a 9c be
       0.5841772 0.9428906 -0.18541336 -0.30574626
000260 4c ba 7a 3c ed 60 92 3f c9 08 a9 be 42 f1 ea be
       0.015303206 1.1435829 -0.33014515 -0.4588719
000270 eb f0 9c 3e d6 8e 75 3f 23 b8 16 be ea e7 53 bf
       0.30652556 0.95921075 -0.1471868 -0.8277575
000280 93 50 32 3f 56 cb 01 3f 96 22 2d be e3 de 8c bf
       0.69654197 0.5070089 -0.16907725 -1.100552
000290 43 37 9f 3e 5d 84 c3 3e 96 60 16 bd ba fb 37 bf
       0.3109685 0.38186923 -0.036713205 -0.7186848
0002a0 15 8b 12 3f d3 f7 5d 3e ac 8d b3 bd 41 05 35 bf
       0.5724347 0.21676569 -0.08767256 -0.7071114
0002b0 6e 10 26 3d 00 42 38 be ff 5e 23 be 25 d6 f4 be
       0.040543012 -0.17993927 -0.15954207 -0.4781963
0002c0 d2 0b 8b bd af c4 d3 be 6c 77 0a 3d fc 65 c9 bd
       -0.06789364 -0.41360995 0.033805296 -0.09833905
0002d0 ce 98 e5 be 94 b4 f6 be 48 76 86 be a7 70 51 bf
       -0.44843143 -0.48184645 -0.26262116 -0.8181252
0002e0 c4 6e 11 bd ff 88 93 bf eb ad 6f 3d 90 8d a7 be
       -0.035506025 -1.1526183 0.05851547 -0.3272519
0002f0 06 34 9b be c6 ce 9d bf cc 4d e9 be a1 c4 5e 3e
       -0.30313128 -1.2328727 -0.45567167 0.21754695
000300 4e dc c8 be 6b 8c 9d bf 32 bd 09 3d f0 b0 88 3e
       -0.3923058 -1.2308477 0.033627696 0.26697493
000310 7b 20 23 bf 94 f4 53 bf 6f 98 d0 3d 7b d2 9b 3d
       -0.63721436 -0.8279507 0.101853244 0.07608505
000320 5c d3 61 bf 98 17 3d bf a5 f4 0e bd 4c b2 a9 3e
       -0.88213134 -0.73864126 -0.03490128 0.33143842
000330 04 b3 cc be 97 2e 20 bf 7c a9 4b 3e fe 73 53 3e
       -0.39980328 -0.6257109 0.19888872 0.20649716
000340 9e 07 2d 3e 06 61 df be f3 69 7f 3e ff 6a ad bc
       0.16897437 -0.4362871 0.2494276 -0.021169184
000350 1b 8f aa 3e 44 e8 83 3e e2 a8 e5 3c db b6 81 bd
       0.33312306 0.25763142 0.028034631 -0.06333705
000360 ff 8b 02 be c6 26 d4 bd 6b c0 5b 3e 33 db f4 3e
       -0.12748717 -0.10358958 0.2146012 0.47823486
000370 74 b3 aa be 6e 4c fa bd fd 5b 92 3e 6e be 1b 3e
       -0.33340037 -0.12221609 0.28585806 0.15209362
000380 f7 6b 29 be 02 25 81 3e 30 8f 02 3e d9 31 68 3e
       -0.16545092 0.25223547 0.12749934 0.22675265
000390 2c 21 2e be de 59 c7 be bc f6 d1 3e 75 d7 07 3f
       -0.17004842 -0.3893575 0.41008556 0.53063136
0003a0 a7 03 92 bd 5c c2 f0 be 9b 93 8a be fd 7e f0 3d
       -0.07129603 -0.47023284 -0.2706574 0.11742971
0003b0 9e fe 8e be 6d 54 53 be 83 5c c5 be a4 60 71 bc
       -0.27928632 -0.20637675 -0.38547143 -0.014732514
0003c0 76 40 ec bc 86 7c 94 be d6 95 78 be d5 2d e1 be
       -0.028839331 -0.29001254 -0.24275908 -0.4398028
0003d0 f7 46 c5 3d b0 c2 f0 be ed 47 d4 3d 60 70 a0 be
       0.09632676 -0.47023535 0.10365281 -0.31335735
0003e0 82 60 fa be 44 94 6f be 3f 5c bc bd 4f f9 ff bc
       -0.48901755 -0.23396403 -0.09197282 -0.03124681
0003f0 4c 07 fd 3d a4 6e 35 bb c0 dd fd be b3 9a e6 be
       0.123549074 -0.0027684355 -0.49583244 -0.450399

network_body._body_endoder.seq_layers.0.bias f4 [128]
000000 83 34 a5 3e ad ab 9b bd 90 87 a5 3d 89 2f cd 3e
       0.32266626 -0.07601104 0.08082497 0.4007533
000010 cf 8b 13 be c3 2d 3d be 72 44 7c 3d d9 22 52 3e
       -0.14408801 -0.18474488 0.061588712 0.20521106
000020 a8 94 71 be 86 ff 54 3e ee e9 b6 bd 03 44 15 bd
       -0.23591864 0.208006 -0.08931337 -0.036441814
000030 4b 1d 04 be f6 65 60 be 36 4e ab be 6c 3e 19 bf
       -0.129018 -0.21913895 -0.33458108 -0.59860873
000040 7e a9 5e bd 0c 63 b7 bd c7 c0 d5 3d 0a e5 f8 bd
       -0.05436086 -0.089544386 0.1043716 -0.12153061
000050 ab 8e 2a be 17 bd 24 be fa 31 c6 3c 25 e9 d7 3d
       -0.16655986 -0.16087757 0.024193753 0.10542516
000060 dd 61 31 be c7 86 22 be b6 a7 71 3e 63 5c fe 3c
       -0.17322488 -0.15871726 0.23599133 0.031049913
000070 45 7f ab be 55 1d b5 be f7 13 bd 3d 68 d5 1e 3e
       -0.33495536 -0.3537394 0.092323236 0.15511096
000080 ad 87 0f be e0 22 b2 3d c1 fa 05 3b b7 24 8b be
       -0.140166 0.08698058 0.002044365 -0.2717645
000090 e9 0f c1 3c 04 d6 e3 3c 0c 5d 92 3d 29 3d 32 3e
       0.023567157 0.027812012 0.071466535 0.17406143
0000a0 be 22 5b be bd 08 48 3c 11 fe 8c bd 76 a8 34 be
       -0.21399972 0.012209115 -0.06884397 -0.17642388
0000b0 2b fa 57 be d0 57 1d be be 2e ca bd 15 3c c2 bc
       -0.21091525 -0.15365529 -0.098721966 -0.02371029
0000c0 8d 9a f9 3d b2 0b 4e 3c d6 f1 aa 3d 7e 32 5c 3e
       0.12187681 0.012576031 0.08346908 0.21503636
0000d0 88 4a 92 bb 95 32 46 3d 9e f1 9f bd da 07 e9 3d
       -0.004464451 0.048388083 -0.07809757 0.11378451
0000e0 41 84 4d 3e 8f c8 a0 bd 60 ac 49 be 08 6f cf 3c
       0.20069982 -0.078507535 -0.19694662 0.025321499
0000f0 1f 5e 81 be 2e 5f 71 bd 39 1c 0d 3b 17 f3 0a be
       -0.2526712 -0.05892866 0.0021531715 -0.13569294
000100 d1 ce 36 be b1 3b 4c 3c f4 b9 2f bd b9 ee db bd
       -0.17852332 0.012465403 -0.042901948 -0.10738892
000110 99 8b 5a be 54 42 0a 3d bf df 6e bd ac c8 a1 bd
       -0.21342315 0.03375466 -0.05831885 -0.07899603
000120 f4 0a 9d 3b ca 82 a9 bc f8 89 2b 3c df a3 46 3c
       0.0047925655 -0.020692248 0.010469906 0.012124031
000130 99 8b c4 bd 79 d2 3b 3c 7e 2d b9 bd 41 45 84 bd
       -0.09596939 0.011463755 -0.0904188 -0.06458522
000140 c6 ce b9 3d 53 51 5e bc 32 15 dc be f6 fd 3c 3e
       0.09072642 -0.013569194 -0.4298492 0.18456253
000150 ea cf de bd 85 e2 59 3d a6 a4 33 3d df 5d bd be
       -0.108795 0.05319454 0.043858193 -0.3698568
000160 e6 8c 71 3e eb ca fa bd 65 f5 27 3e 80 35 b2 3b
       0.23588905 -0.12245735 0.16402204 0.0054385066
000170 07 c9 32 bd 02 22 3e 3e 6b 30 9c be e3 99 48 bc
       -0.043648746 0.1856766 -0.3050569 -0.012243721
000180 14 74 25 be 19 c9 14 bf a1 83 ca be 82 7f a5 bd
       -0.16157562 -0.5811935 -0.3955355 -0.08080961
000190 60 a9 bc 3c fe 44 7c be 14 0a 02 be e3 d5 6f bd
       0.023029983 -0.24635693 -0.12699157 -0.058553588
0001a0 9c 6e d7 bd d3 05 eb 3d 62 6f 91 be 4b 6f ce be
       -0.10519144 0.1147572 -0.2840529 -0.40319285
0001b0 1a cd 34 3d ba d0 f4 3d 40 b4 13 3e 92 e6 fa bc
       0.044140913 0.11953874 0.14424229 -0.030627523
0001c0 2d ca 37 bd 62 a4 2d 3c 78 5d 34 bf fe 03 52 bd
       -0.044870544 0.010598274 -0.7045512 -0.05127334
0001d0 f4 49 8c be d4 4a 4e be cb 35 ae be 31 46 55 3e
       -0.27400172 -0.20145732 -0.34025416 0.20827557
0001e0 82 b6 24 be 0f 29 ca 3d d2 50 8a be 5a c9 f9 be
       -0.16085246 0.098711126 -0.27014786 -0.48786432
0001f0 15 c1 08 3d b6 01 87 be 5c 2c 72 bd d4 97 0b bd
       0.033387262 -0.26368493 -0.059124336 -0.03408034

network_body._body_endoder.seq_layers.2.weight f4 [128, 128]
000000 da fa ea 3d 5b f3 10 be 71 cb 8d 3e 99 62 1a 3d
       0.114736274 -0.14155333 0.27694276 0.037691686
000010 59 a7 b7 3c a6 ac 54 3d 26 49 47 3e e8 01 9e 3e
       0.022418665 0.051922463 0.19461498 0.3086083
000020 72 af 24 be 9c 1d 8c bd fd 53 88 bd 06 cf 7f be
       -0.16082552 -0.06841585 -0.066566445 -0.24981317
000030 75 db 52 be 16 15 a6 bd c7 96 3b 3e ee 38 cc bc
       -0.20591529 -0.081094906 0.18319236 -0.02492949
000040 29 e9 f1 bd 7c 7d cc 3a a7 25 df 3d 4c 50 91 bd
       -0.1181205 0.0015601362 0.108958535 -0.070953935
000050 e0 43 1b be ea 4f 4d bd 60 a8 ca 3c 1a 70 d7 3d
       -0.15162611 -0.05012504 0.02473849 0.105194286
000060 01 a1 0d be 63 55 c2 3c bf 2a e7 bd f5 86 b7 3d
       -0.1383095 0.023722356 -0.1128745 0.08961288
000070 d3 0a a1 3d c1 c3 a0 bd 17 93 90 bd 9d c2 86 3e
       0.07863393 -0.07849837 -0.07059305 0.26320353
000080 6b d1 aa 3d 01 14 a7 3d 4c 5c 96 bd 49 f7 b7 3b
       0.083407246 0.08158112 -0.07341823 0.0056141955
000090 ae 0c c0 3d 4b bd 25 be b6 d4 e7 3d b3 70 a9 bd
       0.093774185 -0.16185491 0.11319868 -0.08273449
0000a0 f1 62 c2 3d fe 1f f5 3e 24 ca 32 be 10 45 99 bc
       0.09491528 0.4787597 -0.17459923 -0.01870969
0000b0 ff 4e 73 3d ac cd 04 be 1a 75 50 bd 20 d0 e5 bd
       0.05940151 -0.12969083 -0.050892927 -0.11221337
0000c0 32 e8 d5 3d 29 e0 41 3e aa 54 03 3e d8 44 e2 bc
       0.10444678 0.18933167 0.12825266 -0.027620718
0000d0 8b 3c 4d be bc d5 50 3e 81 00 17 3e 4f 07 9a bd
       -0.20042627 0.20394033 0.14746286 -0.07520925
0000e0 e7 4f df bc 26 43 55 be 18 e4 f6 bd 96 92 7a be
       -0.02725978 -0.20826396 -0.12055224 -0.2446998
0000f0 32 20 09 3e 3d 95 68 be 72 30 03 3e e4 fd 2a be
       0.13391188 -0.2271318 0.12811449 -0.16698414
000100 a3 02 36 bc f6 f0 a2 3d 96 14 01 be 63 96 07 be
       -0.011109027 0.07956116 -0.12605509 -0.13240962
000110 71 79 ef bd 2a a0 1d bd 70 7d 0a 3e c0 24 82 3d
       -0.11693085 -0.038482822 0.13524413 0.06354666
000120 f0 b7 d7 bd 9f b6 69 3d 8c 84 5d 3d aa ce 19 3e
       -0.1053313 0.057058927 0.054081485 0.15020242
000130 25 75 81 bd 57 52 6d bd eb 5c 95 bd 2e c9 4a be
       -0.06321172 -0.057939854 -0.07293113 -0.19803306
000140 1e 61 c3 3d 6c a5 0f 3e 20 79 24 3e b8 bf bc bd
       0.09540008 0.14027947 0.1606183 -0.09216255
000150 10 1e 30 3d 2b ac b8 bb c1 5c 96 bd c0 58 ed bd
       0.04299742 -0.0056357584 -0.0734191 -0.11589193
000160 bb 1c 59 3d 8c e7 8d 3d ea fc ff bd af 9c bb bd
       0.053005915 0.0692893 -0.124994114 -0.091607444
000170 9d f2 40 bd 3e 54 f7 bd 5b 81 69 3d bd 62 d8 3c
       -0.047106374 -0.12076615 0.05700813 0.02641427
000180 3a 56 a0 3b a6 f2 06 3e c0 3d 0a 3e cb 46 0a be
       0.0048930915 0.131785 0.13500118 -0.13503568
000190 31 bd 17 be bd aa a3 3d 2a b4 9c bd 70 89 bf be
       -0.14818265 0.0799155 -0.07651551 -0.37409544
0001a0 0a ac da 3d 6e ed e1 bd 09 9d 65 3e 67 59 05 3e
       0.10677345 -0.11031614 0.22423185 0.13022386
0001b0 1f 8a d3 3d d9 23 21 bd 2e f2 e0 bc 5e 70 63 be
       0.10329079 -0.039340828 -0.02745923 -0.22210833
0001c0 96 d5 59 bd 14 d2 2b 3e 32 89 02 3c e1 8f 0c 3e
       -0.053182207 0.16779357 0.00796728 0.1372676
0001d0 8f f2 98 bd 01 32 73 3d 54 14 9a 3e 8f de 88 3d
       -0.074681394 0.05937386 0.30093634 0.06683075
0001e0 97 99 56 be 0b 4f b3 3d 5f 58 6f 3d 09 80 df 3d
       -0.20957027 0.087553106 0.058433887 0.10913093
0001f0 eb 10 1d 3e 14 25 e4 bc 86 bb 8a 3c 6f a0 23 3e
       0.15338485 -0.027849711 0.016935121 0.1597917
000200 b8 e0 e5 bd a8 96 2b 3e f4 05 3c 3d be b9 a2 bd
       -0.11224502 0.1675669 0.045904115 -0.07945584
000210 c9 e4 9c 3c b0 07 b0 bd 51 ae f2 3d ea 04 61 3d
       0.019152062 -0.08595216 0.118496545 0.054936327
000220 c9 70 f3 bd dc e3 a9 bd de 86 d7 3d 6e df 98 bd
       -0.118867464 -0.08295414 0.10523771 -0.07464491
000230 2d 49 75 3e a6 1e 37 3d 8f 8d b0 3c 52 69 5a bd
       0.23953696 0.044706963 0.021551875 -0.053323098
000240 f3 8b 91 3e 4c a4 cb be b5 cb 16 be 8a 3c 4e 3e
       0.28427085 -0.39773786 -0.14726146 0.20140281
000250 db 1e 80 3c e4 69 91 3e ff dd 66 bc 07 08 6f 3d
       0.015639713 0.284011 -0.014091014 0.058357265
000260 71 a0 ba bd f4 ef 84 be cc aa 1f 3e f7 23 69 3e
       -0.09112633 -0.2596432 0.15592498 0.22767626
000270 01 c7 34 be 34 c4 c1 3d 80 44 3e 3e 58 ac ab 3e
       -0.17654039 0.09461251 0.18580818 0.33529925
000280 d4 1f 2d be c0 eb 69 3e 82 b4 08 bd 30 5b 65 bd
       -0.16906673 0.22843838 -0.03337527 -0.055995166
000290 53 6a 9f bc cb 0e 80 bc 1e d0 cf bc 5b 1d bd 3d
       -0.019459879 -0.015632054 -0.025367793 0.09234115
0002a0 74 a0 b7 bd 07 d6 12 bd 75 5d a5 bd 4d dd 77 3e
       -0.08966151 -0.035848644 -0.08074466 0.24205513
0002b0 bf cc 0f be a6 67 3a bd 36 3f 12 3e 69 e0 4a bd
       -0.14042948 -0.045509003 0.14281926 -0.04953042
0002c0 14 19 18 3d c4 d2 19 bd 09 49 f2 3c a0 05 3a 3e
       0.03713329 -0.037554517 0.029575842 0.18166208
0002d0 69 65 88 3d 2b dd 85 be d9 96 af be 1c 0c f6 3d
       0.066599675 -0.261453 -0.34294775 0.120140284
0002e0 6f f4 29 be 6e 99 bb be d4 ee 72 3a b7 77 08 bd
       -0.1659715 -0.36640495 0.00092671555 -0.033317294
0002f0 d7 7d 21 bd 27 18 a3 3e 3b e8 87 3e 2d ea 96 3e
       -0.03942665 0.31854364 0.26544365 0.29475537
000300 3c 34 a0 bb 7a 87 c9 bd b1 aa 96 bd 2c 7b 4c 3d
       -0.0048890393 -0.09840293 -0.073567756 0.049922153
000310 b1 92 00 bf a2 25 32 be 13 c2 0f be 5b 7f b3 3d
       -0.50223833 -0.17397168 -0.14038877 0.087645255
000320 5e 60 11 3e ef a0 04 be 8f 4c 9d bc dc 74 5a 3e
       0.14196917 -0.12952016 -0.019201545 0.21333641
000330 1d 49 1b be f2 60 a4 be 50 e6 81 be 67 dc ae bd
       -0.15164609 -0.32105213 -0.25371027 -0.08538132
000340 a2 b8 f9 bc 45 be 83 3e 66 cd 47 bd af 97 ac 3d
       -0.030483548 0.25731102 -0.048779868 0.08427369
000350 36 8c e8 bd ee 9f ac 3e a4 8e 31 3d d6 57 47 3e
       -0.11354868 0.33715767 0.043348923 0.194671
000360 aa 91 90 3d e2 a1 49 be 1c 47 63 be 85 ed 56 be
       0.07059033 -0.1969066 -0.22195095 -0.20989044
000370 04 dd a9 bd 6e cd 46 3e dc c6 f4 bc 11 5e 05 3d
       -0.082941085 0.19414303 -0.02987998 0.03256041
000380 04 2b 31 be 5c a3 f8 bd 38 3f b2 be 70 e6 70 3d
       -0.17301565 -0.12140533 -0.34813857 0.058813512
000390 a8 cd e5 3d cf 26 23 3e 56 b7 06 3d 6c 55 07 bf
       0.112208664 0.15932773 0.032889687 -0.5286472
0003a0 6e bc 84 3e 68 be f2 3d 18 e6 f4 bb cf bc ac bd
       0.2592501 0.11852723 -0.0074737184 -0.0843445
0003b0 9e 1e 1d be 67 ca d4 bd 33 9d 59 3e d1 ce e8 bc
       -0.15343711 -0.10390168 0.21251373 -0.02841893
0003c0 0b 25 b6 be 90 84 7f be 8d f1 0d be 6b 46 0b 3e
       -0.35575137 -0.24952912 -0.13861676 0.13601081
0003d0 9e 12 3b be 22 50 29 3e 09 6e 90 3c 04 fd a7 bd
       -0.1826882 0.16534474 0.017630594 -0.08202556
0003e0 b8 ef 77 3e 37 3d 12 bc fa 46 fd 3c 38 f9 21 bd
       0.24212539 -0.008925728 0.030917633 -0.039544314
0003f0 5a 43 0d be 14 31 8d be 83 6b 78 3e 92 8d 71 bd
       -0.13795224 -0.27576506 0.24259762 -0.058972903

network_body._body_endoder.seq_layers.2.bias f4 [128]
000000 3a dc f0 bc df 2d 8e bd be e5 ce 3c c9 d7 47 be
       -0.029401887 -0.06942343 0.025256034 -0.19515909
000010 7b f0 65 3e 09 2a 99 3e a6 27 31 bd fd ce 60 bd
       0.22455017 0.29914883 -0.043250702 -0.0548849
000020 c9 3e b4 bc be bc 42 3d 67 14 89 bd 74 01 03 bc
       -0.022002595 0.04754328 -0.066933446 -0.007995952
000030 99 a0 68 3e 8f 3a 35 be 2a 2f 96 3d cf 83 04 3c
       0.22717513 -0.1769812 0.073332146 0.008088066
000040 72 b8 5a bd 1a e6 36 3a 84 ab d9 bb ca bf 76 bc
       -0.053398557 0.0006977037 -0.0066427607 -0.0150603745
000050 2d 4a 10 3e c5 73 80 3e 02 34 56 3e ea 6f 88 3d
       0.14090796 0.25088325 0.20918277 0.06661971
000060 a3 dd 05 3d 01 44 f5 3c 01 e4 58 bd 76 9d fb 3c
       0.032682072 0.029939653 -0.052951816 0.030714732
000070 9c e6 c8 bc 2c be 91 3e 78 b5 ed bd 1a 41 1e 3e
       -0.024524026 0.28465402 -0.11606878 0.15454522
000080 b1 b2 86 3e 2a ee 34 3d 2a 60 26 3d 74 a1 08 bc
       0.26308206 0.044172443 0.040619053 -0.008339275
000090 19 e9 f2 3d 1b a2 a4 bd 20 84 75 3d 8b f7 d2 3d
       0.11860866 -0.08038732 0.059940457 0.10301121
0000a0 24 9d 9c bd a6 c3 33 3d 3c 91 56 3e 35 92 ee bd
       -0.0764716 0.043887757 0.2095384 -0.116489805
0000b0 c8 dd 80 3e 70 af e3 3d 8f 6f 87 3d a9 b6 3c 3d
       0.25169206 0.111174464 0.06613075 0.046072636
0000c0 bb bb 78 3d 67 84 19 3e ae c5 41 3d d2 b1 8b bd
       0.06072591 0.14991914 0.047307663 -0.06821026
0000d0 20 8b d9 3d 94 af 47 3c a3 5e a3 bd aa f2 d6 3d
       0.10622239 0.012187857 -0.07977035 0.10495503
0000e0 da f7 ec bc ee 05 2a 3e a4 d5 1d 3b ed 10 d4 bc
       -0.028926779 0.16603824 0.0024083639 -0.025886977
0000f0 13 85 12 3e 48 76 a5 bd 6a 8d 4e 3e 38 db fc 3c
       0.14308576 -0.08079201 0.20171133 0.03086625
000100 df 6c c4 bd d1 a9 b7 3d cb 96 1d bd 50 a5 1a 3c
       -0.09591078 0.08967937 -0.038473886 0.009438828
000110 50 9a 19 be b8 8f 03 3e 23 5d 43 3d 0d 3e 87 3d
       -0.15000272 0.12847793 0.047696244 0.06603632
000120 7d f4 02 3e 96 c8 76 be ca 71 12 3d ae 34 0a 3e
       0.12788577 -0.24099955 0.03575305 0.13496658
000130 73 00 44 bd 99 62 19 3d 2a 95 ee 3d bd df 90 bd
       -0.04785199 0.037447546 0.116495445 -0.07073925
000140 01 07 1d 3d 70 27 cf bd 88 4a fb 3c a8 19 e7 3c
       0.038336758 -0.10114944 0.030675188 0.028210476
000150 e7 72 5d 3d b3 4f 6e bd 00 4d c4 bd dc 65 55 3e
       0.054064658 -0.058181476 -0.09584999 0.20839638
000160 b4 f1 96 3c 82 49 97 3d 47 ed 19 be 7b cf 00 bc
       0.0184258 0.073870674 -0.1503192 -0.007861967
000170 6b 4e a4 3d 47 d6 08 bd 24 f7 b1 bc 8e 28 84 3d
       0.080227695 -0.033407476 -0.021724291 0.06453048
000180 a3 59 f3 3c 15 1a 8a 3b b3 64 17 3e 33 30 86 3d
       0.029705828 0.004214535 0.14784507 0.06552162
000190 15 db 24 bd 5d 77 56 bd 81 1c 25 bd ce 3c 32 3d
       -0.040247995 -0.052359927 -0.040310387 0.04351502
0001a0 00 7c 71 3d d6 d2 01 3e 4f ee 86 3d 96 f6 81 bc
       0.058956146 0.12678084 0.065884225 -0.015864652
0001b0 1c f6 9c 3d 31 28 0a 3d 24 02 92 3d 33 f7 2b be
       0.07664129 0.033729736 0.071293145 -0.16793518
0001c0 cc 5f dd bd 9e 7c ea bd 9f f1 a7 3d 79 bd 1d bc
       -0.108092874 -0.1144955 0.082003824 -0.009627693
0001d0 b2 8a c6 bc e1 5e 23 bd ba fe dc bd 62 4f 16 3e
       -0.024236057 -0.039885405 -0.10790773 0.1467872
0001e0 d7 6e 3e bd 81 66 22 3d b3 3b a2 3e f4 50 32 3d
       -0.046492424 0.039648537 0.31686172 0.043534234
0001f0 19 3e 95 be 0a b2 9b 3d 63 b2 46 3d eb 6f 9b 3d
       -0.2914894 0.07602318 0.048509967 0.07589706

action_model._discrete_distribution.branches.0.weight f4 [3, 128]
000000 f2 37 16 3f 8f a6 8c bd b9 da 05 be f5 e3 12 bc
       0.58679116 -0.06867706 -0.13071717 -0.008965482
000010 de 79 50 bc 03 2b e1 bd 54 bd 72 bd a3 cb a9 be
       -0.012724368 -0.10994532 -0.05926259 -0.33163175
000020 15 f4 08 3e 26 83 6b 3d 68 38 14 be c9 96 ee be
       0.1337436 0.05749812 -0.14474642 -0.46599415
000030 48 8f 42 3e ee b9 4b bd f1 4f 19 3e cf 77 3c be
       0.1899997 -0.049737863 0.14971901 -0.18405078
000040 6c eb ce be 5f f9 99 bc 14 a9 bc 3d 35 da f4 3e
       -0.40413988 -0.018795667 0.092119366 0.4782273
000050 e4 e6 52 bd a9 27 8c 3e 7b 56 c6 bd 8d 02 b1 3d
       -0.051489726 0.27374008 -0.096844636 0.08643065
000060 4d 4a 81 be 49 f3 07 3e 15 45 4c 3d f1 63 42 3e
       -0.25252 0.132764 0.04987057 0.18983437
000070 17 5c 73 be 54 48 19 3d 6a 1c f3 bd 7d b0 a2 3e
       -0.23765598 0.037422493 -0.11870654 0.31775275
000080 f4 f1 96 be 01 8e 05 3d f8 c1 4a bd d9 83 d5 bd
       -0.2948147 0.03260613 -0.04950139 -0.104255386
000090 d3 9d 8a be 18 38 45 bf 8c d5 b0 3c 82 2c 76 3e
       -0.27073535 -0.7703872 0.021586202 0.24040416
0000a0 b6 9e 1a 3e a0 9d b7 bd ea 69 05 3e 60 70 9f be
       0.15099606 -0.089656115 0.13028684 -0.31140423
0000b0 ac 6d 9e 3e 9a 67 2d 3e d9 f0 00 3d d4 0f 17 3e
       0.30943048 0.16934052 0.03147969 0.14752132
0000c0 2f 4f 74 be 84 1f 30 be 04 8e 82 3d 14 7c 82 be
       -0.23858331 -0.17199522 0.063747436 -0.2548529
0000d0 38 8f e8 be 33 d1 80 3d a2 ab 30 be 6d f7 13 bd
       -0.45421767 0.062899016 -0.17252973 -0.036124635
0000e0 a9 5b 9a 3d 04 40 b5 bd 7f 3e 4a 3e 61 f9 85 3e
       0.07537014 -0.08850101 0.19750403 0.26166824
0000f0 da 76 ca be d3 aa 84 be 19 4c be 3d 86 0b 3e 3d
       -0.39543802 -0.2591158 0.09291858 0.04639771
000100 e2 4e 9c 3c 48 fa 2b be 0f dc ef 39 f6 80 9a bd
       0.019080583 -0.16794693 0.0004574959 -0.075441286
000110 e8 ba ec 3d 3d 6f c3 bd 6a f8 1b 3f ea c2 0d 3e
       0.11559087 -0.095427014 0.60925925 0.13843885
000120 93 f1 74 3d a2 aa 18 be 55 ba 86 3d 70 a9 42 be
       0.059800696 -0.14908841 0.06578509 -0.19009948
000130 f0 c0 d0 be cb 00 e9 be 0b 68 7b 3d b6 81 7e bc
       -0.407722 -0.45508417 0.06137852 -0.015533855
000140 4a 29 18 3e 6a ee f0 3d c1 8f 2e 3e 20 01 a7 bd
       0.148595 0.11764224 0.17047025 -0.081545115
000150 ba 50 61 3d c0 14 11 3f 0b 57 a9 3c 3d ab 86 3e
       0.055008627 0.56672287 0.020671388 0.2630252
000160 98 a4 4d 3d 8c 00 07 3e 9d 5f 0a be 77 66 85 be
       0.050205797 0.13183802 -0.13513036 -0.26054737
000170 69 9c 9d 3e cf cd c4 3e 45 03 80 3e 5c b5 d8 be
       0.30783394 0.3843827 0.25002494 -0.42325866
000180 bd 8e 47 3d 0a 85 ac be f0 e6 53 3b 3d 76 f2 3e
       0.04872011 -0.3369525 0.0032333694 0.47355834
000190 8a 4d 0f bf ea 82 ab be e6 45 8d be b4 fb 96 bd
       -0.5597769 -0.33498317 -0.2759239 -0.07372227
0001a0 a0 c5 7d 3e e6 ad 79 bb 06 7b 8f bd 44 0b 35 3e
       0.24782419 -0.0038098036 -0.07005887 0.17680079
0001b0 bb c3 3e 3f e7 4c 34 bb b7 ff 32 3e c7 49 8e bd
       0.7451741 -0.0027511658 0.1748036 -0.06947666
0001c0 9e f1 02 bd 5d 69 6f 3d c3 7a b3 3e 30 57 d9 be
       -0.031968705 0.05845009 0.35054597 -0.4244933
0001d0 f6 4b 03 be da f1 f1 be c9 96 84 3d 51 7b 36 3c
       -0.12821946 -0.4725483 0.064740725 0.011137799
0001e0 58 21 5b 3e 80 0a 83 bc 7a 93 e4 3e fe 19 38 be
       0.21399438 -0.015996218 0.44643766 -0.17978665
0001f0 d3 ad 75 3b a9 8e a4 3d f8 90 db 3d 6e 2e 7a 3e
       0.003748764 0.08035023 0.1072101 0.24431774
000200 1c 28 d0 3d 29 17 02 bd 19 c8 96 bd 16 a3 54 3d
       0.101639 -0.03176037 -0.07362384 0.051913343
000210 51 f3 c4 bc 09 31 0d bd 61 db 32 be f8 ca 14 3e
       -0.024041804 -0.03447059 -0.17466499 0.14530551
000220 d3 15 e7 bc 99 66 51 3e 22 4d a4 3e b3 8d 81 3e
       -0.028208649 0.20449294 0.32090098 0.2530342
000230 80 ab 52 3e 66 37 95 3c ec 1c d7 3d 0d 03 34 3e
       0.20573235 0.018214893 0.10503563 0.17579289
000240 28 42 92 3e bd 56 c8 bd 2e a7 93 3e 65 b2 c2 bd
       0.28566098 -0.09782169 0.28838485 -0.09506682
000250 3b 36 f8 3d f5 92 34 3c 0b 19 92 bc c2 0c 3c bd
       0.12119719 0.011021365 -0.017834207 -0.045910604
000260 fe 8d 0b 3e 78 8e ff bd 46 19 fd bd 8e 3a 6e bd
       0.13628384 -0.12478346 -0.12358336 -0.05816131
000270 b6 75 74 3e 15 45 30 3d 33 30 08 3e 31 cf 33 be
       0.23873028 0.04303463 0.13299637 -0.17559506
000280 26 a0 35 3d cc 94 22 3e f3 cd 3f ba 96 de e6 3d
       0.044342183 0.15877074 -0.00073167606 0.11272924
000290 9d 8d 39 3e 05 3e 73 3e 4b c0 df bd d8 34 7f 3d
       0.18120427 0.23754127 -0.10925349 0.062306255
0002a0 84 18 e0 bd 66 d0 3b 3e df b0 0a 3e 47 de 5f 3e
       -0.10942176 0.18341216 0.13544033 0.21862136
0002b0 79 c2 c6 3c 52 61 54 3b 9c 00 c2 bd 23 b8 0a 3d
       0.024262654 0.003240664 -0.094727725 0.033867013
0002c0 eb 1a f6 bd da ee 4c 3e 7d 2b 25 be 2a 68 71 3d
       -0.12016853 0.2001299 -0.1612987 0.05893723
0002d0 4c 3c 80 3e eb 65 5b 3d eb 73 74 3e a7 69 4e be
       0.25046003 0.053563993 0.23872344 -0.2015749
0002e0 75 d7 01 be 12 a1 ba 3d 7a 61 63 be f4 9f a3 bd
       -0.12679847 0.09112753 -0.22205153 -0.07989493
0002f0 ca c6 af 3e d7 7f d5 3d 4c 39 9e bd d2 3d 53 be
       0.34331352 0.10424774 -0.07725772 -0.20629051
000300 81 89 28 be c7 df f3 3d 33 ad 51 3d 12 d8 eb 3d
       -0.16458704 0.119079165 0.051190566 0.115158215
000310 15 ae 85 bd cb 9e 30 3e d5 45 16 3e 96 f4 2e 3e
       -0.06527344 0.17248075 0.14675076 0.1708549
000320 33 01 b0 3d ab e3 6b bc 24 58 88 3e 52 bd 11 3d
       0.08593979 -0.014397542 0.26629746 0.03558094
000330 3c d2 6d 3e 79 27 57 3e b8 f8 57 3d b4 6c 31 3b
       0.2322473 0.21011151 0.05272743 0.0027072849
000340 fb b0 9c bd 34 ef ff bc a2 2a f0 bc c0 cb 31 3d
       -0.07650944 -0.03124199 -0.029317204 0.0434072
000350 7a 6c 95 bd e9 98 dd bb de 69 00 bd b0 ca cf bd
       -0.07296081 -0.006762613 -0.031350963 -0.101460814
000360 fb b8 1b bd 47 6c 54 bb 88 c3 d9 3d ca fe 18 3e
       -0.038018208 -0.003241317 0.10632998 0.14940944
000370 e6 5e b0 bd 19 fc c0 3c 9e f7 32 3d e3 ce b0 3e
       -0.086118504 0.02355771 0.043693177 0.34532842
000380 c7 f2 1a be b6 96 25 3e b2 02 e7 bd 7a 00 2b 3d
       -0.15131675 0.16170773 -0.11279811 0.0417485
000390 ee f8 99 3e d6 72 89 3e 04 4d 6c 3e e4 73 e1 3d
       0.3007273 0.26845425 0.23076254 0.110084325
0003a0 4e 68 15 3d bb c4 07 3e 0c 11 0d 3e 06 ab 8e bd
       0.036476426 0.1325864 0.13776034 -0.06966214
0003b0 10 78 04 3f 75 a2 42 bd aa 1c c6 3d 74 b7 e4 3d
       0.517457 -0.047518212 0.09673436 0.111678034
0003c0 b6 76 e1 bd 3f fa 46 3d d8 a4 26 3f cd 35 1c 3e
       -0.110089704 0.048578497 0.6509528 0.15254898
0003d0 5f bd 8f bb 6e 2a 5b 3e cb 87 88 3c cd 45 7b 3e
       -0.0043865885 0.21402904 0.016666314 0.24538346
0003e0 12 ec ac bc 93 f4 15 3e 3c 50 f8 bd 92 1c 37 3e
       -0.02110866 0.14644079 -0.121246785 0.17881992
0003f0 48 08 00 3e 0e 6c 07 3d 3e 5e 8d 3c a1 06 9f bd
       0.12503159 0.033062033 0.017256852 -0.07764936

action_model._discrete_distribution.branches.0.bias f4 [3]
000000 0e 39 20 be 9e 5c 10 3d 5e bb c1 3d
       -0.15646765 0.035244577 0.094595656

action_model._discrete_distribution.branches.1.weight f4 [3, 128]
000000 d8 ec 17 be 56 3b 50 3e a1 b2 28 3e a4 ca 3b 3d
       -0.14836442 0.20335135 0.16474392 0.04584755
000010 9c 59 2a bd 84 fe a7 bd 75 87 d4 bc c6 1a df 3d
       -0.041589364 -0.08202842 -0.025943497 0.108937785
000020 9a 87 56 3e de e2 8e 3e 97 80 0b 3d 82 37 02 bf
       0.20950165 0.2790746 0.03405818 -0.5086595
000030 e4 a0 7b 3e 81 4e 54 3c 72 7f 8d 3e af 26 58 3d
       0.24573094 0.01295817 0.27636296 0.052771267
000040 af 7f ad bd 37 ed d4 3d 20 85 31 be bc c7 7d be
       -0.08471619 0.10396808 -0.1733594 -0.24783224
000050 3e 98 e7 3e a4 ea a3 bc da f7 28 3e 30 00 b6 bd
       0.4523334 -0.020009346 0.16500798 -0.088867545
000060 4d e1 23 3e e0 d8 31 bd e6 a2 52 3d ad a0 29 3c
       0.16003914 -0.04341972 0.051424883 0.0103532495
000070 a2 25 84 bb 35 7f 5e 3e 87 de 96 3c 9c 60 5d 3e
       -0.0040328065 0.21728213 0.018416656 0.21618885
000080 57 a2 3b 3c 78 97 8a bc fb a0 51 3d 1f 95 ca 3d
       0.011452279 -0.016917929 0.051178914 0.09891724
000090 cd f2 4b 3e 8a 15 16 3c e0 49 2d be ee 1c 36 3e
       0.1991684 0.009160409 -0.16922712 0.17784473
0000a0 61 16 2e 3d 62 0f 6c bd f4 47 3a be 6d 86 a8 bd
       0.04250181 -0.057631858 -0.1819151 -0.08228765
0000b0 db 42 6a 3d 58 b5 68 3d 28 2b 82 3e 21 d0 f5 3d
       0.057192665 0.056813568 0.2542355 0.12002588
0000c0 c3 88 b5 be 9a 36 a6 3d ec ac aa 3c 9c 9e 89 bc
       -0.35455903 0.08115883 0.020834409 -0.016799264
0000d0 26 91 59 3d fa a1 ac 3e 88 96 2b 3e 22 36 07 ba
       0.05311694 0.33717328 0.16756642 -0.0005157908
0000e0 d7 49 81 3e 21 d7 72 be 5d 98 a1 bd ed fc 4b bd
       0.25251648 -0.23714878 -0.07890389 -0.049801756
0000f0 ab 6b 80 3e 74 10 94 3c 99 dd 08 3e d7 7d c9 bc
       0.25082144 0.018074252 0.13365783 -0.024596138
000100 3b ff 98 bd 9b cf 16 3d fe 2e 34 3f 9c 58 02 bd
       -0.07470556 0.03681908 0.70384204 -0.031822786
000110 aa f2 a1 bd 84 24 13 3e ab 48 ea bd 94 f4 2e 3d
       -0.079076126 0.14369398 -0.114396416 0.042713717
000120 78 bb 1d 3e 69 6c 20 3d 30 dd 48 3e 8c eb a0 3d
       0.15403545 0.039165888 0.19615626 0.07857427
000130 d2 20 90 bc 2e bf 0d 3c 26 3a 22 be 3c 08 f1 3c
       -0.017593775 0.008651538 -0.15842494 0.029422872
000140 22 ef 9f 3c 7b be 58 bd 65 0e 28 3e 7e 20 31 3d
       0.019523207 -0.05291603 0.16411741 0.043243878
000150 32 1b ee bc 82 00 3e 3e f6 45 21 3d a6 4f a4 3e
       -0.029065702 0.18554881 0.03937336 0.32092017
000160 70 06 e2 bd 9e 64 ae 3e df ed 80 bd 5b 57 1c 3e
       -0.11036384 0.3406114 -0.0629537 0.15267698
000170 37 d4 0f bd ce 42 56 3d 94 25 8a 3d 71 16 65 3b
       -0.035114493 0.052309804 0.06745449 0.0034956003
000180 70 3c 05 3e 8c 24 2a bd bb d4 b2 3d 5f 3b 63 be
       0.13011336 -0.04153876 0.08731981 -0.22190617
000190 1f 4e 74 bc f9 32 22 be c6 72 93 3d 25 d3 6b 3e
       -0.014911204 -0.15839757 0.07199626 0.23029764
0001a0 1a 97 20 bd f8 b2 93 3d f3 15 9e bc 4c 88 1b be
       -0.0392066 0.0721187 -0.019297576 -0.15188712
0001b0 1c 38 a0 3d a6 7d 00 3e 2a f3 00 3e 18 b2 90 3d
       0.07823202 0.12547931 0.1259276 0.07065219
0001c0 1e b3 56 be 91 71 88 3d 1d 1f e2 be 59 2c a3 3e
       -0.20966765 0.06662286 -0.44164363 0.31869772
0001d0 25 f7 7d 3e 2b 62 00 bd d9 16 4f 3e 82 7a 24 be
       0.2480131 -0.03134362 0.2022356 -0.16062358
0001e0 8f d1 a7 be a5 bc 98 3e 95 75 dc 3d f0 3d e1 3d
       -0.32777068 0.29831424 0.107646145 0.10998142
0001f0 2d c8 12 bd a2 38 6d 3d 90 a7 28 be fc 90 0c 3d
       -0.035835434 0.057915337 -0.1647017 0.034317955
000200 bc b4 3f 3d 37 80 d6 be 61 df 0b bd 11 6a 02 bd
       0.04680322 -0.41894695 -0.034148578 -0.031839434
000210 63 41 a6 bc 9d c0 0d bd da 1b 2c be f6 0c 94 3e
       -0.02029485 -0.03460752 -0.168075 0.28916138
000220 9e f0 b1 3d 26 15 2b 3e 29 e5 b7 3c 00 76 9e 3e
       0.08688472 0.16707286 0.02244814 0.30949402
000230 53 bf f4 bd 2e b0 b8 bc 70 c9 cb 3e 42 9c 5e be
       -0.11950555 -0.022544947 0.39802122 -0.21739295
000240 a0 76 5d 3e 17 cf 70 be e2 7a 5d bc ab f9 21 bc
       0.21627283 -0.23516499 -0.013518067 -0.009886186
000250 2b 26 96 be 28 75 3f 3e be 0e eb 3b 7f b6 dc 3d
       -0.29325995 0.18697035 0.0071733883 0.10776996
000260 9d 42 11 3e 98 10 3e 3e f6 11 00 3d 1e cd fe bd
       0.14185567 0.18561018 0.03126713 -0.12441467
000270 17 aa 81 bd a4 71 e3 3b fe 61 e1 bc d8 c2 fa bc
       -0.0633127 0.0069410373 -0.027512547 -0.030610487
000280 39 39 ee 3d b9 0f 3b be 43 17 aa bd a4 90 0c be
       0.11632008 -0.18267716 -0.08305218 -0.13727051
000290 0f b7 78 be 68 d9 aa 3d f5 5f d9 3d 8b 11 c4 bd
       -0.24288581 0.08342248 0.106140055 -0.095736586
0002a0 a7 77 91 be 6e 23 af bd 4f 06 fd bc 63 a2 4f 3e
       -0.284116 -0.085516796 -0.030886797 0.2027679
0002b0 30 44 a4 3d d5 39 63 be 64 29 ab 3e ed 79 75 be
       0.08020818 -0.2219003 0.33430016 -0.23972292
0002c0 77 58 01 3e ab 06 0d bc 1d 15 d6 3d 29 f2 bc bd
       0.12631403 -0.008607547 0.10453246 -0.09225876
0002d0 47 6c c6 3d 92 99 41 be 78 03 ac bc 6d ec ee bc
       0.09688621 -0.18906239 -0.020997748 -0.029165471
0002e0 da a4 bb bd 43 70 cd 3c d3 12 5e bb eb 30 23 be
       -0.09162302 0.025077945 -0.0033885732 -0.1593663
0002f0 c6 71 84 bd e7 24 4e be b5 58 b9 bd ca cc 28 be
       -0.06467013 -0.20131265 -0.09050123 -0.16484371
000300 58 a7 0a 3e 4b 4e a3 be 40 ae b7 3d ad cc b3 3d
       0.13540399 -0.3189567 0.089687824 0.08779273
000310 cd c8 25 be 22 45 2f bd 1a 52 ee bb 18 e3 b0 bc
       -0.1618988 -0.04279054 -0.007272971 -0.021592662
000320 54 d0 b9 bd 6c 90 cd bd 35 81 ee 3d c7 ea 85 be
       -0.090729386 -0.10037312 0.11645738 -0.26155683
000330 10 f2 81 bc 78 07 13 3e e5 59 84 bd 02 1c 11 3e
       -0.015862495 0.14358318 -0.064624585 0.1417084
000340 6a 74 b3 bc bf 4b 13 be 75 9b 2f be 10 c5 b3 3d
       -0.021906096 -0.14384364 -0.17149146 0.08777821
000350 b7 e8 45 be 8c 6f 06 3c 39 8a 78 bd 69 23 6f be
       -0.19327055 0.008205306 -0.060678694 -0.23353352
000360 ee b4 22 3e 6d 06 25 be 40 1e b4 3d e9 28 42 be
       0.15889332 -0.16115732 0.08794832 -0.18960918
000370 c8 6e 1c 3e fd 44 06 be 41 56 0f be 67 12 bc 3c
       0.15276635 -0.13112254 -0.13997747 0.022957994
000380 68 c8 83 be f4 fd 27 3e 2e 63 da 3d e7 6d a6 3e
       -0.25738835 0.16405469 0.10663448 0.32505724
000390 53 2d 74 3c 5d 63 c9 3d ed bd 6d be f7 f7 03 3d
       0.014903384 0.09833405 -0.23216982 0.0322189
0003a0 93 5a d7 bd c5 bb a9 3c 50 f9 11 be 3f 1b f6 bd
       -0.105153225 0.020719418 -0.14255261 -0.120169155
0003b0 9f 6b 2a 3d 0c a9 a8 3e d1 94 71 bd dd 8c fa bd
       0.04160654 0.32941473 -0.058979813 -0.12233899
0003c0 4d 26 43 3e 67 fc dd bb 7f d3 a2 3e 22 a2 7d 3e
       0.1905758 -0.0067744735 0.31801984 0.2476888
0003d0 26 a1 93 bb 98 1f f4 bd 26 28 36 be 49 a7 8e 3c
       -0.0045052944 -0.119200885 -0.17788753 0.017413752
0003e0 a3 d1 d3 3c ad f5 d6 bb ae 54 a2 3d 6e af c0 bd
       0.025856799 -0.0065600486 0.079263076 -0.094084606
0003f0 eb e5 d4 3d 66 a2 8e bd 86 64 6b bd fb 0f 54 bd
       0.10395416 -0.06964569 -0.057468913 -0.051773053

action_model._discrete_distribution.branches.1.bias f4 [3]
000000 3e 0b 19 bd 30 0b 36 bd 09 72 cf 3d
       -0.037364237 -0.044444263 0.10129172

exp_avg f4 [128, 36]
000000 6e f6 1c b8 3c ed d8 b8 8b fb 42 b8 ab 52 fd b8
       -3.7422804e-05 -0.00010343871 -4.6487472e-05 -0.00012079378
000010 83 b4 d0 b7 ba 65 97 b8 ee 8e 4f b8 18 58 23 b9
       -2.487959e-05 -7.219189e-05 -4.948576e-05 -0.00015577709
000020 e9 eb 85 38 1b f5 d5 b8 45 31 79 b9 a0 45 96 b9
       6.385876e-05 -0.00010202286 -0.00023764845 -0.00028662104
000030 25 c2 c6 b8 c4 05 5f b9 19 30 b5 b9 b4 da a0 b9
       -9.477538e-05 -0.00021269085 -0.00034558846 -0.00030680525
000040 a0 54 f0 b8 af a3 8d b9 41 6a 83 b9 7f 2e 9b b9
       -0.000114598544 -0.0002701557 -0.00025065432 -0.00029598546
000050 d6 28 b0 b8 cb 5a 5a b9 91 4d 7b b9 17 1f 8a b9
       -8.39994e-05 -0.00020823923 -0.00023966121 -0.00026344575
000060 98 93 cf b8 7b b5 84 b9 61 89 4d b9 5a 4e 8a b9
       -9.898021e-05 -0.00025312215 -0.00019601501 -0.00026379788
000070 84 74 1b b9 72 ed 77 b9 6d 7d 1d b9 68 ff 88 b9
       -0.00014825357 -0.00023644211 -0.00015019412 -0.00026130234
000080 6d 7d 1d b9 68 ff 88 b9 f3 6e e1 bd 1f 32 53 bc
       -0.00015019412 -0.00026130234 -0.1100749 -0.012890368
000090 5d 13 02 2b 8a c8 03 2b e2 45 20 2b 89 ba 1b 2b
       4.621215e-13 4.6818853e-13 5.69404e-13 5.532593e-13
0000a0 2a 67 51 2b bc 47 3c 2b 99 dc 4d 2b fa 3a 41 2b
       7.4394885e-13 6.689057e-13 7.313677e-13 6.864922e-13
0000b0 6d c7 2f 2b 5a 55 29 2b 09 5d 1c 2b dd 32 1e 2b
       6.244925e-13 6.015931e-13 5.5551446e-13 5.6203463e-13
0000c0 24 77 f8 27 4a 8f 89 2a 0a 8b 1e 2b eb 25 20 2b
       6.8963e-15 2.4435515e-13 5.632583e-13 5.689604e-13
0000d0 7d 7b a4 28 41 cf 81 28 6c 5e 24 2b 02 15 24 2b
       1.8261212e-14 1.4411759e-14 5.839554e-13 5.829366e-13
0000e0 ca b8 10 28 e6 f8 13 2b 7f e0 26 2b 5e 85 25 2b
       8.0336755e-15 5.2570307e-13 5.92866e-13 5.880486e-13
0000f0 28 4c 1a 2b 6a 07 25 2b 97 11 ff 28 60 f3 18 2b
       5.481748e-13 5.8630065e-13 2.8318316e-14 5.4339e-13
000100 7a b4 51 a8 e4 83 11 2b 65 c1 c4 a8 de 24 06 2b
       -1.1640965e-14 5.1697383e-13 -2.1844243e-14 4.7657527e-13
000110 65 c1 c4 a8 de 24 06 2b da b0 69 2f c2 d5 77 2d
       -2.1844243e-14 4.7657527e-13 2.1254057e-10 1.4087788e-11
000120 18 d9 52 21 9d 06 e1 a2 73 07 65 a1 24 16 e5 a2
       7.143809e-19 -6.0993374e-18 -7.7598077e-19 -6.2094017e-18
000130 42 a6 93 a3 e2 02 9d a3 ea 06 bc a3 47 62 b3 a3
       -1.6008185e-17 -1.7023195e-17 -2.0385929e-17 -1.9448841e-17
000140 f6 20 ae a3 16 2d a8 a3 38 48 a8 a3 4c e6 a7 a3
       -1.8879077e-17 -1.8233691e-17 -1.8245182e-17 -1.820371e-17
000150 8b 78 60 a1 4f 18 b1 a3 59 3a a5 a3 95 e0 a4 a3
       -7.605369e-19 -1.9200674e-17 -1.7914047e-17 -1.787603e-17
000160 f5 79 1e a0 15 71 75 a3 10 8a a8 a3 6f 87 a7 a3
       -1.3423473e-19 -1.3305423e-17 -1.8273068e-17 -1.8163535e-17
000170 e0 e9 a1 22 05 32 89 a3 43 54 23 a1 5a c5 8d a3
       4.3886762e-18 -1.4874754e-17 -5.533807e-19 -1.5370832e-17
000180 de 95 00 a1 04 67 8b a3 7b ed 18 a0 e4 ac 57 a3
       -4.3566434e-19 -1.5114039e-17 -1.2953476e-19 -1.1691784e-17
000190 77 91 e6 9f 80 f6 54 a3 36 af bf 9e 5c 5d 45 a3
       -9.764944e-20 -1.15447414e-17 -2.0295377e-20 -1.0699161e-17
0001a0 36 af bf 9e 5c 5d 45 a3 91 c3 06 25 9f 6e c8 a5
       -2.0295377e-20 -1.0699161e-17 1.1688908e-16 -3.476943e-16
0001b0 07 ed 09 b8 98 1c 8a b8 fc 3b 99 37 44 57 99 b5
       -3.2884094e-05 -6.585679e-05 1.8266954e-05 -1.1424786e-06
0001c0 7b 2e 28 b9 6e 99 1b b9 f1 8c f9 39 a1 ad ca 39
       -0.00016039044 -0.00014839109 0.0004759799 0.00038657806
0001d0 b1 dc fc 37 b2 c4 0f b9 2f 08 cf b8 c3 3e 8c 39
       3.0143508e-05 -0.00013710817 -9.8720535e-05 0.00026749642
0001e0 46 70 c0 b8 95 58 34 b9 1f 8b 29 b9 bd 63 71 39
       -9.176186e-05 -0.00017199137 -0.00016168923 0.00023020706
0001f0 f3 2a e3 b8 9b 1c 12 b9 98 1c c9 b8 95 e5 80 39
       -0.000108322034 -0.00013934301 -9.589753e-05 0.00024585114
000200 40 bc 9f b8 f6 b2 cb b8 80 fa 4f b9 34 86 2a 39
       -7.616775e-05 -9.7131284e-05 -0.00019834377 0.00016262458
000210 ce 87 64 b6 42 ad 30 39 f6 bc 17 b9 a7 d7 af 38
       -3.4053696e-06 0.00016849212 -0.00014470876 8.384819e-05
000220 e3 d4 19 b8 39 d4 06 39 03 f9 eb b7 29 3d a5 38
       -3.667631e-05 0.00012858295 -2.8130138e-05 7.879205e-05
000230 03 f9 eb b7 29 3d a5 38 63 a4 64 bd 33 ef b4 3d
       -2.8130138e-05 7.879205e-05 -0.055820834 0.08834686
000240 03 77 23 38 b2 fc c1 37 bb ad 74 38 1d e1 57 38
       3.8973067e-05 2.3125063e-05 5.8335932e-05 5.1469648e-05
000250 8b cb 36 38 0c 09 87 37 a7 a7 3a 38 42 49 6b 38
       4.3581746e-05 1.6097467e-05 4.4501994e-05 5.6096593e-05
000260 d8 92 55 35 42 ce 00 38 2a 93 19 37 9b 97 8c 38
       7.956237e-07 3.070967e-05 9.153775e-06 6.703959e-05
000270 f9 f6 6b 38 71 2b 7f 38 91 12 8b 38 ab 47 ab 38
       5.6258377e-05 6.0837196e-05 6.631495e-05 8.1672646e-05
000280 74 99 c6 38 2e 4a a6 38 60 82 88 38 a7 63 bf 38
       9.4699586e-05 7.929314e-05 6.5092696e-05 9.1261514e-05
000290 04 46 2b 38 b0 fb 59 38 8c 14 ae 38 99 44 bb 38
       4.0834784e-05 5.1971234e-05 8.300794e-05 8.929632e-05
0002a0 2a 77 ad b6 3c c0 55 38 69 3c 42 38 b0 05 b5 38
       -5.1696743e-06 5.096219e-05 4.6309466e-05 8.631812e-05
0002b0 c1 91 9e 37 ae 60 70 38 49 b2 c0 36 c9 39 7a 38
       1.890294e-05 5.73105e-05 5.742801e-06 5.965846e-05
0002c0 49 b2 c0 36 c9 39 7a 38 6e a6 0d 3d 2f b3 67 3b
       5.742801e-06 5.965846e-05 0.034582548 0.0035354604
0002d0 e3 e3 17 b8 08 96 63 b8 ee cf 4e b8 ba 7f af b8
       -3.621344e-05 -5.4260745e-05 -4.9307877e-05 -8.368441e-05
0002e0 95 5c 51 b8 ad ea 7f b8 e1 8f 0f b8 df 11 c3 b8
       -4.9915707e-05 -6.1015297e-05 -3.4227854e-05 -9.301653e-05
0002f0 f1 10 ee 36 9c 01 a9 b8 47 cd d9 b8 ed ba 21 b9
       7.094925e-06 -8.058848e-05 -0.00010385602 -0.00015423792
000300 c3 02 3e b8 a1 98 07 b9 a4 3b 64 b9 c4 03 41 b9
       -4.5302102e-05 -0.00012931462 -0.00021765992 -0.00018407317
000310 23 94 fe b8 1f 99 33 b9 33 5b 35 b9 45 b6 40 b9
       -0.000121392564 -0.00017127812 -0.0001729548 -0.00018378448
000320 29 a8 85 b6 bf b5 ce b8 20 1a 37 b9 22 45 3b b9
       -3.9832853e-06 -9.856698e-05 -0.00017461972 -0.00017859464
000330 24 f3 50 b8 7e d8 eb b8 dc 92 f2 b8 36 5f 33 b9
       -4.9817507e-05 -0.00011245998 -0.00011566814 -0.00017106239
000340 22 8e a7 b7 41 a3 d7 b8 aa a4 e9 b7 7d 73 f2 b8
       -1.9974137e-05 -0.00010282407 -2.7852442e-05 -0.000115609706
000350 aa a4 e9 b7 7d 73 f2 b8 b1 6b 8c bd 61 a3 e9 bb
       -2.7852442e-05 -0.000115609706 -0.06856478 -0.007130072
000360 6b df 42 35 d8 f2 8a 34 e0 ba 55 34 cc 3b cc b4
       7.259575e-07 2.5881195e-07 1.9905156e-07 -3.804147e-07
000370 08 26 b7 33 00 b4 f2 32 26 f2 b2 b7 e7 ad b3 b7
       8.5285194e-08 2.8254362e-08 -2.1332013e-05 -2.1419442e-05
000380 c0 ec 15 35 d1 e6 d0 34 9b 48 53 33 aa 30 a6 b7
       5.585134e-07 3.891096e-07 4.91933e-08 -1.9811403e-05
000390 d5 ac 8d 34 ae b9 8a 35 e1 4d 5c 33 03 d4 99 b7
       2.6389048e-07 1.0335841e-06 5.1293572e-08 -1.8337747e-05
0003a0 27 ad 45 b5 67 d7 e6 b4 fa da 02 34 08 0a a6 b7
       -7.364019e-07 -4.2997564e-07 1.2186857e-07 -1.9793413e-05
0003b0 42 6e 57 35 fe 07 c7 33 1d 0c d8 33 9a 85 5d b7
       8.025419e-07 9.2681134e-08 1.0060487e-07 -1.3203733e-05
0003c0 79 f9 89 34 d9 b6 56 b7 cc 3e 41 34 f6 51 2a b7
       2.5699754e-07 -1.27979665e-05 1.7997371e-07 -1.0151873e-05
0003d0 11 44 27 34 b5 4f 27 b7 a4 b2 49 b2 61 54 1c b7
       1.557785e-07 -9.972534e-06 -1.1740358e-08 -9.317971e-06
0003e0 a4 b2 49 b2 61 54 1c b7 68 24 b8 b8 06 ba 58 bb
       -1.1740358e-08 -9.317971e-06 -8.780585e-05 -0.0033069863
0003f0 36 2e 59 36 fc 8c 5c 36 85 40 c3 34 eb 1a 3d 35
       3.2362418e-06 3.2864618e-06 3.6368525e-07 7.044716e-07
