results/FoodAgentAltered_V2.1199/MoveToGoal/MoveToGoal-440146.pt (torch, 535695 bytes, 63 tensors)

discrete_act_size_vector f4 [1, 3]
0	0x40400000	3.0
1	0x40400000	3.0
2	0x40000000	2.0

network_body._body_endoder.seq_layers.0.weight f4 [128, 6]
0	0x3e3152be	0.1731672
1	0x3ed9fb02	0.42574316
2	0xbef99f84	-0.48754513
3	0x3f4d6d07	0.8024449
4	0x3c78364c	0.015149664
5	0xbe8d4156	-0.2758891
6	0xbe7d354e	-0.24727365
7	0xbf175e6e	-0.59128463
8	0x3d337227	0.043810036
9	0x3d1ba57f	0.037999626
10	0x3e630e25	0.22173364
11	0x3ea5e2bc	0.32399547
12	0x3e965f18	0.29369426
13	0x3ea4de7d	0.32200995
14	0xbec7aa25	-0.38996997
15	0xbdc224c1	-0.094796665
16	0x3e26be77	0.16283594
17	0xbf1553b6	-0.5833086
18	0x3e3ceda9	0.18450035
19	0xbd00a4fa	-0.031407334
20	0x3f4e8456	0.8067068
21	0xbf2f6727	-0.68516773
22	0x3e2b2dba	0.16716662
23	0x3f310337	0.6914553
24	0x3f024615	0.50888187
25	0x3dbb6639	0.09150357
26	0xbde1ce01	-0.1102562
27	0x3e090fa5	0.13384874
28	0xbe0898a3	-0.13339476
29	0x3e936890	0.28790712
30	0x3e408dae	0.18804047
31	0x3ef23bc3	0.4731122
32	0xbdab1664	-0.0835388
33	0x3f0eec4c	0.5582931
34	0xbf14f8c6	-0.581921
35	0x3f30247a	0.6880566
36	0x3e58a2af	0.21155809
37	0xbe7c7b6b	-0.24656455
38	0xbf3c3d05	-0.7353061
39	0xbe3a4f11	-0.18194224
40	0x3de3c028	0.11120635
41	0x3df7ffc3	0.121093296
42	0xbe168abb	-0.14701359
43	0x3da1713e	0.07882927
44	0xbee504f2	-0.44730335
45	0x3ec178b5	0.37787405
46	0xbf0afc51	-0.54291254
47	0x3ee85003	0.45373544
48	0x3eb6f608	0.35734582
49	0xbe1ec8da	-0.15506306
50	0x3f0ed766	0.5579742
51	0x3d4a5ec9	0.0494068
52	0xbeaefb11	-0.34175923
53	0xbfa053fc	-1.252563
54	0xbe34445d	-0.17604204
55	0x3b656af0	0.0035006367
56	0x3f36665b	0.7124993
57	0xbecb44bd	-0.3970088
58	0xbf71b979	-0.94423634
59	0xbf64ac5c	-0.893255
60	0x3ee86bce	0.45394748
61	0xbdc97792	-0.09837259
62	0xbe9d82b6	-0.30763787
63	0x3eb789bd	0.35847273
64	0xbe47683b	-0.19473355
65	0x3fa4310f	1.2827471
66	0x3ee54f4c	0.4478706
67	0x3f5d81a3	0.86525935
68	0xbf94215f	-1.1572684
69	0xbe1b0593	-0.15138845
70	0x3e7408e2	0.23831514
71	0xbe705d41	-0.23473074
72	0x3f1c25ce	0.60995185
73	0xbe00b6b5	-0.12569697
74	0xbf608821	-0.87707716
75	0xbe593ed7	-0.21215378
76	0x3c6a7c15	0.01431181
77	0xbec2630d	-0.37966195
78	0xbf9054b7	-1.1275853
79	0x3ef2e800	0.47442627
80	0xbe9d0574	-0.30668223
81	0x3ea47407	0.32119772
82	0x3dbbda87	0.0917254
83	0xbe55b2fe	-0.20869061
84	0x3f559915	0.8343671
85	0x3f753ac2	0.9579278
86	0xbeafab3c	-0.3431033
87	0x3dfed9bc	0.12443873
88	0x3e29ae02	0.16570285
89	0xbeb1f024	-0.34753525
90	0xbf3eb791	-0.7449885
91	0xbd826790	-0.06367409
92	0xbdde97dd	-0.10868809
93	0xbe980d4e	-0.2969765
94	0xbdb07748	-0.08616501
95	0x3f553f80	0.8330002
96	0x3daa3762	0.08311345
97	0xbe04647b	-0.12928955
98	0xbed52040	-0.41626167
99	0x3e37a9a6	0.1793581
100	0xbe33fc07	-0.1757661
101	0x3faa7aae	1.3318689
102	0xbf4503a6	-0.7695869
103	0x3f6e6501	0.9312287
104	0xbeda5489	-0.4264262
105	0xbe14b7e9	-0.14523281
106	0xbdadd1c8	-0.08487278
107	0x3efb8834	0.49127352
108	0xbdece315	-0.1156675
109	0x3d9d33e3	0.07675912
110	0xbf4d7134	-0.8025086
111	0x3dbd1bb7	0.09233802
112	0xbec906e9	-0.39263085
113	0xbdc83367	-0.09775429
114	0x3e4c1aa2	0.19932035
115	0xbee93118	-0.45545268
116	0x3f010fb2	0.50414574
117	0xbc33df55	-0.0109785395
118	0xbd3ff55c	-0.046864852
119	0x3f1bbd3e	0.60835636
120	0x3f0a24c3	0.53962344
121	0xbee7c389	-0.4526637
122	0x3f143ca4	0.5790503
123	0x3eace5db	0.33769116
124	0xbf40b18d	-0.7527092
125	0xbdaf1c24	-0.08550289
126	0xbefeedb4	-0.49790728
127	0x3f20cd82	0.6281358
128	0x3f01c2c2	0.506878
129	0xbeaa3ac2	-0.33247954
130	0xbec64251	-0.3872247
131	0xbeafdf33	-0.34349975
132	0xbe56470e	-0.20925543
133	0xbed6ae14	-0.41929686
134	0xbef498a5	-0.4777271
135	0xbe54d69c	-0.20784992
136	0xbec5377d	-0.38518897
137	0x3ec59795	0.3859221
138	0xbe79a85c	-0.2438063
139	0x3f2addb5	0.6674455
140	0xbe04265c	-0.12905258
141	0x3e5325fe	0.20619962
142	0xbe356ae4	-0.17716557
143	0x3ec453d8	0.38345218
144	0x3defdfb7	0.11712592
145	0x3e9b0ea3	0.30284604
146	0x3e49e597	0.19716488
147	0x3eb7969f	0.35857102
148	0xbe868e5d	-0.2628049
149	0xbe6fd1ff	-0.23419951
150	0xbf1278fb	-0.5721585
151	0xbf768b8a	-0.9630667
152	0xbe36bd5c	-0.17845672
153	0x3ebb51a4	0.36585724
154	0xbec58ae6	-0.38582534
155	0x3ee54259	0.44777182
156	0xbd186979	-0.03720996
157	0x3e482d4f	0.19548534
158	0xbf03ca9e	-0.51481044
159	0xbe2e0793	-0.16995077
160	0xbf1941ae	-0.59865844
161	0x3ebfd623	0.3746806
162	0x3db27025	0.08712796
163	0xbd0b6b5d	-0.034037936
164	0x3f0c2182	0.5473863
165	0x3e01ca05	0.1267472
166	0xbe9c613f	-0.30542943
167	0x3f53f1a1	0.8279057
168	0x3f040261	0.5156613
169	0x3f02a1d7	0.510282
170	0x3e65f012	0.22454861
171	0xbcaba056	-0.020950478
172	0xbe338bf7	-0.17533861
173	0xbf21e793	-0.6324398
174	0x3f048b3c	0.51774955
175	0xbe10dffd	-0.14147945
176	0x3dae8c2f	0.08522832
177	0xbe4c3483	-0.19941907
178	0xbf1073ad	-0.5642651
179	0xbf6f91db	-0.9358193
180	0xbe8e78a3	-0.27826414
181	0x3f060c3a	0.52362406
182	0x3f5e7eeb	0.8691241
183	0x3f41c911	0.7569743
184	0x3ed33848	0.41253877
185	0x3e098a60	0.13431692
186	0xbc5aa7a3	-0.013345632
187	0x3f4a88c7	0.79114956
188	0x3ea719e3	0.32636937
189	0x3ea2f98e	0.3183102
190	0x3e147fed	0.14501925
191	0xbe8bb120	-0.27283573
192	0x3e8d10dc	0.27551925
193	0xbf138f82	-0.5764085
194	0xbc28495f	-0.010271399
195	0x3ed716ec	0.42009676
196	0x3effc93d	0.4995822
197	0x3eff37a8	0.4984715
198	0xbf34b343	-0.7058603
199	0xbe133227	-0.143746
200	0xbf2107f5	-0.62902766
201	0xbe083905	-0.13303001
202	0xbe76a0d8	-0.24084795
203	0x3d5475cc	0.051870152
204	0xbe7089bc	-0.23490041
205	0x3e42a85e	0.1900954
206	0x3cf84ebb	0.03031098
207	0x3da9d661	0.08292843
208	0xbf2c1306	-0.6721653
209	0xbeeef222	-0.46669108
210	0xbd35ae25	-0.04435553
211	0x3e8b0be2	0.27157503
212	0x3e772e07	0.24138652
213	0xbe892ef3	-0.26793632
214	0xbf89817f	-1.0742644
215	0xbe2943d7	-0.16529785
216	0x3d968dd7	0.073512726
217	0x3e19c35a	0.15015927
218	0xbf462841	-0.7740517
219	0xbe89c612	-0.26908928
220	0x3e781690	0.24227357
221	0xbe797080	-0.24359322
222	0xbdcac7fd	-0.09901426
223	0xbf15bdfd	-0.58493024
224	0x3ebc36b7	0.36760494
225	0x3f7b6a3d	0.9820898
226	0xba22c423	-0.0006209036
227	0xbe839083	-0.2569619
228	0xbe358156	-0.17725119
229	0x3e5f3b9b	0.21800081
230	0x3e14140d	0.14460774
231	0x3e75fa88	0.24021351
232	0xbe753146	-0.23944578
233	0x3f234941	0.6378365
234	0x3db254b3	0.08707561
235	0xbeb8449c	-0.35989845
236	0xbeac3885	-0.3363687
237	0x3e206358	0.15662897
238	0xbcd41e05	-0.02589322
239	0xbdc6d140	-0.0970788
240	0x3f4cb5d5	0.79964954
241	0xbe0974e6	-0.134235
242	0xbc7b2cd4	-0.015330512
243	0xbf49a4a3	-0.7876684
244	0xbd539f11	-0.05166537
245	0xbe39142f	-0.18074106
246	0x3d112bcf	0.03544217
247	0x3f4b743c	0.79474235
248	0xbe4734f4	-0.19453794
249	0x3e84ce39	0.25938585
250	0xbf19825a	-0.59964526
251	0xbf03e200	-0.51516724
252	0xbed902ff	-0.42385098
253	0xbe2e7854	-0.17038089
254	0x3de4560d	0.111492254
255	0xbed4ab57	-0.41536972

network_body._body_endoder.seq_layers.0.bias f4 [128]
0	0xbd21e8b0	-0.03952855
1	0x3d7d2cb3	0.061810207
2	0x3d8bd1c6	0.068271205
3	0x3da949cf	0.08266031
4	0x3d125154	0.03572209
5	0x3c81baee	0.015836205
6	0x3d5f422f	0.054506477
7	0x3d10b2f4	0.035326913
8	0x3df4eb53	0.11958947
9	0x3e02f412	0.12788418
10	0x3dce7291	0.100804456
11	0x3da55d05	0.08074383
12	0x3d857040	0.065155506
13	0xbba496dc	-0.0050228667
14	0x3d080f92	0.033217974
15	0x3d5fb1b0	0.054612815
16	0x3dbaf237	0.0912823
17	0xbd095595	-0.033528883
18	0x3d348d2f	0.044079956
19	0x3d769b6b	0.060206812
20	0x3c90ed5b	0.017691305
21	0x3d40aad2	0.047037907
22	0x3d316b30	0.043315113
23	0x3cfd210c	0.030899547
24	0xbc1692b8	-0.009190254
25	0x3d3d8f0b	0.046278995
26	0xbc391e16	-0.011298677
27	0x3d8bdcca	0.068292215
28	0x3cff2155	0.031143824
29	0x3ddb6977	0.10713475
30	0x3d28ac7e	0.041180126
31	0x3c978a68	0.018498614
32	0x3c8ea829	0.01741417
33	0x3d1fb2f2	0.038989015
34	0xbc854a6c	-0.016270839
35	0x3ae593cb	0.0017515359
36	0x3d1a55c4	0.03767945
37	0x3dccc935	0.09999315
38	0x3cfdfef3	0.031005358
39	0x3c63bb83	0.013899687
40	0x3d8d6374	0.06903735
41	0xbcd07e5c	-0.025450878
42	0x3c28f68e	0.0103126895
43	0x3c2cae37	0.010539583
44	0xba942edf	-0.0011305473
45	0x3d4ed9a2	0.05050052
46	0x3d0e1e28	0.034696728
47	0x3cfbedab	0.030752977
48	0x3da64a21	0.08119608
49	0x3d1f07ab	0.038825672
50	0x3d2f4e11	0.04279906
51	0xbccaacdb	-0.024740627
52	0x3d3f371d	0.04668342
53	0x3c1f52a9	0.009724298
54	0x3ddb6534	0.10712662
55	0x3d2d585a	0.042320587
56	0x3c460f04	0.012088541
57	0x3cc6b6bd	0.024257058
58	0x3d4201e7	0.047365095
59	0x3adebea7	0.0016994075
60	0x3d5f29b9	0.05448315
61	0x3c0c4e6d	0.00856362
62	0x3ca06aad	0.019582117
63	0x3e04b5dc	0.12959999
64	0x3c5e007d	0.013549921
65	0x3db9df45	0.090757884
66	0xbc2c4d35	-0.0105164545
67	0x3cf26325	0.029588291
68	0x3d04cdd7	0.032422867
69	0x3da03620	0.078228235
70	0x3cf443fd	0.029817576
71	0x3d1bb57d	0.038014878
72	0x3d71c1c7	0.05902269
73	0x3d31e667	0.04343262
74	0xbc6fb7b0	-0.014631197
75	0x3d5417ec	0.051780626
76	0x3cdba82b	0.026813587
77	0x3cab0211	0.020875009
78	0x3d621d1b	0.05520354
79	0x3d4ac92d	0.049508262
80	0x3defb531	0.117044814
81	0x3d915a69	0.070973225
82	0x3cf23264	0.029565044
83	0x3d94668d	0.072461225
84	0x3da39949	0.07988221
85	0x3cc17c20	0.023618758
86	0x3d3df050	0.046371758
87	0x3dcc6c8a	0.0998164
88	0x3d6f642c	0.05844514
89	0x3ce2e1e8	0.027695611
90	0x3d210a49	0.03931645
91	0x3d525b11	0.05135638
92	0xbca464ed	-0.020067656
93	0x3cd636ce	0.02614918
94	0x3cfca0b2	0.030838344
95	0x3d4c7bea	0.04992286
96	0x3d873db0	0.06603563
97	0x3d28aea3	0.04118217
98	0x3d89f6c4	0.0673652
99	0x3cef4094	0.029205598
100	0x3d47a768	0.048743635
101	0x3d591318	0.052996725
102	0x3cf323f1	0.029680224
103	0x3c72fe1a	0.01483109
104	0x3d838803	0.064224266
105	0x3d3c8c0b	0.046031993
106	0x3cfb5c55	0.030683676
107	0x3ca6db6b	0.020368299
108	0x3cb520b3	0.022110319
109	0x3cbb14bd	0.022837037
110	0x3d525bda	0.051357128
111	0x3d369e77	0.044584718
112	0x3d8317b8	0.06401008
113	0x3d964b74	0.0733861
114	0x3d3daecf	0.04630929
115	0x3cc406fd	0.023929114
116	0x3d8647be	0.065566525
117	0x3d11a516	0.03555783
118	0x3d5418ff	0.05178165
119	0x3d956e1b	0.072963916
120	0x3d3c8a16	0.046030127
121	0x3c9a508f	0.018837241
122	0x3d2127ee	0.03934472
123	0x3dd910cd	0.105989076
124	0x3dab98c0	0.08378744
125	0x3d724a07	0.05915263
126	0x3d2190be	0.039444678
127	0x3daa7758	0.08323544

network_body._body_endoder.seq_layers.2.weight f4 [128, 128]
0	0xba4aa305	-0.000772998
1	0x3d0c1865	0.034202952
2	0x3e3b8093	0.18310766
3	0xbe11f887	-0.14254962
4	0x3c98f068	0.018669322
5	0x3d8e5986	0.06950669
6	0x3ea62beb	0.32455382
7	0xbd37719d	-0.044786084
8	0xbe887603	-0.26652536
9	0xbdd0f978	-0.102038324
10	0x3dd173cd	0.10227165
11	0x3e5d4bba	0.21610919
12	0xbd3fb644	-0.04680468
13	0x3cb377c0	0.021907687
14	0x3ccda336	0.02510224
15	0x3c791897	0.015203617
16	0x3ebcdeec	0.36888826
17	0x3d68a5b2	0.056798644
18	0x3d72ad82	0.0592475
19	0xbe21a9a6	-0.15787372
20	0xbd21f667	-0.03954163
21	0xbe9f04e6	-0.31058425
22	0x3e5e5362	0.21711496
23	0x3dff835d	0.124762274
24	0xbd31ddf9	-0.04342458
25	0xbd1c215a	-0.038117744
26	0x3e09d67d	0.13460727
27	0xbe7c03fc	-0.24610895
28	0xbd9a764e	-0.07542096
29	0x3d22f329	0.039782677
30	0xbe76bba9	-0.24095024
31	0x3d575221	0.05256856
32	0x3d6919cd	0.05690937
33	0xbd6c71ca	-0.057725705
34	0x39dbdb2d	0.00041934234
35	0x3d8fce43	0.07021763
36	0x3e3ee5c8	0.18642342
37	0x3ced137a	0.028939951
38	0xbdb03ed8	-0.086057365
39	0x3e090044	0.13379008
40	0x3d56c8c3	0.052437555
41	0xbd712d58	-0.058881134
42	0x3e442180	0.19153404
43	0x3e3b65fe	0.18300626
44	0xbe0ece2a	-0.13945833
45	0x3d7331aa	0.059373535
46	0x3decfba2	0.11571433
47	0xbcde883a	-0.027164567
48	0xbde48863	-0.11158826
49	0x3df4d9ee	0.11955629
50	0xbe033546	-0.12813291
51	0x3b4eba8e	0.00315443
52	0x3e88728e	0.26649898
53	0xbe095f12	-0.13415173
54	0xbd2c4d49	-0.042065892
55	0xbe41e08c	-0.18933314
56	0xbd2f5d89	-0.04281381
57	0x3d659a6d	0.056055475
58	0x3e8ea3df	0.278594
59	0x3d353bd7	0.04424652
60	0xbd6dba75	-0.058039147
61	0x3c1283fd	0.008942601
62	0xbd04d849	-0.032432828
63	0xbe012548	-0.12611878
64	0x3db108c2	0.086442485
65	0x3e1aed69	0.15129627
66	0x3db51a71	0.08842934
67	0xbde25d94	-0.11053005
68	0xbaa9f82d	-0.0012967639
69	0x3d8d93f8	0.069129884
70	0xbd3d6c0b	-0.046245616
71	0xbddf17cd	-0.108932115
72	0x3e10ee53	0.14153413
73	0x3c6c4ccf	0.0144226095
74	0xbe4d7ac5	-0.20066364
75	0x3dc10f1f	0.09426712
76	0xbe7b85fc	-0.2456283
77	0xbe300822	-0.17190602
78	0x3c9bbba1	0.019010367
79	0xbe9533e8	-0.29141164
80	0x3df2d558	0.11857098
81	0x3df92885	0.121659316
82	0xbe5d3ddb	-0.21605627
83	0x3b43e038	0.0029888283
84	0x3d33e3aa	0.04391829
85	0xbc841b41	-0.016126277
86	0x3e0f2889	0.13980307
87	0xbd65dfe8	-0.056121737
88	0x3d20e37c	0.039279446
89	0xbdce23cc	-0.100654215
90	0xbd0affd3	-0.03393538
91	0x3d9c8bdb	0.07643863
92	0x3e2926ba	0.1651868
93	0x3ce7ffa1	0.028320136
94	0x3e71781d	0.23580976
95	0x3e9c70ac	0.30554712
96	0xbd86c772	-0.0658101
97	0x3d5749d6	0.05256065
98	0x3e32a093	0.17444067
99	0xbdb0bfc5	-0.08630327
100	0xbd6f7768	-0.058463484
101	0x3d964fdc	0.07339451
102	0xbabd8f9d	-0.0014462356
103	0x3e29dc7b	0.16588013
104	0xbd86816b	-0.06567653
105	0x3e16b13d	0.14716049
106	0x3de056b2	0.10954036
107	0xbd6f8f6b	-0.058486383
108	0xbe878c4c	-0.26474226
109	0xbd180374	-0.03711267
110	0x3eabfbba	0.3359049
111	0x3e0e4b57	0.13895927
112	0xbe5018c2	-0.20321944
113	0x3da621d3	0.0811192
114	0x3dc26dd3	0.094936036
115	0x3e08b8ed	0.13351794
116	0x3d832111	0.06402791
117	0xbddaa0f8	-0.106752336
118	0xbda41fb0	-0.080138564
119	0xbe5e57e4	-0.21713215
120	0xbd2589ea	-0.04041473
121	0x3ccda1a4	0.02510149
122	0xbdf04ca7	-0.1173337
123	0x3bcbdb81	0.0062212353
124	0xbd1b12db	-0.03785978
125	0xbb870b0c	-0.00412119
126	0x3e59d739	0.21273507
127	0x3dbd129e	0.092320666
128	0xbe18074d	-0.14846535
129	0x3c787444	0.015164439
130	0x3d1640aa	0.036682762
131	0x3e96b4cc	0.29434812
132	0xbd5e9db3	-0.054349612
133	0x3cc71b1f	0.024304925
134	0xbe22e15b	-0.15906279
135	0xbeb27a42	-0.348589
136	0x3e839927	0.25702783
137	0xbda79e1e	-0.08184455
138	0xbdda4693	-0.10657992
139	0xbd62f45f	-0.05540883
140	0xbe171739	-0.14754952
141	0xbd2a6c5b	-0.041607242
142	0x3dc97130	0.09836042
143	0xbeb06cb7	-0.34457943
144	0xbeb2ea67	-0.3494446
145	0xbe0fc12b	-0.14038531
146	0xbe3f1c56	-0.18663153
147	0x3d4c67b1	0.049903575
148	0x3dd58ce4	0.104272634
149	0x3d7b6e24	0.061384335
150	0xbd91ad5e	-0.07113145
151	0x3c20f8b1	0.009824918
152	0xbd696d2c	-0.05698888
153	0xbe7b19c6	-0.2452155
154	0xbed4f774	-0.41595042
155	0x3d86c933	0.065813445
156	0x3dd6e374	0.10492602
157	0x3e3d4656	0.18483862
158	0xbd2f5e0d	-0.042814303
159	0xbddda656	-0.10822742
160	0xbd2428ef	-0.0400781
161	0xbd03ca90	-0.0321756
162	0xbe1870d7	-0.14886795
163	0xbe4241cb	-0.1897041
164	0x3acf8a0e	0.001583399
165	0xbe3690be	-0.17828652
166	0xbe817297	-0.25282738
167	0xbdd7c8bc	-0.10536334
168	0x3e11751e	0.14204833
169	0xbcf4eb96	-0.029897492
170	0xbdc08ca3	-0.09401824
171	0xbe4735ef	-0.19454168
172	0xbcd15a1b	-0.025555661
173	0x3da4ebc7	0.080527835
174	0xbd5c2869	-0.053749476
175	0xbe35d641	-0.17757513
176	0x3e3d0191	0.18457629
177	0xbde466f7	-0.111524515
178	0xbc5266db	-0.0128419055
179	0xbdd26257	-0.10272663
180	0xbd6cb0cc	-0.057785794
181	0xbc8c03ab	-0.017091593
182	0x3e9013ae	0.28140014
183	0x3d539e27	0.051664498
184	0x3b0251a0	0.0019885078
185	0x3ca5f753	0.020259535
186	0x3bd83120	0.006597653
187	0xbe79a027	-0.243775
188	0x3e6b470f	0.22976325
189	0xbd9c04f5	-0.07618133
190	0xbdbee616	-0.09321229
191	0x3e6dc0a7	0.23218022
192	0xbdb4bf3b	-0.08825537
193	0xbea075e1	-0.31339934
194	0xbdb24448	-0.0870443
195	0x3e511746	0.20419034
196	0xbdb82363	-0.089911245
197	0x3dac0622	0.08399607
198	0xbbef5a08	-0.0073044337
199	0xbc95cf86	-0.018287431
200	0xbe26977d	-0.16268726
201	0x3dbabab2	0.091176406
202	0xbe267af2	-0.16257837
203	0xbd575e6e	-0.05258029
204	0xbd39b7e8	-0.045341402
205	0xbd870e90	-0.065945745
206	0xbec6eff6	-0.3885495
207	0x3dcffc03	0.10155489
208	0x3e76cdbd	0.2410192
209	0xbe2aa75a	-0.16665402
210	0x3d4ddded	0.050260473
211	0x3d528e0a	0.05140499
212	0xbe98fc3e	-0.29879946
213	0x3c8df51c	0.017328791
214	0xbe065ae5	-0.13120611
215	0xbe4bb40b	-0.198929
216	0x3db54848	0.08851677
217	0xbd29f842	-0.041496523
218	0xbcff1e58	-0.031142399
219	0xbd9fbaa5	-0.077992715
220	0xbd719f1c	-0.05898963
221	0xbd583645	-0.05278613
222	0xbe56bea9	-0.20971169
223	0x3da864f9	0.08222384
224	0xbe8902ad	-0.26759854
225	0xbd56451e	-0.05231201
226	0x3dee14ad	0.11625037
227	0xbe7657ce	-0.24056932
228	0xbe2f571e	-0.17123076
229	0xbe260344	-0.16212183
230	0xbb8a8ac0	-0.004227966
231	0xbc9a844c	-0.018861912
232	0x3e965d68	0.29368138
233	0x3e9a07a2	0.30083948
234	0x3d8e3796	0.06944196
235	0xbe862717	-0.26201698
236	0x3e15196b	0.14560477
237	0xbd809c06	-0.06279759
238	0xbe8e1116	-0.2774741
239	0xbdddd9cc	-0.10832557
240	0x3e83b095	0.2572066
241	0xbec6574c	-0.38738477
242	0xbcb58762	-0.022159282
243	0xbe0a652f	-0.13515161
244	0xbcf98605	-0.030459413
245	0x3e45a44a	0.19300953
246	0x3eac84c8	0.33695054
247	0x3e9199b1	0.2843757
248	0x3e8924f1	0.26785997
249	0x3ce78f18	0.028266475
250	0x3e2d5038	0.16925132
251	0x3e95637c	0.29177463
252	0x3e71010e	0.23535559
253	0xbb96b016	-0.004598628
254	0xbec02593	-0.37528667
255	0xbca5e038	-0.020248517

network_body._body_endoder.seq_layers.2.bias f4 [128]
0	0x3c8a2d25	0.01686723
1	0x3d348033	0.044067573
2	0x3cfccf18	0.030860469
3	0x3b9e9062	0.004838989
4	0x3c8024c1	0.015642526
5	0xbc066d9c	-0.008204844
6	0x3c0179e1	0.007902593
7	0x3d27649b	0.04086743
8	0xbce045b1	-0.027376981
9	0xba1829db	-0.0005804577
10	0x3c67b192	0.014141457
11	0x3b09cfce	0.0021028402
12	0x3cc1fca3	0.023680037
13	0x3c00db91	0.007864849
14	0x3d2f5d31	0.042813484
15	0x3c501649	0.012700626
16	0xbb9afebd	-0.004730074
17	0x3c4b6b80	0.012415767
18	0xbc44c097	-0.012008808
19	0x3c5d08ee	0.013490899
20	0x3c110052	0.008850174
21	0x3d364003	0.04449464
22	0x3cae9dfd	0.021315569
23	0x3caace4d	0.020850325
24	0x3c97bd49	0.018522875
25	0x3c18e01e	0.009330777
26	0xbc6c8e1b	-0.014438177
27	0x3c1dc3cf	0.009629204
28	0x3c898a25	0.016789505
29	0xbc8962c4	-0.016770728
30	0x3c9575d5	0.018244663
31	0xbb6f9c80	-0.0036561787
32	0x3be8f85f	0.0071096863
33	0x3be7e1b1	0.007076465
34	0x3ba9e475	0.005184705
35	0x3c180321	0.00927809
36	0xbb97c334	-0.0046314243
37	0xbbe15dbd	-0.0068776296
38	0x3cb4c713	0.022067582
39	0x3a3768b6	0.0006996499
40	0x3c8eec36	0.017446619
41	0x3c60d618	0.013722919
42	0x3da35a3b	0.079761945
43	0x3b8e60d0	0.004345037
44	0x3c6af674	0.014340986
45	0x3d0a87bd	0.033820856
46	0xbc1392f9	-0.009007209
47	0x3cd3a8de	0.025837358
48	0x3c9c854f	0.019106535
49	0x3c7fd0dc	0.015613761
50	0x3c4ef71a	0.012632156
51	0x3c9aadf3	0.018881774
52	0xbbb11a7f	-0.00540477
53	0x3c81dc4d	0.015852118
54	0x3ce7607c	0.02824425
55	0x3d399421	0.045307282
56	0x3cdd30a0	0.027000725
57	0x3c9f16d6	0.019420069
58	0x3d283f02	0.041075714
59	0x3ca760b4	0.020431854
60	0x3c7c45d4	0.015397508
61	0x3cd022df	0.025407253
62	0x3d1608c1	0.036629442
63	0x3ca9f2fe	0.02074575
64	0x3c2afd7b	0.010436411
65	0x3cae4b9f	0.021276293
66	0x3c8e2edc	0.017356329
67	0x3c4693fe	0.012120245
68	0x3d3c32c1	0.04594684
69	0x3c03ba73	0.008040058
70	0x3ce1ff55	0.027587572
71	0x3c8e96b6	0.017405849
72	0x3c3f12be	0.011662183
73	0x3c468251	0.012116031
74	0x3d550e4d	0.05201559
75	0x3c023b27	0.007948673
76	0xbc12d7b7	-0.008962563
77	0x3cb008ab	0.021488508
78	0x3d002a14	0.03129013
79	0x3d058b9e	0.032603852
80	0x3ca4973a	0.020091642
81	0x3c836d06	0.016043197
82	0x3c3a2c5d	0.011363116
83	0x3d3ca99b	0.046060186
84	0x3d6a8221	0.057253007
85	0xbc2f6609	-0.010705479
86	0x3cd457e2	0.025920812
87	0x3d15d736	0.036582194
88	0x3c8bea83	0.017079597
89	0x3cc136b6	0.023585659
90	0xbc391d2e	-0.011298461
91	0x3d224e07	0.039625194
92	0x3d1f43e9	0.038883124
93	0x3d22b482	0.039722927
94	0x3b437a89	0.0029827675
95	0x3c9e9e96	0.019362729
96	0x3c13dc9e	0.009024767
97	0x3ba7b86c	0.0051184203
98	0x3c8df171	0.017327042
99	0xbc69d43f	-0.014271795
100	0x3c6cf8f5	0.014463653
101	0xbcc014e2	-0.023447458
102	0x3c79db8d	0.015250099
103	0xbb0057dd	-0.001958362
104	0xba9006b1	-0.0010988322
105	0x3db83b57	0.08995693
106	0xbcc0f94a	-0.02355637
107	0x3c6df4b6	0.014523676
108	0x3c94e499	0.01817541
109	0x3bc6021b	0.0060427315
110	0x3bb01dc6	0.005374643
111	0x3cbec84f	0.023288874
112	0x3c512023	0.01276401
113	0x3b11be6e	0.002223875
114	0x3c79deaa	0.015250841
115	0xbc67aa22	-0.014139684
116	0x3cbdbd67	0.023161603
117	0x3cda65d7	0.02665989
118	0x3d2bf5cd	0.04198246
119	0xbc82ddcd	-0.015974903
120	0xbc07476a	-0.0082567725
121	0x3d23b735	0.03996964
122	0x3ca3441b	0.019929936
123	0x3d58ced7	0.052931633
124	0xbc307928	-0.010771073
125	0x3ccfba42	0.02535737
126	0xbbdc4738	-0.006722357
127	0x3b8e6897	0.004345964

action_model._continuous_distribution.log_sigma f4 [1, 3]
0	0xbe8bb753	-0.27288303
1	0xbe9ece0b	-0.31016573
2	0xbe3f67b1	-0.18691899

action_model._continuous_distribution.mu.weight f4 [3, 128]
0	0x3c927f35	0.017882923
1	0x3c649254	0.013950903
2	0xbc0c783b	-0.008573587
3	0x3ac0e903	0.001471788
4	0x3cb4aef4	0.02205608
5	0x3d721b7d	0.059108246
6	0x3cfbe88d	0.030750537
7	0x3c26f650	0.010190561
8	0x3c57f5e5	0.013181184
9	0x3c504f54	0.012714226
10	0x3ba4e3e5	0.00503205
11	0x3b7c0541	0.003845528
12	0x3cb21e93	0.021743095
13	0xbc6a9b92	-0.014319317
14	0xbc7b648d	-0.015343797
15	0xbcae7123	-0.021294182
16	0x3c351e1a	0.01105454
17	0x3aa20c00	0.0012363195
18	0x3c7c9daf	0.015418454
19	0xbcc5af8b	-0.024131557
20	0x3bea73db	0.0071549243
21	0x3c13f361	0.009030194
22	0xbd0bbe7a	-0.0341172
23	0xbbf33ebe	-0.007423251
24	0x3b3b3dd7	0.0028570795
25	0xbc8ab05d	-0.0169298
26	0x3c07de2d	0.008292717
27	0x3cbc491f	0.022984086
28	0xbbbb8193	-0.0057222336
29	0x3cb42390	0.021989614
30	0x3c7b37d5	0.015333136
31	0x3c0bda7e	0.008535979
32	0x3c3215be	0.010869442
33	0x3be1956b	0.006884267
34	0x3bf46f05	0.0074595236
35	0x3b75b291	0.0037490467
36	0x3c1f89f0	0.009737477
37	0x3cbe0530	0.023195833
38	0xbca8c409	-0.02060129
39	0x3c1aa028	0.009437598
40	0xbb04ad30	-0.002024483
41	0xbb2c0eda	-0.002625397
42	0x3ac9904c	0.0015378087
43	0x3cc5be92	0.024138723
44	0xbc3751f2	-0.011188971
45	0xbcea0911	-0.028568776
46	0x3c0164bd	0.007897553
47	0x3bf82a23	0.0075733825
48	0xbc3f3163	-0.01166949
49	0xbb9214ef	-0.004458062
50	0xbc7acba3	-0.01530734
51	0xbc9efa1a	-0.019406367
52	0xbbea4ad4	-0.0071500335
53	0xbba9223e	-0.0051615527
54	0xbc2c9696	-0.010533949
55	0x3bf427b8	0.007451024
56	0x3cab53c8	0.020913973
57	0xbc59da05	-0.013296609
58	0x3c9f2083	0.019424682
59	0x3cc468eb	0.02397581
60	0x3c484f46	0.0122259315
61	0xbca5d152	-0.020241413
62	0xbcecdbc7	-0.028913392
63	0x3b764c75	0.0037582193
64	0x3cf539ef	0.029934851
65	0x3c1bada3	0.009501847
66	0xbcec46d4	-0.028842367
67	0x3b18e70c	0.0023331074
68	0xbc9aef60	-0.018912971
69	0xbce18096	-0.027527135
70	0xbb2f7eef	-0.002677854
71	0xbc47ad87	-0.012187368
72	0x3c160c98	0.009158276
73	0x3b9b04fa	0.004730818
74	0x3afecf9f	0.0019440538
75	0x3c6f337f	0.01459968
76	0x3ae064a4	0.0017119837
77	0xbc902b84	-0.017598875
78	0x3b724baf	0.003697138
79	0xbcd5bfbc	-0.026092403
80	0xbaf8a267	-0.0018969298
81	0xbc5731c9	-0.013134428
82	0xbb81152b	-0.003939291
83	0x3b522daa	0.0032070675
84	0xbd0044a1	-0.03131545
85	0xbb2eee1f	-0.0026692224
86	0xbd010929	-0.031502876
87	0xbcbcab72	-0.02303097
88	0xbc18a3ca	-0.009316394
89	0x3c8aa8f3	0.016926264
90	0x3c6b3c42	0.014357628
91	0x3b0f59ca	0.0021873587
92	0xbd0b09c7	-0.03394487
93	0x3d0b60cb	0.034027856
94	0x3c3087b4	0.010774542
95	0xbc130ac7	-0.0089747375
96	0x3b7a58a9	0.0038199818
97	0x3c69f334	0.014279176
98	0xbb852ef9	-0.0040644375
99	0x3bf8474e	0.0075768596
100	0x3b3a6f36	0.0028447635
101	0xbc254a00	-0.010088444
102	0x3c0f9988	0.008764632
103	0x3cfb9035	0.030708412
104	0x3c759f63	0.014991614
105	0xbc1a157f	-0.009404539
106	0x3b3c6db4	0.0028751912
107	0x3caa36e6	0.02077813
108	0x3cc03ec8	0.023467436
109	0x3bf0c4b2	0.0073476667
110	0x3c35056e	0.011048658
111	0x3d138892	0.036018915
112	0xbc8312a1	-0.016000094
113	0xbbbf36c7	-0.0058353874
114	0x3b72ae8f	0.0037030315
115	0xbb9dc7ad	-0.004815063
116	0xbb937cb3	-0.0045009493
117	0xbbca3e8b	-0.0061720065
118	0x3be6b8c7	0.00704107
119	0xbb7ea075	-0.0038852964
120	0x3987128b	0.00025763022
121	0x3ba96540	0.0051695406
122	0x3bc93645	0.0061405026
123	0xb953a4f8	-0.00020183984
124	0x3b09ab0c	0.0021006493
125	0xbba8862e	-0.0051429486
126	0x3c959f63	0.018264478
127	0x3c50ac5d	0.012736407
128	0xbb749100	-0.0037317872
129	0x3c913cfb	0.017729273
130	0x3ab0ae03	0.0013479594
131	0x3c88d73d	0.016704196
132	0xbc776e8e	-0.015102042
133	0x3cafeb76	0.021474581
134	0xbcfd9ad4	-0.030957617
135	0x3bd3df80	0.0064658523
136	0xbcd97fb3	-0.02655015
137	0xbc2d941c	-0.010594394
138	0xbd3756d3	-0.044760536
139	0xbc1c165b	-0.009526814
140	0x3cad80b0	0.021179527
141	0x3cbba8b4	0.022907592
142	0xbc450fe1	-0.012027712
143	0xbc3a0ba4	-0.011355314
144	0x3c3e893e	0.011629401
145	0x3c551ce7	0.013007379
146	0x3c9fdd23	0.019514626
147	0x3b7f5f74	0.0038966807
148	0x3cb0948e	0.021555211
149	0xba609923	-0.0008567741
150	0x3b2c9d5d	0.0026338913
151	0x3c9f30af	0.019432394
152	0x3c7af65f	0.0153175285
153	0xbc09a66f	-0.008401497
154	0x3d1cd612	0.03829009
155	0x3c157f37	0.009124569
156	0xbbdeaec0	-0.006795734
157	0x3c996a7b	0.018727532
158	0xbcc0e733	-0.023547744
159	0x3b5c3106	0.0033598556
160	0x3b6bb8e8	0.0035968367
161	0xbb2b7504	-0.0026162276
162	0xbab44a29	-0.0013755012
163	0x3b363f62	0.0027808775
164	0x3ce4e56c	0.027941428
165	0xbccb157b	-0.024790516
166	0xbc4408e9	-0.011965015
167	0xbcb3c4ee	-0.02194449
168	0x3a6ff2cf	0.0009153308
169	0x3c1a54fa	0.009419674
170	0x3c896c0a	0.01677515
171	0xbca960ca	-0.020676035
172	0xbaa655d7	-0.0012690377
173	0xbb9c0eda	-0.0047625126
174	0xbcbe2585	-0.02321125
175	0xbc9c1243	-0.019051677
176	0x3c18bcc2	0.009322347
177	0xbbf880a9	-0.007583697
178	0xbbc372f0	-0.0059646294
179	0x3b6ac5d8	0.003582349
180	0xbc4967e0	-0.012292832
181	0xbc1f0f76	-0.009708276
182	0xba9a3bdc	-0.0011767107
183	0xbc39669d	-0.011315969
184	0x3c1cfbc0	0.009581506
185	0xbc6ba7e4	-0.01438329
186	0xbb6e9f97	-0.003641104
187	0xbb14e345	-0.002271847
188	0x3c79d303	0.015248063
189	0x3c0f326d	0.00874005
190	0x3bbd1e72	0.0057714516
191	0xbcbdb7de	-0.023158964
192	0x3b4e615c	0.0031491136
193	0xbc978d9f	-0.018500147
194	0xbb390ed2	-0.0028237593
195	0x3ceca932	0.028889272
196	0x3cb216c2	0.021739367
197	0x3c4c5eea	0.012473801
198	0x3a653b37	0.00087444804
199	0xbcd74472	-0.026277754
200	0xbbd1d217	-0.0064032185
201	0xbb27e636	-0.0025619394
202	0xbb6f6207	-0.0036526935
203	0xbc1b00c6	-0.009460634
204	0xbc2fe49e	-0.010735659
205	0x3b80da59	0.003932279
206	0x3c12938a	0.008946309
207	0x3c051e0c	0.0081248395
208	0x3b575b7c	0.0032860925
209	0x3c8a8cb6	0.0169128
210	0xbce56176	-0.028000575
211	0x389829df	7.255724e-05
212	0x3ca1e6f4	0.019763447
213	0x3bdef7fe	0.0068044653
214	0x3b92b210	0.004476793
215	0xbb5b7958	-0.0033489075
216	0xbca19986	-0.019726526
217	0xbb98925a	-0.0046561183
218	0xbc3f8e62	-0.011691662
219	0xbc88ebc1	-0.016713979
220	0xbc2d52d6	-0.010578832
221	0xbbe58df1	-0.007005446
222	0xbc2c122f	-0.010502382
223	0x3c1ce553	0.0095761595
224	0xbc8f5b44	-0.017499574
225	0x3caabbc6	0.02084149
226	0xbbe65a13	-0.0070297807
227	0x3b371385	0.0027935219
228	0x3c5dd9c4	0.013540689
229	0x3c1c1922	0.0095274765
230	0x3b9696d6	0.0045956178
231	0x3cb07774	0.021541335
232	0xbb85c934	-0.004082823
233	0x3b12e8c8	0.002241658
234	0xbc4d3904	-0.012525801
235	0x39b19485	0.00033870726
236	0xbd27e5fe	-0.040990822
237	0x3d0bdf99	0.034148786
238	0x3c7c6b7e	0.0154064875
239	0x3bfb0cc5	0.0076614344
240	0x3ca39e64	0.019972987
241	0x3c1b9a36	0.009497216
242	0xbc58f382	-0.013241651
243	0x3b82a4dd	0.0039869384
244	0xbcb989f3	-0.022648787
245	0x3bc4bfbc	0.006004302
246	0x3c6ba8e7	0.014383531
247	0xbca65b1b	-0.020307114
248	0xbd1b7507	-0.037953403
249	0xbb02bc05	-0.0019948494
250	0x3cc0dc23	0.02354247
251	0xbc3fefb4	-0.0117148645
252	0xbc579a46	-0.01315934
253	0x39999afd	0.0002929791
254	0x3c02df97	0.007987878
255	0x3a531219	0.0008051708

action_model._continuous_distribution.mu.bias f4 [3]
0	0xbc4f7f5d	-0.012664643
1	0xbb923273	-0.0044615804
2	0xbbb7d484	-0.0056100506

action_model._discrete_distribution.branches.0.weight f4 [3, 128]
0	0xbc272928	-0.0102026835
1	0x3c749534	0.014928151
2	0xbc793935	-0.015211393
3	0xbb36feba	-0.0027922825
4	0xbd58ca0f	-0.052927073
5	0x3cfe6d48	0.031057969
6	0x3d365e7e	0.04452371
7	0x3b4096b1	0.0029386694
8	0xbcef47f3	-0.029209113
9	0xbae57356	-0.0017505686
10	0xbd4049ff	-0.04694557
11	0xbd38e0a3	-0.045136105
12	0x3a9593cc	0.0011411845
13	0xbda79cca	-0.08184202
14	0xbc329efb	-0.010902162
15	0x3c13a9dd	0.0090126665
16	0x3b926c4f	0.004468478
17	0x3c842956	0.016132992
18	0x3dc7d840	0.09758043
19	0xbd84a253	-0.064762734
20	0x3d1797aa	0.037009872
21	0xbc782aa3	-0.015146884
22	0xbd702bc3	-0.058635484
23	0xbd7968ac	-0.06089084
24	0xbd4ec941	-0.0504849
25	0x3d40a316	0.04703053
26	0xbc0a2e46	-0.008433884
27	0xbbe9819c	-0.0071260463
28	0xbd53619f	-0.05160677
29	0x3d1585b7	0.036504474
30	0xbd528e2c	-0.051405117
31	0x3d31a30e	0.04336839
32	0x3d8aea7d	0.06783006
33	0x3da11b67	0.07866555
34	0x3daded0d	0.084924795
35	0x3c90786f	0.017635552
36	0xbd4cd8f4	-0.05001159
37	0x3d4d1979	0.05007312
38	0xbd9be156	-0.07611339
39	0xbd3e01f7	-0.046388593
40	0x3b4a1827	0.003083715
41	0xbd86f2be	-0.06589268
42	0xbc2fdb87	-0.010733492
43	0xbbbe5499	-0.0058084247
44	0x3c7a3aa7	0.015272773
45	0x3ce0e1c5	0.027451405
46	0xbd5d305c	-0.054001197
47	0xbd8412bd	-0.064488865
48	0x3db77f93	0.0895988
49	0x3cccdde3	0.025008148
50	0x3bfac810	0.007653244
51	0xbd16a51a	-0.036778547
52	0x3db633b0	0.08896577
53	0x3c6ca1a9	0.01444284
54	0x3ba447e0	0.005013451
55	0xbd54ac25	-0.051921982
56	0xbb859802	-0.0040769586
57	0x3c09b029	0.008403816
58	0x3d31d3a1	0.043414716
59	0xbd3b6ece	-0.04575997
60	0x3ba50f39	0.005037215
61	0xbda0c8e3	-0.07850816
62	0xbbbcb30a	-0.005758648
63	0xbd7f85a6	-0.062383316
64	0x3d4248d1	0.047432724
65	0xbd5e4727	-0.054267075
66	0x3b16d070	0.0023012422
67	0x3d903bab	0.07042631
68	0x3b13b980	0.0022540987
69	0xbd167e25	-0.036741395
70	0xbd539fa9	-0.051665936
71	0xbcefbc8c	-0.02926471
72	0xbd0a503e	-0.03376793
73	0xbc434a95	-0.011919637
74	0x3b5260e2	0.0032101204
75	0xbd3c9cd5	-0.046048004
76	0x3dd8f5d9	0.10593767
77	0xbd8488c0	-0.064713955
78	0xbb52602f	-0.0032100787
79	0xbcf4012d	-0.029785717
80	0xbd0260fd	-0.031830776
81	0xbd73771f	-0.059439775
82	0xbd4d5043	-0.05012537
83	0xbcf2649d	-0.029588992
84	0x3be814dd	0.007082565
85	0xbc93336f	-0.017968861
86	0xbc4f3259	-0.012646281
87	0xbc6090ca	-0.013706395
88	0xbcda2e39	-0.026633369
89	0xbc9cb2b7	-0.019128187
90	0x3cb1ad63	0.021689123
91	0x3cc4e8d4	0.024036802
92	0x3ce282b8	0.027650222
93	0x3c02345e	0.007947056
94	0xbd04fd3d	-0.03246807
95	0xbbe4892d	-0.0069743604
96	0x3d64f221	0.055894975
97	0x3d03c856	0.032173477
98	0x3c5e8d9b	0.013583566
99	0x3d2d1d5e	0.042264335
100	0xbd5b560d	-0.05354886
101	0x3cadc60b	0.021212598
102	0x3ccbe2a9	0.024888353
103	0xbbc2cc3e	-0.0059447577
104	0xbcd17e7f	-0.025573013
105	0xbc808093	-0.015686309
106	0xbd760dbb	-0.06007169
107	0xba6a0fd0	-0.0008928748
108	0xbd87d871	-0.0663308
109	0x3d50f42a	0.051014103
110	0xbcbd337e	-0.023095842
111	0x3d7757c1	0.060386423
112	0xbd038e86	-0.032118343
113	0xbc9b495a	-0.018955875
114	0xbc310329	-0.010803976
115	0x3e0992e2	0.13434938
116	0xbd8b22d0	-0.06793749
117	0xbcaa7084	-0.020805605
118	0x3d1ba394	0.037997797
119	0xbd877100	-0.0661335
120	0x3d305ff6	0.043060265
121	0xbcb90028	-0.022583082
122	0x3c3fc054	0.011703569
123	0xbb862134	-0.0040933136
124	0x3d0051d3	0.031328034
125	0xbcbae7f7	-0.022815688
126	0xbd053497	-0.032520857
127	0xbd2f79dc	-0.042840824
128	0xbcf7e8cb	-0.030262372
129	0xbcd938f2	-0.026516411
130	0xbd4a0624	-0.049322262
131	0x3d403894	0.046928957
132	0x3d19b50a	0.037526168
133	0x3d77a49b	0.060459714
134	0x3d764be6	0.060130976
135	0xbd24b283	-0.040209305
136	0x3c80344d	0.015649939
137	0x3d6e68c2	0.058205374
138	0x3d1271cd	0.03575306
139	0x3dc86010	0.097839475
140	0xbd9311db	-0.0718114
141	0x3d8fd6d2	0.070233956
142	0xbd9cb935	-0.07652513
143	0xbd7d6042	-0.061859377
144	0xbd46f1b2	-0.048570342
145	0xbd892ad3	-0.06697621
146	0x3d37ba8f	0.04485565
147	0x3d77eab3	0.06052656
148	0x3dea596f	0.11442839
149	0xbe018f2a	-0.12652269
150	0x3cd19b6a	0.025586803
151	0x3d8025d7	0.062572174
152	0x3d8f6f48	0.07003647
153	0xbe075581	-0.13216211
154	0xbc0478cb	-0.00808544
155	0x3de5a493	0.11213031
156	0x3dd06cec	0.10177025
157	0x3c86b27d	0.016442532
158	0x3d6c6522	0.057713635
159	0x3cbf24b9	0.02333294
160	0xbb3f0e34	-0.0029152753
161	0x3d9bb039	0.07601971
162	0x3cf8739c	0.030328564
163	0x3cdd0013	0.026977574
164	0x3e0db8be	0.13840005
165	0xbc336e8f	-0.010951652
166	0x3d3b92e4	0.045794383
167	0x3dadea7c	0.0849199
168	0xbd28b2d6	-0.041186176
169	0x3d8f5ee7	0.07000523
170	0xbd803dbe	-0.062617764
171	0x3d8207c4	0.063491374
172	0xbd5db04a	-0.0541232
173	0x3dc4328f	0.09579956
174	0x3d2b7be9	0.041866217
175	0x3d37957a	0.044820286
176	0xba1e833c	-0.0006046777
177	0xbd9514ba	-0.07279344
178	0xbc882c5d	-0.016622717
179	0xbcec2589	-0.028826492
180	0x3cad6128	0.021164492
181	0x3d84b849	0.06480462
182	0xbe0233d3	-0.12715082
183	0xbc95b612	-0.018275294
184	0xbdc16332	-0.09442748
185	0xbdf548d5	-0.11976782
186	0xbd9747c1	-0.07386733
187	0x3d092775	0.033484895
188	0x3d1fcce8	0.039013773
189	0x3d6e7b71	0.05822319
190	0xbddbaade	-0.1072595
191	0x3d5016ae	0.05080288
192	0x3d035ecd	0.03207283
193	0x3d178fc7	0.03700235
194	0x3db10a64	0.0864456
195	0x3ba501d3	0.005035618
196	0xbd457d15	-0.04821499
197	0x3d73997b	0.059472542
198	0x3de3d2bd	0.111241795
199	0x3ca0ac8c	0.019613527
200	0x3deb687d	0.11494539
201	0x3cb3c745	0.021945605
202	0xbdc0a083	-0.09405615
203	0x3c5d7cce	0.013518525
204	0xbbd981f1	-0.0066378047
205	0x3d67f5e2	0.056630976
206	0x3ce44b10	0.027867824
207	0x3de76490	0.11298478
208	0x3cd2f457	0.025751276
209	0x3d89a8a2	0.06721617
210	0x3d8626d0	0.06550372
211	0xbcac1f93	-0.02101115
212	0xbd666a86	-0.056253932
213	0x3d1bb109	0.03801063
214	0x3dbcc828	0.09217864
215	0xbd453127	-0.04814258
216	0xbd843d18	-0.06456965
217	0xbc5d4b07	-0.013506657
218	0xbd920f91	-0.07131875
219	0xbdcec283	-0.10095694
220	0xbdd897b5	-0.10575811
221	0xbbe07a5e	-0.006850525
222	0x3cf669c1	0.030079724
223	0xbc5796db	-0.013158525
224	0x3abaeea1	0.0014261791
225	0xbc97e646	-0.01854242
226	0xbd93ab64	-0.072104245
227	0xbd82e2dd	-0.06390927
228	0x3db4d9e7	0.08830624
229	0xbc791cab	-0.015204589
230	0x3d9ef464	0.077614576
231	0xbd689736	-0.05678483
232	0x3da7d8c3	0.08195641
233	0xbdc37da6	-0.0954545
234	0xbcd4e46a	-0.025987823
235	0x3d3c4776	0.045966588
236	0x3dd6006c	0.10449299
237	0xbd8e3a85	-0.069447555
238	0x3b124799	0.0022320508
239	0xbcbe934a	-0.023263592
240	0xbc0a8df3	-0.008456695
241	0xbcdbc117	-0.02682547
242	0xbcbe5459	-0.02323358
243	0xbd1083d2	-0.035281964
244	0x3dbeae87	0.09310632
245	0xbd95ca03	-0.07313921
246	0xbd2fd04d	-0.04292326
247	0x3c776f84	0.015102271
248	0x3c6729f5	0.014109124
249	0xbc7bd677	-0.015370957
250	0xbddf345c	-0.10898659
251	0xbd9fb0cc	-0.07797393
252	0xbbc5e6e3	-0.0060394867
253	0xbd852cbc	-0.06502673
254	0x3caa389b	0.020778945
255	0x3dd7f862	0.10545422

action_model._discrete_distribution.branches.0.bias f4 [3]
0	0xbd837674	-0.064190775
1	0x3c59d0ed	0.013294441
2	0x3d5ae5f2	0.05344195

action_model._discrete_distribution.branches.1.weight f4 [3, 128]
0	0xbda409f8	-0.08009714
1	0xbd89ebff	-0.06734466
2	0x3d9cf0b4	0.07663098
3	0xbd71f6da	-0.059073307
4	0x3c9dfc2c	0.019285284
5	0xbd65ff4c	-0.056151673
6	0x3d594514	0.053044394
7	0x3d820a9a	0.06349678
8	0xbda5002d	-0.08056674
9	0xbe0719f6	-0.13193497
10	0x3cb12bf6	0.021627408
11	0x3d0eff10	0.034911215
12	0xbcf58d1f	-0.029974518
13	0x3d32c54a	0.04364518
14	0x3b9d6ae6	0.004804003
15	0x3d417c84	0.047237888
16	0xbd3792b5	-0.044817645
17	0x3d6ec6f5	0.05829521
18	0xbd1954ff	-0.037434574
19	0x3c9977f0	0.018733948
20	0xbde3605d	-0.11102364
21	0x3d3e84fd	0.046513546
22	0x3d75afdc	0.059982166
23	0x3d1b989a	0.03798733
24	0x3c6868af	0.014185115
25	0xbcafc606	-0.02145673
26	0xbd9e0016	-0.0771486
27	0xbdb2e9e1	-0.08736015
28	0x3c740947	0.01489479
29	0xbd7d2894	-0.061806276
30	0x3d295a7f	0.04134607
31	0xbcbc92bd	-0.023019189
32	0xbc92a8e1	-0.017902793
33	0xbd90e98f	-0.07075798
34	0xbc4d5f1a	-0.012534881
35	0xbbc5efbd	-0.006040542
36	0x3bea4a23	0.007149951
37	0xbd5dd348	-0.05415657
38	0x3d0e47a2	0.034736283
39	0x3d1eea13	0.03879745
40	0x3d82bc1f	0.063835375
41	0x3d363ca1	0.044491414
42	0x3d61177a	0.05495403
43	0xbd995e4d	-0.074886896
44	0x3d6b8bfc	0.057506546
45	0x3c1e77e4	0.009672139
46	0xbcbb94c8	-0.022898093
47	0x3c99bf3b	0.018767944
48	0xbd7361fa	-0.05941961
49	0x3d3df10f	0.04637247
50	0x3d94f4e4	0.07273272
51	0x3d549947	0.05190399
52	0xbd00232a	-0.031283535
53	0x3d06532c	0.032794163
54	0x3d49fe5f	0.049314853
55	0x3d920d6e	0.07131468
56	0x3d4adaac	0.049524948
57	0x3d7a2262	0.061067946
58	0xbc83a1ed	-0.016068423
59	0x3d117157	0.03550848
60	0xbda8d919	-0.08244533
61	0x3ba19bf9	0.0049319235
62	0x3d8919ae	0.06694351
63	0x3c9fa745	0.01948894
64	0xbdc89b1d	-0.097952105
65	0x3d37f3d7	0.04491028
66	0xbc289edb	-0.01029178
67	0xbd2e3a26	-0.042535923
68	0x3dc00cd6	0.09377448
69	0x3c9b149b	0.018930724
70	0x3d18bf4d	0.037291814
71	0x3ceab4ac	0.028650604
72	0x3cf4c632	0.029879663
73	0x3cade9d2	0.021229658
74	0x3d92fb4f	0.071768396
75	0x3ce5b3f5	0.028039912
76	0xbd06a41c	-0.03287135
77	0x3cfb4922	0.03067452
78	0x3d0529de	0.03251063
79	0x3d245d24	0.04012789
80	0xbd0b78ea	-0.03405086
81	0x3c32faa0	0.0109240115
82	0x3c81b06b	0.015831193
83	0x3d0086b0	0.031378448
84	0x3d9d1284	0.07669547
85	0xbdf9c4ae	-0.12195717
86	0x3d84d304	0.064855605
87	0x3dcb2b2c	0.09920344
88	0x3c97409e	0.018463429
89	0x3da5f8c0	0.08104086
90	0xbd7c4575	-0.061589677
91	0x3d93bc88	0.07213694
92	0x3d9121b6	0.07086508
93	0xbc9becbb	-0.01903378
94	0xbc0b4954	-0.0085013695
95	0x3d585e9a	0.052824594
96	0xbcf09810	-0.029369384
97	0x3c9885fb	0.018618574
98	0x3db71ef7	0.08941453
99	0xbc7aceff	-0.015308141
100	0x3d13cc96	0.03608378
101	0xbc8ca5ff	-0.017168997
102	0xbc26cef8	-0.010181181
103	0xbdb222a8	-0.086980164
104	0xbd256203	-0.040376674
105	0x3c49fa4e	0.012327744
106	0x3cfc81e4	0.030823655
107	0xbc87325a	-0.016503502
108	0x3c7b44f7	0.015336267
109	0xbdbc5a7d	-0.09196947
110	0x3d09bca8	0.033627182
111	0xbd668c80	-0.056286335
112	0x3d1d341b	0.03837977
113	0x3d87cd65	0.06630973
114	0x3d1bf0d2	0.03807146
115	0xbd687b21	-0.05675805
116	0x3beed664	0.007288741
117	0x3d5b4d07	0.053540256
118	0x3bc2807f	0.005935728
119	0x3cb79039	0.022407638
120	0xbd5f8f4c	-0.054580018
121	0xbd74d336	-0.05977174
122	0x3d65d800	0.056114197
123	0x3d6f6a4c	0.058450982
124	0xbd7f5cbb	-0.062344294
125	0x3d0a25d8	0.033727497
126	0x3cb6abfb	0.022298804
127	0xbbb1904c	-0.005418813
128	0x3e27034a	0.16309848
129	0xbe189793	-0.14901571
130	0xbdd1a75f	-0.10237002
131	0xbdcffb95	-0.10155407
132	0xbd4f8b1e	-0.050669782
133	0x3e05463e	0.13015077
134	0x3d0fd3b1	0.035113994
135	0xbe54f733	-0.20797424
136	0x3c4b116f	0.012394293
137	0xbca6673c	-0.020312898
138	0xbd603a92	-0.054743357
139	0xbd35445b	-0.044254642
140	0xbdd9e9d9	-0.10640306
141	0xbd22023a	-0.039552905
142	0x3d71acb1	0.059002582
143	0xbd847b14	-0.06468788
144	0xbd829a34	-0.06377068
145	0xbd8fcb2a	-0.07021172
146	0x3d37235f	0.044711467
147	0xbcc281e5	-0.02374358
148	0x3e0b0a3c	0.13578123
149	0xbaea7a06	-0.0017889149
150	0xbd92f753	-0.071760796
151	0xbd307450	-0.043079674
152	0xbd0ab082	-0.033859737
153	0x3d16683e	0.036720507
154	0x3dfaffc4	0.12255815
155	0x3e0af119	0.13568534
156	0xbd9aebdc	-0.07564518
157	0x3d23941c	0.03993617
158	0xbcc711a2	-0.0243004
159	0x3bad46f2	0.0052879984
160	0x3d286cf8	0.041119546
161	0x3e390aa0	0.1807046
162	0x3c5030a6	0.012706911
163	0xbd3014a1	-0.042988423
164	0x3d365bb4	0.04452105
165	0x3d052eb1	0.03251523
166	0xbd262ab6	-0.040568076
167	0xbd2ead3e	-0.042645685
168	0xbdde21d1	-0.10846294
169	0xbc63ae26	-0.013896501
170	0xbe58929d	-0.21149679
171	0x3d302032	0.042999454
172	0x3b7631c7	0.003756629
173	0x3c027258	0.007961832
174	0xbdbfcd7b	-0.09365364
175	0xbdd187ca	-0.10230978
176	0x3bcc75e9	0.006239642
177	0xbcf7fc63	-0.030271715
178	0xbd354de9	-0.044263754
179	0xbd558968	-0.052132994
180	0x3d18aa8b	0.037272017
181	0x3dcba843	0.09944203
182	0x3c85ab4a	0.016317029
183	0xbb97204c	-0.0046120044
184	0xbcc41a29	-0.023938255
185	0xbccc3806	-0.024929058
186	0x3db2be6b	0.087277256
187	0xbddb557c	-0.10709664
188	0x3d578225	0.05261435
189	0xbd5db687	-0.05412915
190	0x3ae7b74a	0.0017678526
191	0xbcdd4b59	-0.027013468
192	0x3e57e82d	0.21084662
193	0xbb9a83e6	-0.0047154306
194	0x3e6b0c19	0.22953834
195	0x3c4bce67	0.012439347
196	0xbe387aec	-0.18015641
197	0xbb2e6ddc	-0.0026615774
198	0xbd13cadd	-0.036082137
199	0xbc98f1b2	-0.018669937
200	0xbce9f80c	-0.02856066
201	0x3c54dd27	0.01299218
202	0xbb702860	-0.003664516
203	0xbc952e0c	-0.018210433
204	0x3dbe609b	0.0929577
205	0xbcaf1596	-0.021372598
206	0xbc87f2a8	-0.0165952
207	0x3b59d0e3	0.0033236078
208	0xbdc72c9f	-0.09725308
209	0xbdcd7711	-0.10032476
210	0xbd1e82ea	-0.038699068
211	0x3e5bdbf5	0.21470626
212	0xbe1ea9ff	-0.15494536
213	0x3dca9bbc	0.09892985
214	0xbcf4ac98	-0.029867455
215	0xbe24eb7d	-0.16105457
216	0xbcf559cd	-0.029950047
217	0xbdd748e8	-0.10511953
218	0xbd989d18	-0.07451838
219	0xbc506d97	-0.012721441
220	0xbbf17cc8	-0.0073696114
221	0xbe917079	-0.28406122
222	0xbd8797c0	-0.06620741
223	0xbd91d703	-0.07121088
224	0x3ca2070b	0.019778749
225	0xbd5740e8	-0.052552134
226	0xbd60d9f7	-0.054895367
227	0x3d501694	0.050802782
228	0x3afc7a0d	0.0019262448
229	0x3d712ab8	0.05887863
230	0x3e25e002	0.16198733
231	0xbe0186a9	-0.12649025
232	0xbc8bd0fd	-0.017067427
233	0x3da05403	0.07828524
234	0x3e0afe2e	0.13573524
235	0x3df3f669	0.119122334
236	0xbddab4de	-0.10679029
237	0xbc9f2240	-0.019425511
238	0xbcbc264f	-0.022967486
239	0x3cd16336	0.025560003
240	0x3c5f664a	0.013635227
241	0xbca683ba	-0.020326484
242	0xbc16c44d	-0.009202075
243	0x3db1a1c1	0.0867343
244	0xbd58f63e	-0.05296921
245	0xbd37be32	-0.04485912
246	0xbe81a64f	-0.25322196
247	0x3d13f6f1	0.036124174
248	0x3d48f3cd	0.04906063
249	0x3e4aafd6	0.19793639
250	0xbd10272e	-0.035193615
251	0x3c055a93	0.00813927
252	0x3cc8e076	0.024521094
253	0x3c47674b	0.012170623
254	0xbe103903	-0.14084248
255	0xbdb43193	-0.08798518

action_model._discrete_distribution.branches.1.bias f4 [3]
0	0x3caac10d	0.020844007
1	0xbcbec54e	-0.023287442
2	0xbca6460d	-0.020297075

action_model._discrete_distribution.branches.2.weight f4 [2, 128]
0	0xbc741931	-0.014898584
1	0xbd9e4776	-0.07728474
2	0x3ca66d7a	0.020315874
3	0xbcf7d5ef	-0.030253379
4	0x3d2ad5bc	0.04170774
5	0xbd14c79a	-0.036323167
6	0x3d7babb9	0.061443064
7	0x3d2c482a	0.04206101
8	0xbc30cdd9	-0.010791265
9	0xbd8ec111	-0.06970418
10	0x3d3b96b0	0.045798004
11	0x3d57ec1e	0.052715413
12	0xbd812824	-0.06306484
13	0x3ccd54a1	0.025064768
14	0xbd0bf843	-0.034172308
15	0x3bbbc129	0.0057298136
16	0xbd8ee1f6	-0.069766924
17	0x3ccb175f	0.024791418
18	0xbd234ccb	-0.039868157
19	0x3d3f8eed	0.046767164
20	0xbcc9f943	-0.02465499
21	0x3d0b5398	0.034015268
22	0x3c8d3ff8	0.017242417
23	0x3d7e8044	0.062134042
24	0x3c95f90e	0.018307235
25	0xbd0bdf00	-0.034148216
26	0x3d463b9c	0.04839669
27	0xbd317829	-0.043327484
28	0x3d32ec7d	0.043682564
29	0xbd7e720d	-0.062120486
30	0x3d6fe131	0.05856437
31	0xbd5b82e9	-0.053591643
32	0xbd2f35ee	-0.04277604
33	0xbca31c28	-0.019910887
34	0xbd175c50	-0.03695327
35	0xbd5921cc	-0.053010747
36	0x3cd0f9d7	0.025509758
37	0xbd5d9b1a	-0.054102995
38	0x3d325c5c	0.043545112
39	0x3cc2268d	0.023700023
40	0x3ce3d6fd	0.027812475
41	0x3d395552	0.045247383
42	0xbd51966b	-0.05116884
43	0x3cc77598	0.024348065
44	0x3ce7200a	0.02821352
45	0xba8b6606	-0.0010635264
46	0xbc941ac4	-0.01807917
47	0x3c8f2f19	0.017478513
48	0xbd32dea5	-0.04366936
49	0x3c977c2f	0.018491833
50	0x3c0c1372	0.008549558
51	0x3c1b3d35	0.009475042
52	0xbc84f6ac	-0.016230904
53	0x3c31f961	0.010862679
54	0x3d1a6f60	0.03770387
55	0x3d7a7331	0.06114501
56	0x3ceb34a1	0.028711619
57	0x3c11d18c	0.0089000575
58	0xbd105333	-0.035235595
59	0x3cfd8c8c	0.030950807
60	0xbd8cc451	-0.06873382
61	0x3d26a695	0.04068621
62	0x3d0e79d4	0.034784153
63	0x3d1c161f	0.038107034
64	0xbc886ac1	-0.016652467
65	0x3d37d192	0.044877596
66	0xbcec6b3c	-0.028859727
67	0xbd404736	-0.046942912
68	0x3cac0888	0.021000162
69	0x3d8d709d	0.06906245
70	0x3cfd86dc	0.030948095
71	0x3ccd1059	0.02503221
72	0x3d53f58f	0.051747855
73	0x3d34beec	0.04412739
74	0x3d82fea7	0.06396227
75	0x3cf6094d	0.030033732
76	0xbcfec790	-0.031101018
77	0x3d3d85e2	0.04627026
78	0x3d5910e3	0.05299462
79	0x3cd42262	0.025895301
80	0xbd4a56cb	-0.04939918
81	0x3d154c1f	0.036449548
82	0x3d60f6b3	0.05492277
83	0x3d852beb	0.06502517
84	0xbcf4cdaa	-0.029883225
85	0xbca60a6c	-0.020268641
86	0x3cf50787	0.029910816
87	0x3b34239c	0.0027487045
88	0x3cbe0bbd	0.023198957
89	0x3d035c8f	0.032070693
90	0xba64bc10	-0.0008725533
91	0x3d3c6c19	0.046001527
92	0x3d14ee19	0.03635988
93	0xbc090ea0	-0.008365303
94	0x3d0378b1	0.032097522
95	0x3cc4b99e	0.02401429
96	0xbd119b40	-0.03554845
97	0x3d61a016	0.05508431
98	0x3c846445	0.016161093
99	0xbd1bd9fa	-0.038049676
100	0x3d5e3adc	0.05425535
101	0xbd0fa311	-0.03506762
102	0xbc3b9236	-0.011448434
103	0xbd3ac965	-0.04560222
104	0xbb12d71a	-0.0022406043
105	0xbc9bb056	-0.019004982
106	0xbcb5686c	-0.022144519
107	0x3d90968d	0.07059965
108	0x3d3d3ef2	0.046202607
109	0xbda0d52e	-0.07853161
110	0x3c9b5261	0.01896018
111	0xbd61fe2c	-0.055174038
112	0x3d552c3b	0.052044135
113	0x3c8908b7	0.016727788
114	0x3cff11f9	0.0311365
115	0xbd877b2b	-0.06615289
116	0x3d59e0d6	0.053192936
117	0x3cfadb22	0.030622069
118	0xbcdb58c7	-0.02677573
119	0x3ce05047	0.02738203
120	0xbd8bc14f	-0.0682398
121	0xbc65cba1	-0.0140256
122	0x3b8f554f	0.0043741832
123	0x3da803c7	0.082038455
124	0xbd7b6842	-0.061378725
125	0x3d0f5ed8	0.03500256
126	0x3a2415a6	0.00062593294
127	0x3cd5e1aa	0.026108582
128	0x3b86bdab	0.0041119657
129	0x3da466fb	0.080274545
130	0xbc9ad1f8	-0.018898949
131	0x3d30b9f9	0.043146107
132	0xbd2fae9b	-0.042891126
133	0x3cf914f6	0.030405503
134	0xbda651c6	-0.08121066
135	0xbd389e8a	-0.04507307
136	0x3cb45a53	0.022015726
137	0x3d7f0696	0.06226214
138	0xbd387575	-0.04503389
139	0xbd4b2007	-0.04959109
140	0x3d42e05f	0.04757726
141	0xbce9e4d5	-0.028551498
142	0x3ce82a2f	0.028340427
143	0xbc253297	-0.010082862
144	0x3dab49f5	0.083637156
145	0xbcc39f6a	-0.023879725
146	0x3d74dcc1	0.05978084
147	0xbd1515dd	-0.036397804
148	0x3d587693	0.052847456
149	0xbd0b048a	-0.033939876
150	0xbc836629	-0.016039925
151	0xbd15bc42	-0.03655649
152	0xbcdd7596	-0.027033608
153	0x3d298afb	0.041392308
154	0xbd475dd1	-0.048673455
155	0x3d45d658	0.048300117
156	0xbd050ed8	-0.03248486
157	0x3d1e2505	0.038609523
158	0xbd4d675f	-0.05014741
159	0x3cff710c	0.031181835
160	0x3d331c94	0.043728426
161	0x3d2f99bc	0.042871222
162	0x3d2ad479	0.041706536
163	0x3d3bd17d	0.04585408
164	0xbc99a90f	-0.018757371
165	0x3d1c4648	0.038152963
166	0xbd5b12c3	-0.05348469
167	0xbcd6a42d	-0.026201332
168	0xbcb8e8fd	-0.022572035
169	0xbd3949d8	-0.04523644
170	0x3d6213d6	0.0551947
171	0xbc09685b	-0.008386697
172	0xbd0dd414	-0.03462608
173	0xbc8a1863	-0.016857332
174	0x3c9c50c3	0.019081479
175	0xbd391edb	-0.04519544
176	0x3d6b33c8	0.05742243
177	0xbba871cf	-0.00514052
178	0xbd1a9d3a	-0.0377476
179	0xbccdea0a	-0.025136013
180	0x3d2bb8fc	0.04192446
181	0xba814721	-0.0009863117
182	0xbc99cc10	-0.018774062
183	0xbd85b9e8	-0.065295994
184	0xbcc41b1e	-0.023938712
185	0xbbf2479e	-0.0073937913
186	0x3cc67a87	0.024228347
187	0xbcd265d5	-0.025683323
188	0x3d726ca8	0.059185654
189	0xbd37714c	-0.044785783
190	0xbcfb7741	-0.030696513
191	0xbd34caba	-0.044138648
192	0x3cf7a3c9	0.030229466
193	0xbd7062df	-0.05868804
194	0x3d12b739	0.035819266
195	0x3d535786	0.05159714
196	0xbc9d3a9c	-0.019192986
197	0xbd3d0cc1	-0.04615474
198	0xbd2461fa	-0.0401325
199	0xbcafa0db	-0.021439007
200	0xbd17594b	-0.03695039
201	0xbd1c6a0f	-0.038187083
202	0xbd79e923	-0.061013352
203	0xbcc8b8e9	-0.024502235
204	0x3d624ef8	0.05525109
205	0xbd615b1a	-0.05501852
206	0xbd96120b	-0.0732766
207	0xbbbf2118	-0.0058328025
208	0x3d32dc03	0.04366685
209	0xbd229411	-0.03969199
210	0xbd035321	-0.0320617
211	0xbd60729f	-0.05479681
212	0x3d64a748	0.055823594
213	0x3d4523ab	0.04812972
214	0xbd4d77e8	-0.05016318
215	0xbc4e17d9	-0.012578928
216	0xbc74078b	-0.0148943765
217	0xbcfe42b8	-0.031037673
218	0xbcabbd9b	-0.020964434
219	0xbd3dfaf0	-0.04638189
220	0xbc86f40c	-0.016473792
221	0x3c93bee1	0.018035354
222	0xbd1b909e	-0.037979715
223	0xbcd0de7a	-0.02549671
224	0x3d2dc3ae	0.042422943
225	0xbd6ac50d	-0.05731683
226	0xbccb6242	-0.024827126
227	0x3cbb72eb	0.022881946
228	0xbcdeaaef	-0.027181117
229	0x3d11c540	0.035588503
230	0x3cae1c86	0.021253835
231	0x3d051311	0.032488886
232	0x3c9354b2	0.017984722
233	0x3c527b7f	0.012846827
234	0x3ccb502a	0.024818499
235	0xbd894593	-0.06702723
236	0xbd326469	-0.04355279
237	0x3dcd20c6	0.10016017
238	0xbcef4f96	-0.029212754
239	0x3d3d537e	0.046222202
240	0xbd80162c	-0.06254229
241	0xbccbc4a2	-0.024874035
242	0xbd562e69	-0.052290354
243	0x3d2be9e6	0.04197111
244	0xbd530b18	-0.05152425
245	0xbcd15139	-0.025551425
246	0x3cf67c2e	0.03008851
247	0xbc74edb7	-0.014949254
248	0x3d94729c	0.072484225
249	0x3c7ef8cd	0.015562248
250	0xbd06aca3	-0.032879483
251	0xbd8c0b38	-0.06838077
252	0x3d8dcbd0	0.0692364
253	0xbd2908a3	-0.041268002
254	0xbbc2ca58	-0.0059445314
255	0xbd3b66d6	-0.04575237

action_model._discrete_distribution.branches.2.bias f4 [2]
0	0x3ca372ef	0.019952266
1	0xbca372ef	-0.019952266
