results/FlappyAgentBCTestDeathPenalty3.0/FlappAndSwitch_deathPenalty3000.onnx (onnx, 92844 bytes, 7 tensors)

action_model._continuous_distribution.mu.weight f4 [1, 128]
00000000: a200 133c 46dc c83b 2582 a93b 15e4 4fbb
00000010: d164 053c 937e d5bb 9e6b ae3b 1862 3c3b
00000020: b92f f33c d4b1 1b3b fb96 8c3c 0543 b03b
00000030: bf17 7ebb 5eb1 3bbc d940 0dbc d9f5 373b
00000040: dfbb 6e3c 54c9 023c 1857 c6bb ecce 973d
00000050: e20a 4ebb 53e6 9d3c 28b7 ad3c 229b 50bb
00000060: ce38 4cba f9b8 a0bb d981 a33c 1866 4cbb
00000070: d174 433c ad77 1dbc f362 4d3c 9dd8 15bc
00000080: 23e3 173b 80bb 89bc f8a6 8a39 abc1 073c
00000090: ff4e 85bc 000b ff3b 2407 863c 023a 6a3d
000000a0: 9272 773b 4a05 a7bb 6285 bd3c 3bb0 aab9
000000b0: c90b cbbc 238e dfbc 0adb 86bc d987 f0bb
000000c0: aa0b 3ebc 5dea e7b9 212e dc3b adac 883c
000000d0: e1cd f93b c0c5 85bc 3f2b c8b9 e2ab 4d3c
000000e0: 392a e0bb 055d 4c3b 06bd 72bb 1ef7 033d
000000f0: 9276 de3b fa66 5bbd 547a 29bc d027 b4bc
00000100: 1da9 a4bb de43 a53b 5dcc a5bc 93c3 373a
00000110: 6016 7e3c 13a6 1238 a0e4 16bc 1a3e de3b
00000120: 7e58 45bc 130d cdbb 2b6f 2a3d f75f 1b3b
00000130: 1de2 0cbd fbce 71bb 78a5 83bb 2262 cd3b
00000140: 529d 0ebc 6ca6 11bc b28c bdbc cf0c ca3b
00000150: 4bce 0d3c 9e57 103c c1b7 be3c 522f 083b
00000160: 184b 963c 90b0 94ba 997e edbc e41e c63c
00000170: 1631 303c b5f8 503c ce6f 253a 4340 d0bb
00000180: 3322 e6ba f4f8 d4bc 7207 49bc 0a3a db3c
00000190: e6a1 ddba 01fd cbbb 36a2 403c 4cbf 1ebd
000001a0: 1b5a ae3c 4847 98bb ea9e 133d 694e ce3c
000001b0: 0bc2 aebb 78d1 b4bb e210 433d 79c0 a5ba
000001c0: 0d2a 39bc 8c1f e5ba e776 38bc 2f87 1ebb
000001d0: b526 3fbc 6227 103b d563 bbbc 95d6 67b9
000001e0: 1554 613a 0cd5 3b3c cd01 3c3b bf55 dc3c
000001f0: d3a7 b8bc 9b18 4bbc 5ca7 a6bb c78d 8f3a
0.008972319 0.0061297743 0.005172985 -0.003172164 0.008141712 -0.006515333 0.0053228876 0.0028744992
0.029685842 0.0023757117 0.017161837 0.005379083 -0.0038771478 -0.011455862 -0.008621418 0.002807012
0.014571159 0.007982571 -0.006052863 0.07412514 -0.0031439592 0.019274866 0.0212055 -0.0031830748
-0.0007790447 -0.004904863 0.019959377 -0.0031188782 0.011929707 -0.009611052 0.012535798 -0.009145883
0.0023176156 -0.01681304 0.00026445813 0.00828592 -0.01627302 0.0077832937 0.016360827 0.057184227
0.0037757498 -0.005097066 0.023134891 -0.0003255623 -0.024785893 -0.027289456 -0.016461868 -0.007340413
-0.011599461 -0.00044234368 0.006719366 0.0166839 0.0076234196 -0.016329646 -0.00038179194 0.012553187
-0.006840971 0.0031183374 -0.0037038936 0.03221809 0.006789037 -0.053565003 -0.010344107 -0.02199164
-0.0050250427 0.005043491 -0.02023905 0.0007010039 0.015508264 3.496378e-05 -0.009209782 0.0067823054
-0.012045024 -0.006257662 0.041609924 0.0023708323 -0.034395326 -0.0036897052 -0.004017528 0.006267802
-0.0087045 -0.008889776 -0.023138378 0.0061660777 0.008655141 0.008809952 0.02328098 0.0020780158
0.018346354 -0.0011344124 -0.02899103 0.024184652 0.0107538905 0.012754609 0.00063109107 -0.006355317
-0.00175578 -0.025997616 -0.0122698415 0.026761074 -0.0016909211 -0.006225229 0.011757424 -0.038756654
0.0212832 -0.0046471693 0.036040224 0.025183873 -0.0053331903 -0.0055181347 0.047623523 -0.0012645862
-0.01130153 -0.0017480715 -0.011258817 -0.0024189462 -0.011666943 0.002199613 -0.022874752 -0.00022109815
0.0008595598 0.011464369 0.0028687597 0.026896356 -0.022540962 -0.012396003 -0.0050858688 0.0010952287

action_model._discrete_distribution.branches.0.bias f4 [2]
00000000: af53 583b 9a53 58bb
0.0033008864 -0.0033008815

action_model._discrete_distribution.branches.0.weight f4 [2, 128]
00000000: 9687 6b3c ff2c d93c 3beb 65bc 5f88 c2bc
00000010: d021 83bc 3fba 26bd 2a7f 86bb c8f3 523d
00000020: 09d5 e93b 03d6 713d 62c0 d2bc bf63 953c
00000030: 96de b23c 93c0 d43c c886 503c 08d5 063c
00000040: b7ef 82bc 6896 673c 1d48 803d 8b8b 28bc
00000050: 3bf9 09bc 0816 27bc ba77 1d3c e914 74bd
00000060: 74fd 1d3d 6167 88bc 6551 90bc 1b56 c539
00000070: 9481 04bd 88a3 7dbc 7495 713d 1df5 23bd
00000080: b8ee 8f3b 9a13 773c 7ef5 b0bb 51d1 eebc
00000090: 3213 b1bc 1c33 0e3d 2206 4dbc 3c2d 173d
000000a0: e746 e1bb 7d09 93bc cd34 a7ba dcc9 12bc
000000b0: 9867 b4ba d15b bdbb 2ef4 b23b c98d 7c3b
000000c0: 2dae 1bba 494b bc3c f962 9fbc 2cee d0bc
000000d0: 774d d9bc 822c a23b 6c0b dbbb 29d0 c5bc
000000e0: 7a37 61bb cad8 f7bb 583d 07bb e2bf bebc
000000f0: 9ff7 b0bb 6df2 7a3c c818 80bd 5cab 10bb
00000100: beb8 923d e188 88bd b002 3e3b 5caa dc3b
00000110: f0b0 503d e1fe 27bd f548 8d3d 2fd9 563d
00000120: 6edc 26bc 2bb3 4fbc e793 21bc 7c0c 8dbb
00000130: 15c6 0d3c 6ab4 86bb 5a85 a03c 6acd f13a
00000140: 6179 fa3b f11b 113c 2895 20bd bf75 61bd
00000150: 503b 193c 8137 d9bc 2427 8a3c 653a 87bb
00000160: a913 fa3a 3419 7b3c 2cc2 7bbc 2c85 633c
00000170: 341b 173b d071 373d 5ddd 24bd 27df 833c
00000180: 70e0 9dbb b92d 60ba 9cca c5bc 80d8 773b
00000190: a73b 1e3c 6be8 07bc 7313 173b b7cc ed3b
000001a0: 8a06 423d 19ab 85bc 1134 fd3b cb55 ecbb
000001b0: e97a fabb 7c91 b1bb 7b95 63bc e264 233c
000001c0: e487 a43b 72e7 593c 83a4 36bd c6a7 013a
000001d0: a1ef 98b9 0535 83bd 944b 403c a20b 213b
000001e0: 6adf 9cb6 4a2c aebc 3d01 fcbb 9071 febb
000001f0: 0582 09bc 3584 603c 3192 ad3a dea7 21bd
00000200: 5da0 d3bc db1e febc 0518 c4bb d98b db3c
00000210: 9d86 453c 630b 573d 8e4f f23b cc87 40bd
00000220: 5f32 003b d13e 5cbd 68aa 093d b8ce 6bbc
00000230: f1aa 8ebb 66b9 adbc 9b6b 84bc f7fd 883b
00000240: 8a33 053d b22c e7bc 59e7 7cbd b8b3 e93c
00000250: 6b2e 353c fbe0 d93b 75d0 593b 6e1b 533d
00000260: e020 e8bc f37a fd3c 62ee e43b 685b 143c
00000270: b769 d03c 1e34 4c3c 132e 48bd e9c5 9d3c
00000280: 9547 61bb 13b6 27bc 0efb a1bb 30f0 6c3c
00000290: e97e 753c d81b 62bc f911 fd3c 4be6 22bd
000002a0: eb2e 1c3c 0816 e43a e352 ba3a 9954 e43c
000002b0: 865c eab4 ed47 9239 7503 2cbc d72f b43b
000002c0: f362 83bb 0783 b3bb 3d44 063d 5061 603d
000002d0: 28c3 f63c dd68 9ebc b444 2c3b 0bdf b23c
000002e0: 962d 083c e80e 2abb 8232 0dbc 90ba 093d
000002f0: 494b 3bbc 4c6b 7ebc 8a41 8d3d b959 5bbb
00000300: 9dad 61bd 5a61 9e3d a266 023c df32 3b3c
00000310: 03cb d7bc 381e 2f3d 249f 9cbd 4e29 65bd
00000320: a353 27bb 0797 d93c 8814 483c 73c6 87bb
00000330: 8e92 b2bb 3385 22ba e817 70bc 9758 a8bb
00000340: 173a 61bc c892 d5bc b779 503d 4543 8c3d
00000350: 690d 7cbc 7a90 d83c a943 5fbc 4bfa cb3c
00000360: adab 713c 898b 20bd 7945 dc3c f90f 0fbb
00000370: d384 a8b8 ad7e 19bd 3a21 803c 2a69 34bd
00000380: 55ab bc3c c55c a0ba 0def 423c af32 dcbc
00000390: 8b17 003c 3d2f d73b 22cd d3ba 9caf 3ebb
000003a0: 998d 59bd ea0f 1a3c 0718 2ebc c7d5 8abb
000003b0: 6310 783b 6bf0 c9ba c2d9 123c 32a2 393b
000003c0: 2cee 683c 40c7 83bc f306 213d 8b51 b7bb
000003d0: 425a 9abc 9754 a93d 9cc0 a43b f4f9 f2bb
000003e0: d241 483b 68e1 f73c b60a 033a 3ea5 0b3c
000003f0: 402f 063d 3f3d 7cbc f189 eeba 4243 2e3d
0.014375588 0.026510714 -0.014033134 -0.023746667 -0.016007334 -0.040704962 -0.0041045146 0.05150202
0.0071359915 0.059041988 -0.0257265 0.01823604 0.021834653 0.025970733 0.012727447 0.008229502
-0.015983446 0.014134981 0.062637545 -0.010287176 -0.008421238 -0.010198124 0.009611065 -0.059590254
0.03857179 -0.016650857 -0.017616937 0.00037638922 -0.032350138 -0.015480883 0.05898042 -0.04002868
0.004392471 0.015080357 -0.0054003587 -0.029152544 -0.021615598 0.03471671 -0.012513669 0.036908373
-0.0068749073 -0.01794886 -0.0012756825 -0.00895926 -0.0013763783 -0.0057787676 0.0054612374 0.003853666
-0.0005938735 0.022985118 -0.019456374 -0.025504194 -0.026526196 0.0049491534 -0.006684711 -0.02414711
-0.0034365342 -0.007563685 -0.002063593 -0.023284856 -0.0054006125 0.015316588 -0.06254727 -0.0022074794
0.07164143 -0.066667326 0.00289933 0.0067341756 0.05094999 -0.041014556 0.06898681 0.052453216
-0.0101843905 -0.012676994 -0.009861923 -0.004304467 0.0086531835 -0.0041108625 0.019594837 0.0018448059
0.007643864 0.008856759 -0.039204746 -0.055043932 0.00935252 -0.026515724 0.016864367 -0.004126834
0.0019079346 0.015325833 -0.015366118 0.013886731 0.0023056986 0.044786274 -0.04025017 0.016097618
-0.004818015 -0.0008551735 -0.024144463 0.0037818253 0.009657777 -0.008295159 0.0023052364 0.00725707
0.047369517 -0.016316937 0.007727154 -0.0072123758 -0.0076440466 -0.0054189544 -0.013890619 0.009972783
0.0050210822 0.01329981 -0.044590484 0.00049459597 -0.00029170237 -0.06406597 0.011736769 0.0024573584
-4.675171e-06 -0.021261353 -0.0076905773 -0.0077650025 -0.0083928155 0.013703396 0.0013242421 -0.03946673
-0.025833303 -0.031020572 -0.0059843087 0.026800083 0.01205602 0.052501094 0.0073947376 -0.047004506
0.0019561274 -0.053770844 0.033609778 -0.014392547 -0.004353874 -0.021206569 -0.016164592 0.0041806656
0.032519855 -0.028219555 -0.061744068 0.02852808 0.01105843 0.006649134 0.0033235822 0.05153983
-0.028335989 0.030942416 0.0069864253 0.009054996 0.025441034 0.012463598 -0.048872065 0.01925941
-0.0034374942 -0.010236281 -0.004943258 0.014461562 0.014983871 -0.013800584 0.03089236 -0.039770406
0.0095326705 0.0017401585 0.0014215376 0.02787237 -4.3653216e-07 0.0002790088 -0.010498871 0.005498867
-0.0040095984 -0.005478266 0.03277992 0.054780304 0.030122355 -0.019337112 0.0026286067 0.02183487
0.00831165 -0.0025948826 -0.008617999 0.033625185 -0.011431524 -0.015528511 0.06897266 -0.0033470227
-0.05509721 0.07733412 0.00795904 0.011425703 -0.02634192 0.04275343 -0.07647541 -0.055947594
-0.002553203 0.026561273 0.012211926 -0.00414353 -0.0054495996 -0.0006199658 -0.014654137 -0.005137514
-0.01374676 -0.026070967 0.050897326 0.06848768 -0.015384057 0.02643608 -0.013626971 0.024899622
0.014750403 -0.03919557 0.026888596 -0.0021829589 -8.035605e-05 -0.037474323 0.015640844 -0.044045605
0.023030916 -0.0012234679 0.011897814 -0.026879637 0.007818113 0.0065669105 -0.0016159157 -0.002909637
-0.053113554 0.009403208 -0.010625846 -0.00423691 0.0037851564 -0.0015406733 0.00896305 0.0028325436
0.014216941 -0.01608622 0.039313268 -0.0055944375 -0.018841866 0.08268087 0.0050278436 -0.0074150506
0.003055681 0.03025885 0.00049988495 0.0085232835 0.032759905 -0.015395462 -0.0018199069 0.04254461

network_body._body_endoder.seq_layers.0.bias f4 [128]
00000000: 1e62 cfbc e811 393c b90f 17bc faa1 a7bb
00000010: a5bd 97bb dcc4 163b f2a3 7cbc 3b0f 993c
00000020: 4c1a 05bd 9354 153d 7b07 01bc bf5f d4bc
00000030: 3b83 40bc 0757 89bc 6859 79ba 6e1f 5cbb
00000040: 059f ac3c 9aae c7bc 2011 663d 385e a23c
00000050: 0cc2 1ebc 6792 b83b 9817 a53b 1f00 f83b
00000060: a28c c93b 4d28 1ebc 8057 2bbb 1f03 e839
00000070: e663 483c 40f1 1b3c 047f fcbb 0b99 89bc
00000080: 24ed 83bc 66cd 603b 8731 c2bc 04c5 9b3c
00000090: b5bc 983c 79eb 98bc cf5a be3b 0988 77bc
000000a0: bd42 9cba 4683 a0bb 5f36 c53b bbd8 c03a
000000b0: b81e 9bbb cc37 d8bb 9983 c03b e520 69ba
000000c0: 32a1 903b 2083 2cbb 9d29 1ebc 46cf 25bc
000000d0: 4c0c 3e3c e787 4b3c ba46 89bc 207a 1a3c
000000e0: 417f 7f3b 67a6 ee3c 6dd7 4cbc b09c 3c3c
000000f0: daf5 9fbb 275a a43c bd91 ec3a 43aa 8db9
00000100: fc0f 123d 329b 37bc 50d7 e13b 7725 843b
00000110: ea24 c9b9 1e5f 043c fe65 36ba 876c a2bb
00000120: 85a3 8fbb c9c0 48bc 20b8 1ebc ae4c d8bc
00000130: c988 4e3d 7a7d 67bc 5bd4 063d 38f0 23bc
00000140: e3bf 893a b1ff 62bc 92e1 c6bb 2c4c 0abc
00000150: 01ae e1bc 98db ce3c 0588 f0ba 73ad 0dbc
00000160: 374a 82bb edf1 0ebb 4283 d3bc 7dde 20bc
00000170: e62c 943b 591f 423d 3306 3ebc f20f 553c
00000180: e147 553c 1fbf 533c 1789 37bc f27c a43a
00000190: b23e 903b 0bba 39bc 6323 bbbc 449f 47bb
000001a0: c86a 89bc e6d6 203c 6852 41bd d997 423c
000001b0: ed54 08bc 71f5 1fbd 3807 e8bb 79e0 c6bc
000001c0: 052c 6db9 2da0 60bb 3481 593d 7350 f33c
000001d0: 68b6 24bc a561 07bc 1bb6 e83c 30d5 e93b
000001e0: 5dfc a03b 1a72 d93c 02d9 9bbc 2d35 943c
000001f0: 16d4 c53b a1dc c0bb 83e6 d63b 91d1 533c
-0.02531534 0.011295773 -0.009220057 -0.0051157447 -0.0046307617 0.002300552 -0.015419947 0.01868402
-0.03249578 0.03645761 -0.007875319 -0.025924562 -0.011750038 -0.01676513 -0.0009511919 -0.003358807
0.02107192 -0.024375249 0.056168675 0.019820318 -0.009689819 0.005632687 0.005038213 0.007568374
0.006150798 -0.009653163 -0.0026144683 0.00044252814 0.012230849 0.009517968 -0.007705571 -0.01679661
-0.016104288 0.0034302115 -0.023705257 0.019014843 0.01864467 -0.01866697 0.005809165 -0.015108117
-0.0011921745 -0.0048984615 0.0060184444 0.0014713028 -0.0047338866 -0.0065984484 0.0058750627 -0.00088931463
0.004413747 -0.0026323274 -0.009653476 -0.010120219 0.0115996115 0.012422538 -0.016757358 0.009428531
0.0038985761 0.029132081 -0.012502533 0.011511967 -0.0048816027 0.02006252 0.0018048804 -0.0002702047
0.035659775 -0.011206435 0.0068921223 0.0040327865 -0.0003836521 0.008079318 -0.0006957947 -0.004956785
-0.0043835067 -0.012252995 -0.0096874535 -0.026403751 0.050423417 -0.014129037 0.03291736 -0.010006003
0.0010509457 -0.013854907 -0.0060693705 -0.008441012 -0.027548792 0.025251195 -0.0018351084 -0.008647311
-0.0039761323 -0.002181168 -0.025819425 -0.00981867 0.004521954 0.047393177 -0.011598158 0.01300429
0.013017626 0.012923985 -0.011202118 0.0012549444 0.004402005 -0.01133586 -0.022844022 -0.003045992
-0.01677455 0.009816861 -0.04719773 0.011877024 -0.008321029 -0.03905243 -0.0070809387 -0.024276959
-0.0002261848 -0.003427516 0.053101733 0.029701447 -0.010053255 -0.008263026 0.028407147 0.0071360096
0.0049128965 0.026543666 -0.019024376 0.018091762 0.0060372455 -0.005885676 0.006558241 0.0129283825

network_body._body_endoder.seq_layers.0.weight f4 [128, 42]
00000000: ba2a 193e e80b 973e 2994 43bd 7c09 393e
00000010: 6938 a83e f011 b9ba 8745 7dbd 8ce9 01be
00000020: 32e1 283c be44 acbc 15cb 5d3e ebed bd3b
00000030: 8ccc 1a3e 85b0 8bba c9f5 5f3d c8fd c3bd
00000040: 5d6b 273e 9718 92be 1e36 56bd 5416 293e
00000050: 208e 1d3e b681 7dbe 864a 023e ec05 93bd
00000060: 65bc babe e96e 823e b69f bf3e 6695 b5be
00000070: c7e3 7bbd fbc3 5f3e 4aa8 f1bc 6ba3 98bd
00000080: 1e5a b7bd 03a2 fabe 10b2 ad3e 9d8a 0b3b
00000090: 26a6 85be 0bc2 d2bd d9d4 84be 62e3 063e
000000a0: 1790 72bb 81fd b53e 7899 01bd 6a69 ca3c
000000b0: 50ac 76be 38b6 863e 64bb 21be 8379 92bd
000000c0: 010a e4bd 6acb 053c 3bf5 8c3c 1efe 0fbd
000000d0: 089b 32bd d5dd 4bbd 580e 6e3d 5213 64be
000000e0: 73a0 c2bd 9166 4dbe 5bb9 903e 8353 023e
000000f0: 0e39 1e3e 5a41 433e e063 14be 30e5 0a3e
00000100: ceff e53d cb43 573e da6a f1bc 140c f2bd
00000110: 7ee5 b9be e99f 933d 1f28 343e 49f2 553e
00000120: ccde 1e3e 21e5 2a3e 22f5 e23d aca6 813e
00000130: 07f6 21be 8ba1 d43d cbb2 7bbd 8bf4 31be
00000140: ef49 0a3e 3f86 063e 8424 a4bd 3bad 853e
00000150: 003c 16be dc74 893d b785 ddbd 8554 83be
00000160: 437b e7bc 2a8c 60be 2fce 42bd 726a 8d3d
00000170: 95ee d6bd ecbd a63d 539f 4dbe a273 a7bd
00000180: f2e6 c5be bf17 853d a4d5 8fbd edb2 ae3d
00000190: 4cf4 b3bc 824f 83be c99a 243d 66d4 dc3d
000001a0: 8239 2cbd a326 38bc eb52 c0bd 930a b1bd
000001b0: 06fb 81be a7a5 8fbc 9bb8 47be 5651 cbbc
000001c0: 2309 a0be 9d95 5dbe 30dd d9bd 0a9d 173e
000001d0: c824 a7be ae37 27be 2043 fcbc b58b 34bd
000001e0: 095f 223e 0462 8bbe e2ce babd f5df 3b3e
000001f0: 6d85 a73e 3f9c 783d 0861 cb3d c3fe a6bd
00000200: b403 8a3d d332 3d3b 7da7 eabd fad7 5f3e
00000210: 67f8 8a3e 1b2d 90bd 2b06 71be 1894 dbbc
00000220: 4d29 173e ef70 49be b53a 58be 8bb0 973d
00000230: 23ad 2fbc c7ce e2bd 2735 cd3c e3fd 6c3e
00000240: 2040 9c3b ec69 ddbc 3965 11bd b757 5d3e
00000250: 1089 7a3e a524 fcbd fedf 28be 78f9 b3bd
00000260: d1eb 463d 9e5c 1bbc b326 c23b 5a10 30bc
00000270: a406 febd f53b 19bd 6037 2b3e 95ea fb3d
00000280: 9926 5bbd 6b4e 34bd 5d33 223d 261d 393d
00000290: e36d afbd fe8f 69bd 4a3d 293c b5ad e23d
000002a0: f30c 983d b1ff a1be 6b8c 08be f35d 9d3d
000002b0: 4b27 293d c898 963e ebaa 9f3e 8f6c 1abe
000002c0: bce8 cfbd ee51 6b3e 4f6e 63be 32b5 853d
000002d0: 3d84 72bd eeba 22be c40e 543e c768 babd
000002e0: 4263 ecbd 3846 403e bbac 7dbe 1b44 f3bd
000002f0: 9589 223c 1714 a53e 9387 bc3d f73c abbd
00000300: 9ade 1ebe 6465 5b3e 39fb 5f3d 918c febc
00000310: 0e1d c43d 50bd 8dbe 74c2 243e 3f45 053e
00000320: 0ea9 07be 0f6f 983e 0ca3 bbbd d059 ac3d
00000330: 4a18 8cbd 81dd 033e 416b b63e 3c60 0f3d
00000340: 1f26 11be e2b2 a0bd b573 913d f524 a2bd
00000350: 9886 52be e5a1 ca3d a27e 293b ea7e 7dbe
00000360: afd4 9e3d 23a3 643e b612 15be 85cf 20be
00000370: c4dc de3d fea7 54bc 1941 77bd 5c37 9f3d
00000380: e81e 94be 471c 003c 796d f63b 4f6b a93d
00000390: 1da1 f23c 49f8 6dbd 90e2 fabd 097f 063e
000003a0: a46c 8b3d 5a71 02bd 7f26 ed3d 0ca4 883e
000003b0: ec82 543e c750 e2bd 73f6 753e cddd 5a3e
000003c0: 4ddc 093e d49d 873d cdda 44be 4c0a 383e
000003d0: 18bb f13d d829 d63c bfdd 69bd 6bea 233e
000003e0: 4476 68bc d73d 2ebd 5380 843d 5a71 b1bd
000003f0: bff9 4abe 5a72 a6be eeb7 833e 0a92 73be
0.14957705 0.2950127 -0.04774872 0.18070024 0.32855538 -0.0014119726 -0.061833885 -0.12686747
0.010307597 -0.021028873 0.21659501 0.0057961843 0.15117091 -0.0010657465 0.05467776 -0.09569889
0.1634955 -0.28534386 -0.052297704 0.16512424 0.15386248 -0.24756512 0.12723741 -0.07178864
-0.3647186 0.25475243 0.37426537 -0.35465544 -0.061496522 0.21852104 -0.029499192 -0.074530445
-0.08952735 -0.4895173 0.33924913 0.0021292337 -0.26103324 -0.10290917 -0.2594364 0.13172677
-0.0037012154 0.3554497 -0.0316405 0.024708468 -0.2408917 0.26310897 -0.1579414 -0.07152083
-0.111347206 0.0081661735 0.017206779 -0.035154454 -0.04360488 -0.049772102 0.058119148 -0.22272995
-0.095032595 -0.20058657 0.28266415 0.1272717 0.15451452 0.19067898 -0.14491224 0.1356399
0.112304315 0.21021955 -0.029469896 -0.1181871 -0.363079 0.07208235 0.1759343 0.20893206
0.15514678 0.16688968 0.110819116 0.25322473 -0.15816508 0.103823744 -0.061449807 -0.17378442
0.13504766 0.13137148 -0.08014777 0.26108727 -0.14671326 0.06711742 -0.1081652 -0.2565042
-0.028257018 -0.21928468 -0.047559913 0.069050685 -0.10494725 0.081416935 -0.20080309 -0.08176352
-0.3865276 0.0649867 -0.070231706 0.08530221 -0.021967076 -0.25646597 0.040186677 0.10782699
-0.04204703 -0.01123968 -0.09390815 -0.08644595 -0.25386828 -0.017535044 -0.19504015 -0.024819057
-0.3125697 -0.21639104 -0.10637891 0.14806 -0.3264525 -0.16329834 -0.030793726 -0.044078548
0.15856566 -0.27223217 -0.09121491 0.18347152 0.32718983 0.060695883 0.099306166 -0.08154061
0.067389876 0.0028869405 -0.11457727 0.21859732 0.2714264 -0.07039853 -0.23537509 -0.026804015
0.14761849 -0.19671987 -0.21116145 0.0740672 -0.010722431 -0.11074596 0.02504976 0.23143725
0.0047683865 -0.027028047 -0.035496924 0.21615492 0.24466348 -0.12311677 -0.16491696 -0.08787817
0.048564736 -0.009482531 0.0059250235 -0.010746086 -0.1240361 -0.037410695 0.16720343 0.12300602
-0.053503606 -0.044020098 0.039599765 0.045193814 -0.08565881 -0.057022087 0.010329554 0.11068288
0.07424345 -0.3164039 -0.13334815 0.07683935 0.04129724 0.29413438 0.31185088 -0.15080474
-0.101518124 0.22980472 -0.22210048 0.06528701 -0.059208144 -0.1589162 0.20708758 -0.09102016
-0.115423694 0.18776786 -0.24772923 -0.118782245 0.009920497 0.3224189 0.09205546 -0.083612375
-0.15514603 0.21425396 0.054682944 -0.031072887 0.09575854 -0.27683496 0.16089803 0.13014697
-0.13248083 0.2977223 -0.09161958 0.08415568 -0.0684057 0.12877466 0.35628703 0.035003886
-0.14174698 -0.07846619 0.071021475 -0.07917205 -0.20559156 0.0989416 0.0025862833 -0.24755445
0.0775541 0.22327857 -0.14557919 -0.15704162 0.108819515 -0.012979506 -0.060364816 0.07774231
-0.2892983 0.007819242 0.0075203744 0.082724206 0.02961784 -0.05809811 -0.122502446 0.13134398
0.06807831 -0.03184638 0.11579608 0.26687658 0.20753068 -0.11050563 0.24019794 0.21373673
0.13462944 0.066219 -0.19224091 0.17972678 0.118032634 0.026143 -0.05709624 0.16007392
-0.014188353 -0.042539444 0.064697884 -0.08664198 -0.19821833 -0.32509118 0.25726265 -0.23786178

network_body._body_endoder.seq_layers.2.bias f4 [128]
00000000: 6137 aa3b 4227 6c3c e253 62bc 8315 b43c
00000010: 01cb a4bb cc55 2e3c c1c3 2dbc a5ca 5c3c
00000020: c65a 3abb 49da 9a3c 82e2 ad3c e656 70bb
00000030: ac63 6e3b d995 0abc 7d24 1b3b de29 74bc
00000040: e217 dd3c 6df8 c33c 1d67 8f3c 6878 893a
00000050: f3d7 59bc beb8 01bc d761 9b3c f7f2 91bb
00000060: 783b 7d3c c77e ffba 94a0 043c a3cf 12bc
00000070: 37fa d83b 6a21 e9bb 58b0 3f3c c431 cbbb
00000080: 912e 7cbc 9dd5 84b9 9e1a 1fbb cc08 773b
00000090: b96e cdbb 72f7 af3b 9dcd 0f3b 322c 2d3c
000000a0: 7798 d3bb 45dc 2abc cd57 03bc 98c2 81bc
000000b0: e530 06bc 754d ebbb f356 b8ba b7e3 a7ba
000000c0: 085f b9bb 3a0c 563c f646 ca3b cefe 2b3d
000000d0: 3902 b63b 5c17 9ebb 2a7e 78bc 0f50 52ba
000000e0: 2c93 86bc 8b04 f2bb 9dad 35bc 5953 263a
000000f0: 4636 60bb f239 f1ba d79d 143d f152 0ebc
00000100: efa1 2d3c f5eb f23c 1c08 c1bb 6ba5 bbbc
00000110: cca0 6c3d bc9d f93c 259a a63c 890c 4d3b
00000120: fe8c a4bb ab32 15bb 4506 29bb ce6f 2ebb
00000130: 61b6 78bb f283 07bc 573c 13bc fdd1 72bb
00000140: bedc dc39 f17b 65ba c66d 6c3c b417 273d
00000150: 0482 35bc becb a63c c1bc a93a eb06 85bc
00000160: b626 cebb e39c cfbb dbf5 acbc ccfd a83b
00000170: fcc7 8fbb 97bf 833c 51ee c43b b8b4 5d3c
00000180: 5ea8 5fbc 9888 2cbc d5f4 97bb ee35 a73c
00000190: 03ba 57bc d57f 8cba 0e67 313c 73c0 a6ba
000001a0: 2ea8 143d d5e2 73bb e37b e439 ed62 07ba
000001b0: 99b8 f5bb c9a6 3cbc dfb3 623c 5157 15bc
000001c0: cfc4 0fbc dc5e d33b e279 f53a bf69 d1bb
000001d0: 6f1b 4cbc 709b 3c3d d230 e6bb 9dbd 65bb
000001e0: f9d9 bebb ab80 533c 0921 a2bc e644 173d
000001f0: 01bc 25bc e524 3d3b 9611 ddbb 0c06 a83c
0.00519459 0.014413657 -0.0138139445 0.021982914 -0.0050290828 0.010640573 -0.010605753 0.013476049
-0.0028435453 0.018902915 0.021226171 -0.003667289 0.0036375327 -0.008458578 0.0023672872 -0.01490256
0.026988927 0.02392217 0.017505223 0.0010488154 -0.013296115 -0.007917581 0.018967552 -0.0044540125
0.015456073 -0.0019492739 0.008094925 -0.008960637 0.006621625 -0.007114579 0.0116997585 -0.006201001
-0.015391962 -0.00025336156 -0.002427734 0.0037694452 -0.0062693027 0.005370074 0.0021942623 0.010569619
-0.006457384 -0.010428493 -0.008016539 -0.01583986 -0.008190368 -0.0071808645 -0.0014063999 -0.0012808953
-0.0056570806 0.0130644385 0.00617301 0.041991048 0.005554464 -0.004824562 -0.015166799 -0.0008022794
-0.016427599 -0.0073857955 -0.011088756 0.0006344817 -0.0034212037 -0.001840411 0.03628334 -0.008686767
0.01059769 0.029653529 -0.0058908593 -0.022906026 0.057770535 0.030470721 0.020337174 0.003128799
-0.0050216904 -0.0022765796 -0.002579109 -0.0026616934 -0.0037950503 -0.008271204 -0.008986554 -0.0037051432
0.00042126136 -0.00087541254 0.014430469 0.04079409 -0.011078361 0.020360824 0.001294993 -0.01623865
-0.006291236 -0.006335841 -0.021113327 0.005157208 -0.0043878537 0.016082568 0.006009855 0.013531856
-0.013650982 -0.010530613 -0.0046373405 0.020411458 -0.013166907 -0.0010719249 0.010827793 -0.0012722149
0.0362932 -0.003721406 0.00043579852 -0.00051645824 -0.0074988124 -0.011514374 0.01383683 -0.009115056
-0.00877495 0.006450517 0.001872834 -0.0063907797 -0.012457713 0.046046674 -0.007024863 -0.0035055645
-0.005824324 0.012909095 -0.019791143 0.03693094 -0.010115624 0.0028861102 -0.006746481 0.020510696

network_body._body_endoder.seq_layers.2.weight f4 [128, 128]
00000000: 57a9 e9bb da73 c5bd 8c8e 1d3e a7c3 04bd
00000010: 7aa2 143d 8847 d0bc bfb4 1d3e 21f2 a13d
00000020: 93db 603c 3228 cbbd 5c12 fbbd 4650 293c
00000030: 7900 26be 24fb 633c 04ae 3cbd 7e9c 2cbe
00000040: 9e6b cebc 354b 94bd a31a 10bd 3ba1 acbd
00000050: 88f4 1e3d cb16 babd 3f01 333e 9b9c f4bc
00000060: c033 1cbd eb46 bf3d 5a86 42bc 8477 183e
00000070: 0488 81bd 54ca ccbd e7bc a5bd d70e da3c
00000080: 91ce 603e bee9 73bd dbb1 9a3d a23c 88ba
00000090: 9d20 a43c 9cd1 2c3d 028b fabb 613e 17be
000000a0: 4c0a 883d fcfa 05be 7ade 3a3c 5bec 833d
000000b0: bdc8 3a3e 90ca 5abd 2e7d eabd 77bc 2b3e
000000c0: cd74 18bd daa9 9a3d 8e23 973d 3eae 243d
000000d0: ffb1 4c3e 602b 0a3b 8fc0 4e3c 100d 673d
000000e0: a734 df3c 407e 83bc 321b 8dbb 250e 003d
000000f0: fb94 27bd c3d8 48bd 1635 29bd 3afc b7bd
00000100: 522b 073e 4ad2 32be dc10 ab3d e1df 56bc
00000110: 0451 b23a 87b3 bebc 1ad0 02be 42a5 07bc
00000120: 3c6a a03d 377f 54bd 1153 78bd fee5 bf3d
00000130: 4f7d 92bc 07ef 6a3d f93d aabb a75f 363d
00000140: d747 1f3c 19fb 03be 5642 1bbe 4ba7 1c3c
00000150: 1dbb bc3d c667 47bd 3947 5ebd 22f9 2fbd
00000160: 8391 cfbd b9cc 1e3e 4ada 18bd a00e 123d
00000170: 8fea f5bb 0c9d b1bd a548 803c 0114 693c
00000180: b3ca 553d cff8 993d 5468 113d 2eb4 8abd
00000190: 985b dfbb e6d2 c63c 8b1f 013d ebba b5bd
000001a0: 45b1 5d3d e78b 87bc 600f a63d b07a 3e3e
000001b0: 1cfe c1bc 2672 37be 3196 443c 7d79 78bc
000001c0: b8b3 0fbe 2984 7d3c 4056 1b3b c7db 0cbd
000001d0: 682e 17be ebe3 52bd 6f6d 70bd 5991 f83c
000001e0: f95c 723d 750c 313d 928f e0ba 4950 d8bb
000001f0: 3ef9 57bc e7d6 38bd 2545 76bd c8ac 333c
00000200: c01f c7bc 2c22 443d 53d1 523d d89f c43d
00000210: 225b 8f3d 4494 0e3d c7cc 04bd b4e4 fb3d
00000220: 40d1 2dbe 38f3 b33d ab56 cdbb 37ba 87bd
00000230: 960f 673d 0e08 83bc 0e29 8abd f7d0 9cbd
00000240: 374e fabc 77bd 1abc 958b 423c 8714 f3bd
00000250: 4cea f9bd 3827 a7bc b45e bb3d ef3b febc
00000260: 50b1 f7bc c610 b13d 85cc 253d fc22 9fbd
00000270: 9e44 03bd 9fe0 cdbd db88 02be 80aa c53d
00000280: fc09 9bbc 40fe 08be 0c9f 51bd 46a8 5b3d
00000290: 9955 00be 2035 dd3d b14f cc3d d68c 793c
000002a0: 0d1e 2a3d e413 ccbd e482 33be 5702 2dbd
000002b0: 40e3 633d c0e4 7fbc cfd7 d83d 8283 ca3c
000002c0: adae 2abe a4f6 eabb 1311 023d 7c31 8fbd
000002d0: 3b66 653b 8bbf bb3c 3424 b7bd 6bfd ef3d
000002e0: fbdd 38be 8d2d fdbd 9498 93bd 3911 a83d
000002f0: 43b7 983c 912f 163e 348b 403d ce3c bf3d
00000300: ef71 193c 55dd 33bb 89f6 e23d 124d 85bc
00000310: a8f2 f73d a9f5 473c 079f 0c3e 099b 86bd
00000320: bc60 ddbd 028c 4e3b 3248 a43d bb99 a139
00000330: c207 163d 5835 083e 9918 03be 1c29 c83c
00000340: 8d71 2b3e 4edd 20be 1d51 00bc 772c 8b3d
00000350: b308 febd 1f26 053d 8fa8 c4bd e750 c83d
00000360: 46d2 fb3d 40b9 5fbb bec8 95bd d84c 6dbd
00000370: 78c0 adbc 219b 023e bdc1 ca3d a3f7 e7bd
00000380: 6178 0b3d 58ef e53d 23d3 10be a4a2 1abe
00000390: 2909 60be cd7b 913c 74e4 1bbd d70e 21be
000003a0: a738 2abe e198 883d 4a14 503c 2033 a1bd
000003b0: c97f a4bd 694a 32bc e8b6 8e3d 22a7 59bd
000003c0: f8d3 153d 489c 70bd fdf3 533d fa1e 26bd
000003d0: 1cea 403c aef3 44be b12a 2dbb a68e ac3d
000003e0: b42d d4bd 97ee 2d3e e713 2dbe 0020 0b3e
000003f0: 9f88 1c3d 2c0d 8e38 2a74 f53c 8c4f cabc
-0.0071307826 -0.096412376 0.15386409 -0.03241315 0.036287762 -0.025424734 0.1540098 0.079075105
0.013724226 -0.09919776 -0.12259361 0.01033408 -0.16211118 0.013914857 -0.04606439 -0.16856572
-0.0251978 -0.07240907 -0.035181653 -0.0842919 0.038807422 -0.09086379 0.17480944 -0.029859832
-0.03813529 0.093396984 -0.011872852 0.14889342 -0.06324771 -0.099995285 -0.08092671 0.026618404
0.21953799 -0.059549086 0.075534545 -0.0010394047 0.020035082 0.042192087 -0.0076459656 -0.1476989
0.06642589 -0.13084024 0.011405582 0.064415656 0.18240638 -0.053415835 -0.114496574 0.16771112
-0.037220765 0.07551928 0.073798284 0.040205233 0.19989775 0.0021082982 0.012619152 0.05640894
0.027246786 -0.016051412 -0.0043062204 0.03126349 -0.040913563 -0.049034845 -0.041310392 -0.08983655
0.13200119 -0.17463031 0.08352825 -0.0131149 0.0013604467 -0.023278965 -0.12774697 -0.008279147
0.078327626 -0.051879134 -0.060626093 0.093700394 -0.017882017 0.05735686 -0.005195376 0.044524815
0.009721718 -0.12888755 -0.15162024 0.00956137 0.092153765 -0.04868295 -0.054267142 -0.0429622
-0.10135176 0.15507783 -0.03731755 0.03565848 -0.007504768 -0.086725324 0.01565964 0.014225961
0.052195262 0.075181596 0.035499886 -0.06772648 -0.0068163387 0.024270486 0.031524222 -0.088735424
0.054124136 -0.016546203 0.08108401 0.18601489 -0.02368074 -0.17914638 0.011998699 -0.015165684
-0.14033401 0.015473404 0.0023702532 -0.034389284 -0.14763796 -0.05148689 -0.058698114 0.030342745
0.059170697 0.04322477 -0.0017132631 -0.0066013676 -0.013181983 -0.04512682 -0.060124535 0.010966487
-0.024307132 0.04788415 0.05146916 0.096008 0.06999804 0.034809366 -0.032421853 0.12299481
-0.16974354 0.08786625 -0.006266435 -0.066273145 0.05641135 -0.015995052 -0.06746112 -0.076570444
-0.030554874 -0.009444586 0.011874099 -0.1186915 -0.12202892 -0.020404443 0.091489226 -0.031034438
-0.030235916 0.086457774 0.04047825 -0.077703446 -0.03204786 -0.10052609 -0.12747519 0.09651661
-0.01892566 -0.13378239 -0.05117707 0.053627275 -0.12532653 0.108011484 0.099761374 0.015231332
0.041532565 -0.09964731 -0.175304 -0.04223856 0.055636644 -0.015618503 0.10588037 0.024720911
-0.16668196 -0.007170515 0.031754564 -0.0699186 0.003500356 0.022918483 -0.08942452 0.117182575
-0.18053429 -0.12362204 -0.07206836 0.0820641 0.018642073 0.14666583 0.047007754 0.093377694
0.009365543 -0.0027445157 0.11082179 -0.016272102 0.1210683 0.012204566 0.13732539 -0.06572539
-0.10809466 0.0031516557 0.08021583 0.0003082285 0.036628492 0.13301599 -0.12802352 0.024433665
0.16742535 -0.15709421 -0.007831839 0.0679559 -0.12404003 0.03250706 -0.096024625 0.09781056
0.12295966 -0.0034137517 -0.07313679 -0.057934612 -0.02120994 0.1275449 0.09900234 -0.1132653
0.03405035 0.11227292 -0.14143042 -0.15101105 -0.21878494 0.017759228 -0.038059667 -0.15728317
-0.16623174 0.06669784 0.01270015 -0.078710794 -0.080321856 -0.010881999 0.0696848 -0.053137906
0.036579102 -0.05874279 0.051746357 -0.040556885 0.011774566 -0.19233581 -0.002642315 0.084256455
-0.1036028 0.16985546 -0.16902123 0.13586426 0.03821623 6.773541e-05 0.029962618 -0.024696134
