results/FoodAgentAltered4/MoveToGoal/MoveToGoal-499955.onnx (onnx, 80285 bytes, 14 tensors)

action_model._continuous_distribution.log_sigma f4 [1, 3]
000000 fe d9 8b bf dc 60 89 bf 50 c0 7f bf
       -1.0925901 -1.0732684 -0.9990282

action_model._continuous_distribution.mu.bias f4 [3]
000000 e5 86 23 bc 7b a2 82 bc 68 95 10 bb
       -0.009980892 -0.015946617 -0.002206171

action_model._continuous_distribution.mu.weight f4 [3, 128]
000000 7e 16 43 bb 42 39 d3 3b de af 8c ba 90 0b ba ba
       -0.0029768045 0.0064460346 -0.0010733565 -0.001419412
000010 69 bb 84 bc d3 dd 8e 3c 48 32 9d bb ea 71 dc bb
       -0.016202645 0.017439758 -0.0047972538 -0.006727447
000020 4e c7 a6 3b fc 34 49 bb cf 49 b5 3c c9 14 23 3c
       0.005089677 -0.0030701747 0.022129921 0.009953686
000030 46 7c a8 38 74 30 a3 bb 24 0f 10 3b 2b a3 50 3b
       8.034012e-05 -0.0049801413 0.002198168 0.0031835537
000040 32 dc 2c 3b b1 90 17 3c ef 1d 0a 3b cd f2 31 3b
       0.0026376364 0.009250806 0.002107497 0.0027152777
000050 3a 04 8a bb 70 2a 6d bb 7d 4b fc 3b a7 4b 35 bb
       -0.0042119296 -0.0036188625 0.0076994286 -0.00276635
000060 e0 43 0e bb f1 10 38 b8 16 8f d7 3b 90 d5 03 3c
       -0.0021707937 -4.3884796e-05 0.0065783365 0.008046523
000070 b3 b9 78 bc 68 52 58 bc 13 bd 06 b9 90 67 83 ba
       -0.015180993 -0.013203241 -0.00012849671 -0.0010025371
000080 5e dd 34 3b e0 00 c1 bb 31 7f b0 3b ca f3 13 3c
       0.0027597765 -0.005889997 0.005386256 0.009030292
000090 3b 8d 89 ba 9b 7a 4c 3d 10 55 88 b8 84 47 05 bc
       -0.001049436 0.049921613 -6.5008295e-05 -0.008134726
0000a0 98 3c ed 3b 98 cd 85 ba 09 f8 88 bc 0d c5 e6 3b
       0.0072398894 -0.0010208366 -0.016719835 0.0070425333
0000b0 34 04 43 bb 14 23 4a 3b 13 56 b8 39 1e 5d 0b 3c
       -0.0029757144 0.0030843662 0.00035159345 0.008506088
0000c0 e2 c7 26 bc 2f 70 0a 3b 78 59 13 3c 89 a3 fa bb
       -0.010179492 0.0021123996 0.008993499 -0.0076488894
0000d0 2a 54 03 bc 62 2c 9b ba c0 f4 2e bc b7 5f 29 3b
       -0.008015672 -0.0011838789 -0.01067847 0.0025844404
0000e0 fa 7a 23 3c 21 45 5a 3a dd c7 59 bc 5d b0 87 3c
       0.00997805 0.0008326341 -0.01329228 0.016563589
0000f0 45 e7 83 bb a0 80 77 37 42 f7 f6 bc 0b e3 03 3c
       -0.004025372 1.4752295e-05 -0.030147199 0.008049737
000100 73 eb 3c bc 30 df 5d bb cd 91 47 bb 5d 18 d7 bc
       -0.011530745 -0.0033854954 -0.0030451894 -0.026256735
000110 2c 0d dd 3b 96 25 f7 3c 85 81 f2 bb 4d 7b 61 3b
       0.006745955 0.03016929 -0.007400694 0.0034405768
000120 46 5b d9 bb 5e b7 89 3c 39 68 d3 ba ac 4a b8 b7
       -0.006633195 0.01681107 -0.0016129083 -2.1969281e-05
000130 3d 79 45 bb 82 90 cc bb 07 73 74 39 5d 39 06 bb
       -0.0030132078 -0.0062428126 0.00023312504 -0.0020480969
000140 09 c8 8b 3b af 24 0a 3c 50 3f 29 3b 70 3d aa 37
       0.0042657894 0.008431598 0.002582509 2.0294188e-05
000150 ec f2 1f bc 88 79 16 bc 17 db 8c bb 0a 8c 14 bc
       -0.009762507 -0.009184249 -0.0042985785 -0.009066591
000160 74 d2 97 bb 79 7d aa bc e2 ed f7 ba fd d0 6a bb
       -0.0046332423 -0.020811783 -0.0018915499 -0.0035830133
000170 19 77 7d 3a d1 33 8f bc 89 0e 85 bb 29 ea 82 ba
       0.0009668931 -0.017480763 -0.0040605706 -0.0009987998
000180 e6 0d ff bb d5 36 2e bb dc b7 6c bc a5 ac 40 ba
       -0.0077836392 -0.0026582975 -0.014448132 -0.0007349945
000190 17 61 9b bc db 0b c0 b8 9f e0 ae bb 0f a0 a9 bb
       -0.018967194 -9.157482e-05 -0.0053368355 -0.005176551
0001a0 8c eb 49 bb fc fc 02 3c fa ae 8c 37 58 d4 88 bb
       -0.0030810563 0.0079948865 1.677078e-05 -0.004175704
0001b0 0c 03 21 bc 93 35 7a 3b 58 14 cf 3b 18 59 71 3b
       -0.009827387 0.0038178905 0.006319564 0.0036826786
0001c0 6b 2f 91 3b ff 37 b4 3b 52 87 29 3b 80 89 66 3a
       0.0044307015 0.0054998393 0.002586801 0.0008794293
0001d0 0a 56 0c 3c c4 b2 18 bc ca de 10 bc b7 40 19 bc
       0.008565435 -0.009319965 -0.00884218 -0.009353808
0001e0 a4 de 33 ba 15 6b b9 bb 8d a5 c6 b9 a7 08 9c bb
       -0.0006861484 -0.005658517 -0.00037888848 -0.0047617736
0001f0 20 36 a0 3c 55 fe 57 3b 7e 76 56 3c f7 0f 79 bb
       0.019557059 0.003295799 0.013089774 -0.00380039
000200 ce af 9f bb b9 bf 05 3c e1 51 8c bb 4e 27 8a b6
       -0.0048732525 0.008163386 -0.0042822217 -4.117296e-06
000210 d7 bb b1 ba 50 54 73 3c 31 1c 75 3b 56 b4 57 bc
       -0.0013560009 0.014851645 0.0037400837 -0.013165554
000220 42 c7 ab 3c d4 d0 5c ba c7 6e 85 bc 7d 60 b8 3c
       0.020969037 -0.0008423452 -0.016288174 0.022506947
000230 19 98 38 bc 79 50 de 35 9e 5f b2 bb 1b ea 0f bc
       -0.011266732 1.656371e-06 -0.0054435274 -0.008783842
000240 b7 cb 06 3c 02 dc 0a 3d fd 52 e3 3b 18 d8 db 3b
       0.00822728 0.033901222 0.006937383 0.00670911
000250 7f ea a1 3c da 23 15 3c 56 c6 8d bc 8c 7c cc 3b
       0.019765137 0.009102786 -0.017306488 0.006240433
000260 13 6c 8b 3c 3e 76 2e 3a 20 32 03 3c f0 fc 01 3b
       0.017019307 0.00066551927 0.008007556 0.00198346
000270 ea fb 4e 3c 01 32 a9 b9 80 ff 50 3b 19 94 ba b8
       0.012633303 -0.00032271448 0.003189057 -8.8967565e-05
000280 58 f2 2c 3b da bc 1e 3b e5 5b 5f 3c 28 01 a8 3a
       0.0026389565 0.002422145 0.013632749 0.0012817727
000290 a2 76 6d bb 0a 45 10 bc 94 7b 2f bc 42 98 f3 3a
       -0.003623404 -0.008805523 -0.010710616 0.0018584805
0002a0 01 65 be 3b f1 c4 eb bb a6 ae 10 3b ee b5 4f bb
       0.0058103804 -0.007195108 0.0022076755 -0.0031694132
0002b0 6f ed 38 bc 21 fb 04 3b f5 95 4f 3c f9 c6 c7 3b
       -0.011287077 0.0020291286 0.01267003 0.0060967174
0002c0 42 17 13 bc 52 fe 81 bb ba 33 7e 3b d6 2f 45 3c
       -0.008977713 -0.003967085 0.0038788156 0.012035331
0002d0 e8 de dc ba 6c 5e db 39 d6 88 ea 3b 83 36 33 bc
       -0.0016851099 0.00041841285 0.0071574254 -0.01093829
0002e0 ea 9e d9 3c cc 80 44 b9 18 1e a8 bc 1a 76 99 bc
       0.026565034 -0.00018739997 -0.020522162 -0.018733073
0002f0 c3 39 61 3c f8 f6 ad ba f4 42 80 bc 72 8c cd bb
       0.013746682 -0.0013272455 -0.015656926 -0.006272846
000300 d6 ba 16 bc ee 97 50 3c a1 20 17 bc a0 e7 73 3c
       -0.009199819 0.012731535 -0.009224088 0.014886767
000310 3d 3b 2b 3c 08 8b 7a 3c 87 73 40 3c 9d e8 8a 3b
       0.010451135 0.015291937 0.011746294 0.0042391554
000320 db 71 7a 3b 4d 96 ff 3c fe 51 2c 3b f1 24 c0 b7
       0.0038214836 0.031199599 0.0026293988 -2.2905386e-05
000330 44 77 02 3c 40 a1 b9 3b f4 65 f0 bb d1 62 1c b9
       0.007963005 0.0056649745 -0.0073363725 -0.00014914131
000340 85 ca 52 3b 80 60 de bb a7 bd c9 3c 2d 64 46 3c
       0.0032164168 -0.006786406 0.024626566 0.012108845
000350 cb d6 19 b9 e0 bf 5b 3c 01 e3 13 3c 2a dd 23 3b
       -0.00014671234 0.013412446 0.00902629 0.002500365
000360 72 e9 5c bb 45 cf 9f 3c d1 73 2c 3b 54 c3 05 bb
       -0.003370848 0.019508014 0.002631415 -0.0020410614
000370 8b 89 6d 3c aa 0c 40 3c 31 64 d8 3b e6 cd 50 3c
       0.014498125 0.011721769 0.0066037406 0.0127444025
000380 3d 0f e0 bb 46 f7 d2 3a 2f 8b 87 3c bd bc 64 3c
       -0.006837754 0.0016095422 0.01654586 0.013961014
000390 8f 11 5d 3c e3 9d 49 3a 1c eb 02 3c 30 7e 45 bc
       0.013492956 0.00076910685 0.007990625 -0.012054011
0003a0 70 2a 11 bc 61 05 dd bc 0c 3a 33 3c e2 53 ab bb
       -0.008860216 -0.026980104 0.010939132 -0.0052285055
0003b0 60 c3 d7 3b ef f9 36 bb 12 20 c9 3a 90 d8 da 3b
       0.00658457 -0.0027919968 0.0015344641 0.0066786483
0003c0 c1 91 cd bb cf 56 e2 3c 8d 11 61 ba 95 1d 47 ba
       -0.0062734787 0.027629284 -0.0008585684 -0.00075956556
0003d0 bb 65 74 bb 6e 98 97 bb 68 99 ae 3b 56 97 30 3c
       -0.0037292081 -0.0046263253 0.005328346 0.010778269
0003e0 3f c6 81 bb a2 6b 06 3b 2f ff 16 3a 22 59 aa ba
       -0.0039604004 0.0020510931 0.0005760071 -0.0012996534
0003f0 b4 db 3d 3c 00 00 f6 3c bb 44 ad 3b 1a 86 6a 3c
       0.011588026 0.030029297 0.0052877343 0.014314199

action_model._discrete_distribution.branches.0.bias f4 [3]
000000 04 37 05 bd 2f 45 d4 bc 9a e3 90 3d
       -0.03252317 -0.025911896 0.070746616

action_model._discrete_distribution.branches.0.weight f4 [3, 128]
000000 fc 54 15 bd 75 81 61 3c 67 b3 f3 3c 0f 0f 9c 3d
       -0.036458 0.013763775 0.029748632 0.0762006
000010 d9 51 0c bd 7f cc 46 3b c2 78 ee bc 2d 83 09 3c
       -0.034257744 0.0030334292 -0.029110316 0.008393091
000020 11 e8 0c 3e ae cd 90 bd e6 ef 1a bd 5b 55 07 3b
       0.13760401 -0.0707048 -0.03782644 0.002065024
000030 93 fd 85 bc 09 5f 42 bd 3f 48 38 3d ea 45 62 bc
       -0.016356265 -0.047453914 0.044990774 -0.013810614
000040 13 8c 44 3c 3f ce 8a 3c 67 9e e4 bb 5f 27 cf 3c
       0.011996287 0.016944049 -0.006976891 0.025287328
000050 27 78 80 bd 45 42 97 3a 47 9e d1 3d 4f 38 f0 3c
       -0.06272917 0.0011540136 0.10235267 0.029323725
000060 0e 32 16 bd 88 de 4e 3c be 9c dd bd eb 1f 8f 3c
       -0.03666883 0.012626298 -0.10820912 0.017471274
000070 8d 87 db bc 09 f8 c0 3b 92 10 e6 3c 9a 61 e5 3c
       -0.026798034 0.005888943 0.028084073 0.028000642
000080 a0 4a 1a bc e3 c8 8e bd b9 41 93 bc 94 72 11 bd
       -0.009417206 -0.0697191 -0.017975675 -0.03550966
000090 05 45 47 3d b9 41 d2 3d 55 a6 b3 bd 50 f3 85 bd
       0.048649807 0.10266442 -0.0877196 -0.06540549
0000a0 fb d1 b4 3d fe 67 35 bb 21 6f 29 bd bc dc e6 bc
       0.08829113 -0.0027680392 -0.041365746 -0.028181426
0000b0 8d 87 81 bd 8b e3 92 3c 3a 3f c7 bc da 9b 00 bd
       -0.063246824 0.017930767 -0.024322141 -0.03139863
0000c0 c5 d8 91 bc 53 d4 36 3d b5 84 de bb 1a 25 6d bd
       -0.01780356 0.044636082 -0.0067907223 -0.05789671
0000d0 64 44 5b 3c c0 5d 95 bc 87 95 b1 bc 8b a5 b5 3c
       0.013383005 -0.01823318 -0.021677746 0.022173664
0000e0 b6 c2 15 3d 63 15 f0 bc 9d 38 f0 3b bf 5b 16 bc
       0.036562644 -0.029307073 0.0073309676 -0.009177147
0000f0 ad 1e 02 3d 56 da 60 3c 04 02 7b bd cb f6 32 bd
       0.031767536 0.01372393 -0.06128122 -0.04369239
000100 25 35 77 bb ff 6f 30 bd 5b ad 01 bd 8f 6e d2 3c
       -0.0037720886 -0.043075558 -0.031659465 0.025687484
000110 53 d1 c2 bc 3a 73 17 3e 4d 99 92 3c ed 11 cc 3c
       -0.023781454 0.14790049 0.017895365 0.024910891
000120 33 f4 b3 3b 11 91 76 3c c2 b1 3a bd f0 f3 b7 3c
       0.0054917573 0.015049235 -0.04557968 0.022455186
000130 9e 80 5a 3c d8 fb 15 3d d7 0f 84 bd f4 11 eb bc
       0.013336329 0.03661713 -0.06448334 -0.028695084
000140 74 33 7c bd 0b 30 d9 bc 31 f2 57 bc 3e f6 df ba
       -0.061572507 -0.026512166 -0.0131803015 -0.0017086936
000150 e4 47 89 bc ca 85 09 3d 5a cb 16 3d 95 01 5e 3d
       -0.016757913 0.033574857 0.036815025 0.054200727
000160 31 46 f6 3c ec ee 9c 3c c8 70 50 bb 61 0c 2d 3c
       0.030062767 0.019156896 -0.0031805504 0.010562033
000170 39 07 94 3c 25 6c 58 bd c6 1f 02 bd 59 7b d3 bc
       0.01806985 -0.05283751 -0.031768583 -0.025815653
000180 83 3f a4 bc b2 7a 49 3c c6 d5 a0 3c bd 19 30 3d
       -0.020049816 0.012297319 0.019633185 0.042993296
000190 12 fe 13 3c 7d 25 00 3c 09 71 94 bc fb e6 7b 3d
       0.009032743 0.007821438 -0.018120306 0.061499577
0001a0 c8 99 1c 3e 02 07 85 bc 29 d0 04 bd b7 ba dd bb
       0.15293038 -0.016238693 -0.03242508 -0.006766643
0001b0 6b f8 ec bb 7b fb b4 3b bb 83 c8 3d b5 0f e7 3b
       -0.007231762 0.005523143 0.097907506 0.007051433
0001c0 8e 0a db bc 21 ab aa bc 56 d2 7a bb d8 c1 a3 3b
       -0.026738431 -0.020833554 -0.0038272343 0.004997473
0001d0 45 5f 0c bd 0a a5 c6 bc 74 18 01 bd 3e 5c 88 bd
       -0.034270544 -0.024248619 -0.03151746 -0.06658219
0001e0 f6 fc bd bd 4c 09 72 3c 0d 0e 86 bd e4 34 64 bc
       -0.09276764 0.014772724 -0.06545649 -0.013928626
0001f0 07 29 b5 3c 0b 51 0a 3d 09 04 c9 bc 1a c1 f4 bc
       0.02211429 0.033768695 -0.024538057 -0.029877234
000200 96 69 5c 3d 3e af c7 ba 0e 3d 88 3d b8 b7 a5 bd
       0.053811632 -0.0015234721 0.0665227 -0.08091682
000210 49 60 f3 3c 88 eb 5e bc 06 e0 af bc 64 e1 9a 3d
       0.029708998 -0.01360596 -0.021469127 0.07562521
000220 1d a7 85 3c c2 a4 3f bd a0 30 77 3d ed aa 4a 3d
       0.016315037 -0.046787985 0.060349107 0.049479414
000230 60 d9 85 3c 9a 95 3b 3c e7 fa a0 3d fd 4b 97 3b
       0.016339004 0.011449242 0.07860356 0.004617213
000240 94 01 38 bd b1 86 4b 3c a1 97 ac bd d7 e4 47 3d
       -0.04492338 0.01242225 -0.084273584 0.048802223
000250 bc 6f 23 3d 54 9e 47 bc ec 91 9d 3d 0c d2 ae 3a
       0.03990148 -0.012183744 0.07693848 0.0013337745
000260 0f 15 f3 3d 2c 41 6c bd a2 63 d9 3d 79 cb 69 bd
       0.11869251 -0.05767934 0.106147066 -0.057078812
000270 fa 9d 9c 3d 07 17 19 bd 2d b9 3d bd 1a 68 28 3d
       0.07647319 -0.037375476 -0.046319176 0.041114904
000280 f7 9e d5 b9 a0 d5 ef 3d 3c 02 4c 3d c1 80 04 3d
       -0.00040744964 0.117106676 0.04980682 0.03234935
000290 a1 5f be bc 73 4b 78 bd bf a0 b8 3d 71 1d 2c 3e
       -0.023238959 -0.06061883 0.09015035 0.16808106
0002a0 a8 25 95 bd 58 d6 6e bc 5b fd a2 3d 58 cd e8 3d
       -0.07282573 -0.014577471 0.0795848 0.11367291
0002b0 5a 6b 97 3d 29 90 9f 3d bb dd bf 3d 8f 29 8d bd
       0.073935226 0.07791168 0.093684636 -0.06892692
0002c0 a8 b2 bc 3d 9b c2 97 3d 44 47 99 3c d5 8f 09 3e
       0.092137635 0.07410165 0.01871074 0.13433774
0002d0 2b 90 b7 bd 7c 86 7d bd 00 59 9b bd ed d3 00 3e
       -0.08963045 -0.061895832 -0.07585335 0.12580843
0002e0 58 ac 15 bd 30 13 dc 3d e3 3f b2 3c c4 99 a6 3d
       -0.036541313 0.10745847 0.02175898 0.08134797
0002f0 a1 17 2d bd ba 08 98 3d 3c 73 1c bd 2e 87 e9 bc
       -0.042258862 0.074235395 -0.038195834 -0.028506842
000300 ef a1 78 3d c2 00 3b bd 48 e0 cb bd 79 cf 29 3d
       0.060701307 -0.04565502 -0.09954888 0.041457627
000310 cd 09 67 3c 27 d1 41 be 1b c5 c6 3d d7 3c 5c 3c
       0.014101458 -0.18927442 0.09705564 0.01344224
000320 e4 bc db 3d 1e 2b 2e 3d 7e 47 dd bb 56 7d 20 3c
       0.107293874 0.04252159 -0.0067529073 0.009795507
000330 46 d9 90 bc ae 9f 20 bc 94 64 d6 3d 5a 9d ea bc
       -0.017681729 -0.009803696 0.104684025 -0.028639484
000340 e3 85 4b 3d 75 8c 06 3d 25 2c 8d 3d 47 37 c1 bd
       0.04968823 0.032848794 0.068931855 -0.094343714
000350 f3 d5 53 3d 9a bf 2a 3c 1c eb a9 bd 55 85 5d bd
       0.05171771 0.010421658 -0.08296797 -0.054082233
000360 22 97 81 bc 49 d1 97 3d 30 b0 a9 bd 9d e6 e1 bc
       -0.015819136 0.07412965 -0.08285558 -0.027575785
000370 3c 61 59 bd 3a f7 fb 3d c0 20 07 3e b9 5c 19 3d
       -0.053071246 0.12303014 0.13196087 0.037441943
000380 fe 21 15 3d 4b bf 50 3d e8 f6 f6 3c b5 a2 ae bd
       0.03640937 0.05096368 0.030147031 -0.08527128
000390 22 d7 47 3d 58 04 89 bc 5e 7b f3 3d 84 bd 46 bd
       0.04878915 -0.016725704 0.11888765 -0.04852058
0003a0 5a df 2f be 3f 40 08 3d eb c6 cb bc 91 91 8a bd
       -0.17175046 0.033264395 -0.024875125 -0.06766046
0003b0 7c 12 a8 3d c0 c8 8f 3d 08 d6 92 3d fc 21 d1 bd
       0.082066506 0.07020712 0.071697295 -0.1021156
0003c0 23 52 56 3d 65 a3 e1 3c 88 ae 9f 3d 80 45 57 3d
       0.052324425 0.027543733 0.07796961 0.052556515
0003d0 f9 5e 8a 3d 65 55 a3 bc e9 3b f5 3d 9f 94 dc 3b
       0.06756396 -0.01993818 0.119743176 0.006731584
0003e0 25 da a5 bd 1e 5c a2 bc 8f 98 93 3d ac e2 9c bd
       -0.080982484 -0.019819316 0.072068326 -0.07660422
0003f0 7c 90 08 3d ae 8f 28 bd c1 83 b8 3d 89 53 92 bd
       0.033340916 -0.04115265 0.09009505 -0.07144839

action_model._discrete_distribution.branches.1.bias f4 [3]
000000 68 84 2e 3d 96 84 40 bd 13 f6 33 bd
       0.04260674 -0.047001444 -0.043935847

action_model._discrete_distribution.branches.1.weight f4 [3, 128]
000000 d6 33 19 3c bb 46 77 bd 51 8f d1 3b 72 77 9d 3d
       0.009350738 -0.06037019 0.0063952585 0.07688798
000010 5c e7 5e 3d de f2 74 3d 10 d1 cf 3c c6 6f 6b 3d
       0.05441986 0.05980193 0.025368243 0.057479642
000020 f2 c7 67 bd d3 2e 70 3d b8 72 28 3d b9 eb ad bd
       -0.056587167 0.058638405 0.04112503 -0.08492226
000030 d8 cb 74 3c 25 f8 c7 3c f4 c7 a5 3d 06 e5 5e 3d
       0.014941178 0.024410317 0.08094779 0.054417633
000040 5b 5d 8a bd 86 2a a4 bd e0 36 04 3d 2b 58 30 bd
       -0.067560874 -0.08015923 0.032278895 -0.043052834
000050 8b 5d b7 3c aa b4 f7 3c 07 ac 1b 3e 87 14 c2 bc
       0.022383472 0.030237515 0.15202342 -0.023691429
000060 1e 1a c1 3b ab e1 bb 3d b8 88 2b 3c f9 f2 66 3d
       0.005893006 0.09173902 0.010469608 0.05638406
000070 3b a3 5c 3d 89 cd 18 3a 7e d2 cf 3c d8 62 77 3c
       0.053866606 0.0005828967 0.025368925 0.01509925
000080 f6 15 01 3d 72 90 53 3c 0d 7c f2 bc b1 ae 9a 3d
       0.031515084 0.012912856 -0.029600168 0.07552851
000090 66 68 9c 3c f7 5f 4c 3d 37 4a 70 be 42 fb a9 bc
       0.01909275 0.049896207 -0.2346581 -0.020749692
0000a0 de 3b 0e be f2 28 4a 3d 00 73 98 bd a4 a8 12 3d
       -0.13890025 0.049355455 -0.074438095 0.03580536
0000b0 c3 3f 04 3c 8c 1a d8 bc 74 54 90 3d b3 5d 9b 3d
       0.008071843 -0.026379846 0.07047358 0.07586231
0000c0 aa 57 26 3d f5 75 16 3b 22 b9 c6 3d 9a fd 81 bc
       0.040610947 0.0022958491 0.0970328 -0.015867997
0000d0 a4 72 57 3d 5e 0f d0 3c e0 39 02 bd c8 96 f9 3c
       0.052599564 0.025397953 -0.031793475 0.030467406
0000e0 c5 75 9f bd d1 b6 45 3d b9 f1 86 3b 3b 1f 9b 3c
       -0.07786135 0.04827005 0.004118171 0.01893579
0000f0 31 99 03 bd b5 9d 47 3d 75 9b ef 3c 00 23 78 3d
       -0.032128517 0.048734386 0.029248932 0.060580254
000100 96 a2 7a bc 2f 37 23 3d cd 19 c3 3b 58 9e 94 bd
       -0.015297553 0.03984755 0.0059540034 -0.07256764
000110 41 a4 95 3c 94 2c 3b 3e 7a c9 bf bd b3 21 68 bd
       0.018266799 0.18278724 -0.093646005 -0.056672763
000120 0e 12 89 3d 93 b4 74 bd b0 2d 0a 3d 24 23 bf bc
       0.06692897 -0.05974252 0.033734977 -0.023332186
000130 fb 7b db 3b c2 a5 d5 3b af ec 30 3d 81 8e 9e 3c
       0.0066981292 0.006520004 0.04319447 0.01935506
000140 90 a9 1f 3d d8 3d 01 3d 87 a0 ae 3d 3e 8b 26 3c
       0.038980067 0.03155312 0.08526712 0.010165034
000150 41 2d 9a 3c e5 3b 13 be 2a da 8a 3d 42 1d 3a 3c
       0.018820407 -0.14378317 0.06779893 0.011359515
000160 6e 4f ae 3c 60 e6 97 bd 7a ed bf 3c 75 ae 47 3d
       0.02127811 -0.074169874 0.023428667 0.04875036
000170 59 c6 08 bd f8 8e ae bd 90 f7 97 bb dc c8 ae 3d
       -0.033392284 -0.08523363 -0.004637666 0.08534405
000180 bd b7 4b bd a7 e0 58 3d bd 88 55 bd 99 6e 62 3d
       -0.049735773 0.05294862 -0.052132357 0.055281255
000190 1a f8 d5 bd 1c 29 a7 3c a4 50 a2 3c 93 39 1b 3e
       -0.10447712 0.020405345 0.019813843 0.15158682
0001a0 25 80 b1 bd 6c ad 9e bd ea d5 1d 3d 22 68 7a 3d
       -0.0866702 -0.07747921 0.038534082 0.061134465
0001b0 8a 9d e7 bb 55 b0 a0 ba f1 45 be bc 5f 25 38 3d
       -0.0070683407 -0.0012259582 -0.02322671 0.044957515
0001c0 9d 24 84 bd 94 03 c1 bd 87 78 7a ba f3 97 03 3d
       -0.06452296 -0.094245106 -0.0009554703 0.032127332
0001d0 c8 07 f8 3c 23 34 49 3d 5e 93 e3 3d 6a aa 37 3d
       0.030277148 0.049121987 0.111120924 0.044840254
0001e0 4d 9f ba bc 02 58 d3 3d a0 12 20 be 34 97 d0 3c
       -0.022781039 0.103195205 -0.15632105 0.025462724
0001f0 9a f0 67 bd f3 42 96 bc dc 23 86 3d ed 4b 95 3d
       -0.05662594 -0.01834247 0.065498084 0.07289872
000200 71 cf a2 ba a9 a1 a2 3c 83 21 c6 bc 4a 3f 97 be
       -0.0012421441 0.019852476 -0.024185902 -0.29540473
000210 4d eb b6 bd 14 9a ff 3c 69 27 4b 3d 26 75 42 bc
       -0.08931599 0.0312014 0.04959813 -0.011868751
000220 df 90 29 3e d9 1b a0 3c 17 1a 56 be d9 77 81 3d
       0.1655917 0.019544529 -0.2090839 0.06321687
000230 c4 12 50 3d 97 8e cd 3c de fb 44 3d 07 4c 73 bd
       0.050799146 0.025092406 0.04809176 -0.059398677
000240 2c a4 d1 bd fc 82 29 3e 45 c8 de b9 60 7f ac bb
       -0.102363914 0.16553873 -0.00042492352 -0.0052642077
000250 6d c5 42 3c 5d be 8f be 9b 33 70 bd e2 6e 33 3d
       0.01188789 -0.28074923 -0.058642965 0.043806918
000260 f1 32 26 be 98 44 ed bd b8 65 6c be 35 89 37 bd
       -0.1623037 -0.11585349 -0.23085678 -0.044808585
000270 f1 67 b4 bb 50 b4 f2 3b 3a 87 50 bd aa 7d db 3d
       -0.005505555 0.007406749 -0.050910212 0.10717328
000280 11 82 f1 bd 6b 68 57 be 0b d9 49 3d 9b d3 08 be
       -0.11792386 -0.21035926 0.049279254 -0.13361971
000290 72 86 55 be c4 4c f2 ba b1 d5 15 3e 5f 7f 69 be
       -0.20852068 -0.0018486013 0.14632298 -0.22802494
0002a0 6e bd 8e 3e 22 8e 99 3c 3f b8 59 bd 48 ee 04 be
       0.27878898 0.018744532 -0.053154226 -0.12981522
0002b0 cc 32 fe bd bc 0a 07 3d 99 08 18 bc dd 58 36 3c
       -0.124120325 0.03296922 -0.009279394 0.011129585
0002c0 ff 9f 64 be f3 fc e0 3d 76 0d 72 bd 6f a3 df bd
       -0.22326659 0.10985746 -0.05909487 -0.10919844
0002d0 2b 0c b9 ba 7e 0a a9 3c 48 ec 14 be 67 db 66 3d
       -0.0014118006 0.020634886 -0.14543259 0.056361582
0002e0 de 56 07 3e 2e 0a 87 bd 14 28 1d 3e cd ec 11 be
       0.13216731 -0.065937385 0.1534732 -0.14250489
0002f0 61 fb 17 bc ac 5e 96 bd 3f 6e c3 3c 4d ed 1e bd
       -0.009276242 -0.07342276 0.02385628 -0.038800526
000300 d3 bc 7b be 37 dc 1b 3b 3f 81 89 3d ab 28 8d 3d
       -0.2458375 0.0023782381 0.06714105 0.068925224
000310 4a 2d 65 bc 3e 7b 4a bc f9 54 83 3d df d0 55 3d
       -0.013987849 -0.012358485 0.064126916 0.052201148
000320 a0 7f c8 3c 5b c2 35 3d 67 9b 7c 3d f4 9a d4 3d
       0.024474919 0.044374805 0.06167164 0.103811175
000330 dc 8c 9b be ca 30 f0 3c 86 ab d7 bd 0d ab 1b 3d
       -0.30380905 0.02932014 -0.105307624 0.038004924
000340 6c b4 5d be d4 7c 52 bc 70 7e fe bc dd ac a6 3c
       -0.21650857 -0.012847144 -0.03106615 0.0203461
000350 0c aa 66 bb 59 e3 92 3e 8c ac da bb 80 88 c1 3c
       -0.003519657 0.28689077 -0.006673401 0.023624659
000360 51 b8 ef bc e5 2a 8e 3d b5 cd 1d bd d4 05 67 bd
       -0.029262694 0.06941775 -0.038526256 -0.056402043
000370 5a 80 ca 3c e0 06 26 3e 1f bc 8f be 71 3d 00 bd
       0.024719406 0.1621356 -0.28073213 -0.031308595
000380 95 5d 34 bd 8b 2d 00 bc ec c0 19 3d 16 f3 c7 bd
       -0.04403456 -0.007823358 0.0375375 -0.09763162
000390 01 05 fe bc c6 52 16 bd 27 92 7d 3d f9 06 3c be
       -0.031008245 -0.036700033 0.06190696 -0.18362035
0003a0 3f e3 b1 3e 69 a6 aa 3d b7 66 53 3c 79 c9 4a bd
       0.34743688 0.083325215 0.012902907 -0.049508546
0003b0 08 7d 22 be c1 f7 f4 3d f5 57 1a 3e 11 ec 43 3c
       -0.15868008 0.11961318 0.15072615 0.011958138
0003c0 11 0e 3b 3d 46 80 14 3e d2 c3 85 3b fb cf 07 be
       0.04566771 0.14502057 0.0040821815 -0.13262932
0003d0 10 00 5b bd 22 9f 6f bc b8 17 bc bd 59 5e b1 3c
       -0.053466856 -0.014625343 -0.091842115 0.021651434
0003e0 8e be df bb 07 f5 fe bd c6 ec cf 3d e8 33 63 b8
       -0.006828136 -0.12449079 0.10152583 -5.416936e-05
0003f0 ff 5a 80 3d a9 47 67 be 08 0a 97 bd 5e 07 c7 bd
       0.06267356 -0.2258593 -0.0737496 -0.09718202

action_model._discrete_distribution.branches.2.bias f4 [2]
000000 25 0c 71 bc 70 0c 71 3c
       -0.014712368 0.014712438

action_model._discrete_distribution.branches.2.weight f4 [2, 128]
000000 89 c4 14 3d 2c ec dd bc 50 31 44 3d db 59 38 bd
       0.036320243 -0.027090155 0.04789859 -0.045007568
000010 93 9a 61 3d b0 6c a5 bb aa ee fe bc 64 38 2d 3d
       0.055079054 -0.005048357 -0.031119663 0.042290106
000020 09 42 d0 3c 1a bb 16 3d a6 7c 6d 3d bb 39 50 3d
       0.025422113 0.036799528 0.057980202 0.050836306
000030 57 81 78 3d db a5 0b 3c 21 0f 15 bd 17 1b 2b 3c
       0.060670223 0.00852343 -0.03639138 0.01044347
000040 4f f1 26 3e 85 e2 82 3b 45 41 81 bd 02 ed 64 3c
       0.1630299 0.0039942884 -0.06311277 0.013972523
000050 29 1b 87 3d 71 07 40 3b ba 86 1e be 88 17 26 bc
       0.06596977 0.002930131 -0.15481082 -0.010137446
000060 84 c9 94 3d c8 89 4e 3d 05 3c c3 3c c1 95 cd 3c
       0.072649986 0.050424367 0.02383233 0.025095822
000070 73 27 ca 3c 90 2f ee bb d6 07 8f bb 95 ce 5f 3d
       0.024677014 -0.0072688535 -0.004364948 0.05464037
000080 12 1f 4b 3b 74 a8 5b 3c 44 96 90 3c 25 00 4f 3d
       0.003099386 0.013406862 0.017649777 0.050537247
000090 9b dc 4c 3e 65 bc f8 bd 16 5b 25 3d db 52 70 3d
       0.2000603 -0.121453084 0.04037007 0.058672767
0000a0 4d 72 1b 3d f6 4a 80 3c 8d c8 26 bd 1c 70 6b 3d
       0.037950803 0.015660744 -0.040718604 0.057479963
0000b0 f8 37 8c 3d 33 73 fb ba e8 6d a1 3c 13 27 21 3d
       0.06846613 -0.0019184112 0.019705728 0.039343905
0000c0 32 a4 da 3c 2b 34 53 3b 39 2c 93 3d bf c6 91 3d
       0.026689623 0.003222714 0.07186169 0.07117986
0000d0 3a 1b 61 3b ba dd 9d bd f0 a1 de 3d ed 48 a8 3d
       0.0034348504 -0.077083066 0.10870731 0.082170345
0000e0 56 d2 a7 3b 9a 5f 1e 3d 6e d6 91 bb d4 19 86 3d
       0.0051215095 0.03866539 -0.004450611 0.06547895
0000f0 3e 8a 30 bd 23 9b aa 3d 06 78 28 bd c4 7d 7e 3c
       -0.043100588 0.08330371 -0.04113009 0.015532915
000100 6d fc 8d bc c3 5a e9 bd a2 de 6e bd a0 85 01 3a
       -0.01733228 -0.113942645 -0.058317788 0.0004940871
000110 ff 12 8d 3d d7 76 d1 bc 83 64 44 3b 24 0d a1 3b
       0.06888389 -0.025569363 0.0029967136 0.0049148966
000120 88 dd 68 3d 63 63 89 bc 6d fe 6a bd 68 89 b2 3c
       0.056851894 -0.016771024 -0.057371546 0.021794036
000130 9e 8d 5f 3c b5 0e d1 bb bd 2e e2 3c 62 bb cd bc
       0.013644604 -0.006379927 0.027610177 -0.025113765
000140 ff 8b 61 3d ca e4 d7 3c e1 a8 ab 3c df b7 ab bd
       0.05506515 0.026354212 0.020954551 -0.0838468
000150 4f 9b 33 3d 31 1f a8 3e 43 6a 49 bb c1 58 7f bd
       0.043849286 0.32836297 -0.0030733503 -0.0623405
000160 39 a9 5d bd 04 6a f0 3c bc 7f fc bc ff be b2 3c
       -0.05411646 0.029347427 -0.030822627 0.02181959
000170 66 42 0d bd 80 b0 c7 bb 93 0d ef bc 79 e5 7b 3c
       -0.03448715 -0.0060940385 -0.029181277 0.015374535
000180 c4 0c 76 bd 8b 9d b5 3c 48 9f c1 3c 65 15 46 3c
       -0.060070768 0.022169849 0.023635522 0.012090062
000190 f3 8d 5c 3e 62 d5 39 3c 6a 08 17 3d e1 b6 56 be
       0.21538524 0.011342378 0.03687326 -0.209682
0001a0 d1 31 f6 3d 85 eb 35 3d 02 42 c6 bd f9 61 56 bb
       0.120212205 0.044414062 -0.09680559 -0.0032712205
0001b0 c2 23 f4 bc 52 5f 3a 3d 9e b1 99 3c af 55 4e bd
       -0.029802207 0.04550106 0.018761452 -0.050374683
0001c0 39 91 07 bd ca 3d ba bc 0b 15 4b 3d bf 12 62 3d
       -0.03309748 -0.022734541 0.049580615 0.05519366
0001d0 82 23 a0 bc a2 c6 93 bc ee 8a e4 bd 76 08 0d 3d
       -0.019548181 -0.018039051 -0.11159311 0.034431897
0001e0 6a eb ca 3c 57 de 6e 3d 16 37 26 3e 88 54 11 bd
       0.024770457 0.05831751 0.16231951 -0.035481006
0001f0 4f 5c 07 3c 5e fd 16 3d 7e 0e 38 3d b2 0d 63 3b
       0.008261754 0.036862724 0.044935696 0.0034645614
000200 90 36 fd bc 3c 3b 69 3b 03 a2 79 bd 91 c4 43 3d
       -0.030909806 0.0035588285 -0.060945522 0.047794882
000210 fb 9e 7e bd c9 6f 43 3c 91 7b 33 3d 00 14 19 bd
       -0.062163334 0.011928507 0.043819014 -0.03737259
000220 c9 f9 4a bc 24 0b c8 bc fa 57 00 bd 9e 63 27 bd
       -0.012388655 -0.024419375 -0.0313339 -0.040866487
000230 95 d7 6b bd 49 f9 6f bb 62 34 d1 3c 2a 57 9b 3b
       -0.057578642 -0.0036617091 0.025537673 0.0047406154
000240 46 49 33 be 28 2c 6b bc 31 16 3a 3d 38 7f 67 bc
       -0.1750842 -0.014353789 0.04543132 -0.014129452
000250 e9 e8 8e bd 6d b7 89 3b 8a 7d 28 3e c3 30 27 3d
       -0.06978018 0.0042027743 0.1645414 0.040817987
000260 dd b3 91 bd 1b d0 50 bd 22 a8 78 bd c0 74 2c bc
       -0.07114384 -0.050979715 -0.06070722 -0.010525882
000270 c3 a5 bd bc 90 a9 5a 3c 9f 07 ae 3b 83 f5 33 bd
       -0.02315033 0.013346091 0.005310967 -0.04393531
000280 7f c5 e7 3b 25 f1 ff bc d0 6c ac bb 64 a2 49 bd
       0.007073104 -0.031242916 -0.005261995 -0.049227133
000290 e2 84 44 be 8e 2d e7 3d b9 05 03 bd 18 c6 5f bd
       -0.19191316 0.11287986 -0.03198788 -0.054632276
0002a0 70 b8 20 bd 62 1b 3b bc 09 40 51 3d 07 79 8a bd
       -0.039238393 -0.011420103 0.05108646 -0.067613654
0002b0 60 89 58 bd 61 aa 16 3c bd 15 05 bd a8 db 32 bd
       -0.052865386 0.009195895 -0.032491434 -0.04366651
0002c0 e2 91 e6 bc 34 6f 56 bc 6f ae 3e bd fb 04 6d bd
       -0.028145734 -0.013088036 -0.04655307 -0.057866078
0002d0 2a 0f a1 bb bd 59 96 3d c2 ce c4 bd 2b d5 ad bd
       -0.004915138 0.07341335 -0.096097484 -0.08487924
0002e0 34 b8 7b bb 4d c6 31 bd 13 74 13 3b d9 b3 83 bd
       -0.0038409354 -0.043402005 0.0022499606 -0.064307876
0002f0 0d 81 6a 3d 24 51 d5 bd 12 5f 19 3d 44 05 f9 bc
       0.05725198 -0.10415867 0.03744418 -0.030398019
000300 96 bb 04 bb f3 12 d3 3d 62 f0 2b 3d c9 6b 73 3c
       -0.0020253411 0.10306349 0.041977294 0.014857241
000310 4e 25 73 bd ec ee c7 3c 13 87 93 3b 2a 4f ef 3a
       -0.05936175 0.024405919 0.004502186 0.0018257846
000320 b1 f2 43 bd f7 69 f1 bb 04 e6 a3 3d d8 4c a3 bc
       -0.04783887 -0.0073673683 0.080028564 -0.019934103
000330 de df b1 bc 7d 58 48 3b 5e 7d 12 bd 80 60 ce 3c
       -0.021713194 0.0030570321 -0.03576409 0.0251925
000340 26 84 62 bd 3a e9 05 bd 4c 5f c6 bc 9b 34 b4 3d
       -0.055301808 -0.032693125 -0.024215363 0.08799096
000350 07 c4 06 bd 03 02 a8 be 96 d3 9a 3b 52 d9 26 3d
       -0.03290179 -0.32814035 0.00472493 0.040734597
000360 77 8f 7b 3d b2 d9 af bc 1e 85 b7 3c 22 2d ea bc
       0.061416116 -0.02146611 0.022402342 -0.028585974
000370 69 b2 e3 3c 60 c8 47 3c 3e 30 56 3d 26 0d 12 bb
       0.027795034 0.012193769 0.0522921 -0.002228567
000380 80 a9 8a 3d 1f 15 ac bc 13 b7 02 bc b9 c3 24 bc
       0.06770611 -0.021006165 -0.007978219 -0.01005643
000390 4c 91 43 be 12 7a 06 bc 97 6b 5a bd 3a 39 53 3e
       -0.19098395 -0.008207815 -0.053325262 0.20627299
0003a0 72 f8 f6 bd e9 fa 16 bd 66 c9 fa 3d 55 b5 27 bc
       -0.12059106 -0.03686038 0.12245445 -0.010236104
0003b0 c3 59 23 3c b8 04 47 bd 09 73 7b bc dd a3 70 3d
       0.009970131 -0.048588485 -0.015347251 0.058750022
0003c0 7d 2b 30 3c d7 b2 a4 3c eb cb 5b bd 59 5d 6b bd
       0.010752556 0.020104809 -0.05366127 -0.05746207
0003d0 61 23 6d 3b 33 aa c9 3c f8 aa e6 3d 23 b2 03 bd
       0.0036184418 0.02461729 0.112630785 -0.032152306
0003e0 a4 2c c9 bc 4a c8 7f bd f9 46 2e be 5b ae 5d 3d
       -0.02455742 -0.06244687 -0.17019261 0.054121356
0003f0 6f 53 6e bb c5 61 2e bd 16 f9 52 bd 86 d3 9a bc
       -0.0036365648 -0.04257371 -0.051507078 -0.01889969

discrete_action_output_shape f4 [1, 3]
000000 00 00 40 40 00 00 40 40 00 00 00 40
       3.0 3.0 2.0

network_body._body_endoder.seq_layers.0.bias f4 [128]
000000 b7 45 52 3d b0 58 c3 39 f0 1c 12 3d f5 1b d0 3c
       0.051336017 0.00037259376 0.03567213 0.025403956
000010 fc 16 03 3e 97 46 c5 3c cc f9 c4 3d b2 f6 0a bd
       0.12801737 0.024081511 0.096179575 -0.033926673
000020 13 09 85 3c 30 76 34 ba 7c 5c 43 3d 85 d5 ce 3c
       0.016239678 -0.00068840664 0.04769562 0.025248298
000030 c6 09 a8 3d ab 09 b3 bc 53 70 16 3d 62 cc 58 3d
       0.08204989 -0.021855196 0.036728214 0.05292929
000040 79 4e 2e 3e 3b bc 9f 3c e3 c7 d2 bb 18 70 05 bd
       0.17022122 0.019498935 -0.0064325198 -0.032577604
000050 1e 35 22 3e e8 98 b1 3d 97 ba aa 3c b3 81 8b bc
       0.15840575 0.08671743 0.020840926 -0.017029619
000060 aa f2 22 3d f1 ba c7 3d b2 1f 2e bc 81 52 1a 3e
       0.039782204 0.09752453 -0.010627674 0.15070535
000070 3c 4b 1f 3d 46 f6 10 3e a1 af 87 3d 84 df 56 3e
       0.03889011 0.14156446 0.066252954 0.20983702
000080 f2 2f 67 3d 88 d0 69 3d 9b 12 16 3e 4a 13 74 3a
       0.05644221 0.057083637 0.14655535 0.00093107356
000090 15 9c 1c 3d 8e 9e 32 bb b5 3e 1a bb 8c cd 30 3c
       0.03823479 -0.002725515 -0.0023535911 0.010791194
0000a0 37 40 ab 3d c8 88 5e 3e 8f cd 8b 3d e4 6e 61 3b
       0.083618574 0.21731865 0.068263166 0.0034398371
0000b0 c4 2d 0b 3d b9 24 f5 bc 4d c5 90 3d e7 cd 3d 3c
       0.033979192 -0.029924737 0.07068882 0.0115847355
0000c0 3c 91 2e 3e 64 ab d3 3b 1b ed 37 3d 97 31 2c 3d
       0.1704759 0.0064596403 0.044903856 0.04203948
0000d0 e2 92 80 3c 9e 1b 1d 3d 7a 31 b0 3d 91 a4 03 3e
       0.01569504 0.038356416 0.08603187 0.12855746
0000e0 09 86 ad 3d 22 fc 36 3d 63 31 1c 3d 75 ac a6 3c
       0.08472831 0.044674046 0.038133036 0.020345906
0000f0 32 be 4d 3d 02 31 87 3c 56 59 95 3c 53 cd 09 3d
       0.050230213 0.016502861 0.018231075 0.033643078
000100 e6 22 a2 3d 93 83 91 3c b5 97 bf 3d ed 52 93 3d
       0.079168126 0.017762935 0.09355108 0.07193551
000110 60 0d 12 3a 01 82 a8 3d 26 2d c1 3d b4 77 30 3d
       0.0005571451 0.08227921 0.094324395 0.043082908
000120 e3 85 a6 bb a3 a3 c4 3c 24 e1 13 3d e3 30 21 3d
       -0.0050818785 0.02400381 0.036103383 0.039353263
000130 63 78 03 3d 07 72 21 bc 66 bb 60 3c c0 7d b3 3d
       0.03209723 -0.009853846 0.013716554 0.08764219
000140 3c 00 0c 3d bc f2 a6 3d 4c ea 43 bd 9a 5b 33 bc
       0.03417991 0.08151767 -0.047830865 -0.0109471325
000150 e8 d0 f3 3d 2c 51 85 3d 18 ba 7e 3e 91 fd 42 bc
       0.1190508 0.06509623 0.24875677 -0.011901275
000160 1e 43 25 3d fa f6 a5 3d 21 68 45 3d 74 db b2 3d
       0.04034721 0.08103748 0.04819501 0.087332636
000170 67 a4 a6 bc 4b 95 93 3d b8 37 91 3b e1 11 4f 3e
       -0.020342065 0.0720621 0.004431691 0.20221664
000180 db 74 33 3d 73 1e f8 bc a4 24 a8 3d 0a bc d7 3d
       0.043812614 -0.030287957 0.08210114 0.105339125
000190 29 cd f5 3c ef 03 e3 3d 91 31 1b 3d b0 22 ac 3d
       0.030005055 0.11084735 0.037889067 0.084050536
0001a0 f0 5d db 3c 93 33 01 3e 69 30 27 3c 6b 31 79 3d
       0.026778191 0.1261733 0.010204413 0.060838144
0001b0 ee be 2b 3d 2e 0a e7 3c 40 43 a1 3d 9f c5 da bc
       0.04193013 0.028203096 0.07874155 -0.026705561
0001c0 e9 05 36 3d 0d 35 ee 3c cd 4c 53 bd 64 89 ce 3c
       0.04443923 0.029078031 -0.051586915 0.025211997
0001d0 c1 32 94 3c d9 d5 99 3d 51 17 8a 3c 86 13 52 3d
       0.018090608 0.07511491 0.016856821 0.05128815
0001e0 65 20 99 3d f0 77 0a 3d 94 e1 46 3e 67 e8 62 3c
       0.07476882 0.033805788 0.19421989 0.013849354
0001f0 d8 37 9a 3b 0e 7a de 3c c7 8a f7 3d cc b7 94 3d
       0.004706364 0.02715781 0.120870166 0.07261619

network_body._body_endoder.seq_layers.0.weight f4 [128, 6]
000000 53 df 3b be c0 d5 26 be a0 cc 49 3e 53 f4 43 be
       -0.1834691 -0.16292477 0.19706964 -0.19136171
000010 c4 ea 7e bf d4 6d 0a bf 85 2b be 3e 94 4c 96 be
       -0.99576974 -0.54073834 0.37142578 -0.293553
000020 b1 ad c9 3e 60 1d a7 bf 6f 34 ec 3c 63 61 2b be
       0.3939033 -1.305584 0.028833596 -0.16736369
000030 15 3a 1f be c5 07 41 3e 0c d6 b7 3e 03 4f 58 be
       -0.155495 0.1885062 0.35905492 -0.2112389
000040 a0 25 89 3d 48 1d 2a 3f f6 ab a1 bd 0d 7a 14 be
       0.066966295 0.6645093 -0.07894127 -0.14499684
000050 94 cc 1b bf 87 cf 04 3e 9f 05 15 3f 92 12 95 bd
       -0.60859036 0.1296979 0.582117 -0.07278933
000060 47 1f b8 be b9 f1 6b 3f b2 9b 83 3f e8 6f bb be
       -0.35961363 0.92165715 1.028189 -0.36608815
000070 08 70 40 bd 29 c0 8a 3e 74 2a d2 3e 34 3a 5f bd
       -0.04698184 0.27099732 0.41048014 -0.054498866
000080 87 95 56 be be 73 0d bf 97 fe 02 3d a2 15 9d be
       -0.20955478 -0.55254734 0.031981077 -0.30680567
000090 05 0a 53 be 4d 09 34 bf 03 36 4e 3f a1 08 d3 3d
       -0.20609291 -0.7032669 0.80551165 0.1030438
0000a0 10 30 86 be ee d4 1b 3f 3e 0c b5 3e a8 88 93 3e
       -0.26208544 0.6087178 0.35360903 0.28815198
0000b0 f4 9c 2b 3f 7e 9a ae bf 0d 74 fb 3e ae 7d 64 3e
       0.67036366 -1.3640897 0.49111977 0.22313568
0000c0 f2 d0 08 3f 23 21 e2 3d 2f ff 26 3f 0a 5a e4 be
       0.53443825 0.110414766 0.6523313 -0.44599944
0000d0 66 88 5b bf e0 05 0f 3e 6b 03 9e bd a4 c8 c3 bc
       -0.85755 0.13967085 -0.07715496 -0.023899384
0000e0 cf 75 86 bc b1 25 1d 3e 6d 60 09 bf 8b a6 98 3e
       -0.016413597 0.1534641 -0.5366276 0.29814562
0000f0 4b 5b ce 3e 00 c0 ae 3d 29 bd 5e bf 17 4f 6c 3e
       0.40304026 0.08532715 -0.87007385 0.23077045
000100 7a 09 2f bf b9 37 28 3f 44 36 17 3f 97 56 b4 bb
       -0.68373835 0.65710026 0.5906718 -0.0055034864
000110 a1 08 80 3e 17 0a b6 3d ec c9 21 be e7 c6 5a be
       0.25006583 0.08888643 -0.15799683 -0.21364938
000120 d5 be 2f be 12 93 b5 bd 19 cb 69 3e 3f cd ea 3e
       -0.1716264 -0.08865942 0.22831382 0.45859715
000130 93 ec f1 be d8 77 b1 3e f6 ce 06 be e4 a4 af be
       -0.47250804 0.34661746 -0.13164887 -0.3430549
000140 87 3f 1a 3f 52 8d e8 be ed c7 81 3e b8 38 f8 3e
       0.60253185 -0.4542032 0.25347844 0.48480773
000150 ca 50 05 bf dd e8 06 be df 3f ed 3e 13 cc 24 3f
       -0.520764 -0.13174768 0.46337792 0.6437389
000160 bb d9 4d bf 50 6d d5 be 8f 41 81 3e e3 b9 1f 3f
       -0.80410355 -0.4168496 0.2524533 0.62393016
000170 f1 b2 04 3f 8f 41 1c be 98 2d 1a be d7 ea 3b 3f
       0.5183554 -0.15259384 -0.15056455 0.7340521
000180 19 41 01 be 97 99 21 bf c1 2f a4 bf 2c 60 30 bd
       -0.12622489 -0.63124985 -1.2827073 -0.043060467
000190 4f 52 b5 3d 21 61 93 be ab 0d 53 be e8 8e 42 3f
       0.0885359 -0.2878504 -0.20610683 0.7599931
0001a0 db a4 25 be 96 26 63 be 5d 5c 1c 3f c2 3f 37 3f
       -0.16176169 -0.22182688 0.61078435 0.7158166
0001b0 24 0b bc be ed ae 3d 3f 77 da 02 be e8 6d 54 be
       -0.3672725 0.7409504 -0.1277865 -0.20745051
0001c0 6f cb b9 bd 90 9f 83 3e 5f 25 19 be 1a 6e 14 bf
       -0.09072005 0.25707674 -0.14955662 -0.579805
0001d0 4a e9 78 3e 47 98 ad be bd 63 8a 3f de b0 94 bf
       0.24307743 -0.3390524 1.0811688 -1.1616476
0001e0 7a 75 2a 3d 8e e8 c8 bd cc 3c 48 bf f9 01 ff 3e
       0.04161594 -0.09809981 -0.7821777 0.49806193
0001f0 17 57 ae bd 5a 8c 75 3f 80 a0 1d bf 98 18 31 3f
       -0.08512705 0.95917284 -0.6157303 0.6917815
000200 4f b7 2d bf d3 40 ac 3d fe 65 88 3e a8 a6 44 bf
       -0.6785783 0.08410802 0.26640314 -0.768168
000210 68 6a a3 3e 94 b9 01 be 19 d5 35 be 0c d0 18 be
       0.3191712 -0.12668449 -0.17757072 -0.14923114
000220 ee 20 04 3f e0 71 1f bf be 20 b9 be 9a ce 13 be
       0.51612747 -0.62283134 -0.36157793 -0.14434281
000230 eb 88 50 3e 81 1b b7 be 6a c5 e7 3e 10 68 be be
       0.2036473 -0.3576317 0.45267802 -0.37188768
000240 33 a9 b4 3e b5 e4 22 3d 6d 2c 0f 3f 2a 2a f8 be
       0.3528534 0.039768893 0.55927163 -0.4846967
000250 75 a2 44 3f 9b a4 ab be 1c e7 40 bd cc f3 c5 3e
       0.7681039 -0.33524022 -0.047095403 0.38662565
000260 63 42 c0 3d 2d 0c 38 bf e8 b1 95 be c2 49 15 3f
       0.09387662 -0.7189358 -0.29237294 0.5831567
000270 86 dd 87 3d ea 21 73 be bc 5d 42 3e 8a 99 4c bd
       0.06634049 -0.23743406 0.1898107 -0.049951114
000280 b8 07 e1 bd 34 25 3f 3f cd 28 f6 be a1 27 d4 be
       -0.109878 0.7466614 -0.48078004 -0.41436484
000290 f6 e9 19 be be 97 1c 3f 95 a9 3d be 63 b3 45 3e
       -0.15030655 0.6116904 -0.18521722 0.19306712
0002a0 76 6b 6a 3f 9f af 9f be c4 54 7e bd c2 bf 4e 3e
       0.9157022 -0.31188676 -0.062092558 0.20190337
0002b0 44 76 35 3e 23 38 36 3f c9 af d8 be 2f 93 2d 3f
       0.17720896 0.7117941 -0.42321613 0.6780271
0002c0 f4 cb 81 3f 27 e3 9b 3d 92 57 6c 3d cd bb 34 bf
       1.0140367 0.07611685 0.0577007 -0.7059906
0002d0 20 5e 39 bf 1a b1 06 bf ee 78 d5 3e 5d 90 1f be
       -0.7240925 -0.52613986 0.41693825 -0.15582414
0002e0 f7 77 9d 3f 6b d5 c9 3e a9 12 2f bf aa 4b 80 3e
       1.2302235 0.39420637 -0.6838785 0.25057727
0002f0 93 84 9b 3f 62 11 8d bc 48 87 b9 3d 2c 20 97 bd
       1.2149833 -0.017220203 0.09059006 -0.07379183
000300 70 13 b3 3e 5b f3 0b 3d 69 62 6f 3e 3b 88 1f 3d
       0.34975767 0.03416763 0.23377384 0.03894828
000310 36 76 5b 3e 19 fb 63 3e ee 71 15 bf 5a 58 2f 3e
       0.21431813 0.22263755 -0.5837697 0.17123547
000320 c4 71 a1 3b 5d 1d 6c 3f 85 7a d8 3e 94 49 5b bf
       0.004926892 0.92232305 0.42280975 -0.85659146
000330 38 1b 18 bd 7e c2 1b bf 42 f0 82 bf 44 5e 36 be
       -0.037135333 -0.60843647 -1.0229571 -0.17809397
000340 ae 5f 20 bd 57 69 c0 3e c6 ec 97 3e 5b b4 1a 3f
       -0.039153747 0.37580368 0.2967283 0.6043145
000350 dc 89 56 bf 88 e0 0b bf 3b cb 07 3f 72 2f 66 bf
       -0.83804107 -0.5463948 0.5304448 -0.89916146
000360 3a 22 64 3d 9c 40 53 be a2 ec b0 3c 3c ad 0d 3f
       0.055696703 -0.20630115 0.02159721 0.5534246
000370 ec 79 08 bf 16 8a d1 be a1 9c 38 3e ae 00 b2 bc
       -0.5331104 -0.40925664 0.18028499 -0.02172884
000380 53 1f ad bd fc ac 21 3f 40 0e e2 3e f6 90 5f 3e
       -0.0845324 0.6315458 0.44151497 0.21832642
000390 47 cd 6f be bd c0 00 3f bc b0 fa 3d ba ff 12 3f
       -0.23418151 0.50294095 0.12240741 0.5742146
0003a0 1a 62 27 bf 39 d7 22 3f 5d 89 6a 3e ef 08 01 bd
       -0.65384066 0.63609654 0.22903962 -0.03150266
0003b0 ba 05 12 3f 3b 17 a6 be c8 66 8e 3e a8 2d cc bc
       0.5703999 -0.32439598 0.2781279 -0.024924114
0003c0 62 91 5b be f8 57 17 3e 6b dd 42 bf aa 30 c6 3e
       -0.21442178 0.14779651 -0.76119107 0.38709003
0003d0 a6 07 18 3e ff 17 ee 3e 37 53 ee be b5 e5 af be
       0.14846668 0.46502683 -0.46547863 -0.3435494
0003e0 52 99 61 bf fc 1d 2d 3f af 6e de be a2 25 6d 3f
       -0.88124573 0.6762388 -0.4344382 0.9263555
0003f0 d1 a8 0e bd 73 95 1a be 7d dd 10 bf da 70 0e bf
       -0.034828965 -0.15096073 -0.56587964 -0.5564095

network_body._body_endoder.seq_layers.2.bias f4 [128]
000000 b2 97 f2 ba 64 84 87 bd 47 33 86 bc d8 f6 01 3d
       -0.0018508343 -0.066170484 -0.016381873 0.03172955
000010 a3 67 bd 3c f7 24 b4 3c 8c 14 ca bc c8 f7 14 3c
       0.023120707 0.021990282 -0.024668 0.009092279
000020 c3 9b 8b 3c 7a ef b1 3d e1 ab 6f 3d 9e a2 67 bd
       0.017042046 0.08688255 0.058513526 -0.05655157
000030 09 ad 34 3d 5c 30 a6 3c 9b 25 01 3d c4 ae ab 3c
       0.04411033 0.020286731 0.031530004 0.020957358
000040 88 22 18 3c 97 5d 43 bd da 90 33 bd 92 0d 9f bb
       0.009285577 -0.047696676 -0.043839313 -0.0048539126
000050 54 b8 4f 3d 92 12 75 bc 14 70 89 bd cb 52 ac bc
       0.0507129 -0.014958041 -0.0671083 -0.021035573
000060 b3 b6 ad 3b 0b e8 8d 3d a1 8d cc 3c ad 21 02 3d
       0.0053013205 0.06929024 0.024969878 0.031770397
000070 af 8a b1 3b 68 a1 9b bc 50 f5 68 bc 3d 38 cb 3b
       0.0054181437 -0.018997863 -0.014218643 0.0062017725
000080 eb b6 54 3c fc 9c a7 3c ed 78 1a bd bb 56 b8 3c
       0.012983064 0.020460598 -0.03771298 0.022502294
000090 5b 0e 02 bd a1 1c 65 bd a9 39 9e bc 40 4f 96 ba
       -0.03175197 -0.055935506 -0.019314604 -0.001146771
0000a0 53 5a b6 3b b4 d7 1f 3d 8f c3 00 bb 92 87 1f 3c
       0.0055649667 0.03902407 -0.0019647812 0.009736912
0000b0 15 c4 34 3d 09 9a 44 bd ab dd cd bc 86 fc a0 3d
       0.04413231 -0.047998462 -0.025130114 0.07860665
0000c0 01 5e 46 3d ac 5a 7d bc 88 b9 3a 3c f7 e5 9c bb
       0.048429493 -0.015463512 0.011396773 -0.004788156
0000d0 90 07 24 3d 01 b1 fb bc 06 e4 23 3c 29 a4 0d 3c
       0.040046275 -0.03072405 0.0100030955 0.008645096
0000e0 d1 ad ea bc 08 0e 14 bc cd da bd 3b aa 8c 45 3d
       -0.028647335 -0.009036548 0.0057939054 0.04822985
0000f0 fe 80 d7 bb f7 f2 de 3b b3 3a 8d bb 42 ee 84 3d
       -0.0065766564 0.006803866 -0.004309976 0.064907566
000100 c5 43 f0 3c 94 b5 64 bc 5a e4 04 bd f3 53 52 bd
       0.02932919 -0.013959307 -0.032444336 -0.05134959
000110 34 35 d3 3c ad 42 30 bd ea 3e e1 bc 91 eb 0f bd
       0.025782205 -0.043032337 -0.02749582 -0.035136763
000120 27 28 1f bb bc 85 96 bd 4d 15 cd bb 3a 29 da 3c
       -0.0024285407 -0.073497266 -0.0062586428 0.026630986
000130 d6 2e 1d 3c 60 c2 ba bc b6 17 5b 3c 0d 30 b4 bc
       0.009593686 -0.022797763 0.013372352 -0.021995569
000140 06 4d 4c 3d 63 24 22 3d 34 b9 cf bb 00 2b 7c bd
       0.049878143 0.039585482 -0.0063392166 -0.061564445
000150 81 e2 c3 3b fc a6 06 3d ce a7 02 3d c9 f0 29 3b
       0.005977929 0.032874092 0.031898312 0.0025930873
000160 7f e5 99 3b 23 de f6 bc ac de 2e bd 5d 4d b6 3c
       0.0046965475 -0.03013522 -0.042692825 0.022253687
000170 e1 9c a7 bc 9b 0b 93 3c 36 9d d0 3c 5b 6a 8e 3a
       -0.020460548 0.01794987 0.025465589 0.0010865437
000180 31 42 e3 bb 5e 94 f4 bc ef f6 79 bd 5e 0c 93 3c
       -0.006935381 -0.029855903 -0.06102651 0.017950233
000190 05 41 02 3c 54 79 e8 3b 85 96 ee bc 02 ae 10 bd
       0.007950072 0.0070945416 -0.029124508 -0.035322197
0001a0 6f 09 28 3d 64 9a 2a bd 86 c7 1b bd 53 5c 04 3d
       0.04102462 -0.041651145 -0.038032077 0.03231461
0001b0 0a 66 f7 bc da 9e f2 3b fb ef 09 3d 60 af 3a bd
       -0.030200023 0.0074041905 0.03367613 -0.045577407
0001c0 fe d4 74 bd 63 57 08 bd 28 9f 71 bb 35 6f 48 3c
       -0.059773438 -0.033286463 -0.0036868546 0.012233545
0001d0 f5 00 95 bc dc 95 3f 3c 31 aa f2 bc f9 dd 72 3d
       -0.018188933 0.011693444 -0.02962217 0.05929372
0001e0 4b 28 36 3d 22 e5 95 3c 19 94 da 3b 34 77 23 bd
       0.04447202 0.018297736 0.0066704866 -0.039908603
0001f0 2d ea a6 bc 50 47 c4 bc 11 7b 93 39 d1 26 71 3d
       -0.020375336 -0.023959786 0.00028129717 0.05887491

network_body._body_endoder.seq_layers.2.weight f4 [128, 128]
000000 97 7f 8a bd 90 5b be 3d 7a 07 53 3d 57 3e a4 39
       -0.06762617 0.09294808 0.051520802 0.00031326964
000010 a4 e4 d6 3c cd 53 32 be 5e aa d9 bc 1c fb 2a bd
       0.026232071 -0.1741478 -0.026570495 -0.041743383
000020 67 de 66 be ec b6 ba 3d a2 94 c7 bc 86 3f 03 bd
       -0.22545777 0.09116921 -0.024362866 -0.032043003
000030 b5 0d 0d 3d f9 da a0 bd 1e 95 4a bd 9e bb 73 3d
       0.0344369 -0.07854266 -0.049458615 0.059505098
000040 0d 34 22 3d 45 7c 60 bd 32 f2 7d bd 3d 17 cd 3c
       0.03960042 -0.054806013 -0.061998554 0.025035495
000050 82 ca 06 be 50 88 6b 3d db f5 e3 3d c0 ac 22 3c
       -0.13163188 0.057503045 0.111308776 0.009928882
000060 ca e8 c7 3d 7e 91 a1 bd 02 62 d2 3d aa ea 21 bd
       0.09761198 -0.078890786 0.102726 -0.039530434
000070 73 55 01 be b3 8e 26 be 31 e3 26 3d c0 1a 48 bd
       -0.12630253 -0.16265373 0.04074401 -0.048853636
000080 b0 71 b8 3b 78 9d f8 bd 97 e4 99 bd f9 db 8b bd
       0.005628787 -0.1213941 -0.07514303 -0.06829066
000090 3b 73 3b bd 82 66 e1 bd d7 fa 47 bd aa 90 b6 3d
       -0.04576419 -0.1100588 -0.048823204 0.08914311
0000a0 0d 79 3e 3d c8 9c 28 3c ca b6 5a 3c 4a 27 21 3e
       0.04650216 0.010291286 0.013349244 0.15737644
0000b0 12 8d 21 be 9e e6 3b be 7c 26 db 3d 78 b1 a4 3d
       -0.1577647 -0.18349692 0.107007 0.08041662
0000c0 5a c8 ae bd 3f 0b 70 3e 18 f6 01 be b7 6d eb 3c
       -0.08534308 0.2344179 -0.12691534 0.02873884
0000d0 97 56 82 3d 5c e2 75 ba 55 c9 db 3d 1e 87 80 be
       0.06364172 -0.00093797385 0.107317604 -0.25103086
0000e0 d7 c9 b8 3c 6a 71 56 be df 93 69 3c 4c 8e 3f 3d
       0.022557182 -0.20941702 0.014256447 0.046766564
0000f0 12 d6 95 3d f7 6b c7 3b 69 4f dd 3d 52 04 05 bc
       0.07316221 0.0060858685 0.10806162 -0.008118706
000100 ff ee 8d bd 8c 6a 0c be 4a aa 9d bd 06 14 ac bd
       -0.069303505 -0.1371252 -0.07698496 -0.08402257
000110 64 a3 11 3e 13 79 da bd ea ce 43 bc 91 4c e6 bd
       0.14222485 -0.10667624 -0.011951188 -0.11245073
000120 7d ea 49 be 07 c3 05 3d ab dd d9 bc 17 3a e8 bd
       -0.19718356 0.032656696 -0.026594957 -0.11339205
000130 38 dd 68 3d 9c 1c 6e bd a0 c6 c1 bd 79 85 fd bc
       0.056851596 -0.058132753 -0.09461713 -0.030947434
000140 39 b2 89 bd 61 3e ef 3c dd 97 06 3e 84 8f cf 3d
       -0.067234464 0.02920455 0.13143869 0.10134795
000150 74 2c 93 bd 93 a6 a5 bd 7e 16 17 3d d5 0c 30 be
       -0.07186213 -0.08088412 0.036886685 -0.17192395
000160 20 85 96 3d bf c0 63 bc 31 77 e1 3d dc c2 5d 3e
       0.0734961 -0.013900935 0.11009062 0.21656364
000170 cb 1a 9e bd bd 37 81 bc 14 ca e0 3d d7 21 1f bd
       -0.07719954 -0.015773648 0.10976043 -0.03885063
000180 35 7d 6b be 1a 82 c3 bd 0e ce ee bc e8 2c 80 bc
       -0.22996981 -0.09546299 -0.029150989 -0.015646413
000190 43 af a2 3a e3 3b cc bc ee fa 84 3d 57 fa 70 be
       0.0012411851 -0.0249309 0.064931735 -0.23532997
0001a0 7d 56 45 3e f5 1c 30 3d 30 d1 13 3d 06 cd a7 bd
       0.19271274 0.042996366 0.03608817 -0.08193402
0001b0 bd 39 38 3e 9f 24 8c 3d 14 78 24 bd 3d 04 85 bc
       0.17990775 0.068429224 -0.040153578 -0.016237373
0001c0 56 a4 78 bd 0c ed 0e 3d ae 19 fe 3d aa c3 98 bd
       -0.060703598 0.034894034 0.12407242 -0.07459195
0001d0 02 48 8a 3d 59 a6 f3 3c 3a 4e a5 bd 4a 25 c1 bd
       0.06752016 0.029742407 -0.08071561 -0.094309404
0001e0 f5 99 8e bd 83 a6 c2 3c c6 76 55 be 0a 7c 1f 3c
       -0.06962959 0.02376104 -0.2084609 0.009734163
0001f0 1c 95 46 be 72 9e b9 3d 30 d6 12 bc 69 ec ad bc
       -0.19392818 0.09063424 -0.008962199 -0.021230893
000200 d5 1b 21 3e 58 12 26 3d c2 3d 75 bd a0 8a b3 3d
       0.15733273 0.040544838 -0.05987335 0.08766675
000210 b7 41 cb bd 9d 36 15 bd e0 f2 09 3e e4 57 ba bd
       -0.099246435 -0.036429036 0.13471556 -0.09098795
000220 13 7f 9f 3d 9b ba 00 be 3f 88 71 be ad 2d 0b bd
       0.07787909 -0.12571184 -0.2358713 -0.033979107
000230 65 6b 19 be 5a fc 7b 3d 69 74 1f bd e8 9a 2c be
       -0.14982374 0.061519958 -0.038929377 -0.16855967
000240 f3 46 17 3e 74 44 31 bd bd 8c 8d bd 90 88 04 3e
       0.14773159 -0.043278173 -0.06911609 0.1294272
000250 03 95 75 be 49 84 fe 3b 68 b1 c4 3d 8d d2 bd 3d
       -0.23982625 0.0077672345 0.0960415 0.09268675
000260 ba ff 97 bd 48 ef 43 be 58 05 69 bd 5d d9 b4 3d
       -0.07421823 -0.19134247 -0.05688986 0.08830521
000270 75 d0 0c be 0f ff 58 bd e6 02 34 3d c8 52 a2 3d
       -0.13751395 -0.052977618 0.043948077 0.079259455
000280 a6 ea 0c be a5 fd b4 3d 50 e8 47 bd 7c 52 95 3d
       -0.13761386 0.08837441 -0.048805535 0.07291123
000290 f7 81 0a be 89 e2 76 be 0e a8 f5 bd 2a 2c ed bc
       -0.1352614 -0.24109854 -0.119949445 -0.028951723
0002a0 fb 8a ee bd 21 09 c8 bd b4 fe 29 3d 5b 24 0b be
       -0.11647602 -0.09767366 0.04150267 -0.13588087
0002b0 f3 21 ad bd d2 57 95 bc ae 37 d9 3c 42 88 b7 bb
       -0.08453741 -0.018230353 0.026515808 -0.00560096
0002c0 02 b5 51 3e d8 32 41 3d 48 56 13 bd d0 c1 07 3d
       0.20479205 0.04716763 -0.035970956 0.03314382
0002d0 6e 33 5a be f3 5c 1e 3d 30 55 13 bc 2a 8a 33 3d
       -0.21308681 0.038662862 -0.008992478 0.043832935
0002e0 54 87 26 be 31 a3 0f 3e cd 41 0b be 0b 06 e6 3d
       -0.16262561 0.14027096 -0.1359932 0.11231621
0002f0 26 08 e8 bc 4b 9a fd 3d 6c 93 58 bd 2b cd 29 3d
       -0.028324198 0.12382945 -0.052874967 0.04145543
000300 16 01 69 bd 5c 96 07 3e 9f 6e ee 3d 7e 66 f4 bd
       -0.0568858 0.13240951 0.11642193 -0.11933611
000310 a5 ff db 3a d9 59 60 bc b9 ce bd 3d de 45 31 3d
       0.0016784562 -0.013693296 0.09267945 0.04327952
000320 41 f8 16 3e 07 7c e3 bd 78 b8 0b 3e 6e e4 91 be
       0.14743139 -0.11107641 0.13644588 -0.2849459
000330 c5 60 43 3e fc d0 09 be 2c 96 b6 3c 37 7a e9 bc
       0.19079883 -0.13458627 0.022288404 -0.02850066
000340 00 9c 52 3e 43 31 08 bd e7 b5 d7 3d fb 1a 19 be
       0.20567322 -0.033250105 0.10532742 -0.14951698
000350 0b 94 73 3d 46 a8 34 be c8 63 e0 3d 86 c9 82 3d
       0.059467357 -0.17642316 0.10956532 0.06386094
000360 28 32 fb 3c 57 11 fb bd 01 84 b6 bd e8 c7 cb bd
       0.030663565 -0.12259167 -0.089118965 -0.099502385
000370 2a 34 7a bd a7 21 f4 3c aa 1e fd bb 08 85 b2 bd
       -0.061084904 0.029801203 -0.0077246027 -0.0871678
000380 88 1c 29 bd 5f 2b 32 bd c5 82 be 3d 05 55 20 3d
       -0.041286975 -0.043498393 0.09302286 0.03914358
000390 d2 6f 95 3c fb 8b 1f 3e 59 e3 ed bd e9 49 a6 bd
       0.018241797 0.15580742 -0.11615629 -0.08119566
0003a0 37 68 1e bd 34 b9 ad bd 4c d7 d2 3d fc 7c 1d be
       -0.038673606 -0.0848259 0.10294971 -0.15379709
0003b0 6e 72 e9 bd 5e f2 de bd 93 92 31 bd cb 63 e3 bc
       -0.11398779 -0.108860716 -0.043352675 -0.027757546
0003c0 01 bc 3f 3d 32 0a 76 3d f5 cf a7 3d 45 4b a6 3d
       0.046810154 0.060068317 0.081939615 0.08119825
0003d0 c6 c9 39 3d 34 89 b5 3d df 1b 7d bd 18 bf 22 bd
       0.04535844 0.0886406 -0.061794158 -0.039733022
0003e0 8e 40 3c 3d 60 ef b6 3d 2c 54 f0 bd 82 79 b5 bd
       0.04596 0.08932376 -0.117348045 -0.088610664
0003f0 59 7b bf 3d d4 e3 c7 bc c1 cf 17 3d 04 1d ac bc
       0.093496986 -0.02440063 0.037063364 -0.02100993
