results/GoalAgent23_gamma60/MoveToGoal.onnx (onnx, 72639 bytes, 7 tensors)

action_model._continuous_distribution.log_sigma f4 [1, 2]
0	0x3d6582d3	0.056032967
1	0x3d86dc39	0.06584973

action_model._continuous_distribution.mu.bias f4 [2]
0	0xbb8e631f	-0.0043453122
1	0xbca1237a	-0.019670237

action_model._continuous_distribution.mu.weight f4 [2, 128]
0	0xbd2ccee8	-0.04218951
1	0x3c9954c0	0.01871717
2	0x3d1cfedc	0.03832899
3	0x3d4ed5cc	0.05049686
4	0x3b50fabb	0.0031887728
5	0xbd0539f0	-0.032525957
6	0x3cd2c63f	0.025729297
7	0x3aa34e98	0.0012459336
8	0x3d167a4f	0.036737736
9	0xbb9ff134	-0.0048810486
10	0xbb882dc2	-0.0041558454
11	0xbd3efca6	-0.046627663
12	0xbd115601	-0.03548241
13	0xbcab0bf5	-0.020879725
14	0x3cd0e37b	0.025499096
15	0x3d980ee2	0.07424714
16	0xbc6c15ce	-0.0144094955
17	0x3d6e5921	0.05819047
18	0x3ccabd79	0.02474855
19	0xbb4ed5ed	-0.0031560615
20	0x3d02be17	0.031919565
21	0xbc502d47	-0.012706107
22	0xbc9031d3	-0.017601883
23	0xbc85885f	-0.016300378
24	0xbb651859	-0.003495714
25	0x3da930d5	0.08261267
26	0x3cd22284	0.025651224
27	0x3ceac768	0.028659537
28	0xba7777ad	-0.00094401353
29	0xbd5e477c	-0.05426739
30	0x3bbbc62c	0.005730411
31	0xb9a90e0d	-0.0003224466
32	0xbac6dfdf	-0.001517292
33	0xbdb448cb	-0.08802947
34	0xbdb1777e	-0.086653695
35	0xbd14e00c	-0.03634648
36	0x3d325340	0.043536425
37	0x3d9e1d04	0.07720378
38	0x3ce841ef	0.028351752
39	0xbd935c17	-0.07195299
40	0x3c38b15c	0.0112727545
41	0x3cc6ad31	0.024252506
42	0x3db12272	0.08649148
43	0x3cb182b0	0.021668762
44	0xbc95a750	-0.018268257
45	0xbd2dd1ef	-0.042436536
46	0x3d0f1aea	0.034937777
47	0xbcda4aeb	-0.026647052
48	0x3d1bdb8f	0.038051184
49	0xbd69c25a	-0.057070114
50	0x3c8eb060	0.017418087
51	0xbd1ed266	-0.03877487
52	0xbc7701cb	-0.015076111
53	0xbd04306a	-0.032272734
54	0x3b1f697a	0.0024324344
55	0xbc46007f	-0.012085079
56	0xbd55ed48	-0.052228242
57	0x3d156430	0.0364725
58	0xbda7c9ea	-0.08192809
59	0x3d370bfc	0.044689164
60	0x3d24323f	0.04008698
61	0xbd49aedf	-0.049239036
62	0xbc8814e5	-0.016611526
63	0xbc3d76a1	-0.011563928
64	0xbdca5d0c	-0.098810285
65	0xbcdbfa53	-0.026852762
66	0x3d38a4ef	0.045079168
67	0x3c0d5f50	0.008628681
68	0x3b8ef5cf	0.0043627988
69	0xbd806548	-0.06269318
70	0xbcfec499	-0.031099604
71	0x3c3e5dd1	0.011619047
72	0xbd2e2e27	-0.042524483
73	0x3d2587a9	0.04041258
74	0xbd877e00	-0.066158295
75	0x3a8393f7	0.0010038604
76	0x3ccdd1c8	0.025124446
77	0x3d8e4ef0	0.0694865
78	0xbd601e80	-0.054716587
79	0xbc62ff0f	-0.013854756
80	0x3c79ab4f	0.015238597
81	0xbd3d23f2	-0.04617686
82	0x3d195a05	0.037439365
83	0x3c2e0cf9	0.01062321
84	0xbc653ef3	-0.013992059
85	0xbcda9557	-0.026682539
86	0xbd9be5f6	-0.07612221
87	0xbc9c4d2b	-0.019079765
88	0x3ca0d025	0.019630501
89	0xbc69aa63	-0.014261815
90	0xbc96626b	-0.018357476
91	0xbc9f1f80	-0.0194242
92	0x3bd8bfea	0.006614675
93	0xbcc669cc	-0.02422037
94	0x3d9f7f1b	0.07787915
95	0xbcca6e32	-0.024710748
96	0x3ca8ce55	0.0206062
97	0x3d8a2614	0.06745544
98	0xbc95739f	-0.018243609
99	0x3d492d1a	0.049115278
100	0x3ce58c04	0.028020866
101	0x394f1fde	0.0001975293
102	0xbd0356f1	-0.032065336
103	0xbb7f6ce9	-0.0038974828
104	0x3d1848af	0.03717869
105	0xbcc125d1	-0.023577603
106	0xbd149d2c	-0.036282703
107	0x3c4da95a	0.012552584
108	0x3c948877	0.018131478
109	0xbbaf0dc6	-0.005342218
110	0x3ad3f402	0.0016170742
111	0xbc1c6caa	-0.009547392
112	0x3ca1bad7	0.019742412
113	0x3ca734b3	0.020410871
114	0xbc2951ed	-0.010334474
115	0x3b735591	0.003712986
116	0xbc4e2383	-0.012581709
117	0xbd396133	-0.045258712
118	0xbcbf652a	-0.023363668
119	0x3cbb3cf8	0.02285622
120	0x3d5ff635	0.05467816
121	0xbc879b2f	-0.01655349
122	0x3da3dce6	0.080011174
123	0xbc1b3126	-0.009472167
124	0xbd6d3ca9	-0.05791918
125	0xbc3428f3	-0.010996091
126	0x3c80d4d1	0.015726479
127	0x3d11a6c9	0.03555945
128	0xbb8470c4	-0.004041763
129	0xbc66563c	-0.014058646
130	0xbdb228ef	-0.08699214
131	0xbd557461	-0.05211294
132	0xbd70b3d4	-0.058765247
133	0xbd666fa8	-0.056258827
134	0xbafe3bb2	-0.0019396453
135	0xbce1bb2d	-0.027555073
136	0xbcdcbfb0	-0.026946872
137	0x3cc3e191	0.02391127
138	0xbd66aa64	-0.05631484
139	0x3c504004	0.012710575
140	0xbd23e44c	-0.040012643
141	0x3dc39b82	0.09551145
142	0xbc833b83	-0.016019588
143	0x3a042023	0.0005040189
144	0xbcfcd706	-0.03086425
145	0x3d392a26	0.04520621
146	0xbd0a8c00	-0.03382492
147	0xbcd2a8a7	-0.025715185
148	0xbca4c31c	-0.020112567
149	0xbc91c87f	-0.0177958
150	0xbc9904c5	-0.018679032
151	0x3cf23641	0.029566886
152	0xbd1dd032	-0.03852863
153	0xbcb54537	-0.02212773
154	0x3b6e38ca	0.0036349767
155	0x3ca57296	0.02019624
156	0xbcd3fdd1	-0.025877865
157	0x3ceb79f5	0.028744677
158	0x3dbd2fca	0.09237631
159	0x3c26601a	0.010154748
160	0x3d05cae0	0.03266418
161	0x3d425c53	0.04745133
162	0xbcbc7953	-0.02300707
163	0xbc9240b0	-0.017853111
164	0xbd5b2807	-0.05350497
165	0xbd53c1d6	-0.05169853
166	0x3d1c2ab2	0.038126655
167	0x3db6baca	0.08922346
168	0x3c9f2d79	0.019430863
169	0xbc2bfcec	-0.010497313
170	0xbc6d5dec	-0.014487725
171	0xbb3566c1	-0.0027679654
172	0xbd8dcde9	-0.0692404
173	0x3cf2fd05	0.029661665
174	0x3cbfb567	0.023401929
175	0x3c7dd354	0.015492279
176	0x3d0abe4c	0.033872887
177	0x3d042ce3	0.03226937
178	0x3b16a8e0	0.002298884
179	0x3dd071a1	0.10177923
180	0x3bb48b7d	0.0055097924
181	0x3d3f8d10	0.046765387
182	0x3d25689b	0.040382963
183	0x3da1c8e6	0.078996465
184	0xbd060211	-0.032716814
185	0xbd09fbee	-0.033687524
186	0x3c946c75	0.018118123
187	0x3d2bbad4	0.04192622
188	0x3d0ccb0d	0.03437333
189	0x3c4b99e7	0.01242683
190	0xbcc77787	-0.024348987
191	0xbccb2f10	-0.024802715
192	0xbd8b699f	-0.06807255
193	0x3caea1ac	0.021317326
194	0xbc9f6020	-0.019455016
195	0xbd8f03f7	-0.06983178
196	0x3bb9cfbb	0.0056705154
197	0x3c190842	0.009340348
198	0x3d262223	0.0405599
199	0x3d08c133	0.033387374
200	0x3ddf2818	0.10896319
201	0x3d01bda3	0.031674992
202	0xba35befc	-0.0006933061
203	0xbda4b592	-0.08042444
204	0x3c584100	0.013199091
205	0xbb21dace	-0.0024697068
206	0x3d217418	0.039417356
207	0xbd22b5dd	-0.03972422
208	0x3abcb249	0.0014396395
209	0xbcbb1d25	-0.022841046
210	0xbca4e435	-0.020128349
211	0x3c412b8f	0.01179017
212	0x3c5dab84	0.013529662
213	0x3cf26a0a	0.029591579
214	0x3d97c98f	0.07411491
215	0x3c791bd6	0.0152043905
216	0x3d0d7cda	0.034542896
217	0x3bba11c1	0.005678386
218	0xbd4f657a	-0.050633885
219	0x3c88ee79	0.016715275
220	0x3d1087b0	0.03528565
221	0x3cbc4140	0.022980332
222	0x3d047a6f	0.032343324
223	0x3d993cc3	0.074822925
224	0xbc8f30e1	-0.017479362
225	0xbd539152	-0.05165226
226	0xbd1e0752	-0.0385812
227	0x3cb9a539	0.022661792
228	0x3cb7d60d	0.022440935
229	0x3d21d957	0.039513912
230	0x3c7d025e	0.015442459
231	0x3c022bee	0.007945044
232	0x3d222b65	0.039592165
233	0x3d8da916	0.06917016
234	0xbca14280	-0.01968503
235	0xbd490a87	-0.049082305
236	0xbc3d8810	-0.011568084
237	0x3b81d8ee	0.0039626276
238	0xbcc02912	-0.023457084
239	0x3b06557f	0.0020497737
240	0x3d13a28f	0.0360437
241	0x3c3feeb5	0.011714627
242	0xbdbdcffe	-0.09268187
243	0x3c8cbee7	0.017180873
244	0xba8a8b16	-0.0010570015
245	0x3d46b0d3	0.048508476
246	0xbd22f1ab	-0.039781254
247	0x3bc555d1	0.006022193
248	0xbcf829e4	-0.030293413
249	0xbb86632a	-0.0041011767
250	0xbc967557	-0.018366499
251	0x3c98108a	0.018562574
252	0xbca19f54	-0.019729294
253	0x3d0e1d64	0.034695998
254	0x3c1d2556	0.009591421
255	0xbd292229	-0.041292343

network_body._body_endoder.seq_layers.0.bias f4 [128]
0	0x3cf46b73	0.029836392
1	0x3a8026c7	0.0009777182
2	0x3c1c41fe	0.009537218
3	0x3d2dfc6b	0.042477053
4	0x3c489b5d	0.012244073
5	0x3c9fc181	0.01950145
6	0x3c3e8e65	0.011630629
7	0xbb5fa31f	-0.0034124327
8	0xbbe198d5	-0.006884674
9	0x3c833d42	0.016020421
10	0x3ca0a68c	0.019610666
11	0x3bdc9aa1	0.0067323004
12	0x3d0134a8	0.031544358
13	0xbaa5b605	-0.0012642747
14	0xbc4910c3	-0.012272063
15	0xbcbe76d0	-0.023250014
16	0xbbb070d8	-0.005384546
17	0x3d913e8c	0.07092008
18	0x3bbf866f	0.005844883
19	0xbaeae5a4	-0.0017921221
20	0xbd6b9f06	-0.057524703
21	0xba32b837	-0.0006817611
22	0x3d2c04f7	0.041996922
23	0x3c759589	0.014989265
24	0x3d36dd67	0.04464474
25	0x3d5ee2b1	0.05441541
26	0xbcbf62fc	-0.02336263
27	0xbca8f8e4	-0.020626493
28	0x3ca8fd03	0.020628458
29	0x3d023e20	0.03179753
30	0x3d063fb1	0.032775585
31	0x3ca67cfa	0.020323265
32	0x3cbc4fcd	0.02298727
33	0x3d183c08	0.037166625
34	0xbc295df3	-0.010337341
35	0xbb3496e1	-0.002755575
36	0x3c8a336e	0.016870227
37	0x3c51ae0e	0.0127978455
38	0x3d848627	0.064709
39	0xbc03a130	-0.008034036
40	0xbbb0d019	-0.005395901
41	0x3a4e1886	0.00078619306
42	0x3c56fc68	0.013121702
43	0x3baf2c74	0.0053458754
44	0x3b9117d3	0.004427889
45	0x3d00b1fe	0.031419747
46	0x3c725684	0.014791135
47	0x3c099499	0.008397245
48	0x3cc0e363	0.023545926
49	0x3d03eed7	0.032210197
50	0x3d0ed400	0.034870148
51	0xbc85c07d	-0.016327137
52	0xbc2d2202	-0.01056719
53	0x3c927181	0.017876389
54	0xbc85d8d6	-0.016338747
55	0x3b9cac0c	0.004781252
56	0x3d4915cf	0.049093064
57	0x3bffe258	0.0078089647
58	0x3ca62c7d	0.020284886
59	0x3c0aa449	0.00846202
60	0xbd03b045	-0.032150526
61	0xbd098aee	-0.03357976
62	0x3c7b820a	0.015350828
63	0x3c02b92b	0.007978718
64	0x3d1ddd05	0.03854086
65	0x3a37dab5	0.0007013486
66	0xbcbf2d5c	-0.023337059
67	0x3d467e4b	0.048460286
68	0xbc8e74c3	-0.01738966
69	0xbbb50494	-0.0055242274
70	0xbce19f8e	-0.027541902
71	0x3d2741e0	0.040834308
72	0x3d2d656d	0.042333055
73	0xbd193a3d	-0.037409056
74	0x3c0b64ae	0.008507891
75	0x3d6e506a	0.058182158
76	0x3ca3c9c3	0.019993668
77	0x3bd44549	0.006477986
78	0x3b2b3de0	0.002612941
79	0x3d38286b	0.04496042
80	0x3d524a2b	0.051340263
81	0x3c7eb41f	0.015545874
82	0x3d8aed28	0.06783515
83	0xbc5b5380	-0.013386607
84	0x3c05d0fc	0.008167502
85	0xbcd8d7e1	-0.026470127
86	0x3d406678	0.04697272
87	0xbb6f84c0	-0.003654763
88	0xbbd28063	-0.0064239963
89	0xbc747994	-0.014921565
90	0x3ba93ce0	0.0051647276
91	0x3cda9946	0.026684415
92	0x3cbc1b5c	0.022962265
93	0x3cbcb94e	0.023037579
94	0x3d06caa8	0.03290811
95	0xbb014b9b	-0.0019728902
96	0x3c528726	0.012849605
97	0xbac623a3	-0.0015116822
98	0x3cea9c9c	0.02863913
99	0x3d4c8412	0.04993064
100	0x3d8f42d8	0.06995171
101	0x3d363dc1	0.044492487
102	0x3c6abc43	0.014327112
103	0xbbfef8fa	-0.007781145
104	0xbc9881bc	-0.01861655
105	0x3c84a84c	0.016193531
106	0xbcdace77	-0.026709778
107	0x3d929aa7	0.07158404
108	0xbc8445f3	-0.016146636
109	0x3d1e7e54	0.038694695
110	0xbbfbe6c8	-0.0076874234
111	0x3bac2187	0.00525302
112	0xbc552c4b	-0.013011049
113	0xbbfbbacd	-0.0076821805
114	0x3cd68769	0.026187615
115	0x3c599370	0.013279781
116	0x39a150a4	0.00030768395
117	0x3cb8e987	0.022572292
118	0x3c35263f	0.011056482
119	0x3c8c3f01	0.017119886
120	0xbab09fa1	-0.0013475307
121	0x3a12314c	0.0005576804
122	0x3da94cbe	0.082665905
123	0xbc6a15f0	-0.014287457
124	0x3cbf44a6	0.023348164
125	0xbc4c425f	-0.012466996
126	0x3c8e9b51	0.017408045
127	0x3c2c886c	0.010530572

network_body._body_endoder.seq_layers.0.weight f4 [128, 6]
0	0x3f3e3ee1	0.74314696
1	0x3eb23b66	0.34810942
2	0x3d57e577	0.05270907
3	0xbf548f09	-0.83030754
4	0x3e8b8e85	0.2725717
5	0x3f3e0a2d	0.74234277
6	0x3f520c04	0.82049584
7	0xbe831fb2	-0.2561012
8	0xbf08776e	-0.53307235
9	0xbf429a0c	-0.76016307
10	0xbe210674	-0.15725118
11	0xbf8121aa	-1.0088398
12	0x3d205383	0.039142143
13	0x3ee5b42e	0.4486403
14	0xbe0815c8	-0.13289559
15	0xbf16b949	-0.5887647
16	0x3d959f85	0.073058166
17	0xbf293fc0	-0.661129
18	0xbf0c4f78	-0.5480876
19	0x3f30d79f	0.6907901
20	0xbe868e8e	-0.26280636
21	0x3f094c4b	0.5363204
22	0x3ec93672	0.3929935
23	0xbdb09ce7	-0.08623677
24	0xbe38bc17	-0.180405
25	0xbdc6b764	-0.09702948
26	0x3d806cc1	0.06270743
27	0x3e42dcca	0.19029537
28	0xbc2e8d2c	-0.010653775
29	0xbf1aa89c	-0.6041353
30	0x3e554ef4	0.208309
31	0xbe3a301d	-0.18182416
32	0x3e4d6217	0.2005695
33	0x3e82ad3a	0.25522786
34	0xbe54e7ab	-0.207915
35	0xbecd9a6a	-0.4015687
36	0xbea4543c	-0.32095516
37	0x3e130b4f	0.14359783
38	0xbe135aac	-0.14390057
39	0x3f3beabd	0.7340506
40	0x3ea672fa	0.32509595
41	0x3da3b864	0.07994154
42	0xbe8cbdb6	-0.27488488
43	0xbf828cab	-1.0199178
44	0x3d7e297c	0.06205128
45	0xbf00790b	-0.50184697
46	0x3f4f01e0	0.80862236
47	0x3e98a0ed	0.29810277
48	0x3eae89f0	0.34089613
49	0xbef68116	-0.4814536
50	0xbd5e3254	-0.054247215
51	0x3de8f8fc	0.11375615
52	0xbe03d7e7	-0.12875329
53	0x3eb86abb	0.3601893
54	0xbf2c824d	-0.67386323
55	0x3ca820a6	0.02052338
56	0x3f7f8e40	0.9982643
57	0xbf1feca0	-0.62470436
58	0x3ef24a61	0.47322372
59	0xbe07de38	-0.13268363
60	0x3eae0130	0.3398528
61	0x3e853b85	0.26021972
62	0x3eec0974	0.46100962
63	0x3cb751c6	0.02237786
64	0x3f13b822	0.5770284
65	0xbf160b39	-0.58610874
66	0x3dad48b2	0.08461131
67	0x3de2f63c	0.11082122
68	0xbea3dd42	-0.32004744
69	0xbf9e551e	-1.2369726
70	0x3dd9b494	0.10630146
71	0xbdb9c0bf	-0.090699665
72	0x3ec3394f	0.3812966
73	0x3ed15ce1	0.40891173
74	0x3f081d66	0.5316986
75	0x3ce1c0ce	0.027557757
76	0xbe7e65d3	-0.2484353
77	0x3bfd1968	0.007723976
78	0x3e6730cc	0.22577208
79	0xbd233d28	-0.039853245
80	0x3f2327bc	0.63732505
81	0x3f4359d7	0.7630896
82	0x3ea2483a	0.3169573
83	0xbe2d7e61	-0.16942741
84	0xbed55414	-0.4166571
85	0xbefa5b7d	-0.48897925
86	0x3e2929c5	0.1651984
87	0x3ece0ca3	0.40244016
88	0xbd8c978e	-0.06864844
89	0xbed06e3b	-0.407091
90	0xbea4ffb6	-0.32226342
91	0x3ccadb6e	0.024762835
92	0xbf0cded9	-0.5502754
93	0xbca24536	-0.019808393
94	0xbf2c6dcb	-0.6735503
95	0xbe9635e1	-0.2933798
96	0xbc1a4362	-0.009415479
97	0x3e8b19d8	0.27168155
98	0x3eec3ee8	0.46141744
99	0x3e4d2e4f	0.20037197
100	0x3f171f20	0.5903187
101	0x3f49c677	0.7881846
102	0xbd4b5c49	-0.049648557
103	0x3de1288d	0.109940626
104	0x3de9ec18	0.114219844
105	0xbd483353	-0.04887707
106	0x3f0c96f2	0.54917824
107	0xbb932528	-0.0044905134
108	0x3e02695c	0.12735504
109	0x3f098111	0.53712565
110	0x3d22aa7e	0.039713375
111	0xbf165d03	-0.58735675
112	0xbf223be7	-0.63372654
113	0x3dadcfc6	0.08486895
114	0x3f160ce8	0.58613443
115	0xbdac3aa1	-0.0840962
116	0x3eff1101	0.4981766
117	0x3e775ff3	0.24157695
118	0xbdb7f861	-0.089829214
119	0xbeab1992	-0.33417946
120	0x3e3ca4c4	0.18422228
121	0x3eae4395	0.34035936
122	0xbe810cd6	-0.25205106
123	0xbe34dce9	-0.17662396
124	0xbd1f6048	-0.03891018
125	0xbed70643	-0.41996965
126	0x3eb4ea76	0.3533513
127	0xbf0a191a	-0.5394455
128	0xbec8e048	-0.39233613
129	0xbe4f3593	-0.2023528
130	0xbedb3dcf	-0.42820594
131	0xbdefaca2	-0.11702849
132	0xbd447abc	-0.04796861
133	0x3e2344ce	0.15944216
134	0x3ee4b258	0.44667315
135	0x3f9294c1	1.1451646
136	0x3ece0ee5	0.4024574
137	0xbf251c9b	-0.64496773
138	0xbde77496	-0.11301534
139	0xbeb87f4a	-0.36034614
140	0xbe3b99db	-0.1832041
141	0xbe53bb35	-0.20676883
142	0x3e0695a6	0.13143024
143	0x3db25265	0.08707122
144	0xbd1b8cc9	-0.03797606
145	0x3de569ee	0.11201845
146	0x3e2024e4	0.15639073
147	0xbeca08c6	-0.3945982
148	0xbeb31f66	-0.34984893
149	0xbf27f26b	-0.65604275
150	0x3f860c44	1.0472493
151	0x3ebe4edc	0.3716954
152	0xbe4cb130	-0.19989467
153	0xbf1fb89f	-0.62391084
154	0x3d7c72f9	0.061633084
155	0x3f0653b6	0.5247148
156	0xbdb50010	-0.088379025
157	0x3f2317e1	0.6370831
158	0xbeab88a6	-0.33502692
159	0xbe9e9df5	-0.30979887
160	0x3e4e9cdb	0.20177023
161	0xbe8b7d60	-0.2724409
162	0xbf02c7de	-0.51086223
163	0x3ec250e4	0.3795234
164	0x3f030695	0.5118192
165	0x3f1a6a58	0.6031852
166	0x3e36560c	0.17806262
167	0x3e4ad32f	0.19807123
168	0xbe0cccf5	-0.1375006
169	0x3ea1c22c	0.31593454
170	0xbefa17ce	-0.48846287
171	0xbe02cd55	-0.1277364
172	0xbd850028	-0.064941704
173	0x3f2fbedc	0.68650603
174	0x3f5fdd46	0.8744701
175	0x3f0d1ca7	0.55121845
176	0xbb1885ff	-0.0023273227
177	0xbe3e764a	-0.18599811
178	0x3c46aed1	0.01212664
179	0x3f254d1f	0.645708
180	0xbe3883a5	-0.18018968
181	0x3f35b4d7	0.70979065
182	0xbe2aed1b	-0.16692011
183	0x3f495604	0.78646874
184	0x3e97a58f	0.296185
185	0x3f0a436e	0.5400914
186	0xbed3517d	-0.41273108
187	0x3da9ca34	0.0829052
188	0x3f4af1b0	0.79275036
189	0x3eab399f	0.334424
190	0xbee55d5c	-0.4479779
191	0xbd4d085f	-0.05005681
192	0xbf099043	-0.5373575
193	0x3ce29cf5	0.027662734
194	0xbd20db5c	-0.039271697
195	0xbebb7670	-0.36613798
196	0x3f13d948	0.5775342
197	0x3edb59cf	0.42841956
198	0x3e69045d	0.2275557
199	0x3f5f6373	0.8726112
200	0x3f0793ea	0.52960074
201	0xbe879d9d	-0.26487437
202	0xbd75d0a0	-0.060013413
203	0x3e7ad358	0.24494684
204	0x3f0c0332	0.54692376
205	0x3e0208f1	0.12698723
206	0xbe6dbcd3	-0.23216562
207	0x3ebd0605	0.36918655
208	0x3e85adad	0.26109067
209	0xbd94d4c2	-0.07267143
210	0x3dacfb2a	0.08446343
211	0x3e2240bf	0.15845011
212	0xbe657474	-0.22407705
213	0xbe08542a	-0.13313356
214	0x3dcbd57a	0.09952827
215	0xbe4bff69	-0.1992165
216	0xbd1c8609	-0.038213763
217	0xbe8cf855	-0.27533212
218	0x3eec7d77	0.46189472
219	0xbf35e33b	-0.7104985
220	0xbe9b81fb	-0.30372605
221	0x3d6d01c8	0.057863027
222	0xbed9c699	-0.4253433
223	0x3e476720	0.19472933
224	0xbe2c7e4c	-0.16845053
225	0x3ee141fe	0.4399566
226	0x3eed01b4	0.46290362
227	0xbed4ffda	-0.4160145
228	0x3eb8f0b3	0.3612114
229	0x3edd2695	0.43193498
230	0xbe11f9fe	-0.1425552
231	0xbf05f273	-0.52323073
232	0xbc9c47f1	-0.019077273
233	0xbe7e7fb7	-0.24853407
234	0x3d8e2ab3	0.06941738
235	0xbc767517	-0.015042565
236	0xbed19a34	-0.4093796
237	0xbee2bfd3	-0.44286975
238	0x3ddeda43	0.10881474
239	0xbf1057b8	-0.5638385
240	0xbd10b99d	-0.035333265
241	0x3d306954	0.0430692
242	0x3e66078c	0.22463816
243	0x3f00d06a	0.50318015
244	0xbea1c369	-0.315944
245	0xbe657941	-0.22409536
246	0xbdf2c781	-0.118544586
247	0xbee63df0	-0.4496913
248	0xbdab8d88	-0.08376604
249	0xbe6892b0	-0.22712207
250	0x3e2231ac	0.15839261
251	0x3ef3ab9e	0.4759187
252	0xbe01c1cc	-0.12671584
253	0xbf479bc8	-0.7797208
254	0xbf669b69	-0.9008089
255	0xbf1d241f	-0.6138324

network_body._body_endoder.seq_layers.2.bias f4 [128]
0	0x3c853e01	0.016264917
1	0x3c40e062	0.011772247
2	0x3d725eb3	0.059172343
3	0x3d559cf3	0.05215163
4	0x3cfa2f91	0.03054026
5	0x3d1270c4	0.035752073
6	0x3ac8603c	0.0015287469
7	0x3c94e4e1	0.018175544
8	0x3d2397f8	0.03993985
9	0xbbf786c5	-0.0075539076
10	0x3c9c1de9	0.019057231
11	0x3cfb9db1	0.030714842
12	0x3d4988d2	0.049202748
13	0x3d4210aa	0.047379173
14	0x3c65f613	0.014035719
15	0x3d13e5cc	0.036107823
16	0x3c9f2476	0.019426566
17	0x3c46e389	0.01213921
18	0x3cb7daa2	0.02244312
19	0x3c7f5efb	0.01558661
20	0x3bd9e003	0.0066490187
21	0x3ca09764	0.019603439
22	0x3c9a8b17	0.018865151
23	0x3ace7f93	0.0015754573
24	0x3d10bdc8	0.03533724
25	0x3cba6847	0.022754801
26	0x3cad9d0a	0.021193046
27	0x391c5c60	0.00014911732
28	0x3bd9f818	0.0066518895
29	0x3cc80f34	0.024421312
30	0x3c8a4c99	0.016882228
31	0xb8d76f15	-0.000102726895
32	0xbc8bb38f	-0.017053394
33	0x3da377bb	0.07981821
34	0x3d834ee5	0.06411532
35	0x3c7fdab8	0.015616111
36	0x3d23cb78	0.039988965
37	0x3d1c097f	0.038094994
38	0xbbb8955c	-0.0056330394
39	0x3d4520e2	0.048127063
40	0xbc4a6411	-0.012352959
41	0x3cad4117	0.021149201
42	0x3cfdbabe	0.030972835
43	0xbc089ec9	-0.008338639
44	0x3d039f71	0.032134477
45	0x3c92253e	0.017840024
46	0xbbc58dcb	-0.006028866
47	0x3c830e4d	0.01599803
48	0x3bb864f9	0.0056272713
49	0x3ce5a583	0.028033024
50	0xbcaafedc	-0.02087348
51	0x3cf3c325	0.029756138
52	0xbbc722b9	-0.0060771373
53	0x3c91297c	0.017719977
54	0x3bfd8250	0.0077364817
55	0x3d21b59e	0.039479844
56	0x3ce67147	0.028130187
57	0x3cb70898	0.022342965
58	0x3dad93d4	0.084754616
59	0xbac7dc23	-0.0015248101
60	0xbaf1b348	-0.0018440271
61	0x3cb1d169	0.0217063
62	0x3c4b0350	0.0123909265
63	0x3c73dd63	0.014884326
64	0x3d6819e5	0.05666532
65	0x3b8586b3	0.0040748953
66	0x3ccdaae7	0.025105907
67	0x3d8d7446	0.06906943
68	0xbc38c8fe	-0.011278389
69	0x3caf1b0d	0.021375204
70	0x3c9e8d96	0.019354623
71	0xbb284ba3	-0.0025679849
72	0x3d49c181	0.049256805
73	0xbb8958e3	-0.0041915043
74	0x3d3f531c	0.04671012
75	0x3d44ea13	0.048074793
76	0xbbdfaff2	-0.0068263942
77	0x3ccad1ef	0.024758307
78	0x3d8b0a38	0.067890584
79	0x3d40b5d6	0.047048412
80	0xbc291598	-0.01032009
81	0x3c139ca0	0.00900951
82	0x3cd675a2	0.026179139
83	0xbb5dd8e0	-0.0033851191
84	0x3c00dbb2	0.007864879
85	0x3c877263	0.016534036
86	0x3cf3b9ed	0.029751742
87	0x3bbc1b18	0.0057405345
88	0xbc97c4ce	-0.018526461
89	0xbb35c3a7	-0.0027735026
90	0x3d56b668	0.05242005
91	0xba10ce31	-0.0005523889
92	0xbab079d9	-0.0013464048
93	0xbc050727	-0.008119381
94	0x3d12df24	0.035857335
95	0x3cb2aff1	0.021812411
96	0x3c4481be	0.011993824
97	0x3d12bf94	0.035827234
98	0x3cacd106	0.021095764
99	0xbab3eaf1	-0.0013726634
100	0xbcc17146	-0.023613583
101	0xbaf34b82	-0.0018561932
102	0xbaefc479	-0.0018292806
103	0xbc6c2aad	-0.014414472
104	0xbb50a996	-0.0031839362
105	0x3c4611a0	0.012089163
106	0x3c6f3fc1	0.014602602
107	0x3d3afdaf	0.045652088
108	0x3c674af6	0.014116993
109	0xbc6e9aa1	-0.014563234
110	0x3c1fa090	0.009742871
111	0x3b922105	0.0044595026
112	0xbc7cf1f7	-0.015438548
113	0xbc6cb570	-0.014447555
114	0x3d3a6412	0.04550559
115	0xbcbf2faa	-0.023338158
116	0xbbbd3538	-0.0057741664
117	0x3bd1b186	0.0063993363
118	0x3c81e26e	0.01585504
119	0xbc6c71ef	-0.014431461
120	0x3d06380b	0.03276829
121	0x3ca9206a	0.020645339
122	0x3d3cf4bd	0.046131838
123	0xbc0ab71e	-0.00846651
124	0x3c77d231	0.015125797
125	0xbbba1327	-0.0056785527
126	0xbc7f6186	-0.015587216
127	0x3c679ca3	0.014136466

network_body._body_endoder.seq_layers.2.weight f4 [128, 128]
0	0x3dab9318	0.08377665
1	0xbdf96367	-0.121771626
2	0xbd23c260	-0.039980292
3	0x3c207d29	0.0097954655
4	0x3c84cc57	0.016210718
5	0xbcd51f5e	-0.026015934
6	0xbda153bc	-0.07877299
7	0xbd107468	-0.035267264
8	0x3d28303e	0.041061632
9	0xbd9a6719	-0.075391956
10	0xbd5aca54	-0.05341561
11	0xbd6349c7	-0.05549028
12	0x3e3aa7ee	0.18228123
13	0xbcc56d86	-0.024100076
14	0xbc57ec22	-0.013178857
15	0xbd2b8505	-0.041874904
16	0xbd5d666e	-0.054052763
17	0xbdec3ee5	-0.11535434
18	0x3e02b2e8	0.1276356
19	0xbb148c20	-0.0022666529
20	0xbd0f5cb4	-0.035000518
21	0x3d5a9aab	0.05337016
22	0x3db670ac	0.08908209
23	0xbd059fcd	-0.0326231
24	0x3e412fc4	0.18865877
25	0x3cfd6b5a	0.030934978
26	0xbcb557ab	-0.02213653
27	0xbd15c178	-0.03656146
28	0xbd3ee2f7	-0.04660317
29	0x3dc7b164	0.097506315
30	0xbdfc75a7	-0.12327128
31	0xbce560c8	-0.02800025
32	0x3d8ece59	0.069729514
33	0x3d254245	0.040346403
34	0x3e168d43	0.14702325
35	0xbddc8996	-0.1076843
36	0xbd839f2f	-0.06426846
37	0xbd06186f	-0.032738145
38	0xbc41da76	-0.01183187
39	0xbe3fe9f9	-0.18741597
40	0xbda31065	-0.079621114
41	0xbdbf6827	-0.09346037
42	0xbd748913	-0.059701037
43	0xbcdfa96b	-0.027302464
44	0xbc92a724	-0.017901964
45	0x3d016e9f	0.031599637
46	0xbc8d0d66	-0.017218303
47	0x3d7a20c1	0.061066393
48	0xbc81533a	-0.015786756
49	0x3ce5a7b1	0.028034063
50	0xbcd68ad1	-0.02618924
51	0x3d88a218	0.06671542
52	0x3d960b59	0.07326383
53	0x3dba2138	0.09088367
54	0xbdf5f8de	-0.12010358
55	0xbd257d85	-0.040402908
56	0x3bf42395	0.007450531
57	0xbd15350d	-0.036427546
58	0xbd1941af	-0.037416156
59	0x3d8badfb	0.068202935
60	0x3baa6b33	0.0052007674
61	0x3ce1dd9e	0.027571496
62	0xbcf4c08d	-0.029876972
63	0xbdaca445	-0.084297694
64	0x3da1fd40	0.07909632
65	0x3da74a0b	0.081684195
66	0xbe05298c	-0.1300413
67	0x3d383bf0	0.044979036
68	0xbe37fcec	-0.17967576
69	0xbdc543df	-0.09632086
70	0x3dc8f536	0.09812395
71	0xbda8e754	-0.08247247
72	0x3dbe3069	0.09286577
73	0xbbea2af2	-0.0071462328
74	0x3e3676bb	0.1781873
75	0x3c9ed979	0.019390808
76	0x3e19fdbc	0.15038198
77	0xbd861c73	-0.06548395
78	0xbcaf12eb	-0.021371325
79	0xbd30e980	-0.043191433
80	0x3e40f835	0.18844683
81	0xbcc37b52	-0.023862515
82	0xbc38119e	-0.011234669
83	0xbc9d1890	-0.019176751
84	0xbd9403e7	-0.07227307
85	0xbd8897e4	-0.06669596
86	0x3df6abda	0.12044497
87	0x3e7c6315	0.24647172
88	0x3cc883da	0.024476934
89	0x3d12a56b	0.035802286
90	0x3d4161be	0.047212355
91	0x3cc38eb7	0.023871763
92	0xbda2b18d	-0.079440214
93	0xbd2160e5	-0.039399046
94	0xbc98082f	-0.01855859
95	0x3dec8af0	0.11549938
96	0xbe12d3d2	-0.14338616
97	0xbd3354a0	-0.043781877
98	0xbe2eed20	-0.17082644
99	0x3d53d1d5	0.051713783
100	0x3d5f581c	0.054527387
101	0x3e4fb9c2	0.20285705
102	0xbcd82423	-0.026384419
103	0x3e2ea94b	0.17056768
104	0xbe04367e	-0.12911412
105	0xbe2242a2	-0.15845731
106	0xbced9daa	-0.029005844
107	0x3d722065	0.059112925
108	0x3dd9edad	0.10641036
109	0x3dbee680	0.09321308
110	0x3d0de9a7	0.034646656
111	0xbbfbfe1f	-0.0076902057
112	0xbe2c1e68	-0.16808474
113	0x3d3e74e7	0.046498206
114	0xbc2184a2	-0.009858282
115	0xbc2cf39c	-0.010556128
116	0x3d1367c3	0.035987627
117	0xbdba7dcb	-0.09106024
118	0xbd0372ac	-0.03209178
119	0x3e297efc	0.16552347
120	0xbd9d6861	-0.07685924
121	0x3d2d1686	0.04225781
122	0x3dcec6f3	0.1009654
123	0xbd9055c8	-0.070476115
124	0xbd594917	-0.05304822
125	0xbb21176e	-0.0024580616
126	0x3d867e8f	0.06567108
127	0x3d14ae34	0.036298946
128	0x3caeda84	0.02134443
129	0xbce6dafc	-0.028180592
130	0x3e39a08a	0.18127647
131	0x3c0b1fee	0.008491499
132	0xbce471c1	-0.027886273
133	0x3e1bca85	0.15213974
134	0xbdca6ea5	-0.09884385
135	0x3ccde417	0.025133176
136	0x3d93fe7a	0.07226272
137	0xbe0ccd7c	-0.13750261
138	0xbcafd8f7	-0.021465762
139	0xbe257b7b	-0.16160385
140	0x3dd30b66	0.103049085
141	0xbb210327	-0.002456853
142	0x3d47b570	0.048757017
143	0xbd8d4e62	-0.06899716
144	0xbd9e48e5	-0.07728747
145	0xbe1c6825	-0.15274103
146	0x3d3e65bd	0.046483744
147	0xbd31f61d	-0.043447603
148	0x3bfe8b5f	0.007768079
149	0xbc5397b8	-0.012914591
150	0x3e02a128	0.12756789
151	0x3d235676	0.039877377
152	0xbd1ec243	-0.03875948
153	0xbdb06c0f	-0.086143605
154	0xbdc6bf30	-0.09704435
155	0x3c2bd34d	0.01048739
156	0xbc646cb9	-0.013941937
157	0x3db51dc3	0.08843567
158	0xbc2b9fe8	-0.010475136
159	0x3ddb7feb	0.10717758
160	0xbc4b866a	-0.0124221835
161	0xbdb2c0e4	-0.08728197
162	0x3e1f4b0d	0.15555973
163	0x3d0079e0	0.03136623
164	0xbe40b0f2	-0.188175
165	0x3cddbe6d	0.027068341
166	0x3bf22c18	0.0073905103
167	0xbe24a220	-0.16077471
168	0xbd1c2569	-0.038121615
169	0xbc9ef50e	-0.01940396
170	0xbddae83d	-0.10688827
171	0xbe20b909	-0.15695585
172	0xbd7bd32e	-0.061480694
173	0x3dd44062	0.103638425
174	0xbd3751e5	-0.044755835
175	0xbd8d93cc	-0.06912956
176	0x3dde46f8	0.1085338
177	0xbd291660	-0.041281104
178	0x3d798f9d	0.060927976
179	0x3e11a164	0.14221722
180	0xbcc3b740	-0.023891091
181	0xbd582a55	-0.052774746
182	0x3e080dda	0.13286534
183	0x3d315fb2	0.043304153
184	0xbda4e78f	-0.08051979
185	0x3e1bd56f	0.15218137
186	0xbda1f01e	-0.07907127
187	0x3cfe2ac9	0.03102626
188	0x3e372c3a	0.17887965
189	0x3db735f8	0.089458406
190	0x3ce7a9e4	0.028279252
191	0x3e1c5be4	0.15269428
192	0x3e105f55	0.14098866
193	0x3bb0748d	0.0053849877
194	0x3dd9c036	0.106323645
195	0x3d298da7	0.041394856
196	0xbdc13d0b	-0.09435471
197	0x3d7d6e9c	0.061873063
198	0x3d5413da	0.051776744
199	0x3dd557c3	0.1041713
200	0x3dab0f9f	0.08352589
201	0xbdcfb310	-0.10141575
202	0xbe23f61b	-0.1601185
203	0xbbb5b7d7	-0.005545597
204	0x3da28215	0.079349674
205	0xbd582889	-0.052773032
206	0x3d4ec49f	0.05048048
207	0x3b883b49	0.004157458
208	0xbcf0ac46	-0.029379021
209	0x3e1738f0	0.14767814
210	0x3bc5e915	0.0060397484
211	0x3da02b41	0.0782075
212	0x3d82f1a3	0.06393745
213	0xbd9490f9	-0.07254214
214	0xbe6315e2	-0.22176316
215	0x3d8b891b	0.0681326
216	0xbe412a9a	-0.18863907
217	0xbe0b44c8	-0.13600457
218	0x3cb5e135	0.022202114
219	0x3a0ac057	0.0005292943
220	0x3c3d31fc	0.011547562
221	0xbcd0a440	-0.025468946
222	0xbd8fc727	-0.07020407
223	0x3e362576	0.17787728
224	0xbdbe79aa	-0.09300549
225	0xbd981cbb	-0.07427355
226	0xbd710391	-0.05884129
227	0xbd738a08	-0.05945781
228	0xbcf70a89	-0.03015639
229	0x3e2397d7	0.15975891
230	0xbc5b2454	-0.0133753605
231	0xbc19a456	-0.00937756
232	0xbcec2697	-0.028826995
233	0xbd4d103d	-0.050064314
234	0x3d12ba55	0.03582223
235	0x3e0fdb82	0.1404858
236	0x3c248e89	0.010043749
237	0xbd76a348	-0.06021431
238	0x3cc5537a	0.024087656
239	0x3c9d0bd7	0.019170685
240	0x3d5b4f32	0.053542323
241	0xbcc861d3	-0.024460709
242	0x3a16a52c	0.00057466584
243	0x3d9e87bd	0.07740734
244	0xbdda2f3b	-0.1065354
245	0xbd2112bc	-0.039324507
246	0x3db58cf4	0.08864775
247	0x3bf6c0ea	0.0075303214
248	0x3dcbec9e	0.099572405
249	0xbde3c19b	-0.11120912
250	0xbd876354	-0.06610742
251	0x3d3c7d5c	0.04601799
252	0x3e36242e	0.17787239
253	0xbd0baa74	-0.034098104
254	0xbe56e266	-0.20984802
255	0x3d17e6cc	0.03708534
