results/DodgeAgentBulletsTest11_Improved3/Dodge/Dodge-6999155.onnx (onnx, 91145 bytes, 9 tensors)

action_model._discrete_distribution.branches.0.bias f4 [3]
-0.3738654 0.44370025 -0.16499425
00000000: 496b bfbe ae2c e33e 41f4 28be

action_model._discrete_distribution.branches.0.weight f4 [3, 128]
0.11348856 -0.04958278 -0.1328166 0.07176062 0.04143988 -0.12919977 -0.04996041 0.026444176
0.101381555 0.13712765 0.0020166747 -0.044954907 0.22005461 -0.059952114 0.075772494 0.07814166
-0.0031226496 0.15319441 -0.08898508 0.2661025 0.09886184 0.038414843 -0.072975226 0.16371703
0.044394843 0.1888724 -0.16182491 0.15286621 0.07267146 0.025820354 0.23260023 0.219795
-0.17122613 -0.010125802 0.014311787 -0.033202745 -0.03256826 -0.0910284 0.13448752 0.0672539
0.1382304 0.011877253 0.21778266 -0.08045792 0.070694365 -0.124942504 0.24144252 -0.058894895
0.073537864 0.044743553 0.20395209 0.090067826 -0.15050729 0.0024888045 -0.13489361 0.048437104
-0.019478478 -0.114740185 -0.036750145 0.14564005 -0.12646887 -0.08418464 0.039518014 0.080838576
-0.029367656 -0.018713351 0.19614461 -0.17796141 0.005621479 -0.045660354 0.18755695 -0.011644384
-0.018377649 -0.067118764 -0.07514585 -0.10582782 -0.11063799 -0.24503 -0.060216166 0.06211867
0.0006300958 0.021813322 0.083932295 0.018373892 0.030182196 0.19894874 0.0020053315 0.17388783
-0.049897414 0.30681732 -0.037841223 -0.08232143 0.26941934 0.09642143 0.03261716 -0.13300967
0.065728165 -0.19119209 -0.010919862 0.18681552 -0.32441342 -0.18199314 -0.052011 -0.07100195
0.011041936 -0.027793188 -0.038572658 0.061145663 0.2697944 -0.076930396 0.049112868 0.07206009
0.028803924 -0.026625998 0.10461401 -0.008010536 -0.013863428 -0.33418924 -0.08609589 -0.017562676
0.09152158 -0.10149281 0.099698566 -0.080420524 0.04077292 -0.008693066 0.008933422 0.1823384
-0.10012673 -1.2453295e-06 -0.069899365 -0.066640034 0.027607508 -0.025293734 -0.01173078 -0.05958402
-0.13990788 -0.13625085 0.043084476 -0.07332087 -0.103822485 0.0039213994 0.004068742 -0.028646586
-0.04951401 -0.18851039 0.14285858 -0.2670723 -0.06788307 -0.0013207084 0.034710992 -0.04952726
-0.061314978 -0.2034083 0.043864533 -0.111438036 0.020015746 0.056565326 -0.18841098 -0.3170084
-0.10504914 -0.028470647 -0.16788839 -0.026661146 -0.02319212 -0.036021464 -0.10009228 0.039966293
-0.14305928 -0.063894026 -0.16606069 -0.0023475257 -0.023468187 0.05511141 -0.28765202 0.032873012
-0.20766301 -0.014243941 -0.27768135 -0.030882968 0.09309438 -0.011895983 0.046371456 -0.20249821
-0.19399872 0.06461772 -0.01955346 -0.16268577 0.0815649 -0.05051886 -0.10011653 -0.16653346
-0.0758564 -0.06087255 -0.22331652 0.1099613 0.04828803 0.0027776961 -0.013051551 -0.052072294
-0.103493825 -0.019569548 -0.030177165 0.05060338 0.04933536 0.11998641 -0.0036428547 -0.06397668
0.0006962917 0.0014110776 -0.10567503 -0.0330774 -0.08295463 -0.08627234 0.018207153 -0.147663
-0.023941102 -0.30561575 0.08197649 -0.018083338 -0.20734848 -0.13708304 0.034414582 0.07675658
-0.14131212 0.13063046 -0.08334217 -0.1357547 0.15877268 0.07570872 0.036223877 0.04071395
0.012324207 0.027943056 0.05535834 -0.08480585 -0.018867932 -0.115514934 0.02562836 -0.033462476
-0.12368271 -0.0013978124 0.087275565 -0.12574166 -0.06629515 0.17440534 0.0076816934 0.0784522
-0.022448976 0.009363351 -0.048117217 0.05071497 0.042236503 0.035472117 0.06011137 -0.026927544
00000000: b16c e83d 5017 4bbd 1301 08be 3bf7 923d
00000010: ddbc 293d f24c 04be 49a3 4cbd 75a1 d83c
00000020: 22a1 cf3d 316b 0c3e 302a 043b a322 38bd
00000030: ff55 613e 5990 75bd 9c2e 9b3d bc08 a03d
00000040: 5ea5 4cbb ffde 1c3e cf3d b6bd 963e 883e
00000050: 1478 ca3d e258 1d3d 0974 95bd 70a5 273e
00000060: 5ed7 353d c467 413e 6eb5 25be f688 1c3e
00000070: c6d4 943d 3585 d33c c12e 6e3e f111 613e
00000080: e755 2fbe b1e6 25bc fc7b 6a3c 9aff 07bd
00000090: 4c66 05bd 196d babd 19b7 093e 6abc 893d
000000a0: 458c 0d3e cf98 423c 6b02 5f3e 1fc7 a4bd
000000b0: 35c8 903d dbe1 ffbd b53c 773e c63b 71bd
000000c0: 059b 963d 0445 373d d1d8 503e 7b75 b83d
000000d0: 951e 1abe 361b 233b 8d21 0abe fc65 463d
000000e0: 5491 9fbc e7fc eabd 5287 16bd aa22 153e
000000f0: 0e81 01be ff68 acbd a4dd 213d b28e a53d
00000100: 7094 f0bc be4c 99bc 22da 483e 843b 36be
00000110: 6234 b83b 5a06 3bbd ee0e 403e 16c8 3ebc
00000120: b98c 96bc 9075 89bd 11e6 99bd 42bc d8bd
00000130: 2c96 e2bd 25e9 7abe 3aa5 76bd 2670 7e3d
00000140: 032d 253a dab1 b23c b2e4 ab3d d884 963c
00000150: a740 f73c 38b9 4b3e e16b 033b a70f 323e
00000160: 3b61 4cbd 2917 9d3e 66ff 1abd 2398 a8bd
00000170: 55f1 893e 9978 c53d 9299 053d b033 08be
00000180: 7d9c 863d dcc7 43be 39e9 32bc 914c 3f3e
00000190: 8419 a6be 695c 3abe 7d09 55bd 7869 91bd
000001a0: 3de9 343c 8aae e3bc 5dfe 1dbd e073 7a3d
000001b0: 7e22 8a3e af8d 9dbd 932a 493d 3e94 933d
000001c0: 35f6 eb3c c41e dabc df3f d63d a03e 03bc
000001d0: 6e23 63bc da1a abbe 0b53 b0bd 9adf 8fbc
000001e0: ab6f bb3d 76db cfbd c32e cc3d 84b3 a4bd
000001f0: 8101 273d 5d6d 0ebc 7d5d 123c ebb6 3a3e
00000200: 3e0f cdbd 3225 a7b5 6627 8fbd 927a 88bd
00000210: 2429 e23c ce34 cfbc 7532 40bc 600e 74bd
00000220: 0344 0fbe 5885 0bbe 5979 303d 4129 96bd
00000230: e2a0 d4bd 157f 803b 1553 853b 3fac eabc
00000240: 34cf 4abd de08 41be 8549 123e b3bd 88be
00000250: 4706 8bbd 9f1b adba 1d2d 0e3d 19dd 4abd
00000260: 6a25 7bbd 444a 50be 4cab 333d a039 e4bd
00000270: 10f8 a33c 0bb1 673d cfee 40be ed4e a2be
00000280: 0124 d7bd 463b e9bc efea 2bbe 7a68 dabc
00000290: 67fd bdbc 3e8b 13bd 2efd ccbd b2b3 233d
000002a0: 227e 12be dfda 82bd d00b 2abe f2d8 19bb
000002b0: 5b40 c0bc 80bc 613d 2047 93be daa5 063d
000002c0: 9da5 54be 6b5f 69bc 402c 8ebe 47fe fcbc
000002d0: 44a8 be3d 5ee7 42bc ffef 3d3d b15b 4fbe
000002e0: 9aa7 46be 4c56 843d 942e a0bc 1997 26be
000002f0: 800b a73d ddec 4ebd e509 cdbd bf87 2abe
00000300: 9a5a 9bbd 7f55 79bd 16ad 64be 6433 e13d
00000310: abc9 453d 020a 363b 2cd6 55bc c249 55bd
00000320: 92f4 d3bd 5150 a0bc 1a36 f7bc 7d45 4f3d
00000330: e013 4a3d 6fbb f53d f6bc 6ebb 3506 83bd
00000340: 5887 363a e8f3 b83a 266c d8bd 2b7c 07bd
00000350: 1ee4 a9bd 8daf b0bd 2b27 953c f834 17be
00000360: 2120 c4bc ab79 9cbe 4ae3 a73d 8223 94bc
00000370: 2953 54be 7f5f 0cbe 4ef6 0c3d 8e32 9d3d
00000380: 20b4 10be fec3 053e 4daf aabd 4803 0bbe
00000390: 4e95 223e 2c0d 9b3d 7d5f 143d acc3 263d
000003a0: 79eb 493c d6e8 e43c 6dbf 623d b1ae adbd
000003b0: ec90 9abc 1893 ecbd 91f2 d13c f30f 09bd
000003c0: 5c4d fdbd cd36 b7ba 88bd b23d 6cc2 00be
000003d0: c0c5 87bd 5097 323e b7b6 fb3b 8cab a03d
000003e0: eae6 b7bc be68 193c 8f16 45bd 80ba 4f3d
000003f0: 2f00 2d3d 364b 113d 5737 763d 2797 dcbc

action_model._discrete_distribution.branches.1.bias f4 [3]
-0.27285406 0.35867956 -0.13105398
00000000: 87b3 8bbe d9a4 b73e 0433 06be

action_model._discrete_distribution.branches.1.weight f4 [3, 128]
0.106861405 0.06348176 -0.009633936 -0.013335765 -0.019501032 -0.2516903 -0.025616448 -0.02558599
0.08923559 0.09995225 0.031902883 -0.098523274 0.14196692 -0.0180777 0.13797618 0.054642502
0.03313092 0.15904611 0.01949481 -0.050957292 0.0877523 0.030824788 0.22831966 -0.02611727
0.05472865 0.04099124 -0.047821812 0.027094811 0.0121876905 -0.031717326 0.09919545 0.17203182
0.17722905 0.03670207 -0.006095173 0.040600438 0.07084685 0.04806299 -0.11746497 0.06946282
0.061993595 0.014950813 -0.031645685 0.017991489 0.103828624 0.04726607 0.09070372 -0.044825904
-0.0044418103 -0.0934465 -0.011821415 0.055724308 -0.06028594 0.08674695 -0.045398735 0.0410684
0.120539494 -0.19463977 0.07928194 -0.003958578 0.017117864 -0.030611308 0.09830937 0.10419073
-0.049038865 0.039935846 0.42124662 0.03903265 0.015625976 -0.01189189 0.07554878 0.07083841
0.19095352 0.054338135 -0.096163504 0.03894897 -0.027022162 0.017778575 0.048928976 -0.001374037
-0.10429201 -0.02877583 0.050832227 -0.015088142 0.059298184 0.11863315 -0.11928142 0.14577048
0.11198638 0.13441317 -0.041435473 0.06554589 0.071931705 0.060950827 -0.004181203 -0.074224226
0.02003409 -0.09859392 -0.02156287 0.077861615 -0.124759465 -0.05564897 0.112427786 0.0046924446
-0.007704505 -0.08357878 -0.019934049 0.05416597 0.0667946 -0.021136483 -0.061622288 0.076257326
-0.11170514 -0.027309276 -0.17148484 0.12916507 0.019640027 0.005925406 0.060796052 -0.14507116
-0.089147374 0.09563994 0.023233864 -0.019104006 0.027678618 0.005553123 -0.05173661 0.049334884
-0.108712785 0.00864382 -0.0057435897 0.035057873 -0.045063276 -0.03404282 -0.039594557 0.0036819256
-0.03608524 0.022306219 -0.05420279 0.035908025 -0.16226774 -0.0011069176 0.1831223 -0.10916672
-0.008332243 -0.17024413 -0.20098428 -0.0175196 0.024393933 -0.045258425 -0.06252171 -0.00399979
0.022273533 -0.008731244 0.008644238 -0.10487876 -0.05695914 0.039464824 -0.04434756 -0.14400059
-0.13045877 -0.049274642 0.02116611 -0.050669424 -0.07623956 -0.0054668803 -0.01950085 -0.13118367
-0.08487963 -0.12053456 -0.064520165 -0.017559655 -0.009152005 -0.1283642 0.056862775 0.0035312674
-0.04855966 -0.020542879 -0.05411221 -0.003227952 0.13442664 -0.2242642 0.013930593 -0.13069996
-0.058268614 -0.015404897 -0.05645708 -0.049458034 0.033141438 -0.21003933 0.057211336 -0.085312694
0.026656924 -0.15138406 -0.09177784 -0.020139826 -0.06941875 -0.12494726 -0.002426998 -0.06072517
-0.21293661 -0.16621327 0.018636912 -0.20083733 0.054549534 0.05999728 -0.19095264 -0.013742773
0.0019592536 -0.032284826 -0.07453644 0.053879946 -0.18674313 -0.01583626 0.038438603 -0.16728348
0.005643051 -0.12856753 0.014672922 -0.18397674 -0.071114875 -0.09419915 -0.10572966 0.053140644
-0.09397504 0.06819489 0.02138788 -0.06790549 0.10514526 0.02345252 -0.12591532 0.06403012
-0.038387313 -0.059643432 -0.10698263 -0.09888356 0.010963877 0.06286995 -0.07077507 -0.06120446
0.020418141 -0.005599375 0.043709304 -0.05909337 -0.07206665 0.002456791 -0.08531966 0.10996694
-0.09460994 -0.08002475 -0.07166848 0.040379696 0.029506847 0.039353427 -0.037421823 0.012882405
00000000: 27da da3d ba02 823d a8d7 1dbc 417e 5abc
00000010: a1c0 9fbc 8ddd 80be 96d9 d1bc b699 d1bc
00000020: 26c1 b63d c4b3 cc3d 99ac 023d 92c6 c9bd
00000030: c75f 113e af17 94bc a149 0d3e d1d0 5f3d
00000040: 4ab4 073d fcdc 223e 94b3 9f3c 98b8 50bd
00000050: 7ab7 b33d 4484 fc3c a1cc 693e e3f3 d5bc
00000060: 262b 603d 6ee6 273d cee0 43bd f0f5 dd3c
00000070: e1ae 473c 07ea 01bd fc26 cb3d 1c29 303e
00000080: 887b 353e e954 163d 04ba c7bb a54c 263d
00000090: 2718 913d b3dd 443d 7991 f0bd 8642 8e3d
000000a0: ffec 7d3d 41f4 743c e89e 01bd e362 933c
000000b0: 1aa4 d43d 119a 413d dfc2 b93d 5e9b 37bd
000000c0: 9b8c 91bb e160 bfbd 9cae 41bc 2c3f 643d
000000d0: 64ee 76bd 63a8 b13d 06f4 39bd 5737 283d
000000e0: 69dd f63d a64f 47be 925e a23d f6b6 81bb
000000f0: c33a 8c3c 91c4 fabc 6c56 c93d f361 d53d
00000100: fadc 48bd c593 233d a3ad d73e b3e0 1f3d
00000110: 0c02 803c 34d6 42bc 52b9 9a3d ba13 913d
00000120: 5289 433e aa91 5e3d 5ff1 c4bd f588 1f3d
00000130: 955d ddbc 60a4 913c c069 483d 0819 b4ba
00000140: 0d97 d5bd 4abb ebbc 7435 503d 4134 77bc
00000150: a7e2 723d f0f5 f23d d149 f4bd db44 153e
00000160: 1d59 e53d 9ba3 093e 3eb8 29bd ec3c 863d
00000170: ee50 933d 93a7 793d 7902 89bb df02 98bd
00000180: 881e a43c 9ceb c9bd 9ea4 b0bc e975 9f3d
00000190: e481 ffbd 2df0 63bd 8a40 e63d 14c3 993b
000001a0: 1376 fcbb 5a2b abbd bb4c a3bc 23dd 5d3d
000001b0: 9bcb 883d 6b26 adbc a767 7cbd cd2c 9c3d
000001c0: aac5 e4bd b4b7 dfbc b999 2fbe d943 043e
000001d0: 1fe4 a03c e829 c23b 4805 793d 898d 14be
000001e0: e692 b6bd dfde c33d f254 be3c 0180 9cbc
000001f0: 45be e23c f9f6 b53b c4e9 53bd 6013 4a3d
00000200: cfa4 debd cf9e 0d3c b934 bcbb d898 0f3d
00000210: 4594 38bd 7c70 0bbd e72d 22bd 764c 713b
00000220: 1ece 13bd 88bb b63c bf03 5ebd 4b14 133d
00000230: 8429 26be fe15 91ba 6a84 3b3e cd92 dfbd
00000240: f683 08bc 7a54 2ebe d3ce 4dbe 4485 8fbc
00000250: c9d5 c73c e660 39bd 620b 80bd ac10 83bb
00000260: fc76 b63c 7e0d 0fbc 90a0 0d3c adca d6bd
00000270: fd4d 69bd dea5 213d c9a5 35bd e474 13be
00000280: fc96 05be 35d4 49bd 8d64 ad3c be8a 4fbd
00000290: 7d23 9cbd 8423 b3bb 3fc0 9fbc 0355 06be
000002a0: 5fd5 adbd d3da f6bd 2623 84bd 44d9 8fbc
000002b0: 4bf2 15bc e871 03be f1e8 683d d66c 673b
000002c0: 7ee6 46bd 8a49 a8bc c4a4 5dbd 0c8c 53bb
000002d0: 23a7 093e 84a5 65be 243d 643c 36d6 05be
000002e0: 12ab 6ebd d264 7cbc 8a3f 67bd 8294 4abd
000002f0: 51bf 073d 8d14 57be 6f56 6a3d 6cb8 aebd
00000300: 9f5f da3c 6c04 1bbe 05f6 bbbd 47fc a4bc
00000310: 6b2b 8ebd 59e4 ffbd 450e 1fbb f5ba 78bd
00000320: 0e0c 5abe d033 2abe 70ac 983c 4da8 4dbe
00000330: 556f 5f3d b5bf 753d 1789 43be 5e29 61bc
00000340: d266 003b 183d 04bd 90a6 98bd 38b1 5c3d
00000350: 9739 3fbe 0bbb 81bc cc71 1d3d 5c4c 2bbe
00000360: 58e9 b83b 35a7 03be b266 703c 6664 3cbe
00000370: ada4 91bd 7ceb c0bd cb88 d8bd 01aa 593d
00000380: fc75 c0bd c3a9 8b3d a335 af3c 0912 8bbd
00000390: 6656 d73d 801f c03c f2ef 00be 3922 833d
000003a0: 043c 1dbd ac4c 74bd b619 dbbd 7783 cabd
000003b0: d5a1 333c f6c1 803d 85f2 90bd 87b1 7abd
000003c0: f243 a73c f67a b7bb 8708 333d e40b 72bd
000003d0: ae97 93bd 1d02 213b 13bc aebd 5936 e13d
000003e0: dbc2 c1bd 04e4 a3bd edc6 92bd 2e65 253d
000003f0: 58b8 f13c 0f31 213d a047 19bd b910 533c

discrete_action_output_shape f4 [1, 2]
3.0 3.0
00000000: 0000 4040 0000 4040

network_body._body_endoder.seq_layers.0.bias f4 [128]
0.057622246 -0.0335517 0.10316633 0.27236494 0.01464746 -0.20727043 0.055307545 0.057367954
-0.009527254 0.17809017 0.0860812 0.031627912 0.13217331 -0.30645153 -0.12653542 -0.37959805
-0.017381804 0.010653423 0.21355195 -0.03244335 -0.11634323 -0.019489035 0.035851195 0.07677721
-0.028473297 -0.24109578 0.1082273 0.11486408 -0.17120168 -0.25122645 0.0029676417 0.002363939
-0.11950859 0.051325932 0.035903484 -0.17706631 -0.054067913 0.07366905 0.3216464 0.08057486
-0.008787786 -0.046671584 -0.11191107 -0.06588322 -0.0386064 -0.109063335 -0.034265775 0.070044115
-0.08786683 -0.02015245 -0.018272487 0.13979271 -0.08029182 -0.27191818 0.09418851 -0.007455909
0.10102177 0.07262012 -0.28718817 0.012147586 -0.23544864 -0.036782194 -0.039965037 -0.09610567
0.0023783294 0.03338745 -0.05684121 0.12463387 0.08513225 0.031847343 -0.07113561 -0.13344412
0.02525757 -0.009550055 0.052778725 0.23349588 0.029181989 -0.04821253 0.029899646 -0.018849202
-0.1290449 0.03350433 -0.1690164 0.042865198 -0.10641333 0.028003763 0.018956074 -0.12047597
-0.09324099 -0.2182616 0.018915543 0.021243712 0.18155064 0.096262656 -0.31109896 0.014552633
-0.08818568 -0.33139348 -0.38539693 0.044619713 0.1050103 -0.15992048 -0.17759205 0.059925392
-0.12867026 0.06124658 -0.28927022 -0.3784185 0.07925336 -0.056067485 0.07129464 0.06503777
0.07818043 0.06976842 -0.23348095 -0.007010535 -0.27787253 -0.11264319 -0.4239658 0.25846693
-0.09649719 0.0060508125 -0.10367414 -0.3769284 0.071911976 0.102109455 0.031127842 -0.14820993
00000000: 4e05 6c3d 826d 09bd de48 d33d 6b73 8b3e
00000010: e6fb 6f3c b33e 54be 2a8a 623d a9fa 6a3d
00000020: 3318 1cbc 455d 363e 574b b03d 458c 013d
00000030: 7158 073e 37e7 9cbe 8092 01be ad5a c2be
00000040: 4964 8ebc b28b 2e3c 5dad 5a3e 51e3 04bd
00000050: 5c45 eebd 78a7 9fbc b4d8 123d 5f3d 9d3d
00000060: d540 e9bc d0e1 76be 46a6 dd3d dc3d eb3d
00000070: 7e4f 2fbe c1a0 80be c47c 423b 51ec 1a3b
00000080: ebc0 f4bd 243b 523d 880f 133d df50 35be
00000090: 5176 5dbd cddf 963d d6ae a43e 6f04 a53d
000000a0: a5fa 0fbc b42a 3fbd a231 e5bd c8ed 86bd
000000b0: bf21 1ebd 995c dfbd 455a 0cbd 4a73 8f3d
000000c0: 86f3 b3bd c016 a5bc 2fb0 95bc d225 0f3e
000000d0: 0a70 a4bd dc38 8bbe e8e5 c03d b350 f4bb
000000e0: 80e4 ce3d dcb9 943d 540a 93be ab06 473c
000000f0: 7319 71be eda8 16bd 61b2 23bd 0dd3 c4bd
00000100: bfdd 1b3b 47c1 083d 54d2 68bd 0b40 ff3d
00000110: d159 ae3d 5c72 023d 8caf 91bd 93a5 08be
00000120: f7e8 ce3c d577 1cbc 812e 583d 8b19 6f3e
00000130: 110f ef3c 807a 45bd 1af0 f43c a469 9abc
00000140: 5924 04be d63b 093d a312 2dbe 6b93 2f3d
00000150: 3bef d9bd 2668 e53c c549 9b3c 1bbc f6bd
00000160: 22f5 bebd f87f 5fbe c5f4 9a3c 4b07 ae3c
00000170: 69e8 393e 5b25 c53d 5d48 9fbe 2b6e 6e3c
00000180: b29a b4bd 68ac a9be bf52 c5be 29c3 363d
00000190: a40f d73d 32c2 23be b1da 35be 5474 753d
000001a0: 23c2 03be b2dd 7a3d 3a1b 94be 12c0 c1be
000001b0: 964f a23d 05a7 65bd ed02 923d 8632 853d
000001c0: 101d a03d bfe2 8e3d a115 6fbe a1b8 e5bb
000001d0: 4f45 8ebe 79b1 e6bd 0c12 d9be c755 843e
000001e0: 52a0 c5bd e545 c63b 1c53 d4bd c2fc c0be
000001f0: 9646 933d c31e d13d d1ff fe3c 58c4 17be

network_body._body_endoder.seq_layers.0.weight f4 [128, 36]
-0.3210627 -0.2652504 -0.4342007 0.065113954 -0.4691375 -0.08956109 -0.29683238 0.050256602
-0.33924565 0.22292836 -0.21786241 -0.28405046 -0.091830835 -0.099738754 -0.25429806 0.091354735
0.064361475 0.13638882 0.26129535 0.10478713 0.2108368 -0.15867548 -0.18730268 0.21241567
-0.084547006 0.1573504 0.5645967 -0.18239786 -0.030591771 -0.029525217 0.18139616 -0.26080638
0.23447175 -0.17438956 0.15851708 0.06516954 0.33183527 0.11737201 -0.29816616 0.28156236
0.042117942 -0.03353703 -0.062269952 0.16705652 0.20960017 0.048461746 0.27024165 -0.009915563
-0.1329471 0.040405627 -0.03741476 0.19679923 -0.16646211 -0.016510334 -0.25547755 0.14952439
-0.023131425 -0.24957815 -0.0073914556 -0.04638781 -0.20598538 -0.07303842 -0.3192758 -0.3917093
-0.25724393 -0.02091946 0.124266095 -0.25604138 -0.26992592 -0.41086954 -0.04191149 -0.20342407
-0.07382247 -0.2693136 -0.07809236 0.22607337 -0.054188486 0.19705702 -0.002149987 -0.067910135
0.074839704 0.26063424 0.1623925 0.17143793 0.4374292 0.29849824 -0.11246168 -0.18445526
0.55514467 0.52757186 0.21667354 -0.10282652 0.7155725 0.18594821 0.11747824 0.07371775
0.22291276 0.2699481 0.05335023 -0.19234428 0.43416578 0.03652937 0.047905717 0.2819593
-0.021274941 0.17336784 0.019034842 -0.17159025 0.123363994 0.31613475 0.015327196 0.10784291
-0.004360112 -0.117568746 0.3696411 0.30084875 -0.04433705 0.07677061 0.52392685 0.23240036
0.061521254 0.28977582 0.40486646 0.15563393 0.23249254 0.30966347 0.117064156 0.10425411
-0.18189655 -0.14053005 0.126451 0.1463022 -0.07084813 -0.17402568 0.005028672 0.21690488
-0.19416541 -0.23056313 0.0765856 0.16228499 0.042322837 0.12323178 0.06673114 6.499196e-05
0.047696304 -0.047208276 0.10573259 0.06499058 0.27084225 0.13549188 -0.003228707 -0.370695
0.008036416 0.1953778 -0.2065887 -0.17348944 0.1318483 0.1590179 0.022617491 -0.25258762
0.58699024 -0.043332312 -0.022637792 -0.32524475 0.10725249 0.0017064583 0.004865137 0.050013185
0.4608835 0.015999155 0.09554287 -0.16655235 0.08849396 -0.0585028 -0.10251762 -0.18114397
-0.010868672 -0.11654042 0.14511956 0.03597172 -0.08009471 0.028927267 -0.1003314 -0.42062455
0.26437604 -0.33895633 -0.045405682 -0.2698869 0.12168951 -0.1147777 -0.43581158 -0.017672079
-0.3347279 -0.2734204 -0.038777802 -0.06008891 -0.51710224 -0.057468694 0.20294589 -0.3393387
-0.54099834 -0.0061557516 -0.008002432 -0.004243282 -0.049871307 0.019187357 0.022406477 -0.008817914
0.3031923 -0.17357454 0.22144125 -0.021767909 0.30513707 0.25703993 0.19116113 -0.012480103
0.016082535 -0.12699215 0.4855037 0.48504937 -0.11397174 0.005302485 0.49398732 0.08473979
0.036755532 0.39785242 0.33517155 0.17643169 -0.16330114 -0.33362222 0.3265264 0.4416905
-0.06513334 -0.46994746 -0.33850032 0.054098688 -0.2553007 -0.1678982 0.033582997 0.12924483
-0.14879076 -0.23768297 -0.09466522 -0.2640691 -0.051162027 -0.39183056 0.15485978 -0.17719834
-0.43780532 -0.097804084 -0.18849371 0.01334757 0.2359046 0.15308346 -0.17974037 -0.07859298
00000000: 5562 a4be e7ce 87be 8e4f debe 775a 853d
00000010: ca32 f0be ce6b b7bd 6afa 97be ded9 4d3d
00000020: 9bb1 adbe 5547 643e 5317 5fbe 106f 91be
00000030: ce11 bcbd d543 ccbd 5b33 82be 3118 bb3d
00000040: f3cf 833d 83a9 0b3e 81c8 853e a39a d63d
00000050: 9ae5 573e d37b 22be 46cc 3fbe 7e83 593e
00000060: fb26 adbd 7720 213e 6989 103f 81c6 3abe
00000070: 989b fabc dede f1bc eabf 393e 6a88 85be
00000080: 5d19 703e 2d93 32be 4d52 223e 9c77 853d
00000090: 50e6 a93e bd60 f03d 3ca9 98be f128 903e
000000a0: dd83 2c3d 205e 09bd c70e 7fbd dd10 2b3e
000000b0: 6da1 563e d37f 463d 1d5d 8a3e e374 22bc
000000c0: 4923 08be 5f80 253d 3840 19bd bd85 493e
000000d0: 0b75 2abe ae40 87bc f4cd 82be ec1c 193e
000000e0: 1d7e bdbc 6a91 7fbe 0634 f2bb 2501 3ebd
000000f0: d5ed 52be 2b95 95bd 1e78 a3be 1f8e c8be
00000100: 7ab5 83be 4a5f abbc 397f fe3d db17 83be
00000110: bb33 8abe 7e5d d2be 62ab 2bbd 664e 50be
00000120: 3c30 97bd 79e3 89be e3ee 9fbd c77f 673e
00000130: bff4 5dbd 51c9 493e cce6 0cbb 7814 8bbd
00000140: 8f45 993d da71 853e 384a 263e 6d8d 2f3e
00000150: b8f6 df3e c3d4 983e 4f52 e6bd d7e1 3cbe
00000160: f61d 0e3f f30e 073f abdf 5d3e b696 d2bd
00000170: c22f 373f 3569 3e3e 6e98 f03d 55f9 963d
00000180: 3e43 643e a336 8a3e c585 5a3d e6f5 44be
00000190: fa4a de3e d29f 153d c938 443d f85c 903e
000001a0: c948 aebc 5787 313e f5ee 9b3c 5bb5 2fbe
000001b0: 43a6 fc3d 6adc a13e eb1e 7b3c bedc dc3d
000001c0: 45df 8ebb e2c7 f0bd 9941 bd3e d908 9a3e
000001d0: c49a 35bd e939 9d3d 1220 063f 5cfa 6d3e
000001e0: b6fd 7b3d 7f5d 943e a84a cf3e 805e 1f3e
000001f0: 8612 6e3e 368c 9e3e 55bf ef3d 2e83 d53d
00000200: 1743 3abe 1ce7 0fbe 5f7c 013e 3ed0 153e
00000210: d318 91bd ca33 32be 8fc7 a43b 501c 5e3e
00000220: 4cd3 46be be18 6cbe e9d8 9c3d 092e 263e
00000230: b65a 2d3d f260 fc3d 56aa 883d 4b4c 8838
00000240: 335d 433d 775d 41bd 548a d83d c819 853d
00000250: d6ab 8a3e 62be 0a3e b798 53bb bccb bdbe
00000260: 2cab 033c 1e11 483e fd8b 53be 37a7 31be
00000270: 3e03 073e 97d5 223e 5148 b93c 2a53 81be
00000280: fe44 163f 397d 31bd e472 b9bc 7b86 a6be
00000290: 32a7 db3d 3dab df3a ba6b 9f3b a0da 4c3d
000002a0: ecf8 eb3e a910 833c fbab c33d b38c 2abe
000002b0: 523c b53d a2a0 6fbd c2f4 d1bd ce7d 39be
000002c0: 8412 32bc beac eebd 399a 143e 1557 133d
000002d0: b208 a4bd e0f8 ec3c 8d7a cdbd 1a5c d7be
000002e0: 4c5c 873e af8b adbe 4ffb 39bd 9e2e 8abe
000002f0: 5a38 f93d 9210 ebbd b222 dfbe 09c5 90bc
00000300: 7561 abbe c2fd 8bbe 79d5 1ebd ca1f 76bd
00000310: d060 04bf 4b64 6bbd 0cd1 4f3e cdbd adbe
00000320: de7e 0abf 30b6 c9bb a21c 03bc 3b0b 8bbb
00000330: db45 4cbd ce2e 9d3c ca8d b73c 0379 10bc
00000340: 053c 9b3e 86bd 31be 7fc1 623e 9d52 b2bc
00000350: ed3a 9c3e bd9a 833e bebf 433e 5979 4cbc
00000360: 85bf 833c 3b0a 02be f193 f83e 6458 f83e
00000370: 046a e9bd 78c0 ad3b e8eb fc3e 0e8c ad3d
00000380: f88c 163d 50b3 cb3e 9b9b ab3e 82aa 343e
00000390: 6a38 27be 88d0 aabe 782e a73e 4225 e23e
000003a0: a164 85bd f49c f0be ea4f adbe 9696 5d3d
000003b0: c6b6 82be 81ed 2bbe 538e 093d c258 043e
000003c0: 9b5c 18be 2a63 73be d7df c1bd 1134 87be
000003d0: 468f 51bd 049e c8be 9093 1e3e 7b73 35be
000003e0: 0528 e0be 824d c8bd 7f04 41be c4af 5a3c
000003f0: fa90 713e e9c1 1c3e dc0d 38be 5bf5 a0bd

network_body._body_endoder.seq_layers.2.bias f4 [128]
-0.074139796 -0.010302607 0.028954672 -0.12881738 0.09015943 0.12998953 -0.022973515 0.0031220573
0.055315077 0.062070858 0.014914751 -0.058635153 0.11085451 -0.05791497 0.06853999 -0.027008705
-0.11069266 0.018589752 -0.034902107 0.037833955 0.028953943 0.03226511 0.12921625 0.0819424
0.109527685 0.075648256 -0.08323586 0.0486154 -0.021128558 0.38069648 0.040177684 0.1270688
0.09387136 0.010248818 0.02926264 -0.059411626 0.07689285 -0.06487717 0.030514091 0.056293562
0.04921969 -0.01545796 0.08397775 -0.1029709 0.002678769 0.0127191795 0.08226858 0.089526586
0.11781905 0.09175264 0.11629815 0.013127433 0.12317116 -0.033845738 -0.028822226 -0.036193945
0.10307153 0.22398008 0.13111338 0.042757045 0.07537846 -0.0339003 0.14488757 0.060345434
0.05876035 0.043477643 0.06177273 0.0065178634 -0.0032751388 0.06514061 -0.03169325 0.011456513
0.09065004 0.012286389 0.073680066 0.059013035 0.0036625452 0.006646992 0.031898532 0.022093805
0.0722774 0.0056924545 0.030557169 -0.02660931 0.0025933962 -0.008331504 -0.043143097 0.09642189
0.031863276 0.13299549 -0.028118143 -0.0092328675 0.1249406 0.032915268 -0.044196747 0.051590413
0.02561453 0.0021911757 0.077175185 -0.040116042 -0.019214552 -0.054622218 -0.053501718 -0.0047699152
-0.033561505 0.099694505 0.014237339 -0.0038455173 0.0057726535 0.0567912 0.0042132274 -0.12662627
0.030119961 -0.026868146 0.018001135 0.06212967 0.051022388 -0.028283149 -0.045285188 0.14393684
-0.037559047 0.023479411 0.07916558 0.05760393 0.13085993 0.31347775 -0.012380604 0.13611037
00000000: 9bd6 97bd 44cc 28bc 5932 ed3c b4e8 03be
00000010: 82a5 b83d fa1b 053e f432 bcbc 6e9b 4c3b
00000020: 1092 623d 033e 7e3d 005d 743c 6a2b 70bd
00000030: b007 e33d 3f38 6dbd b25e 8c3d 5c41 ddbc
00000040: d5b2 e2bd 8949 983c 83f5 0ebd c7f7 1a3d
00000050: d230 ed3c 6c28 043d 4451 043e 6bd1 a73d
00000060: 0d50 e03d 79ed 9a3d 9077 aabd f120 473d
00000070: cc15 adbc a6ea c23e 5b91 243d 531e 023e
00000080: a13f c03d a9ea 273c 34b8 ef3c 9b59 73bd
00000090: 007a 9d3d 52de 84bd b0f8 f93c 1494 663d
000000a0: 969a 493d 6243 7dbc 87fc ab3d 68e2 d2bd
000000b0: 498e 2f3b 1b64 503c 6e7c a83d b759 b73d
000000c0: 1d4b f13d cfe8 bb3d b92d ee3d 7214 573c
000000d0: 2941 fc3d d4a1 0abd 971c ecbc 1a40 14bd
000000e0: 2b17 d33d 095b 653e 9642 063e 0322 2f3d
000000f0: 0660 9a3d 0adb 0abd 685d 143e c62c 773d
00000100: b1ae 703d 9d15 323d 6705 7d3d cd93 d53b
00000110: b6a3 56bb 7168 853d c8d0 01bd 19b4 3b3c
00000120: baa6 b93d da4c 493c 93e5 963d a7b7 713d
00000130: 5007 703b 03cf d93b 09a8 023d 11fe b43c
00000140: 2c06 943d c587 ba3b 0753 fa3c c5fb d9bc
00000150: f8f5 293b dc80 08bc d1b6 30bd d778 c53d
00000160: 1183 023d f82f 083e 0558 e6bc 7445 17bc
00000170: dbe0 ff3d 29d2 063d a607 35bd 7850 533d
00000180: 90d5 d13c d499 0f3b 060e 9e3d b850 24bd
00000190: d667 9dbc 8cbb 5fbd 9e24 5bbd f34c 9cbb
000001a0: ca77 09bd a22c cc3d ba43 693c 1305 7cbb
000001b0: 8728 bd3b e49d 683d 1d0f 8a3b 51aa 01be
000001c0: 23be f63c 961a dcbc 1e77 933c ae7b 7e3d
000001d0: dafc 503d 10b2 e7bc f67c 39bd 2e64 133e
000001e0: 84d7 19bd e557 c03c 9021 a23d 19f2 6b3d
000001f0: 2500 063e 2880 a03e 04d8 4abc 8460 0b3e

network_body._body_endoder.seq_layers.2.weight f4 [128, 128]
0.017203135 -0.12074551 0.09293046 0.036585726 0.007159813 0.043022238 0.011823734 0.06693008
-0.101611674 -0.058357462 -0.007471112 -0.08042976 -0.27415782 -0.08663861 0.06332542 -0.041767012
-0.21290076 -0.02369054 0.09152576 0.01549037 -0.13474451 -0.13362621 0.044928446 -0.008183379
-0.16742101 -0.03240313 -0.14160202 0.0024790415 -0.010554503 -0.009755942 -0.09883699 0.10585515
0.015140821 -0.11512061 -0.002394475 -0.043654382 -0.01870307 -0.06162497 -0.048290778 0.040618315
0.0045578447 0.15041041 -0.2321323 0.04033699 0.13560659 -0.13094747 0.09513722 -0.108774066
0.074103825 0.14196013 0.10785042 -0.057828285 -0.12997156 0.10614162 0.1146166 -0.014456508
0.03872664 -0.049033407 0.11776435 -0.19478002 0.056461003 -0.074875966 0.12042071 -0.04066732
-0.079243176 -0.03807073 -0.08979543 -0.09785931 -0.103355825 0.14234199 -0.04572103 -0.031812463
-0.16759734 0.04343123 -0.06299317 0.004291169 0.061541766 -0.11365319 -0.10317801 -0.16047117
-0.042918034 0.022689264 0.0072762393 -0.24219145 0.012649864 -0.09209347 -0.08731266 -0.071560435
0.041247327 0.10050922 -0.04017959 0.046005055 -0.09826598 -0.23367676 -0.046136394 -0.030855251
-0.09681245 0.081571005 0.043395147 -0.078648366 -0.11173388 0.13384867 0.1542974 -0.17049304
0.080321595 -0.08486276 0.11284105 0.088461824 0.013380882 -0.05835051 0.00756664 -0.077813596
0.07727659 0.01902219 -0.04812701 0.12751476 -0.047005925 0.0018646243 0.22133818 0.058567055
-0.10423521 0.039226968 -0.0011780317 -0.06179254 0.18377523 0.15202485 -0.1005858 0.24380918
0.050262492 0.0920814 -0.15241018 -0.0717165 0.050084345 -0.05325484 0.10961117 -0.09586031
-0.11660605 -0.026952326 -0.048053887 -0.20096108 0.114149556 0.09707005 0.07451076 -0.004732833
0.2671252 -0.1149786 -0.10056128 0.124297775 -0.16476025 0.084962815 0.03551862 -0.041576266
-0.028849265 -0.25120118 0.22427312 0.050532218 0.007905018 0.04066199 -0.14639893 0.19696139
0.062662944 0.09921168 -0.14791946 0.012485966 -0.10016958 0.06310527 -0.015364407 -0.013898503
0.016249992 -0.04178072 -0.014360314 0.12268175 -0.13791811 0.0015493797 0.11499206 -0.17662391
-0.05412534 -0.01877374 -0.101978615 0.13467436 -0.03716937 -0.04926408 -0.23406312 0.21360622
-0.0216917 -0.034462236 -0.009844101 -0.13731399 0.01489383 0.1265527 0.19165279 0.09123181
0.031528275 -0.26682463 0.12913004 0.10026864 -0.23308389 0.13767041 -0.09781645 0.024562964
0.1541109 -0.2020795 0.0367423 0.15038128 0.008943206 -0.31776568 -0.073907994 -0.042841177
0.029328514 0.14180139 0.030827954 0.09165576 -0.13741946 0.10648315 0.1408136 0.13884418
0.053791746 -0.114446744 -0.04339641 -0.043619916 -0.06601374 0.18958515 -0.11415021 0.09138855
-0.1778775 -0.058492623 -0.28232336 0.045808174 0.14802727 0.18410867 -0.021850253 -0.17401034
0.18437114 -0.0313843 0.17368053 -0.019604357 -0.1262789 -0.061993644 0.22186565 0.05606232
-0.12425047 0.059612125 -0.031443596 0.09535029 -0.14921147 0.11941959 0.02314117 -0.042932548
0.078844704 -0.011920674 0.17807746 0.08693207 -0.054277528 -0.12341858 0.27899244 0.008243165
00000000: 97ed 8c3c 6c49 f7bd 5352 be3d eada 153d
00000010: dd9c ea3b 1638 303d 56b8 413c a312 893d
00000020: c819 d0bd 3c08 6fbd 3bd0 f4bb 5cb8 a4bd
00000030: 6a5e 8cbe 956f b1bd c2b0 813d e313 2bbd
00000040: a802 5abe aa12 c2bc dc71 bb3d 52cb 7d3c
00000050: 77fa 09be 4fd5 08be e406 383d 9413 06bc
00000060: 6a70 2bbe 25b9 04bd 1f00 11be 6a77 223b
00000070: cbec 2cbc 63d7 1fbc 0c6b cabd 96ca d83d
00000080: 3511 783c 5bc4 ebbd a0ec 1cbb f0ce 32bd
00000090: 2e37 99bc 776a 7cbd 8dcc 45bd 645f 263d
000000a0: f959 953b 3005 1a3e 17b4 6dbe 6638 253d
000000b0: 74dc 0a3e 1817 06be 4ed7 c23d f0c4 debd
000000c0: bfc3 973d ff5d 113e aee0 dc3d 5add 6cbd
000000d0: 4417 05be c760 d93d 1cbc ea3d fdda 6cbc
000000e0: d39f 1e3d 41d7 48bd 6f2e f13d 6a74 47be
000000f0: a743 673d 9258 99bd 229f f63d c792 26bd
00000100: 3f4a a2bd 0ef0 1bbd abe6 b7bd 766a c8bd
00000110: 38ac d3bd 19c2 113e fa45 3bbd c94d 02bd
00000120: a39e 2bbe f2e4 313d 9002 81bd ef9c 8c3b
00000130: 3813 7c3d 01c3 e8bd fe4e d3bd 8e52 24be
00000140: d2ca 2fbd d6de b93c 856d ee3b 0901 78be
00000150: 6041 4f3c 809b bcbd fbd0 b2bd 478e 92bd
00000160: f5f2 283d c7d7 cd3d 5b93 24bd cc6f 3c3d
00000170: ad3f c9bd f648 6fbe 84f9 3cbd 27c4 fcbc
00000180: 9b45 c6bd b30e a73d 1cbf 313d 6512 a1bd
00000190: bcd4 e4bd a00f 093e 2300 1e3e ba95 2ebe
000001a0: a67f a43d 87cc adbd 3519 e73d 792b b53d
000001b0: 7d3b 5b3c f200 6fbd 94f1 f73b bc5c 9fbd
000001c0: 3043 9e3d 6cd4 9b3c d420 45bd 3b93 023e
000001d0: 4989 40bd 6966 f43a 7aa6 623e 02e4 6f3d
000001e0: 4579 d5bd 75ac 203d 2f68 9aba 2d1a 7dbd
000001f0: 932f 3c3e 67ac 1b3e eeff cdbd 1da9 793e
00000200: 0be0 4d3d 2c95 bc3d 6a11 1cbe 1ae0 92bd
00000210: 3e25 4d3d bf21 5abd d27b e03d 6952 c4bd
00000220: 27cf eebd 20cb dcbc 27d4 44bd bec8 4dbe
00000230: 3ec7 e93d aacc c63d 1999 983d e115 9bbb
00000240: a2c4 883e e679 ebbd 13f3 cdbd d58f fe3d
00000250: e9b6 28be fc00 ae3d f97b 113d e04b 2abd
00000260: 4b55 ecbc 719d 80be daa7 653e dffa 4e3d
00000270: 0c84 013c 308d 263d 9ae9 15be 3fb0 493e
00000280: 6e55 803d 7e2f cb3d 3378 17be f091 4c3c
00000290: b525 cdbd 563d 813d feba 7bbc 8cb6 63bc
000002a0: b41e 853c 4322 2bbd 8647 6bbc 9240 fb3d
000002b0: 683a 0dbe 8e14 cb3a f580 eb3d e6dc 34be
000002c0: 88b2 5dbd 63cb 99bc 2ada d0bd 13e8 093e
000002d0: e93e 18bd 22c9 49bd 3eae 6fbe 97bb 5a3e
000002e0: cbb2 b1bc 4628 0dbd 2749 21bc 0a9c 0cbe
000002f0: 4005 743c 0897 013e a140 443e bed7 ba3d
00000300: cb23 013d 3d9d 88be aa3a 043e a559 cd3d
00000310: 8bad 6ebe 79f9 0c3e fe53 c8bd 4538 c93c
00000320: 3fcf 1d3e eeed 4ebe 187f 163d 8dfd 193e
00000330: 8686 123c 2fb2 a2be 135d 97bd 3b7a 2fbd
00000340: 5a42 f03c 6234 113e e88a fc3c 04b6 bb3d
00000350: b0b7 0cbe d613 da3d 7131 103e 2b2d 0e3e
00000360: bc54 5c3d 0e63 eabd 6fc0 31bd ccaa 32bd
00000370: 3632 87bd 9c22 423e 96c7 e9bd ec29 bb3d
00000380: 8525 36be f695 6fbd b08c 90be 5aa1 3b3d
00000390: 7694 173e fc86 3c3e 4dff b2bc c42f 32be
000003a0: cacb 3c3e d38c 00bd 4fd9 313e 5199 a0bc
000003b0: 424f 01be 0ced 7dbd c030 633e 9aa1 653d
000003c0: 0877 febd d82b 743d 00cb 00bd 0347 c33d
000003d0: e4ca 18be 4292 f43d 8d92 bd3c 0ada 2fbd
000003e0: 5579 a13d ee4e 43bc f059 363e 7109 b23d
000003f0: 1d52 5ebd e1c2 fcbd 19d8 8e3e 570e 073c
