results/DodgeAgentBulletsTest11_Improved3/Dodge/Dodge-7498290.pt (torch, 538935 bytes, 40 tensors)

discrete_act_size_vector f4 [1, 2]
000000 00 00 40 40 00 00 40 40
       3.0 3.0

network_body._body_endoder.seq_layers.0.weight f4 [128, 36]
000000 b2 26 a4 be be 29 87 be e6 2c de be ba 1f 87 3d
       -0.32060772 -0.26399034 -0.4339363 0.06597848
000010 9c 3e f0 be e6 84 b6 bd 39 eb 98 be 58 b6 48 3d
       -0.46922767 -0.08912067 -0.2986696 0.04900202
000020 be 28 ac be d4 ac 64 3e 1c 8d 5f be ff 84 90 be
       -0.33624834 0.22331554 -0.21831173 -0.28226468
000030 ad 18 be bd 7a cf c7 bd 5e 17 81 be 68 b5 c3 3d
       -0.0928205 -0.0975637 -0.2521314 0.09556085
000040 b5 fa 85 3d 81 25 0f 3e 35 d6 86 3e ba 2e e0 3d
       0.06541959 0.1397915 0.26335302 0.109464124
000050 17 af 54 3e b2 6f 1f be c0 dc 3e be f8 22 5d 3e
       0.20769916 -0.15569952 -0.18638897 0.21595371
000060 38 f8 ac bd 8e 99 23 3e a0 71 11 3f 08 40 37 be
       -0.084457815 0.15976545 0.56814003 -0.1789552
000070 3f 30 05 bd 0a 14 ec bc 0f ba 38 3e 24 37 85 be
       -0.032516714 -0.02881815 0.18039726 -0.2601863
000080 82 13 6f 3e a8 f0 31 be 81 08 23 3e f3 93 84 3d
       0.23347285 -0.1737696 0.15921213 0.064735316
000090 87 05 aa 3e 4a ce f0 3d 01 56 98 be 05 5f 90 3e
       0.33207342 0.117580965 -0.29753116 0.28197494
0000a0 f9 4b 2e 3d 60 87 08 bd 2c e3 7b bd 7b a4 2b 3e
       0.042552922 -0.03333223 -0.061495945 0.16761963
0000b0 ea 54 58 3e 73 4a 48 3d 13 d6 8a 3e 21 da 17 bc
       0.21126142 0.048899125 0.2711645 -0.009268315
0000c0 d1 b2 01 be 13 fb 26 3d 3b 4c 17 bd 51 68 49 3e
       -0.1266587 0.040766787 -0.036937933 0.196687
0000d0 9b 84 29 be 56 b2 83 bc db 80 81 be ac ef 19 3e
       -0.16554491 -0.016076248 -0.2529362 0.15032834
0000e0 04 f5 9f bc b0 44 7e be ba 1c de bb d0 a2 3b bd
       -0.019526012 -0.2483089 -0.006778327 -0.045809567
0000f0 73 36 52 be 8a cd 92 bd eb d0 a2 be 2c 5d c8 be
       -0.20528583 -0.0716811 -0.31800017 -0.39133584
000100 de da 83 be 0d 48 ad bc ee 31 ff 3d 5c 00 83 be
       -0.2575292 -0.02115252 0.12460695 -0.25586212
000110 02 07 8a be ff 45 d2 be 41 bd 25 bd 5c 0b 50 be
       -0.26958472 -0.41069028 -0.04046369 -0.20316833
000120 29 cd a2 bd 8c 7a 8c be 8a f6 a6 bd f6 ad 62 3e
       -0.079492874 -0.27437246 -0.08152492 0.22136673
000130 f5 85 75 bd 99 3b 44 3e 66 7e d0 bb c4 bd 93 bd
       -0.059942205 0.1916336 -0.006362724 -0.07213929
000140 b0 48 91 3d d6 0f 83 3e d6 82 23 3e a0 0f 2d 3e
       0.07093942 0.2559802 0.15967879 0.16900492
000150 17 7e de 3e 74 29 97 3e c7 f6 e9 bd c6 90 3d be
       0.43455574 0.29523814 -0.11424022 -0.18512258
000160 da 9c 0e 3f 41 8d 06 3f 27 c2 5c 3e 03 62 d4 bd
       0.55708086 0.52559286 0.21558438 -0.10370257
000170 ae 1e 36 3f 94 05 3c 3e 14 1c ea 3d f2 f2 94 3d
       0.71140563 0.18361503 0.11431137 0.07272901
000180 23 66 62 3e 57 db 89 3e e2 71 57 3d 91 3b 45 be
       0.22109275 0.26925156 0.05259884 -0.19261004
000190 50 77 dd 3e a1 51 14 3d 1d b9 34 3d f1 2b 90 3e
       0.4325509 0.03621066 0.04412185 0.28158525
0001a0 40 48 cd bc 92 25 31 3e e9 2d 9e 3c ac cf 32 be
       -0.025058866 0.17299488 0.019309001 -0.17462033
0001b0 e3 8e 00 3e 29 d7 a3 3e da 07 a1 3c 5a d1 e7 3d
       0.12554507 0.32000092 0.019657064 0.113192275
0001c0 27 31 b2 bb ba a4 ec bd 72 d2 c0 3e 4c 4c 9e 3e
       -0.0054379883 -0.115548566 0.37660557 0.30917585
0001d0 83 bd 50 bd 1b b2 99 3d d5 17 08 3f 27 ec 74 3e
       -0.050961982 0.07504674 0.53161365 0.2391821
0001e0 37 73 80 3d 10 c0 93 3e 4d 73 d2 3e 6e 74 24 3e
       0.062719755 0.2885747 0.41103593 0.1606004
0001f0 b0 35 6d 3e 28 22 9e 3e 91 8b fc 3d ea 5b de 3d
       0.23165011 0.30885434 0.12331308 0.10857375
000200 f9 e7 37 be fa 14 11 be 16 f2 03 3e e5 2b 19 3e
       -0.17959584 -0.14168158 0.12885317 0.1495815
000210 bd b9 93 bd f8 43 32 be 56 4e 33 3c ca f7 61 3e
       -0.07213161 -0.1740874 0.01094397 0.2206718
000220 eb fc 46 be 09 5c 6b be ce 00 9f 3d 86 aa 28 3e
       -0.19432418 -0.22984327 0.07763825 0.164713
000230 af aa 31 3d fc ac 00 3e 20 ac 87 3d 17 a8 b8 39
       0.043375667 0.12565988 0.06624627 0.00035220452
000240 70 ae 3e 3d 18 3c 44 bd db 00 ce 3d 62 22 81 3d
       0.046553075 -0.047908872 0.10058757 0.06305386
000250 5d 9a 8a 3e a4 80 0b 3e 46 78 b4 bb e0 13 be be
       0.27070895 0.13623291 -0.005507502 -0.37124538
000260 2b 63 7a 3b 37 75 48 3e 7d 3d 55 be 8d b4 34 be
       0.0038206081 0.19575964 -0.20824237 -0.17647
000270 51 ca 05 3e 89 25 22 3e 19 96 9c 3c e8 99 83 be
       0.13065459 0.15834631 0.01911454 -0.2570336
000280 a7 59 15 3f 2f 6f 3d bd 8e 0d d0 bc 91 ef a8 be
       0.58339924 -0.04624861 -0.025397088 -0.32995275
000290 b9 99 d7 3d f2 20 da ba c3 c7 b4 3a f7 1c 35 3d
       0.10527367 -0.0016641899 0.0013792444 0.044217076
0002a0 30 ae ea 3e 80 fa 3b 3c 2e cc aa 3d 57 99 33 be
       0.4583602 0.011473298 0.083397254 -0.17538963
0002b0 6a 24 aa 3d c8 a2 83 bd a0 b9 e0 bd 0b a8 40 be
       0.08307727 -0.064275324 -0.10972905 -0.18814103
0002c0 ab 1c 94 bc 56 01 fd bd d8 bf 13 3e 05 ee 0a 3d
       -0.018080076 -0.123537704 0.14428651 0.0339184
0002d0 cf f0 a7 bd 9c d6 e6 3c 4f b1 c9 bd 85 57 d6 be
       -0.082002275 0.028178506 -0.09848272 -0.41863647
0002e0 61 ad 84 3e ce 8b ae be bd 84 1e bd 2c c4 87 be
       0.25913528 -0.34091038 -0.038700808 -0.26516855
0002f0 dd e9 ea 3d e3 ed f4 bd 9d c0 dc be bc 2b 6e bc
       0.11470387 -0.11959436 -0.43115702 -0.014536794
000300 d0 57 ac be 28 41 8d be 8d 72 19 bd 03 f4 73 bd
       -0.33660746 -0.27588773 -0.03746276 -0.05955888
000310 d5 1f 04 bf a3 b3 72 bd 8a e2 4f 3e d4 c6 ad be
       -0.5161107 -0.059253346 0.20301262 -0.33940756
000320 4c 93 0a bf 94 7e ed bb a9 56 64 bb 79 af e5 ba
       -0.5413101 -0.0072477553 -0.0034841693 -0.0017523608
000330 1a 6b 48 bd 19 cc a3 3c 02 5f ef 3c 99 21 a4 bb
       -0.048930265 0.019994782 0.029220108 -0.005008888
000340 79 03 9f 3e cf 56 2d be fc c1 68 3e 4d ca 88 bc
       0.31057337 -0.16927646 0.22730249 -0.016698027
000350 34 3b 9f 3e 3d 33 86 3e 12 4d 43 3e 16 be 43 bc
       0.31099856 0.26210967 0.19072369 -0.0119471755
000360 bd 62 34 3c a9 d7 03 be 81 67 f7 3e 05 16 f8 3e
       0.011009869 -0.12875237 0.48321155 0.484543
000370 6e 15 f1 bd 2b 11 6c 3b 4e 94 fd 3e 70 b7 b0 3d
       -0.117716655 0.0036020975 0.4952721 0.08628738
000380 19 1c 1a 3d 90 84 cb 3e 57 d7 ac 3e 5d 0c 36 3e
       0.037624452 0.39749575 0.3375804 0.17778154
000390 aa 91 22 be 0d 05 ab be a8 57 a8 3e 46 4f e2 3e
       -0.15875879 -0.3340229 0.32879376 0.44201106
0003a0 ae ea 82 bd 1d 84 f0 be d8 f6 ad be 8a 50 57 3d
       -0.06392418 -0.46975794 -0.3397739 0.052567042
0003b0 e5 07 82 be 34 8b 2d be d3 a3 f6 3c 79 6f 02 3e
       -0.25396648 -0.16947633 0.030107414 0.12737836
0003c0 4b ad 19 be 3f 66 75 be 83 ee bf bd 56 2a 88 be
       -0.15007512 -0.23964785 -0.093716644 -0.265948
0003d0 56 4e 61 bd cd f5 ca be c7 33 1d 3e 0a ca 38 be
       -0.055006348 -0.39640656 0.15351783 -0.18045822
0003e0 f4 d7 e0 be cb fa ce bd ec 66 3c be 5b 49 58 3c
       -0.4391476 -0.10106429 -0.18398637 0.013201083
0003f0 2e 75 71 3e 3c 53 1b 3e db 7a 36 be 83 3c a2 bd
       0.23579857 0.1516847 -0.17820303 -0.07921698

network_body._body_endoder.seq_layers.0.bias f4 [128]
000000 7a 7e 78 3d 80 c0 09 bd 1b 13 d0 3d 02 c6 8c 3e
       0.060667492 -0.033630848 0.10159894 0.27494818
000010 f2 bb 42 3c 8f 88 54 be bb 7d 61 3d 0f 0a 72 3d
       0.01188563 -0.20755218 0.055051547 0.059091624
000020 84 84 1b bc 29 1b 36 3e 19 52 ad 3d 0a 3f 00 3d
       -0.009492043 0.17783798 0.084629245 0.03131012
000030 90 72 06 3e b1 cc 9c be 32 52 fd bd 46 43 c3 be
       0.1312964 -0.30624917 -0.12369193 -0.38137263
000040 92 25 92 bc 76 44 1b 3c d4 8f 5c 3e f5 4d 05 bd
       -0.01784018 0.009476772 0.21539241 -0.03254505
000050 b2 41 ee bd ff 30 9f bc fa 52 0c 3d 30 e9 9f 3d
       -0.11633624 -0.019432543 0.03425882 0.07808149
000060 a6 29 ec bc 99 20 77 be 31 45 dd 3d 42 2c ef 3d
       -0.028828453 -0.24133529 0.10804213 0.116783634
000070 d9 53 2f be f9 f3 80 be 79 7b a9 3b 5b 3f 5c 3b
       -0.17121829 -0.25186136 0.00517219 0.0033607099
000080 29 70 f7 bd b8 a9 39 3d a5 54 15 3d 8f a5 35 be
       -0.1208194 0.045327872 0.036457676 -0.17738937
000090 56 62 62 bd f3 7f 9b 3d db fa a4 3e 0f 33 a7 3d
       -0.05526956 0.07592764 0.32222638 0.081640355
0000a0 94 c7 13 bc ad ba 38 bd f4 6a e4 bd 13 1b 83 bd
       -0.009019751 -0.045099903 -0.11153212 -0.06401648
0000b0 c8 d4 22 bd e9 ff e1 bd f9 9c 0b bd 06 6b 98 3d
       -0.039753705 -0.11035139 -0.034085248 0.07442288
0000c0 11 b5 b3 bd 0e 7b 97 bc a1 ea 93 bc 07 f9 0f 3e
       -0.0877477 -0.018491294 -0.018056216 0.1405984
0000d0 b4 e4 a3 bd 80 27 8b be f5 6d c1 3d 54 c4 fd bb
       -0.08002606 -0.27178574 0.09444801 -0.0077443514
0000e0 bb 08 d0 3d 57 05 93 3d 41 9e 94 be 76 72 38 3c
       0.10157915 0.07178753 -0.29026988 0.011257758
0000f0 27 93 71 be 57 9a 1d bd b5 73 23 bd 0b fe c3 bd
       -0.2359129 -0.038477268 -0.03990527 -0.09569939
000100 f2 35 e4 3a 35 97 0b 3d 08 63 69 bd e9 e7 ff 3d
       0.0017411096 0.03407975 -0.05697921 0.12495405
000110 42 4c af 3d 6f e9 fe 3c f0 02 8f bd 15 52 08 be
       0.08559467 0.03111717 -0.06982982 -0.13312562
000120 7c f7 d5 3c 40 b7 60 bc 25 d9 57 3d ae 7b 6f 3e
       0.026118986 -0.013715565 0.05269732 0.23387024
000130 01 82 e3 3c f0 9e 49 bd ae 4f f2 3c 61 35 9a bc
       0.027771952 -0.04922384 0.02957901 -0.018824281
000140 2e ac 05 be 94 bb 03 3d 32 e4 2d be 54 3f 31 3d
       -0.13053963 0.03216131 -0.16981581 0.043273285
000150 fe 96 db bd 85 55 e7 3c 3f 66 95 3c 06 27 fc bd
       -0.10722159 0.028239021 0.018237231 -0.12312131
000160 8a fb b9 bd a4 79 61 be 8b 26 a8 3c dd ac 9a 3c
       -0.090811804 -0.22019058 0.020526191 0.018881256
000170 df 51 39 3e bb 89 c7 3d 97 d6 9f be 5c 7a 54 3c
       0.18097638 0.09743067 -0.31218407 0.012968626
000180 e2 0e b9 bd 2e 5b a9 be 71 41 c5 be e5 f2 37 3d
       -0.09036042 -0.33077377 -0.3852649 0.044909377
000190 1d 90 d4 3d 80 cd 21 be 9e bf 3a be 19 96 6e 3d
       0.1037905 -0.15801048 -0.18237159 0.058248613
0001a0 0c e5 02 be 17 54 7f 3d 67 d4 93 be fd 44 c2 be
       -0.12782687 0.062336054 -0.28872988 -0.3794326
0001b0 6f 1a a2 3d af d7 60 bd d9 d5 93 3d cf 27 85 3d
       0.07915198 -0.054893192 0.072185226 0.065017335
0001c0 37 12 9f 3d ef 1c 8c 3d e5 09 6f be e6 d6 00 bc
       0.07767146 0.06841456 -0.23343618 -0.007863736
0001d0 b0 5e 8f be 74 21 ec bd c5 34 d9 be 6f 6a 84 3e
       -0.28001928 -0.11529818 -0.42423072 0.25862452
0001e0 d6 95 c4 bd 87 03 df 3b 58 84 d8 bd 8b 4f c1 be
       -0.095988914 0.0068058404 -0.105721176 -0.37756
0001f0 d0 34 92 3d 34 ce d1 3d a3 8f fd 3c 04 32 15 be
       0.071389794 0.10244408 0.03095228 -0.1456986

network_body._body_endoder.seq_layers.2.weight f4 [128, 128]
000000 05 ef 9b 3c 43 40 f6 bd 9d 3b bd 3d fe 3c 28 3d
       0.019034872 -0.12023976 0.09239886 0.04107379
000010 0c 01 16 3c 8d 3b 38 3d 02 17 4f 3c 33 a2 88 3d
       0.009155523 0.044978667 0.012639763 0.06671562
000020 20 49 c7 bd ad 83 5c bd 9f 45 9e bb 5f b7 a1 bd
       -0.09730744 -0.053836513 -0.004830077 -0.078963034
000030 04 19 8b be 7e 7f b2 bd 3b 5c 78 3d cc 18 29 bd
       -0.27167523 -0.087157235 0.060634833 -0.041283414
000040 68 d3 5d be 37 33 b6 bc 25 2c c3 3d 89 ba 8c 3c
       -0.21662676 -0.022241218 0.09529904 0.01717879
000050 17 ca 07 be fa c6 08 be 55 af 31 3d db 94 fc bb
       -0.13260685 -0.13357154 0.0433801 -0.0077081746
000060 8e b9 27 be 4b cd 07 bd ca 35 0f be bd 9f 9a 3b
       -0.16379377 -0.033154767 -0.13985363 0.0047187493
000070 08 b6 0f bc f4 be 12 bc bd e8 c7 bd a6 df cf 3d
       -0.008771427 -0.00895666 -0.09761188 0.101500794
000080 3d 66 86 3c 0a da ea bd 21 47 07 bb 19 fa 3a bd
       0.016406173 -0.11467369 -0.0020641761 -0.045648668
000090 bf 7f a7 bc 57 06 85 bd df 4e 3b bd 91 38 29 3d
       -0.020446656 -0.0649535 -0.045729514 0.04131371
0000a0 31 21 5c 3b 12 32 1a 3e b5 5f 6d be d0 b6 17 3d
       0.003358912 0.15058163 -0.2318104 0.037039578
0000b0 1a 29 0e 3e a8 3e 04 be 93 9c ba 3d b8 e3 e0 bd
       0.13882867 -0.12914526 0.091118954 -0.10980934
0000c0 41 b0 9b 3d 2d d5 11 3e e1 48 db 3d 0e 63 59 bd
       0.07601977 0.14241476 0.1070726 -0.05307298
0000d0 22 e8 04 be cc 84 db 3d 34 15 f0 3d e0 1a 4f bc
       -0.12979177 0.10718688 0.11722794 -0.012640685
0000e0 a2 bb 32 3d 82 69 37 bd 56 15 f2 3d 6f 52 47 be
       0.04363597 -0.044778354 0.11820476 -0.1946504
0000f0 cc 86 5d 3d d4 76 9d bd e8 cd f5 3d 48 d2 36 bd
       0.05408363 -0.0768868 0.12002164 -0.044634134
000100 e9 45 9e bd 5f 5a 18 bd ff ce b3 bd c5 a3 c0 bd
       -0.07728178 -0.03719556 -0.08779716 -0.094062366
000110 a3 60 ca bd 44 ac 17 3e b2 5e 41 bd 47 eb 01 bd
       -0.09881713 0.14811808 -0.04720945 -0.03171852
000120 e5 4d 27 be 49 be 30 3d 71 92 74 bd d8 00 01 3c
       -0.16338308 0.04315022 -0.05970997 0.007873736
000130 a6 68 7f 3d 6b 68 e3 bd aa ec cd bd 1a 20 26 be
       0.06235566 -0.111039005 -0.10054906 -0.16223183
000140 30 c5 2e bd fb 24 cb 3c db 27 fb 3a 45 6e 78 be
       -0.04266852 0.024797907 0.0019161658 -0.24260814
000150 82 91 6e 3c 38 b8 c2 bd 57 16 ac bd cc ff 92 bd
       0.014561059 -0.09507793 -0.084026985 -0.07177696
000160 07 55 1d 3d 43 80 cb 3d e3 b8 1b bd fb 6b 43 3d
       0.038411167 0.09936573 -0.03801812 0.0477104
000170 bb 3e c3 bd e6 d9 6d be 3d 13 39 bd 61 4d e4 bc
       -0.09533449 -0.23227653 -0.045184363 -0.027868928
000180 31 a8 c2 bd 90 c0 aa 3d 41 3a 39 3d 40 6a a0 bd
       -0.09504736 0.0833751 0.04522157 -0.078327656
000190 d1 50 df bd ab 4e 05 3e 43 43 1d 3e 27 3e 2a be
       -0.109040864 0.1301829 0.1535769 -0.16625272
0001a0 8e 04 a7 3d ad a3 ab bd 22 68 db 3d 89 cb b4 3d
       0.081551656 -0.08380828 0.10713221 0.08827884
0001b0 99 f8 8c 3c 96 d3 6c bd 6c 66 36 3c f5 a3 94 bd
       0.017208384 -0.05781897 0.011132818 -0.07257835
0001c0 40 85 a5 3d 9b 87 b0 3c 79 c0 3c bd d4 b7 02 3e
       0.08082056 0.021549037 -0.046081994 0.12765437
0001d0 20 82 4a bd 20 52 ea 39 51 be 63 3e 46 c0 80 3d
       -0.049440503 0.00044693146 0.22240569 0.06286673
0001e0 e9 75 d9 bd d7 ab 2b 3d 7b c7 f7 3a 2e 62 7b bd
       -0.10618193 0.041911926 0.0018904054 -0.06137293
0001f0 0d 23 40 3e c6 90 1f 3e 9a 90 cc bd 4f f6 77 3e
       0.18763371 0.1558257 -0.09988518 0.24215053
000200 ac 8c 4b 3d 45 20 c2 3d 47 ce 1b be dc e2 8e bd
       0.049694702 0.09478811 -0.15215407 -0.06976864
000210 46 5d 48 3d 97 40 67 bd 1e 1f e1 3d fb e8 c0 bd
       0.048917077 -0.056458082 0.10992263 -0.094194375
000220 e3 6a ef bd 2e 32 de bc d2 2b 46 bd 9e 73 4b be
       -0.11690309 -0.027123537 -0.048381634 -0.19868323
000230 aa bc e9 3d d9 46 c4 3d 3b e1 94 3d 44 19 b5 bb
       0.11412938 0.095838256 0.07269522 -0.0055266935
000240 91 2e 88 3e 6b b5 ec bd a2 d1 ce bd ce e4 fd 3d
       0.26598027 -0.1155804 -0.10098578 0.12397157
000250 09 12 2b be 28 c5 b0 3d 29 7d 09 3d 3d 94 26 bd
       -0.16706099 0.086313546 0.033566628 -0.040668715
000260 d6 6c f0 bc 09 3d 80 be 32 fd 64 3e 46 f7 4d 3d
       -0.029348772 -0.25046566 0.22362211 0.050284646
000270 6e db ee 3b 65 0e 27 3d db 0d 16 be 43 8c 49 3e
       0.0072893417 0.040785212 -0.14653723 0.19682412
000280 6d 87 7d 3d 48 f3 cb 3d 6d 62 16 be 8d 34 45 3c
       0.06189673 0.099585116 -0.14685984 0.012036455
000290 94 85 ca bd a2 1b 7e 3d c9 88 65 bc 0a 12 5f bc
       -0.09888759 0.06203807 -0.014009663 -0.013615141
0002a0 01 6d 77 3c 41 e1 2c bd e5 5b 76 bc 55 38 f7 3d
       0.015101672 -0.042207006 -0.015036558 0.12071291
0002b0 d7 92 0d be a6 96 66 3a d9 8d e9 3d d3 4e 34 be
       -0.13825546 0.0008796252 0.114040084 -0.17608194
0002c0 bb 9e 5f bd a2 1e 96 bc ba c4 ce bd fd fa 0a 3e
       -0.054594737 -0.018325154 -0.10096116 0.13572307
0002d0 b1 72 13 bd ac df 4a bd d6 9c 6e be 9b 5c 5d 3e
       -0.03599805 -0.049529716 -0.23302016 0.21617357
0002e0 dd e9 a7 bc 4c 1b 11 bd fe ca 2c bc 85 d4 0b be
       -0.020497257 -0.035426423 -0.010546444 -0.13655289
0002f0 e7 ec 6c 3c d4 12 01 3e e4 b6 41 3e b8 2a b7 3d
       0.014460779 0.12604839 0.18917423 0.08943695
000300 63 19 00 3d d4 84 88 be c3 b2 03 3e dd cb cc 3d
       0.03127421 -0.2666384 0.12861161 0.09999821
000310 32 33 6f be 5d 44 0f 3e 7f 7d c9 bd f5 e3 ca 3c
       -0.23359373 0.13990922 -0.098383896 0.024766902
000320 52 70 1d 3e de 3e 4d be e6 c8 14 3d d1 f5 1a 3e
       0.15374878 -0.20043513 0.036324404 0.15132834
000330 1a 55 09 3c 30 86 a2 be da 55 98 bd fd 0e 34 bd
       0.008382106 -0.31743002 -0.0743825 -0.043959606
000340 b6 4f e5 3c c7 68 10 3e 10 9d f7 3c 19 6e bb 3d
       0.02799211 0.1410247 0.03022626 0.09151859
000350 b2 38 0d be 17 fc d9 3d f5 d3 0f 3e 31 99 0d 3e
       -0.13791159 0.106437854 0.14045699 0.13827969
000360 2c 62 5d 3d 0a 57 eb bd b2 26 3f bd 40 a5 33 bd
       0.054048702 -0.11491211 -0.046667762 -0.043858767
000370 b5 67 81 bd ad 58 42 3e cc 9d ea bd 7c 50 b9 3d
       -0.06318609 0.1897914 -0.114558786 0.09048554
000380 48 90 35 be 63 44 78 bd 39 89 90 be 5c ee 38 3d
       -0.1773082 -0.060612094 -0.28229693 0.045149192
000390 0d 49 17 3e a1 22 3b 3e 1b 1a a7 bc 07 9f 32 be
       0.1477396 0.18274929 -0.02039819 -0.17443477
0003a0 dc 86 3c 3e 03 cf fa bc a4 5a 31 3e 0e b5 a4 bc
       0.1841082 -0.030616289 0.17319733 -0.020105865
0003b0 97 a1 01 be a7 ff 7f bd 3f 66 64 3e 46 34 67 3d
       -0.12659298 -0.06249967 0.22304629 0.056446336
0003c0 7d 7c fa bd ef cc 6e 3d 7e 97 02 bd d1 64 c1 3d
       -0.122307755 0.05830091 -0.031882755 0.09443057
0003d0 71 89 19 be be c0 f2 3d 81 a8 c0 3c 3e e5 30 bd
       -0.14993836 0.11853169 0.023517849 -0.043187372
0003e0 83 6a a0 3d 87 89 57 bc ae d9 35 3e 8d 10 b1 3d
       0.078328155 -0.013155348 0.1775882 0.08645735
0003f0 b7 e7 5d bd 41 d5 fc bd c2 81 8e 3e 89 02 07 3c
       -0.05417606 -0.123453625 0.27833372 0.0082403505

network_body._body_endoder.seq_layers.2.bias f4 [128]
000000 25 6e 91 bd 82 e3 26 bc 9c 3a f6 3c ed 21 03 be
       -0.071010865 -0.010186078 0.030057244 -0.1280591
000010 53 0f bb 3d 9b 92 05 3e fe c2 d0 bc 00 43 64 3b
       0.09133782 0.13044207 -0.025483605 0.0034829974
000020 41 50 65 3d 05 c3 7a 3d 41 28 a7 3c 84 6d 70 bd
       0.05598474 0.06122114 0.020404937 -0.058698192
000030 09 c8 e1 3d 75 87 69 bd 99 24 92 3d dc c5 d8 bc
       0.11024482 -0.057013948 0.07135887 -0.026461534
000040 15 b4 cf bd 4d d1 98 3c 6b e1 10 bd 64 c4 1f 3d
       -0.1014177 0.01865449 -0.035371225 0.039005652
000050 e2 bd 00 3d e9 fe 0b 3d 64 5a 06 3e 50 ab a7 3d
       0.031431086 0.03417865 0.13120419 0.08186972
000060 a8 93 db 3d 5f dd 9b 3d 8d 23 aa bd a1 20 4d 3d
       0.107215226 0.076105826 -0.08307562 0.050079945
000070 b6 63 ac bc a2 ff c1 3e d2 8d 2e 3d cc 5a 03 3e
       -0.02104364 0.37890345 0.04261572 0.12827605
000080 7a 91 c3 3d d9 92 25 3c d8 ec ea 3c 0d a9 76 bd
       0.09549232 0.010105812 0.028677389 -0.060219813
000090 a7 51 9d 3d 02 db 87 bd 0e dc f6 3c 0a c6 60 3d
       0.076815896 -0.06633569 0.030134227 0.054876365
0000a0 98 f8 49 3d 1e 6d 86 bc 34 4c a7 3d 5d 46 cc bd
       0.049309343 -0.016409453 0.081688315 -0.09974358
0000b0 c4 86 20 3b 6d 8a 4e 3c 48 e7 aa 3d 64 46 bb 3d
       0.002449439 0.012606245 0.08344895 0.09144285
0000c0 c3 62 ea 3d 1e 10 b9 3d 74 2b e6 3d d1 e0 61 3c
       0.114446186 0.09036277 0.11238757 0.013786511
0000d0 26 d5 f7 3d 87 3c f3 bc 9c 28 e2 bc d3 50 07 bd
       0.12101202 -0.029691948 -0.027607255 -0.033036064
0000e0 a6 a9 ce 3d 76 30 65 3e 6e 4d 06 3e 23 c0 2c 3d
       0.100909516 0.22381768 0.13115475 0.042175423
0000f0 18 24 97 3d fd aa 07 bd 11 8a 14 3e 76 bb 82 3d
       0.07379931 -0.03312205 0.14505793 0.063834116
000100 de c4 82 3d 13 fa 31 3d fa 9f 7d 3d 98 43 8f 3b
       0.06385206 0.04345138 0.061920144 0.0043720715
000110 38 94 89 3b a5 99 85 3d f1 0d fc bc c5 e4 3a 3c
       0.0041985773 0.06523446 -0.030768367 0.011407082
000120 ba bc bd 3d fd a3 89 3c 74 af 92 3d 85 52 73 3d
       0.09264512 0.016801829 0.07162371 0.05940487
000130 4e dc 14 3a 53 76 c7 3b 51 30 09 3d 5c b0 ab 3c
       0.000567858 0.0060871034 0.033493344 0.020958118
000140 01 e7 8c 3d 83 4d 2f 3b 76 e8 e5 3c 7f 06 e0 bc
       0.06879998 0.0026749081 0.028064948 -0.027346848
000150 e2 af 00 3b 0e 86 0e bc 43 e6 2b bd 51 a3 c3 3d
       0.0019636084 -0.008698953 -0.04196764 0.095526345
000160 9b 8b 01 3d dc 23 09 3e de 7a ee bc dd f0 1c bc
       0.03162728 0.13392586 -0.029111322 -0.009578911
000170 be e3 fc 3d 09 45 16 3d cf d4 46 bd fc ff 4f 3d
       0.12348126 0.03668693 -0.048542794 0.050781235
000180 1d 1e d4 3c 34 19 a0 3a c5 09 9e 3d a7 43 26 bd
       0.025893265 0.0012214542 0.07716707 -0.040591862
000190 2c 20 a0 bc 15 d0 64 bd 39 e4 57 bd 0e 73 d0 bb
       -0.01954659 -0.055862505 -0.052707884 -0.006361372
0001a0 94 01 01 bd 5a 46 ca 3d 0e 65 93 3c f3 1d 7f bb
       -0.031495646 0.098767 0.017992523 -0.0038927763
0001b0 bb 39 0e 3c 06 b3 5f 3d 06 f5 54 3c 4f cb 01 be
       0.008680756 0.05461409 0.012997871 -0.12675212
0001c0 0d fb db 3c 32 28 f4 bc 9a 7f ac 3c 40 5d 70 3d
       0.026853109 -0.029804323 0.021056939 0.05868268
0001d0 ce bb 4c 3d f8 e7 e1 bc 93 8f 40 bd 68 a7 13 3e
       0.049983792 -0.027576432 -0.047011923 0.14419329
0001e0 4c b1 0e bd d0 77 bf 3c 78 66 a0 3d 3a 6d 68 3d
       -0.034837052 0.02337256 0.07832044 0.05674479
0001f0 9d 8e 04 3e 58 9b 9f 3e 92 eb 1a bc e6 ea 09 3e
       0.12945028 0.31173205 -0.009455578 0.13468513

action_model._discrete_distribution.branches.0.weight f4 [3, 128]
000000 00 c0 f0 3d 16 45 4e bd 23 4b 06 be 08 09 94 3d
       0.11755371 -0.050358854 -0.131146 0.07228285
000010 1a 5b 39 3d fe 6f 04 be 59 4b 3d bd 52 59 09 3d
       0.045252897 -0.12933347 -0.046214435 0.033532448
000020 d5 47 d9 3d ca ef 0f 3e 69 f8 95 3b a1 d3 43 bd
       0.10609404 0.14056316 0.004576732 -0.047809247
000030 94 d1 63 3e 33 1b 6e bd d6 48 a0 3d 97 c8 9f 3d
       0.22247916 -0.058131408 0.07826392 0.07801931
000040 b1 5f 54 3b 7e b1 1f 3e 78 fc ad bd 34 95 8a 3e
       0.003240567 0.15595052 -0.0849542 0.27066958
000050 84 c1 d0 3d ce dd 10 3d ea de 99 bd d6 ae 25 3e
       0.1019316 0.03536778 -0.075132206 0.16179976
000060 96 c9 24 3d 58 f2 44 3e 45 7c 27 be 9a 8c 20 3e
       0.04023131 0.19233072 -0.16355999 0.15678635
000070 50 28 9b 3d 5f c9 ca 3c 8a 49 6d 3e 23 cb 67 3e
       0.075760484 0.024754224 0.23172584 0.22636084
000080 16 e5 2a be 08 44 05 bc 3f 43 6c 3c 54 d7 0d bd
       -0.16688952 -0.008133896 0.01442033 -0.03462918
000090 63 b7 0f bd 68 02 b1 bd d0 52 09 3e ae 9f 85 3d
       -0.035087 -0.08643037 0.13410497 0.06524597
0000a0 cc f4 10 3e c0 ec 22 3c d1 fd 5e 3e de 30 a5 bd
       0.14155883 0.009944141 0.21776511 -0.08065961
0000b0 af df 8f 3d 48 4d 00 be 31 12 79 3e b5 89 65 bd
       0.07025086 -0.1252948 0.24323346 -0.05603953
0000c0 8f 73 95 3d 34 93 39 3d 35 5b 4e 3e 1a 07 ba 3d
       0.07297432 0.0453064 0.2015198 0.09083386
0000d0 29 40 19 be 14 3c a4 3b dc d3 07 be c6 9c 4d 3d
       -0.14965881 0.0050120447 -0.13264412 0.05019834
0000e0 51 1a 7a bc b5 2c e8 bd 4e 0d 1a bd fe 73 16 3e
       -0.015265063 -0.11336652 -0.037610345 0.14692685
0000f0 2b 71 fd bd 87 f6 b0 bd b9 0b 05 3d 36 62 ab 3d
       -0.12375101 -0.08640771 0.032481883 0.083683416
000100 ef 1e 07 bd 4d df a1 bc 7a 2c 49 3e 4b a9 34 be
       -0.032988485 -0.019759798 0.19645873 -0.17642705
000110 16 4b d4 3b 21 f2 29 bd 90 74 42 3e f2 b5 47 bc
       0.0064786775 -0.041490678 0.18989778 -0.012189375
000120 aa 74 bf bc 35 8a 80 bd c3 09 9b bd 4b b2 d3 bd
       -0.02337106 -0.06276361 -0.07570221 -0.10336741
000130 f9 44 e2 bd 63 af 7d be af e7 69 bd 08 41 81 3d
       -0.11048312 -0.24773936 -0.057105716 0.06311232
000140 fe 62 3a 3a 09 de da 3c 3c 20 b7 3d 2d d9 99 3c
       0.0007110088 0.026717203 0.08941695 0.018780315
000150 75 a4 e3 3c 03 75 4d 3e 55 f8 0e 3a 25 e0 35 3e
       0.02778838 0.20064168 0.00054538745 0.17761286
000160 fb 58 49 bd ab 2c 9b 3e e2 d4 23 bd 0e eb aa bd
       -0.049157124 0.30307516 -0.039997943 -0.083456144
000170 c1 26 8c 3e 33 fe b7 3d 83 ee 0a 3d d7 43 09 be
       0.27373317 0.089840315 0.03391887 -0.13404785
000180 b9 a7 86 3d 6f 9b 45 be 8e 53 1c bc e0 e1 3e 3e
       0.06574959 -0.19297574 -0.009541405 0.18640852
000190 11 78 a7 be 45 82 3d be 69 77 4e bd db 4f 96 bd
       -0.3270879 -0.18506725 -0.050406847 -0.0733945
0001a0 32 81 35 3c 09 e8 e4 bc 7d c0 23 bd 62 56 74 3d
       0.011078166 -0.027942674 -0.039978493 0.059652694
0001b0 40 53 8c 3e 03 b3 95 bd 3e c9 6a 3d 30 70 8f 3d
       0.27407265 -0.073095344 0.057320826 0.0700382
0001c0 59 d4 e4 3c b4 56 d3 bc 56 ca c4 3d 62 63 9f bb
       0.027933287 -0.02579818 0.09608905 -0.0048641423
0001d0 d9 b1 2a bc 22 5e ad be e8 9b b2 bd 35 54 be bc
       -0.010418379 -0.3386088 -0.08721143 -0.023233512
0001e0 4d 23 bd 3d ae 62 c8 bd 19 f6 c7 3d ef 97 a1 bd
       0.09235249 -0.09784447 0.09763736 -0.07890307
0001f0 6e b1 26 3d 85 bc 1e bc 7c 45 13 3c 94 01 39 3e
       0.040696554 -0.009688501 0.008988734 0.18067008
000200 6c dc c8 bd 47 2b 1c 3b 5d 59 90 bd be e0 89 bd
       -0.09807667 0.0023829506 -0.07048295 -0.06732319
000210 86 29 de 3c 7b 20 cd bc 28 99 66 bc dc 6e 78 bd
       0.02711941 -0.025039902 -0.014074601 -0.0606526
000220 7c cf 10 be 9e b9 0b be 3c a0 3c 3d 96 76 99 bd
       -0.14141649 -0.13645026 0.04605125 -0.074933216
000230 89 92 db bd ae 58 ea ba bb b2 02 3c 14 e8 e8 bc
       -0.10721309 -0.0017879212 0.007977183 -0.028430976
000240 43 3a 65 bd ab b9 41 be c4 f5 12 3e d3 02 88 be
       -0.055963766 -0.18918483 0.14351565 -0.26564655
000250 11 19 8c bd 2e 40 25 3b 0b 37 1e 3d ec 07 3d bd
       -0.068407185 0.0025215256 0.03862671 -0.046150133
000260 c6 89 81 bd 5c db 50 be 5b af 2c 3d 96 e2 e3 bd
       -0.06325106 -0.20396179 0.04215942 -0.11127202
000270 63 c0 aa 3c e8 4d 66 3d 7e d1 40 be cb 81 a2 be
       0.02084369 0.05622664 -0.18829915 -0.3173965
000280 11 57 d9 bd 27 ae b9 bc a1 58 2d be 36 46 dd bc
       -0.1061231 -0.02266605 -0.1692834 -0.027011018
000290 5b dc b7 bc c6 b8 33 bd 6d 56 c1 bd 1b 6d 34 3d
       -0.02244394 -0.043877386 -0.094403125 0.044049364
0002a0 70 d1 12 be 85 91 81 bd 42 17 2a be 54 9f 60 bb
       -0.14337707 -0.06326584 -0.16610435 -0.0034274654
0002b0 78 b6 b3 bc b2 83 66 3d 06 bd 93 be 49 ee 06 3d
       -0.021937594 0.05627794 -0.2885515 0.03294209
0002c0 b4 e7 52 be 28 48 5a bc 99 46 8c be 17 d9 f8 bc
       -0.205962 -0.013322867 -0.27397612 -0.030376954
0002d0 8e 18 bf 3d 00 b4 12 bc 82 9a 46 3d 06 2f 52 be
       0.09330855 -0.008954048 0.048487194 -0.2052575
0002e0 c3 a1 46 be bc bf 80 3d 91 ae 8c bc eb 49 23 be
       -0.19397645 0.062865704 -0.017173083 -0.15946166
0002f0 c8 d0 9f 3d 87 51 36 bd 7a 72 c9 bd c3 5e 2d be
       0.07803494 -0.044511344 -0.09836288 -0.1693068
000300 77 90 9c bd df 08 7a bd 51 8f 5f be e9 b2 e0 3d
       -0.07644742 -0.061043616 -0.21832015 0.109716244
000310 43 b2 58 3d aa 13 1e 3b 32 0a 4d bc 03 e1 54 bd
       0.05290438 0.0024120607 -0.012514638 -0.0519724
000320 d7 2d ca bd bf 9d b5 bc 74 8d ee bc b6 1f 55 3d
       -0.098720245 -0.022169946 -0.029120184 0.052032195
000330 d1 4f 48 3d 52 4e f5 3d d4 9c 07 bb 80 6a 7e bd
       0.048904244 0.11977829 -0.0020692842 -0.062113285
000340 bd b6 09 3b f6 de ab 3b d6 a6 db bd 89 71 06 bd
       0.0021013462 0.005245085 -0.10725181 -0.03282312
000350 23 ce a7 bd 02 86 b4 bd 89 dd b8 3c a0 6b 19 be
       -0.08193614 -0.088146225 0.022566574 -0.14982462
000360 fd 9e c1 bc 92 ba 9d be 7f 2c a6 3d c9 a2 88 bc
       -0.023635382 -0.30806404 0.08113956 -0.016679185
000370 c6 c7 55 be 23 6e 07 be 67 9e 14 3d 43 f7 99 3d
       -0.20876989 -0.13225608 0.036283877 0.075178646
000380 37 50 11 be f9 1f 05 3e 7a 86 ac bd dc 79 0a be
       -0.14190756 0.13000478 -0.08424087 -0.13523048
000390 86 ee 21 3e d7 79 99 3d 30 0a 1a 3d 15 34 2b 3d
       0.15813646 0.07493942 0.03760737 0.041797716
0003a0 ce 28 51 3c d0 11 ec 3c e0 45 79 3d 79 9c ad bd
       0.012766076 0.028817087 0.060857654 -0.084771104
0003b0 67 74 8c bc ef 25 eb bd cf 61 c4 3c e5 90 08 bd
       -0.017145349 -0.11481845 0.02397242 -0.033341307
0003c0 e4 3b fb bd e2 a7 64 ba 25 ae c2 3d b5 e8 02 be
       -0.122672826 -0.0008722526 0.09505872 -0.12784083
0003d0 7a c4 82 bd c4 d2 31 3e fb e7 eb 3b 1b 59 a1 3d
       -0.06385131 0.17365557 0.007199285 0.07878324
0003e0 ee e3 84 bc 88 3b 39 3c 21 29 35 bd 7e 2c 50 3d
       -0.016221967 0.011305697 -0.044228677 0.05082368
0003f0 64 eb 31 3d dd 4a 11 3d dc 31 69 3d 64 f3 d5 bc
       0.043437377 0.035471786 0.056932315 -0.026117034

action_model._discrete_distribution.branches.0.bias f4 [3]
000000 58 cb bf be 41 73 e3 3e c2 cf 28 be
       -0.37459826 0.4442387 -0.16485503

action_model._discrete_distribution.branches.1.weight f4 [3, 128]
000000 6b 68 d6 3d 20 fd 83 3d d9 5a 2c bc a4 d0 6c bc
       0.10469135 0.06444764 -0.010519707 -0.014454041
000010 18 c7 7c bc 41 7c 81 be 8d 0f e0 bc d4 33 f4 bc
       -0.015428327 -0.2529011 -0.027351165 -0.02980987
000020 e2 e4 b4 3d bf 3a c8 3d 3e 9e 04 3d 32 02 d1 bd
       0.088327184 0.0977683 0.032377474 -0.10205497
000030 8c fe 0b 3e 96 68 a9 bc bd 50 12 3e 72 86 60 3d
       0.1367132 -0.020679753 0.14288612 0.054815717
000040 19 0d 16 3d bb 88 23 3e b2 96 9d 3c f2 5f 5f bd
       0.036633585 0.15970127 0.019236896 -0.05453486
000050 f9 4c b6 3d 41 d2 03 3d 87 96 6c 3e 93 fb c8 bc
       0.089014 0.032182936 0.23104297 -0.024534022
000060 df 01 51 3d 10 9e 1f 3d e3 a7 48 bd be 0d c2 3c
       0.051027175 0.0389691 -0.048988234 0.023688193
000070 a1 5f 51 3c 07 98 02 bd dc 04 c8 3d 19 21 2b 3e
       0.012779147 -0.031883266 0.09766552 0.16711845
000080 b6 ff 37 3e 06 61 15 3d a5 fd c8 bb 9c 84 26 3d
       0.1796864 0.036469482 -0.0061337524 0.04065381
000090 1a af 90 3d d3 69 3b 3d 67 b0 ec bd 71 6c 8b 3d
       0.07064648 0.04575522 -0.115570836 0.06807793
0000a0 33 22 80 3d d5 95 77 3c b0 20 02 bd 3a bc a6 3c
       0.06256523 0.015111406 -0.031769454 0.020353425
0000b0 d3 3b d6 3d 72 db 3e 3d bf 49 ad 3d 85 a8 2d bd
       0.10460629 0.046595998 0.084613316 -0.04239704
0000c0 f2 18 05 bc e1 72 bb bd 77 db 42 bc f0 57 65 3d
       -0.008123623 -0.09152771 -0.011893145 0.055992067
0000d0 64 79 7a bd 7c d0 b3 3d 11 ee 2e bd e9 7d 14 3d
       -0.061150923 0.087799996 -0.042707507 0.03625289
0000e0 f8 92 f6 3d 51 af 49 be cb 48 a4 3d b5 10 c9 bb
       0.12039751 -0.19695784 0.08021697 -0.006136025
0000f0 57 c3 4f 3c 13 17 e3 bc 79 c8 cb 3d 0a 52 d2 3d
       0.01268085 -0.027720964 0.099503465 0.10269554
000100 c6 9c 49 bd 06 8a 26 3d b0 12 db 3e 46 bd 15 3d
       -0.049221776 0.040658973 0.42787695 0.03655746
000110 d9 6d 9d 3c fd 69 73 bc 3e 10 99 3d a8 26 91 3d
       0.019217419 -0.014856813 0.07473801 0.07087451
000120 fe 04 42 3e 3c a0 50 3d 68 9f c0 bd f5 5f 18 3d
       0.18947217 0.05093406 -0.09405404 0.037200887
000130 46 b5 de bc 42 9c 8e 3c 4c 75 43 3d b4 e5 4d 3a
       -0.027186047 0.017408494 0.047719285 0.0007854358
000140 6e 6e d1 bd ca 24 d9 bc f8 e2 48 3d ee 20 6c bc
       -0.10226141 -0.0265068 0.04904458 -0.014412148
000150 a6 26 74 3d e4 0d ec 3d 77 37 f1 bd 71 7c 13 3e
       0.05960717 0.11526087 -0.11778157 0.1440294
000160 0a dd e6 3d 7e 93 07 3e 96 55 2a bd 6c 6a 87 3d
       0.112726286 0.13239858 -0.041585527 0.06612095
000170 55 d3 93 3d 28 7f 87 3d 7d b5 40 bb d4 1d 9c bd
       0.07218043 0.0661605 -0.002940505 -0.07622877
000180 1d 7a 9e 3c f4 b8 cb bd 9a 7c c8 bc cf be 9e 3d
       0.019345338 -0.099473864 -0.024473477 0.077512376
000190 05 11 00 be fa 87 66 bd f7 dc e6 3d a6 f3 3f 3b
       -0.12506492 -0.05628202 0.112726144 0.0029289513
0001a0 3b c2 0e bc 6c c0 a7 bd 48 4e a7 bc b7 15 5e 3d
       -0.0087133 -0.081909984 -0.02042307 0.054219928
0001b0 fd 0c 91 3d ef 7d bf bc 37 9d 8a bd ae 0b 9d 3d
       0.070825554 -0.02337548 -0.067682676 0.07668243
0001c0 fa c9 e7 bd b5 f1 e8 bc e0 28 37 be 86 c5 ff 3d
       -0.11317821 -0.028435567 -0.17886686 0.124888465
0001d0 9c 43 95 3c cd cb b6 3b cc 8a 77 3d 00 25 12 be
       0.018220715 0.005578494 0.0604351 -0.14271927
0001e0 bf 84 b1 bd 81 a4 c5 3d ff 7c d5 3c 19 b9 91 bc
       -0.086678974 0.09650517 0.02606058 -0.017788457
0001f0 ac 12 e7 3c 23 5b ee 3b fe 4c 46 bd 19 93 52 3d
       0.028207146 0.007274048 -0.04841327 0.051409815
000200 0d 13 e7 bd af 29 e5 3b 15 e6 a4 bb 0c cb 10 3d
       -0.112829305 0.0069934945 -0.0050323107 0.03534989
000210 2c 48 4c bd c8 23 10 bd 95 11 1d bd 2b 4f 09 3b
       -0.049873516 -0.035190374 -0.038346846 0.0020951729
000220 1b 20 17 bd 5c f7 cc 3c db ea 65 bd 83 09 16 3d
       -0.036895853 0.025020294 -0.05613218 0.036630165
000230 26 13 22 be 8e 47 84 bb 9e 1d 3f 3e 69 91 e0 bd
       -0.15827617 -0.0040368503 0.18663642 -0.10965235
000240 6f 79 ec bb f1 be 2e be 68 22 53 be 62 df 7a bc
       -0.0072166244 -0.17065026 -0.20618594 -0.015312048
000250 41 c7 bb 3c 39 77 42 bd 4c f3 81 bd 29 79 b8 bb
       0.02292216 -0.04747698 -0.06345233 -0.005629678
000260 4c 46 cf 3c 87 0a 0c bc ab 9a 05 3c 13 61 d8 bd
       0.025302075 -0.008547432 0.0081545515 -0.105653904
000270 da a8 6d bd f6 09 22 3d 4e b0 2d bd 70 d6 0f be
       -0.058022358 0.03956028 -0.042404465 -0.14046645
000280 9e 66 01 be 7a 10 63 bd ad 44 aa 3c c8 d9 4a bd
       -0.12636802 -0.055435635 0.0207847 -0.0495241
000290 1d 35 9b bd 90 1c f2 bb 53 d0 c6 bc dd a7 06 be
       -0.0757849 -0.007388659 -0.024269259 -0.13149972
0002a0 99 55 af bd 5d 4b f6 bd d1 83 7c bd 8a 71 a2 bc
       -0.08561248 -0.12026093 -0.061649147 -0.01982953
0002b0 38 fe 2b bc d8 6c 03 be 07 4f 6f 3d 0c ec e8 39
       -0.010497622 -0.1283449 0.058424976 0.00044426357
0002c0 e7 3e 37 bd 35 67 a4 bc a2 89 5d bd e8 95 85 bb
       -0.044737723 -0.020068744 -0.054086335 -0.004076708
0002d0 88 6e 09 3e 49 9d 6b be 9f 70 75 3c 41 f8 00 be
       0.1342107 -0.23009218 0.014980464 -0.12594701
0002e0 2b 2b 73 bd e9 72 7f bc 73 fc 6d bd b0 96 3c bd
       -0.05936734 -0.015591362 -0.058102082 -0.046042144
0002f0 41 0f 1c 3d 61 89 5a be e7 cb 5e 3d f2 b1 ae bd
       0.038100485 -0.21341468 0.054393675 -0.08530034
000300 52 5f dc 3c 0b 85 1a be 5e d1 b4 bd f7 99 ad bc
       0.026900921 -0.15089814 -0.08828996 -0.02119158
000310 54 6a 99 bd bb 11 02 be 83 51 90 bb 8c c2 7a bd
       -0.074909836 -0.12702076 -0.004404248 -0.06122069
000320 fb 5a 58 be 08 ab 2b be dc ec b8 3c 18 8b 50 be
       -0.21128456 -0.16764462 0.02257388 -0.2036556
000330 2d 89 5e 3d 3e 34 77 3d 42 c0 45 be ca 8c 59 bc
       0.05433004 0.060352556 -0.19311622 -0.013278196
000340 a5 79 68 3b 5c 43 18 bd a5 35 9d bd d6 30 56 3d
       0.0035472896 -0.037173614 -0.076762475 0.052292667
000350 01 ce 3e be 67 6b 82 bc 39 a8 1d 3d 88 ac 2b be
       -0.18633272 -0.015920354 0.038490508 -0.16765034
000360 1d 50 8a 3b 6e 01 06 be 1e 54 75 3c 14 31 3c be
       0.004220976 -0.13086483 0.014973668 -0.18378097
000370 39 4f 90 bd ac 86 cc bd c5 2f e1 bd a5 d3 68 3d
       -0.070463605 -0.09986624 -0.109954394 0.056842465
000380 41 a2 bf bd ee 1a 8c 3d 99 00 b0 3c 9a f5 8a bd
       -0.09357119 0.06841074 0.02148466 -0.06785126
000390 44 c7 d7 3d 4f 73 c5 3c 2e a6 01 be 79 88 85 3d
       0.10536054 0.024102835 -0.12661049 0.06520171
0003a0 dd fd 1b bd 23 8b 6f bd 01 4a df bd 82 aa ca bd
       -0.0380839 -0.0584823 -0.10902787 -0.09895803
0003b0 12 11 49 3c 6e b9 7f 3d 8b 90 96 bd d5 e2 7a bd
       0.012272136 0.0624327 -0.07351788 -0.06125148
0003c0 a0 9f c1 3c f1 67 ed bb 64 a3 4c 3d 2a a4 6b bd
       0.023635685 -0.007245057 0.04996051 -0.057529606
0003d0 31 a3 95 bd ee ec 39 3b da f8 ab bd d7 ef ea 3d
       -0.07306517 0.002836998 -0.08397074 0.11471527
0003e0 98 93 ca bd e5 cb a5 bd 7c 69 93 bd f0 ad 1a 3d
       -0.098914325 -0.080955304 -0.07197854 0.037763536
0003f0 d6 a6 ed 3c b6 42 1c 3d cf 05 44 bd 68 87 2d 3c
       0.029010218 0.038149558 -0.047857102 0.010591365

action_model._discrete_distribution.branches.1.bias f4 [3]
000000 33 a5 8a be d5 44 b6 3e 4f ce 04 be
       -0.27079162 0.3559939 -0.12969325

exp_avg f4 [128, 36]
000000 6a 7d e3 37 8a ef 3e 37 c9 34 fb 35 c6 f5 52 b7
       2.711891e-05 1.13806545e-05 1.871632e-06 -1.2574199e-05
000010 09 07 5f 37 76 72 be 35 f8 07 50 b7 19 1a 61 b7
       1.3293474e-05 1.4189416e-06 -1.23996215e-05 -1.3417121e-05
000020 7c ca 08 38 10 95 9a 37 1d 05 81 37 a5 ea dd b5
       3.2613505e-05 1.8427643e-05 1.538038e-05 -1.6534074e-06
000030 66 3c ca 37 cd 62 51 37 d9 24 cd 37 b4 5b 98 b5
       2.4108402e-05 1.2480375e-05 2.4455063e-05 -1.1351572e-06
000040 f8 cf 08 38 4e 60 d0 37 66 45 67 35 2f 17 30 b7
       3.2618613e-05 2.4840378e-05 8.6155194e-07 -1.0495815e-05
000050 d6 67 e7 b7 e4 94 ac b7 5a 92 a9 b7 c0 63 07 b7
       -2.7585698e-05 -2.057333e-05 -2.021452e-05 -8.069852e-06
000060 10 98 c6 b7 94 2c 30 b7 ff 94 e2 b6 34 46 3e 34
       -2.3674249e-05 -1.0500797e-05 -6.7526703e-06 1.7720669e-07
000070 63 6d 2b b7 cb ae 11 b7 32 c6 0c b7 ea 73 08 b7
       -1.0217863e-05 -8.683371e-06 -8.390796e-06 -8.13322e-06
000080 32 c6 0c b7 e9 73 08 b7 8a a1 a8 3c 7f 25 60 3b
       -8.390796e-06 -8.133219e-06 0.02058484 0.0034202037
000090 c5 2d ae af 68 b6 15 b0 9f 59 07 b0 d0 4b 43 b0
       -3.1682937e-10 -5.44651e-10 -4.9240073e-10 -7.1048323e-10
0000a0 76 a2 5b b0 7e 95 92 b0 73 c7 de 2e c6 66 73 af
       -7.9902607e-10 -1.0665386e-09 1.01308205e-10 -2.2137234e-10
0000b0 36 fd 84 b1 06 ab 92 b1 1f 9e f0 b0 2e a5 f4 b0
       -3.8704924e-09 -4.2686024e-09 -1.7507239e-09 -1.7800283e-09
0000c0 06 25 05 b0 21 24 39 b1 2d 2c 30 b1 9d 79 36 b1
       -4.843773e-10 -2.694158e-09 -2.5636482e-09 -2.6553615e-09
0000d0 3c 8e e1 af ad c2 29 b1 7b c5 da b0 3c d7 46 b1
       -4.1028325e-10 -2.4703397e-09 -1.5917715e-09 -2.8935139e-09
0000e0 d4 e7 89 af 67 8d 3a b1 10 87 59 af 2c 88 ea b0
       -2.508488e-10 -2.714694e-09 -1.9784019e-10 -1.7064443e-09
0000f0 b7 50 8a af 47 f0 eb b0 a0 60 15 ae 54 87 b6 b0
       -2.5159405e-10 -1.7166791e-09 -3.3964498e-11 -1.3280705e-09
000100 91 28 5a ae e6 0f b6 b0 b4 d0 73 2c 5e 49 ab b0
       -4.960349e-11 -1.3246761e-09 3.464823e-12 -1.246274e-09
000110 b4 d0 73 2c 5e 49 ab b0 46 05 26 b5 0c b0 4b b3
       3.464823e-12 -1.246274e-09 -6.184749e-07 -4.7424734e-08
000120 59 df 4b 37 dc 8a da 37 a6 71 87 38 c8 5d 39 38
       1.2151745e-05 2.6052287e-05 6.45847e-05 4.4194778e-05
000130 4a c6 41 38 af 62 29 38 05 ae ce 37 ed e7 c9 37
       4.6199457e-05 4.0384646e-05 2.4638148e-05 2.4069066e-05
000140 0d 2e 40 38 d2 7d 15 38 1a 4f 24 37 4e 42 73 37
       4.5819255e-05 3.5641548e-05 9.793579e-06 1.4499366e-05
000150 32 5d 28 38 8b 77 fa 37 03 df 21 37 7c 93 76 37
       4.0141116e-05 2.9857989e-05 9.648272e-06 1.46970815e-05
000160 bc 01 3c 38 4c 8f ea 37 a1 d9 23 38 29 a9 f4 37
       4.4824308e-05 2.7961702e-05 3.906491e-05 2.9165838e-05
000170 1d 3d f2 37 ae df f4 37 9b 11 25 38 97 43 20 38
       2.8877106e-05 2.9191226e-05 3.9355462e-05 3.820992e-05
000180 16 8c 08 38 e2 13 19 38 8c 22 5c 38 a9 a8 6f 38
       3.2555392e-05 3.649656e-05 5.248426e-05 5.7139117e-05
000190 ef bb 7a 38 4b 64 81 38 3f fc 41 38 25 75 82 38
       5.977967e-05 6.16988e-05 4.624971e-05 6.220703e-05
0001a0 3f fc 41 38 25 75 82 38 81 5a 23 3c b0 7b 56 3a
       4.624971e-05 6.220703e-05 0.009970308 0.0008181883
0001b0 b1 dc a6 35 52 58 15 38 93 7b 16 36 3f 32 1b 38
       1.2432193e-06 3.5606623e-05 2.2423671e-06 3.7001675e-05
0001c0 c2 bd 73 37 6e 1f 52 38 21 64 1c b7 53 4c 07 38
       1.452811e-05 5.0097173e-05 -9.321638e-06 3.225759e-05
0001d0 93 4e a4 36 a4 40 7b 38 b4 5f b6 38 0c 75 64 38
       4.896728e-06 5.9903265e-05 8.6962624e-05 5.4468444e-05
0001e0 72 99 7b 36 84 8e 0c 38 7e f3 9e 38 de 66 6c 38
       3.7491232e-06 3.351133e-05 7.579381e-05 5.6362587e-05
0001f0 c9 33 14 b8 04 4f 91 38 9f bb bc 38 31 48 4a 38
       -3.533418e-05 6.9288566e-05 8.999486e-05 4.8227786e-05
000200 51 18 bb 37 b1 97 53 38 3b cf 4a 38 f4 83 25 38
       2.230346e-05 5.0447594e-05 4.835355e-05 3.9461956e-05
000210 82 21 12 b7 9d 59 1e b6 8b ba 6d 36 98 df c7 b6
       -8.71008e-06 -2.3595996e-06 3.5424334e-06 -5.956692e-06
000220 28 26 09 38 df 46 b6 37 df a7 17 b6 e1 45 a1 37
       3.269888e-05 2.1729093e-05 -2.2598467e-06 1.9225236e-05
000230 df a7 17 b6 e1 45 a1 37 bd 03 28 3a 36 ff 63 3c
       -2.2598467e-06 1.9225236e-05 0.00064092485 0.0139158275
000240 41 0b 80 b8 f9 7d 98 b8 0c 79 b2 b8 e1 58 74 b8
       -6.105612e-05 -7.271389e-05 -8.510248e-05 -5.825691e-05
000250 4d 8c 6f b8 00 34 3b b8 cd 58 dd b7 33 be 33 b8
       -5.7112706e-05 -4.4632703e-05 -2.6386604e-05 -4.2854062e-05
000260 35 a8 ab b8 d5 05 a3 b8 93 80 f8 b7 8a 32 39 b8
       -8.1852464e-05 -7.773532e-05 -2.9623776e-05 -4.4154505e-05
000270 bb a3 c8 b8 77 8a 8e b8 e2 06 0a b8 7a 60 a3 b8
       -9.56724e-05 -6.796879e-05 -3.2908174e-05 -7.790416e-05
000280 66 8c 83 b8 c3 7d f9 b8 ee 26 83 b8 88 e7 ae b8
       -6.272718e-05 -0.0001189667 -6.253818e-05 -8.3400926e-05
000290 d8 74 b0 b8 f3 11 a7 b8 86 67 48 b8 cc fc bb b8
       -8.414098e-05 -7.966524e-05 -4.778013e-05 -8.963942e-05
0002a0 e9 06 46 b8 60 5f af b8 ce 67 99 b8 31 35 c7 b8
       -4.7213314e-05 -8.362415e-05 -7.314944e-05 -9.498967e-05
0002b0 02 b9 b7 b8 47 d7 dc b8 32 c2 7c b8 a2 1d c2 b8
       -8.7605804e-05 -0.00010530516 -6.026234e-05 -9.2561604e-05
0002c0 32 c2 7c b8 a2 1d c2 b8 b8 0f 76 bc 63 5f 25 bc
       -6.026234e-05 -9.2561604e-05 -0.015018396 -0.010093543
0002d0 34 6c 98 b6 c7 02 e4 35 df 35 24 b6 dd fb 08 b7
       -4.5425495e-06 1.6988132e-06 -2.4469261e-06 -8.164873e-06
0002e0 3d ff a9 36 3c 45 04 b6 81 25 72 b7 1b 89 68 b7
       5.066306e-06 -1.9709832e-06 -1.4433056e-05 -1.38602e-05
0002f0 49 00 98 37 95 77 bb 37 71 6e 02 b8 2a 41 ac b7
       1.8119945e-05 2.2347822e-05 -3.1097272e-05 -2.0534342e-05
000300 6c e8 14 37 c7 05 41 37 c1 65 04 b7 6f 7a a5 36
       8.875602e-06 1.1505042e-05 -7.8915045e-06 4.9316363e-06
000310 ee d5 8a b7 ae 38 07 37 cd 8a 81 b7 3c 34 a8 b6
       -1.65505e-05 8.059824e-06 -1.5442633e-05 -5.012871e-06
000320 ec 20 a7 37 a6 bb 08 38 73 81 27 b7 01 b5 3c b6
       1.9923282e-05 3.2599688e-05 -9.984115e-06 -2.8119541e-06
000330 aa 65 f8 b6 00 bc 39 37 78 6e d8 b7 9a 12 9c b7
       -7.402811e-06 1.1070631e-05 -2.5800648e-05 -1.8605311e-05
000340 41 b6 97 37 34 2e b3 37 d6 3b 9d 37 b5 d0 b9 37
       1.8085471e-05 2.1359978e-05 1.8743722e-05 2.2150905e-05
000350 d6 3b 9d 37 b5 d0 b9 37 81 aa 71 3b 6e 4a bf ba
       1.8743722e-05 2.2150905e-05 0.003687531 -0.0014594325
000360 83 39 7f 38 8d e5 12 38 a4 33 6b 38 98 36 ff 37
       6.08503e-05 3.50229e-05 5.607646e-05 3.0423791e-05
000370 2d 28 43 38 2a c6 81 37 12 c4 61 b5 77 d3 80 37
       4.652904e-05 1.5470276e-05 -8.410435e-07 1.535726e-05
000380 91 aa 6d 37 b3 68 bb 37 d8 26 09 38 cd c1 1c 37
       1.4166014e-05 2.2340892e-05 3.269952e-05 9.343447e-06
000390 5d c7 99 37 fd 71 2e 38 2b 86 19 38 8f fa c6 37
       1.8331857e-05 4.1590993e-05 3.6602996e-05 2.3720115e-05
0003a0 9d 52 ed 37 32 d1 6b 38 53 28 7f 38 4d 91 73 38
       2.8291071e-05 5.6223194e-05 6.0834293e-05 5.8071037e-05
0003b0 4c 39 30 b6 44 98 1f 37 12 6c 54 38 05 00 2e 38
       -2.6259395e-06 9.512591e-06 5.0645387e-05 4.148485e-05
0003c0 47 a0 3f b7 57 63 33 b7 6a 78 4e 38 23 af 1b 38
       -1.1421805e-05 -1.0692361e-05 4.922637e-05 3.711799e-05
0003d0 5c 86 a1 36 ee 1a e9 35 2b 83 a9 36 75 d5 c6 37
       4.8138154e-06 1.736769e-06 5.0518624e-06 2.3702838e-05
0003e0 2b 83 a9 36 75 d5 c6 37 e3 85 87 b9 b3 e3 f5 3b
       5.0518624e-06 2.3702838e-05 -0.0002584896 0.0075039505
0003f0 36 a0 08 b7 a2 99 80 b6 df b5 83 38 83 bb 16 38
       -8.143534e-06 -3.8325825e-06 6.280443e-05 3.593742e-05
