results/RockPaperScissors4_200_Duplicates/Strategy/checkpoint.pt (torch, 424519 bytes, 33 tensors)

network_body._body_endoder.seq_layers.0.weight f4 [128, 1]
-1.8118773 0.042406004 0.28135553 0.418788 -1.875038 -0.76378524 -0.5220266 -1.875203
-1.2236108 1.2963113 -0.6554179 0.32931018 -1.0093734 -0.16082683 -0.87631804 -0.5136095
0.7341003 0.51619756 -0.57009065 0.24647574 1.6193638 0.5095912 -0.18007128 -1.280077
-1.0915693 -0.9497105 -0.6067031 -1.3292534 0.5461921 0.004580464 -0.18382986 0.98226726
-1.7973787 1.738581 0.77684575 0.2553248 0.20805375 1.3305334 -1.2087147 -0.5582245
0.575027 -1.5084003 0.1059537 1.581308 -0.92001194 0.60953504 0.13872898 0.2533003
0.082086675 0.7849047 0.6785535 2.7387998 -0.9935276 0.78349274 -0.9284359 -1.6997218
-0.078324206 0.9578054 0.35461715 -0.71726936 -1.4425001 -0.68742704 0.020148879 0.81343067
-0.16518004 -0.4960204 0.57909566 -0.27851287 0.4573155 -0.498939 -1.233746 0.3311163
0.28538644 0.05547878 -0.9300734 -1.2044952 0.7898172 1.1853572 -0.5937744 -0.062368397
-1.5624319 1.5972589 -0.08377075 -1.2990165 0.40491647 -0.10454584 -0.3052835 2.6725092
0.19488847 -1.2664031 -1.3092904 0.10876625 -0.3664161 -0.8576595 0.801311 1.414638
0.6700344 1.2737892 1.4626105 -0.8642206 1.0465515 -1.8267972 0.6948897 1.9692497
0.716474 0.6179382 -0.24000785 -0.70987034 0.806444 -0.63314605 1.0784231 -0.33750966
-1.6981245 0.5718025 1.5938302 1.0121499 -2.4753914 1.0083622 1.6009383 0.6615966
0.6696639 -1.1626576 1.8018825 -1.2374382 -0.67810583 0.14645092 -1.8214582 1.6687822
00000000: 98eb e7bf ebb1 2d3d d50d 903e 616b d63e
00000010: 3f01 f0bf 6e87 43bf 89a3 05bf a706 f0bf
00000020: 479f 9cbf 87ed a53f 78c9 27bf 589b a83e
00000030: 2633 81bf caaf 24be 6156 60bf ea7b 03bf
00000040: ffed 3b3f 8625 043f 76f1 11bf 2364 7c3e
00000050: 5047 cf3f 9274 023f 9b64 38be 90d9 a3bf
00000060: 8bb8 8bbf 3a20 73bf e550 1bbf fa24 aabf
00000070: 3fd3 0b3f b817 963b e53d 3cbe de75 7b3f
00000080: 8110 e6bf d289 de3f 5ddf 463f efb9 823e
00000090: 0b0c 553e eb4e aa3f 2ab7 9abf cde7 0ebf
000000a0: f834 133f 4313 c1bf 41fe d83d 4d68 ca3f
000000b0: e785 6bbf 7d0a 1c3f f80e 0e3e 94b0 813e
000000c0: 0f1d a83d 84ef 483f afb5 2d3f 7f48 2f40
000000d0: d357 7ebf fb92 483f faad 6dbf 7c90 d9bf
000000e0: 7168 a0bd bc32 753f 6190 b53e f79e 37bf
000000f0: d8a3 b8bf 38fb 2fbf 430f a53c fe3c 503f
00000100: f524 29be 63f6 fdbe 9d3f 143f 3d99 8ebe
00000110: 4225 ea3e ef74 ffbe 64eb 9dbf 1388 a93e
00000120: 2c1e 923e b83d 633d 4a19 6ebf e62c 9abf
00000130: 7631 4a3f c9b9 973f 9901 18bf 0176 7fbd
00000140: c5fd c7bf fb72 cc3f 0090 abbd 2c46 a6bf
00000150: 3651 cf3e 211c d6bd 1e4e 9cbe 640a 2b40
00000160: d890 473e 7f19 a2bf d496 a7bf d7c0 de3d
00000170: e49a bbbe 938f 5bbf b822 4d3f dc12 b53f
00000180: 6087 2b3f 860b a33f d236 bb3f 903d 5dbf
00000190: 66f5 853f 7ed4 e9bf 4be4 313f 6010 fc3f
000001a0: d76a 373f 3331 1e3f 9ec4 75be 10ba 35bf
000001b0: 1d73 4e3f dc15 22bf c509 8a3f 11ce acbe
000001c0: 255c d9bf a661 123f a102 cc3f 218e 813f
000001d0: d06c 1ec0 0312 813f 8ceb cc3f 655e 293f
000001e0: 186f 2b3f f7d1 94bf 16a4 e63f 6064 9ebf
000001f0: 5898 2dbf 3bf7 153e 8b25 e9bf a89a d53f

network_body._body_endoder.seq_layers.0.bias f4 [128]
0.12895754 -0.18220988 -0.17013837 -0.16860323 0.14637342 0.16554724 -0.18539152 0.15544057
0.123310566 0.04259169 -0.11854113 -0.16675296 0.14659218 0.19436736 -0.18624158 0.16563754
-0.15944526 -0.12881507 0.16688237 -0.16378799 -0.09041299 -0.1542328 0.18549362 0.12993808
0.123388775 0.104285166 -0.19027089 0.14395338 -0.1467721 0.19903006 -0.18232948 0.05433486
0.13406625 -0.1385399 -0.16602528 -0.10520059 -0.17435747 -0.15101035 0.10684014 -0.18525065
-0.16137567 0.15240413 -0.17415968 -0.12405768 0.1699551 -0.121709034 -0.15927191 -0.15466979
-0.1811398 -0.16079633 -0.15992782 -0.13346855 0.15904905 -0.05193389 0.16331382 0.14989294
0.18893553 -0.13786691 -0.16585357 0.13518444 0.14180586 0.1640138 -0.18924356 -0.16214192
0.18424885 -0.19993128 -0.14834195 0.18661895 0.14919816 0.17681159 0.15637928 -0.18051898
-0.0015722421 -0.18269962 0.15763897 0.1320607 -0.14634728 -0.13181672 0.16581388 0.18888357
-0.18420282 -0.13946424 -0.17657922 0.09963166 -0.06851125 -0.1870936 0.1728844 -0.12557362
-0.1507492 0.14401264 0.1452516 -0.18429372 0.14515902 -0.1905437 -0.16406657 -0.16320309
-0.16454168 -0.13361034 -0.11849595 0.1555808 -0.11614791 0.14477375 -0.14754447 -0.13573103
-0.1401349 -0.15962966 0.16910397 0.15990217 -0.14332576 -0.18118127 -0.1564166 0.17654541
0.12608555 -0.15536681 -0.15231016 -0.14411046 0.17030343 -0.1635714 -0.14623857 -0.14887847
-0.15488318 0.089466475 -0.10081522 0.08535722 -0.015382144 -0.17077194 0.15401055 -0.14581019
00000000: 720d 043e 3a95 3abe c138 2ebe 53a6 2cbe
00000010: eae2 153e 3785 293e 46d7 3dbe d02b 1f3e
00000020: 408a fc3d a074 2e3d b1c5 f2bd 4ac1 2abe
00000030: 431c 163e 3d08 473e 1db6 3ebe e39c 293e
00000040: 9e45 23be 19e8 03be 36e3 2a3e 0ab8 27be
00000050: 722a b9bd 34ef 1dbe 0af2 3d3e 7d0e 053e
00000060: 41b3 fc3d 7693 d53d 5fd6 42be 8468 133e
00000070: 6d4b 16be 89ce 4b3e 94b4 3abe 3b8e 5e3d
00000080: aa48 093e 67dd 0dbe 8802 2abe 6873 d7bd
00000090: c48a 32be 75a2 1abe 01cf da3d 59b2 3dbe
000000a0: aa3f 25be d40f 1c3e ea56 32be f411 febd
000000b0: b608 2e3e 9642 f9bd 2d18 23be c261 1ebe
000000c0: b67c 39be cba7 24be 1ec4 23be fbab 08be
000000d0: c1dd 223e a1b8 54bd bd3b 273e 897d 193e
000000e0: 5178 413e fc2c 0dbe 85d5 29be ca6d 0a3e
000000f0: 8e35 113e 3cf3 273e 10c9 41be 8808 26be
00000100: bbab 3c3e c9ba 4cbe f4e6 17be 0a19 3f3e
00000110: 67c7 183e 190e 353e e421 203e f8d9 38be
00000120: b113 ceba 9c15 3bbe 1c6c 213e ec3a 073e
00000130: 10dc 15be f6fa 06be 1dcb 293e b26a 413e
00000140: aa9f 3cbe b7cf 0ebe 2fd1 34be af0b cc3d
00000150: a04f 8cbd 7795 3fbe 9c08 313e 5f96 00be
00000160: 005e 1abe 0d78 133e d6bc 143e 7eb7 3cbe
00000170: 91a4 143e e31d 43be 1101 28be b61e 27be
00000180: 9d7d 28be 26d1 08be 01ae f2bd 9350 1f3e
00000190: f5de edbd 923f 143e e615 17be 13fd 0abe
000001a0: 867f 0fbe f575 23be 9729 2d3e 65bd 233e
000001b0: fdc3 12be 9587 39be ac2b 20be 52c8 343e
000001c0: 921c 013e 7a18 1fbe 32f7 1bbe b191 13be
000001d0: 0664 2e3e 437f 27be 90bf 15be 9973 18be
000001e0: b299 1ebe 333a b73d 3678 cebd c4cf ae3d
000001f0: 6305 7cbc d7de 2ebe f1b4 1d3e 444f 15be

network_body._body_endoder.seq_layers.2.weight f4 [128, 128]
-0.12874664 0.043685917 -0.05808766 0.030327993 -0.16457933 -0.123010516 -0.21440423 -0.09444507
-0.15149687 -0.0092250975 0.025371319 0.013073263 -0.35917136 0.07659816 -0.03168066 0.08043129
-0.029132884 -0.03660268 -0.25037575 -0.11052523 0.020767193 0.22575395 -0.10605408 -0.16536494
-0.031326383 0.03727188 -0.0863912 -0.05175484 -0.0014355932 0.085434735 -0.1900102 -0.1590436
-0.0021074521 0.03499865 -0.11322661 0.1792629 -0.040505033 -0.08743941 -0.04748604 0.12010358
0.030596163 -0.27331927 0.09872986 -0.004700376 -0.031555787 -0.03336263 -0.059011273 0.103044115
-0.114658 0.01564264 -0.10929586 0.06377124 -0.017110726 -0.04048242 -0.034785315 -0.27544668
0.08885087 -0.0049696807 0.027745431 -0.021852653 -0.11045609 -0.24053158 0.03480639 -0.06986996
-0.0038372609 -0.028450662 -0.0544443 0.008751391 0.023731777 0.070166744 -0.09123402 0.11724578
0.16286752 -0.15240988 -0.102858365 -0.087369256 0.11295884 0.03247372 -0.07146166 -0.10239376
-0.0028462098 0.016958842 0.120696515 -0.13468052 0.118285574 -0.08383582 -0.122649886 0.14924724
0.02677997 -0.11335517 -0.033658102 -0.19872369 -0.20236109 -0.14446865 0.1014667 0.16194662
-0.027112834 0.07438587 -0.2366047 -0.0864019 0.028015565 -0.22973879 -0.050362043 0.06633124
0.055618394 0.023277147 0.03778716 -0.16486464 -0.14941789 -0.066958494 0.0006221318 -0.04334116
-0.22756805 0.01109015 0.030892422 -0.07976198 -0.13532922 -0.071021006 0.012878782 0.047084514
-0.09432983 -0.27906367 -0.083053805 -0.043109797 -0.20945928 -0.0346655 0.0066277604 -0.041245732
-0.19697069 0.25093186 0.07595602 0.12679014 -0.14063348 -0.14560282 -0.05635653 -0.19837359
-0.15193057 0.030865371 -0.10881237 0.11382099 -0.45453483 -0.1439944 -0.014112227 -0.09506062
-0.026011784 0.012461944 -0.06588207 0.06279687 -0.020041432 0.04341296 -0.03649419 -0.083305776
-0.13990077 -0.09517147 0.09499411 -0.1375719 0.20248105 -0.12461083 0.02300782 0.1418182
-0.021384832 -0.018785084 0.083095364 0.11672304 0.149515 -0.02162283 0.037970096 -0.016802944
0.086664096 -0.091311306 0.18185493 0.12751514 -0.18521097 0.25836724 -0.12205306 0.07120087
0.011327468 0.015231357 0.041315433 -0.009257016 -0.18038948 0.07558039 -0.053725954 -0.100904755
-0.23892961 0.066254646 0.34592476 -0.08571366 -0.079563156 0.06961103 0.23073581 0.06608937
-0.059939038 0.08119518 0.07279512 -0.048373792 0.15455066 -0.1015087 -0.19597128 0.106260255
-0.028410096 0.0986771 -0.10399777 -0.12044742 0.012639541 0.13035305 -0.007869913 -0.14027305
-0.15177338 0.0340824 0.19602169 -0.15594742 0.115403146 0.13531858 -0.079053625 -0.013199358
0.11897432 -0.08746337 -0.12305777 -0.03791353 -0.0911491 -0.115129255 -0.10384963 -0.044463888
0.06572852 0.04983742 0.011279359 0.011002024 0.04532568 0.04733696 0.061510917 0.04389421
0.021440148 0.07452066 -0.16367029 -0.15575413 0.034756497 -0.08898387 -0.13238747 -0.08687444
-0.13429156 -0.041145086 -0.011627814 0.039470423 -0.1286499 0.055546924 0.09975458 0.17623748
-0.020628639 -0.11712245 0.11552251 0.09369909 -0.13613199 0.21685548 -0.07147039 0.07036647
00000000: 29d6 03be 01f0 323d 54ed 6dbd 6972 f83c
00000010: 7c87 28be f0ec fbbd c88c 5bbe 6b6c c1bd
00000020: ff21 1bbe dd24 17bc 83d7 cf3c 3d31 563c
00000030: 4fe5 b7be 7fdf 9c3d 94c3 01bd 29b9 a43d
00000040: 16a8 eebc b1ec 15bd 4031 80be 0d5b e2bd
00000050: f61f aa3c 0b2c 673e e232 d9bd 6d55 29be
00000060: 1850 00bd 66aa 183d dfed b0bd e2fc 53bd
00000070: 842a bcba 68f8 ae3d 0992 42be 53dc 22be
00000080: 2e1d 0abb bf5a 0f3d 5ae3 e7bd b290 373e
00000090: 9be8 25bd 6f13 b3bd b980 42bd def8 f53d
000000a0: cea4 fa3c 81f0 8bbe e132 ca3d 9d05 9abb
000000b0: a440 01bd 41a7 08bd ceb5 71bd cb08 d33d
000000c0: d0d1 eabd fe24 803c 82d6 dfbd 7f9a 823d
000000d0: cb2b 8cbc e5d0 25bd 0c7b 0ebd 5907 8dbe
000000e0: 72f7 b53d b4d8 a2bb 634a e33c 5604 b3bc
000000f0: cd36 e2bd e94d 76be 2591 0e3d fb17 8fbd
00000100: 8e7a 7bbb 5d11 e9bc fc00 5fbd ff61 0f3c
00000110: 2569 c23c 95b3 8f3d e7d8 babd 8e1e f03d
00000120: bec6 263e 5611 1cbe 68a7 d2bd a7ee b2bd
00000130: f756 e73d 2a03 053d 7e5a 92bd d2b3 d1bd
00000140: 7a87 3abb 45ed 8a3c bc2f f73d b1e9 09be
00000150: b53f f23d 1db2 abbd dd2f fbbd 45d4 183e
00000160: ab61 db3c c126 e8bd 14dd 09bd 397e 4bbe
00000170: bf37 4fbe 97ef 13be c6cd cf3d 56d5 253e
00000180: bc1b debc 9e57 983d 8148 72be 7bf3 b0bd
00000190: e680 e53c a540 6bbe 6e48 4ebd acd8 873d
000001a0: 1dd0 633d b7af be3c b6c6 1a3d 47d2 28be
000001b0: 0101 19be 8921 89bd 8f16 233a 8086 31bd
000001c0: 9907 69be 76b3 353c 1b12 fd3c 405a a3bd
000001d0: be93 0abe 7673 91bd 8701 533c b1db 403d
000001e0: ff2f c1bd 6fe1 8ebe 1d18 aabd e693 30bd
000001f0: 7e7c 56be 69fd 0dbd af2d d93b 49f1 28bd
00000200: afb2 49be 247a 803e d48e 9b3d 46d5 013e
00000210: 3902 10be e818 15be 1bd6 66bd 7222 4bbe
00000220: b093 1bbe 60d9 fc3c 05d9 debd fb1a e93d
00000230: cab8 e8be 4573 13be f836 67bc 24af c2bd
00000240: aa16 d5bc 2e2d 4c3c 2eed 86bd a59b 803d
00000250: ee2d a4bc cad1 313d ef7a 15bd 389c aabd
00000260: 2642 0fbe 42e9 c2bd 468c c23d a6df 0cbe
00000270: 3157 4f3e f633 ffbd e57a bc3c ca38 113e
00000280: 3e2f afbc 2de3 99bc e72d aa3d 7d0c ef3d
00000290: 761a 193e 5c22 b1bc 8886 1b3d 54a6 89bc
000002a0: f27c b13d 6c01 bbbd 2e38 3a3e 5493 023e
000002b0: f2a7 3dbe b648 843e f4f6 f9bd c3d1 913d
000002c0: d896 393c f18c 793c 5f3a 293d bdaa 17bc
000002d0: 05b8 38be e4c9 9a3d bf0f 5cbd 27a7 cebd
000002e0: f7a9 74be 84b0 873d 0d1d b13e a58a afbd
000002f0: 02f2 a2bd 3a90 8e3d 0246 6c3e dd59 873d
00000300: a382 75bd a949 a63d 9c15 953d 9923 46bd
00000310: 8742 1e3e cbe3 cfbd b2ac 48be fa9e d93d
00000320: 4abc e8bc 3817 ca3d c8fc d4bd 23ad f6bd
00000330: 1416 4f3c 457b 053e cff0 00bc bda3 0fbe
00000340: 7b6a 1bbe fd99 0b3d e9b9 483e aeb0 1fbe
00000350: 7c58 ec3d f490 0a3e dee6 a1bd 1f42 58bc
00000360: cfa8 f33d ff1f b3bd b605 fcbd 384b 1bbd
00000370: 61ac babd e3c8 ebbd 1daf d4bd c41f 36bd
00000380: ad9c 863d 5322 4c3d 10cd 383c d541 343c
00000390: 6ca7 393d 66e4 413d dff2 7b3d 6aca 333d
000003a0: 40a3 af3c 4a9e 983d 2f99 27be 037e 1fbe
000003b0: d45c 0e3d 2d3d b6bd 9590 07be 3aeb b1bd
000003c0: ba83 09be c087 28bd 9682 3ebc bdab 213d
000003d0: cdbc 03be 2c85 633d 214c cc3d 9977 343e
000003e0: 64fd a8bc e5dd efbd 1197 ec3d 4fe5 bf3d
000003f0: 2f66 0bbe 5d0f 5e3e 115f 92bd 4c1c 903d

network_body._body_endoder.seq_layers.2.bias f4 [128]
0.006005941 -0.10671009 -0.13184738 -0.16164815 0.14460129 -0.12762368 -0.09160699 0.15900813
0.13862467 0.15048322 0.135032 -0.1078485 -0.1465003 0.03607302 0.14507139 0.14101258
-0.11540666 0.15844613 -0.119827494 -0.10670049 0.13655382 -0.022851108 -0.09134748 0.023568535
-0.108611085 -0.0815802 0.03299771 -0.118534245 0.1481305 -0.109994486 -0.046841834 0.14771612
0.1405139 0.005813821 -0.116425365 0.15134215 0.052783825 0.13764793 0.16293775 -0.10874362
-0.1100547 0.140023 -0.052201726 0.1589324 -0.03765104 0.15810113 0.07042959 0.07744819
-0.11409059 0.015356666 0.1527396 -0.10879736 0.16697833 -0.10201436 -0.07397433 0.14946885
0.12486249 -0.0997066 0.10062103 -0.079887144 0.07116705 0.16621384 -0.09921074 -0.035171248
0.0631576 0.13967782 -0.029868443 0.14281605 0.15275185 0.15429628 0.13761367 -0.103467695
0.11241977 0.117568195 -0.10029237 -0.12741426 -0.063145906 -0.12318449 0.044958375 0.11835403
0.14047205 -0.11594552 -0.08202984 0.10275905 0.13175519 -0.1224255 -0.11208483 -0.08272768
0.10272095 0.031607304 -0.118293524 0.15438062 0.12979998 -0.070921384 -0.055619422 -0.058053713
0.14643966 0.104392976 -0.10637421 0.10860112 -0.00811187 0.1463682 -0.11946791 0.031506628
0.16308966 -0.12386346 -0.1242876 0.14162955 -0.059892643 -0.022504112 0.041185707 -0.08563113
0.16198353 -0.06326502 -0.10289842 0.13671805 0.123806134 0.15028149 -0.0808901 0.14646657
0.092191845 -0.12734674 0.018188922 -0.078855224 0.15890901 0.07852819 -0.013381142 -0.04990045
00000000: 7ccd c43b d28a dabd 0003 07be 1887 25be
00000010: 5c12 143e c8af 02be 729c bbbd 07d3 223e
00000020: a0f3 0d3e 4618 1a3e d445 0a3e addf dcbd
00000030: 2d04 16be 4ec1 133d 988d 143e 9a65 103e
00000040: 545a ecbd b43f 223e 1e68 f5bd c985 dabd
00000050: c4d4 0b3e 3f32 bbbc 6314 bbbd cd12 c13c
00000060: 7d6f debd 8513 a7bd 9b28 073d 15c2 f2bd
00000070: 86af 173e ca44 e1bd 39dd 3fbd e542 173e
00000080: e0e2 0f3e de81 be3b 6c70 eebd 70f9 1a3e
00000090: da33 583d 94f3 0c3e 27d9 263e fab4 debd
000000a0: 5c64 e1bd 3062 0f3e 7ad1 55bd 2dbf 223e
000000b0: fa37 1abd 43e5 213e 643d 903d 289d 9e3d
000000c0: 54a8 e9bd 879a 7b3c c567 1c3e 26d1 debd
000000d0: 5efc 2a3e e8ec d0bd db7f 97bd 5d0e 193e
000000e0: e8b7 ff3d f932 ccbd 6612 ce3d df9b a3bd
000000f0: 08c0 913d f633 2a3e 002f cbbd ba0f 10bd
00000100: c658 813d b407 0f3e aaae f4bc 5f3e 123e
00000110: fb6a 1c3e d8ff 1d3e 99ea 0c3e dfe6 d3bd
00000120: 563c e63d 98c7 f03d 1666 cdbd e278 02be
00000130: a452 81bd 2648 fcbd 4626 383d 9963 f23d
00000140: e8d7 0f3e d874 edbd 43ff a7bd 5673 d23d
00000150: d5ea 063e 38ba fabd bb8c e5bd 216d a9bd
00000160: 5d5f d23d a976 013d e043 f2bd f415 1e3e
00000170: 49ea 043e 3b3f 91bd 31d1 63bd bbc9 6dbd
00000180: 47f4 153e fccb d53d b9da d9bd 446a de3d
00000190: a6e7 04bc 8ce1 153e 97ab f4bd 180d 013d
000001a0: fa00 273e 20ac fdbd 7f8a febd 5607 113e
000001b0: fd51 75bd 8b5a b8bc 58b2 283d 605f afbd
000001c0: 03df 253e 1791 81bd 68bc d2bd d1ff 0b3e
000001d0: 128e fd3d 64e3 193e b5a9 a5bd 55fb 153e
000001e0: 14cf bc3d 2f67 02be ef00 953c d97e a1bd
000001f0: 0bb9 223e 63d3 a03d 943c 5bbc 6a64 4cbd

action_model._discrete_distribution.branches.0.weight f4 [3, 128]
-0.0680875 0.017256873 0.09155557 0.10188447 0.00012758219 0.023805203 0.077601664 -0.09281977
-0.048932042 -0.0054737707 0.00799769 0.12235775 0.059215497 -0.04044886 -0.018593447 -0.0039830217
0.05465088 -0.015911356 0.053435583 0.031881835 -0.114351735 -0.019121483 0.033761438 -0.07845993
0.0491928 0.01915801 -0.014601692 0.09172561 -0.02221867 0.060918108 0.007916932 -0.016653767
0.0051064384 -0.076248735 0.06647647 -0.009985404 -0.08586219 -0.1259973 -0.08950873 0.08369968
0.058692522 -0.025483504 -0.028311174 -0.04769044 -0.027899655 -0.041823693 0.050501015 0.07001532
0.018336123 0.11791895 -0.013834013 0.05382246 -0.11827599 0.042697925 0.09110156 0.0008953645
-0.12896082 0.054717377 -0.098278545 -0.0022850984 -0.070734344 -0.06979085 0.025991384 0.07033479
-0.017636033 0.0027355193 0.06444027 -0.009291327 -0.023624834 -0.035270978 0.017891072 0.026875686
-0.12397684 -0.107051864 0.06690601 0.06614693 0.03427914 0.05367617 -0.035389706 0.022448625
-0.011632607 0.09134793 0.039218567 -0.11169652 0.004219141 0.03814385 0.046927217 0.009661892
-0.1012114 -0.0629061 0.053005997 -0.041870788 0.028248275 0.023822572 0.097486764 -0.009660512
-0.010401271 0.044028472 0.041218754 -0.08498164 -0.026884513 -0.008389562 0.061059285 -0.0835667
-0.059341457 0.061428238 0.11974094 0.0008548187 -0.018876739 -0.037144937 -0.066775806 0.00852432
-0.04142199 -0.00017374236 0.02306563 -0.008286455 -0.10359555 -0.10072238 0.04024473 -0.022131631
-0.012549929 0.06252641 -0.086222745 0.055815626 -0.09453462 -0.08215424 0.058466773 -0.020225788
-0.074435815 -0.11119421 -0.07910404 -0.10279596 0.10615266 -0.13072398 -0.041856036 0.015479392
0.08519558 0.106085405 0.10241024 -0.07393117 -0.03061181 -0.022445649 0.1342712 0.1184933
-0.018989775 0.11413039 -0.041626196 -0.025004512 0.039482757 -0.050870232 -0.05723859 -0.075059816
-0.03549281 -0.08829957 -0.01053015 -0.0737185 0.12262239 -0.018090507 -0.036608107 0.13518058
0.1218695 -0.08777233 -0.042963255 0.1109145 -0.054604433 0.032382533 0.13132012 -0.047756072
-0.026644895 0.14733338 -0.10024615 0.124888144 -0.06045444 0.14064896 0.073443 0.06886396
-0.06085171 0.042436026 0.115107045 -0.022837784 0.055051733 -0.029028729 -0.04192101 0.118230484
0.012815286 -0.016337935 -0.055100564 -0.103410244 -0.027573794 0.13436481 -0.036216076 0.0099302875
0.0023091384 0.12565778 -0.0057158773 0.1285202 0.12689167 0.13282385 0.114957005 -0.08888695
-0.0033768283 -0.013237876 -0.040709637 -0.0403956 -0.0056855213 -0.07572811 -0.017503502 0.09787818
0.13166943 -0.06304717 -0.02207356 -0.022366665 0.11509009 -0.035774574 -0.017926872 -0.0127919465
-0.027581964 -0.07080066 -0.036510326 0.13494124 0.123930775 -0.013489166 -0.025547126 -0.069995396
0.1169195 0.080536194 -0.02796176 -0.010621682 -0.035542406 0.12072311 -0.038123865 -0.06444594
0.1077291 -0.033922855 -0.11428989 0.1255747 -0.10529503 -0.056770515 -0.0356076 -0.08515339
0.120929144 -0.07925656 -0.031074934 0.12836476 0.00033147354 0.032810625 -0.01686463 0.122224964
0.033648636 -0.059238624 -0.07416831 -0.02201091 0.1570199 -0.026482133 -0.00345194 -0.097986884
00000000: 7671 8bbd 495e 8d3c 7d81 bb3d cea8 d03d
00000010: 95c7 0539 2103 c33c 9fed 9e3d 4b18 bebd
00000020: f76c 48bd 515d b3bb be08 033c b396 fa3d
00000030: f38b 723d b4ad 25bd 4951 98bc 0284 82bb
00000040: 9ad9 5f3d 8858 82bc 45df 5a3d 8796 023d
00000050: 3e31 eabd a8a4 9cbc 6f49 0a3d 9aaf a0bd
00000060: 647e 493d 42f1 9c3c ef3b 6fbc a3da bb3d
00000070: ee03 b6bc 4485 793d 05b6 013c 7b6d 88bc
00000080: e953 a73b 4c28 9cbd d124 883d d299 23bc
00000090: 84d8 afbd 7005 01be 5a50 b7bd bd6a ab3d
000000a0: 9267 703d c8c2 d0bc d6ec e7bc 0d57 43bd
000000b0: d18d e4bc 524f 2bbd 27da 4e3d 3164 8f3d
000000c0: a335 963c 7e7f f13d 0ea8 62bc f174 5c3d
000000d0: af3a f2bd 05e4 2e3d 7493 ba3d e5b6 6a3a
000000e0: 4e0e 04be 541f 603d 4346 c9bd 97c1 15bb
000000f0: 2bdd 90bd 81ee 8ebd e2eb d43c b00b 903d
00000100: 7179 90bc 6646 333b 43f9 833d a63a 18bc
00000110: de88 c1bc 4d78 10bd 4c90 923c 662a dc3c
00000120: 92e7 fdbd 023e dbbd 0506 893d 0b78 873d
00000130: 4968 0c3d 8bdb 5b3d ccf4 10bd 2ee6 b73c
00000140: b196 3ebc a014 bb3d a6a3 203d 25c1 e4bd
00000150: b840 8a3b ba3c 1c3d c136 403d ea4c 1e3c
00000160: ec47 cfbd ead4 80bd d11c 593d b480 2bbd
00000170: ed68 e73c 8e27 c33c 24a7 c73d 2047 1ebc
00000180: 186a 2abc 3357 343d ffd4 283d db0a aebd
00000190: e93c dcbc 6074 09bc 4d19 7a3d 0525 abbd
000001a0: 0710 73bd 2d9c 7b3d bd3a f53d e915 603a
000001b0: 64a3 9abc 4a25 18bd c1c1 88bd 97a9 0b3c
000001c0: 1baa 29bd 9c2e 36b9 22f4 bc3c e9c3 07bc
000001d0: e729 d4bd 8947 cebd a8d7 243d 654d b5bc
000001e0: 389e 4dbc d90d 803d 8d95 b0bd ed9e 643d
000001f0: 5e9b c1bd 7b40 a8bd db7a 6f3d 8db0 a5bc
00000200: ce71 98bd cab9 e3bd 4d01 a2bd b086 d2bd
00000210: 9166 d93d 82dc 05be 3c71 2bbd 479d 7d3c
00000220: 057b ae3d 4e43 d93d 76bc d13d 3a69 97bd
00000230: 9ec5 fabc f0df b7bc 647e 093e 9eac f23d
00000240: 7290 9bbc 32bd e93d 3b80 2abd 43d6 ccbc
00000250: acb8 213d 4e5d 50bd 0373 6abd f6b8 99bd
00000260: e960 11bd 68d6 b4bd a686 2cbc baf9 96bd
00000270: 7321 fb3d 8b32 94bc 62f2 15bd c76c 0a3e
00000280: b796 f93d fbc1 b3bd 3dfa 2fbd 2427 e33d
00000290: e6a8 5fbd 8ca3 043d c878 063e df9b 43bd
000002a0: 6546 dabc 90de 163e da4d cdbd 5bc5 ff3d
000002b0: 139f 77bd 4806 103e 4969 963d 8c08 8d3d
000002c0: a53f 79bd 66d1 2d3d 3ebd eb3d 4e16 bbbc
000002d0: ed7d 613d a8cd edbc 5db5 2bbd d322 f23d
000002e0: 35f7 513c 22d7 85bc 21b1 61bd c0c8 d3bd
000002f0: 70e2 e1bc ee96 093e 4f57 14bd a5b2 223c
00000300: ea54 173b 6fac 003e 414c bbbb cd9a 033e
00000310: e4ef 013e fa02 083e 946e eb3d 5c0a b6bd
00000320: c74d 5dbb ade3 58bc 26bf 26bd db75 25bd
00000330: 9c4d babb 5717 9bbd 8163 8fbc 5b74 c83d
00000340: 5ad4 063e e01e 81bd 9cd3 b4bc 4c3a b7bc
00000350: 5ab4 eb3d 5c88 12bd 60db 92bc 5095 51bc
00000360: 92f3 e1bc f0ff 90bd da8b 15bd 092e 0a3e
00000370: 6bcf fd3d aa01 5dbc 3548 d1bc bf59 8fbd
00000380: 7e73 ef3d 29f0 a43d 1010 e5bc 9006 2ebc
00000390: ea94 11bd ae3d f73d c527 1cbd 3cfc 83bd
000003a0: 13a1 dc3d b1f2 0abd d110 eabd a796 003e
000003b0: eca4 d7bd 3388 68bd 46d9 11bd e764 aebd
000003c0: b3a9 f73d 4351 a2bd dc90 febc 0d72 033e
000003d0: a0c9 ad39 6f64 063d b127 8abc 1551 fa3d
000003e0: 27d3 093d 33a4 72bd 8ee5 97bd 3950 b4bc
000003f0: d3c9 203e 0ff1 d8bc f139 62bb 59ad c8bd

action_model._discrete_distribution.branches.0.bias f4 [3]
-0.09857742 0.09207625 -0.051835664
00000000: f5e2 c9bd 7992 bc3d a251 54bd

exp_avg f4 [128, 1]
0.00016008857 -0.00060096174 -0.00047713268 -0.00031559452 0.00015465067 9.843283e-05 7.709733e-05 0.00012717771
0.0002589889 3.1546286e-05 0.00014525023 -0.00030025435 0.00024119289 0.00035443297 0.00022525237 -8.009266e-06
-0.00041819407 -0.0006231955 7.3387005e-06 -0.00063717255 0.00017140683 -0.00019520827 0.00025275146 0.0002516104
0.00032857782 0.00021421282 0.00012845141 0.00028217022 -0.000526058 0.0010257737 -0.00021611254 0.00016737392
0.00016169206 -8.704092e-05 -0.00039811493 5.519084e-05 -0.00048041434 -0.00025235186 0.0003087466 0.00010461077
-0.00035401474 0.00024591183 -0.0007478677 -0.00029204116 0.00014561568 -0.0006706182 -0.00042222196 -0.00019208556
-0.0006126213 -0.00080415385 -0.00058886333 -2.6467162e-05 0.00019351918 -0.00034840772 0.00013221809 0.00019865899
0.0008440645 -0.00065658364 -0.00045255193 0.000104688705 0.00029956436 6.535859e-05 -0.0008085078 -0.0004932086
0.0003295845 5.4621287e-05 -0.0004447538 0.00011337895 -6.8109075e-05 -8.107212e-06 0.0002589385 -0.00038945058
0.00021167338 -0.00088058354 0.00017994744 0.00032092843 -0.0005407826 -0.0006269491 1.3428867e-05 0.0008256588
0.0001857777 -0.0003927278 -0.0002670169 0.00027515815 1.4733276e-05 -0.00030749902 5.7078687e-05 -5.2486553e-06
-0.00016690815 0.00029056848 0.00026719162 -0.00067922333 -1.8794268e-05 0.0002578643 -0.00048298837 -0.0005552443
-0.0005023071 -0.0008070773 -0.00030591406 0.00016819012 -0.00062589993 0.00017111283 -0.00041148582 -0.00053459127
-0.0002574638 -0.0003664559 7.939034e-05 8.571172e-05 -0.00051924377 0.00015608143 -0.00024571957 -4.6271953e-06
0.00018839628 -0.0006837828 -0.00028967316 -0.0005870563 3.3033996e-06 -0.00047186358 -0.000298548 -0.00066229113
-0.0005463795 0.00027986773 -9.68595e-06 0.0002759606 9.862233e-05 -0.0004239027 0.00016226372 -0.00045955475
00000000: 73dd 2739 dc89 1dba aa27 fab9 6176 a5b9
00000010: b929 2239 b96d ce38 50af a138 025b 0539
00000020: e7c8 8739 9150 0438 504e 1839 756b 9db9
00000030: b9e8 7c39 30d3 b939 b931 6c39 895f 06b7
00000040: 0f41 dbb9 f15d 23ba f53e f636 ed07 27ba
00000050: acbb 3339 d2b0 4cb9 ba83 8439 94ea 8339
00000060: f844 ac39 519e 6039 eab0 0639 3ff0 9339
00000070: 28e7 09ba 4173 863a 459c 62b9 1881 2f39
00000080: e28b 2939 bd89 b6b8 15ba d0b9 b77c 6738
00000090: 1fe0 fbb9 184e 84b9 44df a139 7b62 db38
000000a0: 0e9b b9b9 baed 8039 8d0c 44ba 1a1d 99b9
000000b0: 69b0 1839 6dcc 2fba ac5d ddb9 936a 49b9
000000c0: 5298 20ba dacd 52ba f35d 1aba cc05 deb7
000000d0: 69eb 4a39 7eaa b6b9 06a4 0a39 1e4f 5039
000000e0: 3644 5d3a 951e 2cba 7e44 edb9 528c db38
000000f0: d90e 9d39 2011 8938 0af2 53ba ab4a 01ba
00000100: 15cc ac39 2919 6538 d82d e9b9 dcc5 ed38
00000110: c8d5 8eb8 3604 08b7 23c2 8739 2c2f ccb9
00000120: a4f4 5d39 f6d6 66ba 46b0 3c39 4942 a839
00000130: 4ec3 0dba d859 24ba 8b4c 6137 0671 583a
00000140: 52cd 4239 08e7 cdb9 67fe 8bb9 1a43 9039
00000150: f02e 7737 d237 a1b9 c667 6f38 9b1d b0b6
00000160: 1104 2fb9 7157 9839 da15 8c39 e80d 32ba
00000170: 62a8 9db7 f631 8739 9a39 fdb9 d08d 11ba
00000180: 42ad 03ba 0a92 53ba 1763 a0b9 315c 3039
00000190: 6f13 24ba c06c 3339 b1bc d7b9 d023 0cba
000001a0: 35fc 86b9 e120 c0b9 5d7e a638 21c0 b338
000001b0: dc1d 08ba caa9 2339 ecd3 80b9 4e43 9bb6
000001c0: 3e8c 4539 e33f 33ba 46df 97b9 aee4 19ba
000001d0: f9af 5d36 7564 f7b9 6f86 9cb9 9b9d 2dba
000001e0: e83a 0fba 36bb 9239 d780 22b7 ceae 9039
000001f0: 76d3 ce38 423f deb9 5625 2a39 65f0 f0b9

exp_avg_sq f4 [128, 1]
2.4647252e-06 3.4173627e-05 1.943447e-05 7.099785e-06 3.046525e-06 2.0943048e-06 3.3969689e-06 1.8526748e-06
2.2169365e-06 5.5315616e-07 3.4555862e-06 5.988675e-06 3.1951274e-06 1.4545989e-05 1.8876267e-06 1.0249807e-06
1.467115e-05 3.501589e-05 2.0963887e-06 3.5103712e-05 4.929942e-06 2.5144575e-06 7.915807e-06 2.0270293e-06
5.1422026e-06 2.63974e-06 2.7435508e-06 2.6967807e-06 2.3472241e-05 0.000110782676 1.2607003e-05 4.4068574e-06
2.3204473e-06 9.06647e-07 1.3929524e-05 1.4002281e-06 1.5411842e-05 5.3558756e-06 3.4391876e-06 3.4648906e-06
9.382134e-06 2.187828e-06 3.840286e-05 8.7442595e-06 1.5849091e-06 4.323209e-05 1.4555555e-05 2.2533277e-06
3.0448504e-05 5.666382e-05 2.8596138e-05 8.7060323e-07 2.0302602e-06 1.0332164e-05 1.1320759e-06 2.3091006e-06
7.430034e-05 4.0959534e-05 1.6466667e-05 3.6087024e-06 3.2024655e-06 2.4428728e-06 6.7143956e-05 1.9913066e-05
1.5338896e-05 2.6196137e-06 1.6348058e-05 2.21833e-06 7.219443e-07 3.201816e-07 2.2516165e-06 9.742511e-06
6.093973e-06 7.0339556e-05 2.423445e-06 3.8344806e-06 2.442376e-05 3.9259285e-05 1.5769261e-06 6.925537e-05
3.5185808e-06 1.5211683e-05 9.501974e-06 2.4816984e-06 2.8364164e-07 1.6097194e-05 6.7578276e-07 3.0867943e-07
2.0598907e-06 2.9171656e-06 2.2363681e-06 3.815586e-05 4.1941863e-07 2.6936184e-06 1.800486e-05 3.5225574e-05
1.944177e-05 7.416304e-05 8.771245e-06 2.9778062e-06 3.6219768e-05 2.8819004e-06 1.261881e-05 4.2016054e-05
4.6279697e-06 1.0418542e-05 8.075761e-07 2.9665e-06 2.527118e-05 3.3272822e-06 4.4334447e-06 1.1241477e-07
2.2139186e-06 4.218999e-05 9.934117e-06 2.9262588e-05 2.9954845e-06 1.8706565e-05 1.0410898e-05 3.7316448e-05
2.506486e-05 2.8724678e-06 5.008764e-07 2.5556512e-06 2.001378e-06 1.1543711e-05 2.5004158e-06 2.5221208e-05
00000000: a867 2536 a755 0f38 3507 a337 b03a ee36
00000010: e772 4c36 e28b 0c36 7bf7 6336 6ca9 f835
00000020: aec6 1436 9a7c 1435 85e6 6736 54f2 c836
00000030: df6b 5636 8c0a 7437 5c5a fd35 1292 8935
00000040: 1c24 7637 07de 1238 afaf 0c36 533c 1338
00000050: e16b a536 0dbe 2836 22ce 0437 1908 0836
00000060: 2f8b ac36 6326 3136 d81d 3836 57fa 3436
00000070: 41e6 c437 ff53 e838 aa82 5337 9ede 9336
00000080: fbb8 1b36 4f60 7335 dab2 6937 79ef bb35
00000090: ae48 8137 9fb6 b336 cbcc 6636 5e86 6836
000000a0: f567 1d37 99d2 1236 c212 2138 4fb4 1237
000000b0: 10b9 d435 1a54 3538 a233 7437 e037 1736
000000c0: aa6b ff37 50aa 6d38 bde1 ef37 66b3 6935
000000d0: 9b3f 0836 4e58 2d37 d5f1 9735 0cf6 1a36
000000e0: b1d1 9b38 f7cb 2b38 e621 8a37 092d 7236
000000f0: f0e9 5636 3cf0 2336 a3cf 8c38 fc0a a737
00000100: 07ac 8037 9fcc 2f36 3023 8937 9fde 1436
00000110: a2cb 4135 6de5 ab34 7a1a 1736 c473 2337
00000120: d47a cc36 4383 9338 78a2 2236 f0a9 8036
00000130: a0e1 cc37 56aa 2438 c5a6 d335 323d 9138
00000140: c220 6c36 ae35 7f37 ab6a 1f37 418b 2636
00000150: 6947 9834 7608 8737 7067 3535 94b8 a534
00000160: a73c 0a36 86c4 4336 8314 1636 8b09 2038
00000170: 752c e134 03c4 3436 2409 9737 2cbf 1338
00000180: e216 a337 fb87 9b38 3628 1337 52d6 4736
00000190: aeea 1738 ac66 4136 60b5 5337 653a 3038
000001a0: f549 9b36 4ccb 2e37 35c8 5835 1514 4736
000001b0: 72fd d337 464a 5f36 00c3 9436 ac68 f133
000001c0: d592 1436 28f5 3038 b5aa 2637 ee78 f537
000001d0: 0806 4936 0bec 9c37 77aa 2e37 3b84 1c38
000001e0: 6142 d237 9fc4 4036 f773 0635 c181 2b36
000001f0: 6a4f 0636 dcab 4137 d1cc 2736 2292 d337

exp_avg f4 [128]
3.0096082e-05 -9.476489e-05 -0.000100599376 -7.2538096e-05 1.731335e-05 2.1607158e-05 0.00013448486 1.9814372e-06
0.000109038825 -4.2347456e-06 0.00015187146 -5.1733285e-05 0.00010800556 -4.911912e-06 0.00017730524 -3.9614017e-05
-0.000106755935 -0.00017941551 -3.1102405e-05 -0.00014360946 5.956613e-05 -2.7787913e-05 -3.9266146e-05 0.00011280168
0.00016902245 0.0001100976 0.00015188778 0.000106796935 -0.00014194126 0.00017792777 3.710807e-05 3.6935504e-05
3.0868312e-05 -1.3143313e-05 -9.819101e-05 5.2476767e-05 -0.000102539074 -6.571586e-05 0.0001486403 0.00015095441
-8.7830595e-05 7.963511e-05 -0.00017575553 -9.1898735e-05 5.547939e-05 -0.00020117855 -7.440368e-05 -1.4167615e-05
-0.00011528426 -0.00023145034 -0.00017340948 3.3350886e-07 7.888775e-05 -0.00012920622 3.2387998e-05 4.1077015e-05
0.0001115262 -0.00019559867 -0.0001030817 6.1514445e-05 0.00010321721 9.399151e-06 -0.00015738359 -0.00013768906
-2.5951254e-05 0.000120403754 -0.000120513025 -5.9130034e-05 -7.839742e-05 -6.376408e-05 0.00010056175 -8.064221e-05
6.334678e-05 -0.00019116716 7.4830736e-05 0.00014581512 -0.00015907294 -0.00018600114 -2.2884484e-05 9.659324e-05
0.00012196177 -0.00011890445 -4.994293e-07 0.00012394918 1.4295364e-05 2.6032258e-06 -6.371859e-05 -8.417322e-07
-4.495447e-06 0.000113511545 0.00010430568 -0.00013961847 -4.2827985e-05 0.00019993786 -0.00013224052 -0.00013922373
-0.000137727 -0.00023458875 -9.71614e-05 7.6853554e-05 -0.00019589208 1.7531898e-05 -0.00011744806 -0.00013155722
-5.9750175e-05 -9.0252994e-05 -4.915378e-05 3.5336936e-05 -0.00014518492 0.00017871072 -5.5959204e-05 -6.930766e-05
5.473917e-05 -0.00019786366 -7.362287e-05 -0.00018140988 -8.6721324e-05 -0.00013874314 -7.7752295e-05 -0.00019359191
-0.00015047823 0.00014135097 -5.2171217e-06 0.00013265002 8.897552e-05 -7.1655195e-05 1.1526792e-05 -0.00012255376
00000000: d876 fc37 83bc c6b8 e1f8 d2b8 981f 98b8
00000010: 233c 9137 0541 b537 8104 0d39 d5f8 0436
00000020: c6ab e438 3018 8eb6 af3f 1f39 31fc 58b8
00000030: 0b81 e238 01d1 a4b6 03eb 3939 3a27 26b8
00000040: 28e2 dfb8 7c21 3cb9 f473 02b8 df95 16b9
00000050: a5d6 7938 171a e9b7 b4b1 24b8 f18f ec38
00000060: 9e3b 3139 33e4 e638 1144 1f39 2bf8 df38
00000070: 11d6 14b9 1f92 3a39 7da4 1b38 32eb 1a38
00000080: 9978 0138 1982 5cb7 e6eb cdb8 801a 5c38
00000090: 3f0a d7b8 efd0 89b8 54dc 1b39 8449 1e39
000000a0: b131 b8b8 c601 a738 044b 38b9 c2b9 c0b8
000000b0: 8bb2 6838 75f3 52b9 2c09 9cb8 71b1 6db7
000000c0: c4c4 f1b8 7ab1 72b9 41d5 35b9 1c0d b334
000000d0: 8a70 a538 887b 07b9 59d8 0738 1c4a 2c38
000000e0: 2ce3 e938 9e19 4db9 912d d8b8 5101 8138
000000f0: 5176 d838 0cb1 1d37 5607 25b9 a060 10b9
00000100: e5b1 d9b7 4681 fc38 f0bb fcb8 6402 78b8
00000110: 4b69 a4b8 14b9 85b8 aee4 d238 751e a9b8
00000120: 0bd9 8438 0b74 48b9 72ee 9c38 f3e5 1839
00000130: d1cc 26b9 4d09 43b9 0ef8 bfb7 1a92 ca38
00000140: bac5 ff38 575c f9b8 8510 06b5 5bf8 0139
00000150: 1fd6 6f37 14b3 2e36 a8a0 85b8 65f3 61b5
00000160: 98d7 96b6 0c0d ee38 b0be da38 8c66 12b9
00000170: 33a2 33b8 69a6 5139 0baa 0ab9 96fc 11b9
00000180: cf6a 10b9 f0fb 75b9 21c3 cbb8 702c a138
00000190: 6168 4db9 7711 9337 724e f6b8 9ff2 09b9
000001a0: 439c 7ab8 3546 bdb8 782a 4eb8 bf36 1438
000001b0: c83c 18b9 4b64 3b39 bdb5 6ab8 4459 91b8
000001c0: bc97 6538 9f79 4fb9 fa65 9ab8 d838 3eb9
000001d0: 28de b5b8 947b 11b9 f20e a3b8 effe 4ab9
000001e0: b1c9 1db9 9d37 1439 bc0e afb6 f817 0b39
000001f0: 5e98 ba38 9745 96b8 3263 4137 c681 00b9

exp_avg_sq f4 [128]
9.884942e-06 7.657985e-05 3.3636512e-05 1.2855667e-05 1.3823579e-05 3.2625474e-05 1.6415985e-05 1.690484e-05
1.0956491e-05 4.2887137e-07 7.2158673e-06 2.3141389e-05 2.292205e-05 5.4125754e-05 1.2213735e-05 2.2629572e-05
1.731166e-05 2.9825269e-05 3.7866095e-05 5.898272e-05 5.393473e-06 1.3268137e-05 6.465648e-05 5.2026353e-06
1.0791228e-05 7.003244e-06 1.6690437e-05 2.0742531e-05 2.4853407e-05 0.00016926826 4.113654e-05 2.851126e-06
9.115887e-06 5.851177e-06 1.9316225e-05 4.9478954e-06 3.5653247e-05 9.32311e-06 6.333178e-06 1.82916e-05
1.3510755e-05 1.488263e-05 5.569403e-05 6.1462742e-06 1.5185346e-05 3.0278607e-05 2.499862e-05 2.1744363e-05
5.523457e-05 4.755635e-05 2.3393028e-05 8.962775e-06 1.7961938e-05 4.9377813e-06 2.7983056e-05 2.038859e-05
0.0001427564 3.2805798e-05 3.1744825e-05 1.1759498e-05 2.6940088e-05 3.0016437e-05 0.000102371145 1.8702816e-05
6.9669724e-05 1.8439443e-05 1.8952589e-05 4.252413e-05 5.953713e-06 3.8174032e-05 1.9715635e-05 2.9433117e-05
3.903077e-06 9.724326e-05 2.0580617e-05 1.3869939e-05 2.2153188e-05 2.8890981e-05 2.4732246e-05 0.00016864251
2.3269853e-05 1.2093764e-05 3.4731565e-05 4.405994e-06 7.934347e-07 4.4431727e-05 3.5472247e-05 2.8337636e-06
1.794838e-05 2.250982e-05 1.6263015e-05 5.7729776e-05 1.0593396e-05 1.5537937e-05 2.0637768e-05 3.554455e-05
2.3467519e-05 5.2642157e-05 6.4733226e-06 1.912041e-05 2.2843706e-05 2.2911148e-05 1.3849213e-05 3.5347683e-05
9.13431e-06 1.9073303e-05 3.132689e-05 1.9590461e-05 2.0802916e-05 2.6216087e-05 1.0775042e-05 2.6301865e-05
6.4787073e-06 3.1603427e-05 8.663182e-06 2.599068e-05 2.9249219e-05 1.6881415e-05 9.639315e-06 3.613199e-05
2.3779421e-05 4.2014544e-06 1.6298713e-06 3.5675205e-06 1.926858e-06 3.6610843e-05 2.5722631e-05 2.560101e-05
00000000: 81d7 2537 7e99 a038 ee14 0d38 abae 5737
00000010: d2eb 6737 56d7 0838 0fb5 8937 dece 8d37
00000020: c5d1 3737 a23f e634 d41f f236 c11f c237
00000030: ba48 c037 1605 6338 98e9 4c37 a3d4 bd37
00000040: 8238 9137 4731 fa37 69d2 1e38 3764 7738
00000050: 95f9 b436 379a 5e37 2f98 8738 4c92 ae36
00000060: f90b 3537 68fd ea36 7102 8c37 3f00 ae37
00000070: 497c d037 9a7d 3139 068a 2c38 f955 3f36
00000080: 70f0 1837 3a55 c436 4709 a237 1906 a636
00000090: 628a 1538 746a 1c37 9681 d436 e970 9937
000000a0: 40ac 6237 69b0 7937 0299 6938 183c ce36
000000b0: 90c4 7e37 d0fe fd37 21b4 d137 aa67 b637
000000c0: abab 6738 3e77 4738 253c c437 d35e 1637
000000d0: f8ac 9637 38af a536 28bd ea37 2a08 ab37
000000e0: e1b0 1539 f598 0938 bf25 0538 a94a 4537
000000f0: 66fd e137 cfcb fb37 17b0 d638 fee3 9c37
00000100: a61b 9238 67ae 9a37 60fc 9e37 f05b 3238
00000110: 01c6 c736 0e1d 2038 0163 a537 23e7 f637
00000120: 2df7 8236 14ef cb38 8aa4 ac37 efb2 6837
00000130: 9cd5 b937 e95a f237 1878 cf37 a1d5 3039
00000140: a133 c337 52e6 4a37 bcac 1138 33d7 9336
00000150: 6bfc 5435 345c 3a38 09c8 1438 b02b 3e36
00000160: da8f 9637 78d3 bc37 8f6c 8837 e022 7238
00000170: 4aba 3137 7757 8237 451f ad37 ac15 1538
00000180: 1ddc c437 16cc 5c38 6b35 d936 c564 a037
00000190: 7ca0 bf37 5131 c037 eb59 6837 4942 1438
000001a0: 903f 1937 9bff 9f37 fe64 0338 3256 a437
000001b0: ec81 ae37 9eea db37 74c6 3437 d3a2 dc37
000001c0: ac63 d936 ec8d 0438 1558 1137 8f06 da37
000001d0: 385c f537 909c 8d37 8bb8 2137 6e8c 1738
000001e0: eb79 c737 38fa 8c36 f4c1 da35 8969 6f36
000001f0: 2b4f 0136 988e 1938 eec6 d737 c0c1 d637

exp_avg f4 [128, 128]
1.4260045e-05 -1.1897545e-06 3.902113e-05 7.013793e-05 1.5365937e-05 -2.8083814e-05 -2.5458989e-05 1.5335501e-05
-5.4927036e-06 0.00035761323 -2.3630668e-05 4.9454233e-05 -1.6569356e-05 -1.3842539e-05 -1.3275778e-05 -3.270669e-05
0.00015891422 9.8788034e-05 -3.2620104e-05 3.2450578e-05 0.00044506518 9.471988e-05 -1.605814e-05 -3.0940028e-06
-1.1817548e-05 -1.8128754e-05 -2.3318698e-05 -1.244214e-06 0.0001053509 8.973408e-06 -2.10797e-05 0.0002600944
1.3937984e-05 0.00047529768 0.0001713989 3.8669023e-05 2.4534835e-05 0.0003493165 -5.7656325e-06 -2.4700053e-05
0.000111995534 5.6631707e-06 7.713208e-06 0.0004292018 -2.1656428e-05 0.00012563154 1.3455153e-05 3.4345252e-05
4.04272e-06 0.00017439174 0.00014211895 0.000754503 -1.775453e-05 0.0001849898 -2.1033142e-05 1.1555049e-05
-3.879119e-06 0.00023140968 5.5218487e-05 -2.8730718e-05 3.423138e-06 -3.0447867e-05 -4.098177e-06 0.00018310749
-1.4538002e-05 -2.5606789e-05 0.00011439933 -2.445716e-05 0.000107797365 -3.2826327e-05 -5.8801274e-06 4.885631e-05
5.2699343e-05 4.4144068e-07 -2.076775e-05 -6.613502e-06 0.00017740417 0.00030498422 -3.2356817e-05 -1.6810368e-06
1.0793903e-05 0.00043274587 -1.4180361e-05 -1.561767e-06 7.576125e-05 -1.6010716e-05 -2.6242493e-05 0.0007374203
2.3531502e-05 -4.042549e-06 -2.152716e-06 7.717696e-06 -2.9470571e-05 -1.3959201e-05 0.000179139 0.00037457867
0.00013914538 0.00033298953 0.00039338495 -2.3719049e-05 0.00026201326 1.44765745e-05 0.00014824067 0.0005423215
0.00015548897 0.00012442662 -2.174885e-05 -2.969725e-05 0.00018288854 -2.2741568e-05 0.00026822297 -2.8195313e-05
1.17252e-05 0.00011166317 0.00043062776 0.0002481983 1.9797704e-05 0.00024495862 0.00043330668 0.0001382214
0.00013997535 -7.463569e-06 0.0004975172 -3.9323536e-06 -2.5676403e-05 1.4138998e-05 1.4322336e-05 0.00045381306
2.3033676e-06 -4.3719047e-07 5.9937056e-06 1.0954672e-05 2.5060087e-06 -4.305497e-06 -4.3602786e-06 2.5147565e-06
-8.3065197e-07 5.7101803e-05 -3.9988854e-06 7.660661e-06 -2.5360494e-06 -1.9019944e-06 -2.4562632e-06 -5.0030358e-06
2.5110176e-05 1.5573076e-05 -4.9954792e-06 4.954119e-06 7.085324e-05 1.4889759e-05 -2.2725062e-06 -4.4188735e-07
-1.8239328e-06 -2.8440375e-06 -4.0347736e-06 -1.2976506e-07 1.6593967e-05 1.7593856e-06 -3.6234126e-06 4.1558043e-05
2.2593968e-06 7.56197e-05 2.7089854e-05 6.0221414e-06 3.678373e-06 5.5480115e-05 -8.9685824e-07 -4.2432866e-06
1.7632825e-05 9.739849e-07 9.952441e-07 6.827757e-05 -3.2967666e-06 1.9859912e-05 1.931411e-06 5.267796e-06
4.003381e-07 2.757394e-05 2.2433373e-05 0.000120298144 -2.7028957e-06 2.9421468e-05 -3.210342e-06 1.9041142e-06
-3.1512255e-07 3.669325e-05 8.580408e-06 -4.450801e-06 6.0383456e-07 -4.67273e-06 -9.1082455e-07 2.8961173e-05
-2.0312095e-06 -4.39884e-06 1.8033159e-05 -3.6207848e-06 1.7441696e-05 -5.000671e-06 -8.4130727e-07 7.5473076e-06
8.403738e-06 -1.7711766e-07 -3.1768823e-06 -9.932729e-07 2.8073982e-05 4.8435264e-05 -4.959302e-06 3.7002142e-08
1.354784e-06 6.8820096e-05 -2.5083243e-06 -2.4538963e-07 1.1986517e-05 -2.8147745e-06 -3.9330157e-06 0.00011757427
3.548782e-06 -5.7086464e-07 -2.710065e-07 9.831394e-07 -4.501417e-06 -2.5686734e-06 2.8325905e-05 5.9495414e-05
2.1953174e-05 5.2900814e-05 6.256522e-05 -3.6409456e-06 4.1604966e-05 2.361586e-06 2.3425708e-05 8.634288e-05
2.4591389e-05 1.9614781e-05 -3.2148066e-06 -4.563024e-06 2.8952678e-05 -3.93515e-06 4.2535965e-05 -4.240741e-06
1.8954432e-06 1.7587852e-05 6.846336e-05 3.9360202e-05 3.2686874e-06 3.8816426e-05 6.890005e-05 2.1827233e-05
2.2099139e-05 -1.1892275e-06 7.922476e-05 -6.3934493e-07 -4.186453e-06 2.024886e-06 2.3509144e-06 7.217635e-05
00000000: 6d3e 6f37 a7af 9fb5 9faa 2338 0417 9338
00000010: 19e6 8037 8895 ebb7 c390 d5b7 bda4 8037
00000020: f74d b8b6 097e bb39 793a c6b7 146d 4f38
00000030: 6cfe 8ab7 413d 68b7 08bb 5eb7 8a2e 09b8
00000040: 36a2 2639 6c2c cf38 92d1 08b8 8b1b 0838
00000050: a357 e939 59a4 c638 98b4 86b7 90a2 4fb6
00000060: fb43 46b7 3413 98b7 869c c3b7 defe a6b5
00000070: d5ef dc38 7e8c 1637 50d4 b0b7 485d 8839
00000080: 2fd7 6937 6031 f939 8bb9 3339 8c30 2238
00000090: 28d0 cd37 7824 b739 6876 c1b6 f632 cfb7
000000a0: 25df ea38 4406 be36 fa67 0137 7e06 e139
000000b0: d3aa b5b7 f6bb 0339 71bd 6137 ef0d 1038
000000c0: b3a6 8736 eddc 3639 c405 1539 d7c9 453a
000000d0: 90ef 94b7 d2f9 4139 5470 b0b7 8fdc 4137
000000e0: 6129 82b6 90a6 7239 669a 6738 bf02 f1b7
000000f0: 10b9 6536 4c6a ffb7 1383 89b6 8b00 4039
00000100: 3ee8 73b7 29ce d6b7 ace9 ef38 5a29 cdb7
00000110: 4511 e238 00af 09b8 e94d c5b6 10eb 4c38
00000120: 7d09 5d38 25ff ec34 6736 aeb7 8de9 ddb6
00000130: 9205 3a39 4ae6 9f39 deb6 07b8 fc9f e1b5
00000140: 7617 3537 2be2 e239 30e8 6db7 e89d d1b5
00000150: 03e2 9e38 c04e 86b7 5323 dcb7 704f 413a
00000160: 8465 c537 3ba5 87b6 6177 10b6 407b 0137
00000170: 9237 f7b7 5032 6ab7 42d7 3b39 1963 c439
00000180: 8ee7 1139 1995 ae39 3c3f ce39 45f8 c6b7
00000190: d35e 8939 6ae0 7237 0d71 1b39 942a 0e3a
000001a0: c10a 2339 8478 0239 4d71 b6b7 5c1e f9b7
000001b0: c5c5 3f39 25c5 beb7 47a0 8c39 f984 ecb7
000001c0: 5ab7 4437 b52c ea38 e1c5 e139 9d20 8239
000001d0: 3f13 a637 ca6d 8039 702d e339 86ef 1039
000001e0: 59c6 1239 926f fab6 d06b 023a a9f2 83b6
000001f0: a863 d7b7 8936 6d37 f749 7037 c2ed ed39
00000200: 8e93 1a36 00b7 eab4 8a1d c936 f5c9 3737
00000210: e72c 2836 f077 90b6 824e 92b6 30c3 2836
00000220: f8f9 5eb5 9880 6f38 2a2e 86b6 4a86 0037
00000230: ff30 2ab6 0848 ffb5 48d6 24b6 c0df a7b6
00000240: b1a3 d237 eda2 8237 d79e a7b6 8f3b a636
00000250: 0b97 9438 07cf 7937 5c81 18b6 893c edb4
00000260: dbcd f4b5 31dc 3eb6 7162 87b6 8c55 0bb4
00000270: 4633 8b37 0724 ec35 c129 73b6 9c4e 2e38
00000280: 24a0 1736 0496 9e38 053f e337 cd11 ca36
00000290: f8d9 7636 52b3 6838 a1bf 70b5 8e61 8eb6
000002a0: 34ea 9337 deb9 8235 5494 8535 3e30 8f38
000002b0: 053e 5db6 d698 a637 639d 0136 06c2 b036
000002c0: 0dee d634 964e e737 4d2f bc37 9348 fc38
000002d0: 6563 35b6 1fce f637 4171 57b6 de90 ff35
000002e0: 1d2e a9b4 14e7 1938 92f4 0f37 1758 95b6
000002f0: 3217 2235 72ca 9cb6 637f 74b5 a5f1 f237
00000300: ea4f 08b6 bf99 93b6 ea45 9737 9cfc 72b6
00000310: c24f 9237 70cb a7b6 32d6 61b5 e13e fd36
00000320: c8fd 0c37 bb2d 3eb4 6c32 55b6 9950 85b5
00000330: 6b80 eb37 f826 4b38 1468 a6b6 49ec 1e33
00000340: 06d6 b535 8253 9038 af54 28b6 18be 83b4
00000350: b319 4937 75e5 3cb6 59f8 83b6 3592 f638
00000360: 9c27 6e36 853d 19b5 da7e 91b4 6af4 8335
00000370: e10a 97b6 7961 2cb6 6b9d ed37 b78a 7938
00000380: 1528 b837 d1e1 5d38 7235 8338 f856 74b6
00000390: fe80 2e38 bd7b 1e36 5382 c437 fb12 b538
000003a0: 9b49 ce37 6c8a a437 f5bd 57b6 141c 99b6
000003b0: 67df f237 ae0a 84b6 a568 3238 b04b 8eb6
000003c0: ef66 fe35 a089 9337 fd93 8f38 b216 2538
000003d0: 9f5b 5b36 d2ce 2238 6f7e 9038 a019 b737
000003e0: 8a61 b937 8c9d 9fb5 7825 a638 739f 2bb5
000003f0: 5c79 8cb6 47e3 0736 67c4 1d36 625d 9738

exp_avg_sq f4 [128, 128]
6.6590667e-07 2.4648784e-08 1.381557e-07 4.937632e-07 6.5701994e-07 4.5966163e-07 4.7172838e-07 6.6080526e-07
7.0373875e-07 1.67783e-05 5.205501e-07 2.2749776e-07 6.229288e-07 1.4041177e-08 6.405066e-07 2.550632e-07
2.7917822e-06 1.0953431e-06 3.0224805e-07 8.9285805e-08 2.543757e-05 9.452321e-07 1.7444497e-08 7.183374e-07
6.6676927e-07 6.0255945e-07 5.293022e-07 7.280805e-07 1.2184721e-06 8.3408885e-08 1.9063837e-07 8.817304e-06
6.751553e-07 2.8983475e-05 3.2110322e-06 1.6966399e-07 3.914853e-08 1.4417902e-05 7.0366707e-07 4.9570997e-07
1.3419404e-06 7.3851356e-07 6.771342e-09 2.3349703e-05 5.635532e-07 1.7964692e-06 1.7538207e-08 1.02188714e-07
1.25091955e-08 3.346913e-06 2.1861943e-06 8.5741936e-05 6.092754e-07 4.153986e-06 5.698969e-07 7.1074265e-07
1.701266e-08 6.110183e-06 2.9572954e-07 4.408692e-07 7.366538e-07 4.0185668e-07 3.8656225e-08 3.6819395e-06
1.7445112e-08 4.6344272e-07 1.4210883e-06 6.5681675e-08 1.7767403e-06 2.3542412e-07 7.0711695e-07 2.0623992e-07
3.703182e-07 1.9825704e-08 5.7578904e-07 7.017441e-07 3.4953162e-06 1.1024503e-05 3.2395738e-07 2.3311053e-08
6.090333e-07 2.355638e-05 1.0047878e-07 7.1714885e-07 6.871451e-07 1.2261061e-07 8.971947e-08 8.1120925e-05
4.509451e-08 7.1612317e-07 7.2270325e-07 1.0328883e-08 1.405332e-07 6.366279e-07 3.5003648e-06 1.693343e-05
2.071191e-06 1.3342992e-05 1.9262125e-05 5.347191e-07 8.08981e-06 6.723705e-07 2.4089788e-06 4.003035e-05
2.686402e-06 1.6510473e-06 4.259165e-08 4.209087e-07 3.7845216e-06 5.404964e-07 8.166897e-06 1.06875625e-07
6.995574e-07 1.3568749e-06 2.3332046e-05 6.9892017e-06 4.2676567e-07 6.706213e-06 2.3756667e-05 2.0840723e-06
2.1531118e-06 6.9078396e-07 3.2439333e-05 7.0647513e-07 4.838416e-07 1.26803e-08 6.780245e-07 2.625333e-05
3.165215e-08 2.6124614e-09 7.181921e-09 1.9170393e-08 3.3130043e-08 2.3576817e-08 1.5280825e-08 3.3762078e-08
3.225135e-08 5.414698e-07 1.7865881e-08 1.0138009e-08 3.066962e-08 3.9178607e-09 2.0989177e-08 1.3704075e-08
9.588303e-08 3.8136566e-08 1.6202632e-08 5.203241e-09 8.37935e-07 3.382979e-08 4.008461e-09 3.445778e-08
3.2136743e-08 2.5876808e-08 1.7200932e-08 3.5793505e-08 4.297141e-08 4.9316196e-09 6.80551e-09 2.833269e-07
3.264089e-08 9.583041e-07 1.0959955e-07 6.7147536e-09 3.4432992e-09 4.7503204e-07 3.242871e-08 1.6068213e-08
4.727791e-08 3.7053372e-08 1.8417105e-09 7.7128703e-07 2.8705106e-08 6.109401e-08 2.1078288e-09 5.5139244e-09
2.2967612e-09 1.13795764e-07 7.513718e-08 2.875706e-06 3.0377382e-08 1.3496525e-07 2.8515544e-08 3.5606405e-08
3.1487197e-09 2.0295974e-07 1.2629746e-08 2.0798684e-08 3.6150368e-08 2.0751093e-08 2.978663e-09 1.239881e-07
3.9615333e-09 1.5160806e-08 4.944005e-08 6.4780634e-09 5.419143e-08 1.3612368e-08 3.5449812e-08 9.691019e-09
1.2117973e-08 2.3258881e-09 2.8793155e-08 3.3772196e-08 1.175342e-07 3.6443097e-07 1.686808e-08 3.2685115e-09
1.897171e-08 7.790364e-07 4.123195e-09 3.1764937e-08 2.2949944e-08 4.948988e-09 6.819836e-09 2.7137335e-06
3.3330891e-09 3.5059703e-08 3.5330018e-08 2.5316058e-09 6.892192e-09 2.0718137e-08 1.1806527e-07 5.63746e-07
7.137063e-08 4.4236268e-07 6.3416553e-07 2.6917448e-08 2.666605e-07 3.3541358e-08 8.1610494e-08 1.3366563e-06
9.022669e-08 5.7389954e-08 4.252991e-09 2.1450676e-08 1.2757073e-07 1.7527855e-08 2.7069012e-07 7.629054e-09
3.3206636e-08 4.8051774e-08 7.7659115e-07 2.3152994e-07 2.4573419e-08 2.2328922e-07 7.915305e-07 7.133708e-08
7.407507e-08 3.0454252e-08 1.0669642e-06 3.049988e-08 1.7785524e-08 2.3365385e-09 3.4431384e-08 8.7218916e-07
00000000: c2c0 3235 40bb d332 f357 1434 268b 0435
00000010: 115e 3035 6ac7 f634 db41 fd34 3162 3135
00000020: 8fe8 3c35 20bf 8c37 eebb 0b35 1c46 7434
00000030: 5737 2735 c039 7132 47ef 2b35 9fef 8834
00000040: 745a 3b36 b403 9335 a844 a234 64bd bf33
00000050: c462 d537 dbbb 7d35 dbd8 9532 c5d3 4035
00000060: 09fc 3235 92bf 2135 5f15 0e35 5071 4335
00000070: 628a a335 851e b333 47b2 4c34 08ee 1337
00000080: 523c 3535 8a21 f337 1d7d 5736 e22c 3634
00000090: 4424 2833 6be4 7137 a2e3 3c35 ee10 0535
000000a0: b91c b435 443e 4635 5ba9 e831 1bdf c337
000000b0: 1547 1735 361e f135 eda6 9632 d772 db33
000000c0: 06e8 5632 879b 6036 88b6 1236 5ad0 b338
000000d0: 168d 2335 7862 8b36 04fb 1835 ddc9 3e35
000000e0: 3c23 9232 1306 cd36 c2c4 9e34 9ab0 ec34
000000f0: 77be 4535 c3be d734 f806 2633 3d17 7736
00000100: 35da 9532 15cf f834 39bc be35 e20c 8d33
00000110: 5578 ee35 e4c8 7c34 b5d0 3d35 cc72 5d34
00000120: 25d0 c634 2f4d aa32 ec8f 1a35 7d5f 3c35
00000130: 1391 6a36 e1f5 3837 5dec ad34 8c3d c832
00000140: 737c 2335 f19a c537 cbc6 d733 1882 4035
00000150: 4074 3835 f3a6 0334 cdab c033 771f aa38
00000160: f0ad 4133 9c3b 4035 caff 4135 e872 3132
00000170: 79e5 1634 bce4 2a35 cfe7 6a36 440c 8e37
00000180: cafe 0a36 b7db 5f37 1995 a137 9e89 0f35
00000190: 78b9 0737 f37c 3435 f1a9 2136 43e6 2738
000001a0: 0948 3436 8e99 dd35 04ee 3633 40f9 e134
000001b0: 96f9 7d36 a116 1135 8e04 0937 7f83 e533
000001c0: 38c9 3b35 de1d b635 30b9 c337 c984 ea36
000001d0: 3a1e e534 ee05 e136 0e49 c737 17dc 0b36
000001e0: 2e7e 1036 506e 3935 780f 0838 9aa4 3d35
000001f0: 57e1 0135 8dd8 5932 7d01 3635 993a dc37
00000200: e8f1 0733 e886 3331 d8c4 f631 24ac a432
00000210: de4a 0e33 f885 ca32 e442 8332 cc01 1133
00000220: bc84 0a33 8559 1135 7d77 9932 6f2b 2e32
00000230: 9bb9 0333 de9d 8631 b04b b432 296f 6b32
00000240: 41e8 cd33 99cb 2333 f72d 8b32 31c8 b231
00000250: 74ee 6035 3f4c 1133 ccba 8931 bbfe 1333
00000260: b906 0a33 b447 de32 40c1 9332 60bb 1933
00000270: 918f 3833 fc72 a931 e6d5 e931 271c 9834
00000280: 0a31 0c33 149f 8035 fd5c eb33 99b7 e631
00000290: 299f 6c31 e807 ff34 be47 0b33 6006 8a32
000002a0: 9d0e 4b33 9d24 1f33 6d1f fd30 710a 4f35
000002b0: 3293 f632 ca32 8333 51d9 1031 fe74 bd31
000002c0: 0dd5 1d31 e25f f433 1a5b a133 41fc 4036
000002d0: 4978 0233 f7ea 1034 58f2 f432 a8ed 1833
000002e0: dd60 5831 26ed 5934 36fa 5832 caa8 b232
000002f0: c043 1b33 2340 b232 32b1 4c31 9721 0534
00000300: 041e 8831 f73a 8232 e957 5433 a695 de31
00000310: 1bc0 6833 d4db 6932 7b41 1833 8d7d 2632
00000320: 692f 5032 75d5 1f31 d154 f732 ec0c 1133
00000330: 1c67 fc33 03a7 c334 4de5 9032 439c 6031
00000340: 3bf7 a232 f91e 5135 02ac 8d31 eb6d 0833
00000350: 7623 c532 c20b aa31 e953 ea31 961d 3636
00000360: 530c 6531 8d94 1633 c4bd 1733 7bf8 2d31
00000370: 5dd0 ec31 aaf7 b132 128b fd33 5554 1735
00000380: 6b44 9933 dd7d ed34 863b 2a35 1838 e732
00000390: 8a29 8f34 1d0f 1033 d841 af33 2967 b335
000003a0: a6c2 c133 ec7c 7633 b421 9231 8942 b832
000003b0: 60fa 0834 2990 9632 5e53 9134 ef10 0332
000003c0: 159f 0e33 7c61 4e33 f076 5035 779a 7834
000003d0: 8515 d332 46c1 6f34 9079 5435 f931 9933
000003e0: 3313 9f33 cecc 0233 9c34 8f35 f9fe 0233
000003f0: c8c6 9832 d290 2031 b5e1 1333 6220 6a35
