results/FlappyAgentDificulty1/FlappAndSwitch.onnx (onnx, 92844 bytes, 7 tensors)

action_model._continuous_distribution.mu.weight f4 [1, 128]
0.04127078 -0.007113241 -0.0015027936 0.00309668 0.0067466153 -0.01582969 0.004972041 -0.0053990283
0.0025414026 -0.004653461 0.022659792 0.0062597697 -0.00394695 -0.0026777775 0.0026416888 0.003998798
0.029568747 0.005085832 -0.0036911927 0.07081682 -0.0056177415 0.03913206 0.0829535 -0.013672939
-0.0049842447 0.03011915 0.053348046 -0.0035524091 0.012203968 -0.008711727 0.011680238 -0.015024791
-0.010468759 -0.01891674 0.00038050982 0.0066731884 -0.04135387 0.0026117857 0.014897143 0.05969102
-0.01952391 -0.014227721 0.011763196 -0.007965065 -0.011684715 -0.01571543 -0.0314516 -0.053820048
-0.005627178 -0.00017353633 0.00062561635 0.035040252 0.004215571 -0.0037471794 -0.00921253 0.0184082
-0.002167054 0.005556822 0.0029801766 0.04642229 -0.0014050006 -0.048688725 -0.017112186 -0.0062887515
-0.020904819 -0.0012233213 -0.0029279739 -0.0017379338 0.02689214 -0.006464784 -0.013435261 -0.0006857148
-0.007382366 -0.008314027 0.05240645 0.001194842 -0.019637413 0.0069506625 -0.01335237 -0.0015740839
0.00050122157 -0.0068459925 -0.028716866 0.00014472983 0.0061980323 0.017663384 0.008362169 0.018318646
0.025942111 -0.00084746693 -0.09005241 0.019692946 -0.0032884406 0.013869933 -0.011011205 -0.0061239284
-0.010288615 -0.047406103 -0.062074877 0.019696016 -0.028196067 -0.006940206 0.0010908835 -0.030626824
0.012898153 0.016936712 0.015145543 0.005373661 -0.046496756 0.023900691 0.05785269 0.019745206
-0.019838095 -0.0060588373 -0.0019142096 0.008398627 -0.022247477 0.004418665 -0.0039925124 -0.026739428
0.008171288 0.014067986 -0.0062325974 0.054562293 -0.06892887 -0.012935505 -0.0043447153 -0.004306859
00000000: 8d0b 293d 3116 e9bb 63f9 c4ba abf1 4a3b
00000010: b612 dd3b 44ad 81bc 81ec a23b 55ea b0bb
00000020: a98d 263b 0f7c 98bb 07a1 b93c c11e cd3b
00000030: 6b55 81bb a77d 2fbb 2f20 2d3b 5908 833b
00000040: 283a f23c 0da7 a63b f0e7 71bb 6908 913d
00000050: 0815 b8bb f048 203d 86e3 a93d 7604 60bc
00000060: e052 a3bb 70bc f63c 7b83 5a3d 89cf 68bb
00000070: 27f3 473c a2bb 0ebc 785e 3f3c 8a2a 76bc
00000080: 2885 2bbc 47f7 9abc 2a7f c739 c3aa da3b
00000090: ad62 29bd 7e2a 2b3b 2513 743c 927e 743d
000000a0: 9bf0 9fbc 631b 69bc 6cba 403c e77f 02bc
000000b0: 3f71 3fbc a5bd 80bc 65d3 00bd 6972 5cbd
000000c0: 3164 b8bb 4ef7 35b9 6700 243a 5e86 0f3d
000000d0: c622 8a3b 3d93 75bb 27f0 16bc cbcc 963c
000000e0: 2205 0ebb 0016 b63b 114f 433b 4d25 3e3d
000000f0: ff27 b8ba d46d 47bd db2e 8cbc df11 cebb
00000100: 9540 abbc da57 a0ba 40e3 3fbb 62cb e3ba
00000110: e84c dc3c 8ad6 d3bb 921f 5cbc 8bc1 33ba
00000120: c6e7 f1bb 8f37 08bc 25a8 563d 3f9c 9c3a
00000130: a4de a0bc 62c2 e33b e6c3 5abc 7e51 ceba
00000140: 6964 033a 5954 e0bb a23f ebbc 9ec2 1739
00000150: dd18 cb3b cdb2 903c 7b01 093c fc10 963c
00000160: 8d84 d43c 8b28 5eba 666d b8bd 1a53 a13c
00000170: e182 57bb b73e 633c 5768 34bc 3cab c8bb
00000180: 9491 28bc e72c 42bd 3a42 7ebd 8a59 a13c
00000190: 70fb e6bc ab6a e3bb fafb 8e3a 1be5 fabc
000001a0: c652 533c dcbe 8a3c 0325 783c 8915 b03b
000001b0: 6273 3ebd 62cb c33c f1f6 6c3d b3c0 a13c
000001c0: 8083 a2bc 3689 c6bb 37e6 faba 659a 093c
000001d0: 5740 b6bc 73ca 903b 9fd3 82bb a50c dbbc
000001e0: dee0 053c 697d 663c d13a ccbb b67c 5f3d
000001f0: 942a 8dbd 71ef 53bc 1d5e 8ebb 8d20 8dbb

action_model._discrete_distribution.branches.0.bias f4 [2]
0.04126619 -0.041266095
00000000: bd06 293d a306 29bd

action_model._discrete_distribution.branches.0.weight f4 [2, 128]
0.079936616 0.060047098 -0.06555489 -0.15111333 -0.06497361 -0.078711346 -0.06153847 0.089270875
0.018187907 0.13646702 -0.064577155 0.06281141 0.098651424 0.054161794 0.0059116003 0.013394031
-0.04357227 0.035477925 0.14345033 -0.071443334 -0.016456146 -0.07946671 -0.030954463 -0.13892199
0.10897593 -0.0624442 -0.046759155 0.002842435 -0.051957726 -0.02235347 0.16189846 -0.057593655
-0.0053010806 0.00825936 -0.054317616 -0.04601202 -0.032476064 0.11951294 -0.03937009 0.14370835
-0.05035918 -0.07385319 0.001087708 -0.09300571 -0.026819857 0.0060674646 -0.0034985614 -0.022218257
-0.008875829 0.08792192 -0.09884248 -0.099731825 -0.09525553 0.005011471 -0.06311969 -0.13132015
-0.032340407 -0.096970916 0.04181314 -0.052621447 -0.0057977517 0.045057822 -0.09195932 -0.01847613
0.1067838 -0.12171595 0.0028951988 -0.049066953 0.13273247 -0.09944043 0.15047145 0.13879779
-0.008827298 -0.10526247 -0.0023165755 0.011503058 0.014514908 0.00043462616 0.05050606 0.0554088
0.042238228 0.039678674 -0.06359579 -0.13335536 0.11673215 -0.07433323 0.0012208116 0.0015957856
-0.023617584 0.11624413 -0.03362939 0.08115404 -0.000499786 0.12395979 -0.10124626 0.07671601
-0.06485174 0.011868426 -0.055140536 0.051236626 0.00097639876 -0.063341215 -0.06971526 0.013032191
0.12996662 -0.088628955 0.025121551 0.01092852 -0.03120175 -0.002350949 0.009240085 0.05881588
-0.023156522 0.054865748 -0.08892051 0.052681256 -0.045193225 -0.11399773 0.005798925 -0.0915526
0.046464138 -0.12529032 -0.1143307 -0.029967964 -0.055512372 0.022997266 -0.0015207528 -0.10194526
-0.09139429 -0.06455684 0.045537442 0.15416679 0.061022516 0.09050765 0.06482891 -0.08477308
-0.00909576 -0.13119613 0.07246037 -0.058967613 -0.08117076 -0.04939753 -0.009348851 -0.0009839408
0.060108554 -0.049562547 -0.1425567 0.0896842 0.019093286 0.075917564 0.0438892 0.13087146
-0.09874 0.076735675 0.03612852 0.0065889647 0.04504852 0.019336207 -0.15178975 0.036824442
0.006256177 -0.0034153133 0.04397402 0.031321082 0.025844252 -0.098596595 0.05774886 -0.14657009
0.053016935 0.057644352 -0.0009418235 0.11191893 0.025443176 -0.01156717 -0.0015390663 0.031570762
0.004272465 -0.07041506 0.11216602 0.12900774 0.09885186 -0.019399373 0.05906346 0.12900774
0.037215486 0.08681245 -0.05249453 0.06296155 -0.011034374 -0.04526965 0.09838478 0.012921507
-0.09023925 0.13238259 0.007963176 0.06722713 -0.108124 0.101179294 -0.15795997 -0.14229204
-0.003910325 0.119146846 0.0046666167 -0.019951003 -0.01131132 -0.005165542 -0.045565214 -0.058701187
-0.04834109 -0.05689275 0.075288124 0.14679918 -0.12276357 0.074253574 0.0020165127 0.019176831
0.040275935 -0.14011355 0.04515182 -0.06945009 0.0027251104 -0.1166475 0.07663713 -0.104663834
0.083064675 -0.013947061 0.04289394 -0.07433473 0.016499618 0.061613105 0.070404485 -0.008684765
-0.13571058 0.08171521 -0.028020205 -0.02237774 0.027342733 -0.004608718 -0.0141676245 -0.046010293
0.042394638 -0.05765208 0.083643295 -0.05778091 0.026059618 0.13261262 0.01096565 0.086595
-0.04341305 0.13428742 0.10714008 0.030726181 0.07987947 -0.0246892 0.0010250789 0.10502318
00000000: cfb5 a33d f2f3 753d a441 86bd 74bd 1abe
00000010: e210 85bd 6a33 a1bd c30f 7cbd a6d3 b63d
00000020: cefe 943c 03be 0b3e 0741 84bd 45a3 803d
00000030: c209 ca3d c2d8 5d3d 19b6 c13b a372 5b3c
00000040: d678 32bd 4d51 113d a5e4 123e e250 92bd
00000050: 0acf 86bc 71bf a2bd 3794 fdbc 9141 0ebe
00000060: c62e df3d 7dc5 7fbd 8786 3fbd 2548 3a3b
00000070: a0d1 54bd a01e b7bc b6c8 253e 53e7 6bbd
00000080: b0b4 adbb 4452 073c 267c 5ebd 1a77 3cbd
00000090: 9f05 05bd 33c3 f43d 8842 21bd 4828 133e
000000a0: 6d45 4ebd 5740 97bd 6d91 8e3a c779 bebd
000000b0: 51b5 dbbc 95d1 c63b 1f48 65bb 1003 b6bc
000000c0: ed6b 11bc 6810 b43d ed6d cabd 3340 ccbd
000000d0: 5515 c3bd 4437 a43b e544 81bd ca78 06be
000000e0: 6077 04bd b098 c6bd 4144 2b3d 9689 57bd
000000f0: 11fb bdbb 8d8e 383d 2b55 bcbd 415b 97bc
00000100: 77b1 da3d 3646 f9bd 60bd 3d3b 6efa 48bd
00000110: 05eb 073e 6da7 cbbd 3015 1a3e 0221 0e3e
00000120: 5fa0 10bc da93 d7bd b0d1 17bb 5277 3c3c
00000130: f0cf 6d3c 89de e339 71df 4e3d 56f4 623d
00000140: fe01 2d3d 1b86 223d 823e 82bd 4f8e 08be
00000150: 4411 ef3d 053c 98bd a403 a03a ae29 d13a
00000160: aa79 c1bc 6711 ee3d f9be 09bd 1734 a63d
00000170: 1204 03ba a1de fd3d 335a cfbd 491d 9d3d
00000180: fdd0 84bd c973 423c 0bdb 61bd 7fdd 513d
00000190: 03f5 7f3a 0ab9 81bd e0c6 8ebd f984 553c
000001a0: f815 053e 1983 b5bd b6cb cd3c 890d 333c
000001b0: d09a ffbc 6112 1abb ba63 173c ece8 703d
000001c0: bfb2 bdbc e8ba 603d f51b b6bd 4dc8 573d
000001d0: 881c 39bd a477 e9bd e904 be3b ee7f bbbd
000001e0: 2e51 3e3d 1b4c 00be 3726 eabd 607f f5bc
000001f0: f160 63bd c364 bc3c ff53 c7ba adc8 d0bd
00000200: ee2c bbbd 6036 84bd 7885 3a3d e6dd 1d3e
00000210: bff2 793d 135c b93d 05c5 843d 829d adbd
00000220: 6206 15bc 4758 06be 1a66 943d 0688 71bd
00000230: db3c a6bd 1055 4abd ec2b 19bc 93f7 80ba
00000240: 6334 763d 1902 4bbd 62fa 11be 5aac b73d
00000250: 8669 9c3c ab7a 9b3d 29c5 333d 2b03 063e
00000260: 3238 cabd 9827 9d3d 80fb 133d 3ee8 d73b
00000270: cc84 383d f766 9e3c c66e 1bbe 3ad5 163d
00000280: 9e00 cd3b 73d3 5fbb 1a1e 343d 894a 003d
00000290: 53b7 d33c 03ed c9bd 128a 6c3d 7816 16be
000002a0: 4928 593d 7c1c 6c3d b5e4 76ba c135 e53d
000002b0: 356e d03c 3a84 3dbc 7fba c9ba 5850 013d
000002c0: 0900 8c3b c535 90bd 4cb7 e53d 9b1a 043e
000002d0: d872 ca3d 6feb 9ebc 87ec 713d 9b1a 043e
000002e0: 446f 183d baca b13d 8104 57bd fcf1 803d
000002f0: 85c9 34bc ab6c 39bd f67d c93d bab4 533c
00000300: 5bcf b8bd 4d8f 073e fb77 023c 61ae 893d
00000310: 1e70 ddbd 1737 cf3d 42c0 21be 01b5 11be
00000320: 2f22 80bb 4303 f43d 6bea 983b 4970 a3bc
00000330: 1d53 39bc b543 a9bb 97a2 3abd a870 70bd
00000340: 4f01 46bd 5f08 69bd a930 9a3d 8652 163e
00000350: 776b fbbd 4212 983d 7827 043b bb18 9d3c
00000360: 61f8 243d ed79 0fbe 1df1 383d d93b 8ebd
00000370: c497 323b e2e4 eebd edf3 9c3d fe59 d6bd
00000380: d01d aa3d 3782 64bc 8eb1 2f3d cf3c 98bd
00000390: 352a 873c 065e 7c3d 3a30 903d 8b4a 0ebc
000003a0: b7f7 0abe 4e5a a73d a18a e5bc 8651 b7bc
000003b0: defd df3c bb04 97bb 531f 68bc 4a75 3cbd
000003c0: 00a6 2d3d 9624 6cbd 2d4d ab3d adab 6cbd
000003d0: fb7a d53c 9acb 073e 45a9 333c b858 b13d
000003e0: e2d1 31bd a482 093e 426c db3d 79b5 fb3c
000003f0: d997 a33d 0141 cabc f15b 863a 6516 d73d

network_body._body_endoder.seq_layers.0.bias f4 [128]
-0.045904007 0.04722995 0.010783737 0.01915783 -0.013437881 0.0025827882 0.007896731 -0.0111219445
-0.028404702 0.025472026 -0.020475097 0.00014989667 -0.033715315 -0.031765163 0.032842502 0.033892043
0.066122055 -0.02792345 0.016656058 -0.037827786 -0.04323953 0.04428549 0.060594026 0.024362268
0.019638883 0.009542397 -0.023143798 -0.019199982 0.013902816 -0.0428348 -0.0056179697 -0.04021317
-0.03591643 -0.0026028221 -0.028700247 0.007503334 0.0015875731 -0.073746376 -0.0102580935 -0.04248526
0.0042804447 -0.02987595 0.04260408 0.001342772 0.044961274 0.0038995876 -0.0120666055 0.0065572765
-0.03263802 0.033486344 0.014616396 -0.011449673 0.058289684 0.015666751 -0.020000137 0.0489976
-0.009178949 0.06870382 0.0066796737 0.035610337 0.03651073 -0.01578208 0.028543182 0.035935096
0.08220565 0.03817807 0.048302427 0.009098721 0.044107106 0.03399732 -0.0028801241 0.023858031
-0.025015742 -0.021205483 -0.0647735 -0.0767412 0.034125287 0.009265709 0.015720591 -0.035530202
0.018954413 -0.046229046 -0.0010755258 -0.0124117695 0.01268566 0.09591847 0.012763244 0.033102512
0.018558666 -0.017054895 -0.0505023 -0.00463926 0.0161998 0.013511345 -0.037801508 0.041939717
0.024132557 0.02243338 -0.028706254 0.0044558044 0.047571424 0.01962649 -0.0131307645 -0.0015445002
0.036894877 0.007879426 -0.017457675 0.027259234 -0.033841703 -0.020210141 0.01726475 0.0043112077
-0.029425086 -0.00885953 0.017458042 0.0024842478 -0.01815185 -0.047791045 0.010865429 -0.0104975505
0.04627174 0.102973714 -0.0014005355 0.045759223 0.018492032 0.036547612 0.07263147 0.0628629
00000000: d705 3cbd 3174 413d 45ae 303c e2f0 9c3c
00000010: 8f2a 5cbc ff43 293b 4a61 013c d138 36bc
00000020: fab0 e8bc b6aa d03c 64bb a7bc 952d 1d39
00000030: 1219 0abd 301c 02bd dc85 063d 62d2 0a3d
00000040: 006b 873d b8bf e4bc 4972 883c 4ff1 1abd
00000050: ef1b 31bd b464 353d 7131 783d 6193 c73c
00000060: b9e1 a03c b757 1c3c 1098 bdbc 4849 9dbc
00000070: a3c8 633c 8b73 2fbd f216 b8bb 91b6 24bd
00000080: 1b1d 13bd 1c94 2abb c81c ebbc 87de f53b
00000090: 1d16 d03a 5708 97bd 9011 28bc 0605 2ebd
000000a0: f942 8c3b 69be f4bc 9e81 2e3d f4ff af3a
000000b0: 5029 383d 3990 7f3b 03b3 45bc 6cde d63b
000000c0: 72af 05bd fa28 093d 9c79 6f3c 6997 3bbc
000000d0: 2ac1 6e3d 8f57 803c 54d7 a3bc b5b1 483d
000000e0: 4d63 16bc 97b4 8c3d 2ae1 da3b 25dc 113d
000000f0: 468c 153d 6c49 81bc 64d3 e93c ae30 133d
00000100: 705b a83d 9c60 1c3d c4d8 453d cd12 153c
00000110: a7a9 343d c640 0b3d 77c0 3cbb eb71 c33c
00000120: d0ed ccbc 1fb7 adbc f8a7 84bd 7e2a 9dbd
00000130: f5c6 0b3d 33cf 173c 78c8 803c 1e88 11bd
00000140: 4946 9b3c ab5a 3dbd a8f8 8cba bc5a 4bbc
00000150: 84d7 4f3c e770 c43d ed1c 513c 8096 073d
00000160: 5808 983c b5b6 8bbc 80db 4ebd ef04 98bb
00000170: 71b5 843c b05e 5d3c c1d5 1abd fbc8 2b3d
00000180: a4b1 c53c 35c6 b73c 6129 ebbc ff01 923b
00000190: 41da 423d bcc7 a03c 6b22 57bc d470 caba
000001a0: 151f 173d b518 013c 6603 8fbc c24e df3c
000001b0: 999d 0abd bd8f a5bc ce6e 8d3c 0845 8d3b
000001c0: e10c f1bc 9027 11bc 2b04 8f3c c3ce 223b
000001d0: 30b3 94bc 8bc0 43bd ea04 323c ebfd 2bbc
000001e0: 7087 3d3d e2e3 d23d 2c92 b7ba 066e 3b3d
000001f0: 9a7c 973c f3b2 153d cfbf 943d 44be 803d

network_body._body_endoder.seq_layers.0.weight f4 [128, 42]
0.052656226 0.29548383 -0.11007624 0.14738896 0.21134295 -0.0038128179 -0.124161445 -0.16145806
0.0062089628 -0.042463392 0.15426748 -0.045633417 0.115605965 -0.014492712 0.05467776 -0.13173862
0.17157997 -0.31554428 -0.11462518 0.10663619 0.21538253 -0.2802993 0.12723741 -0.13042425
-0.3913266 0.25035584 0.36011413 -0.43094748 -0.19732551 0.28482443 -0.029499192 -0.17185815
-0.2087451 -0.40145615 0.36901522 -0.02236484 -0.32185638 -0.17706382 -0.26666224 0.07980788
0.016607497 0.3439923 -0.058517337 0.070767775 -0.23046118 0.24274172 -0.14193377 -0.033948377
-0.10091616 -0.01740387 0.02046729 0.0015682877 -0.033173624 -0.075752355 0.05970008 -0.18723191
-0.095032595 -0.22455889 0.33709678 0.15038505 0.16494498 0.15771773 -0.07509453 0.15963967
0.112304315 0.16714701 -0.015036179 -0.079013884 -0.38418937 0.031277277 0.07653259 0.29480302
0.15514678 0.09860136 0.06552549 0.32689148 -0.1364711 0.09147642 -0.049915545 -0.18704282
0.12356349 0.13283917 -0.045206305 0.27081266 -0.18924741 0.093236886 -0.17895058 -0.26433402
-0.05456155 -0.19312383 -0.11834559 0.06178389 -0.059202988 0.09042878 -0.2715888 -0.1019826
-0.40016884 0.08453414 -0.070231706 0.07120092 0.08783305 -0.28025082 -0.030598987 0.05231519
-0.05339978 0.011442738 -0.09390815 -0.085841775 -0.24353112 -0.00067295996 -0.18247856 -0.08520024
-0.44325513 -0.1593304 -0.10637891 0.07407564 -0.41053987 -0.097127005 0.008443241 -0.06943462
0.1415691 -0.29033288 -0.07142712 0.17508204 0.35537475 0.056214303 0.15836267 -0.061977018
-0.004983958 -0.027804729 -0.25565 0.27696455 0.19905216 -0.0695413 -0.24320671 0.0015844865
0.07524476 -0.22323802 -0.33035502 0.12903635 -0.010722431 -0.099695794 0.18077745 0.22856821
-0.067605406 -0.08356434 -0.0867157 0.27104133 0.24466348 -0.09211816 -0.024215931 -0.12789707
0.02363062 -0.11349589 0.031844363 -0.0061545395 -0.1240361 0.02131894 0.21813053 0.093895584
0.050451476 -0.12151795 0.07240971 0.16666403 -0.077481106 -0.041869506 -0.07450189 0.09914773
0.02135433 -0.32344165 -0.08203867 0.049299605 0.05334698 0.27814752 0.3631608 -0.1839891
-0.096911296 0.21964183 -0.1707911 0.035762202 -0.12858535 -0.15963885 0.20708758 -0.11451992
-0.015843727 0.15313525 -0.19641988 -0.17814997 -0.03347178 0.34028724 0.09205546 -0.074647024
-0.048114397 0.15844679 0.055486806 -0.11144201 0.10504691 -0.30154493 0.16089803 0.122386806
-0.10680904 0.2739625 -0.07926219 0.057177853 -0.056627553 0.11392839 0.33266598 0.05194429
-0.18730408 -0.08818839 0.09448808 -0.08410403 -0.20191838 0.08378515 0.09037403 -0.26725122
0.08122682 0.19347578 -0.13283664 -0.15483712 0.11249222 -0.020195274 0.013125479 0.064455606
-0.2892983 -0.018563041 -0.23120518 0.12817243 0.033290643 -0.0156232035 -0.14726627 0.14036244
0.06807831 -0.075408146 -0.030854627 0.3295119 0.14675884 -0.046749566 0.27539948 0.22571328
0.13462944 0.06779333 -0.21225029 0.20684873 0.061494168 0.06793575 -0.0770788 0.0752227
-0.029276216 -0.045476068 0.11770463 -0.08906323 -0.07331974 -0.3317374 0.2981482 -0.16116008
00000000: 0eae 573d a849 973e a76f e1bd 22ed 163e
00000010: 496a 583e 78e0 79bb 5b48 febd 4355 25be
00000020: 8e74 cb3b 18ee 2dbd 4bf8 1d3e 1bea 3abd
00000030: d2c2 ec3d d772 6dbc c9f5 5f3d 7de6 06be
00000040: a9b2 2f3e 058f a1be 9bc0 eabd 1364 da3d
00000050: 3d8d 5c3e 6483 8fbe 864a 023e ef8d 05be
00000060: f65b c8be a42e 803e e160 b83e 26a5 dcbe
00000070: b30f 4abe 82d4 913e 4aa8 f1bc 95fb 2fbe
00000080: 47c1 55be a98b cdbe 90ef bc3e 7836 b7bc
00000090: 5cca a4be 3850 35be f487 88be 5072 a33d
000000a0: 720c 883c c21f b03e e0af 6fbd b2ee 903d
000000b0: 04fe 6bbe 4991 783e 1657 11be 740d 0bbd
000000c0: 22ad cebd 9092 8ebc 05ab a73c 018f cd3a
000000d0: 11e1 07bd 0d24 9bbd 1288 743d b9b9 3fbe
000000e0: 73a0 c2bd c4f2 65be f397 ac3e 8afe 193e
000000f0: 56e7 283e c280 213e 29cb 99bd 9578 233e
00000100: ceff e53d 9628 2b3e 4e5a 76bc 08d2 a1bd
00000110: 78b4 c4be 9a1c 003d 1ebd 9c3d 6cf0 963e
00000120: ccde 1e3e 83ef c93d 3a32 863d 525e a73e
00000130: 14bf 0bbe fd57 bb3d 3e74 4cbd 2788 3fbe
00000140: db0e fd3d fe06 083e 3f2a 39bd f5a7 8a3e
00000150: 13ca 41be fbf2 be3d d23e 37be ca56 87be
00000160: ef7b 5fbd 41c2 45be 2c5f f2bd 1b11 7d3d
00000170: d57e 72bd b932 b93d b00d 8bbe 41dc d0bd
00000180: eee2 ccbe 3c20 ad3d a4d5 8fbd cad1 913d
00000190: d0e1 b33d 097d 8fbe baaa fabc 7448 563d
000001a0: bab9 5abd 527a 3b3c eb52 c0bd d0cd afbd
000001b0: 3960 79be 9469 30ba a9db 3abe 777d aebd
000001c0: 56f2 e2be 8227 23be 30dd d9bd f8b4 973d
000001d0: 4832 d2be 86ea c6bd 8555 0a3c bd33 8ebd
000001e0: 7df7 103e 83a6 94be 6248 92bd b548 333e
000001f0: aef3 b53e f840 663d d329 223e 9ddb 7dbd
00000200: 7850 a3bb bec6 e3bc 8fe4 82be 4cce 8d3e
00000210: 54d4 4b3e ab6b 8ebd 2e0b 79be 8bae cf3a
00000220: ed19 9a3d 8298 64be 4b24 a9be 1b22 043e
00000230: 23ad 2fbc 4f2d ccbd b91d 393e c90d 6a3e
00000240: b474 8abd c823 abbd 0098 b1bd eec5 8a3e
00000250: 1089 7a3e 72a8 bcbd 7d60 c6bc 73f7 02be
00000260: 0195 c13c 8870 e8bd 3c6f 023d 05ac c9bb
00000270: a406 febd 0fa5 ae3c 9c5d 5f3e 544c c03d
00000280: 35a6 4e3d 67de f8bd 8b4b 943d faa9 2a3e
00000290: 6aae 9ebd 5c7f 2bbd 7294 98bd f70d cb3d
000002a0: 47ef ae3c 259a a5be e403 a8bd 62ee 493d
000002b0: 5d82 5a3d 5a69 8e3e 36f0 b93e a367 3cbe
000002c0: 6e79 c6bd cae9 603e dde3 2ebe 637b 123d
000002d0: e1ab 03be 5e78 23be c40e 543e 6b89 eabd
000002e0: b4ca 81bc 7dcf 1c3e 4b22 49be f26c 36be
000002f0: b519 09bd 213a ae3e 9387 bc3d 8ae0 98bd
00000300: 9a13 45bd e03f 223e 2246 633d b53b e4bd
00000310: d622 d73d 1964 9abe 74c2 243e efa5 fa3d
00000320: b3be dabd d044 8c3e 3754 a2bd 5333 6a3d
00000330: 4bf2 67bd 4a53 e93d 3253 aa3e 89c3 543d
00000340: a4cc 3fbe 1d9c b4bd f782 c13d bc3e acbd
00000350: b1c3 4ebe 8c97 ab3d 0516 b93d 27d5 88be
00000360: 3f5a a63d 841e 463e 5406 08be 9f8d 1ebe
00000370: 5262 e63d 8f70 a5bc 400c 573c 4d01 843d
00000380: e81e 94be 8511 98bc 0dc1 6cbe a23f 033e
00000390: c55b 083d 77f8 7fbc f8cc 16be 2cbb 0f3e
000003a0: a46c 8b3d 966f 9abd d8c2 fcbc c9b5 a83e
000003b0: f347 163e 797c 3fbd 2901 8d3e 6221 673e
000003c0: 4ddc 093e 3bd7 8a3d 2458 59be 27d0 533e
000003d0: 4fe1 7b3d e621 8b3d 7ddb 9dbd 5c0e 9a3d
000003e0: add4 efbc 1d45 3abd 200f f13d c866 b6bd
000003f0: a928 96bd 7cd9 a9be e2a6 983e 2607 25be

network_body._body_endoder.seq_layers.2.bias f4 [128]
0.011270954 0.04757426 -0.033296824 0.020904059 -0.021630157 -0.010840809 -0.026667347 0.059921063
-0.016957406 0.066184126 2.22016e-05 0.038157575 0.053839568 0.019657055 0.011294174 -0.025364155
-0.0045299693 0.04376417 0.061814293 -0.013048871 -0.05579779 -0.00079915934 0.013847836 -0.023594115
0.059194982 -0.01336188 0.00034788216 -0.014217076 -0.012516004 -0.038747255 0.05647083 -0.037221204
-0.027299525 0.012125065 -0.016035955 -0.026351407 0.0014556145 0.04869156 -0.016696287 0.04273708
-0.029942773 -0.0027422355 -0.03411392 -0.028023021 -0.014396897 -0.0134746935 0.005504402 0.009441796
-0.01959461 0.04935742 -0.012227056 0.037680764 -0.010628309 -0.007088669 -0.032723024 -0.006694835
-0.03921507 -0.0075494237 0.0030307707 -0.011821032 -0.015596977 0.009526884 0.01148221 -0.020499678
0.050132614 0.017357063 -0.03585939 -0.02349512 0.09260129 0.016363883 0.08191689 0.057150632
-0.035367455 -0.022177305 -0.00893179 0.004345174 0.00036363085 -0.031571276 0.029014058 0.030330483
0.025431871 0.03585088 -0.0076805484 0.032406356 0.039632373 -0.004540819 -0.008081272 -0.06862157
-0.025899587 0.051765434 0.0227227 0.015297257 -0.03087008 0.05807073 -0.017398326 0.05529827
-0.03287976 0.010636655 0.022220107 0.036941428 0.0022911462 -0.015750995 0.01255548 0.0064597605
0.07537616 -0.0050060297 -0.003481476 -0.025920829 0.00878494 -0.026278373 0.01208683 0.004057824
-0.017208846 0.039752226 -0.018273551 0.023424966 -0.002723736 0.026451292 -0.016007924 0.01625737
0.016356757 0.009950516 -0.015214348 0.025747227 0.014403691 0.016175518 -0.02496621 0.00042117885
00000000: cfa9 383c 3add 423d 4062 08bd fd3e ab3c
00000010: ba31 b1bc a69d 31bc 7b75 dabc ca6f 753d
00000020: 42ea 8abc 8b8b 873d 933d ba37 1e4b 1c3d
00000030: e186 5c3d d507 a13c 330b 393c 7dc8 cfbc
00000040: 2370 94bb 0f42 333d fc30 7d3d efca 55bc
00000050: 398c 64bd ad7e 51ba 09e2 623c 7248 c1bc
00000060: 7076 723d c9eb 5abc f463 b639 bdee 68bc
00000070: ed0f 4dbc 71b5 1ebd f54d 673d 4375 18bd
00000080: 41a3 dfbc 35a8 463c d65d 83bc e8de d7bc
00000090: 51ca be3a cd70 473d a7c6 88bc 140d 2f3d
000000a0: 8c4a f5bc 14b7 33bb 0abb 0bbd 8990 e5bc
000000b0: f6e0 6bbc f6c4 5cbc 455e b43b c3b1 1a3c
000000c0: e084 a0bc 022b 4a3d fd53 48bc 2557 1a3d
000000d0: 5c22 2ebc 1148 e8bb 9408 06bd 5960 dbbb
000000e0: fb9f 20bd 2861 f7bb e59f 463b 00ad 41bc
000000f0: 778a 7fbc a616 1c3c e11f 3c3c f1ee a7bc
00000100: db57 4d3d 6630 8e3c 4ce1 12bd d778 c0bc
00000110: bfa5 bd3d 8d0d 863c 0bc4 a73d c816 6a3d
00000120: 77dd 10bd 2ead b5bc a456 12bc f661 8e3b
00000130: b5a5 be39 e250 01bd e4ae ed3c a277 f83c
00000140: 8056 d03c 5fd8 123d 1cad fbbb 87bc 043d
00000150: 8e55 223d 27cb 94bb 5067 04bc 7789 8cbd
00000160: 5f2b d4bc fe07 543d f524 ba3c 59a1 7a3c
00000170: 40e3 fcbc 93db 6d3d ef86 8ebc 7080 623d
00000180: edac 06bd 5d45 2e3c f106 b63c e54f 173d
00000190: 0e27 163b 3b08 81bc 80b5 4d3c 66ac d33b
000001a0: d15e 9a3d 9f09 a4bb 7a29 64bb eb57 d4bc
000001b0: b5ee 0f3c be45 d7bc d707 463c 7ff7 843b
000001c0: 91f9 8cbc 3bd3 223d 6ab2 95bc b7e5 bf3c
000001d0: b580 32bb 61b0 d83c 0d23 83bc 2d2e 853c
000001e0: 9bfe 853c 7d07 233c 9a45 79bc d9eb d23c
000001f0: 75fd 6b3c 8582 843c f085 ccbc abd1 dc39

network_body._body_endoder.seq_layers.2.weight f4 [128, 128]
-0.015875274 -0.13857597 0.1350805 -0.04675155 0.037116393 -0.073957354 0.12918429 0.093152046
0.0016877293 -0.083875254 -0.13264322 0.0031660516 -0.19433749 0.018655054 -0.07320473 -0.14024985
-0.011628757 -0.08353513 -0.0017632958 -0.097994916 0.018322254 -0.039434493 0.23915593 -0.03256351
-0.03849986 0.1324979 -0.023428276 0.19946255 -0.08261475 -0.12339471 -0.10530865 0.037425973
0.19449465 -0.06536926 0.05392249 -0.025114285 -0.0064000697 0.031678844 0.0069060945 -0.15862142
0.05771223 -0.18317194 0.038427375 0.028714327 0.23609388 -0.063325286 -0.11953683 0.17326632
-0.026421014 0.062879145 0.09421813 0.030889725 0.25066772 0.004302134 0.0090156775 0.075508736
0.019388672 -0.03620281 0.03084117 0.044560626 -0.046785153 -0.06170394 -0.10170347 -0.08883537
0.1603804 -0.16746265 0.1443299 -0.06639583 0.057954036 0.09565078 -0.11453166 -0.095099255
0.10757784 -0.09272907 -0.074945696 0.08471995 0.037416045 0.025132135 0.08895989 0.023346907
-0.013395119 -0.16773076 -0.1873173 -0.051093947 0.13073373 -0.029123614 -0.06737751 -0.0208913
-0.11374398 0.14513946 -0.029581787 0.0017779282 0.0020107857 -0.08189246 0.021165404 -0.037546616
0.09168837 0.016199704 0.033937458 -0.07505753 0.0040359315 0.06260634 0.06355228 -0.11560463
0.109374054 0.004815857 0.084423594 0.18835433 -0.01913163 -0.18871337 -0.0064389897 -0.021917263
-0.17591763 0.026457349 0.022580164 0.008403197 -0.15182102 -0.058785226 -0.022988422 0.004394988
0.08023884 0.103640035 0.035897106 -0.03117707 -0.023243178 -0.073271275 -0.026449716 0.09581849
-0.023122862 0.059964657 0.061381027 0.114455126 0.07441937 0.029454088 -0.062485836 0.114868656
-0.12967038 0.0738579 0.0014827423 -0.06755731 0.066450134 -0.04807198 -0.063476786 -0.031456985
0.0037308296 -0.012335111 0.026586138 -0.12023865 -0.11018573 0.041801136 0.16840908 -0.009009477
-0.0034100094 0.11990751 0.041282088 -0.10145958 -0.05853544 -0.10958293 -0.17116405 0.10138043
-0.013650212 -0.14745542 -0.054328594 0.041478403 -0.109847434 0.099672966 0.059185572 0.01970872
0.025160374 -0.09209576 -0.1530755 -0.08073962 0.12532543 0.013503424 0.08996028 0.024208464
-0.15599403 -0.022608856 0.060280975 -0.07157815 0.01633962 -0.050518107 -0.07628404 0.13803163
-0.22735023 -0.14460725 -0.04344213 0.09982891 0.07553646 0.11285233 0.059994105 0.09777162
0.034454104 0.035284437 0.1879649 -0.032103673 0.18003187 0.00055739743 0.15081985 -0.16130127
-0.10623858 -0.0044917706 0.101861 -0.01117345 -0.01484369 0.16384764 -0.05401322 0.016565122
0.14421785 -0.1567882 -0.030933836 0.06444063 -0.13549009 0.06962346 -0.0847721 0.14407939
0.111198775 -0.021352699 -0.07839589 -0.101475425 -0.008543368 0.110916905 0.10129626 -0.13252088
0.024785817 0.10122478 -0.15466699 -0.21508057 -0.18347439 0.06337169 0.01823365 -0.13186172
-0.057688378 0.01733345 0.017810017 -0.070106976 -0.07684403 0.012873157 0.06375188 -0.021710116
0.034806564 -0.10862047 0.034632485 -0.045897327 0.015817476 -0.22459878 0.012692066 0.12038729
-0.040698826 0.27630544 -0.21901664 0.13688135 0.055759147 0.0066417907 0.06469421 0.022575472
00000000: dd0c 82bc dce6 0dbe 8b52 0a3e 8e7e 3fbd
00000010: 5c07 183d f476 97bd e348 043e 80c6 be3d
00000020: cc36 dd3a cac6 abbd a0d3 07be 887d 4f3b
00000030: 6800 47be 7cd2 983c 5dec 95bd a89d 0fbe
00000040: 8b86 3ebc 7714 abbd 641e e7ba 8fb1 c8bd
00000050: 8d18 963c 1086 21bd 4be5 743e 5161 05bd
00000060: 07b2 1dbd 88ad 073e a8ec bfbc e93f 4c3e
00000070: ec31 a9bd 5eb6 fcbd 10ac d7bd fa4b 193d
00000080: 9b29 473e 52e0 85bd d4dd 5c3d 79bc cdbc
00000090: adb7 d1bb adc1 013d 854c e23b a76d 22be
000000a0: a963 6c3d 6d91 3bbe 0666 1d3d 4f3a eb3c
000000b0: 98c2 713e b0b0 81bd bacf f4bd ba6c 313e
000000c0: e270 d8bc c8c6 803d 6ff5 c03d 730c fd3c
000000d0: 8557 803e eaf8 8c3b 7eb6 133c 53a4 9a3d
000000e0: fed4 9e3c 6649 14bd 9fa6 fc3c 3485 363d
000000f0: caa1 3fbd 45bd 7cbd e949 d0bd 52ef b5bd
00000100: c23a 243e 547b 2bbe 38cb 133e 89fa 87bd
00000110: 3661 6d3d 8ee4 c33d 938f eabd 66c3 c2bd
00000120: c551 dc3d bde8 bdbd 217d 99bd a781 ad3d
00000130: 9141 193d e8e1 cd3c 9a30 b63d 0342 bf3c
00000140: 3477 5bbc 9dc1 2bbe 1bd0 3fbe e347 51bd
00000150: 10df 053e a594 eebc 38fd 89bd 3b24 abbc
00000160: 9bf2 e8bd 709f 143e 8155 f2bc 5f09 e93a
00000170: 63c7 033b 3cb7 a7bd 1263 ad3c 7bca 19bd
00000180: 1dc7 bb3d 3eb5 843c 0102 0b3d c3b7 99bd
00000190: d93f 843b c137 803d b327 823d 1fc2 ecbd
000001a0: 81ff df3d 56ce 9d3b 47e6 ac3d f5df 403e
000001b0: f0b9 9cbc 143e 41be 29fe d2bb d58b b3bc
000001c0: c023 34be 15bd d83c 09fa b83c 90ad 093c
000001d0: f876 1bbe c7c8 70bd 3752 bcbc d503 903b
000001e0: 4354 a43d 3a41 d43d d808 133d 0e67 ffbc
000001f0: 7a68 bebc 400f 96bd 13ad d8bc 7c3c c43d
00000200: 286c bdbc 809d 753d ac6a 7b3d 7367 ea3d
00000210: 2f69 983d b349 f13c 26f1 7fbd 4240 eb3d
00000220: 50c8 04be d042 973d 9358 c23a 7d5b 8abd
00000230: 0217 883d 20e7 44bd 1e00 82bd 0ad9 00bd
00000240: ef80 743b 3519 4abc 2ccb d93c ae3f f6bd
00000250: 0ea9 e1bd ab37 2b3d 6e73 2c3e 7c9c 13bc
00000260: 777a 5fbb 1292 f53d 6817 293d 0aca cfbd
00000270: dcc2 6fbd 046d e0bd a145 2fbe 8ba0 cf3d
00000280: 24a5 5fbc 8efe 16be a987 5ebd 42e5 293d
00000290: b1f7 e0bd 5721 cc3d 926c 723d 2e74 a13c
000002a0: 211d ce3c b49c bcbd d3bf 1cbe d05a a5bd
000002b0: 4f55 003e 773d 5d3c 183d b83d d450 c63c
000002c0: e6bc 1fbe 3536 b9bc 2fe9 763d 9197 92bd
000002d0: abda 853c 13ec 4ebd cf3a 9cbd 2a58 0d3e
000002e0: 80ce 68be ec13 14be 60f0 31bd 1973 cc3d
000002f0: dcb2 9a3d 1f1f e73d 61bc 753d 7d3c c83d
00000300: bf1f 0d3d 6a86 103d df79 403e 247f 03bd
00000310: 465a 383e 4f1e 123a 8570 1a3e 292c 25be
00000320: 9d93 d9bd b42f 93bb 809c d03d d910 37bc
00000330: f332 73bc adc7 273e f73c 5dbd 94b3 873c
00000340: d8ad 133e 168d 20be f568 fdbc 73f9 833d
00000350: eabd 0abe bf96 8e3d ff9c adbd 8c89 133e
00000360: 2fbc e33d dbeb aebc 068e a0bd 59d2 cfbd
00000370: 7cf9 0bbc 6728 e33d 6a74 cf3d 8eb3 07be
00000380: a00b cb3c f04e cf3d 0661 1ebe 153e 5cbe
00000390: b6e0 3bbe 04c9 813d bc5e 953c c206 07be
000003a0: a64a 6cbd e1fe 8d3c 50e6 913c 3f94 8fbd
000003b0: 6760 9dbd efe9 523c 5890 823d 6ad9 b1bc
000003c0: 5491 0e3d 6974 debd cbda 0d3d d6fe 3bbd
000003d0: a793 813c 39fd 65be 62f2 4f3c 9d8d f63d
000003e0: d0b3 26bd e877 8d3e e645 60be a02a 0c3e
000003f0: b463 643d 61a3 d93b 667e 843d 32f0 b83c
