results/GoalAgent9_Epoch9/MoveToGoal/MoveToGoal-300401.onnx (onnx, 72639 bytes, 7 tensors)

action_model._continuous_distribution.log_sigma f4 [1, 2]
-0.04105055 -0.038044646
00000000: 9f24 28bd b4d4 1bbd

action_model._continuous_distribution.mu.bias f4 [2]
-0.0059625725 0.051935766
00000000: af61 c3bb 99ba 543d

action_model._continuous_distribution.mu.weight f4 [2, 128]
-0.023676751 0.011804095 0.035692688 0.012335095 -0.0056913127 0.0071183136 -0.031909615 -0.041383646
0.029882813 0.03480387 -0.0029276873 0.020213058 -0.05331779 -0.0042874846 -0.016188143 -0.020933535
-0.028631292 0.0020081692 0.013443364 0.019155337 0.020338606 0.023755606 -0.030534955 0.0143401055
-0.02666814 0.017240403 -0.0049183154 -0.031308852 -0.007272465 0.06769971 -0.009908274 -0.036946535
0.058852963 -0.0051035252 0.023717154 -0.022952983 0.012975416 0.01270366 0.08558503 0.021969562
-0.016705105 0.018026324 -0.007180042 0.016182236 -0.015096234 0.020639557 0.0424353 0.015279351
0.011954655 0.044050694 0.018964613 0.004301489 -0.042375803 0.041601904 -0.034997776 0.013154545
0.0009036993 -0.0316293 0.017921649 0.03587078 0.0076365303 0.009438469 0.026630653 0.042491555
0.02195136 0.040030744 0.018041052 0.021728352 0.028354574 -0.019163476 0.013566231 0.022946129
0.04934088 -0.025793234 -0.039082825 -0.012255647 0.002032358 -0.052965455 0.08394953 0.048488684
0.011847495 -0.0028535593 -0.02526628 0.05751156 -0.016559696 0.02996195 0.02106494 0.013310901
-0.022992058 -0.022265585 0.015586213 0.002289708 0.011347691 0.016289638 -0.008077821 -0.0022265613
0.037930943 0.11095666 -0.07745999 0.024178019 -0.015996162 -0.016462915 0.022481257 0.011778423
0.07563938 0.0012904636 -0.025813429 -0.04818995 0.021893332 -0.0076870206 0.044486538 0.0077456916
-0.0059221596 -0.020904465 0.002958775 -0.016643116 0.0010980618 0.032913055 0.0027478884 0.014523816
0.01328913 -0.009562919 -0.004905835 0.0233945 -0.011638766 -0.0032633152 -0.0523485 0.031556103
0.020335777 0.026941942 -0.020672023 -0.0017932476 0.0046854243 -0.08134902 -0.032309398 -0.018153593
-0.055370193 0.051140558 -0.034110293 0.0048618685 -0.030970117 -0.043105345 -0.042980943 0.010744671
-0.026294192 -0.0009202807 0.020378094 0.0022188534 -0.023160115 -0.041259933 -0.0056673414 -0.0694214
-0.013264063 -0.03683902 -0.036706317 -0.012282532 -0.037696764 -0.08487038 -0.023207743 -0.042815346
0.03733287 -0.010487058 0.01162634 -0.056285527 -0.024352524 -0.02679 -0.008972275 0.03507461
0.018538887 -0.051030587 -0.07470821 0.042141747 -0.018340059 0.024934808 -0.04689479 -0.015147886
-0.07659562 0.004329015 -0.0031511113 -0.058005862 -0.12064331 0.02615681 -0.058517575 -0.055007055
-0.036211167 -0.030697772 -0.07962274 0.013860643 -0.07219476 -0.04526505 -0.028369932 0.002618411
0.010661883 -0.092533275 -0.09509459 0.006495907 -0.08306024 0.044261884 -0.08374858 0.025371745
-0.06472996 0.012160907 -0.065123156 0.023699917 -0.03306482 0.035397977 -0.030184692 0.013909479
-0.0075373286 -0.09886617 -0.05116421 -0.04201041 -0.025766212 0.049843274 -0.014242152 -0.021198686
0.03316252 -0.11852801 0.03664964 0.053284448 0.036299877 0.020228755 -0.029867088 0.0036195326
0.040237516 -0.0144528095 0.039094344 -0.0019051351 -0.05241486 0.029715458 -0.1036819 0.0004735833
-0.06368247 0.041005105 -0.06601963 0.024858039 0.005296557 0.056431428 -0.06288587 0.0902808
-0.05831577 -0.009512446 0.026212195 -0.095137805 -0.08049352 -0.0046095056 -0.12060873 -0.03818495
-0.02367857 -0.03776909 -0.057265703 0.033855606 -0.006877077 0.0037674818 -0.023371682 0.059090175
00000000: bff5 c1bc f665 413c 7f32 123d 2319 4a3c
00000010: 317e babb be40 e93b a8b3 02bd e681 29bd
00000020: cdcc f43c 818e 0e3d 71de 3fbb db95 a53c
00000030: c163 5abd 077e 8cbb ff9c 84bc ce7c abbc
00000040: 2c8c eabc 7d9b 033b 8e41 5c3c a7eb 9c3c
00000050: 269d a63c 1e9b c23c 7124 fabc c3f2 6a3c
00000060: 2577 dabc bf3b 8d3c d229 a1bb b63d 00bd
00000070: dc4d eebb 25a6 8a3d 5056 22bc 4055 17bd
00000080: ce0f 713d 793b a7bb 7a4a c23c e507 bcbc
00000090: d796 543c 0323 503c 3447 af3d 83f9 b33c
000000a0: 25d9 88bc f1ab 933c 8f46 ebbb 9c90 843c
000000b0: 3256 77bc 4a14 a93c a3d0 2d3d 3e56 7a3c
000000c0: 75dd 433c 806e 343d ad5b 9b3c 81f3 8c3b
000000d0: 4092 2dbd c266 2a3d d459 0fbd 2986 573c
000000e0: 3ce6 6c3a ba8d 01bd 6cd0 923c 3ded 123d
000000f0: dc3b fa3b cfa3 1a3c 8728 da3c a00b 2e3d
00000100: 57d3 b33c 47f7 233d d4ca 933c a8ff b13c
00000110: da47 e83c b9fc 9cbc e644 5e3c 85f9 bb3c
00000120: aa19 4a3d 554c d3bc 5015 20bd e9cb 48bc
00000130: 4f31 053b 4ef2 58bd bbed ab3d 129c 463d
00000140: ff1b 423c c802 3bbb 3bfb cebc 3e91 6b3d
00000150: 33a8 87bc c372 f53c 6290 ac3c f715 5a3c
00000160: d759 bcbc 5166 b6bc 515d 7f3c ed0e 163b
00000170: aaeb 393c d971 853c d658 04bc 80eb 11bb
00000180: 7a5d 1b3d 3f3d e33d 58a3 9ebd fb10 c63c
00000190: 620a 83bc 3cdd 86bc 9d2a b83c 49fa 403c
000001a0: d2e8 9a3d c624 a93a af76 d3bc d362 45bd
000001b0: a559 b33c 67e3 fbbb 8437 363d 92cf fd3b
000001c0: ad0e c2bb d73f abbc 02e8 413b 2557 88bc
000001d0: d7ec 8f3a d7cf 063d eb15 343b 4df5 6d3c
000001e0: a7ba 593c caad 1cbc 20c1 a0bb d3a5 bf3c
000001f0: 86b0 3ebc 58dd 55bb 616b 56bd f940 013d
00000200: 3797 a63c 59b5 dc3c 6058 a9bc 680b ebba
00000210: 3088 993b 519a a6bd dc56 04bd d8b6 94bc
00000220: dbcb 62bd c378 513d 3cb7 0bbd 4f50 9f3b
00000230: 0bb5 fdbc 3b8f 30bd c90c 30bd 6b0a 303c
00000240: eb66 d7bc fe3e 71ba f6ef a63c 2f6a 113b
00000250: 48ba bdbc 2d00 29bd 1bb5 b9bb cf2c 8ebd
00000260: 8351 59bc 83e4 16bd 5d59 16bd ac3c 49bc
00000270: ec67 1abd 86d0 adbd 2a1e bebc 255f 2fbd
00000280: 5aea 183d e9d1 2bbc 687c 3e3c a78b 66bd
00000290: f27e c7bc b476 dbbc 7300 13bc 65aa 0f3d
000002a0: ddde 973c 7305 51bd 9e00 99bd d39c 2c3d
000002b0: e43d 96bc 1544 cc3c c014 40bd d72e 78bc
000002c0: 2ade 9cbd 69da 8d3b e082 4ebb 8e97 6dbd
000002d0: d713 f7bd ce46 d63c 20b0 6fbd 144f 61bd
000002e0: 2952 14bd e579 fbbc 3f11 a3bd c017 633c
000002f0: d9da 93bd d867 39bd 0f68 e8bc a699 2b3b
00000300: 2eaf 2e3c 1682 bdbd f4c0 c2bd 9edb d43b
00000310: 7d1b aabd f34b 353d 6084 abbd 68d8 cf3c
00000320: 2491 84bd 8a3e 473c 4a5f 85bd 5426 c23c
00000330: fa6e 07bd 78fd 103d e345 f7bc 95e4 633c
00000340: b2fb f6bb 597a cabd 9091 51bd 1c13 2cbd
00000350: aa13 d3bc 7628 4c3d ea57 69bc dea8 adbc
00000360: 6cd5 073d d0be f2bd ef1d 163d cb40 5a3d
00000370: 2eaf 143d c6b6 a53c d3ab f4bc ae35 6d3b
00000380: 18d0 243d 7acb 6cbc 6421 203d bab5 f9ba
00000390: f7b0 56bd d56d f33c 2d57 d4bd 464b f839
000003a0: f46b 82bd f8f4 273d 4d35 87bd 16a3 cb3c
000003b0: be8e ad3b a424 673d 4fca 80bd 24e5 b83d
000003c0: 84dc 6ebd 17da 1bbc f5ba d63c 9cd7 c2bd
000003d0: c9d9 a4bd 560b 97bb b601 f7bd d267 1cbd
000003e0: 8ff9 c1bc c3b3 1abd 718f 6abd 2dac 0a3d
000003f0: 1a59 e1bb dbe7 763b f875 bfbc 8a08 723d

network_body._body_endoder.seq_layers.0.bias f4 [128]
-0.0043776473 -0.033352725 -0.09845974 -0.010762164 -0.03293501 -0.003261358 0.007971794 0.0073419474
0.0028742633 0.044245884 0.0151555315 0.05629832 0.005962721 -0.020158237 0.03777321 -0.030706735
-0.023123782 0.010305983 -0.05156758 -0.02856482 0.0013559061 -0.025518859 -0.059448674 0.046100006
-0.049984265 -0.04946647 -0.0007341042 -0.058343302 0.01652021 -0.03365599 -0.02769998 -0.02602457
-0.02220513 -0.024674319 0.009377443 0.033812225 0.006105852 -0.01791917 -0.011479657 -0.036988292
0.03065426 -0.007413847 0.03263569 -0.07558038 0.042445198 0.016356047 0.06933256 -0.03221934
0.06252734 0.040215977 -0.026312368 0.003275714 -0.026064793 -0.016309759 0.00250296 0.010779877
-0.022823635 0.077081375 -0.014037495 -0.031720445 -0.010323992 0.03183281 -0.026386412 -0.041247968
-0.02174061 -0.00792472 0.011921428 0.022175156 -0.029222429 -0.025623117 -0.039676294 0.022255743
-0.02193025 -0.053210273 -0.030402696 -0.006241887 -0.079250164 -0.003817001 -0.011003159 -0.020288736
0.0014438565 -0.008420101 0.015073604 -0.03572054 -0.033076506 0.026059039 0.022742404 0.070005685
-0.002715173 -0.04267614 -0.045802835 -0.006858723 -0.0064152237 -0.019723317 -0.0133651355 -0.0391317
0.004883251 -0.047997493 -0.0057675117 0.033335377 0.0073918016 0.0059915925 0.017374882 -0.010942236
0.03715305 0.006950171 -0.043709654 0.00411321 0.03593001 0.009740309 0.021620717 0.047823124
-0.027389668 -0.026364466 -0.021075971 -0.027645271 -0.024242027 0.055529524 0.00707258 -0.014473702
0.024717534 0.037162233 -0.029819304 0.026958179 -0.015600046 0.021239802 0.003356201 0.007997474
00000000: 5e72 8fbb de9c 08bd 43a5 c9bd ca53 30bc
00000010: dce6 06bd 82bc 55bb 219c 023c b894 f03b
00000020: 235e 3c3b 2c3b 353d e84e 783c 1199 663d
00000030: ee62 c33b e322 a5bc 15b8 1a3d b18c fbbc
00000040: 166e bdbc 6dda 283c 8738 53bd c500 eabc
00000050: a9b8 b13a ed0c d1bc 7480 73bd 5cd3 3c3d
00000060: 4dbc 4cbd 5a9d 4abd e670 40ba 63f9 6ebd
00000070: 6455 873c ddda 09bd 12eb e2bc 7b31 d5bc
00000080: 88e7 b5bc cc21 cabc d9a3 193c b07e 0a3d
00000090: 9913 c83b 39cb 92bc 2c15 3cbc 0981 17bd
000000a0: a51e fb3c dbef f2bb 00ad 053d e3c9 9abd
000000b0: 04db 2d3d 1efd 853c 3bfe 8d3d 6df8 03bd
000000c0: 560e 803d 82b9 243d 098d d7bc 5dad 563b
000000d0: d585 d5bc 0b9c 85bc b308 243b 159e 303c
000000e0: a2f8 babc d7dc 9d3d 85fd 65bc 4ced 01bd
000000f0: f625 29bc 1f63 023d 5128 d8bc a1f3 28bd
00000100: 5d19 b2bc afd6 01bc 1852 433c aca8 b53c
00000110: e063 efbc 92e7 d1bc 9c83 22bd ad51 b63c
00000120: 11a7 b3bc 04f3 59bd 130f f9bc be88 ccbb
00000130: e94d a2bd a626 7abb 9846 34bc 9034 a6bc
00000140: c93f bd3a 77f4 09bc 47f7 763c b34f 12bd
00000150: 3b7b 07bd c479 d53c 474e ba3c 245f 8f3d
00000160: 0bf1 31bb 2dcd 2ebd c19b 3bbd 23bf e0bb
00000170: cc36 d2bb cb92 a1bc 71f9 5abc 9048 20bd
00000180: ae03 a03b 0599 44bd 65fd bcbb ad8a 083d
00000190: ed36 f23b 1f55 c43b c555 8e3c 1047 33bc
000001a0: cc2d 183d 43be e33b e508 33bd 1bc8 863b
000001b0: 592b 133d d195 1f3c ee1d b13c 2ee2 433d
000001c0: 4c60 e0bc 4bfa d7bc 84a7 acbc 5678 e2bc
000001d0: 3797 c6bc ed72 633d 1ac1 e73b 1b23 6dbc
000001e0: 6d7c ca3c 6d37 183d 9d47 f4bc 66d7 dc3c
000001f0: 5697 7fbc 18ff ad3c b6f3 5b3b d607 033c

network_body._body_endoder.seq_layers.0.weight f4 [128, 6]
-0.2435058 0.17757805 -0.19454001 -0.21845603 0.2744262 0.39090744 0.36233222 -0.2283669
-0.12458396 0.63790005 -0.25777215 -0.22053827 0.011699421 0.26037252 0.1919135 -0.42018652
-0.5664543 -0.3178833 -0.1918371 0.8144548 -0.07450299 -0.18270713 -0.05775393 -0.0007686927
0.023820844 -0.21709208 -0.19735931 0.12644748 -0.34059045 -0.052559286 0.74255717 -0.59862494
-0.41262394 -0.07034397 0.39661703 -0.14238429 -0.20611908 -0.47304213 -0.12175485 0.26638955
-0.012235805 -0.3136658 -0.34641537 0.7802314 -0.06686074 -0.20435707 -0.45920905 0.3005727
-0.48141187 -0.778423 -0.15857267 -0.44412708 0.3105049 -0.12853135 -0.07443758 -0.118944295
-0.3137158 -0.3022534 0.32233503 -0.017891692 0.31875777 -0.14623933 -0.29492575 0.25428846
-0.36850753 -0.6437365 -0.20801987 0.8453615 1.055043 0.20982154 -0.10639714 0.3953882
-0.5362975 -0.021724682 0.48946044 0.2514618 -0.39847642 -0.09475042 -0.26536226 0.0050331457
0.018183246 -0.55517954 -0.013352166 -0.21791695 0.62761116 0.034395553 0.52955383 0.3029194
-0.054518085 0.7014989 0.7125871 -0.033506773 0.4619626 0.15723784 -0.38483906 -0.10161118
-0.15504223 -0.2930983 -0.74872935 0.120227136 -0.4138159 -0.20333113 0.38739368 -0.72690314
0.159658 -0.43789262 0.064895764 0.0035508848 0.68644273 -0.31730592 -0.29089892 0.7004227
-0.16540445 -0.662263 0.061306085 -0.5888865 0.39815074 -0.05929551 -0.13075212 0.31098002
-0.14770624 0.0020789648 0.15757866 0.051271867 0.67234385 -0.009162844 0.03762023 -0.22650312
0.12415399 -0.6224894 -0.32192513 -0.8198786 -0.30329734 -0.64192975 -0.6411579 0.3145283
0.21519387 0.2139484 0.3817421 0.11780108 0.27040333 0.88339263 -0.30924112 0.051946368
-0.670505 0.7311093 0.16201234 -0.7202451 -0.18747582 -0.16214716 -0.26329055 -0.6915517
0.38419893 -0.7045775 -0.11254891 0.46035737 -0.31095067 -1.1489047 0.48352405 -0.22577247
0.43069473 0.018871583 0.43298468 -0.41745716 -0.2803984 0.26199436 -0.38429287 -1.1721683
1.1278542 -0.2607342 0.5451884 0.69912446 -0.8838311 -0.1845355 0.65646 -0.22372018
-0.09028245 -0.08829356 0.28900114 -0.59460026 -0.17140727 0.6685185 -0.31436944 -0.15479618
0.5512788 0.19313025 0.16505201 0.13550733 -0.0004799103 0.29003227 0.34063345 0.26963753
0.52441734 -0.2896482 -0.68824273 0.6414544 0.32752904 -0.08876273 -0.16264129 -0.4616366
0.9713202 -0.69767016 -0.18759088 0.4769082 -0.6503714 -0.31920725 -0.46811238 -0.49253914
-0.019623421 0.46766496 -0.10542488 0.2064552 -0.081894085 -0.03839889 0.40598023 0.63425577
0.109764874 0.37237683 0.11362838 -0.446908 -0.8490052 -0.041414365 -0.14446622 0.21732639
0.33953258 -0.24884436 -0.2088828 -0.26711804 -0.321723 -0.66487616 0.2703083 -0.7927363
-0.80407524 -0.42155913 -0.3716792 -0.31000212 0.13691638 -0.1801125 -0.65789205 -0.41649717
-0.21047005 0.13707201 0.47465244 0.30326864 0.47217 -0.10406225 -0.4999883 -0.26701877
0.65568763 0.054476306 -0.39415368 -0.7958684 0.3752868 -0.60328543 -0.29397973 -0.7820568
00000000: 9659 79be 05d7 353e 7f35 47be f0b2 5fbe
00000010: 9781 8c3e 0525 c83e 9c83 b93e 03d9 69be
00000020: e025 ffbd 6b4d 233f b6fa 83be c9d4 61be
00000030: eeae 3f3c 8c4f 853e f984 443e b022 d7be
00000040: 2603 11bf 9ac1 a2be f270 44be 1c80 503f
00000050: 0695 98bd 9417 3bbe 638f 6cbd 1882 49ba
00000060: ee23 c33c 634d 5ebe 8f18 4abe 737b 013e
00000070: df61 aebe 6848 57bd 3a18 3e3f 7c3f 19bf
00000080: 7243 d3be 8010 90bd 6311 cb3e 30cd 11be
00000090: e110 53be 9432 f2be 9b5a f9bd 3664 883e
000000a0: b078 48bc ce98 a0be 5b5d b1be 3fbd 473f
000000b0: 49ee 88bd fb42 51be 731d ebbe aae4 993e
000000c0: 9e7b f6be bb46 47bf e060 22be a064 e3be
000000d0: 80fa 9e3e b99d 03be bb72 98bd 1199 f3bd
000000e0: 5b9f a0be f5c0 9abe 1909 a53e 9991 92bc
000000f0: 3834 a33e c3bf 15be 8200 97be 1932 823e
00000100: 05ad bcbe eacb 24bf 2903 55be 9c69 583f
00000110: a60b 873f 75db 563e bee6 d9bd 5270 ca3e
00000120: cb4a 09bf f6f7 b1bc 8f9a fa3e 9abf 803e
00000130: 1a05 ccbe 820c c2bd 90dd 87be 16ed a43b
00000140: 08f5 943c 3f20 0ebf 0bc3 5abc 9f25 5fbe
00000150: 20ab 203f 5ae2 0c3d d790 073f 4018 9b3e
00000160: 5b4e 5fbd 6f95 333f 1c6c 363f 663e 09bd
00000170: 5d86 ec3e f502 213e a009 c5be 8619 d0bd
00000180: 64c3 1ebe fb10 96be baac 3fbf a539 f63d
00000190: addf d3be 0936 50be 7758 c63e 5316 3abf
000001a0: 637d 233e 7633 e0be 12e8 843d f6b5 683b
000001b0: b6ba 2f3f ec75 a2be b4f0 94be e74e 333f
000001c0: c95f 29be 118a 29bf 171c 7b3d 44c1 16bf
000001d0: 6ada cb3e d9df 72bd e2e3 05be c638 9f3e
000001e0: 4e40 17be 3e3f 083b 4d5c 213e 7302 523d
000001f0: ba1e 2c3f c11f 16bc ac17 1a3d 6ff0 67be
00000200: 7244 fe3d 775b 1fbf 5fd3 a4be 90e3 51bf
00000210: ca49 9bbe 8255 24bf ed22 24bf da09 a13e
00000220: c85b 5c3e 4a15 5b3e b373 c33e b141 f13d
00000230: 4e72 8a3e 0526 623f da54 9ebe b7c5 543d
00000240: 37a6 2bbf fb29 3b3f 90e6 253e fc61 38bf
00000250: a9f9 3fbe e809 26be 05ce 86be 8809 31bf
00000260: b9b5 c43e 315f 34bf 0b80 e6bd f6b3 eb3e
00000270: ed34 9fbe 4f0f 93bf 7790 f73e e630 67be
00000280: 0584 dc3e 9498 9a3c 2bb0 dd3e f2bc d5be
00000290: 6190 8fbe 2024 863e 09c2 c4be 9c09 96bf
000002a0: 875d 903f f47e 85be 7891 0b3f d2f9 323f
000002b0: c142 62bf e0f6 3cbe c30d 283f e716 65be
000002c0: 01e6 b8bd 41d3 b4bd f5f7 933e b937 18bf
000002d0: 6385 2fbe 0724 2b3f 08f5 a0be e482 1ebe
000002e0: 9c20 0d3f f0c3 453e 6503 293e 6fc2 0a3e
000002f0: 789c fbb9 1c7f 943e 8267 ae3e ee0d 8a3e
00000300: 3740 063f c54c 94be ad30 30bf 5b36 243f
00000310: e3b1 a73e 3cc9 b5bd 708b 26be a25b ecbe
00000320: 71a8 783f 839a 32bf d317 40be 502d f43e
00000330: bd7e 26bf 226f a3be 6dac efbe 172e fcbe
00000340: 4cc1 a0bc c871 ef3e 00e9 d7bd fe68 533e
00000350: 16b8 a7bd 2848 1dbd a4dc cf3e 965e 223f
00000360: 68cc e03d 2da8 be3e ffb5 e83d 20d1 e4be
00000370: 6858 59bf 1ca2 29bd f4ee 13be cf8a 5e3e
00000380: 37d7 ad3e 0ed1 7ebe 5fe5 55be b2c3 88be
00000390: e1b8 a4be 5335 2abf d965 8a3e c4f0 4abf
000003a0: e0d7 4dbf 99d6 d7be bc4c bebe 99b8 9ebe
000003b0: cf33 0c3e 696f 38be 9d6b 28bf 1e3f d5be
000003c0: 7685 57be 9b5c 0c3e a505 f33e 0746 9b3e
000003d0: 44c0 f13e 971e d5bd 77fe ffbe afb6 88be
000003e0: 25db 273f 8c22 5f3d 83ce c9be 08be 4bbf
000003f0: 9725 c03e ea70 1abf 8384 96be e034 48bf

network_body._body_endoder.seq_layers.2.bias f4 [128]
0.056589514 0.03534141 -0.020536575 -0.030503903 -0.034809403 -0.020936036 -0.04138777 -0.019200683
-0.013380014 0.06843305 -0.039358333 -0.0042113555 0.010030235 -0.03990014 -0.041429933 0.011726144
-0.0073270868 -0.03289823 0.041615937 -0.0138083035 -0.040943578 -0.068185925 -0.018928465 -0.03874968
-0.021647984 -0.042091917 0.014966417 0.009933286 -0.062969 0.0050754133 -0.0387372 -0.034416802
0.06584346 -0.05042233 -0.0032321226 -0.036377564 -0.04388545 -0.05640963 -0.011226359 0.0496485
0.051885862 -0.014194321 -0.03576767 0.06721574 -0.045302752 0.08390816 -0.0093301665 -0.03590094
-0.023479706 -0.0042525665 0.046391312 -0.028737918 -0.021718377 0.024745628 -0.008213079 -0.039078254
-0.037499968 -0.031685367 -0.023815105 0.043146335 -0.05117153 -0.026312377 -0.028208975 -0.00031699668
0.009021896 -0.016499858 -0.028894903 -0.0036272642 -0.020048404 0.047088403 -0.035712942 0.11333859
-0.027172754 0.009480229 -0.03433904 0.028350228 -0.044713438 0.03951028 0.014348258 0.0078966385
-0.011661114 0.0049985237 -0.04281818 -0.00879406 -0.00040286497 0.054879963 -0.02748036 -0.016383747
0.045830656 -0.020234944 0.050357807 0.066391796 0.038016945 0.037213843 -0.03714724 -0.07843065
0.046035886 0.012908443 0.073391736 -0.0016142338 -0.05748074 0.03727442 -0.03102262 -0.038816545
-0.00695783 0.037876867 0.018146092 0.03608742 0.00076541817 0.036291443 -0.031346332 0.058070205
-0.030225707 -0.03820223 0.02816394 -0.027502071 -0.029012918 -0.009768106 -0.03815699 -0.043210074
-0.04677714 -0.03359269 -0.06674203 0.07861617 -0.05079052 -0.044372164 -0.0070593 0.0984427
00000000: 68ca 673d 28c2 103d 523c a8bc 52e3 f9bc
00000010: 4e94 0ebd 0d82 abbc 3986 29bd c04a 9dbc
00000020: d937 5bbc a026 8c3d 3436 21bd 69ff 89bb
00000030: db55 243c 546e 23bd 6fb2 29bd 031f 403c
00000040: 0f18 f0bb 4bc0 06bd 7975 2a3d 393c 62bc
00000050: 74b4 27bd 10a5 8bbd de0f 9bbc fcb7 1ebd
00000060: 1d57 b1bc 9368 2cbd b435 753c 39bf 223c
00000070: e4f5 80bd a74f a63b e6aa 1ebd a2f8 0cbd
00000080: f0d8 863d a587 4ebd 05d2 53bb a400 15bd
00000090: 3bc1 33bd c90d 67bd c3ee 37bc 3a5c 4b3d
000000a0: 4586 543d 4c8f 68bc 1f81 12bd 68a8 893d
000000b0: 618f 39bd 0bd8 ab3d 8edd 18bc dd0c 13bd
000000c0: 8358 c0bc 1d59 8bbb d104 3e3d c86b ebbc
000000d0: bdea b1bc 58b7 ca3c 2690 06bc 8510 20bd
000000e0: 9199 19bd 84c8 01bd e517 c3bc 36ba 303d
000000f0: 3d99 51bd 0e8d d7bc 8216 e7bc 9332 a6b9
00000100: 93d0 133c b62a 87bc 01b5 ecbc 65b7 6dbb
00000110: 8d3c a4bc c5df 403d bc47 12bd 101e e83d
00000120: 6599 debc f652 1b3c 18a7 0cbd bd3e e83c
00000130: 7025 37bd 88d5 213d f514 6b3c e760 013c
00000140: 420e 3fbc a8ca a33b 1e62 2fbd f614 10bc
00000150: 9f37 d3b9 d0c9 603d 7e1e e1bc 3537 86bc
00000160: edb8 3b3d c1c3 a5bc fd43 4e3d 6cf8 873d
00000170: a8b7 1b3d 8b6d 183d b427 18bd 40a0 a0bd
00000180: 2090 3c3d ef7d 533c 684e 963d b394 d3ba
00000190: ed70 6bbd 10ad 183d 2623 febc 19fe 1ebd
000001a0: 82fe e3bb c624 1b3d 1da7 943c 67d0 133d
000001b0: 58a6 483a 56a6 143d 0365 00bd 06db 6d3d
000001c0: e79b f7bc f179 1cbd 10b8 e63c 064c e1bc
000001d0: 80ac edbc 680a 20bc 814a 1cbd 0cfd 30bd
000001e0: 6399 3fbd 7d98 09bd 0cb0 88bd 8401 a13d
000001f0: b809 50bd 96bf 35bd b351 e7bb 549c c93d

network_body._body_endoder.seq_layers.2.weight f4 [128, 128]
0.08028334 0.0033840318 0.061634712 -0.07229405 -0.04579066 0.122392975 -0.09862561 -0.058045615
0.021429082 -0.15711714 -0.0010851206 -0.08306517 -0.09470406 0.09161251 -0.14891368 -0.09048405
0.13190684 0.11557708 -0.01408924 0.068248354 -0.27087793 -0.060137346 -0.090175845 -0.096162245
0.008027804 0.052707035 0.01227838 -0.0019125405 -0.05508215 0.0745939 -0.090222836 0.10575755
0.13783085 -0.07872662 0.019897074 0.17860416 -0.012827892 0.16011767 0.09870556 -0.010567694
-0.087443575 -0.11144967 0.19955784 0.1179397 -0.056189287 -0.20059335 -0.03108977 -0.026294405
0.21189266 -0.032565713 -0.07062171 -0.066789895 0.053444933 0.0499803 0.03354048 0.10440393
0.01509163 -0.057223935 -0.12693556 0.079999045 -0.2099853 -0.15650925 0.11052032 -0.10249169
0.060630426 -0.08369682 -0.095320806 0.026727466 0.00613768 -0.11244452 -0.03515797 -0.046496466
0.034272745 -0.12710844 0.0156816 -0.093099736 0.00983911 -0.025405245 0.08175397 -0.036059145
-0.007891399 -0.0882343 0.17702186 -0.09930074 -0.0020105336 -0.010220244 -0.11813246 -0.07769259
0.23127042 -0.079519466 -0.00076623657 -0.028266266 -0.07769425 -0.111573555 -0.16757056 0.021974647
0.1112107 -0.019857232 0.13783495 0.12530677 -0.042998083 0.053166054 0.05443841 0.045236386
0.019522367 -0.15672673 -0.029971652 0.06497962 0.20650741 -0.14587085 -0.07236192 -0.09693873
-0.102247134 0.001322942 -0.014131926 -0.10863666 0.019198244 0.11816857 -0.06285033 0.08149235
0.0820446 -0.08368262 -0.13343422 0.2087598 0.019298576 0.18962018 0.16157062 -0.094831385
0.09582454 -0.02495497 -0.113417946 -0.1551494 0.067049645 -0.06890932 0.026357973 -0.025483226
0.016858708 0.007745172 0.11287011 0.084992744 0.061549533 0.02529189 0.081037685 0.10959306
-0.001778172 -0.11680755 0.097923614 -0.020557875 0.0039715064 -0.026274415 0.00078092533 -0.019246228
-0.12165228 -0.041048415 0.058549535 -0.032561023 0.13862938 -0.05572571 -0.011035486 0.07648739
0.05453445 -0.013862485 0.09168323 -0.10819877 0.044374116 0.018475682 0.002000375 -0.020811113
-0.00096700963 -0.04707159 -0.04945744 0.07248154 0.019227223 0.03464262 0.008228155 -0.07680805
-0.024991862 0.08066389 -0.15123509 -0.1131059 0.008204019 -0.07999915 0.10499239 0.027049052
0.0059136255 -0.018351229 0.059089463 0.16684297 -0.13628551 0.060030654 0.123326376 0.0052091065
0.025071248 -0.12280613 0.03634785 0.013215434 0.118609525 0.078321256 0.09269959 0.014394963
0.02585835 -0.006278061 0.079390764 -0.08542371 0.012161695 -0.17723191 -0.08952331 0.0955799
0.0937498 -0.0036763602 0.067031115 0.10027476 -0.10495386 -0.029578432 -0.043413095 0.03461448
-0.0473868 0.07055418 -0.14135632 -0.023321103 -0.0777426 0.03866181 0.22652121 -0.108864546
0.036079593 -0.014325448 -0.1297636 -0.12563263 -0.046573065 0.08221708 -0.07740996 -0.009413205
0.04667095 0.059503354 -0.052059744 0.05866729 0.0013329952 -0.04256284 -0.040273268 -0.10144212
-0.19392146 -0.024980506 0.027365537 0.04354402 0.00060581975 0.08037239 -0.035854135 -0.0030289143
0.016625743 -0.09866654 0.09595099 -0.09353119 0.08786721 0.0019425957 -0.0021852877 -0.017965304
00000000: 976b a43d a2c6 5d3b ae74 7c3d e70e 94bd
00000010: fd8e 3bbd 2ba9 fa3d 39fc c9bd 3dc1 6dbd
00000020: 0b8c af3c 51e3 20be 9b3a 8eba 121e aabd
00000030: 34f4 c1bd 579f bb3d d47c 18be b44f b9bd
00000040: 9612 073e adb3 ec3d 8ed6 66bc cbc5 8b3d
00000050: 83b0 8abe 9452 76bd 1dae b8bd b6f0 c4bd
00000060: 0d87 033c 55e3 573d 422b 493c 36ae faba
00000070: d29d 61bd b0c4 983d c0c6 b8bd 6a97 d83d
00000080: 8823 0d3e 6c3b a1bd 30ff a23c 02e4 363e
00000090: 142c 52bc e3f5 233e 2426 ca3d 1f24 2dbc
000000a0: 9e15 b3bd b93f e4bd e458 4c3e 5f8a f13d
000000b0: bd26 66bd 5868 4dbe f9af febc 5d67 d7bc
000000c0: 64fa 583e a063 05bd 1da2 90bd 24c9 88bd
000000d0: 13e9 5a3d 25b8 4c3d be61 093d bad1 d53d
000000e0: e242 773c a563 6abd 65fb 01be 8ad6 a33d
000000f0: 6306 57be f643 20be 7a58 e23d 2ae7 d1bd
00000100: 9c57 783d 3d69 abbd 8e37 c3bd 8ff3 da3c
00000110: 971e c93b 5049 e6bd ce01 10bd 1473 3ebd
00000120: 9461 0c3d b728 02be b376 803c 13ab bebd
00000130: 3834 213c a91e d0bc a06e a73d c1b2 13bd
00000140: ed4a 01bc 2fb4 b4bd 3845 353e 305e cbbd
00000150: 28c3 03bb cf72 27bc 6eef f1bd 4b1d 9fbd
00000160: 27d2 6c3e 1adb a2bd 44dd 48ba a88e e7bc
00000170: 2a1e 9fbd ad80 e4bd 9e97 2bbe 2d04 b43c
00000180: 6fc2 e33d a2ab a2bc 9b24 0d3e 6b50 003e
00000190: c21e 30bd a6c4 593d cffa 5e3d ca49 393d
000001a0: 5fed 9f3c f97c 20be 1c87 f5bc 0914 853d
000001b0: ae76 533e 2b5f 15be 7c32 94bd d087 c6bd
000001c0: f266 d1bd 9166 ad3a 9889 67bc e67c debd
000001d0: a345 9d3c 5d02 f23d acb7 80bd 76e5 a63d
000001e0: 0007 a83d cb61 abbd fba2 08be 21c5 553e
000001f0: 0c18 9e3c cb2b 423e c572 253e f536 c2bd
00000200: a83f c43d 5e6e ccbc ab47 e8bd 7cdf 1ebe
00000210: 5351 893d 5420 8dbd adec d73c 33c2 d0bc
00000220: 461b 8a3c 36cb fd3b 7228 e73d ad10 ae3d
00000230: 5d1b 7c3d f030 cf3c 16f7 a53d 5472 e03d
00000240: 8d11 e9ba cc38 efbd 2d8c c83d fd68 a8bc
00000250: 6923 823b 713d d7bc 03b7 4c3a 44aa 9dbc
00000260: d524 f9bd 6222 28bd a3d1 6f3d b55e 05bd
00000270: dcf4 0d3e a440 64bd 2fce 34bc 6ca5 9c3d
00000280: 845f 5f3d 7a1f 63bc 6bc4 bb3d 5197 ddbd
00000290: a2c1 353d 505a 973c b918 033b 117c aabc
000002a0: eb7e 7dba 24ce 40bd e293 4abd 3471 943d
000002b0: 6982 9d3c 6be5 0d3d 62cf 063c 8a4d 9dbd
000002c0: bcbb ccbc 1c33 a53d 5fdd 1abe 11a4 e7bd
000002d0: 266a 063c 98d6 a3bd 4006 d73d f995 dd3c
000002e0: 16c7 c13b 5155 96bc cb07 723d e2d8 2a3e
000002f0: 6e8e 0bbe b4e2 753d 8a92 fc3d 27b1 aa3b
00000300: 3862 cd3c c881 fbbd 7ce1 143d 8c85 583c
00000310: 8de9 f23d e566 a03d 48d9 bd3d dad8 6b3c
00000320: e4d4 d33c 31b8 cdbb a097 a23d a0f2 aebd
00000330: d941 473c 487c 35be ff57 b7bd 65bf c33d
00000340: e5ff bf3d 17ef 70bb 9c47 893d da5c cd3d
00000350: 0df2 d6bd 784e f2bc eed1 31bd eac7 0d3d
00000360: a918 42bd b67e 903d b6bf 10be e60b bfbc
00000370: 8337 9fbd d95b 1e3d 2df5 673e 60f4 debd
00000380: 32c8 133d 49b5 6abc c0e0 04be d7a5 00be
00000390: 66c3 3ebd 6e61 a83d 1d89 9ebd d839 1abc
000003a0: 0a2a 3f3d cab9 733d 993c 55bd 1d4d 703d
000003b0: e6b7 ae3a 5f56 2ebd 95f5 24bd e3c0 cfbd
000003c0: 5993 46be eba3 ccbc b12d e03c 375b 323d
000003d0: e0cf 1e3a 489a a43d c9db 12bd c080 46bb
000003e0: b632 883c af11 cabd f481 c43d 488d bfbd
000003f0: b9f3 b33d b29e fe3a 0b37 0fbb f92b 93bc
