results/GoalAgent23_gamma50/MoveToGoal/MoveToGoal-499968.onnx (onnx, 72639 bytes, 7 tensors)

action_model._continuous_distribution.log_sigma f4 [1, 2]
000000 fd 7f 33 be 49 f7 2a be
       -0.17529292 -0.16695894

action_model._continuous_distribution.mu.bias f4 [2]
000000 7d 03 82 bc 56 7f 79 bc
       -0.015870804 -0.015228113

action_model._continuous_distribution.mu.weight f4 [2, 128]
000000 a3 3b 86 bd c8 06 1e be 91 0d 1b bd b7 af 8f 3c
       -0.065543436 -0.15432274 -0.037854735 0.017539842
000010 27 91 46 3c 58 dd 5c bd 90 59 4a bc a2 4e bb bc
       0.012119568 -0.053922027 -0.012350455 -0.022864643
000020 48 f8 56 3c c3 f5 89 3b d0 50 ad bd 1e 7a e0 bc
       0.013120718 0.0042102053 -0.084626794 -0.02740198
000030 f5 3c a4 3b 52 fb bb bc 48 98 0d bc b8 ca 00 3e
       0.0050121495 -0.022946987 -0.008642264 0.12577331
000040 6f 69 8f bc cd 31 44 3e 57 6a a5 3c 0f 85 ba bd
       -0.01750633 0.19159622 0.020192308 -0.0910741
000050 29 37 91 bc 4d 44 8a bd 92 d1 bf bc d3 68 1d 3d
       -0.017726498 -0.067513086 -0.02341536 0.038430046
000060 0e ed e7 bc 36 f7 bf 3d f4 7c f1 3c d9 d9 bc bc
       -0.028311279 0.093733236 0.029478528 -0.023053097
000070 67 5e a4 3c 96 38 0f bd 04 2f 65 bc 70 ad 25 bd
       0.020064546 -0.034966074 -0.01398826 -0.040448606
000080 33 58 94 3c 0f 21 02 3e 7d 0c d0 3d 9d 7f 42 bd
       0.018108463 0.12707923 0.10158632 -0.047484983
000090 70 6b e0 bd 1b dc 49 3b 81 96 05 bd 14 75 1f bb
       -0.10957992 0.003080136 -0.032614235 -0.0024331259
0000a0 01 31 ee 3c 6a b0 ce 3b b6 90 62 bd 3e 35 4b 3d
       0.029076101 0.0063076513 -0.05531379 0.049611323
0000b0 74 a5 e1 3b 16 b3 5b bd 97 97 3d 3d b6 f8 f0 bc
       0.0068861786 -0.053637587 0.046287145 -0.02941547
0000c0 76 a6 0b bd 2a f7 10 be c0 5e 5b bd 72 04 3f 3d
       -0.034094296 -0.14156786 -0.053557158 0.0466351
0000d0 52 34 97 3c 96 5c 98 bd 9e f9 f7 bc 4a 9d df bd
       0.018457565 -0.07439534 -0.030270394 -0.109186724
0000e0 c7 77 e2 bd e8 04 ac 3c 3e 8d 84 bd cc ae 1b bc
       -0.11058002 0.020998433 -0.06472252 -0.009502124
0000f0 5f 09 cd 3d 0c c7 ec 3d 42 25 f5 bc 2a 9f 03 3e
       0.10011553 0.11561403 -0.029924992 0.12853685
000100 11 cd 6c 3c 87 a3 4e bc 0c 97 86 bd e2 6a 06 3d
       0.0144531885 -0.01261223 -0.06571779 0.032816775
000110 59 1b a1 3d 2d a3 2e bd ca 46 00 bc 90 a7 b3 bd
       0.07866544 -0.042636085 -0.007829377 -0.087721944
000120 d7 db 2b be b5 b9 44 3e 9e 67 14 3e 75 78 ba 3d
       -0.16783081 0.19211467 0.14492652 0.091050066
000130 a5 d6 96 bd 2e 3a fd bd 1a e6 93 3d f6 e8 42 bd
       -0.07365159 -0.123646125 0.07221623 -0.04758545
000140 85 3e 3a 3e c6 69 88 3c 0a 9b 42 bd c4 9f ab bc
       0.18187912 0.016652 -0.047511138 -0.020950206
000150 2b 29 cf 3c 72 38 6f bd db f0 a1 3d 35 9e bf bd
       0.025288185 -0.05840344 0.07907268 -0.093563475
000160 20 93 8e bd 4f 84 1d 3e b6 b0 97 bc 56 93 fd bd
       -0.069616556 0.15382503 -0.01851688 -0.12381618
000170 3a 60 53 3d 88 41 34 3d 38 0c 28 bc be 25 75 3d
       0.05160544 0.044007808 -0.010256819 0.059850447
000180 ba 1b c0 bd 24 58 c6 bc 70 ba dc 3c 22 f1 2c bc
       -0.093802884 -0.02421195 0.02694437 -0.010555537
000190 6e 89 1f 3c 43 46 b7 bd 82 9c 0a 3d 36 ca ed 3d
       0.009737356 -0.08948948 0.033840664 0.11610834
0001a0 a3 3f 49 3c 98 c2 06 3d d2 12 83 bd 5d 6e b7 3d
       0.012283239 0.032900423 -0.06400074 0.08956597
0001b0 a3 e3 4c 3d a5 0c 65 3c dc 55 b4 3d 15 39 94 bd
       0.05002178 0.0139800655 0.08805439 -0.0723745
0001c0 3e d6 c9 3c f4 cd df bb 49 be e4 bd 90 a7 78 39
       0.024638291 -0.0068299714 -0.111691065 0.00023713545
0001d0 41 29 a2 bd 96 00 c1 3d 21 4d 44 3d ef d7 a8 bc
       -0.07918025 0.0942394 0.04792512 -0.020610778
0001e0 34 94 0e 3d ba 41 f5 bd cd 2b 75 3c 83 41 41 3d
       0.034809306 -0.11975427 0.014964056 0.047181617
0001f0 e0 44 a7 bd c0 04 e3 3d c1 56 1b 3e 5b 3c 8b bd
       -0.08167434 0.1108489 0.15169813 -0.06798621
000200 99 7e dc bd cc 70 31 bd ad a8 b2 bc 6d c5 5d bd
       -0.10766334 -0.043320462 -0.021808947 -0.054143358
000210 49 32 b6 3c 04 82 a1 bd 8a 75 73 bd 7d 9c 51 be
       0.022240775 -0.07886127 -0.059438266 -0.20469852
000220 2e 6a 3b 3d 93 72 45 3d aa 92 0a bd 01 f4 da bc
       0.045755558 0.04820497 -0.033831276 -0.026727678
000230 df 30 89 bd 1a 9b 8a bd ae 86 28 be 11 a8 a2 3c
       -0.066987745 -0.067678645 -0.16457626 0.019855531
000240 43 a7 26 3d c1 f4 10 bd ef a2 4f 3c 76 b0 b1 3d
       0.040686857 -0.035389666 0.012673124 0.086762354
000250 3e a6 0f 3b d6 17 0d bd 10 60 6b bc 4b 35 3a bd
       0.0021919156 -0.03444656 -0.014366165 -0.04546098
000260 0f b5 8a bd 38 22 7a 3e f7 0c c0 3c 50 da 0e be
       -0.067728154 0.24427116 0.023443682 -0.13950467
000270 0b be f2 3c 84 89 03 3e 5e af 4d ba ce a2 ab bc
       0.029631635 0.12845427 -0.0007846261 -0.020951655
000280 3c f3 9f bc 81 d4 e5 3a 3a 81 10 3d 03 e0 ef 3d
       -0.019525163 0.0017534645 0.03527949 0.11712649
000290 6d 4d 43 ba cf 95 ee 3c 66 fe 2f 3d ba 40 42 bb
       -0.0007450197 0.029124169 0.042967223 -0.002964063
0002a0 53 b9 25 3b cb b1 87 bd 66 22 97 bd 0e 92 c9 3d
       0.0025287464 -0.06625708 -0.07379608 0.09842311
0002b0 30 97 f7 bc fa 02 d0 3b fa 86 64 bd 4e aa b5 bc
       -0.030223459 0.006348011 -0.055792786 -0.022175934
0002c0 5b 62 46 3d 2c f5 13 bd ef eb b4 3d 8a 56 1a bd
       0.048433643 -0.036122486 0.08834063 -0.037680186
0002d0 91 62 cb 3d 52 9d 2e 3c e4 ce d2 3d 71 44 96 bb
       0.099309094 0.010657625 0.102933675 -0.0045857956
0002e0 f1 f8 df bc 24 fd ab bd 18 fb f6 3c 0a 48 84 3d
       -0.027340384 -0.08397892 0.030149028 0.06459053
0002f0 20 29 67 3d 22 b9 80 bd bf e2 91 bc 9b 48 13 be
       0.056435704 -0.06285311 -0.017808316 -0.14383166
000300 fc f7 31 3d 4c e2 fb 3d b1 3e 4a 3d 77 5e 4f 37
       0.043449387 0.12299022 0.049376193 1.2360156e-05
000310 0f c4 9a 3c ff 33 3e 3c d1 64 1d bc e2 5c 3f 3a
       0.018892316 0.0116090765 -0.009606556 0.00072999124
000320 80 94 19 3b 02 04 b9 3c f4 e7 6e bc 9a 21 86 bd
       0.002343446 0.022584919 -0.014581669 -0.06549378
000330 7a f4 03 3d 83 a4 42 3e 55 9d 61 3d e1 2d 86 bd
       0.032215573 0.19008069 0.055081684 -0.065517195
000340 06 f8 02 be ab b0 34 bd 6d 86 ad 3c 09 43 04 3e
       -0.12789926 -0.044113796 0.021182263 0.12916197
000350 17 84 7a bc d3 f9 55 3c bb 80 02 be a9 cf 5c 3c
       -0.015290282 0.013060051 -0.1274442 0.013477244
000360 0f 78 f4 bd 9c 1f 71 bd ac 68 52 3d 19 ca 5d bc
       -0.11936962 -0.058868036 0.051369354 -0.013536953
000370 02 39 26 bc d6 3b 78 3d fe 96 03 be 83 7f 3a bd
       -0.010145428 0.06060394 -0.12850568 -0.04553176
000380 e3 2c b9 bd c9 e2 1c 3d e8 27 15 3d 8d b5 9f 3c
       -0.090417646 0.038302217 0.03641501 0.01949575
000390 b5 11 da 3d 53 4b 99 3d 17 05 1b 3d f0 59 66 3d
       0.106479086 0.0748507 0.03784665 0.056238115
0003a0 41 c9 d1 bd 3c 98 a9 bd 1d d5 4b bd ee 1d 08 bd
       -0.10243464 -0.082809895 -0.049763788 -0.03323167
0003b0 34 58 3e bc 89 1a 2c bd ef 53 bb bd 3e 5c f7 3c
       -0.011617709 -0.042017493 -0.091468684 0.030195352
0003c0 de 51 cd bd 59 9a b0 bc 5c 0a f3 3d f4 8b b4 3b
       -0.100253806 -0.021557974 0.1186721 0.005509848
0003d0 01 11 7c bd b7 98 e7 bd 81 64 27 3e 01 e5 fb 3d
       -0.061539654 -0.11308425 0.16346933 0.122995384
0003e0 7e f1 72 3d 2c 1f 21 bc a5 6b 7c bd 27 a2 a9 bd
       0.059312336 -0.009834092 -0.061626095 -0.08282881
0003f0 88 97 0b bc 62 f9 a2 3d 2b 1b fe 3d 35 ab 62 bd
       -0.008520015 0.07957722 0.12407526 -0.055339057

network_body._body_endoder.seq_layers.0.bias f4 [128]
000000 c9 c3 f5 3d 10 b9 1a 3e 8c 0e f0 3d dd 40 8b 3d
       0.12000234 0.15109658 0.117215246 0.06799481
000010 9f 7d be 3d d5 44 a4 3d 2c 11 09 3d f6 04 a4 bc
       0.09301304 0.08020941 0.033463642 -0.020021897
000020 52 06 cb 3d e1 f1 23 3e be 65 29 3d 8b 6f b6 3d
       0.09913315 0.16010238 0.041356795 0.08907994
000030 90 f5 5a bd 84 b7 cd 3d 1b e1 69 3d 53 51 3b bd
       -0.053456843 0.100447685 0.057099443 -0.045731854
000040 7c 37 39 3b dd 42 d9 3d 47 67 b5 3d e4 23 9d 3d
       0.002826183 0.10608456 0.08857589 0.07672861
000050 e2 99 47 bd 0a ab d2 3d 6c 43 7f 3d 05 92 db 3d
       -0.04873074 0.10286529 0.062320158 0.107212104
000060 78 9b 1e 3e 4f ee 9d 3d 3a 99 11 3e 7f 7f e2 3d
       0.15488994 0.077114694 0.14218608 0.11059474
000070 02 9b 50 bc 89 1a da 3c 25 f9 1f 3d 5c f7 5b 3d
       -0.012732269 0.026623981 0.039055962 0.053702697
000080 47 09 a9 3d 1a d4 58 bd 69 a7 24 3d 4a d9 b4 bd
       0.08253723 -0.05293665 0.040198717 -0.08830507
000090 43 2c d0 3d 13 e1 3c 3c 58 8e 5e bd b8 50 1e 3d
       0.10164692 0.011528271 -0.05433497 0.0386512
0000a0 49 03 1a 3e be 71 48 3e d5 9e 5a 3d 49 6b 47 3d
       0.15040316 0.19574639 0.05337413 0.0486863
0000b0 3e 04 81 3d ef 57 91 3d c4 09 a3 3d 15 76 22 3d
       0.06299637 0.0709685 0.07960847 0.039663393
0000c0 82 16 81 bd 15 26 f0 3d cf b9 aa bd 31 82 35 3e
       -0.06303121 0.117260136 -0.083362214 0.17725445
0000d0 a0 40 50 3d 70 d4 99 3a ae 91 ba bc 7a d3 66 3d
       0.05084288 0.0011736285 -0.022774544 0.056354024
0000e0 ee 96 96 3d e4 7e 72 3c 19 fd e9 3d 9f dc bb 3d
       0.07353006 0.014800761 0.11425228 0.091729395
0000f0 ee a2 9f bb 82 6d 38 bd 2b 09 16 3d 11 ff b4 3c
       -0.0048717177 -0.04502631 0.036629837 0.022094281
000100 b6 e9 ce 3d 41 62 85 3d f2 75 5d 3d 05 74 eb 3d
       0.101031706 0.06512881 0.05406756 0.11496738
000110 62 fa aa 3c 56 15 d6 3d 68 b7 b7 3d df 0f ee 3b
       0.020871345 0.10453288 0.08970529 0.0072650756
000120 12 1b bd bd b6 ca ad 3d f4 42 6a 3d 3f 07 98 3d
       -0.09233679 0.0848593 0.057192758 0.07423257
000130 af 5b 4e 3d 28 a4 36 3d 33 17 cb bd 61 1e b3 bd
       0.050380405 0.044590145 -0.09916534 -0.08746029
000140 ef 2d 88 3d 3e 97 9c bd ce b0 47 3e 55 2d 49 3e
       0.06649386 -0.07646035 0.1950104 0.19646199
000150 46 b2 02 3e 27 b5 d9 bc 57 09 a1 bc d3 3f b1 bd
       0.12763318 -0.026575638 -0.019657774 -0.08654752
000160 5c ca 79 3d cd f4 14 3d 0b 33 11 3e 62 8d 22 3d
       0.060984 0.036366273 0.14179628 0.039685614
000170 9b cf f3 3c 8a 77 98 3d a1 76 35 3d 26 31 0b 3d
       0.02976208 0.07444675 0.044302586 0.03398242
000180 4b 46 4a 3d d9 6f 12 3d 52 00 55 3b 6a fb 88 bd
       0.049383443 0.035751197 0.0032501412 -0.066885784
000190 95 22 43 3e e6 48 22 bd d2 75 36 3c 84 93 03 3e
       0.19056161 -0.039620303 0.011136489 0.12849241
0001a0 3e ca 02 3d 9c be 51 3d 12 07 5e 3d e7 de e7 3d
       0.031931154 0.05120717 0.05420596 0.11321812
0001b0 1c 9a 19 3d 40 e9 c8 3d 22 8e 56 3d a8 d8 1f 3e
       0.037500486 0.09810114 0.052381642 0.15609992
0001c0 78 d5 05 3e 65 f2 8f 3d 5e 9b 46 3d 74 c3 d1 bc
       0.13069713 0.07028655 0.048488013 -0.025605895
0001d0 14 47 ed 3d 56 e7 23 bd 7f 8f 90 3e b0 41 c8 3c
       0.11585823 -0.04001554 0.2823448 0.024445385
0001e0 03 5b d6 bc 28 2c 2a 3c 42 32 1b 3e 8d b9 3d 3c
       -0.026166445 0.010386504 0.1515589 0.011579883
0001f0 c0 4e ac 3d 88 66 7d 3d 72 df 33 3d 4b c4 ea 3d
       0.08413458 0.06186536 0.043914266 0.11463221

network_body._body_endoder.seq_layers.0.weight f4 [128, 6]
000000 79 c9 44 3e 47 46 dd bd 75 de df 3e 7a 72 fd be
       0.1921748 -0.1080442 0.4372441 -0.495014
000010 cf af f5 bd 46 8d 05 bf b4 83 4a 3d 7e 33 9c 3d
       -0.119964235 -0.5216869 0.04944201 0.07627009
000020 8c 2e 13 bf f5 b4 3e be 6a c6 a3 3e f1 44 2c 3f
       -0.574929 -0.18623717 0.31987315 0.67292696
000030 85 ad 28 bf cf f2 80 3e 86 48 6a be 9e 3b ea 3e
       -0.6588977 0.25185248 -0.22879228 0.4574861
000040 d8 93 f2 3e 32 11 93 3e f6 00 90 be 75 47 bc 3e
       0.4737842 0.28724056 -0.28125733 0.36773267
000050 13 2c 7b be 5c d3 d0 bd b3 40 87 3e 1f 65 b0 3e
       -0.24528532 -0.101965636 0.2641655 0.3445215
000060 9b 48 84 3c af ab 15 3e 10 a8 eb 3e ea 87 4a bf
       0.016147902 0.14616273 0.4602666 -0.7911364
000070 4a 1b 71 3e e4 4c ca bc 6d 3a b2 be a0 68 05 3e
       0.23545566 -0.024694867 -0.348102 0.13028193
000080 71 55 11 bf 53 9b 71 be 6d eb 88 bd 27 f2 ab bf
       -0.56771 -0.23594408 -0.06685529 -1.3433274
000090 0a 8e bd bd e6 75 9d be 91 35 6a 3d eb 13 29 be
       -0.092556074 -0.30754012 0.05717999 -0.16511504
0000a0 19 07 c3 3e 0d 09 c4 be 47 32 e4 3e 97 27 17 3e
       0.38091353 -0.38288155 0.4456961 0.14761196
0000b0 d4 05 0e be 0f 15 d4 3e e2 5d 80 be 4f 41 25 3f
       -0.13869411 0.41422316 -0.25071627 0.6455278
0000c0 ac 74 cc be ec 2f 16 3f 55 da f1 3e 2a 90 68 be
       -0.39932764 0.5866687 0.47236887 -0.22711244
0000d0 23 3c 68 3e 4c 26 97 be 2b 37 c7 3e 0e c3 22 bf
       0.2267919 -0.29521406 0.38909277 -0.6357888
0000e0 4f 0f 0c 3f a2 c6 9e be e8 6e 1d 3f 33 65 e2 be
       0.5471086 -0.3101092 0.61497355 -0.44217834
0000f0 05 2b cf 3e 8e 1a 07 bf 2f 38 db be f7 37 ed be
       0.4046251 -0.52774894 -0.42816302 -0.4633176
000100 9f 43 49 3e 7c d3 1d be 32 8c 65 3f a1 9c c1 be
       0.19654702 -0.15412706 0.89667046 -0.3781481
000110 ec 3c 2a be 1c e5 08 3e d0 20 8b be 33 2e 74 3f
       -0.16624802 0.13368648 -0.2717347 0.95382994
000120 87 d0 d8 3e 23 93 0a 3f c0 96 b2 3d 3d 13 6c 3e
       0.42346594 0.5413076 0.087201595 0.23054214
000130 a2 49 e8 be 64 45 25 3e 82 9e 93 3e e7 5c 5e bf
       -0.45368677 0.16139752 0.2883187 -0.8686051
000140 7e d1 cf bd b4 7e 5c bf 68 5b 55 3f 27 dc b8 be
       -0.10147379 -0.86130834 0.833426 -0.36105463
000150 b2 6b 03 be f3 99 d1 3d bb 84 0a bf a0 5a 46 3e
       -0.12834051 0.102344416 -0.5410878 0.19370508
000160 bf f2 34 3f 13 a5 40 3e aa 9c fd be b8 e6 f5 be
       0.706829 0.18812971 -0.49533588 -0.48027587
000170 b4 09 00 be cc b3 16 be 51 16 03 bf 36 ea c2 3d
       -0.12503701 -0.14717025 -0.5120593 0.095173284
000180 4a aa 00 bf d1 46 5b 3e c0 53 26 bf 4f c4 8c bd
       -0.5025984 0.21413733 -0.6497154 -0.068733804
000190 8a 44 32 be 4d d2 b8 3e 7d 95 1d be f5 6b 03 3f
       -0.17408958 0.36097947 -0.15389057 0.51336604
0001a0 05 35 d6 be 55 43 d8 be c2 c0 98 3e c0 3d 7b 3f
       -0.41837326 -0.4223887 0.29834563 0.981411
0001b0 55 41 8c 3f fe ca 0a 3e b0 57 3b 3d 19 d0 7c 3e
       1.0957438 0.13553998 0.045737922 0.24688758
0001c0 c5 51 ab 3e 3c 86 c8 3b f2 4f 92 be 5d 38 e2 3c
       0.33460823 0.0061195176 -0.28576618 0.027614767
0001d0 eb e5 03 3f 4b 95 ab bd 59 7a 14 3f 87 d1 6a be
       0.515227 -0.08378085 0.5799919 -0.22931491
0001e0 f9 19 35 3f 0e 11 2a bf b1 2e 61 be 01 aa ba bd
       0.70742756 -0.66432273 -0.21990468 -0.09114457
0001f0 14 c8 7e bf b3 81 af 3d 32 08 0e bf fd 59 53 3d
       -0.99524045 0.0856966 -0.55481255 0.05159949
000200 a6 56 95 3d 66 df e5 3e 17 de 8f 3f 9b 47 cd bd
       0.072919175 0.44897002 1.1239651 -0.10023423
000210 3f aa 39 3e dc dd 94 3e 54 48 03 bf 37 74 8e bd
       0.1813135 0.29075515 -0.5128224 -0.0695576
000220 a8 28 60 be 9e 52 3e bd ce 5d 9e bf 0f cb f6 be
       -0.21890509 -0.04646551 -1.2372377 -0.48201796
000230 3a 77 a5 3e dc f4 cf 3e 04 08 53 be 06 50 a1 3e
       0.32317525 0.406165 -0.20608526 0.31506366
000240 6f 98 31 3f 48 16 ff 3e f5 4f cf bc 4a b8 6e bf
       0.6937322 0.49821687 -0.025306681 -0.9324995
000250 d4 e1 77 3f 9e c8 f8 be 6e 0a a8 bd 3f 85 36 bd
       0.9682896 -0.4859056 -0.08205114 -0.044560667
000260 d1 2c ab be 69 cd c8 3d 5c 39 76 3d 61 27 6e 3e
       -0.3343263 0.09804804 0.060113296 0.2325721
000270 d8 72 d3 3e d7 6a 06 bf de 4d 50 3e 8d d0 50 3e
       0.41298556 -0.52506775 0.20342204 0.20392056
000280 40 4b 08 3f ae 45 31 3f 6a 81 ff be 6c 9b 30 bf
       0.5323982 0.6924695 -0.49903423 -0.68987155
000290 4f 66 22 be ec 53 7c be 8c 4f 22 3f 91 91 1a be
       -0.1585934 -0.24641389 0.6340263 -0.15094592
0002a0 bf 01 0c 3f ad 33 57 3f 36 ec 9d 3e 6f 17 9f 3d
       0.54690164 0.84063226 0.30844277 0.077681415
0002b0 bc 2a 65 bf 1d de 8f be 74 3a 02 bf 85 96 ae 3d
       -0.8951833 -0.28099146 -0.5087044 0.08524803
0002c0 28 2a 4d be 3d f0 30 be bf 6a 90 be ef 16 a1 3d
       -0.20035613 -0.17279144 -0.2820644 0.07865702
0002d0 f3 92 9a bf 2a dd c2 3e f4 eb 3c 3e 85 7d 9d be
       -1.2076095 0.3805936 0.18449384 -0.30759826
0002e0 9b d9 05 be 67 47 d9 bc 01 e3 b8 3e 52 83 3c be
       -0.13071291 -0.026523305 0.3611069 -0.1840947
0002f0 90 8c cc 3e 4e 15 49 3c d6 0d b5 3c ce 2a 2a be
       0.3995099 0.012273146 0.022101324 -0.16617891
000300 20 cf 9e be 8d 72 18 3f 4e cd 44 3e 82 45 66 bd
       -0.310174 0.5954979 0.19218943 -0.05621863
000310 4e bd d4 3d 9b a5 6b 3e c9 fe 1f be fe 47 d6 be
       0.103876695 0.23012392 -0.15624537 -0.418518
000320 89 bd 05 3e c8 51 47 3d e3 00 c9 be 94 b7 64 3d
       0.13060583 0.048661977 -0.3925849 0.055839136
000330 a5 19 6e be 54 7f 36 bf 51 55 75 bf e9 c6 a5 3d
       -0.2325197 -0.7128804 -0.9583331 0.0809458
000340 c9 c3 68 be 5b f0 58 bf 66 53 63 be 67 89 9b bd
       -0.22730936 -0.84741753 -0.22199783 -0.07594567
000350 28 cc d3 3d 3a 82 a5 be 86 4f 28 bf cb cc 12 be
       0.10341674 -0.32325917 -0.65746343 -0.14335935
000360 91 24 54 bf 19 7c 1b 3f 6b 98 56 bd 17 c7 21 3f
       -0.82868296 0.60736233 -0.05239145 0.6319441
000370 c4 ce 08 bd 10 9f 02 be 94 69 52 3e e0 ae db 3e
       -0.033400312 -0.1275599 0.20548087 0.42906857
000380 bb 12 f0 3e 7f c0 ac bd 54 a9 01 3e ad 2c 12 be
       0.4688929 -0.08435153 0.1266225 -0.14274855
000390 7a dc 6b be a0 4a 0d 3e 38 4e 8d be 11 e0 45 bf
       -0.23033324 0.13797998 -0.2759874 -0.77295023
0003a0 7f c0 58 3e 92 bf 04 bf 68 1e f6 3e 0c 16 bd 3d
       0.21167181 -0.51854813 0.48070073 0.09232721
0003b0 01 c7 bd 3e 0c 4b 79 3d ec 24 9e 3e 0c 4b ae be
       0.3706589 0.060862586 0.30887544 -0.3404163
0003c0 4e 6b 25 3e 92 82 8e bd 73 27 24 bf 7e 16 13 bf
       0.16154215 -0.06958498 -0.64122695 -0.57456195
0003d0 a4 93 d5 bd 8f 70 71 3e df d4 0b 3f c1 b8 c0 3e
       -0.10428551 0.23578094 0.5462169 0.37640956
0003e0 38 82 3c 3f 53 d7 cc be 44 f8 09 3d 4b 91 4f bf
       0.736362 -0.4000803 0.03368403 -0.81081074
0003f0 ab c1 15 bf 9a fc 72 3e b3 54 d8 bd 68 b0 b1 3e
       -0.5849864 0.23729172 -0.1056303 0.347049

network_body._body_endoder.seq_layers.2.bias f4 [128]
000000 a1 51 1d 3e cc a6 e3 3d 5f 2d 02 3d d1 4d 5c 3d
       0.1536317 0.11115798 0.03178155 0.05378515
000010 27 d6 d3 3c ba 9b 04 3e f1 2e ba 3d bc da 05 3e
       0.025858952 0.1295003 0.090909846 0.13071722
000020 68 84 64 3c 1f 59 bc 3c be ed cd 3d 7b 2a 9b 3d
       0.013947584 0.022991715 0.10055111 0.07576462
000030 27 a7 9b 3d 18 c1 90 3d aa f7 f5 3d 63 45 d2 3d
       0.07600241 0.0706808 0.12010129 0.10267141
000040 71 74 f0 3c ac 0a eb 3d 33 5f 86 bb 82 1b f6 3d
       0.029352399 0.11476645 -0.004100704 0.120169654
000050 35 ee 12 3d 44 1a d3 3d e0 c7 c3 3c 9d 58 4d 3d
       0.035871703 0.10307744 0.023899019 0.050133336
000060 a2 a9 84 3d 4f 7f 0b 3e 90 e0 b2 bc b2 03 21 3e
       0.064776674 0.13622783 -0.021835595 0.15724066
000070 ed c7 a3 bc 29 61 00 3e e1 f9 9e 3c 0c 75 10 3d
       -0.019992793 0.12537064 0.01940626 0.035267875
000080 91 3d 79 3b 67 9b a1 3d 1a a3 d0 3d d4 b2 cf 3d
       0.0038031081 0.07890969 0.10187359 0.10141531
000090 f0 7c f2 3d f1 ba 10 3c 3f 60 54 3d 14 91 2a 3b
       0.11840236 0.008833633 0.0518496 0.0026026415
0000a0 e1 ec f4 bc d9 5c 99 3d 55 6a d0 3d 68 ab 9b 3d
       -0.029898109 0.074884124 0.10176531 0.076010525
0000b0 05 cb 2e 3c 5f d2 8f 3d ef b1 62 3d 55 f3 b7 3d
       0.010668521 0.07022547 0.055345472 0.08981959
0000c0 e6 6b 47 3d a7 c9 1b 3e 08 00 8b 3d 13 d7 fc 3c
       0.048686884 0.15213643 0.06787115 0.030864274
0000d0 65 e5 36 3d be 59 4d 3d 49 0f bb 3d df e6 0b 3e
       0.04465236 0.050134413 0.09133775 0.13662289
0000e0 ca 35 dc 3d 44 28 c9 3d 73 ba a3 3d fa 0d 2b 3d
       0.10752447 0.09822133 0.07994547 0.041761376
0000f0 fa 57 83 3d ad 2f f4 3d 59 54 22 3d 88 45 f9 3d
       0.064132646 0.11923156 0.03963122 0.12171465
000100 4d 9d 20 3d b4 7a 58 3d 7f d1 58 3d d7 0f 6b ba
       0.039212514 0.052851394 0.052934166 -0.0008966899
000110 f1 6f 74 3d 16 cc 0c 3d 3c 8a f1 3b 92 f0 05 3e
       0.05967707 0.03437432 0.007371215 0.13080052
000120 7c ee 0e 3e 20 72 12 3e 80 1f e3 3d c5 0f 79 3d
       0.13958162 0.14301348 0.110899925 0.060806055
000130 16 06 b8 3d 48 5e 1a 3e 72 81 6d 3d 8f f0 b9 3d
       0.08985536 0.15075028 0.057984777 0.09079086
000140 ab cd 13 3e ba 3a 51 3d 85 3e fb 3c bd 87 be 3d
       0.14433925 0.051081397 0.03066946 0.09303234
000150 03 30 1d 3c ae 82 a3 3d c4 58 ed 3d b1 55 f1 3d
       0.009593966 0.079839095 0.11589196 0.117839225
000160 6a 47 08 3e 20 85 0e 3e 2e 2c 47 3d 14 fe 0a 3e
       0.13308492 0.1391797 0.048626117 0.13573486
000170 01 70 45 3d 58 05 84 3d ce 78 fc 3d 9d 3e 8b 3d
       0.04820252 0.06446332 0.12327729 0.06799052
000180 53 9c 2f 3e 61 76 99 3d a8 57 23 3b 19 51 2d 3c
       0.17149477 0.07493282 0.0024924073 0.010578417
000190 a2 a6 08 3e 47 a2 ca 3d b6 76 80 3c c5 97 fd 3d
       0.13344815 0.09894233 0.015681606 0.12382463
0001a0 b7 e3 cd 3d 04 bb 7c 3d 11 2a df 3d dc 96 95 3d
       0.10053199 0.06170179 0.108966954 0.07304165
0001b0 6d ff 99 3c 11 5c 21 3d c8 30 9f 3d de b3 62 3d
       0.018798554 0.039394442 0.07772976 0.055347316
0001c0 d4 d3 c7 3d 95 84 14 3d 73 10 2b 3e 59 c3 a4 bc
       0.097572 0.036259253 0.16705494 -0.02011268
0001d0 bd d2 f1 3d 91 93 f6 3d d7 7e e0 3d 4d bc a0 3d
       0.11807773 0.12039865 0.10961693 0.078484155
0001e0 70 00 f6 3c 42 67 f1 3d ad 56 4d 3d 93 21 45 3d
       0.030029505 0.11787273 0.05013149 0.048127722
0001f0 a3 53 a9 3d ae ed bd 3d 02 99 e7 3d 8f 03 0e 3e
       0.082679056 0.092738494 0.11308481 0.13868545

network_body._body_endoder.seq_layers.2.weight f4 [128, 128]
000000 73 b4 51 3e 8a a2 5a be 6e 6c 47 be c8 0e 00 3d
       0.20478992 -0.21351066 -0.19474956 0.031264096
000010 31 4c 0b 3c a2 9a 94 bb 5c 0f 9d 3d 86 93 d8 bd
       0.008502052 -0.004535035 0.07668945 -0.10575013
000020 3b 20 cd 3d f6 ec 98 3e 7a fa 82 bd bb 0c 40 bd
       0.10015913 0.29868287 -0.06395431 -0.04688714
000030 fb b6 fa bc c1 33 a4 bd 4f 5c cb bc 4f 39 8c bd
       -0.03060483 -0.08017684 -0.02482429 -0.06846868
000040 3f 8b a0 bd 2d 55 1a be 78 87 e8 3d 14 d8 b7 3d
       -0.07839059 -0.15071554 0.113539636 0.089767605
000050 5b 91 34 bd ad 18 78 3d 16 0d a7 bd 8d c8 fe bd
       -0.044083934 0.060570408 -0.08156793 -0.12440596
000060 d7 58 f6 3d 85 3f 03 bd f9 8f 37 3c 32 c0 49 bd
       0.120286636 -0.032043 0.011203759 -0.049255557
000070 28 86 f7 bc da b2 6d 3d e3 51 07 3e 36 e8 fe bc
       -0.030215338 0.058031894 0.13214831 -0.031116586
000080 13 37 a6 3c 99 2e 11 3e ad 5b 5f 3d 85 dc a1 3d
       0.020289933 0.14177932 0.05453079 0.07903389
000090 6c 7b 03 3c ad e2 44 3e 17 26 48 3d 3e f5 e3 3d
       0.008025032 0.19227095 0.04886445 0.111307606
0000a0 8b 26 6c 3d 05 63 37 3e 20 dd f8 bd db ee 15 3e
       0.057653945 0.17908867 -0.12151551 0.14641897
0000b0 46 15 a7 3c f0 28 96 3c 65 54 dc 3d 53 2a 79 3d
       0.020395886 0.018330067 0.107582845 0.06083138
0000c0 3e 88 d6 bd 23 d9 98 3d 8d 95 06 be c6 d9 19 3e
       -0.10475205 0.074632905 -0.13142987 0.1502448
0000d0 ea 3c e3 bb 8d 74 a1 3c ef 2a b2 bd b6 59 ab 3d
       -0.0069347518 0.019708896 -0.08699595 0.083667204
0000e0 d6 78 19 3e 82 da b1 3d 71 2f 6f be 1d ef 44 3d
       0.14987502 0.08684255 -0.23357941 0.0480796
0000f0 93 75 99 3d a4 1c fa 3d d5 c2 b1 3d cd dc a5 3d
       0.07493129 0.12212494 0.086797394 0.08098755
000100 83 64 be be c9 65 f4 3b b5 eb 80 bb 30 d5 a2 3d
       -0.3718606 0.007458423 -0.0039343485 0.079508185
000110 30 1b 2c be 74 7f ae bc 36 c2 55 be 3c c1 23 be
       -0.16807246 -0.021301009 -0.20874867 -0.15991682
000120 0d af 8a bd c4 7e 14 be 0f 4c 04 be b9 27 03 3e
       -0.067716695 -0.14501482 -0.12919639 0.12808122
000130 47 41 1a be 43 bc 1a bc 4e 46 89 3d 21 c4 d5 ba
       -0.15063964 -0.009444299 0.06702863 -0.0016309061
000140 7b ac 4a 3e d6 c6 40 3c d1 b7 0c 3e d0 0e e4 3d
       0.19792359 0.011766156 0.13741995 0.11135638
000150 6f 94 d4 3c de 5b 88 bd 4a 1e 92 3d 63 82 11 bd
       0.025949685 -0.06658147 0.071346834 -0.035524737
000160 4b c6 71 bd c3 4a 18 3c b3 d5 82 3d fe 0d 91 bc
       -0.059026998 0.009295168 0.06388416 -0.017706867
000170 11 1f 66 ba 3e 51 e4 3d 4f 2e af bd 1e 0d 45 bc
       -0.0008778433 0.11148308 -0.085537545 -0.012027053
000180 7c bb 19 bb 54 2e d3 3d 4f 18 08 3d 11 ad 64 3d
       -0.0023457697 0.10311571 0.033226307 0.05582911
000190 e4 d2 df 3e 01 c4 03 bd 3e 90 ce bc 92 5c 33 3e
       0.43715584 -0.032169346 -0.025215264 0.17515782
0001a0 3a 58 05 3c eb 2c 0a be 80 6a 03 3e 17 1d 2f 3d
       0.008138711 -0.13493697 0.12833595 0.04275235
0001b0 75 9f 3a be 2a 8b 12 be 87 ff 97 3c 40 d4 33 be
       -0.1822489 -0.143109 0.018554462 -0.17561436
0001c0 8a 57 2e be 5e de 0d 3c 65 74 1e be 6b 17 28 bd
       -0.17025581 0.0086589735 -0.15474088 -0.041037958
0001d0 9a e0 24 3b cc 38 42 be d7 56 48 bc 49 e0 38 3e
       0.0025158287 -0.18966979 -0.0122277355 0.18054308
0001e0 74 99 01 3d 02 d4 18 bd e4 6e 04 be b9 cf 35 be
       0.031640485 -0.03731156 -0.12932926 -0.17755021
0001f0 0c d7 1b bc 11 06 5f be bc 12 93 3b c2 49 fb bd
       -0.00951172 -0.21779658 0.0044883173 -0.122699276
000200 83 d3 f1 3c 6d 05 e4 bc 5c 9d 2d be 50 0e b6 bd
       0.029519802 -0.027834618 -0.16954559 -0.08889449
000210 c3 6a e8 bd 10 67 b7 3d 70 95 b0 bc f6 a9 89 3d
       -0.11348488 0.089552045 -0.021555632 0.067218706
000220 9b 52 43 3b 67 fd 13 3e 28 a0 2f bc 5a 52 1e 3e
       0.0029803875 0.14452134 -0.010719337 0.15461102
000230 f1 b6 f6 bd b0 55 10 be 9b 95 22 be d3 af 1f be
       -0.12046612 -0.14095187 -0.15877382 -0.15594415
000240 44 74 91 3d 7b 1b 65 bd f5 78 ad bc 9e ec 9c bd
       0.07102254 -0.05593441 -0.02117584 -0.07662319
000250 74 69 3c bc c3 73 da be ba 7f a3 3e 51 f1 76 bd
       -0.011499751 -0.42666444 0.31933385 -0.06028873
000260 26 0d 77 3c 06 97 16 bd b2 30 15 3e 41 90 98 bd
       0.015078818 -0.03676512 0.14569357 -0.07449389
000270 f7 dd 85 3d 78 10 9d bc 3a 57 1d 3e b2 6d a9 bd
       0.06536477 -0.019172892 0.15365306 -0.08272876
000280 39 34 1b be ab 4c 57 be 86 c5 6d be 10 f2 45 bd
       -0.1515664 -0.2102534 -0.2321988 -0.048326552
000290 93 e8 15 be d1 b7 0f 3d 65 5f 36 bb ca 8e 6a 3d
       -0.14639501 0.03508741 -0.0027827856 0.05726508
0002a0 6d 43 1f bd 02 79 f0 3d 92 74 83 be a2 b6 f3 bd
       -0.03888266 0.117418304 -0.25674874 -0.11900069
0002b0 77 94 93 3b 50 0c 1a 3b f8 50 3d 3d bf ca 05 bc
       0.0045037824 0.0023505874 0.046219796 -0.008166014
0002c0 2a 7f 64 be 09 03 0e 3e 56 f8 02 3d d6 82 1f 3e
       -0.22314134 0.13868345 0.031975113 0.15577254
0002d0 09 c9 25 3d 2a 1a 31 3b 73 96 d8 bd ac e1 0c 3d
       0.040474925 0.0027023652 -0.10575571 0.034394905
0002e0 77 06 f8 bd 9e c6 03 be 1f fb 8a 3d a9 99 90 3d
       -0.12110608 -0.12868735 0.06786179 0.07060558
0002f0 91 22 19 bd b4 3b 3b bd bd 18 80 bc 65 e7 18 bd
       -0.03738648 -0.045711234 -0.015636796 -0.03733005
000300 92 fd 05 be fd 2c 32 3e 1b 16 90 ba 1d ec 99 3d
       -0.1308501 0.17399974 -0.0010992916 0.07515738
000310 7c 10 10 be 49 8b de 3d 44 14 b3 bb ea 09 30 be
       -0.14068788 0.1086641 -0.0054650623 -0.17191282
000320 e3 4b e9 bd 5a 02 1b be d0 1d 3a bd 1f f5 c9 3d
       -0.11391427 -0.15137616 -0.045438588 0.09861206
000330 b6 e7 f6 3c 22 1b 91 3d c7 58 15 3e 7b 44 b8 bc
       0.030139785 0.07085253 0.14584647 -0.022493592
000340 0a 31 48 3e 60 01 01 be 6d 9b 7f 3d d3 4e b9 3d
       0.19549957 -0.12598181 0.062404085 0.09048238
000350 e7 df 15 be 5d 4c 19 3c 37 67 30 bd 97 25 09 3c
       -0.14636193 0.009356585 -0.043067183 0.0083707785
000360 92 62 05 bd c9 86 45 be f5 b1 8c 3d 08 ba 43 bc
       -0.032564707 -0.19289698 0.0686988 -0.011946209
000370 b5 0c e8 3c 72 f8 e8 3d 6f 1a 14 be a4 60 56 bd
       0.028326372 0.11375512 -0.14463209 -0.052338257
000380 a5 2e 95 bc e4 ca 80 bc 6a 78 e1 bd 65 5a 2e 3d
       -0.018210718 -0.015721746 -0.11009295 0.042566676
000390 76 57 03 3e df 1e ba 3d ce ed e7 bd 3b ab 41 3d
       0.12826332 0.090879194 -0.113246545 0.04728244
0003a0 41 1a 06 bd 9a 84 96 bd 83 8b 0f 3e 72 a1 10 be
       -0.03273988 -0.073495105 0.14018063 -0.14124086
0003b0 9d 2f 54 be 4b 10 54 be cf 01 98 bc 5f be 4c bd
       -0.20721288 -0.2070934 -0.01855555 -0.04998624
0003c0 a1 00 2c be c4 e2 80 3d e1 7c d9 bd 96 4e 4b 3d
       -0.16797115 0.06293252 -0.10619522 0.049635492
0003d0 a5 06 95 be 54 cf d2 bd fc 12 0e 3e 1b 00 d3 3d
       -0.29106632 -0.10293451 0.1387443 0.103027545
0003e0 bf f3 61 bd 47 14 67 bc 38 ff ac b9 52 c0 0e be
       -0.055164095 -0.014103956 -0.0003299655 -0.13940552
0003f0 9f 64 4f bd a7 da 5b be 16 c6 55 bd f9 b2 19 be
       -0.05063307 -0.21470128 -0.052190863 -0.15009679
