results/FoodAgent26/MoveToGoal/MoveToGoal-499951.onnx (onnx, 80285 bytes, 14 tensors)

action_model._continuous_distribution.log_sigma f4 [1, 3]
00000000: 0545 d9bf 465d dabf e17c d8bf
-1.6974188 -1.7059715 -1.691311

action_model._continuous_distribution.mu.bias f4 [3]
00000000: a784 143b 2dc7 52bb ecfd 13bc
0.0022662075 -0.0032162175 -0.009032708

action_model._continuous_distribution.mu.weight f4 [3, 128]
00000000: fc1d 1cbb 1492 fc3b d24d 1d3c 509f 1d3b
00000010: 59c3 263b 1a39 babb 0396 8a3b f9bf a2bb
00000020: 0b74 5cbc 0309 9cbb 088d b33c 47ff 62bc
00000030: 72c4 1c3c fce6 fd3b 503b 90bc fa1b 83bc
00000040: c5dd 2bbc 6da2 833b 3f93 cfbb ab85 86bb
00000050: d75e bbbb f0e4 f7bb 7608 9438 b78f 3dbc
00000060: 5929 193c 6320 073d 08b5 193c 02a8 b33c
00000070: 4d8d 3cbb d402 1ebd 9fe5 8ebb 2e55 923c
00000080: dc6b 993c 0c4c 4cbc 6d94 29bb d4d5 213c
00000090: 757b 693c 0b78 1ebd 9000 a53b 2770 16bd
000000a0: 5223 083c 4d22 e1bb f5ec 333c 03c2 1a3c
000000b0: d87d e63c 36c1 a8bb 8694 b93b 853f 1e3b
000000c0: 7d72 cab8 02a1 82bc 9072 433b c03a 37bc
000000d0: a594 0dbc 1ea0 a7bb 7f1f d5bb 7e28 a63a
000000e0: 38fb 4a3c bc77 613b 09fe 01ba 77e4 b1bc
000000f0: 5dbd 6d3b 7b3a aabc ae8b 76bc db4c 8b3b
00000100: 96eb b93b 023e 8abb e19a c23c c953 433b
00000110: cfca b73b 1797 be3c 681b 11bc cbac ceba
00000120: 3516 3ebb 10a8 5f39 0cbd 793c afd9 0b3c
00000130: b7cd b5bb f53b ad3c 95fe 383c c8b4 f43c
00000140: b246 3abc 025e e7bb b86f 0abc 3249 003b
00000150: 4068 bdba 2054 143c f6fb 32bb f3bf a8bb
00000160: 6904 273c 8c15 ea3a 8c75 52bc 041f 40bc
00000170: 43c4 a73c 6a6c 55ba b5d8 40bc b65b 223c
00000180: 3480 e03b cf56 dabb 6ddb 993c 018e ffbb
00000190: 23b1 44bb 6076 07bc 39ee 53bc 814c 10bb
000001a0: 79ab e73a 96b8 013b 9312 cc3b 6724 663a
000001b0: 3eed 243c 169e 0fbc 37b4 cb3b c78b 8fba
000001c0: c7d6 47bc 574a 4bbc a40f 96bc 4ea7 543b
000001d0: fe19 0a3b 525a 483b 6dd3 193c b6cb 7d3c
000001e0: fea4 fd3b cc2e 803c 8f3d 1b3c a317 d9bb
000001f0: ec01 a13c 0105 b5bc f1d3 0d3c 8374 b4bb
00000200: 2111 923a 903d f7b9 938f 503c 1000 923b
00000210: 3a67 653c 4f9a b53b 94a5 6fbc 449d fa3b
00000220: 86fe 15bb ef04 da3c 9565 8c3b 1e71 5dbc
00000230: 498e 84bc 6081 7d3b 3ba7 94bc b0b9 2d3b
00000240: 2420 9cbb a965 e23b d48f 673a 9594 54bc
00000250: c00f babb 1870 7f3c bb2d b6b9 f841 a7bb
00000260: 3628 81bb 2dc7 7a3b 8a42 233b 6d32 d1bb
00000270: 5023 913c cec9 5d3c b8fe 70bc 2e24 043c
00000280: f766 dc3c 973e 9c3c 3758 bab9 4a72 c0bb
00000290: 5225 713b 5790 1ebc 1827 7c39 2b23 85b7
000002a0: 96c7 6bbb c16b a13a 819d c439 2e83 efbc
000002b0: b9d6 873b 3b1c 153a f269 82bb fe5b 2b3c
000002c0: a572 af3c 760b b13c fadc 26bd 6fd9 62bb
000002d0: 714d a93b 845c 893c f260 f7bb 4705 a7bc
000002e0: 445a 8f3c e4b9 9f3b 4fcd 363b 3988 5cbc
000002f0: bb76 ebbc 04c8 1a3c 60fb f13b 2827 bdbb
00000300: 6a43 7c3b 21f6 bcbb d1b1 96ba 1fae de3b
00000310: 1911 df3b cc6c 70bb e84b 16bc f5ed e93b
00000320: 66f5 d33b c6cf 5fba 3204 503b 1784 bf3c
00000330: a8fe 8fbc bb01 973b e4c1 8bbc 85fd 27bc
00000340: 1e6f 253c fee7 b73a 421c 80bc 1056 173c
00000350: 3b30 dbbb 87f3 beba 22b0 4f3c 0b72 aabb
00000360: 9c59 4f3c 67af 89bb 66d9 ad3b e249 e13b
00000370: b628 a43b 6785 b9bb e3c4 1b3a 8a6c c93b
00000380: 672c 5b3c 564f 24bc 7455 50bc 9e73 4ebc
00000390: f09a 6dbc ad87 5dbb c860 15bc d0a1 dcbb
000003a0: 0f1b d83c 5d3f e43a 48d7 c7bb 8685 7d3b
000003b0: d79e 24bc 9c20 c6bc cdbe f2bb b130 fa39
000003c0: 1d2d 073d fe7e ad3c 5ec1 b0bb b926 e43a
000003d0: 68de 533b 713f f43b d0d1 a6b9 4f13 043c
000003e0: 90c2 a93b 7e03 3c3b 2a3e 823c 8516 113c
000003f0: 38f2 c43c 2c20 453a 063b 47bb d196 603c
-0.0023821583 0.0077078436 0.009601073 0.0024051256 0.0025446026 -0.0056830766 0.0042293086 -0.0049667326
-0.013455401 -0.0047618165 0.021917835 -0.013854808 0.009568321 0.0077484827 -0.017606407 -0.016004551
-0.010489886 0.0040171654 -0.006334692 -0.00410529 -0.005718093 -0.0075651333 7.058766e-05 -0.011569909
0.009348237 0.03298987 0.00938154 0.021930698 -0.0028770745 -0.038576916 -0.004360869 0.017862882
0.01872819 -0.012469303 -0.0025875822 0.009877641 0.014250626 -0.0386887 0.0050354674 -0.03672805
0.008309202 -0.006870544 0.010981788 0.00944567 0.028136179 -0.0051499857 0.0056634573 0.0024146747
-9.653436e-05 -0.015945915 0.0029822923 -0.011183441 -0.008641397 -0.005115523 -0.006503999 0.0012676863
0.012388997 0.0034403643 -0.00049588137 -0.021715386 0.00362762 -0.020779839 -0.015047951 0.0042511052
0.005673836 -0.0042188177 0.023755493 0.0029804579 0.0056088935 0.023265405 -0.008856632 -0.0015768049
-0.0029004936 0.00021329545 0.015242826 0.0085357865 -0.0055482048 0.021146754 0.011291166 0.02987136
-0.011369394 -0.007060767 -0.008449487 0.0019574878 -0.0014450625 0.00905326 -0.0027310825 -0.0051498353
0.010193923 0.0017859205 -0.012845408 -0.011726145 0.020479327 -0.000814146 -0.011770417 0.009909561
0.0068512205 -0.0066631804 0.018781388 -0.0077989106 -0.0030012808 -0.008267969 -0.012935215 -0.0022018256
0.0017675004 0.001979386 0.0062278 0.0008779228 0.010066329 -0.008765718 0.0062165516 -0.0010951691
-0.012197203 -0.012407861 -0.018318005 0.0032448354 0.0021072621 0.0030571413 0.009388787 0.015490463
0.007740616 0.015647314 0.009475126 -0.006625132 0.019654237 -0.022097113 0.008656488 -0.0055070533
0.0011144021 -0.0004715738 0.012729543 0.004455574 0.014001662 0.0055420767 -0.014626879 0.007648142
-0.0022887303 0.02661368 0.0042845705 -0.013515739 -0.016181128 0.003868185 -0.018146148 0.0026508383
-0.0047645736 0.0069090915 0.0008833383 -0.012974878 -0.005678147 0.01559069 -0.00034747817 -0.0051042996
-0.003941561 0.003826569 0.0024911487 -0.006384185 0.017717034 0.0135368835 -0.014709167 0.008065267
0.026904566 0.019072814 -0.0003554241 -0.0058729993 0.0036795926 -0.009677968 0.00024047156 -1.5871212e-05
-0.0035977117 0.0012315438 0.00037501383 -0.029237356 0.00414547 0.00056881056 -0.003979915 0.010458944
0.021416971 0.02161191 -0.040738083 -0.0034614464 0.0051667024 0.016767748 -0.0075493986 -0.020388259
0.017499097 0.004874455 0.002789337 -0.013460212 -0.028743139 0.0094471015 0.0073847026 -0.00577249
0.003849233 -0.0057666455 -0.0011497085 0.006795659 0.006807458 -0.0036685942 -0.009173371 0.0071389624
0.0064684628 -0.00085377356 0.0031740782 0.023378415 -0.017577484 0.0046083606 -0.017060228 -0.010253315
0.010097293 0.0014030931 -0.015638474 0.0092368275 -0.006689099 -0.0014568426 0.012676271 -0.0052015833
0.012655642 -0.004201818 0.005305457 0.0068752626 0.005009736 -0.0056616548 0.0005942119 0.006146972
0.013377286 -0.010028681 -0.012715686 -0.0126008075 -0.014502272 -0.0033802793 -0.009117313 -0.0067331567
0.02638009 0.0017413903 -0.0060986616 0.0038684322 -0.010047636 -0.024185471 -0.007407999 0.00047719994
0.033002008 0.021178719 -0.005394145 0.001740656 0.003232861 0.007453852 -0.0003181831 0.008061244
0.0051806644 0.0028688605 0.015898783 0.008855467 0.02404128 0.00075197476 -0.003040017 0.013707832

action_model._discrete_distribution.branches.0.bias f4 [3]
00000000: dc6b 2bbd 602e ae3c 78dc 183d
-0.04185091 0.021262348 0.03731963

action_model._discrete_distribution.branches.0.weight f4 [3, 128]
00000000: 5cdb 5ebc 530b 42bb 5f34 cbbd 19b8 373e
00000010: 18c3 823c 5a8c 0f3d ea47 393e 31f4 d23c
00000020: 89d4 93bd 3d91 aa3c 6e92 95bc f74e 32be
00000030: e0d2 f93d b269 e2bc 0a3e 5bbd f131 563e
00000040: 667d 583e 3bc7 693a 2fb7 463d 90cf 7cbd
00000050: 7fb2 2bbd 1007 32bb 07d8 39be 8ebf a03d
00000060: 2531 ec3d bcd1 7cbc 759b 08bd 3a7e 0e3e
00000070: bc89 913d 4039 d03d 5618 933d b4b8 1dbc
00000080: a5aa 3b3d 775f 8a3d 4fa2 84bd 31ee 51bd
00000090: c1ff 93bd 1591 1fbd ac31 8abd d941 88bd
000000a0: 5408 84bd 8112 a5bc 24f0 04bd e01c 93bd
000000b0: 24c2 863c 4387 53be 602d 42bd bf96 dfbc
000000c0: a2f8 67bd 31a8 2d3a e930 333d 0258 873d
000000d0: c29a 52bc a22c 543d 94ff 59bc d47d 88bd
000000e0: 3c49 893b ffa4 86bd cbcc 94bd eceb f4bc
000000f0: a7b4 d73c fb9d 46bd 5f8d 533e dd49 f83c
00000100: b897 2dbd 182a 54bd c309 12bd 0216 acbd
00000110: 8a9b 653d 06ee 15bd 13f1 583e beab ae3c
00000120: 111c 3dbd 2cb2 e1bd 416b 2f3c c2dc 9dbd
00000130: e7a3 563c 8fce 253d 1d0d 58bd 30a2 b0bb
00000140: c624 783e 2d2e cdbe e77e f5bc f175 0abc
00000150: e471 0fbd 21c2 dabc b1f9 23be f583 d13d
00000160: 9be1 45bd 2c21 bebd ee2e d0bc 9055 e1bc
00000170: e89b c73d c14d 203d a490 f3bb d83b 8cbd
00000180: 5fe0 dd3d 2039 26bb 854d 983d e871 843d
00000190: 2b30 ea39 b04d 9d3d 99d3 733d cab1 efbd
000001a0: a396 0bbd 24bd 763e b2c2 67bb 5eaa b9bc
000001b0: b972 dd3d e45b 96bd e6ed 44bd 041f e0be
000001c0: bf47 f03b 0383 0e3e f80b 7ebc 1853 0ebe
000001d0: 5157 68bd 1f27 3cbd 28fa 07be 8193 4a3e
000001e0: 2da9 02bd c0f7 45bd 5e78 0abd 0f11 6cbd
000001f0: 0a90 7e3a 21b3 983d 9781 343e 752e f13d
00000200: c692 ee3c cb8d 3b3d a7e3 2c3d d22b cebc
00000210: c784 193d 494c 7ebd 1c5a 08be 450a 5ebc
00000220: 337c ba3b 2a6a 98bd 6450 593d 2052 d83d
00000230: a76a 893a e2cf debc f90e 6e3c c0b7 e5bd
00000240: be0c 15bd ec6f 58bd 32c6 9d3b e852 fa3c
00000250: d01d d23c 2829 5bbd 03d0 ac3e aab5 b1bd
00000260: 1f3a 22bd 9851 9fbc 17cc 013d d4d2 f73c
00000270: ce07 513d 0a7e c8bc e957 37bd ff3a 89bd
00000280: 2c34 38bd 24da 3c3d b3f4 a1b8 fae6 8c3d
00000290: 294d 923d e39b 473c 76c9 163c 109d cd3c
000002a0: d1c9 c63d b2c8 48bd c714 503d 8b65 663d
000002b0: 9c6e 363d 70bb a63d d3d3 903d 9f20 04bd
000002c0: 9888 3e3c 7248 5cbd 9b3f 2d3d c77c 05bc
000002d0: f724 7a3a 688b 60bd 5320 a93c 7936 b43c
000002e0: 0e8a 563c c73e 413d 4fcf 2b3d 3d42 933d
000002f0: 4d1f b8bd 5967 5c3d e0cf 12be 810d 9fbd
00000300: bd0b f83e 7c70 cc3d b3ff a73d a679 c13c
00000310: fd43 dcbc 5a11 90bd a7ca 72bd 3080 bfbb
00000320: 8105 843c 0dd3 a33d 0d44 a03d 7970 753d
00000330: b863 7dbd de16 8cbd 3b5c 603d 4c44 b5bd
00000340: 5298 d7bd dbdd 113e 3ea8 52bd b0ea 72bd
00000350: 43d5 82bd 4017 5bbd 982b 4dbd 63bf 533d
00000360: 0dad 05bd 50bb bb3d 537f 72ba 959c 0ebd
00000370: 4c7e b93c 978d a1bd 27b9 8ebc 6337 693d
00000380: 9108 c1bd dc48 a93c 1386 7dbe 2623 5fbd
00000390: 5dd8 b6bd 5161 3c3d f4b4 753d 8305 2dbf
000003a0: 1cc7 d63c 8024 90bd 5a3b 51bd 59e9 3a3d
000003b0: 8289 b23b ec54 6c3d 8c5b 173d ea85 40bd
000003c0: bf82 6ebd fbe0 acbc cb92 173d 0e92 f83d
000003d0: c0f1 023c 32fb 913c 272d b03d 807d 17be
000003e0: c8cd 813d f09a 243d 7737 53bd 209a 813d
000003f0: 705d 7b3d b454 503d 8474 5bbd 1666 bbbd
-0.013602104 -0.00296088 -0.09922098 0.17941321 0.015962169 0.03504596 0.1809384 0.025751205
-0.07218272 0.020821208 -0.0182583 -0.17412935 0.12198424 -0.02763829 -0.053525962 0.20917489
0.21141586 0.0008917932 0.04851454 -0.061721385 -0.041918274 -0.0027164854 -0.18148814 0.07849036
0.11532811 -0.015430864 -0.03335138 0.13915339 0.07106349 0.101671696 0.07182376 -0.009626556
0.045817036 0.0675649 -0.064762704 -0.051252548 -0.072265156 -0.03895672 -0.067477554 -0.066531844
-0.06446901 -0.020150425 -0.03245558 -0.07183242 0.016449995 -0.20657067 -0.047406554 -0.027293561
-0.0566336 0.0006624489 0.043747816 0.06608583 -0.01285428 0.051800378 -0.0133055635 -0.06664625
0.0041896384 -0.06574439 -0.07265624 -0.029897653 0.026331259 -0.048490506 0.20659398 0.030308658
-0.04238102 -0.051797956 -0.03565384 -0.08402635 0.056056537 -0.03660395 0.21185713 0.021322127
-0.046169344 -0.11020312 0.010706724 -0.07708122 0.013100601 0.040480193 -0.05274688 -0.005390428
0.24232778 -0.40074292 -0.029967738 -0.008450971 -0.035020724 -0.026703896 -0.16013218 0.10230247
-0.048310857 -0.09283671 -0.025413003 -0.02750662 0.09746534 0.039136652 -0.007433014 -0.06847352
0.10833811 -0.002536364 0.07436661 0.064670384 0.00044667846 0.07680833 0.059527967 -0.117038324
-0.034079205 0.24095589 -0.003536385 -0.022664245 0.10812897 -0.073417455 -0.04807844 -0.43773663
0.0073327716 0.13917165 -0.015505783 -0.13898885 -0.056723896 -0.045935746 -0.13279021 0.19782831
-0.03189962 -0.048331976 -0.033806197 -0.057633456 0.00097107945 0.07456041 0.1762756 0.11776439
0.029122721 0.04578952 0.042209294 -0.02516738 0.037480142 -0.06208447 -0.13315624 -0.013552253
0.005691075 -0.07442124 0.053055182 0.10562539 0.0010484055 -0.027198736 0.014529937 -0.11216688
-0.036389105 -0.052841112 0.0048148865 0.03055711 0.025648981 -0.053506047 0.3375245 -0.08677228
-0.03960621 -0.019448087 0.031688776 0.030251898 0.051032834 -0.024474163 -0.044761572 -0.06700706
-0.04497163 0.046106473 -7.722657e-05 0.06879993 0.071436234 0.012183162 0.0092033055 0.025099307
0.09706462 -0.049019523 0.050801065 0.056249183 0.04453908 0.081412196 0.07071652 -0.032257672
0.011629246 -0.053780027 0.042296987 -0.008147425 0.00095422514 -0.05482045 0.020645296 0.02199863
0.013094438 0.04717901 0.04194575 0.07190368 -0.08990345 0.053809498 -0.1433711 -0.077662475
0.48446456 0.09982392 0.08203068 0.023617577 -0.026887888 -0.070345595 -0.059275296 -0.0058441386
0.016115906 0.07999239 0.0782548 0.059921715 -0.061862677 -0.06840299 0.054775458 -0.08850917
-0.105271 0.14244787 -0.05142998 -0.059305847 -0.06388333 -0.05348897 -0.050090402 0.051696192
-0.032635737 0.091665864 -0.000925054 -0.034817297 0.02264323 -0.07888334 -0.017422272 0.056937587
-0.09425462 0.020664625 -0.24758177 -0.05447688 -0.08927987 0.045991246 0.059987023 -0.67586535
0.02621799 -0.07038212 -0.051081993 0.045632694 0.005448521 0.057698175 0.03695254 -0.04700271
-0.058230158 -0.021103373 0.037005227 0.12137233 0.007992208 0.017819975 0.08602362 -0.14793968
0.06338078 0.040186822 -0.051566567 0.06328225 0.061368406 0.05086203 -0.053577915 -0.09150331

action_model._discrete_distribution.branches.1.bias f4 [3]
00000000: ab74 603c 5c8a 2abd 118e 283b
0.013699691 -0.041635856 0.0025719444

action_model._discrete_distribution.branches.1.weight f4 [3, 128]
00000000: 24f4 303d 0704 91bd d646 e03c e312 1a3c
00000010: 43f5 273d 481d 033d 1822 db3a 27b8 a2bd
00000020: 3f90 e7bd fe6a 05bc e2cb 0e3d 479e 493d
00000030: ad3f a6bd 20bc 8dbd caf8 0d3d bc52 94bc
00000040: b270 033e daa4 0b3d 4f94 64bd 622f e73c
00000050: dc95 c53b 3d50 e1bd bcaf d0be 684e 993e
00000060: e5e7 153e 42b8 1dbd c3a6 983a e89a 503d
00000070: 6314 4cbb c408 0fbd 8b47 533c bbf5 a03b
00000080: 26e2 cdbc 0781 2bbb 7990 3b3d fb35 cc3c
00000090: 0150 203d ac9b ac3b a687 903b 01e5 f13c
000000a0: 97d1 7fb9 0ccf d63c 569c c43c 70f1 d03c
000000b0: 4f15 5c3d 6564 32be c3e2 823d c9af c73c
000000c0: b000 963b fcfd 113d 4962 203c d273 fb3b
000000d0: 9f2a 10bd 0317 4b3d f6df c53c 2cd0 ce3c
000000e0: 8753 55bc 97cd c03c fa55 373d 51f8 463d
000000f0: 2002 5a3d be94 bf3c 7782 523d 172a c23b
00000100: 10f6 a3bc 346c 8f3c 5db9 173d f329 ad3c
00000110: 5d68 5ebd 654c 373d 98db 993d fae1 4ebc
00000120: f3a7 a33c ec8e ac3c 99fe 773c 55aa e83c
00000130: 4366 643d e0ae 40bd 71dc 1c3d 3a2c 143d
00000140: 7c7e 9fbc 50da 26be 7d8b 093d bc61 d23a
00000150: 1c7e 87bd 8bff d43c cfe3 9bbd f05e 13bc
00000160: a44d 1b3c ec7a d53d 9d7c b73c 51db 9abd
00000170: 2eeb 6b3c a579 063d a71a 97bd 8743 5c3c
00000180: 4fa5 e33e 0be4 903c 8f61 aebd d5a5 83bc
00000190: 539a 173d 41e2 57bd af1c 573c 2c1a e33c
000001a0: 1b45 2f3d db5f ab3c 707c 1e3d b03b f13b
000001b0: 369b 55bc 4e5f 613d 3e81 3b3d a065 e6bd
000001c0: 2bb2 023d cc92 f93c 63cf 553d 040d 1f3d
000001d0: 6eaa ea3c e7e8 143c fd69 013d 64fc f6bd
000001e0: 80c4 183d d78e 1c3d 49cb 8a3d e762 fd3c
000001f0: 2c94 773c 1d3e ab3d ce88 12bd 212a 943c
00000200: d3b3 4d3d 360f 13be 679a c0bc 5bb5 163e
00000210: 49df 39be 082d 2cbd e418 2abb 8a6b 933d
00000220: 16dc 433d 37d6 06be cae6 033a 4cca 81be
00000230: 800c c43d aff6 963d a95f 89bc 7cec 0c3e
00000240: 3d4f 0fbd 209e ae3c 0ea2 553d 19b3 3dbd
00000250: 4d03 f0bc 66c2 c33d 9fd0 d13e 1104 0dbf
00000260: 5341 95bd 9b5e 85bd 4a17 3e3c c991 a63b
00000270: 6c7c 583d 5059 063d 6238 363c 8678 b13b
00000280: a130 203d 793c 5c3d 03b5 43bc 249d 95bc
00000290: 004e a5bd dc48 e6bc df65 acbd 62bb 79bc
000002a0: 9bf0 eebc 9397 82bd f1b4 f7bd 3b29 1cbd
000002b0: 651e 8c3d 5433 853d 1726 34bd faa7 063d
000002c0: 3c06 49bc 4ec0 303d a5b1 aa3d 3c1e 88bd
000002d0: 76ca 31be 0fd7 08bc 9ee2 67bc 2ba1 5ebd
000002e0: ccaf 8e3d b8ec 9abc 5397 0ebe d546 85bc
000002f0: 3c9a 51bd e01b 7bbd 60e4 183c 5ba9 15bb
00000300: a498 2cbb 8755 25bc ad0d 903b fbe5 7cbd
00000310: b848 d63c 5745 6bbd 3906 d13d 8c7f 333d
00000320: 3b25 fbbc 6d2b 26be 6c1f 013d 3fc3 8fbd
00000330: b5d9 97bd c183 7b3c 1107 8fbd 70b3 1fbd
00000340: 32e8 9e3d b6fa 053e 4018 283d 9d8d 243b
00000350: 6002 84be d68b a7bc df09 45be 07df 0b3e
00000360: 5a01 c2bc 3bb7 cb3d 777e 41bd 67b4 753d
00000370: 5a3f 60bc cbcf f3bb e02e 883d 28c6 46bd
00000380: 07ad 3fbf 36a1 63be a456 e83d 7aaf a5bd
00000390: 03cc 763b f2af 173e 7466 ea3d 0943 f5bd
000003a0: dcf7 67bd fe31 323e daa3 38bd 7441 e5ba
000003b0: 26a9 243d 1ba2 fe3c edbd abbd 365c 27be
000003c0: 6341 f2bc feb9 733c cf92 403d e982 8bbe
000003d0: ba86 d5bd 6114 65bc 6a7b 733d 45f8 8c3d
000003e0: 109d d5bd a235 6bbc abd6 85bd 6b38 0ebe
000003f0: 0413 213d 7ef0 c13c fa12 6c3e 0c6a f93d
0.04320158 -0.07080846 0.027377527 0.009403917 0.041005384 0.032010347 0.0016718535 -0.079452805
-0.1130681 -0.008143185 0.034862407 0.04922321 -0.08117614 -0.069206476 0.034661092 -0.018105857
0.12835959 0.03409276 -0.0558055 0.028220836 0.0060298275 -0.11001632 -0.40759075 0.29942632
0.14639242 -0.0385058 0.0011646379 0.05092898 -0.003114008 -0.03492047 0.012895475 0.004912106
-0.02513225 -0.0026169436 0.045792077 0.024928084 0.039138798 0.005267581 0.004410702 0.029528143
-0.00024396773 0.026221775 0.024000328 0.025505751 0.05373126 -0.1742111 0.063909076 0.024375813
0.0045777187 0.03564261 0.009789058 0.007673719 -0.035196897 0.049582493 0.024154644 0.025245748
-0.013020403 0.023535533 0.044759728 0.048576657 0.053224683 0.023386355 0.051393952 0.0059254277
-0.020014793 0.01750765 0.03704201 0.021138167 -0.054298747 0.04475059 0.07512587 -0.012627119
0.019977545 0.021064244 0.015136384 0.028401533 0.055761587 -0.047041774 0.038296167 0.03617499
-0.019469492 -0.16294217 0.033580292 0.0016050856 -0.0661585 0.026000759 -0.076118104 -0.008994803
0.00947896 0.10423836 0.022398287 -0.075613625 0.014399333 0.032830853 -0.073781304 0.013443834
0.44462058 0.017686864 -0.085147016 -0.016070286 0.03701241 -0.052706007 0.013129397 0.02772244
0.042790513 0.02091973 0.03869289 0.0073618516 -0.013037493 0.05502253 0.04577755 -0.11249852
0.031908195 0.030465506 0.052199733 0.038830772 0.02864572 0.009088731 0.03159522 -0.120598584
0.037296772 0.03822216 0.06777055 0.03093095 0.0151110105 0.083614565 -0.035775 0.018086495
0.050220322 -0.14361271 -0.023511125 0.14717619 -0.18151583 -0.042035133 -0.0025954777 0.07198246
0.047817312 -0.13167654 0.00050316437 -0.25349653 0.09572697 0.0737127 -0.016769247 0.13762087
-0.034987677 0.021315634 0.0521565 -0.04631338 -0.029298449 0.09558563 0.40979478 -0.5508433
-0.0728785 -0.06512185 0.011602232 0.005083297 0.052853033 0.03280002 0.011121841 0.005415979
0.039108876 0.05376861 -0.011945012 -0.018263407 -0.08071518 -0.028110914 -0.08417868 -0.015242429
-0.029167464 -0.06376567 -0.12095059 -0.038125258 0.06841735 0.06503931 -0.043981638 0.03287504
-0.012269553 0.043152146 0.08334664 -0.06646392 -0.17362389 -0.008352055 -0.014153151 -0.05435292
0.06967124 -0.018911704 -0.13924913 -0.016269127 -0.05117248 -0.06130588 0.009331793 -0.002283654
-0.0026336098 -0.010091192 0.0043961615 -0.061742764 0.026157722 -0.057439175 0.10206265 0.04382281
-0.030657401 -0.16227503 0.031524107 -0.07019662 -0.07414571 0.015351237 -0.0698377 -0.038989484
0.077591315 0.1308392 0.04103875 0.0025108822 -0.25783062 -0.020452421 -0.19242047 0.13659297
-0.023682285 0.09947058 -0.047239747 0.0599865 -0.013686979 -0.0074405423 0.06649566 -0.04852882
-0.74873394 -0.22229466 0.113446504 -0.0809011 0.0037658222 0.14813212 0.11445323 -0.119756766
-0.05663286 0.17401883 -0.045078136 -0.001749082 0.040200375 0.031083157 -0.08385835 -0.1634377
-0.029572194 0.014875887 0.047015008 -0.27248314 -0.10426088 -0.0139819095 0.05944387 0.06883291
-0.10430348 -0.014356049 -0.06535085 -0.13888709 0.039324775 0.023674246 0.23054114 0.1217843

action_model._discrete_distribution.branches.2.bias f4 [2]
00000000: 0113 653d 0113 65bd
0.055926327 -0.055926327

action_model._discrete_distribution.branches.2.weight f4 [2, 128]
00000000: 0b22 e43c 95cf 4dbc 106b 8f3d 9843 67bd
00000010: 7f4f 91bd 2c29 6c3d ebeb 2cbe 516f b83c
00000020: f33c b13d 8bbf f93c 4a1a 363d 23f3 d43c
00000030: 97e1 e23c f19e e8b9 a4a3 473d 02b2 8ebd
00000040: 3609 9fbd 5fee 743d 43c3 1bbd 4311 1a3d
00000050: c127 bd3d 3a98 183e 5600 273f fae7 85bd
00000060: 9ea8 acbc 69bb 383d ae33 943d 247e 933d
00000070: bd05 bcbd 566b 3cbd 5610 9bbd f1dc 5d3d
00000080: b3de 04bd c4c9 58bd 5ce9 363d a35c 723d
00000090: d437 353d c94d 903d ebc7 7f3d 1156 533d
000000a0: 91a7 6c3d 199c 173d 4303 6f3d c83e 373d
000000b0: 695c babd b696 413e e040 db3c e55e 6a3e
000000c0: 4f67 013d ef19 873c a6d5 51bc ac31 10be
000000d0: 049a b8bb a47f 073d b6b6 2b3d b6af 013d
000000e0: 1656 4bbd a72f 803d 5424 bb3c c8bf 2e3d
000000f0: 180b 493d 4d97 853d 3f2d 85be e959 023d
00000100: 0fd1 6e3e 1f8d b93d 8c02 283d 472b 1d3d
00000110: 9b9a 3abd 14e6 233d 85ff e1bc 5520 49bd
00000120: 159c 543d baa2 ce3c 80aa 0a3d 03c9 503d
00000130: ad42 22bc 19a9 1a3d 6e01 603d b907 963c
00000140: f698 d2bd 5690 3e3e dee3 31be a8f8 783d
00000150: e744 a3bd cb20 a83c 8853 a8bd 5779 1e3c
00000160: e996 5e3d 380c f3bd daaa 4a3d 82ef 0ebd
00000170: 136d 01be ce7d 9a3d e13c 1c3c 4e47 533d
00000180: 7128 cabc e9d6 50bc 473c 72be b146 ef3d
00000190: 5ce9 f33c 5783 993e d58b 3f3c 411c 2cbe
000001a0: 187f 473d f080 42bd 558e 653d 01b4 443d
000001b0: aa45 2dbd 55de 6a3d 59f5 243d 3d58 613d
000001c0: 821b 333d 4c89 af3c 5c0b 8c3d cd80 933d
000001d0: 42eb 723d 71d2 0b3d fd47 b13d 6508 a43d
000001e0: 65d1 463d af0c 243d 246e 423d e662 2f3c
000001f0: 827a f23c 2206 16bd 0979 bc3b 5e25 dabd
00000200: e5d3 5cbd a7c4 393c 613c 4cbd c5cd 1d3d
00000210: eee0 983d 609c 48bd 4689 3e3e 4e0a bd3a
00000220: d254 99bd 1946 53bc e50b 61bd 4ef6 17bd
00000230: 90ff e5bc f63e 34bb 0d91 29bd b6a1 933d
00000240: c976 a43d 3526 6bbd 3f6e d13b 3736 23bd
00000250: 4fc7 70bd 9365 0ebe d95b 24bf 6daa 893d
00000260: dbeb 6b3c e708 23bd 3d9a b5bd e62f 6fbd
00000270: 5b3f c43d 34ba ee3c 02c6 9c3d efbf 92bd
00000280: db59 563d a7fb 7a3d 6c3f debc 24f4 74bd
00000290: 84e5 ecbc 3d0c 96bd 0549 51bd f9e0 63bd
000002a0: 6680 69bd 08d9 02bd 50c7 9bbd e2cf 55bd
000002b0: d09c ba3d 6add 31be ae35 2bbd d350 59be
000002c0: a2d2 35bd 6c17 a3bb ece7 2c3c b7f3 1f3e
000002d0: e377 df3b ec61 24bd f51e fcbc 153b 36bd
000002e0: 9f66 6b3d 153a 50bd 9b38 03bd f90d 7fbd
000002f0: 7b0b 15bd 943d 94bd 100f 863e 3bf2 d1bc
00000300: aa24 6fbe b7f0 afbd d68b 50bd 6eec 1dbd
00000310: 26c1 893d 4868 82bd b5fa 093c 60c9 5e3d
00000320: 0f65 53bd f5eb 3bbc 97f5 31bd 219f 3bbd
00000330: 1240 0ebc e81d 19bd b7ca 53bd 17e2 b3bc
00000340: c773 da3d 93b2 48be 1fc7 393e 38fb 47bd
00000350: 7b37 983d 7103 06bd d6c5 8b3d 51f6 5cbc
00000360: e2e1 57bd 8008 153e ce9a 21bd 7ae0 e93c
00000370: 4dee fb3d 5144 b1bd 3f4c dd3b 4352 81bd
00000380: ae5d eb3c a990 043d 9dbb 813e 9dfb 10be
00000390: f1b6 d9bc a00d 97be 3b0d 49bb 8849 313e
000003a0: 1741 edbc 15ac f23c d113 38bd b902 29bd
000003b0: 8102 1f3d 16de 84bd b037 53bd f04e 50bd
000003c0: e3fb 2abd a08a 1e3c 184f 5dbd eb4e 75bd
000003d0: c354 5bbd 4412 54bd cbe1 8abd 88f8 afbd
000003e0: 2068 1abd 86e5 65bd 106e 2cbd d774 11bc
000003f0: b552 13bd e999 203d 20c9 53bc 6db3 b53d
0.027848264 -0.012561698 0.070028424 -0.056460947 -0.07095241 0.057656452 -0.1688687 0.022514017
0.08654203 0.030486843 0.044458665 0.025994843 0.02769546 -0.0004436891 0.048740044 -0.06967546
-0.07765429 0.05979764 -0.038028013 0.03761412 0.09236098 0.1490182 0.6523489 -0.06538387
-0.021076497 0.045100603 0.072364196 0.07201794 -0.09180782 -0.0460008 -0.07571475 0.054165784
-0.032438945 -0.052926794 0.044656143 0.059170377 0.044242695 0.07046086 0.062446516 0.05159575
0.05777699 0.0370141 0.05835272 0.044737607 -0.09099657 0.18905148 0.026764333 0.22887762
0.031592663 0.016491858 -0.012807285 -0.14081448 -0.0056335945 0.033080712 0.041922294 0.03166171
-0.049642645 0.06259089 0.022844471 0.042663366 0.049082845 0.06522999 -0.26011083 0.031824026
0.23321937 0.0906012 0.041018054 0.03837135 -0.0455576 0.04001434 -0.027587662 -0.0491031
0.051906664 0.025224078 0.033854008 0.05097295 -0.009903592 0.03775892 0.054688863 0.01831423
-0.10283081 0.18609747 -0.1737208 0.060784012 -0.079721265 0.02052345 -0.08219057 0.009672484
0.054343138 -0.11867565 0.049479343 -0.03489638 -0.12639265 0.075435266 0.009535999 0.051581673
-0.024677487 -0.012746551 -0.23655806 0.11683405 0.02977436 0.29983017 0.011691053 -0.16807653
0.04870519 -0.047486246 0.05604394 0.048023228 -0.042302765 0.05734094 0.040273044 0.05501579
0.043727405 0.021427773 0.06838104 0.07202301 0.05930639 0.03413624 0.08656309 0.08009414
0.048539538 0.04005116 0.04746832 0.010704732 0.029599432 -0.036626942 0.005751733 -0.106516585
-0.053913016 0.0113383895 -0.04986227 0.038526315 0.07464777 -0.048977256 0.18607053 0.0014422627
-0.07486881 -0.012895131 -0.054942984 -0.03710013 -0.028075963 -0.0027503348 -0.041398097 0.07208578
0.08030469 -0.057409484 0.006391316 -0.039846625 -0.058783825 -0.13905935 -0.6420265 0.06721959
0.014399494 -0.03980341 -0.08867309 -0.05839529 0.095823966 0.029141523 0.076549545 -0.07165515
0.052331787 0.06127515 -0.027129851 -0.059803143 -0.028918035 -0.07326553 -0.051095027 -0.055634473
-0.057007216 -0.03194526 -0.07606375 -0.052200206 0.09111941 -0.17369619 -0.04179924 -0.21222238
-0.04439033 -0.0049771573 0.010553341 0.15620314 0.0068197115 -0.040132448 -0.03077648 -0.04448994
0.057470914 -0.05083664 -0.032036405 -0.062269185 -0.0363879 -0.072383076 0.26183367 -0.0256282
-0.2335383 -0.085908346 -0.050914608 -0.038555555 0.06726293 -0.06367546 0.00842159 0.054391265
-0.05161005 -0.011469831 -0.043447103 -0.045806054 -0.008682268 -0.037382036 -0.051706996 -0.021958394
0.10666614 -0.1959937 0.18142365 -0.048823565 0.07432457 -0.032718126 0.068248436 -0.013486461
-0.052705653 0.14554024 -0.039454274 0.028549422 0.12301312 -0.086556084 0.006753474 -0.06314518
0.028731193 0.03236452 0.2533845 -0.14158483 -0.026576491 -0.29502583 -0.0030678052 0.17313206
-0.028961701 0.02962307 -0.044940773 -0.041262362 0.038820747 -0.06487672 -0.05156678 -0.05085653
-0.041744124 0.009676605 -0.054030508 -0.059889715 -0.053547632 -0.051775232 -0.06781348 -0.085923254
-0.037696958 -0.056127094 -0.04209715 -0.008877954 -0.035967547 0.03920928 -0.01292637 0.088721134

discrete_action_output_shape f4 [1, 3]
00000000: 0000 4040 0000 4040 0000 0040
3.0 3.0 2.0

network_body._body_endoder.seq_layers.0.bias f4 [128]
00000000: b137 a53d 827f 583d 089b 743c 5e73 523d
00000010: 91f8 8e3d 8e7c 423e 0b4d dd3d e85f 6a3d
00000020: c64a a13d 974c 443e 8b89 a53d c878 af3d
00000030: 5e1e 47bd 1d3d 0d3e dfc3 e03d c7f7 b93d
00000040: ec0e 453d 27c5 863d e357 9d3d ed7f 033e
00000050: 660d da3d 4c57 d63d 6168 c93d bd9b c73d
00000060: e61f 883d e10b 3c3d 54b6 3e3d 2b86 f43d
00000070: 7cef 9b3d 5ea7 b43d 76ae 5b3d f25f 1f3d
00000080: 1a4b 033e 3fc5 5f3e b190 703d 2163 9b3d
00000090: 4d54 b73d b9ee 003e 6204 593e 36ad 833e
000000a0: 9cac 093e 8447 af3d adae 2a3e 4be8 013e
000000b0: 2f6b b33d 45bd 033e 7470 283e 6039 d13d
000000c0: a949 603d 4298 893d e1df a13d f9f6 313e
000000d0: 067b c83d 2901 c53d 87b8 d73c d47e 863d
000000e0: 30ec 3b3d 90da 9bbc 1764 603d 7595 1b3e
000000f0: f37a 453d 5970 b43d a727 ac3d 4bfd ec3c
00000100: a3c2 163e 18a1 693c 31a4 a03d 3a62 1a3e
00000110: e635 a13d 055c c33d e45a 7c3e 5c4e 4b3d
00000120: f15b 5f3d cced a73d 4f36 af3d b2fb 313e
00000130: d1a0 883d e828 bf3d 297c f73d ec4a 5d3e
00000140: a4cc e83d 7323 133e cfcb da3c b6ee c93d
00000150: 5b86 6e3d dd8a 793d 2b1a 523d 85b3 5d3d
00000160: 4c1b fa3d 9959 393e b403 aa3d 4d6e a83d
00000170: 0d2a 343e 1c42 d93d 7f7a 0b3e 64a5 d63d
00000180: 717a 1d3e 0863 7e3d d7f6 753d d51b 2a3e
00000190: 1e16 303d 72bc 0bbc 8312 df3d f73c ae3d
000001a0: 95b9 583d d5af 1d3d c52c a03d 3b90 943d
000001b0: 9de9 de3d d979 993d 05f2 1e3d 1894 66bd
000001c0: 856a e43d 18b1 183e 5aaa a63d f848 363e
000001d0: deff 523d 3b61 663d 5b3f be3d d685 8c3e
000001e0: e8b8 1d3e 2403 b63c c1a1 6e3d 5deb f63c
000001f0: a699 263d 0a94 d13d 3c9b 393e 89ab 69bd
0.08067263 0.052855976 0.01492954 0.051379554 0.06981004 0.18992826 0.108057104 0.05722037
0.0787559 0.19169842 0.08082875 0.08567959 -0.048612945 0.13792844 0.109748594 0.09080463
0.048109934 0.065805726 0.07682779 0.12841769 0.10647087 0.10465869 0.09834362 0.097465016
0.06646709 0.045909766 0.0465606 0.11939653 0.076140374 0.08820985 0.053633176 0.03890986
0.12821618 0.21852587 0.05873174 0.07587267 0.08951626 0.12591065 0.21193078 0.25718087
0.13444752 0.085585624 0.16668196 0.12686269 0.08760678 0.1286517 0.16449147 0.102160215
0.054757748 0.06718494 0.0790403 0.17379369 0.0978909 0.09619362 0.026333107 0.06567159
0.045879543 -0.019025117 0.054782953 0.15193732 0.048212957 0.08810491 0.084060006 0.028929373
0.14722686 0.014259599 0.07843817 0.15076533 0.078716084 0.09539036 0.24644047 0.049635276
0.05453104 0.08199653 0.085552804 0.1738117 0.06671298 0.09333974 0.120842285 0.21610612
0.11367157 0.14368992 0.026708512 0.098599836 0.0582336 0.060923446 0.051294487 0.05412628
0.12212238 0.18100585 0.083014876 0.08224163 0.17594166 0.106083125 0.13620947 0.104807645
0.15378739 0.062106162 0.060049858 0.1661218 0.042989843 -0.008528816 0.10892203 0.08507722
0.05291136 0.038497765 0.07821039 0.07254072 0.10884402 0.07493944 0.038805027 -0.056293577
0.111531295 0.14911306 0.08137961 0.17801273 0.051513545 0.05624507 0.09289428 0.2744586
0.15402567 0.022218294 0.05825973 0.030141527 0.040673874 0.10233314 0.18125623 -0.057048354

network_body._body_endoder.seq_layers.0.weight f4 [128, 6]
00000000: c074 8cbd 0ec8 d73e 4483 97bf b765 333f
00000010: 55f4 5fbf 761a 30be 5ac6 b9bd 35b6 bd3e
00000020: 47e8 a03d f957 26be 36b6 e2be 683b 43be
00000030: 8644 45bf 1861 46be 011a 9abe 58a3 103e
00000040: 4c52 d13e b6ba 7fbe 90d3 25be 5dcb 4e3f
00000050: 7876 9a3e 072a 9cbd 3efa 023b c326 15bf
00000060: b90a e53c 3621 cc3e 3e7e 10bf e1ac c9be
00000070: a1b7 323e 70da b9be 527f b6be a8d4 fe3d
00000080: c3c3 843f 3256 153e db20 01bf 0ff0 5f3f
00000090: fdf9 913e 8e40 09bc 3b10 69be f534 433e
000000a0: 0c39 9e3f 04eb 173e 2603 50bc 682d 723f
000000b0: ad0b 1b3d b4e1 9bbd 0432 8a3e 37e7 66be
000000c0: 9664 3c3f 9c11 0e3f 720e 383f c05f c73b
000000d0: e3fa b63e 2dcd 3dbe 8bb5 65bd 8e77 16bd
000000e0: 9bb8 913f 3466 633e 7beb 9bbf 1c50 babd
000000f0: bee8 06be 47d6 523e 54ae 3ebf 123c 31be
00000100: 3b71 e93d 8cb3 4d3f a441 143f 3254 483f
00000110: 39e4 643f a8a2 653e 1257 c13e 0d83 63be
00000120: 3cfd f9be b142 bcbd a516 143e 2016 1ebf
00000130: 869e 343f 8d64 dfbe 8c98 02bf 9d13 70bd
00000140: 0f54 013e 24bc ba3e 80fe 82be 9101 c4bf
00000150: 3c14 773e fa8d 4e3b e826 a73e 4c62 11be
00000160: 4e8d bebe 6ad4 77bf 5763 7c3e 4e53 bf3e
00000170: cc0e 2fbf 61af 10bf 6628 cfbe b668 223f
00000180: 1021 0d3e 1a83 673e c513 f9be dc56 ec3d
00000190: 2f48 993f 4bd4 1b3f 9ad7 adbe 1ec9 173f
000001a0: ec25 e43e 077f aebe bfdb e8bc 3e20 6abf
000001b0: 37ee cabe 2a26 8cbb d203 d43c 7746 813f
000001c0: 1397 8fbe 601b f73e 08c7 dabd 97ce 9a3e
000001d0: 99c0 af3f 1e1c 653e 83ef 13be 3800 63be
000001e0: 8c75 ac3d 5fdd 0ebf 0403 2cbf 95e7 6d3d
000001f0: 38a1 3bbf af1e 283f 2100 8d3e e473 b63c
00000200: c14c 013f f286 8abe d76c a3be abfd 80bf
00000210: 74b9 9a3e 0c8e aa3e 01d1 c23e 2031 833e
00000220: b93f c13e 6716 163f bb1c 76bb c9be 353e
00000230: 7590 96bf cde3 213d bacf 963d 83e3 5f3e
00000240: 456b 173e 9ea7 343f 485b 07bf d4f5 5fbe
00000250: d05d b53d c3d3 0c3f e12d cd3d c157 c53e
00000260: 47fc bebd 8b21 81be 2f2a b73d 77f3 84bf
00000270: 2725 15bf d4ba 013f 9b3f 0b3f cec3 b93e
00000280: d8b2 2b3f d256 58bd e45d 85bd cb50 2a3e
00000290: ec25 a6be 87f4 d33c 962e 37bf 778a c63f
000002a0: 07db 293f fc8b c83e e1ab 573f e23a 0b3e
000002b0: dbec d2be 623f 08bf de1f 2e3e 0f04 ae3e
000002c0: abb5 11bf be1c 133c 190f 653e 58c7 78bf
000002d0: 2488 bf3e 4c81 963e fe60 e03e 7b0c 113e
000002e0: 62bc 61bf 7d9e 7b3e b512 0f3f 81eb 263f
000002f0: ed38 58bf 3413 c23e f1da 5dbe 2aa0 df3d
00000300: a03f 7dbe c098 febc 953a b8bf fd81 973d
00000310: 64e2 a2be 6efe 0c3f e16e 10be 43e1 353f
00000320: a4e5 e93f 441d cd3b 4f76 55be 021e 3ebe
00000330: 5587 5abe db31 ed3d 2b4b 07bf 577d 823e
00000340: 543e 3b3d b349 98bf 1609 34be 4c87 2fbd
00000350: dc62 4f3f 1478 01bf 5a98 9ebe 0554 8d3d
00000360: 2cd4 643d 3324 8a3d f199 563f 0ea1 8a3f
00000370: 4170 2ebf 5686 84bf 74f1 fe3e 7d84 08bf
00000380: 8278 66bf dd59 7abe bbc3 4bbf 26bd 9b3f
00000390: ac2c 5ebe f931 d4be 9750 a2bf b73a dd3e
000003a0: a065 d03e d63b 5abf 40fb 35bf 0a06 18bf
000003b0: 8409 32be 31a8 4e3e f829 993d 2243 a4bf
000003c0: 5359 a23d 806e 46bf 7a42 303f de0a 21bb
000003d0: ebb8 e1be c30a 223f 6f56 9cbe ea5b ad3e
000003e0: 6f43 dc3e af62 4d3f fe61 8b3e 868d 42bf
000003f0: 17d8 b43e da30 ad3e 3168 803f 0a7b 4abe
-0.06858206 0.42144817 -1.1836934 0.7007708 -0.87482196 -0.17197594 -0.09071036 0.37053075
0.078568034 -0.16244496 -0.4427964 -0.1906563 -0.77057683 -0.19372976 -0.30097964 0.1412481
0.408831 -0.24973568 -0.16193986 0.8077906 0.3016851 -0.076252036 0.0019985582 -0.5826227
0.027959215 0.39869088 -0.5644263 -0.3938971 0.17452861 -0.36299467 -0.35644013 0.12442905
1.0372242 0.14583662 -0.5044076 0.87475675 0.28511038 -0.008377207 -0.22760098 0.1906317
1.2361159 0.14835745 -0.012696063 0.94600534 0.03785293 -0.07611409 0.26991284 -0.22549139
0.7359098 0.5549562 0.7189704 0.0060844123 0.35738286 -0.185353 -0.056081336 -0.03673511
1.1384462 0.22206956 -1.2181238 -0.09097311 -0.13174722 0.20589553 -0.74484754 -0.17308071
0.1139855 0.8035209 0.5791266 0.7825347 0.8941074 0.2242533 0.37761742 -0.2221796
-0.48826015 -0.09192408 0.14461763 -0.6175251 0.7055439 -0.43631402 -0.5101402 -0.058612455
0.12629722 0.36471665 -0.25584793 -1.5312978 0.24128813 0.003151773 0.3264687 -0.14197654
-0.37217182 -0.96808493 0.2464727 0.37368244 -0.68381953 -0.56517607 -0.4046051 0.63441026
0.13782144 0.22608605 -0.48647895 0.115400046 1.1975154 0.6087081 -0.33953553 0.59291255
0.44560182 -0.3408129 -0.028425096 -0.9145545 -0.39634869 -0.0042770104 0.025880728 1.0099629
-0.28044948 0.48263073 -0.106824934 0.3023574 1.3730651 0.22374007 -0.14446835 -0.22168052
0.08420858 -0.55806535 -0.671921 0.058082182 -0.73292875 0.6567182 0.2753916 0.022272058
0.5050774 -0.2705608 -0.31918976 -1.0077413 0.30219615 0.33311498 0.38050082 0.25623417
0.3774393 0.58627933 -0.0037553746 0.1774856 -1.1762835 0.03952389 0.073638394 0.21864133
0.14787014 0.70568264 -0.5287366 -0.2187112 0.08855784 0.5501062 0.10018516 0.38543513
-0.09325462 -0.25220904 0.08943593 -1.03868 -0.58259815 0.506757 0.5439393 0.362822
0.6706977 -0.052817173 -0.06512049 0.16632383 -0.32450807 0.025873436 -0.7155546 1.5511006
0.66349834 0.391693 0.8424664 0.13596681 -0.4119633 -0.53221714 0.17004344 0.3398747
-0.5691783 0.008979021 0.2236904 -0.97179174 0.37408555 0.2939552 0.43824 0.14164917
-0.88178074 0.24572177 0.5588792 0.652031 -0.8446186 0.37905276 -0.21665551 0.10919221
-0.24731302 -0.031078696 -1.4392878 0.0739784 -0.31813347 0.5507573 -0.14104797 0.7104685
1.8273206 0.0062595922 -0.20845912 -0.18566135 -0.21340688 0.11581775 -0.5284907 0.25486252
0.045713738 -1.1897491 -0.17581591 -0.04285364 0.8101022 -0.5057385 -0.3097561 0.06900791
0.055866405 0.06745186 0.83828646 1.08304 -0.68140036 -1.0353496 0.4979359 -0.5332716
-0.9002763 -0.24448343 -0.79595536 1.2167099 -0.21696728 -0.41444376 -1.2680844 0.43208858
0.40702534 -0.8524755 -0.710865 -0.59384215 -0.17386442 0.20181347 0.07478708 -1.2832987
0.079271935 -0.7751236 0.68851435 -0.0024573128 -0.44086394 0.6329767 -0.30534694 0.33859187
0.43020198 0.80228704 0.272232 -0.759972 0.35321113 0.33826333 1.0031797 -0.19773498

network_body._body_endoder.seq_layers.2.bias f4 [128]
00000000: 28f4 143c 3e9d fd3c 14d0 5a3d a930 ea3c
00000010: 5c29 c03c 9609 e73c ac0c 97bd 5c1d d1bc
00000020: 8dfb 863c 44b5 253d 0f38 113c 44c6 033d
00000030: b8cb 0abd ac66 e4bc 2791 ad3c c3f7 313d
00000040: 1b50 85bc 640a ba3a 0f78 04bd cd47 ed3c
00000050: 8a4a 113d 798e 02bc d1ac 9dbc 6b10 89bd
00000060: 42ee 213b 21fd 963c a70f da3c bd08 ffbb
00000070: 7621 f9bc 24b5 f3bc a510 70bc ecc2 a13c
00000080: 021d 3bbd cce6 14bc 730b d63c 879b 833c
00000090: 8666 dd3c c8ff bf3c 1cb3 1e3d 9f56 023d
000000a0: bbda ec3b 0606 f43c d26e 633d 3ab7 e43c
000000b0: 9558 fbbc 76c7 ad3c 4d01 093d 1ea9 853b
000000c0: ca39 ca3c cd16 bd3c ad35 ba3b c36f 0bbd
000000d0: ee62 833d 4af4 923b d601 253c 1e09 ec3c
000000e0: ea98 c6bc 4fca 323c c5e6 ea3c 218b 673c
000000f0: c4a3 1e3d b2f8 023d 342f 65bc e05f 383c
00000100: 08d9 a43c ecc6 4e3c 048b 823c 021d c33c
00000110: 2553 e3bc e4b9 053d 5368 673d e5dc 14bd
00000120: 23a3 b33c e5b2 e83c 43e7 5939 8b34 f13c
00000130: 3d83 163d ba2a 873b 073c f53c ec55 cf3c
00000140: ba44 96bd 96d0 39bd 22a5 73bc 1dc5 803c
00000150: f6a4 3c3d d654 dd3c 627b 61bc 45a9 f33c
00000160: e000 eb3c 6697 7dbc ea23 b33c 59c8 59bc
00000170: e826 33bd b136 d93c e1af 85bc fdba 113d
00000180: 7cb5 4cbd aaed 7e3d 0b92 4dbc 1062 6f3d
00000190: d996 883c 4931 a23a 0e2e 9bbb 36fa b4bd
000001a0: 8150 aa3c 33ed 713d c9ce 983c 93ab ecba
000001b0: 95a9 f33b 4e86 183d 4720 293d 0417 8f3c
000001c0: 3340 be3c 39ae 69bc 446b 5fbb de1f 803d
000001d0: a348 503d 3865 b83c 57f5 d93c e08f febc
000001e0: e5bd 413d ae6e d13c ad5a 213d e658 063d
000001f0: 39c6 71bc 739b edbc 87f6 3a3d 577e cc3b
0.0090914145 0.030958768 0.053421095 0.028587656 0.023457222 0.028202813 -0.07375464 -0.025526695
0.01647737 0.04045607 0.008863463 0.032171503 -0.033885688 -0.027880989 0.021187378 0.043449175
-0.016273549 0.001419377 -0.03234106 0.028964901 0.035471477 -0.007968538 -0.019247444 -0.066925846
0.0024708663 0.018431248 0.026618792 -0.007783024 -0.030411463 -0.02974946 -0.014652406 0.019746266
-0.04568196 -0.009088229 0.026128506 0.016065372 0.027026426 0.023437396 0.03874503 0.03182089
0.007228223 0.029788028 0.05552561 0.0279194 -0.030681888 0.021213274 0.033448506 0.004078998
0.02468576 0.023082161 0.005682668 -0.03404213 0.06415354 0.004484688 0.0100712385 0.028812941
-0.024242837 0.010912492 0.028674493 0.014132292 0.038730398 0.031975456 -0.013988305 0.011253327
0.02012302 0.012620669 0.015935428 0.023817543 -0.027749607 0.032647982 0.056495976 -0.036343474
0.021928376 0.028405616 0.00020780884 0.029444 0.036746252 0.0041249665 0.02993585 0.025309525
-0.07337327 -0.04536494 -0.014870914 0.015718991 0.046055757 0.027017992 -0.013762327 0.0297438
0.02868694 -0.015477991 0.021867711 -0.0132923955 -0.043738276 0.026515337 -0.016319217 0.035578717
-0.049977764 0.062238373 -0.012547026 0.05844313 0.016673492 0.0012374307 -0.0047357148 -0.088367864
0.02079034 0.0590641 0.01865329 -0.0018056504 0.0074359872 0.037237458 0.041290548 0.01746703
0.023223972 -0.014262729 -0.0034091035 0.06256078 0.05085052 0.022509202 0.026606245 -0.031074464
0.04730024 0.025565472 0.039393116 0.032799624 -0.014756733 -0.029004788 0.045645263 0.006240647

network_body._body_endoder.seq_layers.2.weight f4 [128, 128]
00000000: 15c8 cfbd 30d1 68bd b4de 4d3e 7f27 7f3d
00000010: ae3f f73d 3bd4 26be 3893 09bd 2ddc 383d
00000020: 1b58 c0bd 9325 e1bd 4afa fcb9 0dc4 de3c
00000030: 28c2 2ebe ae37 a43d cec1 213e 1f14 41bd
00000040: 3c26 463d a5c8 263c 2daa 11be 4c9f e4bd
00000050: 459e 36be fd02 5d3e 355b 81bd fbe1 0bbd
00000060: 010e 123d 3ded 0dbb ad90 1cbe 1af5 97bc
00000070: 796e 17bd 7f32 ad3d 9201 0a3b 31c1 373d
00000080: c912 c2bd 47ab 893d dfe8 e63c 2565 17be
00000090: 9b92 f13c 33e4 30be 7890 d9bd a321 21bd
000000a0: 440a 8abe 3027 4b3e 7e85 62bd 4860 aa3c
000000b0: fc93 253e 153f 033e d36d 303d 3eec 033e
000000c0: f1d3 79bd df5e bf3d 24e4 0e3c 46a6 dbbd
000000d0: d92a 23bd 77c2 023e 426e 63be 283e c9bd
000000e0: a17b bebc 1700 30be f61a 303e 36a4 efbd
000000f0: c61d 0e3d 897d b5bd 9a60 82be 1caa 1f3e
00000100: e13b d93d 4cb9 5bbd ea5e 223d d2d8 c83d
00000110: 2c27 5dbe 2492 67be c758 e13d 7298 a4bc
00000120: 4acb 673d 3735 8bbd 9c50 17bc 5ed1 6d3e
00000130: 8973 77be 9fdd 093e 4dc4 05be 7a4a c53d
00000140: a3a8 2ebe 2752 c7bc bbd9 033e 27fd ee3d
00000150: d732 44bb 7f72 aebd 328c bd3d e116 9b3d
00000160: 883c e5bc 0f5a 2dbe f444 143d c39a 58bc
00000170: ef24 0fbd d4e7 9e3c 1b7d 913d f709 b2bd
00000180: 2fe6 ac3b c3eb 573e a352 033c 17ae bcbd
00000190: 3a40 ff3d bf2b 2fbe 80b4 5d3d f6f0 243e
000001a0: 1728 72bc fd07 573d 5581 69bd 45b9 e5bd
000001b0: 86ea 09bd 42de 35be ef0c 043e 9c83 c93c
000001c0: 720f 63bd 5c9e 27bd 35d6 01bb f681 f3bd
000001d0: 45ee 693d 5cae b9bc 2a0a d5bc e4c5 3bbd
000001e0: 23b2 04bd 69dc f63d 68dc cabd 86fb 363e
000001f0: af38 9d3d 4810 93bd 32c8 eebd 5dc8 1bbc
00000200: 93af b6bd c637 88bd 3a52 e3bc 3c19 f1bc
00000210: e8ca ecbd e637 8c3d 69a2 0e3e 8fd1 313a
00000220: a04f a73d cf2f 603e 7c77 74bd b40a 863e
00000230: c366 683d 8c3d eabd 6ceb 443e 2114 bfba
00000240: 4b33 9d3d 180c c83d 8648 043d 5274 153e
00000250: c517 83bc 89e5 273e 92e4 a53d 01b3 88be
00000260: 6044 fabd 9a18 013c e36a 533b 62fa 71be
00000270: 9cfa 0d3e 6c6f e2bd 5455 203e 1f67 a2bc
00000280: 4a1b a4be 7eec 273e 1c3d 37be 106c 883d
00000290: 5537 3d3e ead9 44be fb9d ae3d ccac 77bc
000002a0: 992c ae3d da5c 33bd 7db7 833e 5d86 8e3d
000002b0: e26b a6bd 604b 8c3e 6351 6ebe 586a 273d
000002c0: 56c2 56be 8d06 b0bd dc6d 9ebd 3528 71be
000002d0: 48d0 10be c19b 4dbb 48e3 3abd aaae 7d3e
000002e0: 3345 84be 1dec 22be 08c7 fabd 2953 9abe
000002f0: c1e1 f93c 8a9b 53bd a29e 6abe a665 07be
00000300: 2b7d 18bd 71ae ad3d 3917 033e 4e92 8d3c
00000310: b3b5 dc3e 88e6 afbc da05 8a3e 44bd edbc
00000320: 0dbb c7bc b50f 293d 8938 003d 390b 1cbe
00000330: 2e5d f13c 76f7 2b3d c60d c43d b121 9d3e
00000340: 0252 84bd 1008 f83d 3369 313d 7e7c b3be
00000350: 081e e0bd 264d 723d 6e9b 93bc 99ca 423d
00000360: 92dc 873d 27a2 1ebe 5746 78be 99a5 0f3c
00000370: b109 833e d0f5 fc3c f686 553e c85a 2f3e
00000380: df21 af3d 5fdc 2dbd 56cd e4bd 8cab f6be
00000390: 3fdf ba3d 8f60 70be fd8d 3a3e 3218 9dbd
000003a0: d1b4 11be acf4 223d abb0 0bbe 1fc0 fcbc
000003b0: f8c3 03bd f997 7fbe 5621 f0bd 86ff 79bd
000003c0: ade7 04be aa08 b83e 4677 0bbe 413b c0bd
000003d0: f86d 303d 53fa 8bbd c772 493e 1eaa 2cbd
000003e0: fbc2 4a3e e378 943c 2dc8 133e 5266 a93d
000003f0: 05ce 5b3b 9ea4 0abd 32ce 5c3e 5bb7 913d
-0.101455845 -0.05684012 0.20104486 0.062293526 0.12072693 -0.16291897 -0.033587664 0.04513185
-0.09391805 -0.10993495 -0.00048251665 0.027193094 -0.17066252 0.080184326 0.15796587 -0.04713833
0.048376307 0.010179673 -0.14225073 -0.11163196 -0.17833813 0.21583171 -0.063162245 -0.03415106
0.035657886 -0.0021656298 -0.15289564 -0.01854949 -0.03697059 0.08456897 0.0021058065 0.044861976
-0.09476239 0.06722122 0.028187213 -0.14784677 0.029488852 -0.17274551 -0.10623258 -0.03933872
-0.26960957 0.19839168 -0.05530309 0.020797864 0.16169733 0.12817033 0.043073487 0.12883088
-0.06099314 0.09344267 0.008721385 -0.107250735 -0.039835785 0.12769495 -0.22210029 -0.098263085
-0.02325231 -0.17187534 0.17197785 -0.117012426 0.034696363 -0.088618346 -0.25464326 0.15592235
0.10607124 -0.05364351 0.0396413 0.0980698 -0.21596974 -0.22614342 0.11003261 -0.020092223
0.056590356 -0.06797259 -0.009235527 0.23224398 -0.24165167 0.13463448 -0.13063164 0.09633346
-0.17056517 -0.024331165 0.12876026 0.11669379 -0.002993753 -0.08517932 0.09255256 0.07572723
-0.027982965 -0.16928886 0.03619857 -0.013220492 -0.034947332 0.019397654 0.0710394 -0.08693307
0.0052764635 0.2108603 0.008015308 -0.092128925 0.12463422 -0.17106532 0.054127216 0.16107544
-0.014780066 0.052497853 -0.057008106 -0.11216978 -0.033670925 -0.17760566 0.12895559 0.024598889
-0.05543465 -0.040922508 -0.0019811515 -0.118900225 0.057111997 -0.022666149 -0.026005823 -0.04584302
-0.032396447 0.12053759 -0.099053204 0.17869386 0.07676827 -0.0718084 -0.11659278 -0.00950822
-0.08920207 -0.06651263 -0.02774917 -0.029430978 -0.11562139 0.06846599 0.13929142 0.0006783241
0.08169484 0.21893238 -0.05968426 0.2618004 0.056738626 -0.114375204 0.19230431 -0.0014578142
0.07675799 0.09767932 0.032295726 0.14595154 -0.016002545 0.16396154 0.08100237 -0.2669907
-0.12220073 0.007879401 0.0032259754 -0.2363067 0.13865131 -0.11056408 0.1565755 -0.019824563
-0.3205207 0.16398808 -0.17894405 0.06661236 0.18478139 -0.19223753 0.08526226 -0.015116882
0.085046 -0.043789722 0.25725928 0.069592215 -0.08126046 0.27401257 -0.23273234 0.0408729
-0.20972571 -0.085949995 -0.07735798 -0.23550494 -0.14141953 -0.0031373354 -0.04562691 0.2477366
-0.25834045 -0.15910383 -0.122449934 -0.3014157 0.030503156 -0.051662005 -0.22912076 -0.1322237
-0.037228744 0.08480538 0.12801827 0.017281678 0.43107376 -0.02147223 0.2695759 -0.029020913
-0.024381185 0.041274745 0.031303916 -0.15238656 0.029463377 0.041984044 0.095729396 0.30689767
-0.06460954 0.12110913 0.043313216 -0.35055918 -0.10943228 0.059155606 -0.01801845 0.047556493
0.06633867 -0.15491544 -0.24245583 0.008767509 0.2559333 0.030878931 0.20852265 0.17124474
0.08551382 -0.04244649 -0.11171977 -0.48177755 0.09124612 -0.23474334 0.18218227 -0.076706305
-0.14229132 0.03978412 -0.13641612 -0.03085333 -0.032169312 -0.24960317 -0.11725108 -0.0610347
-0.12979002 0.3594411 -0.13619718 -0.09386302 0.043073624 -0.06834855 0.1967269 -0.042154424
0.19800942 0.01812405 0.1443183 0.08271469 0.0033539545 -0.033848397 0.21563032 0.071150504
