results/dodgeAgent2Bullets/Dodge/Dodge-499986.pt (torch, 538871 bytes, 40 tensors)

discrete_act_size_vector f4 [1, 2]
0	0x40400000	3.0
1	0x40400000	3.0

network_body._body_endoder.seq_layers.0.weight f4 [128, 36]
0	0xbe92b0ce	-0.28650516
1	0xbd87ac90	-0.066247106
2	0xbe095a82	-0.13413432
3	0xbe26d28f	-0.16291259
4	0x3e88be90	0.26707888
5	0xbc0bcb10	-0.008532301
6	0xbedd915d	-0.43274966
7	0x3e176500	0.14784622
8	0xbd120a40	-0.035654306
9	0xbe8e8f32	-0.27843624
10	0xbe61903d	-0.22027679
11	0xbe544091	-0.20727755
12	0xbe07a8db	-0.13248007
13	0xbce98d03	-0.028509622
14	0xbd456735	-0.04819413
15	0x3e37778d	0.17916699
16	0xbe7e3860	-0.24826193
17	0x3d632318	0.05545339
18	0x3d8d3551	0.06894935
19	0xbdec3a20	-0.11534524
20	0x3e840f44	0.25792897
21	0xbda3025f	-0.079594366
22	0xbd924edd	-0.07143948
23	0xbe516dab	-0.20451991
24	0xbd4ccefe	-0.05000209
25	0x3e48da93	0.1961463
26	0xbdffb6e5	-0.12486056
27	0x3d6cbbf0	0.05779642
28	0x3db47cb2	0.08812846
29	0xbdd9dfc5	-0.10638384
30	0xbea302e6	-0.3183815
31	0xbc060b92	-0.0081814695
32	0xbecd7dec	-0.40135133
33	0x3dfe21ee	0.12408815
34	0xbdfeafd0	-0.12435877
35	0xbe00b43c	-0.12568754
36	0xbe8c5d0d	-0.27414742
37	0x3cfbbee6	0.030730676
38	0xbe151c8d	-0.14561673
39	0xbed4ef91	-0.41589025
40	0xbbb6953d	-0.00557199
41	0x3de114b3	0.10990276
42	0xbd8db42e	-0.06919132
43	0x3e1e1946	0.15439329
44	0x3dd99cd7	0.10625618
45	0xbe67eaa2	-0.22648099
46	0xbda6e785	-0.081496276
47	0xbea42cd9	-0.32065466
48	0x3c821f47	0.015884055
49	0x3de94c37	0.1139149
50	0xbe4db08c	-0.20086879
51	0x3ddace11	0.10683835
52	0xbe734c50	-0.2375958
53	0xbe3e678f	-0.18594192
54	0xbd8239a3	-0.063586496
55	0xbe058beb	-0.13041656
56	0xbd82f7b4	-0.06394902
57	0xbe9b7782	-0.30364615
58	0xbced9f19	-0.029006528
59	0x3e166396	0.14686427
60	0xbe41a3ce	-0.18910143
61	0x3e1be1c3	0.1522284
62	0xbd867adc	-0.06566402
63	0xbec0e33b	-0.37673363
64	0xbdebb8e3	-0.11509874
65	0x3d45d7e3	0.04830159
66	0xbeb686af	-0.3564963
67	0xbdfcca97	-0.123433284
68	0xbeabed4d	-0.33579484
69	0xbdc298eb	-0.09501823
70	0xbe5b332b	-0.21406238
71	0x3d290de3	0.04127301
72	0x3ea613e9	0.32437065
73	0x3e5c40fb	0.21509163
74	0x3da0063c	0.07813689
75	0x3e1021e9	0.14075436
76	0x3e8ad0af	0.27112338
77	0x3eb36edb	0.35045514
78	0xbd207340	-0.03917241
79	0xbcdc3e21	-0.026885094
80	0xbe6d8a66	-0.23197326
81	0x3e04e1b4	0.12976724
82	0x3e3debee	0.18547031
83	0x3ccec050	0.025238186
84	0x3d87d745	0.06632856
85	0x3dec4cbf	0.11538076
86	0xbbc83bb0	-0.006110631
87	0x3c4c9194	0.01248588
88	0x3dad5b77	0.08464711
89	0x3daf7d03	0.08568766
90	0x3e9de0f7	0.30835697
91	0xbdd380cc	-0.103273004
92	0x3e77426d	0.24146433
93	0xbbb59dad	-0.005542478
94	0xbe4a52fc	-0.19758219
95	0x3eb525b2	0.35380322
96	0x3d49b9d8	0.0492495
97	0x3e41ccb9	0.18925752
98	0x3da98b78	0.08278555
99	0x3e349242	0.17633918
100	0x3e198571	0.1499231
101	0x3d585d10	0.052823126
102	0xbd1e418b	-0.038636725
103	0x3d26a064	0.040680304
104	0x3eb699b4	0.3566414
105	0xbc67c961	-0.014147134
106	0x3ef23dc5	0.4731275
107	0xbdef0589	-0.116709776
108	0xbec92c61	-0.3929167
109	0xbde52829	-0.111893006
110	0xbd278287	-0.040895965
111	0xbe339779	-0.17538251
112	0xbe3246e1	-0.1740985
113	0x3bc943c5	0.006142112
114	0xbdc83c94	-0.09777179
115	0xbb60e389	-0.003431531
116	0xbe193eb1	-0.14965321
117	0xbdda3d3f	-0.10656213
118	0xbe864506	-0.26224536
119	0xbcfece67	-0.03110428
120	0x3dbeab1e	0.09309982
121	0xbdf8fc0b	-0.121574484
122	0x3dc98e5a	0.098416045
123	0xbea074ee	-0.3133921
124	0xbec0f534	-0.37687075
125	0xbe03aad5	-0.12858136
126	0xbe89331d	-0.2679681
127	0xbe9cb8ac	-0.30609643
128	0xbeba1073	-0.36340675
129	0xbc8a2b08	-0.016866222
130	0xbdb6dc51	-0.08928741
131	0x3d0d8c60	0.0345577
132	0xbe1e29c3	-0.15445618
133	0xbeeca925	-0.46222797
134	0xbd1e3be8	-0.03863135
135	0xbe307837	-0.17233358
136	0xbd0bdf8f	-0.03414875
137	0x3e318cc8	0.1733886
138	0xbe0216af	-0.12703966
139	0xbc0aaf30	-0.0084646195
140	0xbdad2c25	-0.084556855
141	0xbe33afbd	-0.17547508
142	0x3e506f07	0.20354854
143	0xbe682dc8	-0.22673714
144	0x3dcf527a	0.10123153
145	0xbd9b6f5d	-0.075896
146	0xbe1089b5	-0.14115031
147	0x3ccc2028	0.024917677
148	0x3dabaa9d	0.08382151
149	0xbd2cd00c	-0.042190596
150	0x3e195beb	0.1497647
151	0xbd672eeb	-0.05644123
152	0xbe11487a	-0.14187804
153	0x3d534b57	0.05158552
154	0xbebf96a9	-0.37419632
155	0x3d583516	0.052785
156	0x3d8882e6	0.06665592
157	0x3c9611b2	0.018318985
158	0xbd688257	-0.056764927
159	0x3d7c7e65	0.061643977
160	0xbdd320ad	-0.10308967
161	0x3d6b85b9	0.057500575
162	0x3d9d9ea0	0.07696271
163	0xbedce445	-0.43142906
164	0xbd94a970	-0.0725888
165	0xbe877ef6	-0.2646405
166	0x3d0f5db1	0.03500146
167	0xbe3a227e	-0.1817722
168	0x3d65aa6e	0.056070738
169	0xbdf69f17	-0.12042063
170	0xbe1f323a	-0.15546504
171	0xbe8111f1	-0.25209
172	0x3e36f50d	0.17866917
173	0xbcb59298	-0.022164628
174	0xbb2a42dd	-0.0025979795
175	0x3dcb4443	0.09925129
176	0xbc2b4e0f	-0.010455622
177	0x3d79b313	0.060961794
178	0x3cba18d7	0.022716923
179	0x3e6fdef5	0.23424895
180	0x3d20aea2	0.039229043
181	0x3d7b950d	0.061421443
182	0x3e93bc4c	0.28854597
183	0x3cd88bca	0.026433844
184	0xbde5b8db	-0.11216899
185	0x3b904f17	0.0044039595
186	0x3d18c859	0.03730044
187	0x3dcc0de8	0.0996359
188	0x3eacd61a	0.33757097
189	0x3da6386d	0.08116231
190	0xbe7086f4	-0.2348898
191	0xbe8750c9	-0.26428822
192	0x3e4e3506	0.20137414
193	0xbec5c686	-0.38628024
194	0xbcb23622	-0.021754328
195	0x3e87ff94	0.26562178
196	0xbd44141e	-0.047870748
197	0xbe88a7cc	-0.2669052
198	0xbe2ffb5f	-0.17185734
199	0x3e8d2661	0.27568343
200	0xbe456288	-0.19275868
201	0xbe084018	-0.133057
202	0x3e6ce382	0.23133662
203	0x3d952889	0.07283122
204	0x3e234042	0.15942481
205	0xbd9edf25	-0.07757405
206	0xbd8e76e2	-0.06956269
207	0xbc30b917	-0.010786316
208	0xbdbdc234	-0.09265557
209	0xbe4f22ea	-0.20228162
210	0x3e5f4aed	0.21805926
211	0xbb23cc35	-0.0024993543
212	0x3e082ddb	0.13298742
213	0x3eb38a67	0.3506653
214	0xbce0cfc1	-0.027442815
215	0xbdd4f7b1	-0.10398806
216	0x3e886518	0.26639628
217	0x3e951d61	0.29123977
218	0x3e8dc296	0.2768752
219	0x3c099767	0.008397914
220	0x3ebfecce	0.37485355
221	0xbc966911	-0.018360646
222	0x3c6c5dae	0.014426632
223	0xbc3aef70	-0.011409625
224	0x3eedc271	0.4643741
225	0xbd120770	-0.035651624
226	0xbe8dd01a	-0.2769783
227	0x3da59a7b	0.080861054
228	0xbca97a0d	-0.020688081
229	0x3d882393	0.0664741
230	0xbeab4502	-0.33451086
231	0xbe0fe9e1	-0.14054061
232	0x3dc87dd5	0.097896256
233	0xbdc74765	-0.09730414
234	0xbe36754d	-0.17818184
235	0x3e2c8788	0.16848576
236	0xbc9a1d80	-0.018812895
237	0xbd3f3b29	-0.04668728
238	0xbcc93840	-0.024562955
239	0x3bf7bddf	0.007560476
240	0x3d6675b9	0.056264613
241	0x3d4d0dbd	0.05006193
242	0xbe24aa86	-0.16080675
243	0x3e789bd1	0.24278189
244	0xbeb0d41f	-0.34536836
245	0x3d205ec5	0.03915288
246	0x3d48e20b	0.049043696
247	0x3d68a729	0.05680004
248	0xbd31b700	-0.043387413
249	0x3d3f2713	0.046668123
250	0xbd320711	-0.04346377
251	0x3ce44579	0.027865158
252	0xbe70e42c	-0.2352454
253	0xbe9a6d85	-0.30161682
254	0xbf1040c0	-0.563488
255	0xbed16232	-0.4089523

network_body._body_endoder.seq_layers.0.bias f4 [128]
0	0xbc5cf5eb	-0.013486366
1	0xbd43ea01	-0.047830585
2	0x3dbe1e37	0.09283107
3	0xbe21ffb7	-0.15820204
4	0xbd445ef3	-0.047942113
5	0xbaa4253f	-0.0012523307
6	0x3c9880c8	0.018616095
7	0xbe2b49e4	-0.16727406
8	0x3e0e627d	0.13904758
9	0x3e0c7d5f	0.137197
10	0xbd584c6c	-0.052807257
11	0xbe3ec738	-0.18630683
12	0x3d217bc3	0.03942467
13	0x3db5dc66	0.08879928
14	0x3e109bbe	0.14121911
15	0xbde44d4a	-0.11147554
16	0x3c7aa440	0.015297949
17	0x3d9ad09f	0.075593226
18	0xbdf6beeb	-0.120481335
19	0x3d195b42	0.037440546
20	0x3e2eae64	0.17058712
21	0x3ab3352e	0.0013672465
22	0x3df92cc3	0.12166741
23	0x3bb72ef6	0.005590315
24	0x3d9559ab	0.072924934
25	0x3d9d6f53	0.07687249
26	0xbddfb9ba	-0.109240964
27	0xbd93cedd	-0.072171904
28	0x3d5ae4af	0.053440746
29	0xbc6ce720	-0.014459401
30	0xbdf95e83	-0.1217623
31	0xbe0de846	-0.13858137
32	0x3c4dee12	0.012568967
33	0x3d81cde3	0.06338098
34	0x3dc4afdc	0.09603855
35	0xbc9dc326	-0.019258093
36	0x3cd69838	0.02619563
37	0xbc9ce700	-0.019153118
38	0xbe30a57b	-0.17250626
39	0xbd182aec	-0.03715031
40	0x3de1c033	0.11022987
41	0xbd3954d0	-0.0452469
42	0xbd30dfdf	-0.04318225
43	0x3d871c7d	0.065972306
44	0xbd08715e	-0.03331124
45	0xbd0c0357	-0.034182873
46	0xbdc9330e	-0.09824191
47	0x3d4952fb	0.049151402
48	0xbe020086	-0.12695512
49	0xbe067afc	-0.13132852
50	0xbe1727e2	-0.14761308
51	0xbd2abe53	-0.041685414
52	0xbc10b5f3	-0.008832443
53	0x3c11fc69	0.008910277
54	0x3d9a5c92	0.07537188
55	0xbdcdb565	-0.10044364
56	0x3dc2f66b	0.09519657
57	0xbd1ef540	-0.038808107
58	0x3d76931b	0.060198884
59	0x3af88f38	0.0018963581
60	0x3dbe88bd	0.093034245
61	0xbbbae734	-0.005703831
62	0xbbe75fa1	-0.0070609604
63	0x3e083548	0.13301575
64	0x3d5cea73	0.053934526
65	0x3c068345	0.008210008
66	0xbc9d805e	-0.01922625
67	0x3e1e89c8	0.15482247
68	0xbe4493cc	-0.19197005
69	0xbcc0eb0f	-0.023549585
70	0xbd7c33fc	-0.061573014
71	0xbe4e458c	-0.20143718
72	0xbca8800f	-0.020568876
73	0xbc42d854	-0.011892397
74	0xbdd31eaf	-0.10308587
75	0x3d9bd8d4	0.07609716
76	0x3d96f16c	0.07370266
77	0x3d2599d2	0.040429898
78	0x3cc17745	0.023616442
79	0x3d54ab85	0.051921386
80	0xbbbf2a56	-0.0058339043
81	0x3db23384	0.08701232
82	0xbd26e68c	-0.04074721
83	0xbe19ebaa	-0.15031305
84	0x3dde033f	0.10840463
85	0x3de25f1a	0.110532954
86	0x3d203c17	0.039119806
87	0xbe0e0e76	-0.13872704
88	0x3e1cdece	0.15319368
89	0x3e11c4ae	0.14235184
90	0x3dce50f9	0.10074038
91	0xbca149ac	-0.01968845
92	0xbe4815a6	-0.19539508
93	0xbd9e1a94	-0.07719913
94	0x3d9ecf6f	0.077544086
95	0xba4c1e20	-0.00077864714
96	0xbe23cf6f	-0.15997098
97	0x3deed001	0.11660767
98	0xbb4fca03	-0.0031706102
99	0x3ca0e028	0.019638136
100	0xbb7acc5b	-0.0038268778
101	0x3d834998	0.06410521
102	0xbd8461c7	-0.06463962
103	0x3d45e8a7	0.048317578
104	0xbd633a74	-0.055475667
105	0xbdded6d5	-0.1088082
106	0xbd3be3fe	-0.045871727
107	0x3d8058a9	0.062669106
108	0x3ddd790c	0.108141035
109	0x3c96f846	0.018428933
110	0xbbf51fba	-0.0074805887
111	0xbdc11820	-0.094284296
112	0x3cfc9981	0.030834915
113	0xbdb59435	-0.08866159
114	0xbe04edf9	-0.12981404
115	0xbe412d26	-0.18864879
116	0xbdd74cea	-0.10512717
117	0xbe337986	-0.17526826
118	0xbd3ec73f	-0.046576735
119	0xbd5756f6	-0.052573167
120	0xbc9d9fa9	-0.019241171
121	0xbceb75ce	-0.028742697
122	0xbd253934	-0.040337756
123	0xbdb3acfe	-0.0877323
124	0xbd3e58aa	-0.046471275
125	0x3c2209ed	0.009890062
126	0x3dfbd504	0.12296489
127	0x3d5ff3da	0.054675914

network_body._body_endoder.seq_layers.2.weight f4 [128, 128]
0	0xbcb1e708	-0.02171661
1	0xbc40fe6f	-0.011779412
2	0xbe062e26	-0.13103542
3	0x3c490bae	0.012270851
4	0x3d324207	0.04352
5	0x3e11b109	0.1422769
6	0x3d93a099	0.07208366
7	0x3d9f2382	0.077704445
8	0xbe09e67f	-0.13466834
9	0x3b8c042a	0.0042729573
10	0x3d4f98cd	0.05068283
11	0xbd08e8ee	-0.033425264
12	0x3db98620	0.090587854
13	0xbe52438b	-0.20533578
14	0xbc693adb	-0.014235224
15	0x3dd83a6f	0.1055802
16	0xbcb60038	-0.022216901
17	0xb90acaab	-0.00013236205
18	0xbe5ea38e	-0.21742079
19	0xbc4d8f19	-0.012546324
20	0xbe1e70db	-0.15472738
21	0x3d818ea0	0.06326032
22	0xbdf08bc6	-0.1174541
23	0x3cbc89a9	0.02301486
24	0xbc0de74b	-0.008661102
25	0x3ba83d91	0.0051342924
26	0xbd4c53b8	-0.049884528
27	0x3dbf713d	0.0934777
28	0xbe07b0f2	-0.13251093
29	0x3d8c6d75	0.06856815
30	0xbcaa8609	-0.020815866
31	0x3c88474a	0.016635556
32	0x3e398f75	0.18121131
33	0x3db33233	0.08749809
34	0x3ccdac10	0.02510646
35	0xbbacf054	-0.005277673
36	0x3dadb187	0.08481126
37	0xbd887b4e	-0.066641435
38	0x3d8df578	0.06931585
39	0x3d6b6ca1	0.057476643
40	0xbddafc00	-0.106925964
41	0xbcf5e626	-0.03001697
42	0xbccce931	-0.025013538
43	0x3e03762a	0.12838045
44	0xba17b42f	-0.00057870423
45	0xbdf764e5	-0.12079791
46	0x3d01c021	0.03167737
47	0x3dae91fb	0.08523937
48	0x3cbe7492	0.023248944
49	0x3dfeeee5	0.12447909
50	0xbd79739c	-0.06090127
51	0x3d5aae65	0.05338897
52	0x3e6baad8	0.2301439
53	0xbdb55050	-0.08853209
54	0x3c9af5ad	0.018915975
55	0x3cb9a95f	0.02266377
56	0x3cb4006f	0.021972863
57	0x3e46f9fc	0.19431299
58	0x3e36ebec	0.17863435
59	0x3ccf3666	0.025294494
60	0xbd8dc39a	-0.06922074
61	0x3e0f2d04	0.13982016
62	0x3d3216ba	0.043478705
63	0xbcdfcb4e	-0.027318623
64	0x3c1b324a	0.009472439
65	0xbd8691d8	-0.06570786
66	0x3c3bc86f	0.011461361
67	0xbe6c6f23	-0.2308927
68	0x3bba54f0	0.005686395
69	0x3e43a912	0.19107464
70	0xbce5f079	-0.028068768
71	0x3d21b423	0.039478432
72	0x3df0b8b0	0.11753976
73	0x3e6e2d2a	0.23259416
74	0x3dad5809	0.08464057
75	0xbc98b848	-0.01864256
76	0xbd7e10fa	-0.06202791
77	0xbd862ce3	-0.0655153
78	0xbe6ca69d	-0.23110433
79	0x3e177978	0.1479243
80	0x3dfbb9de	0.12291311
81	0xbd156609	-0.03647426
82	0x3c158be3	0.00912759
83	0xbda51569	-0.08060724
84	0xbe47df97	-0.19518887
85	0x3dded1b8	0.108798444
86	0xbd6acbc4	-0.057323232
87	0x3c0b5d1d	0.008506087
88	0x3e3e9134	0.18610078
89	0x3de38bfa	0.11110683
90	0x3d9e3378	0.07724661
91	0xbd2066f2	-0.039160676
92	0x3d9c4e40	0.076321125
93	0x3dec6c71	0.11544121
94	0x3d85026a	0.06494601
95	0x3bfed4fb	0.007776854
96	0xbcc79100	-0.024361134
97	0xbd8080f9	-0.062745996
98	0xb96557b2	-0.00021871811
99	0x3c328f46	0.010898417
100	0xbdb3389d	-0.087510325
101	0x3e2b49ad	0.16727324
102	0xbb1906aa	-0.002334992
103	0xbdb346ab	-0.08753713
104	0xbdd60f54	-0.10452142
105	0xbc32eee9	-0.010921218
106	0xbd1667a3	-0.03671993
107	0xbd3494ee	-0.044087343
108	0x3ddb89f1	0.107196696
109	0x3dab782f	0.083725326
110	0xbdd9e48a	-0.106392935
111	0xbd71dc66	-0.05904808
112	0xbd72c9a7	-0.059274342
113	0x3e3fdfa8	0.18737662
114	0xbd183183	-0.037156593
115	0xbd2eefe6	-0.042709254
116	0x3e0a22d4	0.13489848
117	0x3da2c904	0.07948497
118	0xbdc140ab	-0.094361626
119	0x3dc36398	0.095404804
120	0xbe0aee16	-0.13567385
121	0x3dd901a2	0.105960146
122	0xbd8074bb	-0.062722646
123	0x3b83e09e	0.004024579
124	0xbdbecec7	-0.093167834
125	0x3ddaeda7	0.1068986
126	0xbcf495e8	-0.029856637
127	0x3cc1ff9f	0.02368146
128	0x3dae2587	0.085032515
129	0x3e3d5f3c	0.1849336
130	0xbd62c38b	-0.055362266
131	0x3de01f42	0.10943462
132	0xbdb61124	-0.08889988
133	0xbdbf6d71	-0.09347046
134	0x3da3c7ff	0.079971306
135	0x3d4b80c0	0.049683332
136	0xbdec82a3	-0.115483545
137	0xbc520c4e	-0.0128203165
138	0xba6ffe3a	-0.0009155009
139	0xbae4d690	-0.0017458964
140	0x38d03e63	9.929833e-05
141	0xbd092cc6	-0.033489965
142	0xbd966ca4	-0.0734494
143	0xbd495840	-0.049156427
144	0xbcaf3230	-0.021386236
145	0xbd84d4ec	-0.06485924
146	0x3daf0336	0.08545534
147	0xbd7700d3	-0.06030352
148	0xbe35434c	-0.17701453
149	0x3db4b781	0.08824063
150	0xbd75fd27	-0.060055878
151	0xbd323a7a	-0.0435128
152	0x3e4e6790	0.20156693
153	0xbe0dc972	-0.13846377
154	0xbdd3762d	-0.103252746
155	0xbe091b39	-0.13389291
156	0x3dc94b3f	0.09828805
157	0xbe2e2410	-0.17005944
158	0x3e15d304	0.14631277
159	0x3df4597e	0.11931132
160	0xbd8ddc61	-0.069267996
161	0x3d303537	0.0430195
162	0x3da456aa	0.08024342
163	0x3ea3461d	0.3188943
164	0x3e778adf	0.24174069
165	0xbc608ed5	-0.013705929
166	0xbd399fbf	-0.04531836
167	0xbd71f565	-0.059071917
168	0x3dffc6ac	0.124890655
169	0xbe2c0153	-0.1679738
170	0xbc975729	-0.018474178
171	0xbd13684f	-0.03598815
172	0xbca0f32b	-0.019647202
173	0xbdb5510b	-0.08853348
174	0x3e109099	0.1411766
175	0x3e59415e	0.21216342
176	0x3e98b591	0.29826024
177	0x3ce21144	0.027596124
178	0x3d921170	0.07132232
179	0x3e465de3	0.19371752
180	0xbdf6cc2c	-0.120506614
181	0x3da1a9df	0.078937285
182	0x3d9ab04a	0.07553156
183	0xbd8fdcae	-0.07024513
184	0x3ec44e4b	0.38340983
185	0xbb9e1875	-0.004824693
186	0xbe5ceae3	-0.21573977
187	0xbb5625b1	-0.0032676274
188	0x3d5f78e2	0.054558642
189	0xba6caeb6	-0.00090287195
190	0x3c649109	0.013950595
191	0x3dc2daec	0.09514412
192	0x3d63a9e0	0.055581927
193	0x3ed8f1e4	0.42372048
194	0x3d248d67	0.040173914
195	0x3c0144bc	0.007889923
196	0xbd9d5aa1	-0.07683302
197	0xbd240fb9	-0.040054057
198	0x3a66a108	0.0008797799
199	0x3e41b486	0.1891652
200	0xbdd87ff4	-0.1057128
201	0x3db42132	0.08795394
202	0x3dfa4e00	0.122219086
203	0xbdfabbe2	-0.12242867
204	0x3dcd9c8c	0.100396246
205	0x3cc132b5	0.02358375
206	0xbcdc0c73	-0.026861405
207	0x3eb5d080	0.35510635
208	0x3ea1c7f6	0.3159787
209	0x3d3bd5e7	0.04585829
210	0x3e0ba602	0.13637546
211	0xbc1ef355	-0.00970157
212	0x3db0ba2a	0.08629258
213	0x3dc985fc	0.098400086
214	0x3e1e0296	0.15430674
215	0x3d534968	0.051583678
216	0xbd657962	-0.056023963
217	0x3ce2cc82	0.027685408
218	0xbe6286c9	-0.22121729
219	0xbd89d094	-0.06729236
220	0xbb36bf10	-0.0027884878
221	0x3e09401f	0.13403367
222	0xbe2a0efe	-0.16607282
223	0xbd19af35	-0.037520606
224	0xbdfd3cb7	-0.12365096
225	0xbe472cc0	-0.19450665
226	0xbe07f53b	-0.13277142
227	0x3e471792	0.19442585
228	0xbcdb1247	-0.026742114
229	0x3dfd5f12	0.12371649
230	0x3d44c6f2	0.04804129
231	0xbe051462	-0.12996057
232	0x3e012e00	0.12615204
233	0x39b33820	0.00034183357
234	0x3ca97adf	0.020688472
235	0x3d4fc1e7	0.05072203
236	0xb9c00d1b	-0.00036630858
237	0x3cb72070	0.022354335
238	0x3b8bbabb	0.0042642034
239	0x3d36b286	0.044603847
240	0xbd4b0d87	-0.049573448
241	0x3cdf4191	0.027252944
242	0x3ca83fde	0.020538267
243	0xbc4daf1a	-0.0125539545
244	0xbdabf584	-0.08396438
245	0x3d6ed1bc	0.058305487
246	0xbd8f2dfa	-0.06991191
247	0xbe343fef	-0.17602514
248	0x3cb17f64	0.02166719
249	0x3e00c3a2	0.12574628
250	0x3c9c98e7	0.019115878
251	0xbdcfcfed	-0.101470806
252	0xbd13e824	-0.03611006
253	0x3af437b3	0.0018632322
254	0xbd8cab4b	-0.06868609
255	0x3e0f2746	0.13979825

network_body._body_endoder.seq_layers.2.bias f4 [128]
0	0xbb46031f	-0.0030214263
1	0xbde81b1a	-0.11333294
2	0x3b953280	0.004553139
3	0x3d39609b	0.045258146
4	0xbe20ba63	-0.15696101
5	0xbb8ba5bf	-0.004261702
6	0xbc54c191	-0.012985603
7	0x3e12dc74	0.14341909
8	0x3ab34669	0.00136776
9	0xbc5d2f2b	-0.013500015
10	0xbcb351c2	-0.021889571
11	0xbb8c76e0	-0.004286632
12	0xbc0cf080	-0.008602262
13	0x3de028f3	0.109453104
14	0x3d2d23a4	0.042270318
15	0x3c73757e	0.014859555
16	0xbe144ef3	-0.14483242
17	0x3ddc358c	0.10752401
18	0xbb5d0bc2	-0.0033728932
19	0x3e0eeccc	0.13957518
20	0xbc93949a	-0.018015195
21	0x3d169a6e	0.03676837
22	0x3d522794	0.051307276
23	0xbe18a3d2	-0.14906242
24	0x3ce40108	0.027832523
25	0x3ca302e5	0.019898841
26	0x3ca23d27	0.01980455
27	0xbc6531dc	-0.013988938
28	0x3be9ef96	0.0071391566
29	0x3d2bca06	0.04194071
30	0xbe0d017e	-0.137701
31	0x3de003de	0.109382376
32	0x3c3c681c	0.011499431
33	0xbc81e10f	-0.015854387
34	0x3dc82360	0.09772372
35	0x3d51714c	0.05113344
36	0x3d94a171	0.07257355
37	0xbd0438f7	-0.03228089
38	0xbcea69bd	-0.028614873
39	0x3de39a29	0.11113388
40	0xba421f70	-0.0007405197
41	0xbc39b521	-0.011334688
42	0xbb39ebda	-0.0028369338
43	0x3b848cb0	0.0040450916
44	0xbc8c0821	-0.01709372
45	0xbe0f04da	-0.13966694
46	0x3bf91b22	0.0076021114
47	0x3cf2bd0d	0.029631162
48	0x3adb67a5	0.0016739263
49	0xbe2b60af	-0.167361
50	0x3dd10621	0.10206247
51	0xbdefbe69	-0.1170624
52	0xbd3a8b39	-0.04554293
53	0xbccca76b	-0.024982175
54	0x3dd02982	0.10164167
55	0xbba9f91c	-0.005187167
56	0x3d0eb802	0.034843452
57	0xbdf18a05	-0.11793903
58	0xbb7636b5	-0.003756923
59	0x3c7737b3	0.015088963
60	0xbd0c43df	-0.034244414
61	0x3d0745d8	0.033025593
62	0x3ad35186	0.0016122318
63	0x3a47fa83	0.0007628577
64	0x3c8e348d	0.017359043
65	0xbd3bc3ed	-0.045841146
66	0x3d950736	0.07276766
67	0x3d52fdce	0.05151158
68	0xbe09a247	-0.1344081
69	0xbda3bce4	-0.079950124
70	0x3d886681	0.06660176
71	0xbe1b2f3f	-0.15154742
72	0x3e11e13a	0.14246073
73	0x3d3867cc	0.045020863
74	0x3cefe8a0	0.029285729
75	0x3dc679b3	0.09691181
76	0x3c077053	0.008266526
77	0x3dde9876	0.10868923
78	0x3e113de4	0.14183766
79	0xbcf1ab71	-0.029500695
80	0xbda1ba22	-0.0789683
81	0x3d47cec7	0.048781183
82	0xbcc01d3d	-0.023451442
83	0x3dbdaa03	0.09260943
84	0xbd954030	-0.072876334
85	0xbd9809cc	-0.074237436
86	0x3d500e3f	0.050794836
87	0x3e34cbf2	0.17655924
88	0xbdc41edb	-0.09576198
89	0xbc2d90e9	-0.010593631
90	0xbc60a59b	-0.013711358
91	0xbe20079d	-0.15627904
92	0xbbefc988	-0.0073177256
93	0xbe1f35bd	-0.15547843
94	0xbd4bdf4f	-0.04977351
95	0xbdf909e8	-0.121600926
96	0x3d9a7ce1	0.0754335
97	0xbe1ebfed	-0.15502901
98	0xbcf13d8c	-0.029448293
99	0x3bcb24a2	0.0061994353
100	0x3dcd40b3	0.10022106
101	0x3dcfde0d	0.10149775
102	0x3cf9e1de	0.03050321
103	0xbd5309bf	-0.051522966
104	0x3d98e92b	0.07466348
105	0x3e1b937a	0.15192977
106	0x3cc1a067	0.023636056
107	0x3d6d2a85	0.057901878
108	0xbe057790	-0.1303389
109	0x3de971a7	0.113986306
110	0xbd5c944a	-0.053852357
111	0xbda3d380	-0.07999325
112	0xbb18d907	-0.0023322718
113	0x3dfb7fd7	0.12280243
114	0xbcc37537	-0.023859603
115	0xbb9db127	-0.004812378
116	0x3c71f259	0.014767253
117	0xbe0ad5d4	-0.13558131
118	0x3c134264	0.008987997
119	0xbbe5af0d	-0.007009393
120	0xbb97295c	-0.0046130847
121	0x3bde127c	0.006777106
122	0xbd365ae2	-0.044520266
123	0xbe1ab62f	-0.1510856
124	0x3c955452	0.018228684
125	0x3bbb8553	0.0057226806
126	0xbdc36e03	-0.095424674
127	0x3db34ca7	0.08754855

action_model._discrete_distribution.branches.0.weight f4 [3, 128]
0	0xbb72a98a	-0.0037027323
1	0x3d7e03de	0.062015407
2	0xbd59fe03	-0.05322076
3	0xbca173e9	-0.01970859
4	0x3cdef2f5	0.02721546
5	0xbb6fd80e	-0.0036597284
6	0xbd860b61	-0.06545139
7	0x3b6e056c	0.003631915
8	0xbc82f36d	-0.015985215
9	0x3bf0a395	0.0073437192
10	0x3ccfce10	0.025366813
11	0xbcfa62c8	-0.03056468
12	0x3ca18d1f	0.019720612
13	0x3d2bd8fb	0.041954976
14	0xbd21a91a	-0.03946791
15	0x3b31f307	0.0027152912
16	0x3b958f2d	0.004564187
17	0xbc3706a6	-0.011171019
18	0x3c92c521	0.017916264
19	0x3d5c7bea	0.05382911
20	0x3ce68955	0.028141657
21	0xbd902201	-0.07037736
22	0x3d73b947	0.059502866
23	0xbcaa3c99	-0.020780848
24	0x3cc90bff	0.024541853
25	0x3b527f8c	0.003211948
26	0x3c37633d	0.011193094
27	0xbd1ea24b	-0.038728993
28	0x3a795916	0.0009511871
29	0x3d73e199	0.05954132
30	0xbc50c0c0	-0.012741268
31	0x3d14b4a6	0.036305092
32	0xbca64382	-0.020295862
33	0x37ae871a	2.0805328e-05
34	0x3b1d3204	0.002398611
35	0x3d29bd95	0.041440565
36	0x3a033a90	0.000500598
37	0xbcf4c7a5	-0.029880354
38	0xbb710497	-0.0036776417
39	0x3d11b3cc	0.03557186
40	0x3cd6e28d	0.026231075
41	0x3d10cd07	0.03535178
42	0x3c96408a	0.018341321
43	0x3cda81ce	0.026673224
44	0xbc38d14d	-0.01128037
45	0x3d302573	0.043004464
46	0xbbd8a86e	-0.0066118753
47	0xbcb263d2	-0.021776114
48	0x3c725880	0.014791608
49	0x3ae323ff	0.0017329453
50	0x3d1b3cc0	0.037899733
51	0x3cb82445	0.022478232
52	0xbcc43082	-0.023948912
53	0x3bda135d	0.0066551403
54	0x3c94af6d	0.018150056
55	0x3b963679	0.0045841304
56	0x3cc6e22c	0.024277769
57	0xbcc869a3	-0.024464434
58	0x3cef4d63	0.029211706
59	0xbb1f0274	-0.0024262937
60	0x39bff84d	0.00036615357
61	0x3d8bf64d	0.068340875
62	0xb9630589	-0.00021650469
63	0xbcd12d39	-0.02553426
64	0xbca75b6a	-0.020429332
65	0xbd2cd74d	-0.042197514
66	0xb9f2a8fc	-0.0004628374
67	0x3d33652d	0.04379766
68	0x3b7340a0	0.0037117377
69	0x3d61dcec	0.05514233
70	0x3d0f5008	0.034988433
71	0x3d556129	0.052094612
72	0x3d149075	0.036270577
73	0xbd0ca782	-0.034339435
74	0xbc775450	-0.015095785
75	0x3cfe0892	0.031009946
76	0xbd1eae2f	-0.038740333
77	0x3d11895c	0.035531387
78	0xbc33119d	-0.010929492
79	0xbd49956f	-0.049214777
80	0xbc19c709	-0.009385833
81	0xbd3056f7	-0.043051686
82	0x39d8ed10	0.00041375356
83	0x3d21306b	0.039352816
84	0x3c4a3194	0.012340922
85	0xbcc04b0b	-0.023473283
86	0xbd5e5e03	-0.054288875
87	0x3d174561	0.0369314
88	0x3c79d129	0.015247622
89	0x3cb7c271	0.022431584
90	0x3c68b67c	0.014203664
91	0x3b7c7257	0.00385203
92	0xbc090a0c	-0.008364212
93	0x3cddb7df	0.027065216
94	0x3ca4fc62	0.020139877
95	0x3d624638	0.055242747
96	0x3c862e5a	0.016379524
97	0x3d07f87f	0.03319597
98	0xbc805963	-0.015667623
99	0x3d2a00bf	0.041504618
100	0x3cc328a5	0.023823092
101	0x3cde152c	0.027109705
102	0xbd695d08	-0.056973487
103	0xbbec1ab5	-0.007205332
104	0x3c6a468c	0.014299046
105	0x3cdd570c	0.027019046
106	0xbd23525c	-0.039873466
107	0xbcaaf85d	-0.020870382
108	0x3bfe2754	0.007756153
109	0x3cc64174	0.024201132
110	0x3bd5e426	0.0065274416
111	0x3d46b7c0	0.04851508
112	0xbcd751a8	-0.026284054
113	0x3cfb3c92	0.03066853
114	0xbd58d600	-0.05293846
115	0x3c77a8cd	0.015115929
116	0x3cc503a0	0.02404958
117	0x3c32afb9	0.010906153
118	0x3d4b1dc4	0.049588934
119	0xbd2b33fb	-0.04179762
120	0x3ccc7cd2	0.024961863
121	0x3cf25fb8	0.029586658
122	0x3bcd6717	0.006268393
123	0x3c5ab7a7	0.01334945
124	0x3d02d339	0.03193972
125	0x3d093206	0.03349497
126	0x3cf7ee30	0.030264944
127	0x3d151e0f	0.03640562
128	0x3de22a09	0.11043174
129	0xbc759fb6	-0.014991691
130	0x3ce51d9e	0.027968224
131	0x3a6de03f	0.0009074248
132	0xb9bb1b9f	-0.00035688
133	0x3c72b894	0.014814515
134	0x3dde6b98	0.10860366
135	0x3b3d639d	0.0028898485
136	0x3d29f8a8	0.041496903
137	0x3d3b8658	0.045782417
138	0x3a259c38	0.0006317529
139	0x3cc8d460	0.02451533
140	0xbc634184	-0.013870601
141	0xbb881f68	-0.0041541345
142	0x3d19629f	0.037447568
143	0x3d176313	0.03695972
144	0xbbd12d85	-0.0063836
145	0xbb915923	-0.0044356748
146	0x3c826ff7	0.01592253
147	0x3adda8fa	0.0016911321
148	0xbcc4bdb3	-0.024016237
149	0x3d461729	0.04836193
150	0xbd79443c	-0.06085609
151	0x3ba23bbb	0.004950968
152	0x3cffdbfc	0.031232826
153	0xbc934392	-0.017976556
154	0x3cafca34	0.021458723
155	0x3d800ed2	0.06252827
156	0x3c5391d4	0.012913186
157	0xbd23d1d6	-0.039995037
158	0xbbfa48ff	-0.0076380963
159	0x3a89d79f	0.0010516531
160	0xbb6c8d80	-0.0036095083
161	0x3cd1a199	0.025589751
162	0xbbbd3dc2	-0.0057751844
163	0xbd528bf3	-0.051402997
164	0x3a846763	0.0010101612
165	0x3c8b9b41	0.017041804
166	0x3cdf6d6f	0.027273862
167	0xbcf8cb55	-0.030370394
168	0xbb020353	-0.0019838407
169	0xbcbbb5ec	-0.022913896
170	0x3ab2aba9	0.0013631481
171	0x3b2eb74e	0.002665955
172	0xbc0a4d03	-0.008441213
173	0xbc61fae8	-0.013792731
174	0x3a6a9d24	0.00089498074
175	0x3d9ecc90	0.07753861
176	0xbd1e2b42	-0.038615473
177	0x3c0694ed	0.008214218
178	0xbc747a82	-0.014921786
179	0xbc91af4e	-0.017783787
180	0x3c40ecdd	0.011775223
181	0x3cee38d4	0.029079832
182	0xbc6e3c54	-0.0145407505
183	0xbcb1644a	-0.021654267
184	0xbc807495	-0.01568059
185	0x3c13fa6c	0.009031873
186	0xbc95b76c	-0.018275939
187	0x3c6fe8cc	0.014642905
188	0x3c89a498	0.016802117
189	0xbd6f127f	-0.05836725
190	0x3d7c854f	0.06165057
191	0x3c6068ef	0.013696893
192	0x3d2534fa	0.040333726
193	0x3d24070f	0.040045794
194	0xbcbb70ed	-0.022880996
195	0xbd499076	-0.049210034
196	0xba5d2d15	-0.00084371987
197	0xbcf2407c	-0.029571764
198	0xbca6e6b8	-0.020373687
199	0xbcb8bdfa	-0.022551525
200	0xbb8a77c9	-0.0042257053
201	0x3cd36ae7	0.025807811
202	0xbbe56c66	-0.0070014475
203	0xbbed74bb	-0.0072465814
204	0x3d98b7d6	0.07456939
205	0xbc297372	-0.010342466
206	0x3a7e364a	0.0009697421
207	0x3cf3217f	0.029679058
208	0xbb36a537	-0.0027869472
209	0x3ce07974	0.027401663
210	0xbcd096a7	-0.025462462
211	0xbcbd3955	-0.023098627
212	0xbc34ce7b	-0.011035557
213	0x3cc1e89b	0.023670485
214	0x3d377341	0.04478765
215	0xbc611441	-0.013737739
216	0xbc8cec69	-0.017202573
217	0xbd05a60b	-0.032629054
218	0xbd46c177	-0.048524346
219	0xbc9de72b	-0.019275269
220	0xbc00acd6	-0.007853707
221	0xbcc04362	-0.02346963
222	0x3af05b7d	0.0018337813
223	0xbcf2ebba	-0.029653419
224	0xbc0ebe4b	-0.008712362
225	0xbcbe5e61	-0.023238363
226	0x3c9446c7	0.018100156
227	0x3c8329c7	0.016011132
228	0xbbab1520	-0.005221024
229	0xba1a960e	-0.00058969937
230	0x3d2caa0d	0.04215436
231	0xbafc4a41	-0.0019248204
232	0xbcbe7688	-0.02324988
233	0xbcccb1cd	-0.024987126
234	0x3dddaa24	0.108234674
235	0xbba47996	-0.005019377
236	0xbba3b882	-0.0049963603
237	0x3a969390	0.0011488069
238	0xbbfe1d1f	-0.0077549363
239	0xbb7aef4b	-0.0038289602
240	0x3d39f90f	0.045403536
241	0xbba15f93	-0.0049247234
242	0x3cd98734	0.026553728
243	0xbb0b5fc0	-0.0021266788
244	0x3d2ac115	0.041688044
245	0x3b65ae4c	0.0035046516
246	0x3d78bc51	0.060726468
247	0x3c7f7c64	0.015593622
248	0xbd87e12b	-0.06634744
249	0xbd013cb8	-0.031552047
250	0xbc303b48	-0.010756321
251	0xbc02e2d6	-0.007988652
252	0xbd5190f5	-0.051163632
253	0xbd26a194	-0.040681437
254	0xbd0c2875	-0.03421827
255	0xbcf29364	-0.029611297

action_model._discrete_distribution.branches.0.bias f4 [3]
0	0x3d1223aa	0.035678543
1	0xbcfccde4	-0.030859895
2	0x39b2dc14	0.00034114777

action_model._discrete_distribution.branches.1.weight f4 [3, 128]
0	0x3c1964bf	0.009362399
1	0x3c3d8b93	0.011568922
2	0xbd7c1d4a	-0.06155137
3	0x3d1c6d9b	0.038190465
4	0xbc42d63d	-0.011891899
5	0xbcbf1a3f	-0.023327945
6	0xbafd3bec	-0.0019320226
7	0x3d82db96	0.06389539
8	0xbd8164e9	-0.06318075
9	0xbba8b8a1	-0.0051489626
10	0xbbc029fc	-0.00586438
11	0xbc5922c4	-0.013252918
12	0xbc8fc95f	-0.017552076
13	0x3ce2207e	0.027603384
14	0xbd21c096	-0.039490305
15	0xbc7e4179	-0.01551854
16	0xbd13b70b	-0.036063235
17	0x3cc644f6	0.024202805
18	0xba9ef3e6	-0.0012127131
19	0x3d4bf8a4	0.04979767
20	0x3bdf2bb8	0.0068106316
21	0xbe1ba0c1	-0.15198041
22	0x3c2e6eb3	0.01064651
23	0xbd1ad149	-0.037797246
24	0x3a598543	0.00082977506
25	0xbbd3f4a4	-0.0064683724
26	0x3c75b132	0.01499586
27	0xbd0cec7e	-0.034405224
28	0x3b9d8e78	0.0048082434
29	0x3b8f16be	0.0043667248
30	0xbcb24894	-0.021763124
31	0x3d0ef3e0	0.034900546
32	0x3c9be08e	0.019027974
33	0x3b073260	0.002062939
34	0x3d8aa12b	0.067690216
35	0xbd31a6e7	-0.04337206
36	0x3c1f3be6	0.009718871
37	0xbc8636eb	-0.016383609
38	0xbe1808b4	-0.1484707
39	0x3cc06c09	0.023489015
40	0x3adb71f0	0.001674233
41	0x3cae6a75	0.021290997
42	0xbc450201	-0.012024404
43	0xbbf4ad98	-0.007466983
44	0xbd2f0576	-0.042729817
45	0xba9cd51d	-0.0011965368
46	0xbcb090e9	-0.021553474
47	0xbd3e9718	-0.046530813
48	0x3b4bd8e2	0.0031104614
49	0xbbd832bf	-0.0065978463
50	0x3cc53404	0.024072655
51	0x3b27524b	0.0025531228
52	0xbc978bf3	-0.01849935
53	0xbd4072ed	-0.0469846
54	0x3cc466ca	0.023974795
55	0xbbaeb976	-0.0053321673
56	0xbd81e616	-0.063427135
57	0xbd3e3a44	-0.046442285
58	0xbdbfac85	-0.09359077
59	0xbd7d7174	-0.061875775
60	0x3b835477	0.0040078717
61	0xbc2d081a	-0.010561014
62	0xbcddbaf5	-0.027066687
63	0xbddb4c13	-0.107078694
64	0xbe73e256	-0.23816809
65	0xbb94c29b	-0.0045398003
66	0x3cc0ee28	0.023551062
67	0x3b9bf5c8	0.004759524
68	0x3b035f9d	0.0020046004
69	0x3c4796c0	0.012181938
70	0x3cb232d7	0.021752758
71	0xbd4a2dad	-0.049359966
72	0x3d41c146	0.04730346
73	0xbe39ddea	-0.1815106
74	0xbd9a973a	-0.075483754
75	0x3cbc1157	0.022957487
76	0xbd4350ce	-0.047684483
77	0xbe2aeb3c	-0.16691297
78	0x3ce8c2d5	0.028413216
79	0x3c30f504	0.010800604
80	0xbddca922	-0.10774447
81	0xbe15562a	-0.1458365
82	0x3c91e8dc	0.017811231
83	0x3d279434	0.040912822
84	0x3b2ace3f	0.0026062874
85	0xb98daca1	-0.00027022234
86	0xbd8b6aee	-0.068075046
87	0x3d4d558b	0.05013041
88	0xbcc1e587	-0.023669017
89	0xbd818bf1	-0.0632552
90	0xbb4db62a	-0.0031389096
91	0xbca6c8dd	-0.020359451
92	0x3c330eb7	0.010928801
93	0xbcd19a3f	-0.025586246
94	0x3ab4594a	0.001375952
95	0x3b653292	0.003497277
96	0x3d36dba6	0.044643067
97	0xbc3b9fde	-0.0114516895
98	0xbd2590af	-0.040421184
99	0xbd742cc1	-0.059612993
100	0x3c89b69d	0.01681071
101	0x3ca08140	0.019592881
102	0xbdb56c27	-0.08858519
103	0x3ba7691f	0.005108967
104	0x3ab2b48c	0.001363413
105	0x3d65f2aa	0.056139626
106	0x3c897f71	0.016784402
107	0xbb5d7774	-0.0033793123
108	0x3b78c6de	0.003796033
109	0x3cdc15ca	0.026865859
110	0xbbf892f7	-0.007585879
111	0xba91313b	-0.0011077294
112	0xbd1a0660	-0.037603736
113	0x3cb19e03	0.021681791
114	0xbc4cf37b	-0.012509222
115	0x3c0d605d	0.008628932
116	0xbc46b8a5	-0.012128984
117	0xbcc3a94a	-0.023884434
118	0x3c01c7e9	0.007921197
119	0x3c80f5a6	0.015742134
120	0x3bd40b4e	0.006471074
121	0xbd0c3267	-0.034227755
122	0x3c31003a	0.010803277
123	0xbc62c0bd	-0.013839898
124	0x3b0a40ef	0.0021095832
125	0x3cb444cd	0.022005463
126	0xbb26dff9	-0.0025463088
127	0x3cd7f365	0.026361177
128	0xba4b8292	-0.0007763292
129	0x3bac85b1	0.0052649607
130	0x3d72ef59	0.05931029
131	0xbc9ce6dc	-0.019153051
132	0x3cd33d43	0.025786048
133	0x3b06db6f	0.002057757
134	0x3c570e1f	0.013125925
135	0xbd53f912	-0.051751204
136	0x3d217b64	0.039424315
137	0x3cd32585	0.025774727
138	0x39fd811e	0.0004835212
139	0x3d214b41	0.03937841
140	0x3bea89c7	0.0071575376
141	0xbcdb8a40	-0.026799321
142	0xba85f5d6	-0.001022036
143	0xbc356a6f	-0.011072739
144	0x3cc83111	0.02443746
145	0xbc796051	-0.0152207175
146	0x3ca36af5	0.019948462
147	0xbd1ecadc	-0.03876768
148	0xbb748cd1	-0.0037315378
149	0x3de9abfd	0.11409757
150	0xbcf35bbe	-0.029706832
151	0x3c8d9fc2	0.017288093
152	0xbd634b21	-0.05549157
153	0x3c94f867	0.018184854
154	0xbd0ebbb3	-0.034846973
155	0xbcea23e5	-0.028581569
156	0x3be44f7f	0.0069674845
157	0x3c4de10d	0.012565863
158	0x3c2f516e	0.010700567
159	0xbd0413e5	-0.032245535
160	0xbc66bd30	-0.014083192
161	0xbcbbf4d8	-0.022943899
162	0xbda35368	-0.07974893
163	0xbc9b077f	-0.018924473
164	0xbbf5daa3	-0.00750287
165	0x3d33a1c1	0.043855432
166	0x3dac691b	0.08418485
167	0xbc20d9f9	-0.009817594
168	0xbaf213cb	-0.0018469034
169	0x3b6ed80d	0.0036444694
170	0xbce1f1d7	-0.027581139
171	0x3bb5eb12	0.005551704
172	0x3c9232cf	0.017846493
173	0x3c979996	0.018505853
174	0x3b6d69ff	0.0036226509
175	0xbcc8f72d	-0.024531925
176	0x3ccedb37	0.025251014
177	0x3b31e11d	0.0027142235
178	0xbccea4fc	-0.025225155
179	0xbc90d2bc	-0.017678611
180	0x38ad876b	8.2745064e-05
181	0x3b7337f1	0.00371122
182	0xbcae0c3c	-0.021246068
183	0x3bebf4fe	0.007200836
184	0x3d68b987	0.056817558
185	0x3d6a4407	0.057193782
186	0x3d676fac	0.056502983
187	0x3d492f7c	0.04911755
188	0x3b8fea48	0.004391942
189	0x3cbd5a31	0.023114296
190	0xbd190f67	-0.037368204
191	0x3dc56353	0.09638085
192	0x3e5cbbff	0.2155609
193	0x3c1f81e3	0.009735557
194	0xbc1cf736	-0.009580424
195	0x3b7c1bf6	0.0038468814
196	0x3b40991e	0.002938814
197	0xba81b1e1	-0.0009894931
198	0xbc997f2b	-0.018737396
199	0x3d48cc00	0.049022675
200	0xbd0ee6fc	-0.034888253
201	0x3e4183e3	0.18897967
202	0x3ccc7a14	0.024960555
203	0xbc8624b2	-0.01637492
204	0x3d85d22f	0.0653423
205	0x3e16f5fa	0.1474227
206	0xbccfe063	-0.02537555
207	0x3d4c2ca5	0.049847264
208	0x3db0574d	0.08610401
209	0x3e14ce3c	0.14531797
210	0x3c1add2f	0.009452148
211	0xbcc4df7d	-0.024032349
212	0x3c09619a	0.008385086
213	0xbbac17c6	-0.0052518575
214	0x3cceb00f	0.025230436
215	0xbd797483	-0.06090213
216	0x3cae335f	0.02126473
217	0x3d292b04	0.04130079
218	0xbcf24eff	-0.029578684
219	0x3c566568	0.013085701
220	0xbc858c13	-0.016302144
221	0x3c72ba9d	0.014815
222	0x3c39fa5c	0.011351194
223	0x3aedc1a5	0.0018139376
224	0xbc9c3be5	-0.019071529
225	0x3c4680fd	0.012115714
226	0x3c95608f	0.01823452
227	0x3ce198ef	0.027538745
228	0xbce1a3fe	-0.027544018
229	0xbc2f6c6a	-0.010707
230	0x3d56451c	0.052312
231	0x3c115a50	0.00887163
232	0xbc347444	-0.011014048
233	0xbd7a18ba	-0.061058737
234	0x3d829d5e	0.06377672
235	0x3bce09e1	0.0062877988
236	0x3bd739f0	0.006568186
237	0xbccc0d5f	-0.02490872
238	0x3a9c9753	0.0011946954
239	0xbc0cc2ab	-0.008591334
240	0xbbbf138b	-0.005831187
241	0xbcee7d4a	-0.029112477
242	0x3d8d9d2a	0.06914742
243	0x3c2634c8	0.01014442
244	0xbd742f24	-0.05961527
245	0x3cdafbef	0.02673146
246	0x3ba3d018	0.004999172
247	0xbc235349	-0.009968587
248	0xbbaffcb5	-0.005370701
249	0x3c5745db	0.013139213
250	0x3b9ae45a	0.0047269287
251	0x3cb02a3f	0.02150452
252	0x3b40b4ed	0.0029404715
253	0x3cbb03ef	0.022829024
254	0xbc851a2c	-0.016247831
255	0xbbb9831f	-0.005661383

action_model._discrete_distribution.branches.1.bias f4 [3]
0	0x3e19634f	0.1497929
1	0xbe0aec83	-0.13566785
2	0xbd192a8e	-0.0373941

exp_avg f4 [128, 36]
0	0x3355d739	4.978867e-08
1	0x337a26ff	5.8243128e-08
2	0x33976a81	7.0508584e-08
3	0x339c3664	7.27421e-08
4	0x33674400	5.3845724e-08
5	0x337c3e7a	5.8730144e-08
6	0x339c8fb9	7.290459e-08
7	0x33a46f84	7.65713e-08
8	0x337166d0	5.6205693e-08
9	0x3382e9e4	6.096141e-08
10	0x33a6bba5	7.76411e-08
11	0x339f4602	7.416749e-08
12	0x338241e5	6.065583e-08
13	0x33756c34	5.7141918e-08
14	0x339080b0	6.728931e-08
15	0x339a58dc	7.187347e-08
16	0xb16da228	-3.4580214e-09
17	0x334b3f12	4.7321983e-08
18	0x33a4655b	7.6552816e-08
19	0x338e920d	6.638957e-08
20	0x338a2497	6.4327814e-08
21	0x338b5a43	6.4891104e-08
22	0x33478d3e	4.6461757e-08
23	0x337c1c99	5.869933e-08
24	0x337a15a0	5.822733e-08
25	0x3380e010	6.001221e-08
26	0x3346e60f	4.6309705e-08
27	0x336085e2	5.227583e-08
28	0x33329a7d	4.158436e-08
29	0x33494f19	4.68709e-08
30	0x335dfcc2	5.1685454e-08
31	0x3339aab2	4.3228916e-08
32	0x335dfcc2	5.1685454e-08
33	0x3339aab2	4.3228916e-08
34	0xb40ca194	-1.3097298e-07
35	0x36087201	2.0331938e-06
36	0xb6d077b9	-6.2128206e-06
37	0xb6d9c601	-6.4901546e-06
38	0xb6d6e425	-6.4042565e-06
39	0xb6da1a9c	-6.500004e-06
40	0xb6d8cec8	-6.461374e-06
41	0xb6dba955	-6.5464214e-06
42	0xb6db06ef	-6.527516e-06
43	0xb6dce13c	-6.5827317e-06
44	0xb6d642be	-6.385467e-06
45	0xb6d71d50	-6.4109117e-06
46	0xb6e57c7b	-6.8392233e-06
47	0xb6de2045	-6.6198722e-06
48	0xb6a8a244	-5.0256804e-06
49	0xb6b40fdb	-5.366264e-06
50	0xb6e22ac7	-6.740305e-06
51	0xb6e23b97	-6.742262e-06
52	0x34a15c30	3.0055662e-07
53	0xb69e3dd7	-4.715966e-06
54	0xb6e450c7	-6.804333e-06
55	0xb6de9bc4	-6.634249e-06
56	0xb69bd25d	-4.6438495e-06
57	0xb6a9a145	-5.0553667e-06
58	0xb6c969ea	-6.002597e-06
59	0xb6d28ce7	-6.274891e-06
60	0xb6a86a95	-5.019198e-06
61	0xb6b2d5ff	-5.329726e-06
62	0xb6c3e724	-5.838361e-06
63	0xb6cce563	-6.106378e-06
64	0xb6c27ba5	-5.7960447e-06
65	0xb6c6347a	-5.906969e-06
66	0xb6b40dc5	-5.366021e-06
67	0xb6bf5415	-5.702032e-06
68	0xb6b40dc5	-5.366021e-06
69	0xb6bf5415	-5.702032e-06
70	0x378f2063	1.706201e-05
71	0xba3c8af6	-0.00071923377
72	0xb51d3a31	-5.857174e-07
73	0xb54f416a	-7.72087e-07
74	0x34990250	2.8500153e-07
75	0x34150075	1.3876873e-07
76	0xb53202e7	-6.631439e-07
77	0xb5178216	-5.6441183e-07
78	0x355fd4ce	8.3383645e-07
79	0x34ad2923	3.2253692e-07
80	0xb5296893	-6.310958e-07
81	0xb4d999e5	-4.0531373e-07
82	0xb6238c44	-2.4370538e-06
83	0x34ea7f3a	4.3678466e-07
84	0x34c5c106	3.6834552e-07
85	0x3534db48	6.737432e-07
86	0x3535dc4a	6.774832e-07
87	0xb5078efd	-5.0499494e-07
88	0x36197839	2.2868755e-06
89	0x35af0059	1.3038617e-06
90	0xb6505446	-3.104347e-06
91	0x35746892	9.1049253e-07
92	0x36272845	2.490838e-06
93	0x35d8670b	1.6123244e-06
94	0x367e2a5e	3.787361e-06
95	0x360921c0	2.0434236e-06
96	0x360389e1	1.9600777e-06
97	0x35ef5e5c	1.783435e-06
98	0x366720db	3.4440807e-06
99	0x363d4023	2.8200527e-06
100	0x36836c3e	3.9167053e-06
101	0x365bc901	3.2750543e-06
102	0x3699d7b4	4.5848665e-06
103	0x368ea07d	4.250613e-06
104	0x3699d7b4	4.5848665e-06
105	0x368ea07d	4.250613e-06
106	0x375ce533	1.3166386e-05
107	0x378433b7	1.5759708e-05
108	0x30ee8dc4	1.7357071e-09
109	0x30fcc5d0	1.8391635e-09
110	0x30df26eb	1.6236447e-09
111	0x30e1883c	1.6409625e-09
112	0x30c99ec5	1.46698e-09
113	0x30d45f11	1.545205e-09
114	0x308dcfea	1.0318193e-09
115	0x30a0ee74	1.1709305e-09
116	0x30c9f727	1.469492e-09
117	0x30cc46d5	1.4863085e-09
118	0x30a8dd5e	1.2286525e-09
119	0x30b85e24	1.3414518e-09
120	0x30916960	1.0580088e-09
121	0x30a06067	1.1668931e-09
122	0x309733a3	1.1001372e-09
123	0x30abfc8a	1.2513663e-09
124	0x2f0d9da1	1.2879876e-10
125	0x308d0b5a	1.0262327e-09
126	0x3072fbe5	8.839705e-10
127	0x307b8f96	9.1517316e-10
128	0x30995694	1.1156822e-09
129	0x30a2df0f	1.1850448e-09
130	0x2fbc8526	3.4291608e-10
131	0x301e84e9	5.766894e-10
132	0x30ae9eb1	1.2705269e-09
133	0x30a96f91	1.2328077e-09
134	0x2f363294	1.6570773e-10
135	0x2fce3a18	3.751246e-10
136	0x30911551	1.0556197e-09
137	0x308de716	1.0324779e-09
138	0x3000570b	4.6689824e-10
139	0x300c1a3d	5.096899e-10
140	0x3000570b	4.6689824e-10
141	0x300c1a3d	5.096899e-10
142	0x3322e110	3.7923257e-08
143	0x33368d3a	4.2503622e-08
144	0x36fd70bb	7.553111e-06
145	0x37013e2e	7.7034765e-06
146	0x370f53d2	8.54298e-06
147	0x3710751f	8.610338e-06
148	0x3713ba53	8.805265e-06
149	0x371287e2	8.733916e-06
150	0x372b57c2	1.0212827e-05
151	0x372a1ff8	1.0140233e-05
152	0x370e622d	8.486718e-06
153	0x37128c7c	8.734987e-06
154	0x3728cc35	1.0061126e-05
155	0x3726aba3	9.934333e-06
156	0x370f29a3	8.5331585e-06
157	0x371984aa	9.150399e-06
158	0x373187e6	1.0581663e-05
159	0x372d12ca	1.0315978e-05
160	0x35d3fcfb	1.5794352e-06
161	0x37223d5d	9.67024e-06
162	0x37382387	1.09755265e-05
163	0x37353d1f	1.0802672e-05
164	0x371030cd	8.594431e-06
165	0x37173797	9.013244e-06
166	0x37330983	1.0671446e-05
167	0x37368ba4	1.0880558e-05
168	0x3715bc08	8.9248715e-06
169	0x371aa4be	9.217472e-06
170	0x3738742a	1.0994301e-05
171	0x3739a8eb	1.1066189e-05
172	0x3732d326	1.0658789e-05
173	0x373200e3	1.0609833e-05
174	0x372c8732	1.02834765e-05
175	0x37330fdc	1.0672924e-05
176	0x372c8732	1.02834765e-05
177	0x37330fdc	1.0672924e-05
178	0xb7d94b5a	-2.5903504e-05
179	0x3a816191	0.0009870996
180	0x36309754	2.6314128e-06
181	0x363fca51	2.8578982e-06
182	0x3625d38d	2.4710055e-06
183	0x3628b938	2.5141762e-06
184	0x3629561e	2.523309e-06
185	0x362f0911	2.608231e-06
186	0x360cfe4f	2.1009653e-06
187	0x36171f18	2.2518852e-06
188	0x3636b330	2.7224414e-06
189	0x362f93bf	2.6163032e-06
190	0x363cb537	2.8119664e-06
191	0x361b01ca	2.3097841e-06
192	0x3617caa0	2.2618697e-06
193	0x360869f6	2.0327257e-06
194	0x3605345e	1.9849026e-06
195	0x361e3e67	2.3580158e-06
196	0x349d38fd	2.9284993e-07
197	0x35d825bf	1.610424e-06
198	0x36292869	2.5206484e-06
199	0x35f8b50c	1.8530131e-06
200	0x35cec7d9	1.5406359e-06
201	0x35ea22ee	1.7444524e-06
202	0x35690c66	8.6817306e-07
203	0x35c0f23d	1.4375615e-06
204	0x35d58172	1.590741e-06
205	0x35de5d5c	1.656746e-06
206	0x354ed06a	7.704426e-07
207	0x358c8b21	1.0471305e-06
208	0x355b463d	8.168607e-07
209	0x358a8ac4	1.0322187e-06
210	0x35447048	7.317908e-07
211	0x354f406f	7.720727e-07
212	0x35447048	7.317908e-07
213	0x354f406f	7.720727e-07
214	0xb6a93045	-5.042212e-06
215	0x38860400	6.390363e-05
216	0x3787add7	1.6174205e-05
217	0x37829a62	1.5569098e-05
218	0x378c6b51	1.6739274e-05
219	0x378b5ba2	1.6612761e-05
220	0x37917cba	1.7343427e-05
221	0x378c6969	1.6738386e-05
222	0x379187f7	1.734866e-05
223	0x3790db16	1.7268158e-05
224	0x378a4357	1.648224e-05
225	0x378c6859	1.6737891e-05
226	0x379dd5df	1.881545e-05
227	0x3792b181	1.7487213e-05
228	0x37940ba2	1.7648392e-05
229	0x379fcadc	1.904874e-05
230	0x3792f37a	1.7517934e-05
231	0x379c2077	1.8611767e-05
232	0x3745cb0f	1.1789393e-05
233	0x37b09c4a	2.1053613e-05
234	0x37a4096b	1.9554709e-05
235	0x37ad6c06	2.067351e-05
236	0x37a6fc70	1.9906292e-05
237	0x37a3f7d7	1.9546524e-05
238	0x37aec42f	2.0833771e-05
239	0x37b1e219	2.120533e-05
240	0x37ae078a	2.0745927e-05
241	0x37ab717f	2.043764e-05
242	0x37c58beb	2.3549384e-05
243	0x37c033b3	2.2912258e-05
244	0x37c21e2a	2.3140648e-05
245	0x37bc9039	2.2478505e-05
246	0x37a1abac	1.9272637e-05
247	0x37c1dee1	2.3111179e-05
248	0x37a1abac	1.9272637e-05
249	0x37c1dee1	2.3111179e-05
250	0xb7edd3cc	-2.8351227e-05
251	0x3a89a062	0.0010500068
252	0xb713a402	-8.800069e-06
253	0xb71aa76a	-9.218094e-06
254	0xb71dcac9	-9.405144e-06
255	0xb7204702	-9.553276e-06

exp_avg_sq f4 [128, 36]
0	0x2a19c697	1.365803e-13
1	0x2ad89fff	3.8480327e-13
2	0x2ad1442b	3.717316e-13
3	0x2ae48afa	4.059737e-13
4	0x2ad413bb	3.7672456e-13
5	0x2aea6e0c	4.164311e-13
6	0x2aeae3cf	4.1724824e-13
7	0x2aebf478	4.191402e-13
8	0x2aeb31cb	4.1778937e-13
9	0x2aecc446	4.2058213e-13
10	0x2ae8981e	4.131703e-13
11	0x2aee1149	4.2289287e-13
12	0x2ae31c80	4.0343076e-13
13	0x2ae64069	4.09009e-13
14	0x2ab2b31c	3.1743434e-13
15	0x2abd7dca	3.3660428e-13
16	0x2a66502a	2.0455916e-13
17	0x2ae2b15f	4.026874e-13
18	0x2aafd3d3	3.1233227e-13
19	0x2aba92a1	3.3141981e-13
20	0x2ae6a950	4.0973691e-13
21	0x2ae7acee	4.1153837e-13
22	0x2ae56312	4.0747315e-13
23	0x2ae98cfb	4.148694e-13
24	0x2ade8a2f	3.9531006e-13
25	0x2adffcb9	3.978812e-13
26	0x2adb096b	3.890875e-13
27	0x2adfe1cb	3.9769433e-13
28	0x2ad9d35f	3.8693612e-13
29	0x2adada8f	3.8876235e-13
30	0x2ad16099	3.7192886e-13
31	0x2ad1f5fd	3.7296547e-13
32	0x2ad16099	3.7192886e-13
33	0x2ad1f5fd	3.7296547e-13
34	0x2c279722	2.3816023e-12
35	0x2fe4fd87	4.16531e-10
36	0x329d9ce5	1.8348553e-08
37	0x32a16564	1.8788974e-08
38	0x328bcf9e	1.6276143e-08
39	0x3296ce2e	1.7556058e-08
40	0x32a174a1	1.8795904e-08
41	0x32a32ce8	1.8996118e-08
42	0x32062552	7.808312e-09
43	0x32847dd4	1.5424042e-08
44	0x329e8fdb	1.8459039e-08
45	0x32a0bd84	1.8712633e-08
46	0x3191af4e	4.2399853e-09
47	0x32447eda	1.1437544e-08
48	0x329c45d6	1.8192548e-08
49	0x329e6c16	1.8442773e-08
50	0x31788350	3.6163392e-09
51	0x322f265a	1.0195061e-08
52	0x3289c2b0	1.6037433e-08
53	0x3299d8e1	1.791017e-08
54	0x318b3ff3	4.0527026e-09
55	0x32416d30	1.1258905e-08
56	0x3294199d	1.7241115e-08
57	0x3297a8dc	1.7655502e-08
58	0x3206475d	7.816053e-09
59	0x3281e3e1	1.5121204e-08
60	0x32901b08	1.6776099e-08
61	0x3293c080	1.7200591e-08
62	0x3287d192	1.581137e-08
63	0x3293096f	1.7117342e-08
64	0x32954924	1.7379143e-08
65	0x3297940f	1.7646043e-08
66	0x329766a3	1.7625387e-08
67	0x32998edb	1.7876507e-08
68	0x329766a3	1.7625387e-08
69	0x32998edb	1.7876507e-08
70	0x36976395	4.5117436e-06
71	0x3a974464	0.0011540768
72	0x3017b089	5.518435e-10
73	0x3046b5e9	7.229049e-10
74	0x30461c7f	7.2072476e-10
75	0x304c3143	7.4284773e-10
76	0x3044df25	7.162149e-10
77	0x304b6b45	7.400341e-10
78	0x304920b4	7.316985e-10
79	0x304d047d	7.4584944e-10
80	0x3048cfa2	7.305464e-10
81	0x304c05c4	7.422296e-10
82	0x3049000b	7.3123435e-10
83	0x304baa24	7.4092754e-10
84	0x304a9ede	7.3712936e-10
85	0x304db3be	7.4833995e-10
86	0x30278ec9	6.0957156e-10
87	0x304598e2	7.188544e-10
88	0x30409f25	7.007535e-10
89	0x304fa7b1	7.5544465e-10
90	0x30486e87	7.2916645e-10
91	0x304a87e2	7.3680273e-10
92	0x303a4727	6.776752e-10
93	0x303d5dce	6.8891104e-10
94	0x3042bce2	7.084521e-10
95	0x3049c066	7.339679e-10
96	0x304f5bdf	7.543672e-10
97	0x304fa06c	7.5534135e-10
98	0x3049febb	7.348537e-10
99	0x304f0754	7.5316575e-10
100	0x304edc23	7.5255197e-10
101	0x30509965	7.5887946e-10
102	0x30525957	7.6524515e-10
103	0x305192f3	7.6242584e-10
104	0x30525957	7.6524515e-10
105	0x305192f3	7.6242584e-10
106	0x35b7eec6	1.3704055e-06
107	0x3584bea7	9.890254e-07
108	0x2cd47c13	6.0391774e-12
109	0x2dadf725	1.9777577e-11
110	0x2d1f2e57	9.048393e-12
111	0x2dc040e6	2.1856694e-11
112	0x2d1c2efd	8.878007e-12
113	0x2dc00776	2.1831186e-11
114	0x2db310b1	2.0357356e-11
115	0x2de1df2f	2.5678652e-11
116	0x2dbe3b20	2.1626756e-11
117	0x2de1f69a	2.5689052e-11
118	0x2ddbbf0e	2.4982263e-11
119	0x2df9cb0a	2.839819e-11
120	0x2de6723c	2.6198703e-11
121	0x2dfe43d1	2.8906573e-11
122	0x2dfcd419	2.8743273e-11
123	0x2e0599f7	3.0377447e-11
124	0x2c279d87	2.3819573e-12
125	0x2df3eccc	2.773106e-11
126	0x2e0019b5	2.9126663e-11
127	0x2e05971b	3.0374907e-11
128	0x2dee58b4	2.709686e-11
129	0x2df7f1c9	2.8188023e-11
130	0x2df8677a	2.8240289e-11
131	0x2e027821	2.9665274e-11
132	0x2de144fe	2.5610177e-11
133	0x2deb9bf4	2.6785664e-11
134	0x2e002484	2.9136263e-11
135	0x2e035fba	2.9870974e-11
136	0x2e006947	2.9197336e-11
137	0x2e01cd2a	2.9513426e-11
138	0x2e02b052	2.971518e-11
139	0x2e03becf	2.9955424e-11
140	0x2e02b052	2.971518e-11
141	0x2e03becf	2.9955424e-11
142	0x35de42c5	1.6559721e-06
143	0x3396c01e	7.019865e-08
144	0x301ff3a1	5.819008e-10
145	0x306db7de	8.648139e-10
146	0x306d7bfa	8.639628e-10
147	0x307cf97c	9.2031605e-10
148	0x306fd2a0	8.724701e-10
149	0x307eff8f	9.276783e-10
150	0x306f77cd	8.711794e-10
151	0x308076a9	9.346951e-10
152	0x307d231b	9.209075e-10
153	0x307e81fe	9.258939e-10
154	0x306ac0f0	8.5402885e-10
155	0x30796524	9.07294e-10
156	0x30792065	9.063171e-10
157	0x307c7af4	9.1851793e-10
158	0x30672204	8.408565e-10
159	0x30762e82	8.956037e-10
160	0x301bb9af	5.6652544e-10
161	0x307a9de3	9.117384e-10
162	0x3065bfa6	8.3582063e-10
163	0x3075375c	8.920915e-10
164	0x307c522f	9.1793856e-10
165	0x307de6f4	9.236907e-10
166	0x30656471	8.345245e-10
167	0x307a2da9	9.1014357e-10
168	0x307eec77	9.27407e-10
169	0x307fa801	9.300721e-10
170	0x30775106	8.997322e-10
171	0x307b1b3d	9.1351976e-10
172	0x307e53cf	9.252376e-10
173	0x30800f10	9.317507e-10
174	0x307d51ed	9.215729e-10
175	0x307ec875	9.268953e-10
176	0x307d51ed	9.215729e-10
177	0x307ec875	9.268953e-10
178	0x358d8658	1.0544418e-06
179	0x36cc6e73	6.0925317e-06
180	0x2ea945cf	7.697631e-11
181	0x2f1692d8	1.369459e-10
182	0x2f19f68d	1.4002861e-10
183	0x2f1fb0c0	1.452376e-10
184	0x2f1ba70e	1.4156518e-10
185	0x2f20878b	1.460007e-10
186	0x2f21c1cd	1.4711717e-10
187	0x2f21fca6	1.4732623e-10
188	0x2f214f62	1.4671067e-10
189	0x2f216038	1.4677048e-10
190	0x2f210be4	1.4647089e-10
191	0x2f215e20	1.4676305e-10
192	0x2f1dbe5d	1.4346697e-10
193	0x2f1ee212	1.4450333e-10
194	0x2f1ba6c5	1.4156416e-10
195	0x2f2067ed	1.4588837e-10
196	0x2ed072ef	9.479161e-11
197	0x2f1d0039	1.4279146e-10
198	0x2f21362f	1.4662115e-10
199	0x2f2149d6	1.4669096e-10
200	0x2f1a75ea	1.404811e-10
201	0x2f1bcb21	1.4169334e-10
202	0x2f1cb462	1.4252202e-10
203	0x2f2009f6	1.4555454e-10
204	0x2f1ff64f	1.4548472e-10
205	0x2f206394	1.4587292e-10
206	0x2f1fe7d4	1.4543328e-10
207	0x2f2052ec	1.4581375e-10
208	0x2f1f50f6	1.4489729e-10
209	0x2f20acc1	1.461329e-10
210	0x2f211d57	1.4653288e-10
211	0x2f211659	1.4650804e-10
212	0x2f211d57	1.4653288e-10
213	0x2f211659	1.4650804e-10
214	0x2ff37c3a	4.428971e-10
215	0x3411b16d	1.3568724e-07
216	0x310ad47a	2.0202422e-09
217	0x31360e16	2.6492493e-09
218	0x31319fb6	2.5847675e-09
219	0x313979b8	2.6990232e-09
220	0x31354c41	2.6382312e-09
221	0x313bbcda	2.7319431e-09
222	0x312d43f8	2.521345e-09
223	0x3138502b	2.6821094e-09
224	0x3138dc0b	2.6900604e-09
225	0x31396e18	2.6983624e-09
226	0x3124ead2	2.399862e-09
227	0x31310d19	2.5764335e-09
228	0x31336faf	2.6111413e-09
229	0x313632ba	2.651332e-09
230	0x3116d830	2.1950761e-09
231	0x3125bcee	2.4118054e-09
232	0x3115ca2f	2.1797282e-09
233	0x31347e0d	2.62651e-09
234	0x3119b304	2.236619e-09
235	0x31277c3a	2.4372313e-09
236	0x3133d454	2.6168623e-09
237	0x313561ce	2.6394562e-09
238	0x311d454a	2.2885893e-09
239	0x312ca67e	2.5123934e-09
240	0x3135d62c	2.646071e-09
241	0x31370b74	2.6636515e-09
242	0x312bb3f9	2.4986078e-09
243	0x312f6732	2.5524511e-09
244	0x3131f594	2.5896485e-09
245	0x31338a26	2.6126457e-09
246	0x3131ec27	2.5891127e-09
247	0x313309bf	2.6053468e-09
248	0x3131ec27	2.5891127e-09
249	0x313309bf	2.6053468e-09
250	0x33ebe974	1.0985505e-07
251	0x37b1b115	2.1182504e-05
252	0x3210bb55	8.4244975e-09
253	0x3213e732	8.609094e-09
254	0x31fae65b	7.302146e-09
255	0x32086868	7.939981e-09
