Brains/DodgeTest1.onnx (onnx, 91145 bytes, 9 tensors)

action_model._discrete_distribution.branches.0.bias f4 [3]
000000 70 72 83 3c fc e7 51 bc 53 98 9c 3b
       0.016045779 -0.012811657 0.0047789006

action_model._discrete_distribution.branches.0.weight f4 [3, 128]
000000 6b 81 87 3c ce b7 05 bd 79 3d e9 bb da 33 8e 3c
       0.016541203 -0.032645993 -0.007117924 0.01735871
000010 8e 7d 69 3b c4 99 16 bc e2 a0 8f 3b cd 9d a0 3b
       0.0035627815 -0.009191934 0.0043831924 0.004901624
000020 91 56 e5 bb 91 69 6a 3c ab b7 0c bd df f9 ad bb
       -0.006998845 0.014307396 -0.034354847 -0.005309328
000030 8c 0e 1d bb a1 48 db 3b 6f 38 30 3c e9 31 4e 3b
       -0.002396497 0.0066920076 0.010755642 0.0031462854
000040 aa b3 16 bc b5 94 25 3b 85 88 71 bb e2 20 17 bd
       -0.009198109 0.0025265638 -0.0036855054 -0.036896594
000050 3a ba cd ba 4e 63 0e 3c 05 fe 90 bb 5c 2b 14 bc
       -0.0015695759 0.008690668 -0.0044248127 -0.009043541
000060 87 ba 6e 3c 1b 78 41 3b 19 6c 2c 3c aa 86 a2 3a
       0.014570839 0.0029521051 0.010523819 0.0012399752
000070 4a 60 38 3b fb 47 a3 3b 18 4b 0b 3c ab 36 3b 3c
       0.0028133565 0.004982946 0.00850179 0.011426608
000080 07 4e cc bc b1 7b 20 bb 5c c2 e8 3b 53 68 4e bc
       -0.02493955 -0.0024487788 0.0071032476 -0.012598115
000090 c6 85 6d 3c 23 37 38 3c 8d 2c a7 3a 5d 35 2a ba
       0.014497226 0.011243614 0.0012754366 -0.0006492937
0000a0 d9 78 a1 3a c5 41 11 b9 e8 af cf ba 3e e2 fd ba
       0.0012319341 -0.00013852779 -0.0015845271 -0.0019369794
0000b0 5b c5 71 3b 1b 25 45 bc fb 20 14 39 c9 b9 7a bb
       0.0036891315 -0.012032772 0.00014126666 -0.003825771
0000c0 d4 1e b4 3b 4d 6b 6e 3c c0 12 68 3c d4 3f 89 bc
       0.005496839 0.01455195 0.014164627 -0.016754068
0000d0 a5 03 8c bc 7f c5 d7 3b 2f 9c d6 39 58 40 bc bb
       -0.017091582 0.0065848227 0.00040933627 -0.005744975
0000e0 11 f5 30 3c 90 43 a7 3b f3 2b 44 bd 66 22 34 bc
       0.010800616 0.0051044896 -0.047893476 -0.010994529
0000f0 56 d3 2e bc 49 d7 f3 bb 33 fa 1a ba f1 6a c9 bb
       -0.010670504 -0.0074414355 -0.00059119164 -0.0061467816
000100 ab cf 47 3c 76 93 1d bd 04 61 16 bd 18 c5 c0 bc
       0.012195508 -0.038470708 -0.036713615 -0.023531482
000110 ee 72 e6 bb 07 7b 0a 3a 51 85 51 3c 51 59 00 bc
       -0.0070327437 0.0005282615 0.012788133 -0.007833795
000120 a4 99 3d 3a 9b a0 31 ba b8 13 a4 bc a9 68 09 3c
       0.0007232672 -0.0006775946 -0.020028934 0.008386769
000130 77 2f 46 3c ae d1 06 3a 55 e4 30 bc 70 4a 9a 3b
       0.012096277 0.0005142939 -0.010796626 0.0047085807
000140 94 5b be b8 bd 06 1d 3c d8 47 90 bc f0 0c aa 39
       -9.076964e-05 0.009584126 -0.017612383 0.00032434566
000150 b3 84 80 3c dc 35 29 bc 4a 73 f7 bc f1 86 a1 3a
       0.015688276 -0.0103277825 -0.030206341 0.0012323541
000160 42 de 32 3c e7 fa 47 3c c2 9c dd bb 79 1f b1 ba
       0.010917248 0.012205816 -0.0067630718 -0.0013513408
000170 a2 d1 1f bc 51 33 4d bc 94 e2 32 3c c0 4f c7 ba
       -0.00975457 -0.012524442 0.010918278 -0.0015206262
000180 17 b5 c6 3b 83 c0 9c bc b6 ed 29 bc f0 14 f7 3b
       0.006064068 -0.019134765 -0.010371616 0.0075403377
000190 db ae b7 bc 0c 72 4e bc 67 a5 47 bb 29 f1 0c bc
       -0.022422245 -0.012600433 -0.0030463578 -0.008602419
0001a0 06 d3 8c ba b9 96 16 3d 4a 3b 9c bb 30 b1 36 bc
       -0.0010744042 0.036764834 -0.00476781 -0.011150643
0001b0 10 cc 29 bb 8d dc ae bb 01 d2 83 bb f7 ea 33 3c
       -0.0025908984 -0.0053363503 -0.004022837 0.010981313
0001c0 c8 53 01 3b 80 a9 ff 3b 46 26 ae 3a c6 51 2c bc
       0.0019733775 0.0078021884 0.0013286553 -0.010517543
0001d0 5e 26 1a 3c e5 cb 75 3b 1e f9 71 3c 39 ce ee 3b
       0.0094085615 0.0037505564 0.014768867 0.0072877673
0001e0 d1 90 4a 3b f2 40 de bc 51 ae 0e ba db b3 f3 bb
       0.0030909071 -0.027130578 -0.0005442845 -0.007437212
0001f0 59 e7 e5 3a 8d 2c c9 bb 07 02 20 3c 99 8b d1 bb
       0.001754026 -0.006139344 0.009766108 -0.006394815
000200 c0 3c cd 3a cb f7 04 3d 1d 74 03 3c aa b1 1e 3c
       0.0015658364 0.032462876 0.008023289 0.009685913
000210 97 09 aa 3b 7f bc 64 3c 04 7a 46 ba ec f3 1a 3a
       0.0051891315 0.013960957 -0.00075712823 0.0005910981
000220 7b 30 9f bb 0d ef 87 ba 1b 97 30 3d 2b 45 a4 3b
       -0.0048580742 -0.0010370925 0.043112855 0.0050131283
000230 33 db 31 3b 19 ee 0f 3c 79 ef 80 37 19 b5 3e bc
       0.002713871 0.008784794 1.5370302e-05 -0.011639857
000240 d3 bf 4a 3b 19 d8 b6 bb eb 28 45 bc 7e 74 47 3d
       0.003093709 -0.00557996 -0.012033681 0.04869508
000250 b6 8e 00 bc b6 bf 68 3a ff 77 f9 3b 6d 22 8f bb
       -0.007846525 0.0008878665 0.0076131816 -0.0043681175
000260 bb f0 39 3b b4 af 78 3c d0 39 b0 b9 f8 2a fc bb
       0.0028372246 0.01517861 -0.0003361241 -0.007695552
000270 b8 65 83 bb a6 9a 4e b9 44 fe 51 3c fe 34 57 3c
       -0.0040099286 -0.00019703302 0.012816969 0.013135193
000280 5b f9 b6 3c ab c7 e4 3c 1b 86 95 bc 1f a8 08 ba
       0.022335699 0.02792724 -0.018252423 -0.000521304
000290 48 90 07 3b a8 e1 0d bb e7 c9 a2 3c 8b 36 ef ba
       0.0020685364 -0.0021649394 0.019871665 -0.0018250508
0002a0 b2 26 26 3c 8b ed 4d 3c cd 9a 0e bc 0c f3 94 39
       0.010141062 0.012568842 -0.0087039 0.00028409844
0002b0 ba 79 87 39 1b 76 37 bc f8 a1 1c 3c 95 27 5a bc
       0.000258399 -0.011197592 0.009560101 -0.013315101
0002c0 51 c5 8d 3c e2 fc da bb 85 89 a2 bb 11 a6 ce 3c
       0.017306002 -0.006682978 -0.0049602413 0.025225671
0002d0 f9 5d e6 3c bf c7 2d 3b 12 3b 03 3c c2 eb 86 3c
       0.028120982 0.0026516763 0.008009689 0.01646984
0002e0 15 0d 96 3c 81 fe 88 bb 09 bc c2 3c 94 89 b3 3c
       0.018316785 -0.00418073 0.023771303 0.021916188
0002f0 28 2b cb 3c d5 47 8a 3b 10 98 0b 3c a7 07 a3 3c
       0.024800852 0.004219989 0.008520141 0.01990111
000300 03 b6 e2 3b 71 c2 64 3d 99 1b 1e 3c dc 2e 38 3d
       0.00691867 0.055849496 0.0096501345 0.044966564
000310 29 a9 63 3c d2 5b a4 3b e4 fd 75 3b f9 ff 26 bc
       0.013895311 0.0050158286 0.0037535364 -0.010192865
000320 d5 53 9b bb 32 38 c7 3b 38 ed 23 3d 3a c0 4d bc
       -0.004740218 0.006079697 0.04002115 -0.012558037
000330 87 b2 52 bc 46 b5 7c ba a1 78 bb bb 16 18 51 3c
       -0.012859947 -0.0009640049 -0.005721167 0.01276209
000340 81 22 cc b9 79 18 69 bc 13 c5 14 bb e9 be 97 3b
       -0.0003893562 -0.014227026 -0.0022700473 0.0046309126
000350 47 47 76 3c 1b af ae 3c ee ed b9 3c 8e d1 50 3c
       0.015031642 0.021323731 0.022696462 0.012745274
000360 7a 61 3a 3c 55 13 d3 3b 9f b6 64 3b 57 be ce 3c
       0.011375779 0.0064415135 0.003489889 0.025237245
000370 0e 89 0d bb 13 11 8a 3b 6f 15 91 3c 02 e4 8c bb
       -0.0021596584 0.004213461 0.017710416 -0.0042996416
000380 84 51 d5 3a 8e 9a e3 3c ec f9 97 ba 86 de 91 bc
       0.0016274904 0.027783658 -0.0011594868 -0.017806303
000390 77 3b 3c 3d 70 39 8b 3b 57 87 b5 3c 84 43 7f 3c
       0.045955148 0.0042487904 0.022159262 0.015580062
0003a0 04 4e 63 39 6b 46 c9 3c c7 8b 1f bc dd 34 32 3c
       0.0002167747 0.02456971 -0.009737915 0.010876861
0003b0 77 8b 28 3c 69 2d 26 3b 43 9c 52 bc 7b a6 1f bb
       0.010287157 0.0025356656 -0.0128546385 -0.0024360705
0003c0 70 6e 4c bb 00 a9 0d 3c 2c 94 c2 3b ca b4 32 3c
       -0.0031193756 0.00864625 0.0059380736 0.010907361
0003d0 51 93 13 bc a9 45 aa 3c b2 8e 40 3c cc 35 58 bb
       -0.009007291 0.02078517 0.011752771 -0.003299105
0003e0 33 15 c1 3b 66 8a 3a 3d f6 5e 37 bc 0d 81 fe 3b
       0.0058924197 0.045542143 -0.011192074 0.007766849
0003f0 0a 65 03 3d 0b 37 66 3c 43 0c f2 3b ea 62 58 3b
       0.03207878 0.014051209 0.0073867156 0.0033017942

action_model._discrete_distribution.branches.1.bias f4 [3]
000000 34 a5 7e bb 76 e6 73 3b e3 e9 b0 b9
       -0.0038855793 0.0037216223 -0.00033743595

action_model._discrete_distribution.branches.1.weight f4 [3, 128]
000000 76 84 ed ba 26 06 2b bc d3 0f 16 3c b9 b4 45 bc
       -0.0018121141 -0.010438478 0.009159046 -0.012067013
000010 8c 09 a8 b9 e8 bb b2 bc 40 04 a6 3b e9 df 41 bc
       -0.0003205057 -0.021818116 0.0050664246 -0.0118331695
000020 97 83 72 bc 3b 52 b6 3a 71 32 2f 3c 68 a5 6a bb
       -0.014801881 0.0013910005 0.0106931785 -0.0035804156
000030 3a b8 1e 3c ae 3b 3f bc 65 15 d8 bb 30 a9 54 3c
       0.009687478 -0.011671944 -0.0065943473 0.012979791
000040 6a 1f d2 3a eb 20 5f 3c 76 02 57 bc 4f a4 85 bb
       0.0016031091 0.013618688 -0.013123145 -0.004078425
000050 f7 96 23 3c 25 27 cb 3a 48 fb bf 3c 19 bc 10 3b
       0.009984723 0.0015499337 0.02343525 0.0022084771
000060 41 6e 88 bc 63 a9 cf ba e5 5c 70 3a 53 a8 d1 bb
       -0.016654136 -0.0015843328 0.0009169116 -0.0063982396
000070 a2 41 84 bb 5a 44 b0 3c 07 93 8a 3c ee 93 18 3a
       -0.0040361444 0.021516968 0.016915811 0.0005820383
000080 28 51 94 bb 06 85 64 bc 7f 18 b1 bc d6 6c 50 bc
       -0.004526276 -0.013947731 -0.021618126 -0.012721261
000090 8e 1e fb ba 39 7b c6 3b fa a6 26 bc 12 e7 6e 3c
       -0.0019158886 0.0060571698 -0.010171646 0.014581459
0000a0 c8 89 03 bc fc f5 53 bc 21 bc a9 3b 13 6f 24 3c
       -0.008028455 -0.012937065 0.0051798974 0.010036248
0000b0 39 d1 5e 3c b8 02 4f 3b e8 dc 9d 3a 75 ae 1f 3c
       0.013599687 0.0031587314 0.0012043985 0.009746184
0000c0 65 0e 0f bc e7 fd b1 bc 13 a5 1d bc 04 ad 9d 39
       -0.008731459 -0.021727515 -0.009621876 0.0003007428
0000d0 e5 22 00 bc 7d d2 f1 3c 45 ed fa 3b 21 10 16 3b
       -0.0078208195 0.029519314 0.0076576793 0.0022897797
0000e0 3d c1 46 3a a7 af 8c bb 7c 04 19 3b af 0a 5b 3c
       0.00075818953 -0.0042934003 0.002334862 0.013369246
0000f0 dd f8 78 bc 21 a5 a7 3b d6 12 38 3a d3 58 55 bb
       -0.015196052 0.0051161204 0.000702185 -0.0032554164
000100 88 2a 3e ba 2a 78 07 3c 5b 19 1f bb 5c 1a 62 3c
       -0.00072542625 0.008268395 -0.0024276588 0.01380023
000110 4b a8 82 bb ce 40 08 3b f8 5f 6c 3b 79 58 6f bb
       -0.0039873472 0.002079058 0.0036067944 -0.003652124
000120 88 a6 cf ba 61 76 6c bc a7 dc 14 bc 01 48 ee ba
       -0.0015842477 -0.014432521 -0.009085811 -0.0018179418
000130 0e 79 43 3b 02 30 8f 3b c4 a9 07 bc d4 72 37 3c
       0.0029826793 0.0043697366 -0.008280221 0.011196811
000140 1f df e7 bb f6 67 d6 3b 50 fe 2a bc 61 2e 3c 3c
       -0.0070761587 0.006543155 -0.010436609 0.011485667
000150 26 98 e7 3b c8 40 4c 3b a0 3e 7f 3b 91 c1 af 3b
       0.007067698 0.0031166542 0.003894724 0.005363651
000160 71 88 33 bb 94 a4 09 3c 34 be 0a 3b 6e 19 ac bb
       -0.0027394558 0.008401055 0.0021170499 -0.005252055
000170 7f 6a d1 bb cd a2 c5 b8 1d 6d 07 3a a1 57 64 3c
       -0.006390869 -9.424016e-05 0.00051661005 0.013936908
000180 63 57 50 3c 31 20 df 3c bd b0 5f 3b 3e 7b 21 3b
       0.012716147 0.02723703 0.0034132444 0.0024640108
000190 f0 39 6c bc f8 35 f9 3b d3 77 e0 3c fe 05 86 ba
       -0.01441811 0.0076053105 0.027400887 -0.0010225174
0001a0 c8 ec e3 3b 1f 45 ee 3a bb eb f7 bb 60 86 15 bc
       0.0069557168 0.0018178559 -0.007565943 -0.009126276
0001b0 c3 bf 5c bc 57 b5 8f bb d5 bc a5 bb 23 35 22 3c
       -0.013473454 -0.004385631 -0.005057911 0.009900364
0001c0 2f d5 43 3b 9f d0 ac bc 88 48 b8 3a 8e 28 3c bb
       0.0029881706 -0.021095572 0.0014059702 -0.0028710696
0001d0 46 2e 17 bb bb ed 32 39 d5 93 64 bc 8b 8f 1a bc
       -0.0023068353 0.00017063964 -0.0139512615 -0.009433637
0001e0 54 39 25 bc 42 78 45 3c 57 70 e4 3b b2 35 0e bc
       -0.010084469 0.0120525975 0.0069713998 -0.008679794
0001f0 4a be 91 3b de 4b 18 3c 49 b5 a4 bc ec 73 dd b9
       0.004447733 0.009295432 -0.020105975 -0.00042238773
000200 e9 ea 11 3b 20 05 b8 bc ca 31 32 3b 0d 3c f4 bb
       0.0022265262 -0.022463381 0.002719032 -0.0074534477
000210 39 bc b6 bb f6 12 57 bc 8d 17 36 bc 13 f2 5a ba
       -0.005576637 -0.013127079 -0.011114013 -0.0008352112
000220 55 ac a4 3b 49 c2 b8 3b 58 e7 2e bc 8d c4 02 3c
       0.0050254264 0.005638395 -0.010675274 0.007981432
000230 5f f7 93 b7 0c 52 66 bb be 18 a3 39 a0 f1 3e 3a
       -1.7638957e-05 -0.0035144119 0.00031108217 0.000728393
000240 6d db 01 3c ae c5 e9 ba fe 9d 90 bc 8d 5f a3 bc
       0.00792585 -0.0017835402 -0.017653462 -0.019943023
000250 ea 5f 9d 3c 30 b0 2d bc 13 99 9a 3b 45 9b d1 bb
       0.019210774 -0.010601088 0.004717955 -0.0063966834
000260 1d da 00 3b 99 04 4f 3b 28 68 7d 3c 53 a5 02 3c
       0.0019661256 0.0031588434 0.015466727 0.007973987
000270 41 9f f0 3b 80 1e 38 3c 69 92 23 3b 59 46 09 3c
       0.0073432033 0.0112377405 0.0024959093 0.008378589
000280 3b 11 fa 3b aa 00 c5 ba 7a 21 bd 3b 10 d9 dc bb
       0.0076314486 -0.0015030105 0.005771813 -0.006739743
000290 1e d9 3f bc 63 f2 92 3b e9 22 43 3c 45 7d 16 bb
       -0.01170948 0.004484461 0.011910179 -0.002296285
0002a0 7e 1b e2 3b 1c 3e 52 ba c0 5d da b8 45 4c a1 bb
       0.00690025 -0.0008020119 -0.00010412512 -0.004922422
0002b0 b1 38 c4 bc b9 8b 5e bb 72 f3 aa 3c 84 a9 20 3b
       -0.023952814 -0.0033957793 0.020868037 0.0024515102
0002c0 9f c5 c7 b9 e8 00 aa 3b 75 df 19 3b 81 1c d5 3b
       -0.00038103477 0.0051880963 0.0023479138 0.006503642
0002d0 9e 5b 99 3c 83 0a 15 bc 57 59 5a 3b 28 86 22 bc
       0.018720444 -0.0090967445 0.003331741 -0.009919681
0002e0 1e d1 e7 bb e0 4d 60 3c ef 88 5a bc 3c ef e4 3b
       -0.0070744893 0.013690442 -0.013338312 0.006986527
0002f0 1d bd f0 3b fc 52 8d bb 5b d9 eb 3b b6 17 8e 3c
       0.007346763 -0.004312871 0.0071975417 0.01734529
000300 e2 b9 9f 3c ba 4b a7 ba d5 0b d6 3b c1 a2 9c bc
       0.019497816 -0.0012763657 0.006532172 -0.019120576
000310 98 22 d8 ba 75 6e 59 3b 75 6d 52 bc 00 ec 93 3c
       -0.0016489802 0.003317741 -0.012843479 0.01805687
000320 18 d1 e4 39 2b 74 8f 3c 59 fc 4b bc 42 6a 54 bc
       0.00043643336 0.017511448 -0.012450301 -0.012964787
000330 a1 5b 25 3c 2e bf 2a 3b 17 32 a7 3b 43 a8 6d bb
       0.010092647 0.0026053893 0.0051024067 -0.0036263622
000340 c0 91 0b bc 71 97 73 3b 09 cf da bb c0 d4 70 3c
       -0.008518636 0.0037169124 -0.0066775125 0.014699161
000350 a0 fb be bb 1e 34 4c 3b 49 d7 5c bb 2f bd af 3c
       -0.005828336 0.0031158994 -0.0033697656 0.021452514
000360 d7 2b 32 bc 2f b0 01 3c 34 de 09 bc 29 76 0c bc
       -0.01087471 0.007915541 -0.008414794 -0.008573093
000370 8f 07 97 3b 85 6d fe 3b c3 45 75 3b 74 e4 62 bc
       0.0046090554 0.0077645206 0.0037425614 -0.013848413
000380 03 6a 0d 3a 0c fc 28 bc 3b 49 52 3b 74 e7 1c 3c
       0.000539452 -0.010313999 0.0032087106 0.009576667
000390 f3 75 04 3c 79 09 9d ba 40 f4 df ba 9a e9 43 bc
       0.008084762 -0.0011980972 -0.0017086342 -0.01195755
0003a0 db 87 bc 3a 19 c9 91 3c c9 cf 20 3c b7 6d cf 3b
       0.001438375 0.017796086 0.009815165 0.0063302177
0003b0 ee 72 3f 3c 63 03 59 3b e6 2f 2a 3b 7c b8 c9 bb
       0.011685116 0.003311359 0.002596849 -0.0061560255
0003c0 d5 ac a3 3b bd bd bf bb f6 56 5e 3c 1b 3e bf b9
       0.0049949684 -0.005851476 0.013570538 -0.0003647663
0003d0 d0 5b f5 3b 0e 65 59 3b 2b ab 48 3b 6a 05 09 bb
       0.0074877515 0.0033171806 0.0030619602 -0.0020907768
0003e0 f0 31 bb bb b4 ab 7d bb a2 8b 9c 3c 19 76 bd bb
       -0.00571274 -0.003870708 0.01910955 -0.0057819006
0003f0 45 9d 2f bc 2f 4f 23 3c be 68 80 3c 55 0f 34 3c
       -0.010718648 0.009967609 0.015674945 0.010989984

discrete_action_output_shape f4 [1, 2]
000000 00 00 40 40 00 00 40 40
       3.0 3.0

network_body._body_endoder.seq_layers.0.bias f4 [128]
000000 fd 58 21 bc 1d ff cf ba 68 64 e1 bb 48 a0 3a bb
       -0.009847877 -0.0015868876 -0.0068784244 -0.0028476883
000010 fc 42 ea 3b 47 0c 54 bb 38 1f 33 3c b9 a2 71 bb
       0.0071490984 -0.003235595 0.010932736 -0.0036870672
000020 51 66 45 bb 6f f1 d0 bb b2 9e da ba 06 d3 2a bc
       -0.00301208 -0.0063764374 -0.0016679375 -0.0104262885
000030 a6 eb 9d bb fd 6d fa ba 5f 6e 89 bc a8 76 1e bc
       -0.0048193512 -0.0019106265 -0.016776262 -0.009671845
000040 b0 12 87 39 2a 30 83 bb c5 7b e3 38 fa 5e 0a bc
       0.0002576313 -0.0040035443 0.00010847257 -0.008445496
000050 83 77 91 3c ad a1 07 bc 99 27 cd ba 10 b5 46 bc
       0.017757183 -0.008278293 -0.001565206 -0.01212813
000060 60 2a 87 3a a6 31 89 ba 4f 54 b1 39 27 8c 43 3b
       0.0010312311 -0.0010467067 0.00033822886 0.0029838176
000070 95 3d 59 bb ea e4 ce b8 97 cb 46 bc 4e 88 75 3c
       -0.0033148278 -9.865484e-05 -0.012133501 0.014986111
000080 8c b9 eb 3b da cc b7 bc 5c e8 b4 bb 3f 49 a0 3b
       0.00719375 -0.022436548 -0.0055208635 0.004891544
000090 3e 85 f6 bb e2 48 aa 3b 82 b3 89 bc 8e a4 17 3a
       -0.007523208 0.0051966766 -0.016809229 0.00057847134
0000a0 9a 1e f9 bb d5 f2 f6 bb 6f 9d 30 3c ec 87 09 3c
       -0.007602525 -0.007536272 0.010779723 0.008394223
0000b0 40 c6 1c bc 62 10 23 3c 1c c4 79 bb 17 92 5d bb
       -0.009568751 0.009952636 -0.0038111275 -0.0033809
0000c0 b2 c7 b4 bb ce 28 1e bc 84 57 88 ba 49 a1 20 3b
       -0.0055169696 -0.009653283 -0.0010402058 0.0024510196
0000d0 e2 92 5b bb 01 68 98 bc ab 97 59 bc 0b 3c ed ba
       -0.0033504297 -0.01860428 -0.013280789 -0.0018099559
0000e0 87 3f 4a ba 0e 9f 17 bc f1 af ba bb e5 07 08 bb
       -0.0007715155 -0.00925423 -0.0056972434 -0.0020756659
0000f0 a8 fe 9f bb 16 b4 6b bc 26 4c 2e 3c 83 6a 29 3c
       -0.0048826523 -0.014386198 0.010638272 0.010340336
000100 08 29 e8 bb d8 31 4c bc 58 2a 5c bb bd d4 27 3b
       -0.0070849694 -0.012463056 -0.0033594575 0.002560898
000110 7f 36 96 3b 83 86 42 3c c4 02 74 38 cd c8 32 bb
       0.004584133 0.01187289 5.817671e-05 -0.002728033
000120 6b 21 fa b8 16 ec d7 ba cf cd 1d 3d 95 11 d0 3a
       -0.000119271535 -0.0016473557 0.038526352 0.001587438
000130 13 5b db 3a 0c 8a 2a ba 0f 41 62 ba 09 cc 26 bc
       0.0016735516 -0.0006505556 -0.00086309103 -0.010180482
000140 e1 4f 32 ba d1 3a 48 bc bb 67 b1 bb fd 3d 8b bc
       -0.0006802064 -0.012221054 -0.005413977 -0.016997332
000150 1c 28 06 3c 5c 02 56 3c 0b 0c 23 3c 54 f0 92 bc
       0.008188274 0.013062086 0.009951602 -0.017936863
000160 fb f2 10 3c 38 50 9c b8 6c 52 c0 3c 9d 4c bb ba
       0.008846994 -7.4536016e-05 0.023476802 -0.00142898
000170 70 ac b5 3b b9 95 7d 39 81 c8 98 3b c1 37 87 ba
       0.005544238 0.00024183736 0.004662574 -0.0010316299
000180 bb 40 ff ba d6 71 42 bc 7c d2 d6 b9 27 29 3e 3c
       -0.0019474247 -0.011867961 -0.00040974084 0.011606491
000190 18 eb d4 3c cc ae e9 3a 74 64 90 bb 4d 75 d7 3a
       0.025991008 0.0017828583 -0.004406506 0.0016438157
0001a0 6d b8 bb 3b 29 ef 56 3c 8c 34 5e 3c 47 68 a1 ba
       0.0057287724 0.013118544 0.013562333 -0.0012314402
0001b0 b0 b9 8f bc ba 07 8d bb 95 35 18 3c 55 4f d6 bb
       -0.017544597 -0.0043038996 0.009290119 -0.006540219
0001c0 6d 93 26 3b aa 85 b7 bb a7 e9 a6 bb f0 d3 54 b8
       0.0025417462 -0.005600651 -0.0050937715 -5.074212e-05
0001d0 ef fd 23 3a a5 be 27 3c b9 16 ad ba 45 48 81 3c
       0.00062557956 0.010238324 -0.0013205624 0.015781531
0001e0 7c ce e8 39 07 4a 8b bb 2b b7 f8 bb d8 dc 34 bc
       0.0004440433 -0.004250768 -0.0075901947 -0.011038981
0001f0 3e fe c6 3b 52 db 86 3c 54 a1 60 bb 0f db 34 3c
       0.0060727885 0.016462002 -0.0034275847 0.011038556

network_body._body_endoder.seq_layers.0.weight f4 [128, 36]
000000 a9 92 8c 3e 80 e0 99 bd 89 cf 0f 3e d8 00 15 be
       0.27455643 -0.07513523 0.14044012 -0.14551103
000010 1f e7 92 3e c5 3e 84 bd e1 e7 2f 3d 55 6f 7b be
       0.28691956 -0.06457285 0.042945746 -0.24554189
000020 a3 93 e8 bd 49 07 c3 be 23 ca 17 be 13 91 29 3d
       -0.113562845 -0.38091496 -0.14823203 0.04139812
000030 2f c1 00 3e 7d a6 ee 3d 3b 1f bb 3d be df c8 3d
       0.12573694 0.11652849 0.09136816 0.098083004
000040 42 ce 49 3e c1 c1 e3 bc 1f 74 5e 3c 18 32 89 be
       0.19707587 -0.02780235 0.01357749 -0.2679603
000050 64 6d 2b 3d 1b 2e 83 3d 9c bc b5 3c db a6 24 3e
       0.04185237 0.06405278 0.022184663 0.16079275
000060 05 11 26 3d 8c 41 c1 3b 66 5d 8a 3b f3 31 4c bc
       0.040543575 0.0058977064 0.0042225597 -0.012463081
000070 35 31 c8 bc 1c 75 c0 3d e4 0d aa 3e 48 ac ed bb
       -0.024437526 0.09397337 0.33213723 -0.0072532035
000080 be 5a cf 3a 28 9f f7 bc 34 fc 57 be e7 a5 2d be
       0.001581989 -0.030227259 -0.21092302 -0.16957818
000090 7f 98 33 3e 33 d8 8c 3e 40 82 9e bd 5c a1 f2 bd
       0.17538641 0.27508697 -0.07739687 -0.11847183
0000a0 a2 29 1c 3d 4b af 64 bd ca 06 7a bd 78 9d 0b 3e
       0.03812564 -0.055831235 -0.06104163 0.13634288
0000b0 03 c1 a0 3e 93 c5 d7 3e 6a 2c 25 3e 60 8f c9 bc
       0.31397256 0.42142925 0.16130224 -0.0246045
0000c0 f2 45 84 3c 9c a5 ea 3d 47 1a 95 be 46 2d 09 3e
       0.016146634 0.11457369 -0.2912161 0.13396177
0000d0 52 84 98 be 4b e1 90 be d9 b8 bd bd cd 03 04 3d
       -0.29788452 -0.28296885 -0.092637725 0.032230187
0000e0 37 46 e0 3e 41 82 8e 3b 0b d8 6a bd ec 65 db 3d
       0.4380357 0.0043490236 -0.05733494 0.107127994
0000f0 b0 e9 3c be 93 f1 64 be 7b 29 1f bd 30 62 d6 bd
       -0.1844852 -0.22357778 -0.03885792 -0.104679465
000100 5e 85 2c 3e aa aa 15 be 86 19 10 be f6 c1 2d 3e
       0.1684775 -0.14615884 -0.14072236 0.16968521
000110 c7 a6 82 bd da 95 6e be f1 6d 11 3e 43 ef 43 be
       -0.063794665 -0.23299351 0.14202096 -0.1913424
000120 e1 48 43 3e 7e 20 8b ba d4 20 e0 3d bf ac 4c bd
       0.1907077 -0.0010614542 0.109437615 -0.04996943
000130 60 53 75 bd cb 32 19 bd f3 52 c7 3d 86 95 44 bd
       -0.059893966 -0.037401956 0.09732618 -0.04799416
000140 54 9d 90 bd fa dc 4b 3b b2 b3 cc be aa b6 f1 bd
       -0.07061258 0.0031107054 -0.39980847 -0.118024185
000150 64 23 87 3e 6f b7 2b be b9 c9 a0 3d ff 56 48 3e
       0.26394188 -0.16769193 0.078509755 0.19564436
000160 36 fa c7 3d 2a 5c 12 bc 4f 32 2d 3e df 0f 21 3d
       0.09764521 -0.008933106 0.16913722 0.039321776
000170 2e b7 16 3e bc 0b b0 bd 73 e9 55 3d 09 41 78 3e
       0.14718315 -0.08595988 0.052224588 0.24243559
000180 0c 2a 4f 3e cc 43 f4 3d 56 a9 6d 3e 2d b2 8e 3d
       0.20230883 0.11926994 0.23209128 0.06967578
000190 32 7d a3 be d7 47 69 3e 12 1d c4 3d 5a 5f f3 3d
       -0.31931454 0.22781311 0.09575857 0.11883421
0001a0 3d 7d 69 3d fe 4a bf be 8e 7f d1 3b 9a e9 1e bd
       0.057004202 -0.37361902 0.0063933795 -0.038797
0001b0 2c b3 b6 bd c1 a0 25 3e 6d ab 46 be f3 1e 21 be
       -0.08920893 0.16174604 -0.19401331 -0.15734462
0001c0 f6 b8 d0 3d a9 24 d7 bd 3c d6 5f be 9b 9a 68 be
       0.101915285 -0.10505039 -0.21859068 -0.22715227
0001d0 02 8b 75 be 98 51 89 bc 32 2e 38 be df 00 e9 bd
       -0.23978809 -0.01676254 -0.17986372 -0.11377119
0001e0 c6 bc 04 bc 28 89 d8 bd f4 b9 15 3e 1e 2d 11 3e
       -0.008101648 -0.105730355 0.14621717 0.14177367
0001f0 91 b5 ed 3d 7d 5d 8a 3e 2f 9e 56 be de 8f 14 be
       0.11606897 0.2702445 -0.2095878 -0.14508006
000200 e5 2b d5 3b 94 50 95 be 28 5b 3e bc cf ab 4a bd
       0.006505477 -0.2916304 -0.011618413 -0.049480256
000210 4f ba 0c 3e 17 42 1c 3d c3 cd 16 3e 06 42 ab 3d
       0.13742946 0.038148966 0.1472693 0.08362202
000220 60 66 8a 3d 23 9b ca bd bf 25 e5 be 34 46 8f be
       0.06757808 -0.09892871 -0.4475536 -0.27983248
000230 0a e7 ea 3d e6 50 6d 3e 9d eb e0 bb b1 82 5c 3d
       0.114698485 0.23175392 -0.006864025 0.053835575
000240 b0 7b 83 3e b0 3c 08 bc 08 09 c0 3d 21 b6 1a be
       0.25680304 -0.00831525 0.093767226 -0.15108539
000250 e1 4c 2d 3e 70 9a ca 3b ee 66 9e 3d 34 7d c2 3d
       0.16923858 0.006182961 0.07734476 0.09496537
000260 41 83 7a bd bd 11 91 bd 83 ff 0a be 79 8f 04 bd
       -0.06116033 -0.070834614 -0.13574032 -0.03236339
000270 da 64 90 3b 65 e4 96 3d df 27 ee bd 75 96 b9 3d
       0.0044065537 0.073677815 -0.116286986 0.090619005
000280 03 26 03 bf d6 5c b6 3e 4f f8 62 3e 8d 32 02 3c
       -0.51229876 0.35617703 0.22165035 0.007946623
000290 01 31 bd bc fb 6b b3 bd 80 a3 f4 3d 4d ee 6e be
       -0.023094656 -0.0876083 0.11945248 -0.23333092
0002a0 4b ad b4 bd fa e2 b7 be ba 2c 44 3a b3 e9 5c 3d
       -0.088221155 -0.35915357 0.00074834714 0.05393381
0002b0 70 94 a9 3e cc ea 73 be 83 1d c4 3e d6 ad 8a be
       0.3312106 -0.23820037 0.38303766 -0.2708575
0002c0 3d 34 3a be 2e 6d d0 3c 88 f3 af bd 76 f3 96 3d
       -0.1818399 0.025442686 -0.08591372 0.07370655
0002d0 15 37 13 3e 72 5d 3a 3e db 62 91 3c 94 d4 13 be
       0.14376481 0.18199709 0.017747333 -0.14436561
0002e0 ff 37 16 be 89 f1 6f bd e3 41 93 3e 67 76 43 3d
       -0.14669798 -0.058579955 0.28761205 0.04772034
0002f0 13 4f 3d be fc 9d e3 3d bb a4 eb be 95 3a 87 ba
       -0.18487196 0.111141175 -0.46024117 -0.0010317141
000300 05 7d 80 3c 38 cb 23 be 1b b6 18 3e a9 ce c8 3d
       0.015684614 -0.1599549 0.14913218 0.09805042
000310 22 70 47 be 44 41 ed bb bd 55 97 3d 39 ee b3 be
       -0.19476369 -0.0072404463 0.073894 -0.35142687
000320 29 c1 73 bd 66 9e 85 3d bb 59 78 3e 23 8f 27 3e
       -0.059510384 0.06524353 0.2425298 0.16363196
000330 3e d4 21 be 95 f8 6d 3e c3 4c a7 3e 7f e5 88 3e
       -0.1580362 0.23239358 0.32675752 0.26737592
000340 7d a6 3b bd 1e 03 48 be 90 ef 02 3e 66 3c 1d bd
       -0.045813072 -0.19532439 0.12786698 -0.03838768
000350 28 79 9c bc a2 0e b0 3d 2e a2 43 be d8 cc 29 bd
       -0.01910074 0.08596541 -0.19104835 -0.04145512
000360 5c ac 1a 3d d6 1d 6c 3d cd 02 d4 3e 43 a8 c3 3d
       0.03776203 0.05764564 0.41408387 0.09553578
000370 de 79 f7 bd 2e 37 aa 3c 26 5a a3 bc c1 19 7e 3b
       -0.12083791 0.020778265 -0.019940447 0.0038772675
000380 d3 52 50 be 35 e2 3f 3e 34 fc 21 bd 54 c7 0c bd
       -0.20344095 0.18738635 -0.03954716 -0.03436978
000390 75 ff 4c 3e c8 45 25 bd 21 9c a8 bd ed 67 db 3d
       0.20019324 -0.04034975 -0.08232904 0.10713182
0003a0 16 30 0a 3e 49 20 9c 3d 73 ff a3 3d a5 9f c7 bc
       0.13494906 0.076233454 0.080077074 -0.024368117
0003b0 74 bd 9f 3e bd 0f 58 3b c4 b0 15 be 35 44 22 3e
       0.3119923 0.0032968365 -0.14618212 0.15846331
0003c0 3d bc a9 be 69 49 f6 3e 20 52 01 3e 9d 5f 73 be
       -0.33151427 0.48102883 0.12628984 -0.23766942
0003d0 9d 32 3b 3e ca e3 63 3d b8 8e 8d 3e 00 37 e0 3c
       0.18281026 0.05563716 0.27647948 0.027369976
0003e0 20 0d a7 bd ee 13 3c be 6f 61 0e 3e 74 de 6b 3e
       -0.081568 -0.18366978 0.13904355 0.23034078
0003f0 73 fe 2e 3d 0b 97 1e 3e 5a 82 12 3c 88 4e 1c 3e
       0.04272313 0.15487306 0.008942211 0.15264332

network_body._body_endoder.seq_layers.2.bias f4 [128]
000000 0d 12 ef 3b a6 93 af 3c 0f 05 1a bc 7a 27 af 3b
       0.007295853 0.021432709 -0.00940062 0.005345282
000010 ed b1 5c bc 43 f9 a9 3a 37 f7 69 bb bb 07 42 3b
       -0.013470155 0.0012967963 -0.003570033 0.0029606658
000020 f1 c9 8d 3a b1 bd 21 3b b8 28 90 3c 03 41 0d bc
       0.001081763 0.0024679715 0.017597541 -0.008621457
000030 91 95 59 bc 85 56 a9 bb 26 f5 3f bb aa b2 c0 3b
       -0.013280288 -0.0051677846 -0.0029290407 0.0058806734
000040 97 1a 5c bc b4 ac 7f 3a a8 70 60 3b 7c f4 f3 3c
       -0.013434074 0.0009753213 0.0034246836 0.029779665
000050 32 9e f7 3b e6 c0 16 3c 98 6a 6a 3b 21 25 88 bc
       0.0075567 0.009201264 0.0035769101 -0.016619267
000060 8d 62 a7 3b cb ad fe ba 75 9e e5 3b 41 39 22 ba
       0.0051081837 -0.0019430456 0.007007415 -0.0006188341
000070 b4 a3 79 3b eb e5 d0 ba 65 59 33 bc 2e dd ee bb
       0.003809196 -0.0015937662 -0.010946606 -0.0072895503
000080 bc 70 73 ba a7 e3 52 bc 2d 09 e2 ba e3 da af bb
       -0.0009286513 -0.012871659 -0.0017245166 -0.0053666695
000090 3f 95 92 bb 59 b0 84 bb 1a b4 92 bb aa 0c 1d bc
       -0.004473358 -0.0040493426 -0.004477036 -0.009585539
0000a0 89 d9 9b 3b 1d 68 80 bc ae ac 21 3c b7 39 f4 bb
       0.004756157 -0.015674645 0.00986783 -0.007453169
0000b0 b3 09 a7 bb ed 5e 0e bc 44 b1 53 3c c2 39 01 bc
       -0.005097592 -0.008689624 0.012920681 -0.007887306
0000c0 2d 33 16 bc d8 10 17 3b 5d eb 39 3b 52 56 20 3c
       -0.009167475 0.002305081 0.0028369047 0.009786205
0000d0 5b 2a b7 3b 11 a9 89 3b b2 ee 6d bc fb 9e 95 bc
       0.005589766 0.0042010625 -0.014522241 -0.018264284
0000e0 7f e2 ee 3b 80 58 e9 3b ed 26 03 3c 68 86 d8 3b
       0.007290184 0.0071211457 0.008004886 0.0066078193
0000f0 31 cd 47 3c 26 91 49 bc f4 7b 1c bc 0d a0 0a bc
       0.012194918 -0.0123026725 -0.009551037 -0.008461011
000100 08 32 a9 3b 68 74 82 3c 0e 5d 2f 3c 47 d5 43 39
       0.005163435 0.015924647 0.010703338 0.00018676101
000110 48 26 d9 ba c1 ae b1 bb b4 02 a3 3c 8b 58 89 3b
       -0.0016567195 -0.0054224436 0.01989875 0.0041914633
000120 22 92 09 bb da f3 b5 3a 44 6e 60 3c 5a b7 37 3b
       -0.0020991643 0.0013881878 0.013698164 0.002803287
000130 d4 57 42 3c 63 16 f6 bb 6c de 01 bb 2e 4b 8a bb
       0.01186176 -0.007509993 -0.0019816412 -0.004220388
000140 24 c4 f1 bb c3 e5 f7 3a ee d3 6e bc 20 15 9f bb
       -0.007378118 0.0018913079 -0.014576895 -0.004854813
000150 a5 1c 6c bb ea 01 b4 3b 90 aa 12 3c c1 db b8 bb
       -0.0036027816 0.0054933922 0.008951798 -0.005641431
000160 d4 96 02 bc b6 71 94 3a 87 74 15 bc da 05 38 3c
       -0.007970531 0.0011325392 -0.009122021 0.011231864
000170 3f 06 0c bc df dd 91 bc 67 2b 46 3c da 0f 0f bb
       -0.008546411 -0.017805992 0.012095309 -0.0021829517
000180 8f 68 83 ba 80 dc 4d 3b cc 4f a9 bb bf 3b af 3a
       -0.0010025668 0.0031411946 -0.005166983 0.0013369246
000190 21 53 bd 3c e1 24 14 bb bc d9 5a 3c 42 c3 57 ba
       0.023110928 -0.002260499 0.013357576 -0.0008230695
0001a0 de b6 9d bb 97 fc cd 3c e0 19 4c bb c6 88 53 bc
       -0.0048130592 0.025144858 -0.0031143352 -0.012911027
0001b0 a9 00 c7 bb 20 e0 fe bb 45 96 cb 3b 28 2c 9b 3b
       -0.0060730767 -0.0077781826 0.006212982 0.0047354884
0001c0 b8 73 f1 ba e2 3e d2 3a 9f 23 53 3b e0 df 33 bc
       -0.0018421328 0.0016040469 0.0032217277 -0.010978669
0001d0 ae e6 f9 3b da a1 35 bc 29 e3 0a b8 a8 1a 1e 3c
       0.007626376 -0.011085952 -3.3113323e-05 0.00964991
0001e0 26 d2 ad bb 25 50 99 3c 1d e0 eb 3b 9a de 88 bc
       -0.0053045927 0.018714974 0.0071983472 -0.016707707
0001f0 e4 5d 08 bb da b4 ca 3b 67 7a d0 bb d0 36 59 bc
       -0.0020807916 0.00618611 -0.0063622477 -0.013257697

network_body._body_endoder.seq_layers.2.weight f4 [128, 128]
000000 d3 68 53 3d c8 65 24 3d a1 d2 a0 bd 9a 64 04 bd
       0.05161364 0.04013613 -0.07852674 -0.032322504
000010 c1 0c fa 3c 9b c4 04 3d e0 a4 c5 3d 49 72 0c bd
       0.03052366 0.03241406 0.09650588 -0.03428868
000020 3c e9 52 3d a6 96 08 be 7a 92 c4 bc 3a 35 ba bd
       0.05149196 -0.13338718 -0.023995627 -0.090921834
000030 bf 93 7b be f7 9c 71 3d 67 4b b7 3c 83 2e 73 3d
       -0.2456808 0.058987584 0.022374822 0.05937053
000040 ad 77 c8 bd 77 a7 15 3e 82 07 65 bd db 1a f9 3d
       -0.09788451 0.14614664 -0.055915363 0.121633254
000050 fe a2 92 bd 6a 3d 8e 3d 3f a0 5c bd 34 d6 cb bd
       -0.071599945 0.069453076 -0.05386376 -0.099529654
000060 1a a9 93 bc 72 df 7b bd 25 37 14 bd 41 25 ce 3c
       -0.01802497 -0.06149239 -0.036185402 0.025164248
000070 51 90 c1 bd 4a 61 b5 3d 74 a2 c3 3c e1 c2 5a bd
       -0.09451354 0.08856447 0.023881175 -0.053408507
000080 1c ec c2 bd b9 22 77 3e ca 4e f7 3d b8 9c 17 3e
       -0.095176905 0.2413434 0.12075575 0.14805877
000090 20 97 8b 3d 58 65 70 3d 2d 83 06 be 30 57 03 3e
       0.06815934 0.0586904 -0.13135977 0.12826228
0000a0 cb 5d 6d be 33 0d 9f bd 70 1c b5 bd c5 d5 10 b9
       -0.2318031 -0.077661894 -0.08843315 -0.00013812546
0000b0 0e c3 37 bd 43 2e f8 3c a2 37 3f 3e 77 92 ac 3d
       -0.044863753 0.030295497 0.18673566 0.084263735
0000c0 12 88 12 3e 3f 9c db bc 8b 52 a8 3d 09 7a d2 3d
       0.14309719 -0.026807902 0.08218869 0.102771826
0000d0 d6 17 5a 3d e9 53 0d bd a0 b6 85 3d 03 38 1d 3d
       0.053245388 -0.03450385 0.065289736 0.038383495
0000e0 36 d5 05 3d c5 06 b9 bd 26 7f ca bd d6 6c d9 3c
       0.032674037 -0.09034494 -0.09887533 0.026541155
0000f0 3e 96 07 be 21 3b dd 3d 48 a5 43 3d 78 26 a5 bb
       -0.13240907 0.108022936 0.047765046 -0.005039986
000100 b5 85 a6 bc e2 de a0 bd e3 44 7f bd 62 65 d6 bd
       -0.020327428 -0.078550115 -0.062321555 -0.10468556
000110 de 80 e7 3d d4 29 8d bd dc 53 22 3e f0 db 05 be
       0.11303876 -0.06892744 0.15852302 -0.13072181
000120 81 fb a6 bd 03 2e c9 bd 64 d2 c9 bd 29 20 d4 3c
       -0.08153439 -0.09823229 -0.09854582 0.025894241
000130 d6 ee dd 3d 8d be 89 bd ba a1 95 bd 34 b0 7d bd
       0.1083657 -0.06725798 -0.073062375 -0.06193562
000140 30 b1 8e bc d2 39 a7 3c 5b 79 26 be 4b f3 0f bd
       -0.017418474 0.020413313 -0.16257231 -0.03514413
000150 4e 56 74 bd 2d 57 8c 3d bd 51 9b 3d 0b 5e 78 bd
       -0.05965262 0.06852565 0.0758395 -0.06063656
000160 b3 1c 0c 3e 2c 8a e1 bc 40 f9 91 bd ad 8b 88 3c
       0.13682823 -0.027531706 -0.07127619 0.016668165
000170 62 c1 3b bd 0a 41 c1 3d 5f 50 c9 bd 5c 98 9d 3d
       -0.04583872 0.09436233 -0.09829783 0.07695076
000180 6f c9 8a bd 62 f2 ce bc aa 9e 99 3d f8 8b cf 3d
       -0.06776702 -0.025262062 0.07500966 0.10134119
000190 db 74 74 3d c8 3d 7f 3c 7e 4b ee 3d f0 c5 fe 3d
       0.059681755 0.015578695 0.11635493 0.12440097
0001a0 32 f7 5b 3e 0c 69 69 3c f8 75 12 3c 78 b7 d9 bd
       0.21481016 0.0142462365 0.008939259 -0.10630697
0001b0 a5 7d 98 bc 48 a4 d9 3c 22 57 2e be 60 56 00 3c
       -0.0186146 0.026567593 -0.17025426 0.007833093
0001c0 8c e7 ae 3c 5c 26 a8 bd 1e 5f 3b bd 35 5e 35 3c
       0.021350645 -0.082104415 -0.045745008 0.011069824
0001d0 c4 f3 ba 3d 97 3d e9 bc b0 a4 f2 3d e0 3f 32 be
       0.09128526 -0.028471751 0.11847818 -0.17407179
0001e0 fb db e4 3d ad 3f c1 bd f0 f7 a5 3d 2c 27 3e 3c
       0.111747704 -0.09435973 0.08103931 0.011606019
0001f0 71 f1 c8 bc fa 51 80 3d 30 df 9b bd ba 27 06 3d
       -0.02452919 0.06265636 -0.07610929 0.03275273
000200 7d 22 06 3d f0 13 1a 3e 78 15 64 bc af 34 98 bd
       0.032747734 0.15046668 -0.013921134 -0.074319236
000210 56 6b ae 3c 12 78 f0 bc 3c ec 8e 39 89 38 5f be
       0.021291416 -0.029354129 0.0002726036 -0.2179891
000220 28 b1 18 be 94 9f 0b bd 07 35 fe bc 40 2a a3 3b
       -0.1491133 -0.034087732 -0.031031145 0.004979402
000230 60 22 1e bd 7e 73 8d bc 70 50 65 3a dd e5 b2 bd
       -0.038607 -0.017266985 0.0008747643 -0.08735249
000240 15 bc 47 3c 5e df c7 3c b7 af 87 3d 9e e6 0a be
       0.012190838 0.024398502 0.06625312 -0.13564536
000250 d0 e5 0a be 27 94 40 3d f1 ce ee 3a ea ed 6e bd
       -0.13564229 0.04701629 0.0018219632 -0.05833236
000260 6b 86 32 bd 2b 1a 6c bd de c2 5d bd db fb 1b 3e
       -0.043585222 -0.057642143 -0.054140918 0.15232794
000270 9c cf 90 bd 78 89 64 bd 9e b7 a0 3c 68 83 05 3d
       -0.07070848 -0.055795163 0.019618805 0.032596022
000280 27 10 97 bb 00 e0 3b bd ef 4f 60 3d db 36 ff bd
       -0.00461008 -0.04586792 0.05476373 -0.12461635
000290 fd 2d d2 3b cf b4 39 3e 4a 8f e0 bd 60 50 c0 bd
       0.0064141736 0.18135379 -0.1096483 -0.0939033
0002a0 4d f8 3e 3e 63 c9 28 3d b2 e8 7d bd 01 b1 a5 bd
       0.18649407 0.041207682 -0.061989494 -0.080904014
0002b0 e1 a0 20 3d 48 67 f0 bc e0 a2 dd bd a6 76 84 3d
       0.039215926 -0.029346123 -0.108220816 0.06467943
0002c0 04 3e 8a bc 11 83 86 bd 1b 98 36 3e 9e 18 3b 3d
       -0.016875274 -0.06567968 0.17831461 0.045677774
0002d0 a1 77 67 3d 4d 71 bc 3d b2 34 1e bd 81 7f d0 3c
       0.05651057 0.09201298 -0.038624473 0.025451424
0002e0 aa 0a 4f bc 06 92 c3 bd a6 4f dc bb bc c7 3f bc
       -0.01263682 -0.09549336 -0.006723362 -0.011705335
0002f0 57 f2 17 be ae eb 8f bd e8 6f 40 be 8e 94 38 bd
       -0.14838539 -0.07027374 -0.18792689 -0.045063548
000300 6a 72 35 bd 8c 3e 0a be f5 02 9a 3d 36 75 0c bd
       -0.044298567 -0.13500422 0.07520095 -0.03429147
000310 72 67 44 3d 79 85 8e bc e6 ff e9 3d 38 27 b0 3c
       0.047950216 -0.01739763 0.11425762 0.021503076
000320 ea 5b 70 bd cc 89 cf 3d 4f ca 37 be 53 3e 01 bd
       -0.058681406 0.101337045 -0.17948268 -0.031553578
000330 8d b6 79 3d b7 61 3a bb 16 45 84 bd 98 da 21 3d
       0.06096511 -0.002843959 -0.064584896 0.039515108
000340 2d 67 d3 3d 51 d7 86 bd 6e fa 0e bd b3 fb d8 bc
       0.103224136 -0.06584037 -0.034906797 -0.026487207
000350 a8 77 3b 3d c1 21 ea bd 9e 6f 8d bc 19 f2 bb 3d
       0.04576841 -0.11432219 -0.017265137 0.09177036
000360 c2 8f 5c 3d 2a 75 e9 3c 99 18 a0 bb ec ff 1e bd
       0.053848036 0.028498251 -0.004885745 -0.038818285
000370 57 bd 71 bd ea 93 72 3d 7b be bf bc 70 ac 3b bd
       -0.05901846 0.059223093 -0.023406258 -0.045818746
000380 4e 8a 28 3d 5d 75 57 bd 33 1c aa bc ea c4 9b 3c
       0.041147523 -0.05260216 -0.0207654 0.019014794
000390 77 d8 5d bd e1 d9 cd 3d 31 4e c8 3c d7 84 21 bd
       -0.054161515 0.10051323 0.024451347 -0.039433327
0003a0 cc dd 2f bd 9c b7 a2 3d 51 29 66 3d 98 df 1e be
       -0.04293613 0.07945177 0.056191746 -0.15514982
0003b0 74 f7 85 bd 64 13 b6 3d cd 10 71 3d fe 60 20 be
       -0.065413386 0.08890417 0.058853913 -0.15662
0003c0 7c 7c f1 3d a6 83 7e bd d4 35 50 bd 90 1b 8b bd
       0.11791322 -0.06213727 -0.050832585 -0.067923665
0003d0 19 d1 0f be 85 97 a6 bd 5d b1 12 ba 38 8b 53 3e
       -0.14044608 -0.08134369 -0.0005595887 0.20658576
0003e0 91 5d 8f 3c 8e 17 a9 3b 82 bf 77 3d f9 14 b7 3d
       0.01750067 0.0051602786 0.06048537 0.08939547
0003f0 25 e1 9e 3c 79 31 2c be 2c 0b 15 3e 55 a5 64 bc
       0.019394467 -0.16815747 0.14555043 -0.013955434
