Brains/FoodAgent4.onnx (onnx, 80285 bytes, 14 tensors)

action_model._continuous_distribution.log_sigma f4 [1, 3]
000000 c6 84 97 bf 40 17 93 bf f4 29 8f bf
       -1.1837394 -1.149147 -1.1184678

action_model._continuous_distribution.mu.bias f4 [3]
000000 24 03 36 bc c0 3c 70 bc 30 a3 e5 ba
       -0.011109147 -0.014662921 -0.0017519947

action_model._continuous_distribution.mu.weight f4 [3, 128]
000000 36 6d 47 3b b3 cc 18 3c 2d 59 c7 3a 85 f6 eb ba
       0.0030430085 0.009326148 0.0015209072 -0.0018002546
000010 2e 4e 85 bc 81 bb 76 3c b8 d6 ae b9 3b 84 bb bb
       -0.01627263 0.015059353 -0.00033347844 -0.00572255
000020 c4 2a a1 3b 0f 05 9d bb 52 71 a3 3c 44 41 80 3c
       0.004918428 -0.004791863 0.019951496 0.015656121
000030 37 87 ac 3a 4b 9e 1c bb 18 00 ec 3a 54 c2 a0 3a
       0.0013162856 -0.002389806 0.0018005399 0.0012264946
000040 fe fd 0d 3c 7c 69 73 3c 7e 0a a4 b8 c7 ee 00 3a
       0.0086665135 0.014856692 -7.822084e-05 0.0004918393
000050 52 f7 5c bb 70 c2 dc b9 ba 2d 79 ba 44 25 40 bb
       -0.003371675 -0.00042106537 -0.000950541 -0.0029319087
000060 c6 3e 2a 39 a8 d3 3d bb 0c 2e 04 3c 78 d1 ca 3b
       0.00016235848 -0.0028965268 0.008067619 0.0061895214
000070 a8 94 62 bc e5 69 15 bc d6 0a 3d ba 2a f0 0c ba
       -0.013829388 -0.0091194855 -0.00072113925 -0.00053763634
000080 a9 a3 f5 ba 1c 00 b2 bb 17 d8 fd 3b 13 1b da 3b
       -0.0018740791 -0.005432142 0.007746707 0.0066560595
000090 94 cf 98 3b 76 2c 0f 3d 6c a6 33 3a cc dd cd bb
       0.004663417 0.03495451 0.0006853107 -0.0062825438
0000a0 28 e5 0d 3c ed ec a7 ba 2a 1b 99 bc 70 fe d3 3b
       0.008660592 -0.0012811698 -0.01868971 0.0064695403
0000b0 2f 9d 5b bb 04 45 8b 3b 2d 16 3a 3b 32 e1 99 3b
       -0.0033510437 0.0042501707 0.0028394565 0.004696035
0000c0 40 fb 3c bc bc c6 4f 3b 77 29 02 3c ab 1f 53 bb
       -0.011534512 0.0031704148 0.007944456 -0.003221492
0000d0 aa fc 0e bc 16 9d 77 b9 e8 d9 0c bc cf 01 79 3b
       -0.008727232 -0.00023614275 -0.008596875 0.0037995463
0000e0 0c 00 36 3c 17 18 a3 3a d0 f0 49 bc f2 f3 6a 3c
       0.01110841 0.0012443092 -0.012325481 0.014340388
0000f0 46 44 1c bc 31 26 33 3a f8 8a cc bc a4 e5 a8 3b
       -0.009537762 0.0006833999 -0.02496861 0.0051543284
000100 75 32 02 bc de 59 a9 bb f1 e1 dd 3a 21 ad c9 bc
       -0.0079466 -0.0051681837 0.0016928298 -0.024618687
000110 03 78 e8 3b ee 42 a2 3c f3 eb b6 bb 23 79 90 3b
       0.0070943846 0.019807305 -0.0055823266 0.004408972
000120 30 68 ae bb 1e 71 97 3c cc e7 05 b9 d7 2f 96 3b
       -0.0053224787 0.018486556 -0.0001277022 0.0045833397
000130 fd a0 74 ba 83 d3 e3 38 c9 97 4a ba 2e 46 9b 3a
       -0.00093318505 0.000108636006 -0.0007728306 0.0011846477
000140 d0 46 6b 3b 8a dc d2 3b bb ec 32 3b f4 e2 96 ba
       0.0035900362 0.0064349817 0.0027301747 -0.0011511729
000150 58 e4 b5 ba 4b 23 e8 ba 44 aa a9 bb a0 5f 84 bc
       -0.0013877256 -0.0017710713 -0.005177768 -0.016158879
000160 7e b4 fa bb 21 27 98 bc cc 04 c3 ba 5d 77 8b bb
       -0.007650911 -0.018573346 -0.0014878749 -0.0042561726
000170 d8 b9 b1 bb cb e6 c8 bb b9 60 47 bb 13 eb a9 ba
       -0.0054237656 -0.0061310283 -0.0030422641 -0.0012963734
000180 c5 14 2f bc b8 98 d4 ba e1 bd 5f bc 37 be e6 ba
       -0.010686104 -0.001621983 -0.0136561105 -0.0017604296
000190 6d fe 16 bc 22 e2 27 bb e3 37 f6 3a f3 7e 42 bc
       -0.009215933 -0.0025616963 0.0018784966 -0.011871087
0001a0 46 a7 3c 39 e1 52 75 3c fa cd 91 b9 53 90 cb bb
       0.00017991391 0.014973373 -0.0002781002 -0.006212273
0001b0 d1 6c 31 bc d1 ed 9c 3b 49 69 d3 3b cd 8a 5a 3a
       -0.0108291665 0.004789092 0.00645176 0.0008336723
0001c0 4a 86 b1 3b d4 30 90 3c dc 0b fd 3b b4 b8 b0 3a
       0.00541762 0.017601408 0.007722361 0.001348278
0001d0 b0 59 a0 b9 ef 35 09 bc 8d 8a 43 bc db e8 1c bc
       -0.000305844 -0.008374675 -0.011934889 -0.009577001
0001e0 14 8f 35 bb 11 e6 df bb 67 4e 11 3c 8b 09 9e bb
       -0.002770369 -0.006832846 0.00886879 -0.004822915
0001f0 ee c6 be 3c 25 0c 4c 3a 5c 59 6f 3c fb 58 d6 bb
       0.023288216 0.0007783792 0.014608707 -0.006541369
000200 ee 54 43 bb c0 ee 91 3b f5 6a 90 bb c1 ca 65 ba
       -0.002980526 0.00445351 -0.0044072815 -0.00087658694
000210 91 c6 bb ba be 33 8b 3c de 61 77 3a 44 a4 5c bc
       -0.0014326145 0.016992446 0.00094368856 -0.013466898
000220 44 8c 96 3c 4c 2d d0 3a 7b 84 80 bc 18 a5 90 3c
       0.01837743 0.001588264 -0.015688172 0.017656848
000230 65 23 29 bc 35 1b da b9 8f f1 83 bb ff 44 d5 bb
       -0.01032338 -0.0004160047 -0.0040265988 -0.006508469
000240 bf 57 54 3b b1 a3 f9 3c de bc f3 3b 6d 58 b8 3b
       0.0032400934 0.030473562 0.007438286 0.0056257755
000250 82 1d a4 3c 95 9e a9 3b 53 bb 14 bc 94 34 8e 3b
       0.020033602 0.005176375 -0.009077865 0.004339764
000260 0a ef 6e 3c d5 b4 26 3b b4 40 d8 3b fe 77 6f 3b
       0.014583359 0.0025437374 0.00659951 0.0036540027
000270 85 76 41 3c c5 06 9d ba f9 d0 ab 3a 45 67 d9 38
       0.011808042 -0.0011980167 0.0013108543 0.00010366602
000280 53 10 b0 b7 48 44 95 3a a7 f5 47 3c 89 44 6a 3a
       -2.0988437e-05 0.0011388147 0.012204564 0.0008936604
000290 bb 6d 29 bc 4c d1 cd 3a 4a 54 4f bc 3e f5 c8 b9
       -0.010341103 0.0015702634 -0.012654373 -0.00038329692
0002a0 1d 47 a2 3a a4 a2 b3 bb b7 b9 42 bb 60 8e 86 bb
       0.0012380813 -0.0054820348 -0.0029712745 -0.004106328
0002b0 a8 67 33 bc a7 5a d3 39 64 03 33 3c 56 3f 2c 3c
       -0.010950007 0.00040312597 0.010926101 0.010513147
0002c0 f2 34 12 bc b8 a5 75 bb 25 95 63 3b d7 72 1a 3c
       -0.008923756 -0.003748281 0.0034726348 0.009426794
0002d0 bb 49 29 38 d5 fb 29 3b a1 2f ae 3b 90 a1 3d bc
       4.0361407e-05 0.0025937457 0.0053157364 -0.011574164
0002e0 00 69 cb 3c 9c 8a 36 ba b1 f3 a8 bc b3 4a 90 bc
       0.024830341 -0.00069634034 -0.020624014 -0.017613744
0002f0 a3 ab 51 3c 3e 3e 24 bb 4a db 8c bc e1 a5 60 bb
       0.012797269 -0.0025061513 -0.017194409 -0.003427856
000300 40 7e 3a bc ac ba 83 3c ff 45 0a bc ec 93 6a 3c
       -0.011382639 0.016080223 -0.00843954 0.014317494
000310 4c 23 19 3c 35 d7 7a 3c 18 2a 3d 3c af da 33 3b
       0.009346794 0.015310098 0.01154568 0.0027443578
000320 c6 2d 4a 3b 38 2a f2 3c 62 44 ba 3b 25 c2 c2 ba
       0.0030850037 0.029561147 0.0056844214 -0.0014858885
000330 8c 2e b6 3b 53 6a 3b 3b 34 86 c1 bb 31 d6 f5 ba
       0.005559748 0.002859731 -0.005905891 -0.0018755851
000340 ea 63 20 3b ea eb 6a bb 7e 67 be 3c b9 86 49 3c
       0.0024473616 -0.0035846182 0.023242708 0.012300187
000350 d1 73 2e bb d2 70 ed 3b f2 5f 23 3c fc 84 6e 3b
       -0.0026619325 0.0072461152 0.009971606 0.0036395183
000360 24 5d cb bb b4 55 a1 3c f3 da de 3a 2a 32 16 bb
       -0.0062061716 0.019694187 0.0017002508 -0.0022918084
000370 a9 c2 56 3c 54 7f c2 3b e0 2a 93 3b 75 54 42 3c
       0.013107934 0.005935589 0.004491195 0.011860956
000380 c0 e9 09 bc c3 32 fe 3a 61 fc 80 3c 18 e7 6a 3c
       -0.008417547 0.001939379 0.015745344 0.014337324
000390 7f bc c4 3b d2 a1 9f ba fe f4 a1 3b 42 cb 7d bb
       0.006003916 -0.0012178964 0.0049425354 -0.0038725887
0003a0 f4 f0 53 bc 13 23 eb bc d2 9f 55 3c f4 88 5b bb
       -0.012935866 -0.028703248 0.013038592 -0.0033498378
0003b0 23 d4 97 3b 5b f8 46 bb 4b 60 60 39 f1 0e de 3b
       0.004633443 -0.0030360434 0.00021398177 0.0067766835
0003c0 1d 54 de bb a5 3b ad 3c 8c b3 1f bb b6 d9 2d bb
       -0.0067849294 0.021146605 -0.0024368493 -0.002652747
0003d0 1a 25 7a ba 2a a0 4a bb b3 93 0f 3c c5 50 4a 3c
       -0.0009542272 -0.003091822 0.008763242 0.0123483585
0003e0 53 98 1f ba 97 38 c2 3a 49 f9 b2 bb 29 62 5a b9
       -0.0006088067 0.001481789 -0.005461846 -0.00020826668
0003f0 f1 09 2d 3c 5d a3 de 3c 58 2e 49 3b ef 8b 81 3c
       0.010561452 0.027177507 0.003069779 0.015813796

action_model._discrete_distribution.branches.0.bias f4 [3]
000000 44 39 e5 bc 58 e1 30 bd 6c 5a ad 3d
       -0.027981408 -0.043183655 0.08464512

action_model._discrete_distribution.branches.0.weight f4 [3, 128]
000000 78 a2 4d bd ff e8 2d 3c 4e b2 29 3c fc 6f 97 3d
       -0.05020377 0.010614633 0.010357453 0.07394406
000010 2d 14 09 bd 90 69 fe 3b e1 51 37 bd b6 e8 a7 38
       -0.033466507 0.007764049 -0.04475582 8.006526e-05
000020 ec 9b 0f 3e 5a 6e 93 bd 22 ce f5 bc d7 25 9e bb
       0.14024323 -0.07198782 -0.030005518 -0.004826288
000030 35 44 8a bc 3d e8 70 bd 68 02 36 3d d9 4c 05 bc
       -0.016878227 -0.05881523 0.04443589 -0.008135998
000040 e6 f6 c7 3b ae 5f 54 3b 77 4c 2d 3a a7 8a db 3c
       0.0061024306 0.0032405662 0.00066108204 0.026799513
000050 10 c7 87 bd e4 5b 63 bb 89 e7 e2 3d 4a 40 f1 3c
       -0.06629765 -0.0034692222 0.11079318 0.0294496
000060 84 c3 20 bd e7 9f 81 3c 28 b2 d7 bd 40 d7 cc 3c
       -0.03924896 0.015823318 -0.105320275 0.025004983
000070 d8 83 04 bd 1a aa ca bb a3 0e 05 3d 49 4a c9 3c
       -0.0323523 -0.0061848285 0.03248466 0.024571555
000080 0a ba c3 3c 70 1c 88 bd ab b9 93 bc 3e 72 db bc
       0.023892421 -0.06646049 -0.01803287 -0.026787873
000090 e7 20 32 3d 1b 48 e6 3d 8b 78 a9 bd ee 96 7c bd
       0.04348841 0.11244222 -0.08274945 -0.061667375
0000a0 1f 86 bd 3d d7 e2 47 ba 43 57 2c bd 7f 53 d4 bc
       0.09254097 -0.00076250493 -0.042075407 -0.02591872
0000b0 4e e4 62 bd fa 3b a5 3c a5 50 18 bd b6 ae ec bc
       -0.05539351 0.0201702 -0.037186284 -0.028891902
0000c0 95 9e 2c bc 14 54 29 3d c2 d8 ea bb 94 e0 85 bd
       -0.010535856 0.04133995 -0.007166953 -0.065369755
0000d0 fc 95 a1 3c db 27 71 bc 70 31 cd bc 8f e0 87 3c
       0.019724838 -0.014718975 -0.025047988 0.01658657
0000e0 0c b2 b9 3c e6 d4 0a bd 50 9b c9 b7 53 88 4f 3a
       0.022667907 -0.033894442 -2.403339e-05 0.0007916737
0000f0 55 21 1a 3d 59 0a 1c 3c ed c4 83 bd 01 87 2f bd
       0.037629444 0.009523951 -0.06434045 -0.04285336
000100 bf 4f 22 b8 d8 89 18 bd 4b ca 17 bd 75 b7 99 3c
       -3.869808e-05 -0.037240833 -0.037058156 0.018764237
000110 da d7 db bc d0 8c 20 3e 88 22 9e 3c 21 bb ad 3c
       -0.026836324 0.15678716 0.019303575 0.021207394
000120 17 1a d2 b9 ba 35 1d 3c cb 0e 45 bd 79 60 72 3c
       -0.0004007376 0.009595329 -0.04810981 0.014793509
000130 6a 25 2c 3c 90 a8 d9 3c 72 88 5a bd e6 38 62 bd
       0.010506967 0.026569635 -0.05335278 -0.055230044
000140 4b 30 67 bd f3 0e bc bc ae f3 7e bc c6 54 6a 3b
       -0.05644254 -0.022956347 -0.015561027 0.0035756095
000150 42 2c 30 bd ac 27 34 3d 34 fe 3f 3d 9c ba 7a 3d
       -0.043010958 0.043983147 0.046873286 0.06121312
000160 40 79 3f 3d 06 ce 61 3c ac 59 31 3c 92 fd 55 3c
       0.046746492 0.01378203 0.010824602 0.013060944
000170 ec a5 bd 3c 71 0b ad bd 4b 6e ea bc ec f4 e4 bc
       0.023150407 -0.08449448 -0.028617045 -0.02794882
000180 5d b1 85 bc 89 4f cf 3b 58 af 91 3c b3 1e 66 3d
       -0.016319925 0.00632662 0.017783806 0.05618162
000190 b9 5d 29 3c 9d ce 93 3c 49 69 48 bd b7 b5 70 3d
       0.010337287 0.018042857 -0.048928533 0.058767047
0001a0 85 ff 2a 3e 59 fb 0a bd f7 52 c1 bc 16 0b ed ba
       0.16699035 -0.03393111 -0.023599131 -0.0018084969
0001b0 96 a4 a9 bb 08 28 d3 39 24 de c7 3d be 89 86 3c
       -0.005177091 0.00040274882 0.09759167 0.016423102
0001c0 d3 27 00 bd f8 64 3b bd d7 dc cf bc 86 4f f5 3a
       -0.03128798 -0.04575059 -0.02537386 0.0018715716
0001d0 d1 cb b0 bc 34 5b a9 bc c7 a5 d7 bc fb d0 8e bd
       -0.021581562 -0.020673372 -0.026324166 -0.069734536
0001e0 d3 fd c0 bd 9e 8f cf 3c 6c 26 60 bd bf 09 0b bc
       -0.09423413 0.025337037 -0.054724142 -0.00848621
0001f0 57 46 31 3c 6e e1 04 3d df 60 0e bd c6 f2 ba bc
       0.010819993 0.03244155 -0.034760352 -0.022820842
000200 56 b7 9b 3d 16 cf 5c 3c 60 25 ac 3d 7d e3 c5 bd
       0.07603328 0.0134771075 0.08405566 -0.096625306
000210 f8 ea cc 3c f5 e4 6c bc 74 08 ed 3b be a1 ad 3d
       0.025014386 -0.0144588845 0.0072336737 0.084781155
000220 09 0e bd 3c 3b b3 52 bd 3b 26 38 3d 52 65 75 3d
       0.023077982 -0.05144046 0.044958334 0.05991108
000230 d3 2a 72 3c 14 78 f8 3c 72 7a af 3d d7 af 50 bc
       0.014780718 0.030330695 0.085682765 -0.012737236
000240 ea 68 3a bd c5 5b 00 3d fd 0a b4 bd 08 9b 48 3d
       -0.04551021 0.03133752 -0.08791158 0.048975974
000250 03 7d 29 3d e5 da 90 bc 47 40 98 3d b7 36 b2 3b
       0.041378986 -0.017682502 0.07434135 0.0054386514
000260 ea 54 03 3e 92 d7 94 bd ce e8 ec 3d 5a 3f 92 bd
       0.12825361 -0.07267679 0.115678415 -0.071409896
000270 55 23 af 3d 6d b4 fb bc e9 01 1f bd 78 82 50 3d
       0.08551661 -0.030725682 -0.03882018 0.050905675
000280 ad 52 c5 bc 11 36 03 3e dd e5 6b 3d f6 ad bd 3c
       -0.024087274 0.12813593 0.05759226 0.02315424
000290 28 8e ab bc b5 92 8e bd 99 1c c0 3d 3a 35 31 3e
       -0.020941809 -0.06961576 0.093804546 0.1730546
0002a0 f4 fc 9b bd 0e a8 9c bc 68 f3 96 3d df 7f fe 3d
       -0.07616606 -0.019123103 0.07370645 0.12426733
0002b0 9c 04 81 3d 9c d2 a9 3d fe aa e1 3d 91 ed a1 bd
       0.06299707 0.08292124 0.11018942 -0.0790664
0002c0 8a 9e aa 3d 82 e4 a6 3d 9b 7f 98 3c e9 e6 18 3e
       0.0833102 0.08149053 0.018615535 0.14931835
0002d0 9c 04 d1 bd 42 f4 84 bd dd 40 a7 bd a4 cb 09 3e
       -0.10205957 -0.06491901 -0.081666686 0.13456589
0002e0 1e 97 3d bd 80 9c fe 3d 57 4d c6 3c 35 c0 83 3d
       -0.046286695 0.12432194 0.0242068 0.06433145
0002f0 6a 47 81 bd 64 be b6 3d 9d a6 11 bd 75 76 29 bd
       -0.06312449 0.08923033 -0.035559285 -0.041372735
000300 00 f4 0b 3d ed 33 39 bd 50 86 c2 bd ef 1d 78 3d
       0.034168243 -0.045215536 -0.09498274 0.060575422
000310 4a 46 88 3c 5a 9e 60 be 9f 8f d3 3d cd 71 f0 3c
       0.016635079 -0.21935406 0.10330128 0.02935114
000320 4a c0 f0 3d e0 f9 76 3d fb b6 43 bb c4 1d 89 3c
       0.11755426 0.060296893 -0.0029863704 0.016737826
000330 d0 26 f2 bc 57 54 18 bb 24 30 c9 3d e5 51 28 3b
       -0.029559523 -0.002324363 0.09823635 0.0025683579
000340 06 5c 40 3d 50 4f fc 3c 3e a5 93 3d a0 25 ca bd
       0.04696276 0.030799538 0.07209252 -0.09870458
000350 9a 2c b4 3d ae b7 f8 3c 6a cd d6 bd ef da a2 bd
       0.087975696 0.030361023 -0.104883984 -0.079519145
000360 8f d6 00 bd 2c 5d c5 3d 04 5b c3 bd 6c c8 00 bd
       -0.03145462 0.09636912 -0.09538844 -0.031441137
000370 9c 1c 90 bd 56 68 27 3e b7 1f 0e 3e 51 50 2e 3d
       -0.07036707 0.16348395 0.13879286 0.042557064
000380 ce 7b a6 3c 86 85 7d 3d a3 16 37 3d 3f 32 e7 bd
       0.020322707 0.061894916 0.044699322 -0.112888806
000390 bc 88 36 3d d3 74 fc bc e1 8b 1d 3e d2 07 43 bd
       0.044563994 -0.030817425 0.15385391 -0.04761488
0003a0 15 f9 32 be 71 6d fd 3c 8b be 15 bd 5c 12 b4 bd
       -0.1747783 0.030935975 -0.03655867 -0.08792564
0003b0 38 e2 ad 3d 50 44 9f 3d c3 52 a3 3d b6 a1 d9 bd
       0.084904134 0.077767015 0.0797477 -0.10626547
0003c0 5c 25 94 3d 14 12 56 3d b8 ee c6 3d bc ff 7d 3d
       0.07233688 0.052263334 0.09713501 0.062011465
0003d0 77 c8 87 3d b7 dd 1b bd b5 b6 09 3e 00 04 40 3c
       0.066300325 -0.03805324 0.13448603 0.011719704
0003e0 3b 47 a5 bd 1c f9 21 bd 48 e2 67 3d 21 a0 a2 bd
       -0.08070227 -0.03954421 0.056612283 -0.079406984
0003f0 21 40 5e 3d ce 00 46 bd 75 e6 d1 3d 91 b6 be bd
       0.054260377 -0.04834061 0.10249034 -0.093121655

action_model._discrete_distribution.branches.1.bias f4 [3]
000000 f0 a1 36 3d 73 e8 4d bd df 4b 2e bd
       0.04458803 -0.05027051 -0.042552825

action_model._discrete_distribution.branches.1.weight f4 [3, 128]
000000 62 ec 3e 3b 03 ac 87 bd 2d 4f 8c 39 be 01 a8 3d
       0.0029132594 -0.066246055 0.0002676187 0.08203457
000010 2a 09 31 3d 6b cb 6c 3d 23 20 b4 3c 7f 80 6e 3d
       0.04322163 0.057811182 0.02198798 0.058228012
000020 a3 4c 2f bd 9c 8c 81 3d bf 50 2c 3d d6 4a a4 bd
       -0.042797696 0.06325647 0.042069193 -0.08022086
000030 88 a3 49 3c 61 51 c7 3c df 71 cd 3d f2 89 6d 3d
       0.012307055 0.024330797 0.10031485 0.057992883
000040 02 d4 68 bd 6f 33 b4 bd af 72 ae 3c 3f 28 46 bd
       -0.05684281 -0.08798873 0.02129492 -0.048378225
000050 c3 a8 a1 3c 0f 2e 24 3d 38 fb 39 3e 7a e1 b2 bc
       0.019733792 0.040082987 0.18162239 -0.021836031
000060 59 78 92 3c e3 46 bb 3d 61 1c dd 3c ec 69 5b 3d
       0.017879652 0.0914438 0.026991071 0.05356781
000070 18 69 73 3d bf c8 81 bb 2f 61 aa 3c cd 4d 19 3d
       0.059426397 -0.0039606984 0.020798294 0.037427712
000080 3c 75 17 3d fc 08 fd 3c 7e ed cf bc 82 8d 70 3d
       0.036977038 0.030888073 -0.0253818 0.058728702
000090 b2 c0 eb 3c 84 a4 ad 3d 1a b7 76 be 80 24 d6 bb
       0.028778408 0.084786445 -0.24093285 -0.006535113
0000a0 5a 26 10 be af b2 49 3d a2 8c 30 bd 17 38 cc 3c
       -0.1407713 0.04924267 -0.043102868 0.02492909
0000b0 83 4a c9 bb 9b d7 d5 bc b5 3f 96 3d 7f 55 ac 3d
       -0.0061429157 -0.026103785 0.0733637 0.084147446
0000c0 31 53 29 3d ba a6 cd 3c 8c db b6 3d 6c a4 ed 3b
       0.041339103 0.025103915 0.08928594 0.0072522666
0000d0 9e 14 54 3d 3c d8 21 3d 83 4e eb bc 66 67 21 3d
       0.051777475 0.039512858 -0.02872396 0.03940525
0000e0 8f fd 22 bd 3c 36 35 3d c2 42 ca 3c b7 43 45 3a
       -0.039792594 0.044241175 0.024690036 0.0007525044
0000f0 93 40 1d 3c 4e e0 3b 3d c6 f5 44 3d 6e 6c 87 3d
       0.009597915 0.04586821 0.04808595 0.06612478
000100 bc 2e f1 bb 87 27 2c 3d 22 77 b6 3b fe 6f 9a bd
       -0.0073603075 0.042029884 0.005568401 -0.07540892
000110 86 22 ae 3b 0f 4e 5e 3e 96 d2 c2 bd 3b 7e 72 bd
       0.005314174 0.21709464 -0.09512822 -0.059202414
000120 9e ec 93 3d 54 fe 7f bd 9c 10 53 3d b1 db b1 bc
       0.072228655 -0.062498406 0.05152951 -0.021711202
000130 67 84 7d 3c d8 17 79 3c 37 d9 a9 3c 1d 63 97 3b
       0.015473462 0.015203439 0.020733459 0.0046199695
000140 aa f2 1f 3d 45 e5 07 3d b5 7c 9f 3d ae c9 80 3a
       0.03904978 0.033177633 0.07787458 0.000982573
000150 90 3f e5 3b 79 30 10 be 73 be 84 3d 46 72 59 3d
       0.0069961026 -0.14080991 0.06481638 0.053087495
000160 d3 8d fc 3c cf 11 9c bd 82 03 8b 3c 2c 17 bc 3c
       0.030829346 -0.07620584 0.016969446 0.022960268
000170 a2 63 93 bc d2 21 86 bd 3f a8 9e 3c 60 68 af 3d
       -0.017991845 -0.065494195 0.019367335 0.0856483
000180 16 30 2c bc 2c 34 8d 3d 8a 12 61 bd 39 9b 68 3d
       -0.010509511 0.068947166 -0.05494932 0.056788657
000190 cf df c8 bd 94 e0 27 3d 48 bb 8b 3c 69 2e 32 3e
       -0.09808313 0.04098566 0.017057076 0.17400517
0001a0 bd 0f a8 bd 6a 1f 29 bd 9d e4 02 3d c7 9f 7e 3d
       -0.08206127 -0.041289724 0.031956304 0.062164094
0001b0 4c 04 ac 3c c8 25 9f 3c 23 f6 bc bb 0b 8a 09 3d
       0.020998143 0.019427195 -0.0057666465 0.033578914
0001c0 4a dc 8a bd 94 eb d1 bd 7c 31 14 bc 0d 96 0f 3d
       -0.06780298 -0.10250011 -0.009045001 0.03505521
0001d0 5b c0 99 3c 0f aa 6c 3d 26 27 0a 3e 33 5e 36 3d
       0.01876848 0.057779368 0.13491496 0.04452343
0001e0 a3 e0 76 bc 90 c0 ae 3d 9c 05 25 be a7 b9 89 3c
       -0.015068206 0.08532822 -0.16115421 0.016812159
0001f0 f7 c2 7e bd fa 03 e7 bc 17 04 98 3d d0 31 9c 3d
       -0.06219765 -0.028200138 0.07422655 0.076266885
000200 a3 b2 86 b7 13 9f d9 3c c3 f1 b1 bc 3b 30 8f be
       -1.6057229e-05 0.02656511 -0.021721726 -0.27966484
000210 19 53 b0 bd c1 77 2e 3d 1d 11 42 3d f0 de 48 bc
       -0.086095996 0.042594675 0.0473796 -0.012260184
000220 a4 9a 1f 3e ef 17 5a 3c 7e bf 62 be 4c 0a 9b 3d
       0.15586334 0.01331137 -0.22143361 0.07570323
000230 e5 4c 4a 3d 51 c6 e0 3c ed 52 eb 3c c0 7a 8d bd
       0.04938974 0.027438315 0.028726066 -0.06908178
000240 3b b3 e4 bd a8 8c 37 3e 1e cd 43 3c 98 e1 66 39
       -0.11166998 0.1792475 0.011950759 0.0002201855
000250 6b bd ea 3b 53 7f 94 be 09 bf 95 bd 21 73 41 3d
       0.0071636937 -0.2900339 -0.07311828 0.047228936
000260 96 60 37 be 28 4c f6 bd 4d 13 78 be 99 5e 2d bd
       -0.17907938 -0.120262444 -0.24226113 -0.042326543
000270 bd fb 5e bc 18 a4 66 3c a9 10 61 bd 07 75 b4 3d
       -0.013609824 0.014077209 -0.05494753 0.08811384
000280 03 02 e6 bd 9a f2 66 be 10 1a 3e 3d 25 91 f1 bd
       -0.112308525 -0.22553483 0.046411574 -0.11795262
000290 e0 91 61 be 7b e0 16 bd 51 36 04 3e 20 c8 80 be
       -0.22028303 -0.036835175 0.12911345 -0.25152683
0002a0 99 9b 97 3e b7 87 c4 3c 65 ad b8 bd 64 44 f2 bd
       0.296109 0.023990495 -0.090174474 -0.11829451
0002b0 41 5a f5 bd fd a3 0a 3d 22 61 48 bc 15 ca b7 3b
       -0.11980105 0.033847798 -0.0122301895 0.005608807
0002c0 bf a4 70 be 1c c9 bb 3d 6b cd 70 bd e2 6f 04 be
       -0.23500346 0.09169218 -0.05878965 -0.12933305
0002d0 3e 30 02 3c 1f 7e 43 3c 73 bb 01 be 9d a3 44 3d
       0.007946072 0.011931925 -0.12669162 0.048007596
0002e0 3f 6e c5 3d 11 5e 7f bd 85 25 15 3e e8 3f dd bd
       0.096401684 -0.062345568 0.14565094 -0.10803205
0002f0 ed cf 30 bd d0 1a 90 bd 24 00 16 3d 65 c5 42 bd
       -0.043167043 -0.07036364 0.036621228 -0.04755153
000300 12 95 74 be c9 c0 21 ba a4 95 75 3d 69 3c 94 3d
       -0.23884991 -0.000617039 0.05995716 0.07238085
000310 f4 e7 ae bb 38 29 fc bc 79 47 8a 3d bc a0 6d 3d
       -0.0053377096 -0.030781373 0.067519136 0.058014616
000320 dd 63 8a 3c 2f 77 44 3d 74 7d 72 3d e3 78 05 3e
       0.016893322 0.047965225 0.059201673 0.13034396
000330 cb f4 9a be 95 f6 2d 3d ef 69 98 bd 01 79 6d 3d
       -0.30264887 0.042471487 -0.0744208 0.057976726
000340 4e bb 65 be 05 bf 9d bc 00 6a 02 bd 9d a0 07 3d
       -0.22434732 -0.019256124 -0.03183937 0.033112157
000350 40 e9 d3 b9 63 d7 96 3e ba 13 a0 3c 92 14 21 bc
       -0.0004041884 0.29461202 0.019540656 -0.0098315645
000360 5e 7c ff bc b5 d4 96 3d b4 16 16 bd 16 f6 02 bd
       -0.031187233 0.073647894 -0.036642745 -0.031972967
000370 5e c1 00 3d dd d6 1f 3e e3 a2 a0 be dd 76 06 bd
       0.03143441 0.15609308 -0.31374273 -0.0328282
000380 cc 44 b1 bd 60 5f 8c bc a6 f6 2b 3d 86 a4 c6 bd
       -0.086557 -0.017135322 0.04198327 -0.09699349
000390 d7 6c e6 bc 56 67 17 bd d9 27 82 3d e9 4d 60 be
       -0.02812807 -0.036963783 0.063552566 -0.2190472
0003a0 5b 43 b5 3e 49 f8 c6 3d be f3 35 3c 89 88 78 bd
       0.3540295 0.097153254 0.011105476 -0.060677085
0003b0 78 ab 4a be ab 6e d3 3d d8 6e 0e 3e 4a b3 c2 3c
       -0.19791973 0.103238426 0.13909471 0.023767132
0003c0 03 80 4c 3d 7c ac 25 3e 1f 92 c4 3a 65 86 07 be
       0.04992677 0.16179079 0.0014997161 -0.13234861
0003d0 d8 64 69 bd 01 87 56 bc 63 9c df bd d3 21 98 3c
       -0.056980938 -0.013093711 -0.109185 0.018570816
0003e0 6e 30 67 bc f6 04 b1 bd 52 ab d2 3d 79 32 e9 3b
       -0.014110668 -0.08643524 0.10286583 0.0071166125
0003f0 39 fe 8c 3d 3b c1 6d be de 68 bf bd 21 c9 d5 bd
       0.068844266 -0.23218243 -0.09346174 -0.10438753

action_model._discrete_distribution.branches.2.bias f4 [2]
000000 7f 43 9b bc a7 43 9b 3c
       -0.018953083 0.018953158

action_model._discrete_distribution.branches.2.weight f4 [2, 128]
000000 13 97 2d 3d 7c cf a1 bc 40 06 68 3d 5b 7f 47 bd
       0.042380404 -0.019752257 0.056646585 -0.04870544
000010 84 2e 73 3d 06 8c 9d bc 1d 27 1d bd d0 1d 13 3d
       0.059370533 -0.019231807 -0.03836738 0.035917103
000020 a3 8e 4b 3c 9a cd fb 3c f9 ef 7a 3d 51 08 76 3d
       0.012424144 0.030737687 0.061264012 0.060066525
000030 15 73 7a 3d 4c a9 e6 39 bf c3 26 bd db 7a fa 3b
       0.061144907 0.00043995155 -0.04071402 0.00764404
000040 b3 ba 3b 3e 1a 6d fd 3a 16 13 8a bd 5c 03 21 ba
       0.18332939 0.0019334883 -0.067419216 -0.0006142163
000050 1b c0 88 3d 86 07 be 3b a8 f8 1f be 3a ed 00 bc
       0.06677266 0.0057992367 -0.15622199 -0.007869059
000060 6a e4 9a 3d 95 dc 28 3d fa de fe 3c 07 0b 9c 3c
       0.07563098 0.04122599 0.031112183 0.019048227
000070 f7 95 30 3c c2 f4 8a bc c0 9a 46 bb 06 13 82 3d
       0.010777942 -0.016962413 -0.003030464 0.06351285
000080 84 a0 38 3c f2 9b 91 3c 83 cb e4 3c 37 bd 5f 3d
       0.011268739 0.017774556 0.027929073 0.05462381
000090 10 90 64 3e e1 58 fb bd b5 8f 78 3d d0 a4 79 3d
       0.2232058 -0.12272812 0.060683925 0.060948193
0000a0 74 35 f1 3c 22 9c 35 3c 95 81 0e bd 3a d2 58 3d
       0.029444434 0.011084588 -0.034791548 0.052934863
0000b0 b4 b3 95 3d bd 89 d0 3b 81 0b a1 3c a3 56 f2 3c
       0.07309666 0.006364076 0.019658806 0.029582327
0000c0 18 e6 03 3d 2f 58 12 3c ec 8c a1 3d 79 5e a1 3d
       0.032201856 0.008932157 0.07888207 0.07879347
0000d0 38 a5 73 bb f9 d7 99 bd e6 94 de 3d d0 3f 95 3d
       -0.0037177335 -0.07511897 0.10868244 0.07287562
0000e0 b0 73 04 3c d9 55 21 3d 1a e7 d9 bb 35 32 8d 3d
       0.008084223 0.03938851 -0.006649864 0.06894342
0000f0 c7 01 21 bd 34 ff b3 3d 50 2d ff bc 8d 08 20 3c
       -0.039308336 0.087889105 -0.031149536 0.009767664
000100 8c 5d 72 bc 70 2f 05 be 67 e1 51 bd 79 86 58 3b
       -0.014792811 -0.13006377 -0.05124035 0.0033039136
000110 56 d4 95 3d 49 0d 9d bc f9 17 05 3c 28 8b 1c 3c
       0.073158905 -0.019171374 0.008123391 0.009554662
000120 8c ee 4e 3d 52 21 45 bc 6c 5f 72 bd 73 d9 49 3c
       0.050520465 -0.01203187 -0.059173033 0.01231991
000130 1b 77 45 3c 92 6b 2e bc 69 84 08 3d f2 4f 08 bd
       0.012052323 -0.010645764 0.0333294 -0.033279367
000140 ff af 80 3d fc 51 b4 3c 69 36 e0 3c 0c 93 a0 bd
       0.062835686 0.02201175 0.027369695 -0.07840547
000150 f9 45 27 3d c9 29 b6 3e 6f ba 41 bc 93 6f 6d bd
       0.040838216 0.35578755 -0.011824234 -0.057967734
000160 b6 ed 3c bd 21 9c 0b 3d 3c e9 27 bc a7 fb 4a 3c
       -0.046125136 0.034084443 -0.0102484785 0.0123891
000170 8f 45 e3 bc 69 47 72 bc f1 56 e8 bc f1 00 a2 3b
       -0.027743129 -0.014787533 -0.02836177 0.00494396
000180 62 a5 67 bd 3f b1 11 3d 3a b2 f5 3c 6e 02 1a 3c
       -0.056554206 0.035569426 0.029992212 0.009399993
000190 fe 52 85 3e 90 ba 7d 3c 6d e0 06 3d 65 4a 5c be
       0.2603988 0.0154863745 0.032928873 -0.21512754
0001a0 94 eb 02 3e ff 09 70 3d 5d e4 e7 bd ce e8 1e bc
       0.12785178 0.058603283 -0.11322854 -0.00969906
0001b0 5b 85 cf bc 6f 01 32 3d d9 2d 00 3c 8f ff 5a bd
       -0.025332144 0.0434584 0.007823431 -0.053466376
0001c0 fe b1 d5 bc 71 d3 f5 bc 23 27 4c 3d 27 99 6a 3d
       -0.02608585 -0.03000805 0.04984201 0.057274964
0001d0 15 7d 25 bd 4a d8 fc bc ed 55 fd bd 73 87 ed 3c
       -0.04040249 -0.030864853 -0.12369905 0.028995251
0001e0 a3 88 83 3c e9 2f 62 3d 37 b5 1f 3e ff b0 f6 bc
       0.016056364 0.055221472 0.15596472 -0.030113695
0001f0 1e 72 20 3c 84 bf 2b 3d 88 f5 4f 3d f0 e2 96 ba
       0.009792833 0.04193069 0.050771266 -0.0011511724
000200 d6 6d 17 bd 3e aa 77 bb 87 bb 8e bd 11 ea 52 3d
       -0.036969982 -0.0037790681 -0.06969362 0.051492754
000210 6f 19 88 bd d3 e8 d5 3c 60 2b 51 3d c8 f2 fd bc
       -0.06645476 0.026111996 0.051066756 -0.030999556
000220 51 b8 1f 3a 83 62 96 bc 48 cb 0d bd 35 32 4d bd
       0.0006092834 -0.01835752 -0.034617692 -0.05009671
000230 55 c9 6d bd 95 e4 90 3b af 9d f4 3c 48 12 f7 3b
       -0.058053333 0.0044217804 0.029860346 0.007540021
000240 aa 12 48 be b8 68 49 bc b3 b9 4b 3d 3a c2 ef 39
       -0.1953837 -0.012293033 0.049737643 0.00045730342
000250 e2 8d 90 bd 13 cf ae 3a 78 ef 29 3e 2d e6 1d 3d
       -0.07058312 0.0013336859 0.16595256 0.03854959
000260 c7 ce 97 bd ea 22 2b bd 18 3d 8b bd 1b be 92 bb
       -0.074124865 -0.041781344 -0.06798762 -0.0044782287
000270 86 92 17 bc ba bd bc 3c 39 4d 82 3b 0f 4d 58 bd
       -0.0092512425 0.023039687 0.003976491 -0.052807864
000280 26 b0 8f ba 96 dc 11 bd e0 a0 7e bc 7e 5f 5a bd
       -0.001096253 -0.035610758 -0.015541285 -0.053313725
000290 55 38 5c be 24 ca e9 3d 8c 3a 56 bd 0a 18 69 bd
       -0.21505864 0.114155084 -0.05230193 -0.05690769
0002a0 8d c1 fb bc 56 43 e0 bb 0e f9 38 3d 35 2a 81 bd
       -0.03073194 -0.0068439646 0.045159392 -0.063068785
0002b0 99 80 6b bd eb 70 6f 3a 7e e4 04 bd c7 df 0a bd
       -0.057495687 0.00091339526 -0.03244447 -0.033904817
0002c0 ed dc 09 bd 1a fd 99 bc 92 6f 5b bd 3a 1a 86 bd
       -0.033657957 -0.018797446 -0.0535732 -0.06547971
0002d0 40 a2 12 3b f9 53 92 3d ba c1 c4 bd 0d cc 9a bd
       0.002237454 0.07144923 -0.09607263 -0.07558451
0002e0 42 f1 de bb 8b bc 34 bd 90 ca 91 3b 2c cc 8a bd
       -0.0068036625 -0.04412512 0.004449196 -0.06777224
0002f0 9a f8 5a 3d 35 b5 de bd 76 fb e0 3c cf ca c9 bc
       0.05345974 -0.10874406 0.027463656 -0.02463284
000300 ab 94 95 bb 3a 17 f4 3d 2b f3 0e 3d 5a 62 45 3c
       -0.0045648417 0.119184926 0.03489987 0.012047375
000310 16 54 82 bd 63 85 93 3c 86 b3 23 ba ab 6a 38 bb
       -0.06363694 0.01800794 -0.00062447076 -0.002813975
000320 b6 03 2a bd 68 5a 46 bc c3 96 a7 3d 53 60 2b bc
       -0.041507445 -0.0121065155 0.081830524 -0.010459977
000330 a0 d4 a4 bc 92 f4 ef 3b 51 ea 29 bd 82 a2 08 3d
       -0.020120919 0.007322856 -0.041483227 0.033358105
000340 0d 2c 81 bd 9c 3f e8 bc d3 ec fa bc c7 0f a9 3d
       -0.0630723 -0.028350644 -0.030630505 0.082549624
000350 60 dd f4 bc 9c 0c b6 be c2 c9 5c 3c 27 f0 14 3d
       -0.029890716 -0.35556495 0.013475837 0.03636184
000360 ef d3 5a 3d 8a a8 d6 bc 90 a2 ef 3a e9 eb 9c bc
       0.053424772 -0.026203413 0.00182827 -0.01915546
000370 1d 73 ac 3c d6 1b ab 3c d4 d4 52 3d 81 61 06 3c
       0.021050984 0.020887297 0.0514725 0.008201958
000380 af 75 83 3d 28 ed 0c bd f6 dc 6a bc 69 61 f1 bb
       0.06418931 -0.034405857 -0.014334908 -0.0073663485
000390 c8 a9 71 be 00 5f 4a bc 91 43 4a bd bd cc 58 3e
       -0.23599923 -0.012351751 -0.049380843 0.21171851
0003a0 e3 4e 03 be 6a 19 51 bd cd 35 0e 3e 0f 94 79 bb
       -0.12823062 -0.051049627 0.13887711 -0.0038082635
0003b0 9c 39 b4 3b d4 a6 3e bd 17 7b 90 bb b8 4d 7d 3d
       0.0055000316 -0.04654582 -0.0044092047 0.061841697
0003c0 b3 2a 75 3b 83 48 e0 3c 02 de 5c bd bb e3 73 bd
       0.0037409484 0.027378326 -0.05392266 -0.059543353
0003d0 08 7b c8 3c e6 5d 19 3d f6 75 ff 3d b6 da da bc
       0.024472728 0.037443064 0.12473671 -0.026715618
0003e0 e4 c9 81 bc e3 19 73 bd 1a c5 27 be 4e b2 47 3d
       -0.01584334 -0.05935086 -0.16383782 0.04875403
0003f0 3e 55 a9 bb ef 23 43 bd 20 e0 6a bd 59 07 6a bc
       -0.0051676324 -0.04764169 -0.05734265 -0.014283978

discrete_action_output_shape f4 [1, 3]
000000 00 00 40 40 00 00 40 40 00 00 00 40
       3.0 3.0 2.0

network_body._body_endoder.seq_layers.0.bias f4 [128]
000000 08 b6 63 3d 5c b7 9c bc 34 f0 08 3d a9 5b ae 3c
       0.05559352 -0.019130401 0.0334322 0.021283941
000010 c3 23 04 3e 3d d6 38 3a 0a 16 ca 3d db 78 6b bd
       0.12904267 0.0007050967 0.09867485 -0.057488304
000020 24 8d ae 3c 8a 60 01 bb c2 2f 59 3d 5f 80 ce 3c
       0.021307535 -0.001974138 0.05302406 0.025207696
000030 8f f9 b3 3d 4d af 0e bd 0a 29 03 3d 9b 60 68 3d
       0.08787834 -0.03483515 0.03202156 0.056732755
000040 78 ad 41 3e ac 33 b5 bb a7 8b 37 bc 92 b0 e8 bc
       0.1891383 -0.0055298414 -0.011202729 -0.028404508
000050 41 d5 2a 3e f0 e2 af 3d 87 a6 0e 3c 2e 4f a2 bc
       0.16682912 0.08588207 0.008706695 -0.019813146
000060 73 89 be 3c ae e8 c6 3d 13 8e 77 bc e3 f0 34 3e
       0.0232589 0.09712349 -0.015109557 0.17670016
000070 98 e9 98 3c b7 ff 1b 3e 5e 33 8b 3d 06 b1 53 3e
       0.018666074 0.15234266 0.06796907 0.20672998
000080 77 ba 94 3d c6 2e 5f 3d 49 da 20 3e df c5 cb bc
       0.07262128 0.054487966 0.15708269 -0.024874626
000090 78 96 45 3d 3a 41 30 bc 61 2f 82 bb b7 76 66 bb
       0.0482392 -0.010757739 -0.003972933 -0.0035165974
0000a0 03 a4 b2 3d db 4f 60 3e 96 b1 5f 3d a7 aa 04 3b
       0.08722689 0.21905462 0.05461272 0.0020243318
0000b0 5e 6b 13 3d 75 2f 0e bd 33 56 9e 3d b6 6d 31 bc
       0.035991065 -0.034713227 0.07731285 -0.01082938
0000c0 c0 18 35 3e 10 cd b7 3b 75 dd 10 3d 50 41 0b 3d
       0.17685223 0.005609162 0.035367448 0.033997834
0000d0 a8 7b ba 3c ce 03 2d 3d c4 34 95 3d 77 57 ec 3d
       0.022764042 0.042239957 0.07285455 0.1154012
0000e0 ef d9 96 3d 47 f7 0c 3d 20 df 52 3d 20 98 53 3c
       0.07365786 0.03441551 0.05148232 0.012914687
0000f0 a7 d3 51 3d c7 7d db 39 8e 77 88 3c 13 bf 40 3d
       0.051227238 0.00041864646 0.01665857 0.047057223
000100 ba 87 a6 3d c1 45 ca 3c 80 36 96 3d 0d 3e 74 3d
       0.081313565 0.024691464 0.07334614 0.05962949
000110 4f 15 37 bc b8 02 b6 3d 63 12 d1 3d 46 b0 a8 3c
       -0.011174514 0.08887237 0.10208585 0.020591866
000120 ae e0 a9 bc 77 f6 f4 3c 64 2b 09 3d 5a d8 00 3d
       -0.020737018 0.02990268 0.033488646 0.03145633
000130 84 ef 4c 3d 0d bd ed bb b1 d4 86 3c 6f ee 9c 3d
       0.050033107 -0.0072552026 0.016458841 0.07662665
000140 9f b4 89 3c f4 20 ae 3d 21 29 4a bd 18 6b a0 3a
       0.01680976 0.08502379 -0.04935563 0.0012238948
000150 9f ff 06 3e f0 fd 7d 3d c5 88 80 3e 07 e5 b2 bc
       0.13183449 0.06200975 0.25104347 -0.021837724
000160 ed f9 66 3d 29 03 b4 3d 8d 74 5b 3d 35 60 e0 3d
       0.05639069 0.08789665 0.05357795 0.1095585
000170 57 e1 7d bc 5d b4 97 3d e3 51 a0 3b 06 48 65 3e
       -0.01549562 0.074074484 0.004892574 0.22390756
000180 3f 94 3c 3d ad d5 0a bd 7c 71 a9 3d 1c 5e db 3d
       0.046039816 -0.033895183 0.082735986 0.10711309
000190 9f c4 0e 3d 20 56 de 3d cd cd 15 3d a3 8c ae 3d
       0.03485548 0.10856271 0.03657322 0.08522918
0001a0 05 cb aa bb ed 9a ec 3d f9 9c 26 ba 4f 2c 85 3d
       -0.00521219 0.11552987 -0.0006355788 0.06502592
0001b0 a6 51 3a 3d 0b f5 04 3d 64 d4 84 3d b9 61 03 bd
       0.045488022 0.032460254 0.06485823 -0.032075617
0001c0 29 c9 ae 3c 67 3b 17 3d 94 eb 76 bd f4 3d 82 3c
       0.021336155 0.036921885 -0.06028326 0.015898682
0001d0 88 e8 71 bb 58 d0 67 3d 5c 98 02 3d 75 e4 62 3d
       -0.003691228 0.056595176 0.031883582 0.055393655
0001e0 a4 5a 5d 3d dc 8b fa 3c 89 15 49 3e d0 fe 86 3c
       0.05404152 0.030584268 0.19637121 0.016478926
0001f0 38 4f 6f bc e0 a8 ce 3c 3a 58 ea 3d 0a c9 7f 3d
       -0.01460629 0.02522701 0.11442609 0.062447585

network_body._body_endoder.seq_layers.0.weight f4 [128, 6]
000000 00 9b 43 be 97 55 23 be 60 74 2f 3e e5 e2 42 be
       -0.19102097 -0.15950619 0.17134237 -0.19031866
000010 92 6b 7f bf 95 b5 11 bf c5 69 b4 3e dd 39 9e be
       -0.99773514 -0.569177 0.35236946 -0.3090352
000020 78 ac d0 3e 42 fb a8 bf f0 33 35 3d 77 cf 27 be
       0.40756583 -1.3201678 0.044238985 -0.16387735
000030 46 ab 2f be 96 fe 42 3e b9 c4 ba 3e d5 eb 55 be
       -0.1715518 0.1904243 0.36478212 -0.20890744
000040 66 56 8f 3d 86 55 2d 3f f2 a6 a4 bd 26 d2 14 be
       0.06998901 0.67708623 -0.08039655 -0.1453329
000050 4f 75 1c bf 1a aa f5 3d 0f 4f 15 3f 71 0d 6c bd
       -0.611165 0.11995335 0.5832376 -0.057630006
000060 fd 38 bf be 01 07 6b 3f 4d c0 84 3f 30 09 b4 be
       -0.37348166 0.9180756 1.0371186 -0.3516326
000070 81 de 6e bd 8a bd 81 3e 4b bf c8 3e 5d 17 9e bd
       -0.058317665 0.2533992 0.39208445 -0.077193
000080 bc ac 41 be 76 5d 0f bf 04 06 16 3d 7f b1 98 be
       -0.18913549 -0.56001985 0.03662683 -0.2982292
000090 9c fb 4a be 46 94 33 bf 16 fb 51 3f 32 86 01 3e
       -0.19822544 -0.7014812 0.8202375 0.12648848
0000a0 30 7d 91 be 55 28 1e 3f f6 08 a9 3e 31 c7 89 3e
       -0.28415823 0.6178029 0.3301465 0.26909783
0000b0 26 16 2d 3f ed 64 af bf 96 f1 fd 3e 36 1a 48 3e
       0.6761192 -1.3702675 0.49598378 0.19541249
0000c0 23 1d 0b 3f 29 3d ea 3d d5 01 2c 3f 8b fb e1 be
       0.54341334 0.114374466 0.67190295 -0.44137225
0000d0 38 d0 5c bf 8f c9 13 3e a9 1b 6a bd 26 0c ff bc
       -0.86255217 0.14432357 -0.057155285 -0.031133723
0000e0 1e 05 02 bc 7a c3 14 3e 23 51 07 bf 39 cb 95 3e
       -0.00793579 0.14527693 -0.5285818 0.2925661
0000f0 fc 1e de 3e 07 0a b1 3d 87 05 61 bf 84 52 61 3e
       0.43383014 0.08644491 -0.8789906 0.22004133
000100 8d c4 2c bf e0 a2 2c 3f 81 c2 17 3f 03 78 cc bb
       -0.6748741 0.6743603 0.59281164 -0.0062398924
000110 10 c1 6f 3e a4 64 b7 3d c6 5c 25 be 13 7c 6d be
       0.23413491 0.089547426 -0.16148672 -0.23191862
000120 21 33 23 be 65 39 95 bd 0f 14 6e 3e 05 4a f3 3e
       -0.15937473 -0.07286338 0.23249839 0.4751741
000130 66 0d f9 be 62 ed a0 3e 43 da 12 be ff f8 b3 be
       -0.48643035 0.3143111 -0.14341073 -0.35150906
000140 19 f4 1b 3f 3a a8 ee be 92 39 88 3e 8c 69 f3 3e
       0.6091934 -0.46612722 0.26606423 0.47541463
000150 c1 ef 01 bf bb da 0c be 10 5c e7 3e 8a 21 23 3f
       -0.5075646 -0.13755314 0.45187426 0.6372305
000160 8a 63 4c bf c6 9e de be b8 00 84 3e 31 01 21 3f
       -0.79839385 -0.4348051 0.25781798 0.6289244
000170 70 ff 02 3f e6 b9 1f be d5 c1 16 be e0 f2 33 3f
       0.51171017 -0.15598258 -0.14722379 0.7029247
000180 b7 0e fa bd b6 9d 21 bf e0 74 a6 bf fd 6c 28 bd
       -0.12209838 -0.6313127 -1.3004417 -0.041119564
000190 74 59 ab 3d b5 57 8c be a0 bb 6e be 66 29 3d 3f
       0.08366671 -0.27410665 -0.23313761 0.73891294
0001a0 cc d8 2a be f4 e7 61 be 33 6a 1b 3f 47 b7 37 3f
       -0.16684264 -0.2206114 0.6070892 0.71764034
0001b0 d8 35 bb be ec 91 3c 3f 75 6b 12 be e2 62 5e be
       -0.36564517 0.7366016 -0.14298804 -0.21717408
0001c0 f4 bf aa bd 77 8a 81 3e 9e 4d 1c be d0 72 13 bf
       -0.083373934 0.25300953 -0.15263984 -0.57597065
0001d0 37 c2 70 3e 48 27 a2 be 14 c7 8b 3f 60 b4 98 bf
       0.23511587 -0.31670594 1.0920129 -1.1930046
0001e0 09 95 b9 3d 83 02 bc bd c0 ec 4b bf 53 cb f9 3e
       0.09061629 -0.091801666 -0.79658127 0.48787937
0001f0 90 ef 99 bd 7c e5 7a 3f 0d 8e 19 bf 52 52 30 3f
       -0.07516396 0.98006415 -0.5998238 0.6887561
000200 ee 33 33 bf 18 d1 a2 3d 46 09 87 3e 1a f5 42 bf
       -0.70001113 0.07950038 0.26374263 -0.76155245
000210 1e 65 9f 3e 49 e0 0d be 0e 15 31 be b1 40 14 be
       0.31131834 -0.13855089 -0.17293188 -0.14477803
000220 b9 a5 04 3f d2 0f 22 bf f5 2f bb be 69 f4 16 be
       0.5181537 -0.6330539 -0.36560026 -0.14741673
000230 1b f3 4e 3e f2 8b ae be 9b 50 e9 3e 1a 6f bf be
       0.20209925 -0.34091145 0.4556931 -0.3738945
000240 94 17 ac 3e 56 f0 d7 3c 5b 28 10 3f 22 1a f3 be
       0.3361174 0.026359718 0.5631158 -0.47480875
000250 89 71 46 3f 4c bd a0 be a9 4c 45 bd 9e f0 c6 3e
       0.7751699 -0.31394422 -0.048168812 0.3885545
000260 ed 30 bf 3d 01 e0 37 bf 91 a2 96 be b7 0a 17 3f
       0.09335504 -0.7182618 -0.29420903 0.59000725
000270 ae 5e 71 3d 2a d8 75 be 0e 1d 49 3e 2d fd 4e bd
       0.058928184 -0.24008241 0.1963999 -0.050534416
000280 b6 78 da bd 60 7d 41 3f 15 da eb be c8 7b d0 be
       -0.10667555 0.7558193 -0.4606482 -0.40719438
000290 32 ec 16 be e5 6a 21 3f f1 f3 50 be 39 7a 5e 3e
       -0.14738539 0.63053733 -0.20405556 0.21726312
0002a0 8c 8c 65 3f 30 90 a7 be 0a a2 8f bd 9f b5 47 3e
       0.8966758 -0.32727194 -0.070133284 0.19502877
0002b0 6e ed 35 3e b3 bf 39 3f ec 4c d3 be 3b c5 2f 3f
       0.17766353 0.72558135 -0.41269624 0.68660325
0002c0 0d b2 84 3f 3d 21 a5 3d 08 bd 67 3d 75 1e 39 bf
       1.0366837 0.0806298 0.05657676 -0.723121
0002d0 37 ab 3b bf b0 c7 07 bf e8 b1 cf 3e aa e6 16 be
       -0.7330813 -0.53039074 0.4056542 -0.14736429
0002e0 ca 64 9f 3f 3e 32 d4 3e 57 47 2d bf c9 ba 82 3e
       1.2452633 0.41444582 -0.6768698 0.2553313
0002f0 87 4f 9d 3f c8 de de bc fe cf d2 3d 2b c8 b4 bd
       1.2289895 -0.02720584 0.102935776 -0.088272415
000300 cf 55 bd 3e a0 7e 4f 3d 28 b8 85 3e de 7a f6 3c
       0.3697953 0.05065787 0.26117063 0.030087885
000310 32 1d 63 3e a7 9a 5b 3e 36 ca 14 bf 55 ec 2e 3e
       0.22179106 0.21445714 -0.5812105 0.17082341
000320 81 d3 b1 bc 33 dd 6b 3f 0e 25 d9 3e 83 d9 5e bf
       -0.021707298 0.921344 0.42411083 -0.87050647
000330 97 a2 0a bd 96 49 1c bf 30 29 86 bf 4a d0 37 be
       -0.033846464 -0.61049783 -1.048132 -0.1795055
000340 61 41 28 bd 55 58 cb 3e 67 32 8c 3e 24 67 14 3f
       -0.041077975 0.3971583 0.27382204 0.5796988
000350 0e 27 58 bf 56 94 0c bf ee 8b 06 3f f5 21 68 bf
       -0.8443459 -0.5491384 0.52557266 -0.90676814
000360 95 79 95 3d e1 26 51 be 7f 32 b3 bb 02 e0 0a 3f
       0.072985806 -0.20424987 -0.005468666 0.5424806
000370 5b f8 05 bf 52 74 d7 be b3 ad 3b 3e d6 ca ac bc
       -0.52332085 -0.42080933 0.1832798 -0.021092813
000380 ad 2f b6 bd b3 97 1f 3f fe 54 e5 3e 12 11 55 3e
       -0.08895812 0.6234085 0.44791406 0.20807293
000390 80 cc 5f be ae ac ff 3e 56 f9 04 3e 0d 9d 10 3f
       -0.21855354 0.49936432 0.12985739 0.5648964
0003a0 28 a7 24 bf df 2e 24 3f b8 43 5d 3e 98 ca 39 bd
       -0.6431756 0.6413402 0.21607864 -0.045359224
0003b0 bc 63 15 3f d2 fa a0 be d3 76 8d 3e 28 f6 5a bc
       0.5835531 -0.3144136 0.27629718 -0.013364352
0003c0 d6 a2 3f be cd ab 1e 3e 07 5e 48 bf 4f c0 bd 3e
       -0.1871446 0.15495224 -0.78268474 0.37060782
0003d0 00 93 26 3e 2b b6 f9 3e 3b 63 e8 be e4 e5 af be
       0.16267014 0.48771796 -0.45388207 -0.3435508
0003e0 cc 89 66 bf f3 02 29 3f 41 13 d6 be be 7b 73 3f
       -0.9005401 0.66020125 -0.41811565 0.9511069
0003f0 c6 46 44 bd 78 4a 1b be 49 97 13 bf a3 4d 0f bf
       -0.047919057 -0.15165126 -0.5765272 -0.5597784

network_body._body_endoder.seq_layers.2.bias f4 [128]
000000 86 1c ab 3b f4 12 82 bd 7b e0 9f bb 7c ab fc 3b
       0.005221906 -0.06351271 -0.004879055 0.007710872
000010 a6 70 fb 3c d5 2a 86 3c de 88 39 bd 2c e3 3b 3c
       0.030693363 0.016377846 -0.045296542 0.011467736
000020 7b 84 d1 3c ce c8 c7 3d 02 c2 97 3d 7d 24 1c bd
       0.025575867 0.09755097 0.07410051 -0.038120735
000030 ec 81 5d 3d da b9 8f 3c 74 75 29 3d 4e 1b ee 3c
       0.05407898 0.017544676 0.041371778 0.029065754
000040 c3 c6 e8 3c 3f 61 55 bd d0 75 59 bd bd f5 89 bc
       0.02841509 -0.052094694 -0.05309087 -0.01684081
000050 87 35 86 3d ce 38 0d bd bb 0e 60 bd 82 28 c2 bc
       0.06553178 -0.034478 -0.054701548 -0.023700956
000060 b9 ee 7e 3c 38 79 86 3d 8d 21 0b 3d 87 e7 0e 3d
       0.015559846 0.065660894 0.033967543 0.03488877
000070 a1 99 00 bb 86 e6 bf bc 13 a6 07 bc bb ec 68 3c
       -0.001962282 -0.023425352 -0.008279341 0.014216597
000080 9c 87 b5 3c da 6a f9 3c fd 68 54 bd 4c 62 c7 3c
       0.02215939 0.030446459 -0.051857937 0.024338864
000090 e2 21 e5 bc bd 3f 1d bd 59 45 b6 bc 5f a9 0f 3c
       -0.027970258 -0.038390864 -0.022249864 0.008768409
0000a0 50 e9 e2 bb 25 b7 34 3d 6f ce eb bb d8 c8 8d 3b
       -0.0069247857 0.044119973 -0.0071962397 0.004326921
0000b0 0d 63 67 3d 09 b1 76 bd 0a eb 13 bd 92 81 b7 3d
       0.056490947 -0.060227428 -0.036112823 0.089602605
0000c0 c3 58 74 3d 5d de 86 bb 6b bb 49 3c 72 f4 6a 3c
       0.059654962 -0.0041158632 0.01231275 0.014340507
0000d0 74 34 31 3d 5e cb 04 bd 7a bb de 3c 0d c2 72 3c
       0.043262914 -0.03242051 0.027189005 0.014816773
0000e0 94 c5 28 bd 43 5b a3 bc 8b 85 f6 3c 95 89 86 3d
       -0.04120405 -0.019940978 0.030092975 0.065692104
0000f0 74 c0 d1 bb 9e c8 70 3b 07 31 c9 bc d2 75 99 3d
       -0.006401116 0.003674067 -0.02455951 0.074931756
000100 c7 4b 52 3c b5 2d af bc b7 4a 19 bd dd ba 85 bd
       0.01283545 -0.0213841 -0.03742477 -0.06529782
000110 3d 50 fe 3c 03 3b af bc b4 02 0d bd 57 26 20 bd
       0.03104412 -0.021390444 -0.034426406 -0.039099064
000120 68 a8 36 bc 8c 53 b7 bd 11 01 1e bc 98 84 08 3d
       -0.01114855 -0.08951482 -0.009643809 0.033329576
000130 eb 5c 02 bc f0 d9 8e bc 5e 2e 84 3c 88 c8 07 bd
       -0.007956724 -0.017437905 0.01613539 -0.033150226
000140 3e 30 64 3d e7 63 5e 3d 31 2d 14 bb 54 3d 87 bd
       0.05571007 0.054294493 -0.0022609944 -0.06603494
000150 28 52 00 3c a9 14 3f 3d e8 3a 02 3d 10 de e2 3a
       0.007832088 0.046650562 0.03179446 0.0017308611
000160 54 87 a3 3c 6b b1 a8 bc 3f b6 1c bd b1 ec 8e 3c
       0.01996199 -0.020592412 -0.03825974 0.017446848
000170 03 d4 4c bc 42 3a 8c 3c 90 50 27 3d 0d ed d8 bb
       -0.012501719 0.017117623 0.040848315 -0.0066200555
000180 05 77 1a bc a3 1b b8 bc f5 b5 1c bd ea 6e eb 3c
       -0.0094277905 -0.022474116 -0.038259465 0.028739411
000190 b9 a0 17 3d 40 15 92 3c 1b 5e 17 bd 3f b2 c1 bc
       0.03701851 0.017832398 -0.03695498 -0.023644565
0001a0 05 e6 bd 3c d3 49 74 bd e6 ef 32 bd 0e c6 21 3d
       0.02318097 -0.059640717 -0.043685816 0.03949552
0001b0 05 7b 80 bc 6d 2c cb 3c 9a db 2f 3d 0a 8d 66 bd
       -0.01568366 0.024801457 0.042934038 -0.05628685
0001c0 f7 27 a4 bd db 06 30 bd 19 da 3d bb da b8 9b 3c
       -0.08015435 -0.042975288 -0.0028969108 0.019009043
0001d0 58 be 1c bd 01 47 3e 3c 1f 33 91 bc 67 0f 8f 3d
       -0.038267463 0.011613608 -0.017724572 0.0698536
0001e0 92 d5 6e 3d 0a 31 5a 3c e4 39 83 3c 15 7f 35 bd
       0.058309145 0.013317356 0.016018815 -0.044310648
0001f0 e3 86 8c bc dc 7a 11 bd 9c a3 81 3c 2a 6b 8f 3d
       -0.017154163 -0.03551756 0.015825085 0.07002862

network_body._body_endoder.seq_layers.2.weight f4 [128, 128]
000000 c4 89 66 bd c6 50 af 3d 76 a5 07 3d a2 17 83 bb
       -0.056283727 0.08560328 0.03311678 -0.00400062
000010 30 9a 02 3d e1 0d 42 be 2b 1b e1 bc a0 32 76 bd
       0.031885326 -0.18950607 -0.027478775 -0.060106874
000020 f6 16 61 be 0b 87 c2 3d 08 65 fa bc 7e 8d fe bc
       -0.21981415 0.09498414 -0.030565754 -0.031073328
000030 7f e4 16 3d 42 b8 af bd a4 f1 24 bd aa 42 82 3d
       0.036839005 -0.08580066 -0.04026951 0.063603714
000040 5c c8 04 3d f6 53 86 bd 1e b4 58 bd 67 96 8c 3c
       0.03241764 -0.06558983 -0.052906148 0.017161561
000050 6e 78 12 be 2f 8d 85 3d e7 fb c7 3d 5b b9 95 3b
       -0.14303753 0.06521069 0.097648434 0.0045692152
000060 d0 16 9f 3d df 09 ae bd 2e c7 b3 3d c3 81 c8 bc
       0.07768023 -0.084979765 0.08778225 -0.024475938
000070 e5 5d 0d be f5 40 21 be 70 bd 09 3d a3 61 37 bd
       -0.13805349 -0.15747435 0.033627927 -0.044770848
000080 25 1a 47 bb 75 82 e8 bd aa 58 b4 bd 6c 87 9b bd
       -0.0030380574 -0.11353008 -0.08805974 -0.07594189
000090 1a 39 2a bd ac 97 e0 bd 97 cb 5c bd 6b 6d 92 3d
       -0.041558363 -0.10966429 -0.053905096 0.07149776
0000a0 3a 2d 2d 3d 4f 41 98 3c b2 f0 bb 3c 9b 88 28 3e
       0.04227946 0.018585829 0.02294192 0.16458361
0000b0 90 7a 28 be 4d d9 44 be 5e 16 e1 3d 1e 31 98 3d
       -0.16453004 -0.19223519 0.10990594 0.07431243
0000c0 06 83 a1 bd e4 d6 74 3e 33 7b 14 be 57 21 a4 3c
       -0.07886319 0.239101 -0.14500122 0.020035429
0000d0 38 78 6c 3d 9e a9 25 3b 21 5b b3 3d 03 8c 81 be
       0.057731837 0.0025278102 0.08757616 -0.25302133
0000e0 51 49 b9 3c ef 30 5c be 60 89 af 3b 19 34 1c 3d
       0.022617968 -0.21503042 0.0053569525 0.03813562
0000f0 92 b9 82 3d 8a 63 0e bc f1 b1 eb 3d b8 09 4a 38
       0.06383051 -0.008690724 0.11508549 4.8169604e-05
000100 39 ad 98 bd 32 bb 0e be 62 ab b0 bd 27 a9 c0 bd
       -0.074549146 -0.13938597 -0.08626439 -0.09407263
000110 fb 01 05 3e 1d dd d0 bd 30 89 35 bb 85 a4 07 be
       0.12989037 -0.10198424 -0.0027700178 -0.13246353
000120 e7 50 45 be 0e 5c 2e 3d fc bf 18 bd 1f 3a fb bd
       -0.19269143 0.04256826 -0.037292466 -0.12266945
000130 d8 8e 55 3d 6d 72 67 bd ba 7a a3 bd 23 29 c9 bc
       0.05213818 -0.05650561 -0.079823926 -0.024555748
000140 31 f6 9c bd f7 6a 1b 3d 92 bb 0b 3e 03 91 da 3d
       -0.07664145 0.037943806 0.13645771 0.1067219
000150 66 da ab bd d7 2a d1 bd a1 16 fb 3c 29 fb 34 be
       -0.083912656 -0.10213249 0.030650439 -0.17673935
000160 8f 0d 8c 3d 49 52 aa bc d6 a8 da 3d 32 d9 6a 3e
       0.068385236 -0.02079119 0.10676734 0.22934416
000170 fd 43 9e bd c1 ef cf bc 06 8c ee 3d 94 d8 bc bc
       -0.077278115 -0.025382878 0.11647801 -0.023052491
000180 82 9e 6c be 39 38 e8 bd 9b 4f 49 bc 78 7a cc bb
       -0.23107341 -0.113388486 -0.012287046 -0.0062401854
000190 5f d1 3b 3b 9d 95 c5 bc 43 85 83 3d 7d 23 76 be
       0.002865873 -0.024119193 0.06421902 -0.24036975
0001a0 1b 60 42 3e 73 4c 1d 3d d2 83 1d 3d ac fc a0 bd
       0.18981974 0.038402986 0.03845579 -0.07860693
0001b0 c2 75 30 3e cf 73 a5 3d 05 ae 2e bd d4 a7 c6 bc
       0.17232421 0.08078729 -0.042646427 -0.024249949
0001c0 2e c3 9b bd 4a 73 29 3d 19 a9 03 3e 85 85 b1 bd
       -0.07605587 0.041369714 0.12857474 -0.08668045
0001d0 fe 16 45 3d 1f 2b ae 3c 6d 8c 9d bd 6b cd c5 bd
       0.04811763 0.021260796 -0.076928 -0.09658321
0001e0 72 da ae bd 5d 12 2b 3d 3a 0d 5c be bf 3c 75 3c
       -0.08537759 0.04176556 -0.2148942 0.014968096
0001f0 59 0d 59 be 7e 17 c4 3d ad 77 db bb cc 67 e7 bc
       -0.21196498 0.09574793 -0.006697616 -0.028247736
000200 12 05 28 3e 87 01 e2 3c ae f3 be bd c2 c9 e3 3d
       0.16408184 0.027588619 -0.09323822 0.111224666
000210 9b 8d e0 bd 61 49 4b bd 6e 98 11 3e 74 f7 df bd
       -0.10964509 -0.049630526 0.14218304 -0.1093587
000220 40 39 7e 3d 26 e1 04 be c2 ad 76 be be 00 21 bd
       0.062066317 -0.12976512 -0.24089721 -0.03930735
000230 4d c2 19 be d4 13 6e 3d 65 fb fa bc a2 48 41 be
       -0.15015526 0.05812438 -0.030637452 -0.18875363
000240 f3 f1 35 3e 78 a1 8e bd a5 a6 a0 bd ce 79 14 3e
       0.17768078 -0.069643915 -0.07844285 0.1449959
000250 cc 5d 75 be 3f 22 bc 3c 9e 85 d9 3d a1 91 c9 3d
       -0.23961562 0.022965549 0.106211886 0.0984223
000260 69 f5 a6 bd 13 a0 6d be b5 c6 91 bd cc 8d d3 3d
       -0.08152277 -0.23205595 -0.071179785 0.1032978
000270 f2 1a 22 be e8 ef 21 bd a6 3d 3d 3d 67 81 c6 3d
       -0.15830591 -0.039535433 0.04620137 0.0969265
000280 c3 fc 1e be 0b bd e4 3d 5d 4a 18 bd 9f 48 9c 3d
       -0.15526108 0.111688696 -0.037180293 0.07631039
000290 34 46 fc bd a9 c3 67 be ea bf fc bd a6 af 24 bd
       -0.12318078 -0.22633232 -0.12341292 -0.040206574
0002a0 79 93 d2 bd 6f a3 be bd d9 b5 1d 3d e1 dd 03 be
       -0.102820344 -0.09308516 0.0385035 -0.12877609
0002b0 09 78 9d bd c0 31 77 bc 45 ae c9 3c c8 64 ca bb
       -0.076889105 -0.015087545 0.024619231 -0.006176565
0002c0 6f 8f 6e 3e e5 c2 13 3d d2 ac 26 bd 0c 53 e8 3c
       0.23296903 0.036074538 -0.040692158 0.028359912
0002d0 e1 29 5d be c6 bd 77 3d c7 82 ee bc 78 fb 62 3d
       -0.21598007 0.060483716 -0.029115094 0.0554156
0002e0 a1 7e 28 be 3a ed 1d 3e 56 e9 07 be 01 e9 f4 3d
       -0.16454555 0.15422526 -0.13272604 0.119585045
0002f0 04 63 fa bc 00 95 f3 3d 2c 7e 55 bd 89 a1 63 3d
       -0.030564792 0.11893654 -0.05212228 0.055573974
000300 40 ce 4c bd 17 14 12 3e c2 8f dc 3d e7 ef f5 bd
       -0.050001383 0.14265476 0.10769607 -0.12008648
000310 f0 ef c9 bb eb 8d f2 39 94 a1 05 3e b2 30 d8 3c
       -0.006162636 0.00046263574 0.13049918 0.026390407
000320 cc a1 0f 3e f5 a2 d8 bd 4a 62 19 3e c2 e3 9b be
       0.14026564 -0.105779566 0.149789 -0.30447203
000330 23 53 3d 3e e9 aa 11 be 24 0b 3d 3d ab 10 b2 bc
       0.18488745 -0.14225353 0.046153203 -0.021736464
000340 77 e2 4a 3e 5c 9e 41 bc 78 4c ca 3d 03 81 14 be
       0.19812952 -0.011817541 0.098778665 -0.14502339
000350 ad 50 38 3d 64 d5 41 be 0b 6b e6 3d 59 59 73 3d
       0.044998813 -0.18929058 0.112508856 0.05941138
000360 77 15 60 3d d9 c1 ff bd 26 e0 a9 bd 97 ae a0 bd
       0.05470797 -0.124881454 -0.08294706 -0.078458
000370 3e 13 87 bd dd 08 d6 3c 0f 2a 65 bc ba a0 6b bd
       -0.06595467 0.026127273 -0.013987078 -0.057526328
000380 ff 64 be bc b3 87 68 bd bc c3 00 3e 81 c7 73 3d
       -0.023241518 -0.056770038 0.12574667 0.059516434
000390 59 17 2e 3c 43 df 3a 3e a4 3c f4 bd c3 63 9e bd
       0.010625684 0.1824923 -0.11925629 -0.07733872
0003a0 ad 8e 11 bd f0 d5 90 bd 71 7c cd 3d bb f3 29 be
       -0.035536457 -0.07072055 0.10033501 -0.16596882
0003b0 71 65 f9 bd 0a d4 d6 bd 6c 9a 7a bc f0 f6 4c bc
       -0.121775515 -0.10489662 -0.015295606 -0.012510046
0003c0 fd b1 e9 3c ce c6 5c 3d 7e e2 bf 3d 5b 58 97 3d
       0.028527254 0.053900532 0.09369372 0.07389899
0003d0 d2 43 45 3d b0 af 97 3d 03 8d 3d bd 6f 2f 18 bd
       0.04816038 0.074065566 -0.046277057 -0.03715461
0003e0 92 f7 08 3d 69 ad d0 3d 5b 6d fe bd 33 cf cd bd
       0.033439226 0.10189325 -0.12423202 -0.10049286
0003f0 e9 16 a9 3d 87 12 ba bc 2d cc 7e 3d c6 18 b9 bb
       0.08256323 -0.022713913 0.062206436 -0.005648705
