results/DodgeAgentBulletsTest11_Improved5/Dodge/checkpoint.pt (torch, 538935 bytes, 40 tensors)

discrete_act_size_vector f4 [1, 2]
0	0x40400000	3.0
1	0x40400000	3.0

network_body._body_endoder.seq_layers.0.weight f4 [128, 36]
0	0xbed51a53	-0.41621646
1	0xbf49e06e	-0.7885808
2	0xbe9b777c	-0.30364597
3	0xbe719fed	-0.23596163
4	0xbf79082b	-0.9727809
5	0xbf9c659f	-1.2218512
6	0xbe6e37e8	-0.23263514
7	0xbcf0d4ba	-0.02939831
8	0xbf80bbb1	-1.0057279
9	0xbfa428c7	-1.2824944
10	0xbee5ca94	-0.44881117
11	0xbd2a4dcb	-0.041578095
12	0xbebd28aa	-0.36945087
13	0xbf8cdfec	-1.1005836
14	0xbe9451d2	-0.28968674
15	0x3f0a213f	0.5395698
16	0x3e27173a	0.16317454
17	0xbef05fee	-0.4694819
18	0x3e3589be	0.17728326
19	0x3f273bbd	0.6532553
20	0xbe0b0658	-0.13576639
21	0xbf743d74	-0.9540627
22	0xbed9a8da	-0.42511636
23	0x3efc6065	0.49292293
24	0xbf4578bd	-0.77137357
25	0xbf529c90	-0.82270145
26	0x3ee89c90	0.45431948
27	0xbe145854	-0.1448682
28	0xbecd5c41	-0.40109447
29	0xbf033c82	-0.512642
30	0xb952ed63	-0.00020115594
31	0xbed7ac72	-0.42123753
32	0x3d58904f	0.052872
33	0xbeab6d3e	-0.33481783
34	0x3cbb7424	0.022882529
35	0xbc87c4bc	-0.016573302
36	0x3ea4576e	0.32097954
37	0x3dba56b4	0.090985686
38	0xbe9df81c	-0.30853355
39	0x3e7f517d	0.24933429
40	0xbd54bcd6	-0.0519379
41	0xbe0f8e5b	-0.14019148
42	0xbe542d39	-0.20720376
43	0x3d3928ff	0.045205113
44	0x3e2cbd40	0.16869068
45	0xbd8daf46	-0.069181964
46	0x3eb1333b	0.34609398
47	0xbcc4fde7	-0.024046851
48	0xbe3a3c26	-0.18187007
49	0xbc6f3ea8	-0.014602341
50	0x3d58769e	0.052847497
51	0x3e5eb3a0	0.21748209
52	0xbe379164	-0.17926556
53	0xbc9e7cd9	-0.019346641
54	0xbe5bf602	-0.21480563
55	0x3e52573b	0.20541088
56	0xbd2b58a5	-0.041832585
57	0xbe4c7ffa	-0.19970694
58	0xbea891fe	-0.32923883
59	0xbd9c44e5	-0.07630328
60	0xbe864d3b	-0.26230797
61	0xbd2bd637	-0.041952338
62	0xbef88f3b	-0.48546776
63	0xbebf8d1e	-0.3741235
64	0xbefe324e	-0.49647754
65	0xbc05103d	-0.008121547
66	0xbe2fe3ea	-0.17176786
67	0xbe7f860a	-0.24953476
68	0xbf10e371	-0.5659705
69	0xbecf07b3	-0.40435562
70	0xbdb17025	-0.08663968
71	0xbe229444	-0.15876871
72	0xbe772dc6	-0.24138555
73	0xbed2002f	-0.41015765
74	0xbe6d55bc	-0.23177236
75	0xbc684200	-0.014175892
76	0xbe339ca8	-0.17540228
77	0x3b797cfe	0.0038068886
78	0x3c21d0dd	0.009876457
79	0xbe69cb2b	-0.22831409
80	0x39d69e4f	0.0004093521
81	0x3e243416	0.16035494
82	0x3e189ff5	0.14904769
83	0x3dee7610	0.116436124
84	0x3ea31543	0.3185216
85	0x3e8151e8	0.25257802
86	0xbdbd19c0	-0.09233427
87	0xbdfe3d55	-0.12414042
88	0x3f2a413e	0.665058
89	0x3f1f4a5a	0.62222826
90	0x3e166de8	0.14690363
91	0xbbfc70c0	-0.0077038705
92	0x3f0e4684	0.5557635
93	0x3e9ee7e0	0.31036282
94	0xbe1d22c5	-0.15345295
95	0x3dfc9496	0.12333028
96	0xbddae721	-0.106886156
97	0x3ea5b141	0.32361796
98	0xbe826d93	-0.25474223
99	0xbe40b209	-0.18817915
100	0x3e5c90f7	0.21539675
101	0xbc8337a1	-0.016017737
102	0xbe37b3ed	-0.1793973
103	0x3e6da00c	0.23205584
104	0xbe7e8b90	-0.24857926
105	0x3dfcdc9c	0.123467654
106	0xbd45f694	-0.04833086
107	0xbeb73238	-0.357805
108	0xbd9131ac	-0.07089552
109	0x3e1ecd89	0.15508093
110	0x3d98d0f1	0.074617274
111	0x3e8b9901	0.2726517
112	0xbeb2a644	-0.34892476
113	0xbf24608a	-0.64209807
114	0x3ec43b10	0.3832631
115	0x3f6c5cbf	0.9232902
116	0xbe6d8600	-0.23195648
117	0xbf11f6fe	-0.57017505
118	0x3ee380eb	0.44434294
119	0x3f81ddf4	1.014586
120	0xbd298fb9	-0.04139683
121	0xbe92be12	-0.28660637
122	0x3e987eee	0.2978434
123	0x3f5cf594	0.8631222
124	0x3eff902d	0.49914685
125	0xbe53ea07	-0.20694743
126	0x3defb23a	0.11703916
127	0x3f5bd4c9	0.8587156
128	0xbeb98203	-0.36232004
129	0xbf5f8108	-0.8730626
130	0x3e8e0c10	0.27743578
131	0x3f19d561	0.60091215
132	0xbe61f350	-0.22065473
133	0xbf8a22aa	-1.0791829
134	0x3dde870c	0.10865602
135	0x3ea8eb66	0.32992095
136	0xbe333eb5	-0.1750439
137	0xbf20fbb7	-0.62884086
138	0x3dee6ba3	0.11641624
139	0x3dae7f97	0.085204296
140	0x3da8406c	0.082154125
141	0x3d3d08d2	0.04615099
142	0x3d0ad58c	0.03389506
143	0x3c9d98f8	0.01923798
144	0x3de3224f	0.11090528
145	0x3e880554	0.26566565
146	0xbdcc09ab	-0.099627815
147	0x3e83bf06	0.25731677
148	0x3ee48a3c	0.44636714
149	0x3f550006	0.8320316
150	0xbe6841d8	-0.22681367
151	0xbea6fb89	-0.3261378
152	0xbd5e53c2	-0.054279096
153	0x3f83d609	1.0299693
154	0xbec3c607	-0.3823702
155	0xbef5a357	-0.4797618
156	0x3e15d602	0.14632419
157	0x3f437b92	0.7636043
158	0xbe176359	-0.14783992
159	0xbf51d40d	-0.8196419
160	0x3f090c81	0.53534704
161	0x3e89e9f7	0.26936314
162	0xbe213ec8	-0.15746605
163	0xbf896420	-1.0733681
164	0x3e638a7a	0.22220793
165	0x3e4e0f9b	0.2012314
166	0xbe0b3910	-0.13595986
167	0xbf3c00ca	-0.73438704
168	0x3ef97677	0.48723194
169	0x3dcf0d1e	0.10109924
170	0xbd71c506	-0.059025787
171	0xbf326867	-0.69690555
172	0xbc756e7a	-0.014979953
173	0xbe8911c5	-0.2677137
174	0xbe1efe85	-0.15526779
175	0xbf06e385	-0.5269092
176	0xbd8249c7	-0.06361728
177	0xbeecb486	-0.46231478
178	0x3d75fb57	0.06005415
179	0xbd1649ee	-0.0366916
180	0xbec65627	-0.38737604
181	0xbee11842	-0.4396382
182	0xbe68ecee	-0.22746632
183	0xbf4313fc	-0.7620237
184	0xbe0bbe12	-0.13646725
185	0xbf91ad7f	-1.1381072
186	0x3d48bca8	0.04900804
187	0xbec7320a	-0.38905364
188	0xbeaa6a58	-0.3328426
189	0xbf945185	-1.1587378
190	0xbed8c732	-0.42339474
191	0x3e12dc61	0.1434188
192	0xbeebc3b0	-0.46047735
193	0xbf8c525a	-1.0962632
194	0xbd5b7892	-0.05358178
195	0x3e443a1c	0.19162792
196	0xbef54468	-0.47903752
197	0xbf205152	-0.62624085
198	0x3dcf43a2	0.10120322
199	0x3bcfad0e	0.0063377684
200	0xbf49691c	-0.7867601
201	0xbf0feec4	-0.562237
202	0x3d34a495	0.04410227
203	0x3e9e98f5	0.30976072
204	0xbeb91b8c	-0.3615383
205	0xbf07d2b0	-0.5305586
206	0x3e2de2f8	0.16981113
207	0x3e1923a6	0.14955005
208	0x3e7e88b5	0.24856837
209	0xbec542d1	-0.3852754
210	0x3e83ee57	0.25767776
211	0xbd07ae5d	-0.03312527
212	0x3eaec8d5	0.34137598
213	0x3e7b923d	0.24567504
214	0x3cf39ffe	0.029739376
215	0xbce14c0b	-0.02750208
216	0xbdd7c4e6	-0.10535602
217	0xbdec20b9	-0.11529679
218	0x3e53b9f9	0.20676412
219	0x3ed62eab	0.4183248
220	0xbe677ef0	-0.22607017
221	0xbd5ba808	-0.053627044
222	0x3e93f6e1	0.2889929
223	0x3dfd2c15	0.123619236
224	0xbd0dc270	-0.03460926
225	0x3ebec53a	0.37259847
226	0x3e150e5a	0.14556256
227	0x3e688e95	0.2271064
228	0xbe457180	-0.19281578
229	0xbeab1890	-0.33417177
230	0x3ed89a25	0.42305103
231	0x3f0b812a	0.54493964
232	0xbdf76394	-0.1207954
233	0xbf005ec4	-0.501446
234	0xbe93be9f	-0.2885637
235	0x3dd62cb7	0.104577474
236	0xbea8f7fe	-0.33001703
237	0xbe78aaa7	-0.24283849
238	0xbe6eff2d	-0.2333953
239	0x3cbc1f12	0.022964034
240	0x3d22b097	0.03971919
241	0xbe8d0f60	-0.27550793
242	0xbe39f01a	-0.18157998
243	0xbec451c2	-0.38343626
244	0x3e533e85	0.20629318
245	0xbecfb1fd	-0.40565482
246	0x3e1a026b	0.15039985
247	0xbe81ec2c	-0.25375497
248	0xbee270b5	-0.44226614
249	0xbe328b62	-0.17435983
250	0xbdd934ef	-0.106057994
251	0x3c905f08	0.01762344
252	0x3df5313e	0.11972283
253	0x3d167f05	0.03674223
254	0xbeeb441d	-0.45950404
255	0xbeb98380	-0.3623314

network_body._body_endoder.seq_layers.0.bias f4 [128]
0	0x3e8718b0	0.26386023
1	0x3d175f78	0.03695628
2	0x3e0c9ccf	0.13731693
3	0x3edf4d29	0.43613556
4	0xbe6219ae	-0.22080109
5	0xbe5d0440	-0.21583652
6	0x3da2c6ce	0.07948075
7	0x3e635b71	0.22202851
8	0xbe683459	-0.22676219
9	0x3e3aff0c	0.18261355
10	0xbd04db6b	-0.032435816
11	0x3d6fc9a0	0.058541894
12	0xbdf4edf6	-0.1195945
13	0xbe70e4bf	-0.2352476
14	0xbe4b5c17	-0.19859348
15	0xbeff41d3	-0.49854907
16	0xbd486671	-0.04892582
17	0xbc520116	-0.012817642
18	0x3e1ae89a	0.15127793
19	0xbdd20708	-0.10255247
20	0xbde058e7	-0.10954457
21	0xbdc7621e	-0.09735511
22	0x3d343d29	0.04400364
23	0x3db7838b	0.08960637
24	0xbe2b3df3	-0.1672285
25	0xbe1f69ef	-0.15567754
26	0x3e265d57	0.16246544
27	0x3d2f2a9e	0.042765252
28	0xbe9040c7	-0.2817442
29	0xbeadcbf6	-0.33944672
30	0x3dd3f18c	0.10348806
31	0x3de90bd2	0.11379208
32	0xbe6a6787	-0.22891055
33	0x3d9dab13	0.076986454
34	0x3c8c309b	0.01711302
35	0xbe6fcae6	-0.23417243
36	0x3d070616	0.03296479
37	0x3d899d9c	0.06719515
38	0x3de487bc	0.11158702
39	0x3e26b757	0.16280876
40	0xbdda51ad	-0.1066011
41	0x3e0dbfb1	0.13842656
42	0xbda1aa47	-0.07893806
43	0xbdd5b146	-0.10434203
44	0xbe7886f8	-0.24270236
45	0xbe67760b	-0.22603624
46	0xbdb451e6	-0.088046834
47	0xbcb2b427	-0.021814419
48	0x3d8f401c	0.0699465
49	0x3d28e518	0.041234106
50	0x3d8675f4	0.065654665
51	0x3e6e431d	0.23267789
52	0xbc90ad79	-0.017660843
53	0x3ba98496	0.005173276
54	0xbe530723	-0.20608191
55	0x3d0dc0f3	0.03460784
56	0x3e34e806	0.17666635
57	0xbdbb1990	-0.09135735
58	0xbe5e9951	-0.21738173
59	0x3d4e41f0	0.05035585
60	0xbe48d9f5	-0.19614394
61	0xbdafb504	-0.08579448
62	0x3bf2f6aa	0.0074146586
63	0xbe06d638	-0.13167655
64	0xbdcae75c	-0.099074095
65	0xbc1dbae1	-0.009627075
66	0xbd9617d8	-0.073287666
67	0xbda35b03	-0.079763435
68	0xbe6cd303	-0.2312737
69	0x3c0fedfe	0.008784769
70	0xbdc5749b	-0.09641381
71	0xbda4432d	-0.08020625
72	0x3b863c4c	0.0040965434
73	0xbda83776	-0.08213703
74	0xbd38a8e9	-0.04508296
75	0x3cd791ff	0.026314734
76	0xbceaf57f	-0.028681515
77	0x3c391639	0.011296802
78	0xbd2b8c2c	-0.041881725
79	0xbe019690	-0.12655091
80	0x3da8e69c	0.0824711
81	0x3cdce356	0.026963871
82	0xbec1c5f2	-0.37846333
83	0x3e31381f	0.17306565
84	0xbe10240f	-0.14076255
85	0x3ce366a1	0.027758898
86	0xbc921e9c	-0.017836861
87	0xbe892edd	-0.26793566
88	0x3e26215a	0.1622366
89	0xbe066ae3	-0.13126712
90	0x3db9c312	0.0907041
91	0xba3ab6df	-0.0007122587
92	0x3b952b58	0.004552286
93	0x3e1c6e37	0.15276419
94	0xbe84ede2	-0.2596274
95	0xbca3cb14	-0.019994296
96	0xbe6d831b	-0.23194544
97	0xbf04e3ab	-0.51909894
98	0xbeb49935	-0.35273138
99	0xbdaf375e	-0.08555482
100	0x3d4393f6	0.04774853
101	0xbe1fd7fa	-0.15609732
102	0xbe2bf0d3	-0.16791086
103	0xbdd6a6ea	-0.10481055
104	0xbd45f4fc	-0.04832934
105	0x3dcac910	0.09901631
106	0xbe9fa4d4	-0.3118044
107	0xbed2424b	-0.41066203
108	0x3d855121	0.06509615
109	0x3e332e22	0.17498067
110	0x3e20bedd	0.15697809
111	0xbd024933	-0.03180809
112	0xbdae05b9	-0.08497185
113	0xbd15c1d4	-0.036561802
114	0xbf29d437	-0.6633944
115	0xbcda4e3d	-0.026648635
116	0xbe9770c5	-0.29578224
117	0xbe27068c	-0.16311091
118	0xbe989e27	-0.2980816
119	0x3e4f35de	0.20235392
120	0xbe0d20ed	-0.13782091
121	0xbbd4288a	-0.006474559
122	0xbe8ca2cc	-0.27467954
123	0xbeff05c2	-0.4980908
124	0x3d77ff58	0.06054625
125	0xbe622c46	-0.22087201
126	0xbc5343f4	-0.012894619
127	0xbde34bdb	-0.11098453

network_body._body_endoder.seq_layers.2.weight f4 [128, 128]
0	0x3d9796e6	0.074018285
1	0xbe26bb10	-0.16282296
2	0x3e1a3224	0.1505819
3	0x3d8a078e	0.06739722
4	0xb986c4c2	-0.00025705068
5	0x3bef7a34	0.007308269
6	0x3dea5171	0.11441315
7	0x3e1ff969	0.15622486
8	0xbdc65e61	-0.0968597
9	0xbd78c0f8	-0.060730904
10	0xbd80dfd7	-0.06292694
11	0xbe7f03d7	-0.24903809
12	0xbe6fb2ee	-0.234081
13	0xbd90e395	-0.07074658
14	0x3e22aac2	0.15885451
15	0xbdca94d3	-0.09891667
16	0xbe691efe	-0.22765729
17	0xbd8364fb	-0.06415745
18	0x3ddd10fe	0.10794257
19	0xbdba4c2d	-0.090965606
20	0xbe40bde8	-0.18822443
21	0xbda41c00	-0.08013153
22	0x3d70a7be	0.05875372
23	0xbc4a8ddb	-0.012362923
24	0xbe20f86a	-0.15719762
25	0xbd20bdfc	-0.039243683
26	0xbdf1d50e	-0.11808215
27	0x3dbdeb96	0.0927345
28	0x3d0a33e7	0.033740904
29	0xbd8a8544	-0.067637
30	0xbdf40b91	-0.119162686
31	0x3e38c228	0.18042815
32	0x3dcd9da2	0.10039832
33	0xbc5653d7	-0.013081512
34	0xbdca7d18	-0.09887141
35	0xbd4611f7	-0.048356976
36	0x3daba46e	0.08380972
37	0xbdb56a52	-0.088581696
38	0x3d222184	0.039582744
39	0xbddba7ef	-0.1072539
40	0x3d5ec7d4	0.05438979
41	0x3edaa91c	0.42707145
42	0xbe4f6cce	-0.2025635
43	0xbc48f338	-0.012265019
44	0x3dbb9dd7	0.09160965
45	0xbdfe07f2	-0.12403859
46	0xbd6b6392	-0.057468005
47	0xbe018a6b	-0.12650459
48	0x3d3c469b	0.045965772
49	0x3e39bb3d	0.18137832
50	0x3df6eb97	0.12056654
51	0xbb81b485	-0.003958287
52	0xbe7ff80b	-0.24996965
53	0x3e246aec	0.16056412
54	0x3e0cb9f7	0.13742815
55	0xbd1fcfb2	-0.039016433
56	0x3bc22d00	0.0059257746
57	0xbe485db4	-0.19566995
58	0xbe12ff52	-0.1435521
59	0xbe9c5d9f	-0.30540177
60	0x3dcf2419	0.10114307
61	0xbe8b333e	-0.27187532
62	0x3e13d2b1	0.14435841
63	0xbe5b8ef7	-0.21441256
64	0xbd0d4507	-0.034489658
65	0xbd2d3959	-0.04229102
66	0xbe0f3182	-0.1398373
67	0xbcf17873	-0.02947638
68	0xbe0e86f9	-0.13918675
69	0x3c80238d	0.015641952
70	0x3cc7eaa8	0.024403885
71	0xbd80adc9	-0.06283147
72	0xbd91b310	-0.071142316
73	0x3cbc8815	0.023014108
74	0x3b2a8f08	0.0026025195
75	0x3de3398d	0.11094961
76	0xbd92fcdd	-0.07177136
77	0xbdb9991a	-0.09062405
78	0xbdc9efbb	-0.09860178
79	0xbe89d2b4	-0.26918566
80	0x3c8c4ea2	0.017127339
81	0x3d957856	0.07298343
82	0x3ca82db1	0.0205296
83	0xbdb46202	-0.08807756
84	0x3c9a85a8	0.01886256
85	0xbd480d0b	-0.048840564
86	0xbde4fcc5	-0.111810245
87	0xbe21700f	-0.15765403
88	0x3ddbe171	0.10736359
89	0x3c7862b3	0.0151602505
90	0xbe084094	-0.13305885
91	0xbdcb9063	-0.09939649
92	0xbd7a6f35	-0.06114121
93	0xbde89ca4	-0.11358002
94	0xbd8b0df8	-0.06789774
95	0xbc711e29	-0.014716663
96	0xbd4fd535	-0.05074044
97	0x3dd58307	0.10425382
98	0x3d89e9a0	0.067340136
99	0xbe346ed2	-0.176204
100	0xbe352eeb	-0.17693679
101	0x3ceb25b4	0.028704502
102	0xbdccbfd4	-0.09997526
103	0xbeaf826f	-0.342792
104	0x3ded7a8e	0.11595641
105	0xbe3de908	-0.18545926
106	0x3e388e02	0.18022922
107	0x3d5a7414	0.053333357
108	0x3d97e546	0.07416777
109	0xbd869490	-0.06571305
110	0xbc10c647	-0.0088363355
111	0xbe152c7d	-0.14567752
112	0xbda7e92a	-0.081987694
113	0x3d4c4888	0.04987386
114	0xbcdb50d7	-0.026771946
115	0x3db7650e	0.089548215
116	0xbdfb9ded	-0.12285981
117	0xbc028610	-0.007966533
118	0x3e86f39b	0.2635773
119	0x3d955640	0.072918415
120	0xbe6eb5c1	-0.23311521
121	0x3ca17b4b	0.019712111
122	0x3d68cddc	0.056836948
123	0x3b7d3a2b	0.0038639407
124	0x3e22936d	0.15876551
125	0x3c0122d4	0.007881839
126	0xbbb9ff77	-0.0056762057
127	0x3dcc6200	0.099796295
128	0xbb1e0ff5	-0.0024118398
129	0x3e5038f2	0.20334223
130	0x3d8c6f79	0.06857199
131	0xbe0e74bf	-0.13911723
132	0x3c4c9bed	0.0124883475
133	0xb7e25b01	-2.6983676e-05
134	0x3e03792e	0.12839195
135	0x3d83989c	0.06425592
136	0xbdfab18c	-0.12240896
137	0xbddee6dd	-0.108838774
138	0x3e02f961	0.12790443
139	0xbd8cd543	-0.06876614
140	0x3e8acba9	0.27108505
141	0x3de69913	0.11259665
142	0x3cbfe407	0.023424162
143	0xbcdaf43e	-0.026727792
144	0x3e87f73f	0.2655582
145	0xbeb709f2	-0.35749775
146	0xbe4a1925	-0.19736154
147	0x3e59ad06	0.2125741
148	0xbccc7d1c	-0.024962
149	0x3e7baacd	0.24576874
150	0x3c66f549	0.0140965665
151	0x3df09922	0.11747958
152	0xbddd6817	-0.10810869
153	0xbe7155f8	-0.2356795
154	0x3e1c51d7	0.15265594
155	0x3e606bda	0.21916142
156	0xbe33af51	-0.17547347
157	0x3d855a1d	0.06511328
158	0x3e12fd6a	0.14354482
159	0x3e2a19fa	0.16611472
160	0xbdae49db	-0.085101806
161	0x3e620fe7	0.22076379
162	0x3af527ec	0.0018703914
163	0xbcd4ea1c	-0.025990538
164	0x3ca9cbde	0.020727094
165	0xbc87bd42	-0.016569737
166	0xbd92cebf	-0.0716834
167	0x3dfce32b	0.12348016
168	0xbd97cb73	-0.07411852
169	0xbd89ecf2	-0.06734647
170	0xbdbe4e1e	-0.092922434
171	0x3e38baaa	0.18039957
172	0xbe1f05d0	-0.15529561
173	0xbd94b957	-0.07261913
174	0x3e205fd2	0.15661553
175	0xbb68e71d	-0.0035538145
176	0x3dc471ac	0.09591994
177	0xbd07b34f	-0.033129986
178	0x3d5bafe3	0.053634536
179	0x3e0438dd	0.12912317
180	0x3dd55087	0.1041575
181	0xbe3517cf	-0.17684864
182	0xbe7b36e0	-0.24532652
183	0x3dbfaea5	0.09359483
184	0xbe280085	-0.16406448
185	0xbe9ddf8b	-0.30834612
186	0x3d382e91	0.044966284
187	0xbc94c147	-0.018158568
188	0xbce9ce3a	-0.02854072
189	0x3e87edf4	0.2654873
190	0x3e6c3cb0	0.23070025
191	0x3e8d0751	0.27544644
192	0xbbef7c36	-0.0073085083
193	0xbcc30290	-0.023804933
194	0xbd0a538d	-0.033771086
195	0x3d20775a	0.039176323
196	0xbec5683a	-0.3855608
197	0xbdfcf102	-0.12350656
198	0xbe5daafd	-0.21647258
199	0x3e099370	0.13435149
200	0x3e02dfd9	0.12780704
201	0xbdbef3ec	-0.09323868
202	0xbcb468e9	-0.022022681
203	0x3e86cc36	0.26327676
204	0xbe1d514a	-0.1536304
205	0xbe7ce798	-0.24697721
206	0xbe6b3a6f	-0.2297151
207	0xbd6aeab2	-0.05735273
208	0xbc172cc1	-0.009226979
209	0x3e9ed802	0.31024176
210	0xbd4e3bb3	-0.050349902
211	0x3d8d77b1	0.06907595
212	0xbdacd8dd	-0.08439801
213	0x3e9a672f	0.30156848
214	0x3d015442	0.031574495
215	0x3e3ab97c	0.18234819
216	0x3d86e5d0	0.06586802
217	0xbe644223	-0.22290854
218	0xbe0c2cd6	-0.13688979
219	0xbe42a25b	-0.19007246
220	0xbd2a8166	-0.04162731
221	0x3e2276f1	0.15865685
222	0xbd24f2cc	-0.04027061
223	0x3d52a27a	0.05142448
224	0xbe41be8c	-0.18920344
225	0xbe1847cd	-0.1487114
226	0xbead89f4	-0.33894312
227	0x3da981d5	0.082767166
228	0x3df11346	0.11771254
229	0x3e1bd2e8	0.15217173
230	0x3d77f099	0.060532186
231	0xbee57c05	-0.44821182
232	0x3e6fe8c3	0.23428635
233	0x3e119e2f	0.14220499
234	0x3dcbf26d	0.099583484
235	0xbdb31cfa	-0.08745761
236	0xbe3dc234	-0.18531114
237	0xbdfbc196	-0.12292783
238	0x3e4e367b	0.2013797
239	0x3cb165d6	0.021655004
240	0xbe92d171	-0.28675416
241	0xbe45a982	-0.19302943
242	0xbdfc9700	-0.123334885
243	0x3e3fe042	0.18737891
244	0xbe59e539	-0.21278848
245	0x3e24612e	0.16052696
246	0xbbf41234	-0.007448459
247	0xbdd7f389	-0.105444975
248	0x3e575570	0.21028686
249	0x3cb7ae78	0.02242206
250	0x3db4cb60	0.08827853
251	0xbc3a157b	-0.01135766
252	0xbe072ebc	-0.13201421
253	0xbe6b6803	-0.22988896
254	0x3e7af651	0.24508025
255	0x3d881a27	0.06645613

network_body._body_endoder.seq_layers.2.bias f4 [128]
0	0x3ceb5453	0.028726732
1	0xbdc84fd5	-0.09780852
2	0xbd3c8f26	-0.046034954
3	0xbe677b74	-0.22605687
4	0x3e87123b	0.26381096
5	0x3e8335cb	0.25626978
6	0xbd8127ed	-0.06306443
7	0xbd1ac70e	-0.03778749
8	0xbc728999	-0.014803314
9	0x3d3044e5	0.043034453
10	0xbd77e0a8	-0.060516983
11	0xbc145009	-0.009052285
12	0x3e258cb6	0.16166958
13	0xbda11809	-0.078659125
14	0x3d80e15a	0.062929824
15	0xbc68170b	-0.01416565
16	0xbd8b93d5	-0.06815306
17	0xbb400883	-0.0029301948
18	0xbb05de15	-0.002042656
19	0xbd4f47ae	-0.05060547
20	0x3dcafd33	0.09911575
21	0x3e34b1c5	0.17645939
22	0x3e751d48	0.23936951
23	0x3cf9f83d	0.030513877
24	0x3cb81cf3	0.022474742
25	0xbc615009	-0.013751992
26	0xbd96b9e7	-0.07359677
27	0x3d0b87bf	0.034065004
28	0xbd2a2f89	-0.04154924
29	0x3e823f28	0.2543881
30	0xbd3a8ffc	-0.04554747
31	0x3ded81bd	0.11597011
32	0x3e27dcb5	0.16392787
33	0xbc7ca7bb	-0.015420849
34	0x3de6fec8	0.112790644
35	0xbbe8e78e	-0.0071076816
36	0x3cf35cf7	0.029707415
37	0xbd2aa27f	-0.041658875
38	0x3d45a4d0	0.04825288
39	0x3b94c862	0.004540489
40	0xbc6968f6	-0.014246216
41	0x3d006dad	0.031354595
42	0x3db7432b	0.08948358
43	0xbdc0039f	-0.09375691
44	0x3e1baec1	0.15203382
45	0x3df36812	0.11885084
46	0x3c592f62	0.013255926
47	0xbbd45e32	-0.0064809555
48	0x3d9592e1	0.073034056
49	0x3d9dae5e	0.076992735
50	0x3d28b4b3	0.041187953
51	0xbd25144c	-0.04030256
52	0x3e087e2c	0.13329381
53	0xbc8e7f66	-0.017394733
54	0xbd21faba	-0.039545752
55	0x3c818818	0.015811965
56	0xbd1d5c72	-0.03841824
57	0x3e0898b2	0.13339499
58	0x3da55722	0.0807326
59	0xbc123dcb	-0.008925865
60	0x3e0eb4f5	0.13936217
61	0xbd9dd91f	-0.07707428
62	0x3e948618	0.29008555
63	0xbcd3952a	-0.025827963
64	0xbd82a10d	-0.06378374
65	0x3d069d3a	0.032864787
66	0xbd323bc5	-0.043514032
67	0x3b8d4757	0.004311483
68	0xbda10536	-0.07862322
69	0x3dfad9ce	0.12248574
70	0x3ddf9643	0.10917332
71	0x3d16ccb7	0.036816325
72	0x3d8573ae	0.06516205
73	0xbe634b43	-0.22196679
74	0x3d8b121a	0.06790562
75	0x3e0e3882	0.13888744
76	0xbd160cd8	-0.036633343
77	0x3ca811be	0.020516273
78	0x3d09b492	0.03361947
79	0xbd98d2fa	-0.074621156
80	0x3d734657	0.059393253
81	0xbd89fa6b	-0.067372166
82	0x3c91bc9b	0.01779013
83	0x3c4bd30f	0.012440457
84	0x3dafd0d9	0.085847564
85	0x3c1f9eaa	0.009742418
86	0xbdd92e96	-0.10604589
87	0x3e1a827e	0.15088841
88	0x3d54666a	0.051855482
89	0xbd392dae	-0.04520958
90	0xbd8b6d91	-0.068080075
91	0xbcd99418	-0.026559874
92	0x3d599c2d	0.053127456
93	0x395211d0	0.00020033796
94	0xbd049c71	-0.032375757
95	0x3d8c2ef2	0.068448916
96	0xbd7ca1ba	-0.061677672
97	0x3c05a21b	0.008156325
98	0x3de4973b	0.111616574
99	0x3db75aae	0.08952843
100	0xbd838e6c	-0.06423649
101	0xbd84280c	-0.06452951
102	0xbdb4ae18	-0.08822268
103	0x3ce45d50	0.027876526
104	0x3d9a8ae3	0.07546022
105	0x3df920e9	0.1216448
106	0x3d64fd14	0.055905417
107	0x3bb16a63	0.0054142936
108	0x3e2e30cd	0.17010804
109	0x3c95f78f	0.018306522
110	0x3d9e4cef	0.07729518
111	0xbe46f340	-0.1942873
112	0xbd994c01	-0.074852
113	0xbd224e2a	-0.039625324
114	0x3e011a7b	0.12607758
115	0xbcd18b46	-0.025579106
116	0xbd4167ce	-0.047218136
117	0xbd8113df	-0.06302618
118	0xbda13272	-0.0787095
119	0x3ddc4269	0.10754854
120	0xbd978f5b	-0.0740039
121	0xbbe479d1	-0.0069725295
122	0x3e8724d7	0.26395294
123	0xbcb5f06a	-0.022209365
124	0xbe7222e4	-0.23646122
125	0x3e0dfe18	0.1386646
126	0xbd98bb26	-0.07457571
127	0x3cc319f9	0.023816096

action_model._discrete_distribution.branches.0.weight f4 [3, 128]
0	0x3ec91c2a	0.392793
1	0xbd97cec6	-0.07412486
2	0xbe00a174	-0.1256159
3	0x3c1adf7a	0.009452695
4	0x3b9ccde0	0.0047852844
5	0xbe246a29	-0.16056122
6	0xbde63d0e	-0.11242114
7	0xbe851a6e	-0.25996727
8	0x3dab5bf6	0.083671495
9	0x3b8b2068	0.0042458065
10	0xbca3f7c5	-0.020015607
11	0xbeed3728	-0.46331143
12	0x3e385598	0.18001401
13	0xbc0e4602	-0.008683683
14	0x3d50e71c	0.051001653
15	0xbd896acd	-0.06709824
16	0xbed5ca1c	-0.4175576
17	0xbcc87f8e	-0.024474885
18	0x3d776d04	0.0604067
19	0x3e87c25c	0.26515472
20	0x3da36f4d	0.07980213
21	0x3e6e2604	0.2325669
22	0xbe08de36	-0.13366017
23	0x3d0d8a56	0.034555756
24	0xbdf53894	-0.11973682
25	0x3dead4bc	0.11466357
26	0xbbea6fc7	-0.007154438
27	0x3e6b984d	0.23007317
28	0xbe06e8b1	-0.13174702
29	0xbbee3091	-0.007268973
30	0xbdfa9a28	-0.12236434
31	0x3e872ee2	0.26402956
32	0xbe422d48	-0.18962586
33	0x3c1c3169	0.009533265
34	0x3ce2d23e	0.027688142
35	0xbd42d005	-0.047561664
36	0xbe1dae5e	-0.15398547
37	0xbf2998b6	-0.66248643
38	0xbd3a0f5a	-0.045424797
39	0x3e695b75	0.22788794
40	0x3e2a7ce7	0.16649209
41	0x3bb45c35	0.005504156
42	0x3e70da2d	0.23520727
43	0xbe90ea46	-0.28303736
44	0x3e64b3d4	0.22334224
45	0x3deaf326	0.11472158
46	0x3d6a8cae	0.05726307
47	0x3d64308c	0.05571036
48	0xbe4b8094	-0.19873267
49	0xbdca2781	-0.09870816
50	0x3dd1282b	0.102127396
51	0xbdf94ea9	-0.12173206
52	0xbe99dd7a	-0.30051786
53	0xbcd9d869	-0.02659245
54	0xbcc2724c	-0.023736142
55	0x3d1b8e99	0.03797779
56	0x3d3e87ad	0.04651611
57	0xbcfb7163	-0.030693715
58	0x3da8fae3	0.08250978
59	0x3e22ec9f	0.15910576
60	0xbe849ae0	-0.2589941
61	0xbe066944	-0.13126093
62	0x3da230e6	0.07919483
63	0x3d0b4b13	0.034007143
64	0x3cd3e7a7	0.025867296
65	0xbdb8e3dd	-0.090278365
66	0x3dc0a59c	0.094065875
67	0xbe51fd28	-0.20506728
68	0x3e1da3f6	0.15394577
69	0xbe01f00a	-0.12689224
70	0x3f044f2b	0.516833
71	0x3cfbec1e	0.030752238
72	0x3d11fc8e	0.035641246
73	0xbd7f664c	-0.062353417
74	0x3d870696	0.06593053
75	0xbe5ff59d	-0.21871038
76	0xbe72d547	-0.23714171
77	0xbec10dc9	-0.3770583
78	0xbd0105ad	-0.031499553
79	0x3c25fd71	0.010131226
80	0x3daa42ae	0.083134994
81	0x3e0f8768	0.14016497
82	0x3d1c6ba9	0.03818861
83	0xbd72a0c8	-0.059235364
84	0xbcd1286b	-0.025531968
85	0x3ee76008	0.45190454
86	0x3d9cdccc	0.07659301
87	0x3e60cab5	0.21952327
88	0xbd3c2542	-0.04593397
89	0x3dcd2ed4	0.100186974
90	0xbdde551c	-0.10856077
91	0xbe560804	-0.20901495
92	0x3e6bf095	0.23040994
93	0x3e98369e	0.2972917
94	0x3e4ee8ce	0.20205995
95	0xbea5107d	-0.32239142
96	0xbcc095c2	-0.02350891
97	0xbea7b6de	-0.32756704
98	0xbd135595	-0.03597029
99	0x3ebc5a99	0.3678787
100	0xbee5a391	-0.44851354
101	0xbea08c12	-0.31356865
102	0xbe0c6646	-0.13710889
103	0xbe0b0905	-0.1357766
104	0x3e840a88	0.25789285
105	0x3d594d95	0.053052504
106	0xbb06cc49	-0.002056854
107	0x3dc6e3da	0.09711428
108	0x3f1aff31	0.6054564
109	0xbe19bf36	-0.15014347
110	0x3e1dc67a	0.15407744
111	0xba1100ef	-0.000553145
112	0xbde9dc38	-0.114189565
113	0x3c114aa7	0.008867896
114	0x3ec73cff	0.38913724
115	0xbeb76357	-0.35817978
116	0xbdf99004	-0.12185672
117	0xbeddc92f	-0.43317553
118	0x3d6f96e6	0.058493517
119	0x3d067731	0.032828514
120	0x3e398ae4	0.18119389
121	0x3cb1e82a	0.02171715
122	0x3ea4e454	0.3220545
123	0xbe7896cb	-0.24276273
124	0x3c2ea228	0.010658778
125	0x3d6e3038	0.058151454
126	0x3d3811f9	0.044939015
127	0x3e5c03bc	0.214858
128	0x3df882f8	0.12134355
129	0x3c5d401d	0.013504055
130	0xbd1b6487	-0.037937667
131	0x3ae4ee45	0.0017466029
132	0xbcdf6bbb	-0.02727305
133	0x3c743e72	0.014907466
134	0xbb9a1988	-0.0047027506
135	0x3e2eb124	0.17059761
136	0xbe185145	-0.14874752
137	0x3e3ff78e	0.18746778
138	0x3e7b2c8d	0.24528714
139	0x3e526c9a	0.2054924
140	0x3e528ac8	0.20560753
141	0x3d639296	0.055559717
142	0x3e247659	0.16060771
143	0x3df4c1e3	0.119510435
144	0x3e8576a3	0.26067075
145	0xbd553ae9	-0.052058134
146	0x3e6c04df	0.23048733
147	0xbdb1c7cf	-0.086806886
148	0xbe3b81a7	-0.18311177
149	0x3c85d6a9	0.01633771
150	0x3c56edc9	0.013118216
151	0xb966fa30	-0.00022027711
152	0x3d914366	0.07092933
153	0xbde10155	-0.10986582
154	0xbd39ec34	-0.045391276
155	0xbb592293	-0.003313218
156	0x3e1d752a	0.15376726
157	0x3ca08e02	0.019598965
158	0x3dfc1b34	0.12309876
159	0xbe44ab66	-0.19206008
160	0xbc873108	-0.016502872
161	0x3d64fc36	0.05590459
162	0xbd8c7d17	-0.068597965
163	0x3db8bd0b	0.09020432
164	0x3dd7a29a	0.10529061
165	0x3e401e7b	0.18761627
166	0xbd2de1ec	-0.042451784
167	0x3d2ff384	0.042956844
168	0xbe874997	-0.26423332
169	0x3dd52f23	0.10409381
170	0x3d1dfc97	0.038570967
171	0x3e6ff868	0.23434603
172	0x3c093d76	0.00837647
173	0x3d37a3d7	0.044833984
174	0xbe3e3991	-0.18576647
175	0x3c9d1ad0	0.019177824
176	0xbe1aed3c	-0.1512956
177	0x3daaa2cb	0.083318315
178	0xbe270223	-0.16309409
179	0xbccc186e	-0.024913993
180	0x3e1021b4	0.14075357
181	0x3d96577a	0.073409036
182	0x3e31f0ff	0.17377089
183	0xbdf2e45f	-0.118599646
184	0xbe68cd97	-0.22734676
185	0x3d73f420	0.059558988
186	0xbe8acc3b	-0.2710894
187	0x3c5d7920	0.013517648
188	0x3e781702	0.24227527
189	0x3d4a67fb	0.04941557
190	0xbddc1b4a	-0.107473925
191	0xbe5fcda0	-0.21855783
192	0xbd8afb1a	-0.06786175
193	0x3d902082	0.070374504
194	0xbe33bd01	-0.17552568
195	0x3e1dc7b0	0.15408206
196	0xbc8cfcd7	-0.017210407
197	0x3d7c5da5	0.061612744
198	0x3dd1e42a	0.10248597
199	0x3dc4108f	0.09573471
200	0x3d5b303e	0.053512804
201	0xbca15f0d	-0.019698644
202	0x3e78b6f3	0.2428854
203	0x3c77434b	0.0150917275
204	0x3e0558c9	0.1302215
205	0x3e1de366	0.15418777
206	0x3e118217	0.14209782
207	0xbb9fccb6	-0.0048766984
208	0xbc5b6666	-0.013391113
209	0xbcccc518	-0.024996325
210	0xb9a9d86f	-0.00032395447
211	0x3d51af4a	0.05119256
212	0xbcba0d1f	-0.022711335
213	0x3c4dbe74	0.012557615
214	0xbd0f4948	-0.034981996
215	0xbe2583de	-0.16163585
216	0xbb200adf	-0.0024420542
217	0xbcd0a8c9	-0.025471108
218	0x3e088fa6	0.13336048
219	0x3e227da7	0.15868245
220	0xbdb7b0d4	-0.08969274
221	0xbe0fe93f	-0.1405382
222	0x3cf3dc05	0.029768
223	0x3e6f3675	0.23360617
224	0xbdadc367	-0.08484536
225	0x3e4d041b	0.20021097
226	0xbd5533a7	-0.052051213
227	0x3b726dda	0.0036991746
228	0x3e499359	0.19685115
229	0x3e85f5a8	0.26163983
230	0x3de51324	0.111852914
231	0x3dbf465d	0.093395926
232	0x3b86ae17	0.0041101086
233	0x3a19a237	0.0005860659
234	0x3df87e30	0.12133443
235	0xbd0d75c2	-0.03453613
236	0x3eec2508	0.46122003
237	0xbd3c2551	-0.045934025
238	0x3dbe3358	0.09287137
239	0x3d6ea585	0.05826332
240	0xbd0f688d	-0.035011817
241	0x3d141a25	0.036157746
242	0x3f0a944f	0.5413255
243	0x3d736a91	0.0594278
244	0xbc37cb90	-0.011217967
245	0x3e3cbba5	0.18430956
246	0x3dc1c575	0.0946149
247	0x3e312060	0.17297506
248	0xbd0d257a	-0.03445957
249	0x3daba39b	0.08380815
250	0xbc90ddad	-0.017683828
251	0x3e317925	0.17331369
252	0x3e08ea10	0.13370538
253	0x3d48e57e	0.049046986
254	0x3d2cb7ca	0.042167462
255	0xbcedbb3d	-0.029019946

action_model._discrete_distribution.branches.0.bias f4 [3]
0	0xbe61253b	-0.21986859
1	0x3e01a47e	0.12660405
2	0x3d95e4fa	0.073190644

action_model._discrete_distribution.branches.1.weight f4 [3, 128]
0	0xbdbfaa1e	-0.09358619
1	0x3e4356fc	0.1907615
2	0xb990fed8	-0.00027655694
3	0xbd05be67	-0.032652285
4	0x3cef8cb6	0.0292419
5	0xbdf06328	-0.117376626
6	0x3cadf7b8	0.021236286
7	0x3d08d98d	0.033410598
8	0x3ddbb308	0.10727507
9	0x3e3bcae5	0.18339117
10	0xbdc2ac4f	-0.095055215
11	0xbee09b2f	-0.43868396
12	0x3d67ec3a	0.056621768
13	0xbd31c20f	-0.04339796
14	0x3e11c448	0.14235032
15	0xbc5d4c7b	-0.013507004
16	0xbe011b8d	-0.12608166
17	0x3df8f4ce	0.12156068
18	0xbb598e80	-0.003319651
19	0xbe5a3584	-0.21309477
20	0x3eb6fc45	0.3573934
21	0xbc1bb159	-0.009502732
22	0x3e2b4ae2	0.16727784
23	0xbd323d12	-0.043515272
24	0x3e166f8a	0.14690986
25	0xbd9dc673	-0.07703867
26	0x3df69fae	0.12042175
27	0x3c856dcc	0.016287707
28	0xbc81f370	-0.01586315
29	0x3dad8de4	0.08474329
30	0x3db34b29	0.0875457
31	0x3dad68ab	0.084672295
32	0x3d5f2501	0.05447865
33	0xbd7be1eb	-0.06149475
34	0xbde8eca6	-0.11373262
35	0x3b1e5791	0.002416108
36	0x3deffa79	0.11717696
37	0xbd31b6c1	-0.04338718
38	0xbe04d73b	-0.12972729
39	0x3cf05796	0.02933864
40	0x3d4e7cf3	0.05041213
41	0xbdf7b34d	-0.12094746
42	0xbd9544d2	-0.07288517
43	0xbcc7ba18	-0.024380729
44	0x3e00471c	0.12527126
45	0x3da5b62f	0.080913894
46	0x3e1b57d2	0.1517022
47	0x3da27384	0.07932189
48	0xbe64451a	-0.22291985
49	0x3caa98b5	0.02082477
50	0xbe243d04	-0.160389
51	0x3c1eb14e	0.009685827
52	0xbc89a4bb	-0.016802182
53	0x3e767ad8	0.24070299
54	0x3d81f469	0.06345446
55	0x3e31a7b7	0.17349134
56	0x3dce4d82	0.10073377
57	0xbe84aa16	-0.25911015
58	0x3cae0621	0.021243157
59	0xbdfb8aeb	-0.12282356
60	0x3e0c6352	0.13709763
61	0xbcada0be	-0.021194812
62	0x3da0616b	0.07831081
63	0x3aee8ac4	0.0018199314
64	0xbd8684e2	-0.06568314
65	0xbd6a8c30	-0.0572626
66	0x3f2bda40	0.671299
67	0xbd0c1571	-0.034200136
68	0xbd7d864b	-0.06189565
69	0x3e728655	0.23684056
70	0x3cffdbf0	0.031232804
71	0x3e239266	0.15973815
72	0x3d8813a9	0.06644375
73	0xbd1bb6fe	-0.03801631
74	0x3e2d7f74	0.16943151
75	0x3d89389c	0.067002505
76	0xbdb29652	-0.087200776
77	0xbd890624	-0.06690624
78	0xbc028728	-0.007966794
79	0xbb0751f5	-0.0020648215
80	0x3d48b23f	0.048998114
81	0xbddabafb	-0.10680195
82	0x3e09971a	0.13436547
83	0x3abf3170	0.0014586877
84	0x3b1282bf	0.0022355763
85	0x3e24ccf1	0.16093804
86	0xbc83b4dd	-0.016077453
87	0x3e461317	0.1934322
88	0x3ce606a3	0.028079337
89	0x3df35935	0.11882249
90	0x3d512e67	0.051069643
91	0x3d86c8cc	0.06581268
92	0xbc972fd1	-0.018455418
93	0x3d8514bc	0.064980954
94	0x3d90032d	0.07031856
95	0xbd1a2c68	-0.037640005
96	0x3d22df2f	0.039763626
97	0xbcaff984	-0.021481283
98	0x3de4d200	0.11172867
99	0xbe31ff07	-0.17382441
100	0xbdd8cedf	-0.105863325
101	0xbdab0cda	-0.083520606
102	0xbb0a6766	-0.002111876
103	0x3e15a481	0.14613535
104	0xbd0c546b	-0.034260195
105	0x3bb40aea	0.005494465
106	0xbcf92be9	-0.030416446
107	0xbdf0b70b	-0.11753663
108	0x3d901a54	0.07036272
109	0xbd2625c2	-0.040563352
110	0xbd463710	-0.048392355
111	0x3c801b4c	0.015638016
112	0xbe2a90d5	-0.16656812
113	0x3ce89503	0.028391367
114	0xbea1ef62	-0.31627947
115	0x3e71f65a	0.23629132
116	0x3d94662b	0.072460495
117	0xbcf7dcbc	-0.030256622
118	0x3e2809ed	0.16410036
119	0xbe3efa98	-0.18650281
120	0xbe9f8839	-0.31158617
121	0x3e459eca	0.19298854
122	0xbc408122	-0.011749538
123	0x3d8563d4	0.06513181
124	0x3b28b15c	0.002574048
125	0xbd3b7405	-0.04576494
126	0xbdb95cfc	-0.090509385
127	0x3d0f92c2	0.03505207
128	0x3d78c4b1	0.060734455
129	0xbe7096f4	-0.23495084
130	0xbcb93a16	-0.022610705
131	0x3d396cff	0.045269962
132	0xbcf4cea2	-0.029883686
133	0xbbbf0c63	-0.005830334
134	0xbe25244f	-0.16127132
135	0x3e93330e	0.2874989
136	0x3e1a301d	0.15057416
137	0x3d68f9d2	0.056878872
138	0x3e0a919c	0.13532108
139	0x3e61c303	0.22047047
140	0x3d18a6bd	0.03726839
141	0xbcbbfe1e	-0.022948321
142	0x3e8b6d9c	0.27232063
143	0xbe08b7a5	-0.13351305
144	0x3e12a206	0.1431962
145	0xbe82e1ae	-0.25562805
146	0xbe3ba046	-0.18322858
147	0x3d6a4bc1	0.05720115
148	0xbe9ca2e3	-0.30593023
149	0x3e22a63b	0.15883724
150	0x3cd3d2b5	0.025857309
151	0x3d4220dc	0.04739462
152	0x3bc7fb32	0.006102943
153	0x3e0a6e41	0.13518621
154	0xbd63f239	-0.055650923
155	0xbdb15b81	-0.08660031
156	0xbbe8de1c	-0.0071065556
157	0x3dab0f36	0.08352511
158	0xbaec78f2	-0.0018041416
159	0xbd3063e7	-0.043064024
160	0x3db6011c	0.0888693
161	0xbe04284a	-0.12905994
162	0x3d4f69af	0.050637897
163	0xbcef4642	-0.029208306
164	0xbd77e1e3	-0.060518157
165	0x3dd16d6a	0.10225947
166	0xbd163fa1	-0.036681775
167	0xbd8a8f45	-0.06765608
168	0xbe78830f	-0.24268745
169	0xbe3cd3b8	-0.1844014
170	0xbc7ee87c	-0.015558358
171	0x3d93593d	0.07194755
172	0xbbd189a1	-0.0063945805
173	0xbe917e47	-0.28416654
174	0x3ea65b51	0.32491544
175	0xbde0b8e3	-0.10972764
176	0xbb4e61f6	-0.0031491495
177	0xbcae8946	-0.021305691
178	0x3dccc046	0.09997611
179	0xbdbe439b	-0.092902385
180	0x3e481977	0.19540964
181	0xbe1ec0e9	-0.15503277
182	0x3d284b45	0.041087408
183	0xbd2a0cb5	-0.041516025
184	0xbcc36156	-0.023850124
185	0x3d7e7ccb	0.06213073
186	0xbde3380a	-0.11094673
187	0xbd8a33cb	-0.0674816
188	0xbd00a0b4	-0.03140326
189	0xbde47edc	-0.11157009
190	0xbdadcc00	-0.084861755
191	0xbdf2b80c	-0.118515104
192	0x3e760707	0.24026118
193	0xbe574f0a	-0.21026245
194	0x3d11008b	0.03540091
195	0x3cf7baa5	0.030240366
196	0xbe2116cb	-0.15731351
197	0xbdf32527	-0.118723206
198	0x3d56a5e8	0.052404314
199	0xbd866be3	-0.065635465
200	0xbd7bb80b	-0.061454814
201	0xbc9237f0	-0.017848939
202	0x3c9e95d3	0.019358551
203	0xbe80ab05	-0.25130478
204	0xbc8ade70	-0.01695177
205	0xbc81b945	-0.015835414
206	0xbe632e07	-0.22185527
207	0x3ce0fd90	0.027464658
208	0xbbe91069	-0.007112552
209	0xbcd547d7	-0.026035232
210	0xbd9bfc9a	-0.07616539
211	0x3cd0ac75	0.025472859
212	0xbe6a0027	-0.2285162
213	0xbd65cf56	-0.056105934
214	0xbd83ecfa	-0.06441684
215	0xbe5cb89e	-0.21554801
216	0x3db4f968	0.08836633
217	0xbd23aa79	-0.039957497
218	0xbb7ec4f5	-0.003887472
219	0x3c46138e	0.012089623
220	0x3d54dcb0	0.051968277
221	0xbdfce3be	-0.12348126
222	0xbdae474c	-0.085096925
223	0x3cfde468	0.030992702
224	0xbe288ce2	-0.16459993
225	0x3c800cf2	0.015631173
226	0x3d956dd6	0.0729634
227	0x3e967175	0.29383436
228	0x3df35e66	0.118832394
229	0x3cc0d8cd	0.023540879
230	0xbde60c3e	-0.11232804
231	0x3d207dba	0.039182402
232	0xbd5840c6	-0.052796148
233	0xbcd68c2c	-0.026189886
234	0xbe58e320	-0.21180391
235	0xbdf662b2	-0.120305434
236	0x3cef8c78	0.029241785
237	0x3e3e6a17	0.18595158
238	0x3d218fed	0.0394439
239	0xbd4d93f0	-0.050189912
240	0x3cedd25a	0.029030968
241	0x3e008642	0.12551215
242	0x3e7df5bc	0.24800771
243	0x3e44fdf2	0.19237497
244	0xbbc46589	-0.0059935492
245	0xbd03a28e	-0.032137446
246	0xbdf91c4f	-0.121636026
247	0xbd2a1bb5	-0.04153033
248	0xbd2216f4	-0.03957267
249	0xbcb172b3	-0.021661138
250	0x3e091a6c	0.13388985
251	0xbcc66304	-0.024217136
252	0x3d889f82	0.06671049
253	0xbc5c60b2	-0.013450788
254	0x3a908311	0.0011025389
255	0xbc8cfb14	-0.017209567

action_model._discrete_distribution.branches.1.bias f4 [3]
0	0xbd109ada	-0.035303928
1	0x3ce4e49b	0.027941039
2	0x3d13096d	0.03589766

exp_avg f4 [128, 36]
0	0x38ccb4e6	9.761173e-05
1	0x3832dbf0	4.264334e-05
2	0x38489e8e	4.783138e-05
3	0x394440fa	0.00018716222
4	0xb8b87984	-8.796438e-05
5	0xb838a354	-4.402113e-05
6	0x385d9081	5.2825086e-05
7	0x3910d282	0.0001381133
8	0x35fc9329	1.8818292e-06
9	0x38190012	3.6478108e-05
10	0xb6c50af9	-5.872335e-06
11	0x38edd94a	0.00011341514
12	0x383cd98b	4.5025296e-05
13	0x387486a7	5.8299538e-05
14	0xb8073a70	-3.2240932e-05
15	0x38c7ef56	9.533639e-05
16	0x399e1594	0.00030152185
17	0x399e37a0	0.00030177552
18	0x3755a88f	1.2735035e-05
19	0x38e1e269	0.00010771008
20	0x380bd465	3.333799e-05
21	0x38e88197	0.0001108676
22	0x377919f7	1.4847602e-05
23	0x38f5dbf0	0.00011723477
24	0x374a7e0c	1.2069486e-05
25	0x3946ed1c	0.00018971082
26	0x3876cd91	5.884242e-05
27	0x39314138	0.00016904331
28	0x3851e2fc	5.004088e-05
29	0x392f4559	0.00016715135
30	0x383afc8c	4.458106e-05
31	0x3925233c	0.00015748752
32	0x383afc8c	4.458106e-05
33	0x3925233c	0.00015748752
34	0x3d31ebd7	0.043437805
35	0xbceebd20	-0.029142916
36	0x2e16fcaa	3.4330462e-11
37	0x2dd9df39	2.4769175e-11
38	0x2da0fd56	1.8302398e-11
39	0x2cf634ed	6.9976165e-12
40	0x2df81241	2.8202442e-11
41	0x2d61a6b9	1.2826789e-11
42	0x2d887ff9	1.5518241e-11
43	0x2c023fb4	1.8509473e-12
44	0xae90d5b0	-6.5863204e-11
45	0xae3918b9	-4.2086088e-11
46	0xacbf0d67	-5.4300345e-12
47	0xad5bfd60	-1.2504969e-11
48	0xae9d7fad	-7.162213e-11
49	0xaeb9e542	-8.4535504e-11
50	0xaeb7b8a0	-8.3546725e-11
51	0xaea0f520	-7.3195006e-11
52	0x2e213e8b	3.666271e-11
53	0xae186073	-3.4646463e-11
54	0xae436062	-4.4423472e-11
55	0xae0588f6	-3.0362345e-11
56	0xaec26431	-8.839896e-11
57	0xae4aa7c0	-4.6078474e-11
58	0xabf3d0bd	-1.7324125e-12
59	0xadcb9316	-2.3143747e-11
60	0xac62863d	-3.2191049e-12
61	0xad9d0b58	-1.7853871e-11
62	0x2b80f54b	9.16303e-13
63	0xad83aae3	-1.4968865e-11
64	0xac167422	-2.1380749e-12
65	0xad550540	-1.2108814e-11
66	0x298d7077	6.2811674e-14
67	0xad7f6de1	-1.451947e-11
68	0x298d7077	6.2811674e-14
69	0xad7f6de1	-1.451947e-11
70	0xb135f695	-2.6479132e-09
71	0xaf9be94f	-2.8360111e-10
72	0xaec4df10	-8.952672e-11
73	0xb0375a86	-6.6703654e-10
74	0x301053c7	5.250595e-10
75	0x2dc6f251	2.2617604e-11
76	0xb0d2df93	-1.5343055e-09
77	0xb118f76d	-2.2259556e-09
78	0xb1eb95a4	-6.8564123e-09
79	0xb1ec32cb	-6.8742785e-09
80	0xb172e23d	-3.5344236e-09
81	0xb18d7454	-4.116865e-09
82	0xb1f8e51c	-7.2437967e-09
83	0xb1d7b868	-6.278288e-09
84	0xb1e012bc	-6.521388e-09
85	0xb1f22ecf	-7.0484485e-09
86	0xb1f1e142	-7.039632e-09
87	0xb1d9f461	-6.343314e-09
88	0x3130086e	2.5616163e-09
89	0xb1e27c65	-6.5916077e-09
90	0xb1ffb57f	-7.4421105e-09
91	0xb1e9e792	-6.807519e-09
92	0xb1d89d97	-6.3043433e-09
93	0xb1f406e0	-7.1021162e-09
94	0xaf5fa2e5	-2.0339604e-10
95	0xb18c9ab0	-4.092122e-09
96	0xb0077fec	-4.92945e-10
97	0xb191f372	-4.247732e-09
98	0xaf548454	-1.93283e-10
99	0xb15a747c	-3.178939e-09
100	0xaf64df82	-2.0815885e-10
101	0xb15ef53a	-3.2444647e-09
102	0x2cd115cf	5.9425585e-12
103	0xb14e18da	-2.9991072e-09
104	0x2cd115cf	5.9425585e-12
105	0xb14e18da	-2.9991072e-09
106	0xb57744c2	-9.2114726e-07
107	0xb3ebf932	-1.09883686e-07
108	0xb7311d26	-1.0556809e-05
109	0x38a1ce8d	7.715551e-05
110	0x39854a33	0.0002542302
111	0x39e0f705	0.00042908653
112	0xb5d9958f	-1.6211287e-06
113	0x39186b3a	0.00014535795
114	0x38eb03ac	0.00011206357
115	0x39af82dd	0.00033476102
116	0x39134c05	0.00014047332
117	0x3977635e	0.00023592773
118	0x3925acdf	0.00015800026
119	0x39ac2df2	0.00032840628
120	0x38d98e56	0.000103738785
121	0x398d447a	0.00026944635
122	0x3930d1bb	0.00016862799
123	0x399b0987	0.00029571002
124	0x396b1668	0.00022419693
125	0x39e708c3	0.0004406628
126	0x38d947e8	0.0001036076
127	0x3992c1ed	0.00027991776
128	0x38ed31b3	0.00011310298
129	0x39d38853	0.00040346626
130	0x395d08c5	0.0002107947
131	0x39b20a86	0.00033958646
132	0x3970e88a	0.00022974811
133	0x39e63fa7	0.00043916443
134	0x391e0b88	0.0001507235
135	0x39aff407	0.00033560416
136	0x39840c7d	0.00025186306
137	0x39cea387	0.0003941322
138	0x3965d243	0.0002191747
139	0x39b8a1fe	0.00035215908
140	0x3965d243	0.0002191747
141	0x39b8a1fe	0.00035215908
142	0x3d9f4f03	0.07778742
143	0x3c9ea40b	0.019365331
144	0xb94734ad	-0.00018997742
145	0xb91fcaf5	-0.00015239029
146	0xb87d5f2f	-6.0408547e-05
147	0xb9062c49	-0.00012795733
148	0xb682c6fc	-3.8974667e-06
149	0xb7bfdc20	-2.2871478e-05
150	0xb756c331	-1.28008405e-05
151	0xb8d6b0c1	-0.00010237238
152	0xb8460797	-4.7213947e-05
153	0xb81178e2	-3.4683275e-05
154	0x379fca1a	1.9048388e-05
155	0xb8be96e8	-9.0880145e-05
156	0xb6a9a7c7	-5.0561243e-06
157	0xb83484b0	-4.303892e-05
158	0x37b0132a	2.0989759e-05
159	0xb89b1b20	-7.3960284e-05
160	0xb92c573e	-0.00016435698
161	0xb9305b3b	-0.00016818654
162	0x388f3ee6	6.830487e-05
163	0xb85dc304	-5.287213e-05
164	0xb8711e84	-5.7487297e-05
165	0xb906779b	-0.00012823792
166	0xb818bc94	-3.641525e-05
167	0xb89da411	-7.516903e-05
168	0xb865b31b	-5.476466e-05
169	0xb93302cc	-0.00017071812
170	0x3717e3d4	9.053347e-06
171	0xb8a27784	-7.7470235e-05
172	0xb8843f31	-6.306021e-05
173	0xb9128939	-0.00013974764
174	0xb6c50272	-5.871342e-06
175	0xb8cd4fba	-9.790012e-05
176	0xb6c50272	-5.871342e-06
177	0xb8cd4fba	-9.790012e-05
178	0xbd4eb566	-0.050465964
179	0xbd31bd44	-0.04339339
180	0xb8199714	-3.6618745e-05
181	0xb846b5e0	-4.7376263e-05
182	0x37468850	1.1833457e-05
183	0x387b4875	5.9910544e-05
184	0xb7d40677	-2.527538e-05
185	0xb79b60db	-1.8522542e-05
186	0x37e88189	2.7716875e-05
187	0x3869db85	5.5755972e-05
188	0xb7a9ef4a	-2.0257798e-05
189	0xb6edd2b0	-7.0876777e-06
190	0xb4a73437	-3.1144165e-07
191	0x382e4f3c	4.1558626e-05
192	0x379258f2	1.7445975e-05
193	0x37a22d7e	1.9333089e-05
194	0xb737ef06	-1.0963302e-05
195	0x38191d34	3.650524e-05
196	0x37c4d435	2.3463837e-05
197	0x38647df5	5.4476743e-05
198	0x35e292d7	1.6881048e-06
199	0x38095b3f	3.2748325e-05
200	0xb473d144	-2.2707269e-07
201	0x37f2f13b	2.896098e-05
202	0x370260ac	7.771112e-06
203	0x382fe0d2	4.193263e-05
204	0x378fff4e	1.7165814e-05
205	0x38afa23f	8.374871e-05
206	0x37a5c665	1.9761917e-05
207	0x387504cc	5.841702e-05
208	0x37be168d	2.2660266e-05
209	0x388fb150	6.8517984e-05
210	0x37a4a008	1.9624844e-05
211	0x38774592	5.895418e-05
212	0x37a4a008	1.9624844e-05
213	0x38774592	5.895418e-05
214	0x3c3da5ce	0.011575175
215	0xbc4d982d	-0.012548489
216	0xb4afc74c	-3.2741298e-07
217	0xb673b36b	-3.6314257e-06
218	0xb62aa263	-2.5426496e-06
219	0xb6aa9410	-5.0836315e-06
220	0xb4a9b734	-3.1612e-07
221	0xb67bcdf6	-3.75218e-06
222	0xb5a6262c	-1.2379073e-06
223	0xb69e0619	-4.709477e-06
224	0xb60f18c7	-2.1323083e-06
225	0xb6a4257c	-4.8919446e-06
226	0xb6aaf810	-5.095273e-06
227	0xb6ad86ae	-5.1714806e-06
228	0xb57c0e31	-9.3897967e-07
229	0xb6a124fe	-4.8024804e-06
230	0xb6bdc548	-5.6556055e-06
231	0xb6b3cfb7	-5.358797e-06
232	0xb51d1816	-5.852211e-07
233	0xb699f637	-4.5884185e-06
234	0xb69da92c	-4.698659e-06
235	0xb6a28182	-4.843053e-06
236	0xb55236d3	-7.8310876e-07
237	0xb69c9471	-4.666443e-06
238	0xb6714afd	-3.5955447e-06
239	0xb6a0f5d5	-4.79699e-06
240	0xb69d2d00	-4.6842033e-06
241	0xb6b009d7	-5.2463542e-06
242	0xb63718eb	-2.728363e-06
243	0xb69d11ac	-4.681022e-06
244	0xb679c001	-3.7215652e-06
245	0xb6a0e71f	-4.7952776e-06
246	0xb679080b	-3.7108573e-06
247	0xb6a276e0	-4.841815e-06
248	0xb679080b	-3.7108573e-06
249	0xb6a276e0	-4.841815e-06
250	0xb9b2038d	-0.0003395345
251	0xba783fd8	-0.00094699627
252	0x376c1705	1.4072056e-05
253	0xb71051c6	-8.602108e-06
254	0xb8a22380	-7.731374e-05
255	0xb967b74e	-0.00022098163

exp_avg_sq f4 [128, 36]
0	0x3386e5cd	6.281662e-08
1	0x342f8b92	1.634892e-07
2	0x3375859f	5.7165035e-08
3	0x34335a20	1.6703461e-07
4	0x3331ff03	4.1442956e-08
5	0x34180669	1.4158435e-07
6	0x334342c1	4.5462688e-08
7	0x342f34ca	1.631735e-07
8	0x32b723f0	2.1320346e-08
9	0x341d9f09	1.4679621e-07
10	0x334cfc65	4.7727003e-08
11	0x34264c4c	1.5487711e-07
12	0x33decfe3	1.0375495e-07
13	0x343c84e2	1.7557207e-07
14	0x337055ea	5.5957493e-08
15	0x343a0aae	1.7326485e-07
16	0x34711ff1	2.2456494e-07
17	0x34898a69	2.5618945e-07
18	0x33a85959	7.839362e-08
19	0x3456ed42	2.0016617e-07
20	0x34079040	1.2625333e-07
21	0x34324237	1.660163e-07
22	0x336adeb6	5.4684925e-08
23	0x34539918	1.9706602e-07
24	0x33e5475a	1.0676622e-07
25	0x3441d0c2	1.8050471e-07
26	0x341a364a	1.4362118e-07
27	0x347ff379	2.38373e-07
28	0x34345101	1.6793275e-07
29	0x347d2935	2.3577452e-07
30	0x347c1cce	2.3479808e-07
31	0x34a715eb	3.112212e-07
32	0x347c1cce	2.3479808e-07
33	0x34a715eb	3.112212e-07
34	0x3d606d3f	0.054791685
35	0x3b69504b	0.0035600837
36	0x2fab7817	3.1190048e-10
37	0x2fb4b7b1	3.287233e-10
38	0x2f845f89	2.4078542e-10
39	0x2f953ae0	2.7144775e-10
40	0x2fc3d252	3.5619735e-10
41	0x2fc8d632	3.6531983e-10
42	0x2feeee6c	4.3461357e-10
43	0x2ffe7b16	4.628979e-10
44	0x2fd93251	3.9507822e-10
45	0x2fe22e80	4.11422e-10
46	0x3011d58c	5.305416e-10
47	0x301d735f	5.728022e-10
48	0x30179ce1	5.515642e-10
49	0x302ecf2b	6.3595235e-10
50	0x2f8f8a4b	2.6109812e-10
51	0x3024a429	5.989614e-10
52	0x301c7f09	5.6932997e-10
53	0x3038e44c	6.726324e-10
54	0x2f7a9c9c	2.2793006e-10
55	0x3003ce20	4.7950444e-10
56	0x2f71255e	2.1932098e-10
57	0x300bc19e	5.084305e-10
58	0x2bd4a929	1.5110457e-12
59	0x2f4c053a	1.8555549e-10
60	0x2da9b689	1.9294137e-11
61	0x2f651767	2.0835743e-10
62	0x29803534	5.693571e-14
63	0x2f05e3fd	1.2177277e-10
64	0x2a8e4297	2.5270473e-13
65	0x2f0e6460	1.2950485e-10
66	0x28c0ba9c	2.1397211e-14
67	0x2efb3175	1.1422944e-10
68	0x28c0ba9c	2.1397211e-14
69	0x2efb3175	1.1422944e-10
70	0x32e838e1	2.703422e-08
71	0x34321aec	1.6587336e-07
72	0x2e8ec1c6	6.4918335e-11
73	0x2ea5a6c1	7.532953e-11
74	0x2e11a954	3.3119577e-11
75	0x2e49ecda	4.5912475e-11
76	0x2f576d70	1.9593016e-10
77	0x2f5d83b5	2.0146625e-10
78	0x2ea81d19	7.644924e-11
79	0x2edb52d9	9.973684e-11
80	0x2f8f2b88	2.604248e-10
81	0x2f8fded0	2.6169866e-10
82	0x2f590e28	1.9741064e-10
83	0x2f852103	2.4216015e-10
84	0x2fa31f8f	2.967195e-10
85	0x2fa3c857	2.9791877e-10
86	0x2ef1e22f	1.09995894e-10
87	0x2f809203	2.3386812e-10
88	0x2f9bb4ce	2.8322805e-10
89	0x2fa357eb	2.9711997e-10
90	0x2ed917de	9.872257e-11
91	0x2f69f116	2.1276877e-10
92	0x2f1ea78d	1.4429542e-10
93	0x2f816817	2.3538924e-10
94	0x2a015f57	1.1490579e-13
95	0x2ebb6668	8.5219665e-11
96	0x2b042733	4.695022e-13
97	0x2ebef888	8.684348e-11
98	0x2803fe91	7.327161e-15
99	0x2e605e5c	5.101551e-11
100	0x2838c8f1	1.0257624e-14
101	0x2e5f7875	5.0811317e-11
102	0x27b8d431	5.1300318e-15
103	0x2e3ef3db	4.3417585e-11
104	0x27b8d431	5.1300318e-15
105	0x2e3ef3db	4.3417585e-11
106	0x329c30d9	1.8183004e-08
107	0x338c28fd	6.526714e-08
108	0x3541b55c	7.2162015e-07
109	0x3594dae8	1.1090569e-06
110	0x3521f0ca	6.032757e-07
111	0x358ac141	1.0338046e-06
112	0x35500825	7.749789e-07
113	0x3596b11f	1.122742e-06
114	0x35369f9a	6.8032534e-07
115	0x35852560	9.92015e-07
116	0x354ee4f7	7.707417e-07
117	0x358e704c	1.0612507e-06
118	0x3511e47c	5.43492e-07
119	0x357dc24e	9.4532595e-07
120	0x35370c43	6.8190656e-07
121	0x358c575d	1.0456239e-06
122	0x34fa3186	4.6602162e-07
123	0x3575df8f	9.1594933e-07
124	0x3557cbe0	8.039042e-07
125	0x3599972a	1.1443383e-06
126	0x35104bb2	5.375433e-07
127	0x357ebcc1	9.4897047e-07
128	0x35386168	6.8687086e-07
129	0x358e6142	1.060813e-06
130	0x35070c27	5.0309103e-07
131	0x357a39c0	9.3216295e-07
132	0x35252f2c	6.1535934e-07
133	0x3588dedd	1.0197651e-06
134	0x34d3df6c	3.9464373e-07
135	0x3573d43c	9.0833396e-07
136	0x3507401e	5.038472e-07
137	0x358092f4	9.579512e-07
138	0x350ef732	5.325884e-07
139	0x3589b671	1.0260393e-06
140	0x350ef732	5.325884e-07
141	0x3589b671	1.0260393e-06
142	0x3d9daf97	0.07699507
143	0x3db77626	0.08958082
144	0x3491c0bb	2.7148585e-07
145	0x34c51677	3.6710455e-07
146	0x341ead3a	1.4777916e-07
147	0x34953703	2.779344e-07
148	0x349e5d60	2.9497733e-07
149	0x34c657e6	3.6944328e-07
150	0x33eff250	1.1173381e-07
151	0x3467ff88	2.1606513e-07
152	0x349950e9	2.855734e-07
153	0x34c1640d	3.6021848e-07
154	0x33be1c2c	8.852689e-08
155	0x345c6489	2.0525671e-07
156	0x34961394	2.7953922e-07
157	0x34bd3db2	3.5248883e-07
158	0x33a85259	7.8380886e-08
159	0x345a462a	2.0328358e-07
160	0x349a0ca4	2.8693933e-07
161	0x34b87fb2	3.436558e-07
162	0x33c4f3b2	9.171289e-08
163	0x346a4555	2.1818171e-07
164	0x34801749	2.38588e-07
165	0x34a2a1a2	3.0292455e-07
166	0x33be9630	8.8748834e-08
167	0x347462a7	2.276016e-07
168	0x34476ad6	1.8572186e-07
169	0x34a0d3c8	2.9956414e-07
170	0x33b43659	8.391789e-08
171	0x348b0cca	2.5900073e-07
172	0x33d7fd12	1.0057751e-07
173	0x34926b67	2.7272765e-07
174	0x3400ae8e	1.1984432e-07
175	0x34a5bcef	3.0871112e-07
176	0x3400ae8e	1.1984432e-07
177	0x34a5bcef	3.0871112e-07
178	0x3cebcddd	0.028784687
179	0x3c86dd8a	0.01646306
180	0x32843e42	1.5395134e-08
181	0x3336d234	4.2566356e-08
182	0x324256fa	1.1312062e-08
183	0x33225fb5	3.780561e-08
184	0x32349476	1.0511135e-08
185	0x32f792d6	2.8821358e-08
186	0x320c21d7	8.156767e-09
187	0x32e40a69	2.6547427e-08
188	0x31adc3d8	5.0572275e-09
189	0x32d7ca40	2.5121267e-08
190	0x32085ae2	7.936906e-09
191	0x32ec5e0d	2.7516785e-08
192	0x324c76e3	1.19013945e-08
193	0x3300b47b	2.996647e-08
194	0x3228abc2	9.81794e-09
195	0x33310b44	4.122127e-08
196	0x338338b9	6.110481e-08
197	0x338fd717	6.698081e-08
198	0x32d4d9d5	2.4779107e-08
199	0x334a852a	4.7152902e-08
200	0x32eb3a67	2.7384159e-08
201	0x33230515	3.7956017e-08
202	0x3252338b	1.2235328e-08
203	0x33145229	3.453366e-08
204	0x329993bb	1.7878724e-08
205	0x33160e15	3.4937404e-08
206	0x3266cf3e	1.3434883e-08
207	0x332e55d1	4.059058e-08
208	0x3304411d	3.0792865e-08
209	0x33425d46	4.5253977e-08
210	0x3308d6ee	3.1860445e-08
211	0x339b8bba	7.243166e-08
212	0x3308d6ee	3.1860445e-08
213	0x339b8bba	7.243166e-08
214	0x3c6a4d77	0.014300696
215	0x3a0b8beb	0.00053232786
216	0x337f9312	5.9505574e-08
217	0x338b2ae6	6.480495e-08
218	0x33029395	3.040221e-08
219	0x332e0a4c	4.0521897e-08
220	0x3375de32	5.7245593e-08
221	0x338c25e1	6.526148e-08
222	0x3302411a	3.0327193e-08
223	0x3330302d	4.102201e-08
224	0x33379066	4.2739337e-08
225	0x335e63d8	5.177921e-08
226	0x3302102d	3.0282695e-08
227	0x334162f9	4.502633e-08
228	0x331fd094	3.7209773e-08
229	0x3355ddda	4.97947e-08
230	0x32f3aedf	2.8368445e-08
231	0x334ab396	4.7195122e-08
232	0x3333c431	4.185512e-08
233	0x337a430e	5.8268647e-08
234	0x32c0ff24	2.2467766e-08
235	0x333b2745	4.3575046e-08
236	0x32cffb68	2.4212298e-08
237	0x3356378e	4.9876284e-08
238	0x324f697f	1.2072973e-08
239	0x33146213	3.4548133e-08
240	0x3278f0c9	1.4490248e-08
241	0x332bd81c	4.001059e-08
242	0x31f40000	7.1013346e-09
243	0x32f376c1	2.8342926e-08
244	0x3204cfd6	7.730668e-09
245	0x33056c93	3.1065223e-08
246	0x31ae307d	5.069579e-09
247	0x32ebd7f5	2.7455807e-08
248	0x31ae307d	5.069579e-09
249	0x32ebd7f5	2.7455807e-08
250	0x379ce9e8	1.870557e-05
251	0x3bafe151	0.005367436
252	0x33ab3d92	7.9740076e-08
253	0x34175110	1.4092461e-07
254	0x33bf09c6	8.8959084e-08
255	0x34221ba4	1.5097481e-07
