results/DodgeAgentBulletsTest11_Improved/Dodge/Dodge-6499576.onnx (onnx, 91145 bytes, 9 tensors)

action_model._discrete_distribution.branches.0.bias f4 [3]
000000 c1 4e bc bd b3 8a 08 3e 4e a5 70 bd
       -0.091947086 0.1333416 -0.058751397

action_model._discrete_distribution.branches.0.weight f4 [3, 128]
000000 65 f3 25 3d 73 58 d8 bc 0a 9f c0 3c 9f a4 97 3b
       0.040515322 -0.026409363 0.023513336 0.0046277787
000010 9e 3a bb bc 16 69 c6 3c a7 a8 3b bc 73 c2 17 3d
       -0.0228551 0.02422003 -0.011453784 0.037050676
000020 e8 34 aa 3d c9 ae 2e 3d 42 4b ef 3c 56 78 a5 bd
       0.08310872 0.042647157 0.02921069 -0.08079593
000030 12 d8 02 3e b1 b8 b8 3b 54 fd c3 3d a6 b3 4a 3d
       0.12777737 0.0056372513 0.09569803 0.049487732
000040 a6 96 c0 3c 61 74 87 3d 12 07 27 bb 08 c7 66 3e
       0.023509335 0.066139944 -0.0025486392 0.22536862
000050 ed fa 61 bc f1 aa 67 3d ee 14 55 3c 2b 60 c1 3d
       -0.0137927355 0.056559507 0.013005478 0.09442171
000060 be 8b 09 3b 3c 7f c7 3d ae a5 e0 bc 78 e0 fe 3d
       0.0020987834 0.09741065 -0.027422752 0.12445158
000070 d9 82 fd 3c 23 84 a1 bc a9 13 51 3e 2d f2 3c 3e
       0.030946182 -0.019716328 0.20417656 0.18451758
000080 fd 0d 07 bb 07 9c 98 3d fa 48 65 bc 1e 7b 49 3c
       -0.0020607703 0.07451635 -0.01399445 0.01229742
000090 2a ab ac 3c bd 12 75 bd 10 81 00 bd 07 a8 98 3a
       0.021077711 -0.059832323 -0.031373084 0.0011646756
0000a0 2b 8d 6d 3d ff 0c 82 3c 37 57 d8 3d e9 57 c3 bc
       0.057995956 0.015875338 0.1056351 -0.02384563
0000b0 77 ad a5 bc 1f 3b 34 bd 23 26 9f 3d 2f 5e e7 bc
       -0.020224316 -0.044001695 0.07770946 -0.028243152
0000c0 9e 08 29 3c 53 90 c6 3c f5 71 bb bc 02 aa 53 3d
       0.010316996 0.024238741 -0.022881487 0.051675804
0000d0 4f 27 20 3c 66 f1 ab 3d f7 88 cc 3c bb af 91 3c
       0.009774997 0.083956525 0.024967654 0.01778399
0000e0 1b fa 8f bc 47 fc 96 bd a2 14 cc 3c 62 46 9f 3d
       -0.017575314 -0.07372337 0.024912182 0.07777096
0000f0 bc 4c 17 bd 78 03 a2 bc 7f 87 f6 3c d0 bd 7e 3d
       -0.036938414 -0.019777045 0.030093906 0.062192738
000100 ce f5 32 bd ea 69 c6 39 a1 1c 8c 3d fc 4b a5 bd
       -0.04369145 0.00037844415 0.06841398 -0.080711335
000110 64 bb 82 3d cc f7 d7 bc 09 41 88 3d 04 66 4f 3d
       0.06383398 -0.026363276 0.066530295 0.0506344
000120 4e 97 7c 3c b1 b9 c4 bc 16 f1 66 bd 2d ef 40 bd
       0.015416933 -0.024014326 -0.05638226 -0.047103096
000130 22 b6 13 bd 45 b0 ad bc 97 91 85 bc 85 e4 fb 3c
       -0.036062367 -0.021202216 -0.016304774 0.030748615
000140 20 3d e2 3c 74 88 1f 3d 5e 53 47 3d eb 14 b4 3c
       0.027617037 0.03894849 0.04866349 0.02198263
000150 e0 23 02 3c e5 15 1c 3e df 6c 4b 3d b4 f5 15 3e
       0.007943124 0.15242727 0.049664374 0.1464451
000160 1d 16 4c bd c0 10 a7 3d a9 c8 76 bc 92 26 8a bb
       -0.049825776 0.08157492 -0.01506249 -0.0042160237
000170 e7 2e d5 3d 01 d1 8b 3c 52 f6 a9 3d aa 6f 3c bc
       0.104093365 0.017067434 0.08298935 -0.011501232
000180 a4 61 b0 3d ab d4 99 bd d6 90 33 bd ee f6 0d 3e
       0.086123735 -0.07511266 -0.0438393 0.13863727
000190 2b ab 91 bd ad 7a 92 bd af fc a1 3a 20 3f 8c bd
       -0.07112726 -0.07152305 0.0012358631 -0.06847978
0001a0 f6 e9 25 3d c9 12 07 bd 1a d4 7a bc 6e 1a 07 3d
       0.040506326 -0.0329769 -0.015309358 0.03298419
0001b0 ed b2 c8 3d bd 4e c1 3c d4 b3 e5 b9 ee df c9 3c
       0.097997524 0.023597116 -0.00043812266 0.02464291
0001c0 6a 5c cc 3d d3 e6 4e bc a4 67 dd 3c 22 7b 21 3d
       0.09978564 -0.012628275 0.027026959 0.03942407
0001d0 c9 38 71 3d 6f a4 a5 bd 69 36 ee bb a2 c6 9c bc
       0.058892045 -0.08088004 -0.00726967 -0.019137684
0001e0 a0 f7 77 3d d5 91 b7 bc d3 b3 0b 3d 94 58 08 bd
       0.060538888 -0.022408405 0.03410704 -0.0332876
0001f0 fd cd 28 bc 7c ef bb bc bb 2b 30 bc 79 bc fb 3d
       -0.010303018 -0.022941343 -0.010752614 0.12291808
000200 fb 18 cc bd 0d 32 2e bd 4b c1 1a bd b3 fd 7d bd
       -0.09965702 -0.0425282 -0.037781995 -0.062009525
000210 eb 91 1f 3d 0d 91 88 bd 95 3f 36 bc a4 71 c6 bd
       0.038957518 -0.06668291 -0.011123558 -0.09689644
000220 68 e0 ca bd 8d ab 4a bd b4 5c 2f bd 19 9d 68 bd
       -0.09906083 -0.04948001 -0.042813018 -0.056790445
000230 9e 55 f1 bd 6a dc 3c bc 81 e6 a2 bd 09 04 a7 bd
       -0.11783908 -0.01152716 -0.079541214 -0.081550665
000240 50 e5 a9 bd 8c 7a d4 bd d6 f5 2e bd 56 9e 65 be
       -0.08295691 -0.103749365 -0.042714916 -0.22423682
000250 e8 06 0f bd 07 1e 6e bd b4 40 e3 bc 70 4f 98 bd
       -0.034918696 -0.058134105 -0.027740814 -0.074370265
000260 1c 95 c5 bd 1f 19 34 be 42 9d f4 bc 88 f9 2b be
       -0.09647581 -0.17587708 -0.029860143 -0.16794407
000270 cd 71 d3 bc 77 e9 8e 3d 15 23 18 be 24 11 6e be
       -0.0258111 0.06978124 -0.14857133 -0.23248726
000280 78 c2 bd bd 04 dd b0 bd f7 01 02 be 0d c3 bc bd
       -0.092656076 -0.086359054 -0.12696062 -0.092168905
000290 62 d9 7d bd 08 ea 12 bd 0a 84 3d 3c 8c eb f2 3c
       -0.06197489 -0.03586772 0.011567125 0.029653333
0002a0 c5 9c 24 be 4b 9a b6 bd ed 80 f0 bd 25 ee dd bc
       -0.16075428 -0.08916148 -0.11743341 -0.027091095
0002b0 21 42 20 bd 12 0a 34 bd 61 c6 0d be a2 47 09 3d
       -0.039125565 -0.043954916 -0.13845207 0.03351558
0002c0 49 70 c7 bd 13 71 38 3d 9b fe d2 bc 53 ed 21 bd
       -0.097382136 0.04502971 -0.025756171 -0.03953297
0002d0 5a ea 5c 3d b4 6e c1 bd 65 cb 2f bd 18 f5 d0 bd
       0.053934433 -0.09444943 -0.04291858 -0.10202998
0002e0 f5 77 da bd d1 57 54 3c 4e 07 15 bd d6 c2 16 be
       -0.10667411 0.01296039 -0.03638392 -0.14722762
0002f0 8c 71 58 3d 13 63 58 bd e2 6d ef bc 95 a3 05 be
       0.05284266 -0.05282886 -0.0292272 -0.13050683
000300 ef d2 87 bc bf 4a 6a bd 27 67 ed bd 83 d2 1a 3c
       -0.016580073 -0.05720019 -0.115919404 0.009449604
000310 19 9f 72 bd 71 48 9a bd d1 d3 0e bd f6 cd cf bd
       -0.05923376 -0.07533348 -0.034869973 -0.10146706
000320 10 ab 77 bd c5 ef 55 ba cf b3 9e 3c 5d 62 1f bb
       -0.060465872 -0.00081610336 0.019372849 -0.0024320104
000330 27 5e fe 3c 04 38 a5 bc 5a 0c 26 bd e1 4b 53 bd
       0.031050755 -0.020168312 -0.040539123 -0.051586036
000340 55 44 41 bc 4a e5 37 bd ca 0e ef bd 58 ce f1 bc
       -0.011796077 -0.0448964 -0.11672743 -0.029517338
000350 77 2e 8d bd ef f1 0c be a4 8d 87 bd dd a6 2c be
       -0.06893628 -0.13764165 -0.06618813 -0.16860528
000360 51 f5 db bc 9b 0c 04 be 26 49 38 bd 6a fe a0 bd
       -0.026850374 -0.12895434 -0.044991635 -0.07861026
000370 6f ac 06 be 75 28 e0 bd 91 9d 75 bd 6c 6f 17 3d
       -0.13151716 -0.109452166 -0.05996472 0.036971495
000380 3f 3e 2e be 18 16 bd 3d 9d 5c d5 bc 55 3a 0f be
       -0.17015933 0.0923273 -0.026045138 -0.13987096
000390 ae 8c 0d ba 77 b6 8d bc bf 06 22 bd 08 74 22 bc
       -0.0005399686 -0.01729892 -0.039557215 -0.009915359
0003a0 4c 23 41 bd 4b 3c 2f 3d 5c 66 97 3c 37 de 85 bd
       -0.047152802 0.04278211 0.018481426 -0.06536525
0003b0 cf b3 49 bd 88 0d e9 bd 94 d8 7b bc 21 9c 86 bd
       -0.049243744 -0.11379534 -0.0153714605 -0.06572748
0003c0 f1 2f 15 be 28 e5 a6 bc 5e 3e f5 bc e1 e3 b3 bd
       -0.1456907 -0.020372942 -0.029936966 -0.08783699
0003d0 4d 56 91 bd a1 35 81 bb 63 dd 4e bd ab 6b 53 3d
       -0.07096539 -0.0039431606 -0.0505041 0.051616352
0003e0 08 85 ba bd 55 98 5b bd 1f 73 d1 bd 17 a5 14 3d
       -0.09107405 -0.053612072 -0.10227036 0.036290254
0003f0 13 03 57 3d 6d ea 00 3d fe 03 0d 3d 2d 61 08 be
       0.052493166 0.031473566 0.034427635 -0.1331832

action_model._discrete_distribution.branches.1.bias f4 [3]
000000 36 50 b0 bd 68 7b 34 3e 62 04 aa bd
       -0.08609049 0.17625201 -0.08301617

action_model._discrete_distribution.branches.1.weight f4 [3, 128]
000000 37 c5 28 3d 59 16 0e bc aa 07 55 bd 9e 34 5c 3c
       0.041203704 -0.00867232 -0.052009262 0.013440279
000010 58 d3 94 bc 0d 79 31 3b b5 ac 3a 3d fe a9 be 3c
       -0.018167183 0.0027080209 0.045574863 0.023274418
000020 9d 63 0f 3d d0 ea 8e 3d 89 63 bb 3b 37 ff 21 bc
       0.035007108 0.06978381 0.0057186526 -0.009887508
000030 51 2c de 3d c6 93 9d bc 33 fb 45 3d 11 98 91 3d
       0.108482964 -0.019235503 0.048335265 0.071090825
000040 cf 77 f0 3c 58 74 9a 3d 23 f9 e0 3d 49 db e4 3c
       0.029354004 0.07541722 0.10985019 0.027936595
000050 0f 6c 2b 3d 8d b7 92 3d f1 d3 ef 3c 72 86 1e bd
       0.0418511 0.07163916 0.029275866 -0.038702436
000060 b8 b4 18 3d 19 75 15 bd 7a 30 df bc 6c 06 89 bd
       0.03728172 -0.036488626 -0.027244795 -0.06690678
000070 9b ca 8f bc a8 55 07 bc 4c f6 df bc f5 34 de 3d
       -0.017552665 -0.008260168 -0.027339123 0.108499445
000080 cc 26 53 3d 2b ec 8d 3c 3c 55 91 bd a8 5a b4 3c
       0.05155067 0.017324528 -0.07096335 0.022015885
000090 0d b4 cc 3c 71 97 68 3c ac 97 01 3c 6b ab cc 3c
       0.024988199 0.014196263 0.007909697 0.024984082
0000a0 40 02 74 bd 38 0c 9c 3c 5c 39 bb 3c ba 45 e4 3b
       -0.05957246 0.019048795 0.0228545 0.00696632
0000b0 26 c8 46 3d de 19 42 3d ce da 6c 3d cb ae 3f bd
       0.04853072 0.04738795 0.057825856 -0.046797555
0000c0 2b f6 95 3c 9d e1 a5 bd 93 c9 83 3d 44 d3 e6 3c
       0.018305859 -0.08099673 0.064349316 0.028176911
0000d0 93 2a aa bc e0 61 83 3d 93 64 52 bb a9 72 10 3d
       -0.020772254 0.064151525 -0.0032103404 0.0352656
0000e0 36 bc 8d 3d 4b 61 cb bd 53 29 d3 3c 89 11 ba bc
       0.06920664 -0.099306665 0.02577654 -0.02271344
0000f0 f4 f6 0d ba ef e6 4e 3c 93 06 81 3b 2e 77 8d 3d
       -0.0005415522 0.012628301 0.0039375513 0.06907497
000100 cb 7e 52 3c 54 b8 21 3d d9 b5 33 3e 0e cb 95 bc
       0.012847613 0.03948243 0.17549838 -0.0182853
000110 0c cb 2f 3c c8 6a ad 3c 21 ee bd 3d c8 21 cf 3d
       0.0107295625 0.021169081 0.09273935 0.10113865
000120 7f 25 19 3e 0d 53 d0 3c ce f7 dc 3b c1 de 28 3d
       0.1495571 0.025430227 0.006743408 0.04122806
000130 56 31 92 3b 4a 71 85 3c 39 70 0d 3d 0f d2 d7 bc
       0.0044614477 0.016289372 0.034530852 -0.02634528
000140 be 0a b0 bd 28 71 99 bb fc 3a 9c 3c fe a4 40 3d
       -0.08595799 -0.0046826787 0.019071095 0.04703235
000150 53 4a 60 bc 95 18 56 3d 2d 25 b3 3b 61 46 cb 3d
       -0.013689595 0.052269537 0.005467078 0.09925533
000160 f7 f0 68 3c 19 08 87 3d a9 9d 45 bd 04 3b 5b 3d
       0.014217607 0.065933414 -0.04824606 0.05352308
000170 03 7a 6c 3d 19 15 d6 3d 56 0b 86 3d 02 77 34 bd
       0.057733547 0.10453243 0.06545131 -0.044058807
000180 3a c4 04 3d 80 72 78 bd e5 52 4d 3c 83 4b 6c 3d
       0.0324137 -0.06065607 0.012531971 0.0576892
000190 fe 16 4b bd b5 e3 04 3c c0 78 c3 3d 3d 68 e0 bb
       -0.049582474 0.00811093 0.095445156 -0.0068483637
0001a0 91 63 be 3b d1 79 3a bd 21 0c 3c 3c e5 93 05 3c
       0.005810209 -0.04552633 0.011477501 0.008152937
0001b0 dc 8c ab 3d ee f0 5f bd 44 1f ec 3c 95 37 44 3d
       0.08376476 -0.054673128 0.028823502 0.04790457
0001c0 a5 6a 85 bc 0c fc 18 bd 06 b3 3f bd c9 79 7c 3d
       -0.016286204 -0.037349746 -0.04680159 0.06163958
0001d0 94 e4 d0 39 e1 bc 82 bc 6b 24 80 3c 3c b3 40 bb
       0.00039843156 -0.015959205 0.015642365 -0.0029403707
0001e0 3f 56 c0 bc 67 ab a7 3d ac 49 e6 3c e9 e7 1b bc
       -0.023478625 0.08186989 0.028111301 -0.009515741
0001f0 89 77 3e 3d f0 1b 4e bc 1a 1e d3 bc ca 98 70 3d
       0.046500716 -0.012579903 -0.02577119 0.05873946
000200 a8 b9 59 bd 87 2a 10 bd 3d 00 b7 3c 38 bb 81 bc
       -0.05315557 -0.035196807 0.02233898 -0.015836343
000210 9a e9 a6 3b db 01 e6 bd 05 f2 5a bd 1b fd 5f bd
       0.0050937654 -0.11230823 -0.053453464 -0.05468474
000220 d5 66 35 bc 17 6f 74 bd f7 f3 c3 b8 2d e5 84 bd
       -0.01107188 -0.059676256 -9.3437666e-05 -0.06489024
000230 94 ff 55 be b8 44 b3 bc 2c 3a b8 3d 39 35 84 bd
       -0.20898277 -0.021883354 0.089954704 -0.06455464
000240 e0 63 29 bd 4e 3a 09 be 2e 6a 3b be 2f 3e c7 bd
       -0.041355014 -0.13401148 -0.18302223 -0.097286575
000250 f3 48 30 bd f9 dd fc bd b9 7f 46 bc 0a 5c 32 bc
       -0.04303832 -0.123470254 -0.012115412 -0.010886202
000260 5b 09 f9 ba b1 39 b8 3c b5 09 3f 3d e6 e9 84 bd
       -0.001899998 0.022488447 0.046640117 -0.06489925
000270 0a 85 1b bd cf f4 62 3d 66 8b bb bd 2e e9 97 bc
       -0.037968673 0.05540925 -0.091574475 -0.018543806
000280 83 bf fd bd d2 67 2c bd cd 92 05 3d 9e 7a 11 bc
       -0.123900436 -0.0420912 0.032610703 -0.008879332
000290 d4 d1 bb bc 38 37 3f bd 6e bf 05 be 55 24 09 be
       -0.022927202 -0.04668352 -0.13061306 -0.13392766
0002a0 b7 0d 95 bc 3b 5f 91 bd 71 50 b7 bd e6 68 1b bc
       -0.018195016 -0.07098242 -0.0895089 -0.009485459
0002b0 3b c2 94 bc 76 6e cc bd 82 9e e5 bc d0 4a eb ba
       -0.018159023 -0.09982006 -0.028029684 -0.0017951373
0002c0 97 e8 9d bd 07 30 5c 3c b3 ff 17 be e1 64 9d bc
       -0.077103786 0.013439185 -0.14843635 -0.019213142
0002d0 76 94 43 3d 2b b3 15 be 2c b4 1a bd e0 97 42 be
       0.047749005 -0.14619128 -0.03776948 -0.19003248
0002e0 dd 0b d7 bd d1 6c 98 bc 5a 89 2c bd 8c 9b ab bd
       -0.105003096 -0.018606575 -0.042123176 -0.083792776
0002f0 0f 27 36 3d 52 d8 69 be 0f b9 75 bc fd f9 34 be
       0.044470843 -0.22836426 -0.014997735 -0.17673488
000300 8a 3c 3b bc c2 80 39 be 7c 26 fd bd b6 c2 57 3c
       -0.011428008 -0.18115523 -0.12360856 0.013168981
000310 af c6 d3 bd f0 f6 d8 bd 8e 38 f5 3b 13 09 02 be
       -0.1034063 -0.105939746 0.0074835485 -0.12698774
000320 42 91 55 be f0 71 08 be 7d ba a0 bd 2e 4b 03 be
       -0.20856193 -0.13324714 -0.0784807 -0.12821648
000330 5c da 75 3c 1e 1c 5f 3b f2 f3 0e be 43 01 a8 bc
       0.015005674 0.0034043859 -0.13960245 -0.020508414
000340 38 1b 41 3c d7 71 3a bc 7c 4d 07 bd 65 e1 f1 bc
       0.011786275 -0.011379681 -0.03303288 -0.029526422
000350 ad a4 18 be a5 6a 24 bd 09 0f 4d bd 3a 8a 14 be
       -0.14906569 -0.040140767 -0.050063167 -0.14505854
000360 ce 92 d2 bb 4d d3 ee bd 5c 96 eb 3a 15 16 13 be
       -0.006426192 -0.11661396 0.0017973888 -0.14363892
000370 8f 2c d6 bd ef a4 23 be d1 09 af bd 6e 5c a5 bc
       -0.104577176 -0.15980886 -0.08546794 -0.020185675
000380 22 c8 b7 bd 02 5c 27 3c 40 16 c6 bd 0c 75 38 bd
       -0.08973719 0.0102148075 -0.096722126 -0.0450335
000390 78 c0 28 3d 39 0a 86 bd 7f c6 ba bd a8 1e da 3c
       0.041199178 -0.065449186 -0.091198914 0.026625946
0003a0 9c 8a 3c bd 4d f5 ad bd b3 69 55 bd 43 f0 7b bd
       -0.046030626 -0.08494053 -0.052102756 -0.06150843
0003b0 d2 da 97 bd de 76 d7 3d 5f 69 89 bd df 2c 06 3b
       -0.074147835 0.10520719 -0.06709551 0.0020473523
0003c0 4a 4a fd bc ae 2d 6c bc e0 99 54 3b f1 81 08 be
       -0.030919213 -0.014415188 0.003244035 -0.13330819
0003d0 2a b0 01 3d 69 e8 11 3c ab 58 19 bd 82 ce 31 3c
       0.031662144 0.008905509 -0.037438076 0.010852458
0003e0 f3 fd 9f bd 58 51 93 bd 9e ae e7 bd 28 81 29 3d
       -0.07812109 -0.071932495 -0.113126025 0.04138294
0003f0 ef 92 08 bd 58 12 23 3d 1d 14 85 bd 71 c5 27 bd
       -0.03334325 0.039812416 -0.06497977 -0.04095978

discrete_action_output_shape f4 [1, 2]
000000 00 00 40 40 00 00 40 40
       3.0 3.0

network_body._body_endoder.seq_layers.0.bias f4 [128]
000000 49 fe 82 bd 96 2c 4c 3c 4c 51 c1 3d dd fb 8f 3d
       -0.06396157 0.012461802 0.09439334 0.07030461
000010 e6 3b 1f 3d f0 1c 2f 3c 4b 1d a0 3c 7b 38 b1 bc
       0.038875483 0.010688052 0.019545218 -0.021633377
000020 f3 d7 7a 3d cf 3e a8 3d 92 db 63 3d f2 49 9b 3c
       0.0612411 0.08215105 0.05562932 0.018956158
000030 aa 91 18 3e 60 87 d3 bd 25 82 b9 bd 29 a2 52 bd
       0.14899316 -0.10328555 -0.09058026 -0.05142418
000040 c9 fc 5f bc a1 1d 95 bc 3b 5f 5e bd 46 12 01 3a
       -0.0136711085 -0.018202605 -0.054290038 0.00049236824
000050 e1 b1 bf b8 4d ca d8 bc fa 09 b8 bc f7 0d 3e 3d
       -9.140722e-05 -0.026463652 -0.022465695 0.046400037
000060 00 78 4a bd 22 28 6b bd 46 60 79 3d 02 69 a6 3d
       -0.049430847 -0.05741132 0.06088283 0.081254974
000070 61 d6 a2 bd a3 2d cb bd 3f 66 05 3d eb c0 4d 3c
       -0.07951046 -0.09920814 0.032568213 0.012558202
000080 d7 04 7b bd 22 f7 63 3d 2e c3 00 3c 86 14 d7 bd
       -0.061283913 0.055655606 0.007859034 -0.105019614
000090 25 65 af bc c4 f9 8e 3d ae 1b 37 3e d1 ca 68 3d
       -0.021410534 0.06981233 0.17881653 0.056834046
0000a0 2c 1f 62 3c d1 ae b3 bd 1f 46 c0 bc 0a 34 9c bd
       0.013801377 -0.08773578 -0.023470936 -0.07627113
0000b0 bd d7 43 bd 3c 33 c6 bd a9 f8 81 bd 15 ab 80 3c
       -0.047813166 -0.09677741 -0.06346256 0.015706578
0000c0 cc 3f d6 3d d7 cc 5e bc 06 e5 4b bc c9 7a 50 3d
       0.10461387 -0.013598642 -0.01244474 0.050898347
0000d0 c0 a3 13 bd 0d 86 b5 bd 65 f2 a7 3d 72 85 f1 3b
       -0.036044836 -0.08863459 0.0820053 0.0073706442
0000e0 3b 18 10 3d 44 4e 97 3c 4b 1b 29 be 7c 58 8d 3d
       0.035179358 0.018469937 -0.16514318 0.06901643
0000f0 2c c4 9c bd 08 95 6b 3c b4 0e 66 bc 19 6b 2d bc
       -0.07654604 0.014378794 -0.014041591 -0.010584616
000100 95 97 b1 3c f0 62 1b 3c 4e a0 43 bd 55 4d 09 3d
       0.021678725 0.009484038 -0.0477603 0.033521015
000110 8b 2f bf 3d 3e 4c cf 3c 3c f1 c0 bd 68 87 19 bd
       0.0933524 0.02530491 -0.09421012 -0.03748265
000120 fc 47 14 bd 80 e7 04 3d 7a 1d eb bc 8e 68 95 3d
       -0.036201462 0.032447338 -0.028700579 0.07295333
000130 6b 15 b0 3b ae 6a 0f 3d 94 62 63 3d 18 a9 5a 3d
       0.005373647 0.035013847 0.055513933 0.053383917
000140 bc cb 9d bd b5 62 5a 3d 91 28 32 be 19 8b 9a 3b
       -0.07704875 0.05331679 -0.17398287 0.0047162888
000150 6b b1 14 3d c3 67 36 bd 22 2f a0 3c 77 7c 33 bc
       0.03630201 -0.04453255 0.019553725 -0.010954968
000160 35 14 ec bc f1 8c fe bd 81 6f 97 3c 26 bc 8d 3b
       -0.02881823 -0.12429226 0.018485786 0.0043254076
000170 a8 6c 5b 3c eb 31 80 3d 54 59 dd bd e4 e6 c2 3b
       0.013392605 0.06259521 -0.108080536 0.0059479345
000180 19 e3 a6 bc ca ca de bd 98 de 18 be 3f 70 ee 3b
       -0.02037196 -0.10878523 -0.14928663 0.0072765644
000190 29 b2 25 3d da 33 61 bd e8 72 47 bd 2b 09 f1 3b
       0.04045311 -0.05498109 -0.048693568 0.0073558292
0001a0 54 f7 3a 3d 5e 1e 91 3b c9 c6 1c be 30 e5 53 be
       0.045646027 0.004428669 -0.15310206 -0.20692897
0001b0 33 9d bc 3c c6 18 4b bd 0e 66 63 3c ee da 20 3d
       0.023024177 -0.049584173 0.013879312 0.039271288
0001c0 24 72 77 3d bd ad 11 3c 88 ee d3 bd fc b5 fb bc
       0.060411587 0.00889152 -0.103482306 -0.030726425
0001d0 c8 d5 b5 bd f3 81 a9 bc 6b 42 43 be 87 1b ed 3d
       -0.08878666 -0.020691847 -0.19068305 0.11577516
0001e0 db 28 43 bd 5a a2 a6 bc 08 53 3e bd c0 47 23 be
       -0.047646385 -0.020341087 -0.046465904 -0.15945339
0001f0 22 50 4e 3d 46 06 15 3d a4 71 7e bc 67 5d 55 bc
       0.05036939 0.036382936 -0.015530024 -0.013022757

network_body._body_endoder.seq_layers.0.weight f4 [128, 36]
000000 49 d7 71 be 18 51 81 be 0c 13 bb be 8f df 84 3d
       -0.23617281 -0.25257182 -0.3653797 0.06487953
000010 3a 4c 95 be a9 89 98 bc 19 35 83 be 5e b3 81 3c
       -0.2915972 -0.018620329 -0.25626448 0.0158326
000020 d6 9a 6c be 9b f4 89 3e 5f 27 7c be d6 93 b8 be
       -0.2310594 0.26944432 -0.24624394 -0.3605029
000030 0a a3 85 be 23 cc d8 bd cd c1 96 be 5c ab 59 3c
       -0.2610095 -0.10585811 -0.29444733 0.013285484
000040 18 ad 81 be db 42 aa 3d e6 85 96 3e 88 5a 62 3d
       -0.25327373 0.08313533 0.2939903 0.05526212
000050 45 04 db bd 69 6c 65 be 3a 95 fb bd 48 c9 23 3e
       -0.10694174 -0.22404636 -0.12284322 0.15994751
000060 2d df b2 bd 4c 02 02 3e e2 52 15 3f 86 79 58 be
       -0.08733974 0.12696189 0.58329594 -0.21140108
000070 20 5d 4d bc 88 ba 94 bb 07 32 bb 3d 0c 7c 81 be
       -0.01253441 -0.004538838 0.09140401 -0.25289953
000080 f8 f1 13 3e 54 7a 2a be c2 ba 8e 3e d2 ea 15 3e
       0.14447773 -0.16648227 0.2787686 0.14640358
000090 d1 96 b0 3e 58 62 09 3e 56 de 83 be 27 eb a4 3e
       0.34490064 0.13416421 -0.25755566 0.32210657
0000a0 d3 19 98 3d c1 96 6d 3b 3c be f8 bc 62 da 4c 3e
       0.074268006 0.0036253186 -0.030364148 0.20005181
0000b0 97 ab 5b 3e 0d e1 8b 3d 3c 01 9e 3e 1f 07 ea 3c
       0.21452175 0.068300344 0.30860317 0.028567849
0000c0 44 71 b0 bd ba cb dd 3d d5 42 75 bb 24 ac 82 3e
       -0.08615354 0.108298734 -0.0037423868 0.25521958
0000d0 50 f8 03 be 0a be a6 3d 86 10 12 be a7 90 7d 3e
       -0.12887692 0.08141716 -0.14264116 0.24762212
0000e0 cd 6d 92 3b e9 a2 12 be e1 d0 99 3d 37 88 8f 3d
       0.0044686557 -0.14319958 0.075105436 0.07008403
0000f0 68 c6 01 be 69 8c 8a 3d ff 8d 7c be 2a 5b 75 be
       -0.12673342 0.06765062 -0.24663542 -0.23960558
000100 db 77 44 be 54 e0 1d 3e c4 55 0f 3e 41 5f ae bd
       -0.19186346 0.15417606 0.1399756 -0.08514262
000110 02 28 82 be 93 bb 75 be 36 b8 8c 3c 3a 2e 25 be
       -0.2542115 -0.23997335 0.017177682 -0.16130915
000120 96 ca 91 3b b9 0e 55 be 39 0d 22 39 07 7b 94 3e
       0.004449199 -0.20806397 0.0001545445 0.29000112
000130 c5 a0 0b bb fe cc 80 3e 25 88 c2 3d 85 6f 48 bc
       -0.0021305543 0.25156397 0.09498624 -0.01223362
000140 b9 bc 81 3d c9 a2 8d 3e fe dd 6e 3e 40 8d 57 3e
       0.06334824 0.27663258 0.23326871 0.21049976
000150 57 f4 ac 3e 62 45 91 3e 65 87 67 bd 7c f0 31 be
       0.33780167 0.28373247 -0.056525607 -0.17376894
000160 2e 46 d1 3e 52 d6 f8 3e d6 ce 6d 3e d8 c8 c6 bd
       0.40873855 0.48601013 0.23223433 -0.09706277
000170 fb 02 15 3f 39 0d 09 3e fc f2 1b 3e 84 57 67 3d
       0.5820767 0.1338395 0.1522941 0.056479946
000180 a2 2d 15 3e 97 04 61 3e fa 3c 17 bd 47 ce 76 be
       0.14568189 0.21974407 -0.036923386 -0.24102126
000190 9a 0c a1 3e 68 e9 d4 bc 0e 67 51 3d c0 3b 78 3e
       0.31454927 -0.025990203 0.05112367 0.24241543
0001a0 0a eb 93 bc a2 09 09 3e 22 6c b1 3d bd d7 eb bd
       -0.018056411 0.13382581 0.08663203 -0.11515758
0001b0 e0 87 bd 3d 83 6d 07 3e 7b 80 14 bd 3d cc a3 bd
       0.09254432 0.13225369 -0.03625534 -0.0799794
0001c0 97 a3 35 3d 1d 11 7c be 23 53 7a 3e f3 c4 e1 3d
       0.044345465 -0.24615903 0.24445777 0.11023893
0001d0 46 ab 20 bd 10 a8 33 bc 24 0d c3 3e 3c c4 1e 3d
       -0.03922584 -0.010965362 0.38095963 0.038761362
0001e0 47 1c 33 be 43 7c 3f 3e e7 ea 57 3e 8f b3 62 bd
       -0.17491256 0.18699746 0.21085702 -0.05534702
0001f0 b5 0b bd bd fe 54 7d 3e b3 0a 8a 3d 9d 0b 52 bc
       -0.092307486 0.24739453 0.06740322 -0.012820152
000200 af d3 b3 be 5d e0 f5 bd e3 88 df 3d a0 87 f2 3d
       -0.3512244 -0.120056845 0.10914781 0.11842275
000210 61 44 2e bd f7 99 ac bd 19 96 c6 3d e0 44 78 3e
       -0.04254568 -0.08427804 0.096965976 0.24245024
000220 46 55 0d be 86 4b 0a be cf b9 85 3d 47 ee 74 3e
       -0.1380206 -0.13505372 0.06529581 0.2391902
000230 9d 3a fe 3c db ef 4c 3e 0c 84 dd 3d c4 53 11 bd
       0.031033808 0.20013373 0.108162016 -0.035480276
000240 2e c4 68 bd 0c 44 1f be 9b 87 c5 3d e3 cf 29 3c
       -0.056827717 -0.15553302 0.09645005 0.010364505
000250 06 e8 43 3e 07 fc 64 bb b0 83 ec 3c bf 9c b5 be
       0.19131479 -0.003494026 0.028871387 -0.3547115
000260 5f 50 69 bd 91 de 00 3e ca 90 00 be b9 db d3 bd
       -0.056961413 0.12584902 -0.12555233 -0.10344643
000270 90 94 96 3d 98 4b f2 3d f7 0f d5 3d 62 2f 2e be
       0.07352555 0.118308246 0.10403436 -0.17010263
000280 6e 67 f1 3e 91 8d 69 bd b3 73 71 3d 0b 1f 81 be
       0.47149223 -0.057019774 0.05894823 -0.25218996
000290 4b a9 a7 3c f0 4f 85 bc 66 45 dd 3d d4 d6 ff 3d
       0.020466467 -0.016273469 0.10804252 0.12492147
0002a0 05 11 d9 3e ee df bb 3c d5 47 57 3e e4 c7 ee bd
       0.42395797 0.022933926 0.21023495 -0.1165922
0002b0 00 53 0c 3e 18 7d 34 bd 2a 6c 1b bd b3 16 09 be
       0.13703537 -0.04406461 -0.03794495 -0.13387565
0002c0 b8 f8 5b 3d 40 dd 8d bd 91 b7 09 3e bc f7 90 3d
       0.053703994 -0.06926966 0.13448931 0.070785016
0002d0 33 bd 7c bc cd 6f 77 3e fc 94 5b bc eb 05 6a be
       -0.015425968 0.24163742 -0.01340222 -0.2285382
0002e0 e2 cb 91 3e 31 19 34 be 1e 78 4a 3d 34 16 99 bd
       0.28475863 -0.17587735 0.04943096 -0.07474938
0002f0 d4 c5 c9 3d 89 9b 87 bb 6a 30 9e be 6d 8f 2b 3e
       0.09852186 -0.0041384143 -0.30896312 0.16753931
000300 1d 3f 56 bd e5 d3 42 be 2b 41 f8 3c 7e 6b b4 3d
       -0.052306283 -0.19026144 0.030304512 0.08809565
000310 59 86 31 bd 1a 5f 6e 3c cf 40 3d 3e 08 a3 76 be
       -0.043341015 0.014549041 0.18481754 -0.24085629
000320 63 bb 2c be 04 06 2f 3d 1b 06 2a be ea 9e 85 3d
       -0.16868357 0.042730346 -0.16603892 0.06524451
000330 b0 18 51 bd fe 8b 4c 3d 67 fd 09 bd b0 f7 2a 3d
       -0.051048934 0.049938194 -0.03368893 0.04174012
000340 8d 76 7a 3e 4d dd 53 be 7a 1f 84 3e 96 c4 70 ba
       0.24459286 -0.20689888 0.25805265 -0.0009184567
000350 86 f9 ae 3e ca 47 8e 3e c8 9a bf 3d fd 10 e3 bd
       0.34174746 0.27789146 0.09355694 -0.11087225
000360 24 bf da 3c 61 ca 35 be c9 bb e3 3e 3a 55 cc 3e
       0.026702471 -0.17752983 0.44479206 0.39908773
000370 1a c8 77 bd f5 fb ae bb 8d e7 d8 3e 0c 9c 8f bc
       -0.060493566 -0.005340094 0.4236416 -0.017530464
000380 0e 85 ab 3d cc 76 e1 3e ad 96 6c 3e 40 9d 8a 3d
       0.083749875 0.44035947 0.23104353 0.06768274
000390 53 91 11 be 2d 6e 81 be 2f b6 76 3e 51 96 b6 3e
       -0.14215593 -0.2527937 0.24092935 0.35661557
0003a0 6b 7a 1d bd b8 1b b1 be bb 1c c0 be 32 ee cf 3b
       -0.038446825 -0.3459146 -0.3752192 0.0063455338
0003b0 06 b2 12 be 6d f2 41 bc 58 8c 52 bd 0f 6d e9 3d
       -0.14325723 -0.011837584 -0.051403373 0.113977544
0003c0 64 57 eb bd 3f e4 cb bd 2c 86 21 be 93 aa 62 be
       -0.11491278 -0.09955644 -0.15773839 -0.22135381
0003d0 9d 9e f3 3a 5c 5b 76 be c4 ef 27 3e 51 de 8e bd
       0.0018586699 -0.24058288 0.16400057 -0.06975997
0003e0 b1 79 db be ff d3 1d 3c f2 b0 65 be 6b fc 17 3d
       -0.4286628 0.009633063 -0.2243078 0.03710596
0003f0 57 6e fa 3d c7 a3 a3 3d 4d fd a0 be cb c3 26 be
       0.12228077 0.079902224 -0.31443253 -0.16285627

network_body._body_endoder.seq_layers.2.bias f4 [128]
000000 27 41 69 bd 26 2a 97 bc 9b 2a 92 3b 83 4c 6a bd
       -0.0569469 -0.018452715 0.0044606454 -0.057201874
000010 d7 a7 b9 3d 21 a9 e3 3c 79 c3 c0 bc 30 b0 f0 3b
       0.09065216 0.027790608 -0.023530709 0.007345222
000020 15 fa 2d 3d e4 d5 d1 3c e7 d2 07 3d 7d 5b f0 bc
       0.042474825 0.025614686 0.033160117 -0.0293405
000030 a8 f2 a2 3d 40 f5 83 bc 6a b5 5c 3d 15 07 d9 3c
       0.07956439 -0.016108155 0.053883947 0.026492635
000040 8d e1 94 bd 8d 95 02 bd 49 29 59 3c 1d 6b 4c 3c
       -0.07269583 -0.031880904 0.013254472 0.01247671
000050 e1 cd 38 39 69 26 40 3d 32 8a 1d b8 89 f5 90 3d
       0.00017624303 0.04691163 -3.756042e-05 0.07078082
000060 46 1a cd 3d 3f 9e 70 3d 01 95 ec bc e1 01 8f 3d
       0.10014777 0.058744665 -0.028879644 0.0698278
000070 d1 a8 da 3b dd 73 2e 3e 05 32 3f 3c 83 b8 bf 3d
       0.0066729565 0.17036386 0.01166964 0.09361365
000080 8d 61 95 3c 83 2a 8f 3d 2f 9c 72 3c 42 05 0b 3c
       0.018234992 0.0699053 0.014807745 0.00848514
000090 1e 6d a6 3d ce 2b bd bc e5 31 9f 3c 49 e4 fe 3c
       0.08126281 -0.023092177 0.019432971 0.031114714
0000a0 8d 4c 66 bc b8 9e 30 3c f0 62 9a 3c 39 36 12 bd
       -0.014056337 0.010780029 0.018846005 -0.035696242
0000b0 d4 7c b8 bd 9d 48 ff 3c 8f cf 1b 3d 32 b1 d1 3d
       -0.09008184 0.031162554 0.03803974 0.102388754
0000c0 27 6d 3d 3d 9f e7 9d 3d 0f eb b3 3c 18 d7 1b bc
       0.046246674 0.07710194 0.02196267 -0.009511732
0000d0 dd 83 be 3d 7e 66 a6 bc 13 dc db bb d7 f6 44 bd
       0.09302495 -0.020312544 -0.0067095845 -0.048086967
0000e0 54 f3 48 3d d5 5f 8a 3d 39 8d 93 3d cb 6a 0e 3d
       0.04906018 0.0675656 0.072046705 0.034769814
0000f0 f1 37 a1 3d 49 67 e2 bb f0 2a a3 3c 37 6f 01 3d
       0.07871998 -0.006909285 0.019917935 0.031600203
000100 f2 19 c2 3c c9 52 73 3d 2f 78 30 3d cc ec dd 3c
       0.023694012 0.059405122 0.043083366 0.027090453
000110 85 fe b4 3c 60 e3 94 3d 1d c3 a4 bc ab 2a 56 3d
       0.02209402 0.07269931 -0.020112569 0.052286785
000120 b2 2f 67 3d 4b f2 d1 3c b5 cb 38 3d 2a ba 85 3d
       0.05644197 0.02562823 0.045116145 0.065296486
000130 b9 99 8c bc 72 65 c7 bb 3d 09 85 3c e3 b4 97 bc
       -0.017163144 -0.0060850913 0.016239757 -0.01851887
000140 4a 32 48 3d e0 e5 b4 bb 39 a7 10 bc 53 fb 51 3c
       0.048876084 -0.0055205673 -0.0088289315 0.012816268
000150 6f 8b 9a 3c 8a cc ab 3c ef 89 db 3b 42 43 a5 3d
       0.018865315 0.020971555 0.0066997926 0.08069469
000160 03 b3 8b 3c fd 6c c3 3c 5d 7f 15 bd c4 bd d3 3c
       0.017053133 0.02385568 -0.036498416 0.025847323
000170 c9 43 2b 3d b4 db 8f 3c d3 1f e4 bc 74 46 a6 bb
       0.04181269 0.017560817 -0.027847206 -0.0050743166
000180 be 62 af 3d 23 51 ee bc da d1 73 3d de 27 9e bc
       0.085637555 -0.029091423 0.059526302 -0.01930612
000190 e1 bc 3a bc 51 5e 27 bd 19 7a f2 bc 85 29 c6 3c
       -0.011397571 -0.04086143 -0.029599236 0.02418972
0001a0 00 7b ab 3b 9c db b6 3d 19 aa bb bb f7 bd 3e 3b
       0.0052331686 0.08928606 -0.0057270643 0.0029104927
0001b0 a4 2c 9a bb b7 b5 29 3d 4d a2 8e bc 14 77 37 bd
       -0.0047050286 0.041433062 -0.017411375 -0.044791296
0001c0 ce 66 3f 3d c4 d6 30 3c fe 5c 00 bd f4 9b 75 3d
       0.0467289 0.010793392 -0.031338684 0.05996318
0001d0 42 11 2f 3d 98 65 21 bc d9 7b 5b bd 10 7f a5 3d
       0.042741068 -0.009850882 -0.053584907 0.08080876
0001e0 6b 24 fd bb 2d 6d 43 3d 8b e5 d3 3b a8 a8 37 3d
       -0.0077252886 0.04771154 0.0064665726 0.044838578
0001f0 b1 e9 fa 3c 46 10 48 3d 70 ba 33 bc f7 a6 90 3d
       0.03062901 0.048843645 -0.010969743 0.07063096

network_body._body_endoder.seq_layers.2.weight f4 [128, 128]
000000 79 62 05 3d 13 2a b7 bc c0 21 3c 3d 66 91 59 3d
       0.032564614 -0.02235893 0.045930624 0.05311718
000010 a3 b6 f8 3c 21 33 7b 3d 0b eb b0 3c ee c6 36 3d
       0.030360525 0.061328057 0.021596452 0.044623308
000020 86 38 a9 bd 03 9c 1e bd 7b fc 27 3b 90 b2 a1 bd
       -0.08262734 -0.038723003 0.0025632668 -0.07895386
000030 ce f3 a9 be 24 8b 52 bd 7a ae ea 3c b3 7f b3 bc
       -0.3319382 -0.051402226 0.02864765 -0.021911478
000040 88 63 6c be 2b 1d ed 3c f5 34 e4 3d 91 c6 93 3c
       -0.23084843 0.028944572 0.11142913 0.01803902
000050 0b 23 f0 bd cd 24 06 be a0 cb 03 bb 67 12 5b bd
       -0.11725434 -0.13099976 -0.0020110384 -0.053484347
000060 50 35 12 be 1f 83 ae bb ec 76 29 bd 04 00 94 3c
       -0.1427815 -0.0053256894 -0.04137318 0.018066414
000070 20 81 d1 3b 3e 6f 7b 3c 3c 54 ee bd c9 fa ee 3d
       0.0063935667 0.015346346 -0.1163716 0.11668927
000080 82 6e 2b 3d ad 23 5e be 95 b0 d5 bc 5c 2d bb bd
       0.041853435 -0.21693297 -0.026085177 -0.09139511
000090 02 40 38 bd 01 85 c6 bd b7 7f 14 bd e4 6c 01 bd
       -0.044982918 -0.09693337 -0.03625461 -0.031597987
0000a0 73 4b a0 bd 83 47 01 3e 7a 87 4c be 1c 59 60 3d
       -0.07826891 0.12624936 -0.19973555 0.05477248
0000b0 57 16 f3 3d 9e 5e c8 bd 57 24 46 bc 07 fd 02 be
       0.11869495 -0.09783672 -0.012093625 -0.12791835
0000c0 3d d1 af 3d 39 79 a8 3d 7c 43 df 3d ed b4 e6 3b
       0.08584831 0.082262464 0.109015435 0.007040611
0000d0 35 db d6 bd 54 f2 75 3d 7d d3 02 3e 31 2a 29 bc
       -0.10491029 0.060045555 0.12775989 -0.010325001
0000e0 62 c3 a8 3d e1 a8 19 bd c5 6d 2d 3d a3 0a 32 be
       0.08240391 -0.03751457 0.042341013 -0.1738687
0000f0 43 f0 9a 3d 12 0f d2 3c bb fd de 3d 75 e0 38 bd
       0.075653575 0.025641952 0.10888239 -0.045135934
000100 0a 74 52 bd b2 79 f2 bd 45 09 33 bd 33 22 9f bd
       -0.051380195 -0.11839618 -0.043710012 -0.07770195
000110 23 75 a9 bd 8b bc d0 3d 08 3c ac bd 3b da 02 3c
       -0.08274295 0.10192212 -0.084098876 0.0079866005
000120 a9 5a 22 be 35 99 13 bd a9 83 31 bd a2 69 a3 3c
       -0.15854897 -0.03603478 -0.04333845 0.01994783
000130 23 62 61 bd d3 b0 d3 bd 75 be 9b bd 6f f3 24 be
       -0.05502523 -0.10336461 -0.07604686 -0.16108488
000140 c6 c7 8b bd 86 af 1a 3d 0b fd ed bc 6a 46 40 be
       -0.06825213 0.03776505 -0.029051324 -0.18776861
000150 8d f5 e5 3c f7 85 e2 bc 3b b5 54 bd d3 43 01 bd
       0.02807119 -0.02765177 -0.051930647 -0.031558823
000160 bf df 4c 3d a3 71 e5 3d a7 5d 70 bc e0 1c 0e bd
       0.05001807 0.11203315 -0.014670766 -0.034695506
000170 3c 3c a9 bd 4a 49 14 be ba b8 c5 bc ae cb 00 bd
       -0.08263442 -0.14481083 -0.024135936 -0.031444244
000180 4c 30 01 be 6e 6a da 3d a3 af 77 3d 78 17 f9 bc
       -0.1261608 0.10664831 0.060470235 -0.030406699
000190 48 93 5f 3b cb ba e4 3d 6c c1 9d 3d 12 ef 15 be
       0.0034114886 0.111684404 0.07702908 -0.1464198
0001a0 36 35 e7 3d a5 5b e5 bd d2 94 03 3e e9 24 e3 3d
       0.11289446 -0.111991204 0.12849739 0.110910244
0001b0 a8 57 ba 3c fa d8 31 bd a8 52 ed 3c bd e7 e7 3c
       0.022746876 -0.043419816 0.028970078 0.028308744
0001c0 80 62 10 3d 5c 95 0d 3d 20 ee ce bc ec 96 66 3d
       0.035250187 0.03456627 -0.025260031 0.056296274
0001d0 69 81 ce bc b8 a0 98 bc 55 b4 79 3e 24 42 a1 3d
       -0.025208192 -0.018631324 0.24385197 0.078739434
0001e0 13 a8 6d bd 51 ba a1 3c 8d d0 2d 3d 78 50 13 bd
       -0.058021616 0.019742163 0.042435218 -0.035965413
0001f0 58 de 3a 3e 24 12 30 3e f2 4f 96 3c 84 64 4f 3e
       0.1824888 0.1719442 0.018348668 0.20253187
000200 b3 aa 86 3d f1 0d c1 3d ab 0b 0b be e5 03 d1 bc
       0.06575527 0.09426487 -0.1357867 -0.025514552
000210 a4 39 6f 3d b4 fd 62 3d cc 23 40 3d 51 7c 2c bd
       0.05840458 0.05541773 0.04690914 -0.042110745
000220 42 00 04 be 4f 86 d2 bc e3 88 3e bc f7 0d 3b be
       -0.12890723 -0.025698809 -0.011629316 -0.18267046
000230 c2 6d 1e 3e b9 b2 ed 3d a3 71 38 3d 34 11 63 3c
       0.15471557 0.11606354 0.045030247 0.013859082
000240 cc dc d3 3d 45 ec 2f bd a3 3e b9 bd 81 d3 93 3d
       0.10344848 -0.042949934 -0.0904515 0.072180755
000250 95 0a b8 bc 69 59 a4 3d ed b5 8a 3d 8f 28 5e bc
       -0.022465983 0.08024866 0.06772981 -0.013559475
000260 a7 69 43 bd 1a 4f 08 be f7 19 f3 3d 55 b7 2b 3d
       -0.04770818 -0.13311425 0.11870187 0.041922886
000270 d7 0d fb 3c 9b 63 bc 3d e3 99 ae bd 98 60 f9 3d
       0.030646248 0.09198686 -0.08525445 0.12176627
000280 82 6e c5 3c 16 8f 08 3e 9b ab ac bd cf 97 2f bd
       0.024100546 0.13335833 -0.08431169 -0.042869385
000290 f2 c1 19 bd 15 c8 e7 3b 4f 0d 9e 3d b1 71 58 3d
       -0.037538476 0.007073412 0.07717382 0.0528428
0002a0 c0 41 c9 3c 00 19 ad bd 8f 1f 0c bd ef ea f9 3c
       0.024567485 -0.08452034 -0.034209784 0.030507533
0002b0 07 94 38 be e2 f3 bf 3b d6 5f f0 bb 03 b4 c9 bd
       -0.18025218 0.0058579305 -0.0073356433 -0.09848788
0002c0 3e a6 94 3a 9c 46 28 bb 14 a0 f7 bc 3a 82 d5 3d
       0.0011341048 -0.0025676852 -0.030227698 0.10425229
0002d0 7b ec fe bc 5d 7e 76 bd 77 33 ab bd c7 eb f7 3d
       -0.031118622 -0.060179103 -0.083594255 0.12105518
0002e0 3d 2b 33 3c f0 29 b2 3b 21 ff 5d bd 68 53 0a be
       0.010935602 0.0054371282 -0.054198388 -0.1350838
0002f0 24 a5 df bb c8 d5 25 3c c3 eb 6d 3d 10 b4 b0 bc
       -0.006825106 0.01012177 0.058086168 -0.021570235
000300 c7 51 ae bc a9 5b 55 be be 43 b2 3d fc 38 ab 3d
       -0.021279229 -0.20835747 0.08704327 0.08360478
000310 a1 26 76 be 84 0c 1a 3d 7e 4f 00 be 28 27 6c bc
       -0.24038173 0.037609592 -0.12530324 -0.014413632
000320 56 54 c0 3d 37 15 3c be 8b 4a 1b 3d 9b 72 fd 3d
       0.09391086 -0.18367468 0.037912887 0.12375375
000330 d9 db a4 bc 20 85 7b be 0b 59 9c bd 56 86 9a ba
       -0.020124363 -0.24562502 -0.07634171 -0.0011789303
000340 10 5b 2d bd 9e 0e 40 3e ab 38 dc 3c a3 bd c2 bb
       -0.042323172 0.18755576 0.02688249 -0.0059430166
000350 38 b2 a8 bd 71 f6 46 3c c5 bc 28 3e d1 3b 91 3d
       -0.082371175 0.012143717 0.1647826 0.07091487
000360 a4 5d 20 3c 73 a0 c1 bd 1e 84 dc 3c 96 93 8c 3d
       0.009787951 -0.094544314 0.026918467 0.06864087
000370 c6 65 99 3d 30 7c ac 3d 8c 5b e5 bd 6e 6f de 3d
       0.07490115 0.084221244 -0.11199102 0.10861097
000380 36 8a 1e be 8e 1c 03 3d 03 ea ee bd 14 06 86 bb
       -0.15482411 0.032009654 -0.11665728 -0.00409008
000390 e9 ec 06 3d 96 a3 eb 3d 39 61 53 3d 76 2d 37 be
       0.03294078 0.11505811 0.05160639 -0.17888436
0003a0 ff b3 33 3e 95 a1 d7 bc 92 ca 15 3e 0c d3 10 bd
       0.17549132 -0.026322166 0.14628056 -0.03535752
0003b0 e4 e1 18 be 25 2c e1 bd db 1d 11 3e f2 83 6a 3c
       -0.1492992 -0.10994748 0.14171545 0.014313685
0003c0 81 04 f5 bc 50 95 c4 3d d3 52 30 bd 30 8c d4 3d
       -0.029909374 0.095987916 -0.043047737 0.10378301
0003d0 4a c5 00 be 1e 51 88 3d d6 d0 31 3d 25 fd 5a bd
       -0.1257526 0.06656097 0.043412052 -0.053464074
0003e0 af aa 0b 3b 4e 64 fb 3c 19 3b e6 3d 21 1f 78 3d
       0.0021311452 0.030687477 0.11241741 0.06057656
0003f0 c2 25 3e bd bf 73 f3 bd 05 61 3f 3e a0 b7 5f 3d
       -0.046422727 -0.11887311 0.18689354 0.054618478
