results/DodgeAgentBulletsTest11_Improved2/Dodge/Dodge-6499707.pt (torch, 538935 bytes, 40 tensors)

discrete_act_size_vector f4 [1, 2]
3.0 3.0
00000000: 0000 4040 0000 4040

network_body._body_endoder.seq_layers.0.weight f4 [128, 36]
-0.23267306 -0.21169566 -0.3385732 0.10101763 -0.3298332 -0.014849614 -0.25715378 0.049425274
-0.28158978 0.2684773 -0.21621473 -0.31149936 -0.1939486 -0.107260525 -0.24173921 0.07175684
-0.085362464 0.09925877 0.27858806 0.07973114 0.06888263 -0.19365445 -0.14287564 0.1838331
-0.03274051 0.16159175 0.60990614 -0.19438897 0.033053722 -0.008573235 0.22336514 -0.2409178
0.27644166 -0.15449998 0.19894211 0.09691804 0.3136078 0.09323623 -0.29404172 0.2806403
0.008331049 -0.0599907 -0.07597138 0.14719403 0.16182545 0.0042359442 0.2586633 -0.03529744
-0.15945859 0.024448708 -0.046293292 0.18152492 -0.20092164 -0.03850828 -0.20601717 0.16482668
-0.090759575 -0.2533928 0.056408335 -0.024439411 -0.15704162 -0.042104397 -0.27464148 -0.34717488
-0.20123014 0.038735345 0.16252272 -0.19328327 -0.231665 -0.34811366 -0.029467542 -0.21135662
-0.0024306015 -0.2092128 0.004066268 0.2932724 -0.005351177 0.25669596 0.09475174 -0.009625732
0.10270822 0.28738698 0.23611346 0.2150465 0.3719716 0.29530305 -0.06957874 -0.1696105
0.4329032 0.5053249 0.21824667 -0.10587338 0.6189026 0.15010071 0.10358107 0.041124243
0.17583975 0.23017542 -0.01716079 -0.25043795 0.34709558 -0.01455996 0.021548023 0.2362511
-0.04763254 0.12766246 0.029926155 -0.15065485 0.15582827 0.22780827 0.023074389 0.014913059
0.026464041 -0.18572012 0.29043943 0.18322696 -0.09668746 0.0038174356 0.40661222 0.11104963
-0.056708757 0.21491909 0.26597077 0.029378643 0.07279422 0.25588524 0.049526792 0.027769947
-0.26858574 -0.13022451 0.10551631 0.13559726 -0.059744485 -0.105759926 0.07797131 0.25997287
-0.17368318 -0.15212636 0.10799914 0.24523798 0.07373667 0.2061839 0.07175092 -0.03766357
-0.037955906 -0.16155046 0.08285744 -0.017458461 0.20823458 0.019003406 -0.01994565 -0.38187453
-0.06871644 0.13170767 -0.18189907 -0.13905692 0.11266358 0.13855894 0.08130318 -0.18650308
0.53851765 -0.021990305 0.04024486 -0.26402438 0.1238202 0.019721633 0.07390815 0.11297611
0.4752189 0.05365347 0.13987036 -0.13035782 0.0895948 -0.033583343 -0.11837573 -0.15843785
-0.026727065 -0.09383242 0.14275077 0.07079678 -0.079858355 0.12524447 -0.079394676 -0.34007072
0.25881958 -0.25971 -0.016466888 -0.19241434 0.1124991 -0.05696422 -0.37236473 0.05694934
-0.22836366 -0.23919573 -0.03730292 -0.024744993 -0.3655224 -0.045451686 0.1916043 -0.31489974
-0.41461274 -0.0060241125 -0.076120876 0.010673507 -0.11996672 -0.011877316 0.01496917 0.008351251
0.24952821 -0.20867984 0.22885378 -0.02475726 0.31254718 0.25405252 0.16094129 -0.07048671
0.0444934 -0.15027063 0.47770384 0.44812104 -0.09723032 -0.011160903 0.48132458 0.038298637
0.059535507 0.40755728 0.278012 0.11697335 -0.16785768 -0.30116013 0.2808618 0.39280364
0.02339798 -0.40762419 -0.34166315 0.04601469 -0.20209277 -0.07254683 -0.010897661 0.13207527
-0.14665262 -0.15087281 -0.1014136 -0.20688312 -0.056661613 -0.31211 0.18863544 -0.09937349
-0.40402752 -0.019979773 -0.23077491 0.013966119 0.18218246 0.15416983 -0.23333196 -0.07433586
00000000: d941 6ebe bfc6 58be 7759 adbe 55e2 ce3d
00000010: e6df a8be cc4b 73bc a9a9 83be 2872 4a3d
00000020: 892c 90be db75 893e 6567 5dbe d87c 9fbe
00000030: 769a 46be 68ab dbbd 7c8a 77be 40f5 923d
00000040: 84d2 aebd 2f48 cb3d 18a3 8e3e 144a a33d
00000050: 5612 8d3d 5a4d 46be fe4d 12be bf3e 3c3e
00000060: ea1a 06bd 4f78 253e cf22 1c3f e70d 47be
00000070: 5763 073d c176 0cbc d5b9 643e 28b3 76be
00000080: c389 8d3e 3e35 1ebe 7bb7 4b3e f77c c63d
00000090: 3491 a03e a3f2 be3d a38c 96be 16b0 8f3e
000000a0: f47e 083c cfb8 75bd e296 9bbd 08ba 163e
000000b0: 92b5 253e adcd 8a3b 846f 843e 0c94 10bd
000000c0: 1d49 23be a848 c83c 099e 3dbd abe1 393e
000000d0: 67be 4dbe dcba 1dbd 2af6 52be 53c8 283e
000000e0: 28e0 b9bd b3bc 81be 6d0c 673d 2935 c8bc
000000f0: 85cf 20be a975 2cbd cf9d 8cbe e8c0 b1be
00000100: 460f 4ebe f4a8 1e3d 5b6c 263e 0dec 45be
00000110: 9739 6dbe f43b b2be ea65 f1bc df6d 58be
00000120: ba4a 1fbb e13b 56be 543e 853b cd27 963e
00000130: ed58 afbb a76d 833e 330d c23d 3fb5 1dbc
00000140: b058 d23d 6324 933e bac7 713e 2635 5c3e
00000150: 1073 be3e f631 973e 4c7f 8ebd 60ae 2dbe
00000160: 7da5 dd3e f95c 013f 0e7c 5f3e 25d4 d8bd
00000170: 6770 1e3f 00b4 193e 5022 d43d e571 283d
00000180: 560f 343e 1bb3 6b3e c994 8cbc 6739 80be
00000190: 83b6 b13e e68c 6ebc 7b85 b03c cfeb 713e
000001a0: 571a 43bd f3b9 023e b227 f53c 4445 1abe
000001b0: 7291 1f3e 9246 693e 8006 bd3c e755 743c
000001c0: 1ecb d83c 6a2d 3ebe 7ab4 943e d99f 3b3e
000001d0: 1304 c6bd f12d 7a3b 7a2f d03e fd6d e33d
000001e0: 7147 68bd c013 5c3e 522d 883e 7bab f03c
000001f0: 2315 953d 6403 833e 9bdc 4a3d cd7d e33c
00000200: 1284 89be 9359 05be ef18 d83d 02da 0a3e
00000210: a2b6 74bd a998 d8bd 6caf 9f3d 2a1b 853e
00000220: 01da 31be 03c7 1bbe a72e dd3d aa1f 7b3e
00000230: 4003 973d df21 533e 25f2 923d 1e45 1abd
00000240: a777 1bbd 7c6d 25be 29b1 a93d 0c05 8fbc
00000250: 723b 553e 08ad 9b3c 0f65 a3bc 0f85 c3be
00000260: 34bb 8cbd 60de 063e c043 3abe f064 0ebe
00000270: 2abc e63d 65e2 0d3e 4882 a63d aafa 3ebe
00000280: 4bdc 093f 0325 b4bc cbd7 243d 342e 87be
00000290: 7295 fd3d 438f a13c 285d 973d 0560 e73d
000002a0: e44f f33e bec3 5b3d 2d3a 0f3e 857c 05be
000002b0: 7a7d b73d b08e 09bd fa6e f2bd 883d 22be
000002c0: b8f2 dabc 362b c0bd 422d 123e e7fd 903d
000002d0: c78c a3bd 1640 003e ad99 a2bd c01d aebe
000002e0: 0084 843e b6f8 84be 91e5 86bc 4408 45be
000002f0: ee65 e63d 5053 69bd 97a6 bebe b643 693d
00000300: 2ad8 69be baef 74be f2ca 18bd 03b6 cabc
00000310: c125 bbbe 8c2b 3abd eb33 443e 8a3a a1be
00000320: 1f48 d4be eb65 c5bb 43e5 9bbd efdf 2e3c
00000330: 1db1 f5bd 1399 42bc 4041 753c afd3 083c
00000340: 5384 7f3e 2bb0 55be a558 6a3e bdcf cabc
00000350: 2f06 a03e 2c13 823e cbcd 243e 565b 90bd
00000360: b63e 363d 8be0 19be 9995 f43e 1f70 e53e
00000370: b120 c7bd 38dc 36bc 2d70 f63e 08df 1c3d
00000380: 81db 733d 59ab d03e 9757 8e3e b98f ef3d
00000390: e2e2 2bbe a931 9abe 1ecd 8f3e 8f1d c93e
000003a0: 1fad bf3c 1eb4 d0be 79ee aebe e679 3c3d
000003b0: 68f1 4ebe 6f93 94bd 1a8c 32bc bd3e 073e
000003c0: 1b2c 16be 677e 1abe efb1 cfbd 2bd9 53be
000003d0: 0216 68bd e2cc 9fbe a629 413e 5484 cbbd
000003e0: b2dc cebe 9fac a3bc 4250 6cbe 26d2 643c
000003f0: 0a8e 3a3e b2de 1d3e 93ee 6ebe 663d 98bd

network_body._body_endoder.seq_layers.0.bias f4 [128]
-0.001924532 -0.055568453 0.0929068 0.1674879 0.034233898 -0.12644005 0.043746073 0.063512266
0.039353397 0.16154055 0.10801375 0.024616977 0.13818745 -0.20115162 -0.09489955 -0.22225685
-0.023798738 -0.025597058 0.07633978 -0.016785305 -0.040633477 -0.044987418 0.013355765 0.009413161
0.010498439 -0.15877676 0.10252803 0.11519446 -0.11675887 -0.2032509 0.016700434 0.00045100535
-0.102354504 0.05243523 -0.012539311 -0.16696475 -0.048644267 0.0726534 0.25952545 0.043104023
0.000946928 -0.083105825 -0.04832261 -0.063908964 -0.012039722 -0.11286078 -0.037980054 0.01535655
-0.026302801 -0.0454913 -0.0386695 0.088538855 -0.04358426 -0.20152983 0.091092184 0.008802883
0.04289207 0.011819011 -0.2089207 0.023302618 -0.123321906 -0.014799252 -0.011922172 -0.032484304
-0.0027177527 0.02881917 -0.038804192 0.062496 0.094413646 0.0030277772 -0.12246045 -0.051945753
0.0027553295 -0.0063602976 -0.009910567 0.14607745 0.026735645 0.013946944 0.02614326 -0.022133216
-0.09422468 0.041120194 -0.19329077 0.029495236 -0.040033836 0.008899717 0.021897784 -0.089244306
-0.0707951 -0.17335813 0.033778444 -0.008567479 0.09566784 0.08113636 -0.2208372 0.019608608
-0.08165333 -0.28369728 -0.28091642 0.04417126 0.09006158 -0.10925933 -0.142618 0.0433332
-0.084241785 0.02522948 -0.29799286 -0.32721525 0.05116932 -0.0741251 0.070927255 0.037898704
0.071521364 0.015482649 -0.14987883 0.015006908 -0.19126874 -0.05520338 -0.3211543 0.159072
-0.045009743 -0.010234834 -0.079458095 -0.24499159 0.06676616 0.07973308 0.0062808404 -0.12183705
00000000: 9440 fcba bf9b 63bd ec45 be3d f381 2b3e
00000010: d838 0c3d 8079 01be 152f 333d b812 823d
00000020: 0731 213d e36a 253e 5036 dd3d 8ba9 c93c
00000030: 0381 0d3e b1fa 4dbe b25a c2bd 4d97 63be
00000040: 92f5 c2bc ecb0 d1bc 0858 9c3d 5681 89bc
00000050: 4a6f 26bd ba44 38bd 23d2 5a3c a939 1a3c
00000060: a501 2c3c 6096 22be 37fa d13d 13eb eb3d
00000070: 461f efbd 0121 50be 59cf 883c ea74 ec39
00000080: 3d9f d1bd 53c6 563d af71 4dbc cff8 2abe
00000090: 363f 47bd 4ecb 943d 85e0 843e d88d 303d
000000a0: 433b 783a 6333 aabd eeed 45bd b4e2 82bd
000000b0: 4142 45bc 8d23 e7bd f990 1bbd 0a9a 7b3c
000000c0: f978 d7bc 1655 3abd e963 1ebd dc53 b53d
000000d0: 6985 32bd d65d 4ebe 8a8e ba3d f839 103c
000000e0: 98af 2f3d 86a4 413c 4fef 55be 22e5 be3c
000000f0: 3290 fcbd 9078 72bc 3755 43bc 430e 05bd
00000100: 531c 32bb 2e16 ec3c 25f1 1ebd cefb 7f3d
00000110: f15b c13d ac6d 463b 8bcc fabd 12c5 54bd
00000120: c292 343b 0b6a d0bb ee5f 22bc 5495 153e
00000130: b604 db3c b981 643c 642a d63c b850 b5bc
00000140: def8 c0bd a66d 283d 04ee 45be fe9f f13c
00000150: 85fa 23bd 1ed0 113c fb62 b33c b8c5 b6bd
00000160: 05fd 90bd cb84 31be 445b 0a3d 9d5e 0cbc
00000170: 80ed c33d d22a a63d 2623 62be 3ba2 a03c
00000180: dc39 a7bd c540 91be 47d4 8fbe ecec 343d
00000190: 3572 b83d 5bc3 dfbd 740a 12be 277e 313d
000001a0: f586 acbd 0eae ce3c 8592 98be c288 a7be
000001b0: ec96 513d e7ce 97bd 4f42 913d ac3b 1b3d
000001c0: cb79 923d f0aa 7d3c d679 19be 89df 753c
000001d0: f4db 43be f01c 62bd 566e a4be c5e3 223e
000001e0: 235c 38bd 01b0 27bc edba a2bd 13df 7abe
000001f0: b2bc 883d 194b a33d 82cf cd3b b485 f9bd

network_body._body_endoder.seq_layers.2.weight f4 [128, 128]
0.025328267 -0.11539637 0.03751639 0.043438565 0.024227792 0.048156112 0.008613107 0.07694686
-0.08527623 -0.04380951 -0.007001947 -0.072338894 -0.3286032 -0.06467121 -0.02392049 -0.03613502
-0.2762893 0.018531758 0.10563707 0.03624657 -0.12860131 -0.14079198 0.011003825 -0.05195147
-0.14519262 -0.018153133 -0.10690905 0.008296064 -0.0016723117 0.0031888974 -0.09246561 0.13658966
0.0646851 -0.18652558 -0.02492651 -0.04829737 -0.051248536 -0.1479208 -0.044042196 -0.009544545
-0.07837004 0.14636227 -0.20618856 0.026527982 0.14506982 -0.100739785 0.008976078 -0.11374829
0.07344265 0.084380925 0.11145303 -0.028524723 -0.11123879 0.09646766 0.11777107 0.012218286
0.0585871 -0.02886498 0.082057744 -0.1805093 0.07304368 -0.061709374 0.09242643 -0.0676096
-0.071766764 -0.09328156 -0.054956608 -0.08429838 -0.08257187 0.11511048 -0.049414642 -0.0057074754
-0.15135777 -0.01529541 -0.04899639 0.010961466 0.005539333 -0.113027714 -0.08078646 -0.17595299
-0.037913352 0.02458953 0.02254057 -0.22674835 0.017394887 -0.10610166 -0.0768936 -0.04299006
0.047708485 0.113549 -0.024302712 -0.025908101 -0.09229545 -0.18893614 -0.035733562 -0.012734502
-0.13612297 0.09413948 0.04979759 -0.094433494 -0.07536366 0.11147616 0.081395075 -0.1404434
0.0947612 -0.11991209 0.13486485 0.10397859 0.030019445 -0.038013626 0.018678742 -0.009234175
0.047486257 0.026249338 -0.029496685 0.09307723 -0.027345253 -0.0027262166 0.23098212 0.07231899
-0.07437256 -0.025014445 0.033999037 -0.037720405 0.18250157 0.1645684 -0.07462038 0.1919085
0.032466978 0.0879488 -0.15953055 0.008210055 0.029132994 0.0016854623 0.07724739 -0.07856911
-0.13863896 -0.032318577 -0.024094837 -0.17099245 0.094798274 0.08057949 0.06219023 -0.033463795
0.20085359 -0.08799302 -0.11557976 0.10278091 -0.09014644 0.104132034 -0.007905225 -0.042875674
-0.054415952 -0.19510856 0.21121626 0.095665276 -0.022082327 0.087394506 -0.149397 0.13946643
0.033120975 0.13450168 -0.14156477 -0.026982563 -0.0799241 0.08286619 0.019146048 0.00034536025
-0.0048919716 -0.08209955 -0.054305974 0.08474982 -0.16213605 -0.02600866 0.09883688 -0.174637
-0.04294555 -0.012905122 -0.095693946 0.1735004 -0.029772105 -0.08302057 -0.13572484 0.1752274
0.06959381 -0.0046320218 -0.067326285 -0.13414158 -0.017594974 0.074371 0.14557414 0.03311042
0.02114153 -0.28591406 0.10443774 0.07279378 -0.24515389 0.096805975 -0.119840026 0.009292737
0.12653026 -0.19012143 0.013481089 0.16373724 0.0676365 -0.28054965 -0.09784093 -0.0986009
-0.033167124 0.12815976 0.0008747186 0.063072406 -0.15959816 0.04764018 0.12920849 0.10455403
0.023775361 -0.1408036 -0.00264642 0.025372991 0.0594103 0.15068348 -0.14388599 0.12133972
-0.14747876 0.0233809 -0.12990558 0.08880509 0.14144287 0.1374335 0.018275036 -0.18297808
0.14860334 -0.035724893 0.12932232 -0.055959232 -0.14582683 -0.09390167 0.22635314 0.05709056
-0.069613606 0.0769414 -0.06655203 0.054485664 -0.16922234 0.082460955 0.043790907 -0.05842366
0.04861334 -0.022969937 0.14449531 0.05002436 -0.053757966 -0.11809365 0.25385946 -0.010670624
00000000: 3a7d cf3c ef54 ecbd c9aa 193d a3ec 313d
00000010: 5d79 c63c 583f 453d fd1d 0d3c 5196 9d3d
00000020: 4ea5 aebd 9a71 33bd 9770 e5bb 6a26 94bd
00000030: ae3e a8be 5772 84bd e7f4 c3bc 5102 14bd
00000040: cb75 8dbe eacf 973c 4058 d83d 4977 143d
00000050: 10b0 03be c62b 10be 6349 343c 11cb 54bd
00000060: 60ad 14be e1b5 94bc 22f3 dabd 37ec 073c
00000070: 7831 dbba d2fc 503b 9c5e bdbd 29de 0b3e
00000080: 9f79 843d 9000 3fbe ae32 ccbc 77d3 45bd
00000090: fce9 51bd 8d78 17be 9765 34bd b960 1cbc
000000a0: 7980 a0bd fedf 153e 1823 53be 3651 d93c
000000b0: 2f8d 143e a950 cebd 6610 133c ddf4 e8bd
000000c0: 1a69 963d e8cf ac3d 7c41 e43d aeac e9bc
000000d0: 2ad1 e3bd d690 c53d f531 f13d 352f 483c
000000e0: 07f9 6f3d 4076 ecbc e40d a83d 6ed7 38be
000000f0: ed97 953d f8c2 7cbd 114a bd3d e776 8abd
00000100: 74fa 92bd 670a bfbd 2e1a 61bd a1a4 acbd
00000110: 711b a9bd 0bbf eb3d 0267 4abd c605 bbbb
00000120: 88fd 1abe 9999 7abc 70b0 48bd b897 333c
00000130: 4b83 b53b 137b e7bd 5f73 a5bd 052d 34be
00000140: 084b 1bbd fb6f c93c 00a7 b83c b830 68be
00000150: b97f 8e3c d44b d9bd 647a 9dbd 5816 30bd
00000160: f969 433d 618c e83d 7b16 c7bc 3a3d d4bc
00000170: 6605 bdbd 7a78 41be 5b5d 12bd 5fa4 50bc
00000180: d263 0bbe 33cc c03d 8ff8 4b3d 5966 c1bd
00000190: 4358 9abd 9d4d e43d 76b2 a63d 65d0 0fbe
000001a0: 2912 c23d 7894 f5bd 031a 0a3e baf2 d43d
000001b0: 57eb f53c 2db4 1bbd 2904 993c f04a 17bc
000001c0: f380 423d da08 d73c 08a3 f1bc 469f be3d
000001d0: 2703 e0bc 53aa 32bb 9486 6c3e fb1b 943d
000001e0: a450 98bd 18eb ccbc 9342 0b3d b680 1abd
000001f0: b1e1 3a3e 9e84 283e 92d2 98bd a983 443e
00000200: 18fc 043d 801e b43d fa5b 23be 7783 063c
00000210: 51a8 ee3c bbea dc3a e133 9e3d d7e8 a0bd
00000220: 5ff7 0dbe 7c60 04bd 8962 c5bc a518 2fbe
00000230: 9925 c23d dc06 a53d 2fbb 7e3d 5511 09bd
00000240: 90ac 4d3e af35 b4bd 15b5 ecbd cc7e d23d
00000250: b29e b8bd 2d43 d53d eb84 01bc 679e 2fbd
00000260: 43e3 5ebd 8aca 47be 1349 583e 28ec c33d
00000270: ffe5 b4bc e4fb b23d 87fb 18be 4ad0 0e3e
00000280: dca9 073d cfba 093e 5bf6 10be 890a ddbc
00000290: 3faf a3bd c0b5 a93d 2cd8 9c3c 7811 b539
000002a0: d54c a0bb cf23 a8bd f16f 5ebd 5091 ad3d
000002b0: fe06 26be 1d10 d5bc fd6a ca3d 0bd4 32be
000002c0: ace7 2fbd 0170 53bc 30fb c3bd 17aa 313e
000002d0: a1e4 f3bc b006 aabd 74fb 0abe d06e 333e
000002e0: 3387 8e3d 37c8 97bb 5de2 89bd 695c 09be
000002f0: 5623 90bc d34f 983d 6311 153e cb9e 073d
00000300: 0031 ad3c 5463 92be 74e3 d53d e814 953d
00000310: 9f09 7bbe 3642 c63d b06e f5bd 9040 183c
00000320: 2691 013e 31af 42be c9df 5c3c bcaa 273e
00000330: 0185 8a3d 34a4 8fbe d360 c8bd 45ef c9bd
00000340: 40da 07bd 503c 033e 5f4d 653a 1b2c 813d
00000350: b36d 23be 5922 433d 3b4f 043e 6c20 d63d
00000360: 8cc4 c23c d22e 10be 8f6f 2dbb 05db cf3c
00000370: 3758 733d c54c 1a3e d956 13be f680 f83d
00000380: ac04 17be 4d89 bf3c f805 05be 71df b53d
00000390: 66d6 103e 5ebb 0c3e 87b5 953c 9b5e 3bbe
000003a0: 792b 183e 4454 12bd 126d 043e 8235 65bd
000003b0: a153 15be 854f c0bd 1ec9 673e cbd7 693d
000003c0: 9491 8ebd 7493 9d3d 6e4c 88bd 5c2c 5f3d
000003d0: 9f48 2dbe 4ae1 a83d 185e 333d a64d 6fbd
000003e0: c81e 473d 732b bcbc 94f6 133e 58e6 4c3d
000003f0: 5031 5cbd 15db f1bd def9 813e d7d3 2ebc

network_body._body_endoder.seq_layers.2.bias f4 [128]
-0.052832056 0.0052006957 0.022980127 -0.10544204 0.0909833 0.07048539 -0.026573192 0.01172475
0.05425178 0.052631076 0.0460206 -0.056973197 0.100846514 -0.03174955 0.038860507 0.0042325985
-0.06832412 -0.0069709155 -0.0047133463 0.0044940426 0.019987885 0.08481302 0.055752274 0.054895688
0.11092294 0.048775 -0.05559322 0.06095261 0.02248747 0.33889693 0.02077017 0.12198837
0.070297755 0.048849188 0.021879552 -0.047724865 0.04744729 -0.018474944 0.012892432 0.019496178
0.0036017897 0.0100084795 0.027261393 -0.07847882 -0.034508005 0.0381546 0.054193523 0.11384186
0.041365325 0.08152657 0.098562606 0.020027507 0.07013769 -0.022705797 -0.027597839 -0.052950583
0.09674197 0.13584536 0.12314943 0.026651721 0.113341145 -0.00942768 0.08199191 0.04943357
0.042118877 0.07107518 0.057340246 0.03789727 0.030812908 0.06424637 -0.0045906017 0.049659256
0.06517767 0.026443591 0.084062114 0.09149903 0.009930088 0.02519508 0.012625535 -0.006277013
0.07762196 -0.0010936381 0.010025695 -0.010600276 0.022045203 0.028240344 -0.027672729 0.062439762
0.032696098 0.08672914 0.0018939386 -0.0039936774 0.07598716 0.008605168 -0.06113312 0.036293827
0.040063836 0.016033197 0.027696675 0.013544144 -0.020715585 -0.058337566 -0.03058467 0.032356348
-0.035511404 0.10377649 0.02756704 0.0455609 0.0439701 0.037360758 0.007909627 -0.050167706
0.034789145 0.0034177126 0.028392797 0.06224215 0.020550784 0.00068196707 -0.07396305 0.13758714
-0.008812146 0.04848253 0.0311713 0.07698165 0.10117297 0.24158362 -0.04455363 0.08840877
00000000: 6d66 58bd 996a aa3b d240 bc3c fff1 d7bd
00000010: 7455 ba3d a55a 903d 06b0 d9bc 2a19 403c
00000020: 1d37 5e3d af93 573d 1980 3c3d ba5c 69bd
00000030: 9e88 ce3d d10b 02bd 322c 1f3d 9cb1 8a3b
00000040: 84ed 8bbd 476c e4bb 6a72 9abb c342 933b
00000050: a2bd a33c 73b2 ad3d 7f5c 643d 4dda 603d
00000060: 912b e33d 4bc8 473d b7b5 63bd 72a9 793d
00000070: a537 b83c e683 ad3e 3426 aa3c 0ad5 f93d
00000080: 45f8 8f3d 1616 483d bf3c b33c 267b 43bd
00000090: 1758 423d c458 97bc c73a 533c 73b6 9f3c
000000a0: 010c 6c3b 9bfa 233c 4953 df3c 81b9 a0bd
000000b0: 4458 0dbd ff47 1c3d 07fa 5d3d ec25 e93d
000000c0: b06e 293d 67f7 a63d 31db c93d ba10 a43c
000000d0: 59a4 8f3d 8201 babc dd14 e2bc b6e2 58bd
000000e0: a720 c63d 0c1b 0b3e c535 fc3d b654 da3c
000000f0: 671f e83d 8e76 1abc 60eb a73d db7a 4a3d
00000100: d884 2c3d dd8f 913d 9bdd 6a3d 2b3a 1b3d
00000110: 5a6b fc3c 9a93 833d c26c 96bb 8167 4b3d
00000120: df7b 853d 3ba0 d83c c228 ac3d d863 bb3d
00000130: cfb1 223c ea65 ce3c 55db 4e3c 67af cdbb
00000140: 43f8 9e3d 6858 8fba d042 243c c8ac 2dbc
00000150: 2498 b43c 4b58 e73c ebb1 e2bc d6c0 7f3d
00000160: 58ec 053d 0c9f b13d 093e f83a 65dd 82bb
00000170: 289f 9b3d b1fc 0c3c b966 7abd d6a8 143d
00000180: fa19 243d 0d58 833c 23e4 e23c 42e8 5d3c
00000190: bbb3 a9bc 5ff3 6ebd b48c fabc 1788 043d
000001a0: 6874 11bd c588 d43d 46d4 e13c 119e 3a3d
000001b0: fe19 343d 9807 193d 6197 013c a77c 4dbd
000001c0: 107f 0e3d b4fb 5f3b 0398 e83c a0f1 7e3d
000001d0: 1e5a a83c 09c6 323a f179 97bd a5e3 0c3e
000001e0: d260 10bc 9e95 463d f45a ff3c 8ea8 9d3d
000001f0: c633 cf3d b261 773e de7d 36bd a80f b53d

action_model._discrete_distribution.branches.0.weight f4 [3, 128]
0.06098671 -0.017403947 -0.07664506 0.05104694 4.4103497e-05 -0.08752229 -0.027570117 0.032063253
0.1151748 0.13898277 0.028361203 -0.0146664595 0.2214311 -0.035564777 0.1015251 0.096887015
0.0730654 0.10201882 -0.059985384 0.20335524 0.026339635 0.0701999 0.015694875 0.13846369
0.0060266084 0.151831 -0.12727687 0.15562898 0.050353475 0.009141432 0.25547248 0.16023159
-0.17698573 0.015527155 0.0037805268 -0.011323653 -0.027921861 -0.07222473 0.07472628 0.014650109
0.093264736 0.040681854 0.17995048 -0.06779345 0.0149919065 -0.071977735 0.13923764 -0.004212206
0.05414529 0.037289944 0.16580954 0.11450107 -0.08895792 0.04051608 -0.011131726 0.07238216
-0.020961732 -0.05104627 -0.020450415 0.07998889 -0.10074993 -0.03874918 0.035791937 0.07778991
-0.068449266 0.008917499 0.1927513 -0.16177475 0.04097661 -0.048695516 0.15196596 0.01740137
0.018895162 -0.03634238 -0.12856396 -0.08483669 -0.09054796 -0.12758198 0.019404853 0.031913627
-0.027957428 0.055277273 0.08605443 0.01349564 0.09726679 0.18325068 0.008132287 0.14662059
-0.0900998 0.27429038 -0.07523317 0.0021250618 0.17544104 -0.018250272 0.029689629 -0.07835455
0.047519606 -0.13866754 -0.04197267 0.19416408 -0.18871053 -0.10232608 0.005580086 -0.12289093
0.025469005 -0.054181565 -0.009015387 0.09660138 0.19040139 -0.007029524 0.036601506 0.071380794
0.032694567 -0.039618038 0.098828375 0.015232327 0.093318515 -0.20341718 -0.08523723 -0.007957797
0.13591184 -0.05825857 0.067135155 -0.07079039 0.031106444 -0.012870759 -0.0045134947 0.1665045
-0.09079712 -0.025886025 -0.060112115 -0.06485452 0.051406924 -0.058208756 -0.008620994 -0.0881439
-0.14376222 -0.13331841 -0.0058056638 -0.113827325 -0.118073925 0.0007791985 -0.040947504 -0.0707937
-0.10196004 -0.17033242 0.041861653 -0.17490931 -0.008298249 -0.057829455 -0.03862162 -0.046380855
-0.07617022 -0.1791892 0.01819211 -0.14338656 0.03170893 0.063414775 -0.19126351 -0.2879188
-0.09193048 -0.048662174 -0.14490584 -0.051321495 -0.013379955 -0.032756075 -0.014753306 0.04832886
-0.13983195 -0.12870607 -0.12735349 0.031102402 0.013339719 0.0087620905 -0.16695063 0.022561435
-0.16889454 0.0071499352 -0.21589637 -0.059222918 0.08080604 -0.05789337 -0.0032988377 -0.19130366
-0.19957149 -0.008606159 -0.048739176 -0.111716986 0.1049038 -0.053000715 -0.062406123 -0.20194426
-0.010137639 -0.0795118 -0.18632604 0.07992179 0.019253192 -0.01691919 -0.033916056 -0.102289215
-0.11817306 0.0122786965 0.0012764802 0.058999542 0.026342204 0.066876814 -0.02276494 -0.03145096
0.017874977 -0.022849005 -0.11263801 -0.042277317 -0.12627865 -0.07621258 0.015217736 -0.12039222
-0.006786144 -0.2800136 0.11286078 -0.06902477 -0.1397095 -0.084705316 0.0050125252 0.07152337
-0.12474177 0.14275767 -0.03472465 -0.17105256 0.09111354 0.022036754 -0.015858985 0.014013669
-0.025846252 0.049371354 0.060109057 -0.15003069 -0.015223009 -0.10337713 0.01534704 -0.05731844
-0.121500626 0.025804907 0.00043283455 -0.08745769 -0.052523162 0.10732215 0.004773766 0.10395294
-0.08022985 -0.037036438 -0.05697419 0.05609443 0.049458843 0.04002208 0.046642873 -0.07538381
00000000: 33cd 793d b992 8ebc 16f8 9cbd 9916 513d
00000010: c5fb 3838 e33e b3bd bada e1bc c254 033d
00000020: c4e0 eb3d 8051 0e3e c155 e83c 974b 70bc
00000030: d6be 623e 5fac 11bd 64ec cf3d b36c c63d
00000040: 50a3 953d 3eef d03d 3cb3 75bd 5b3c 503e
00000050: 38c6 d73c f7c4 8f3d 8a92 803c 6dc9 0d3e
00000060: db7a c53b 9679 1b3e de54 02be 345d 1f3e
00000070: 723f 4e3d f2c5 153c 4acd 823e c013 243e
00000080: bf3b 35be 9c65 7e3c b7c2 773b d886 39bc
00000090: 63bc e4bc 8fea 93bd 180a 993d 0307 703c
000000a0: 9501 bf3d 04a2 263d f044 383e 4bd7 8abd
000000b0: 9da0 753c 1069 93bd 5094 0e3e 8c06 8abb
000000c0: 74c7 5d3d 57bd 183d fac9 293e 897f ea3d
000000d0: 922f b6bd 30f4 253d d861 36bc 193d 943d
000000e0: f0b7 abbc e515 51bd a187 a7bc 37d1 a33d
000000f0: fb55 cebd 76b7 1ebd 919a 123d 5150 9f3d
00000100: 212f 8cbd b41a 123c 9960 453e 48a8 25be
00000110: 17d7 273d f374 47bd f79c 1b3e 518d 8e3c
00000120: 07ca 9a3c bfdb 14bd 45a6 03be dcbe adbd
00000130: 3571 b9bd daa4 02be edf6 9e3c ddb7 023d
00000140: fa06 e5bc 6c6a 623d 4e3d b03d d11c 5d3c
00000150: d033 c73d 11a6 3b3e 493d 053c b523 163e
00000160: 3e86 b8bd ca6f 8c3e d913 9abd 9f44 0b3b
00000170: d1a6 333e 9881 95bc aa37 f33c 5a78 a0bd
00000180: eba3 423d ddfe 0dbe 89eb 2bbd f3d2 463e
00000190: 553d 41be 5690 d1bd 27d9 b63b 3dae fbbd
000001a0: 60a4 d03c 7ded 5dbd 46b5 13bc f2d6 c53d
000001b0: 95f8 423e ec57 e6bb 76eb 153d 1830 923d
000001c0: bdea 053d 8646 22bd 8866 ca3d 0391 793c
000001d0: c71d bf3d 984c 50be db90 aebd 6b61 02bc
000001e0: 792c 0b3e 8aa0 6ebd 287e 893d 8dfa 90bd
000001f0: f1d2 fe3c e0df 52bc f0e5 93bb 2880 2a3e
00000200: d7f3 b9bd ee0e d4bc 1f38 76bd 72d2 84bd
00000210: 1190 523d 4e6c 6ebd 123f 0dbc ca84 b4bd
00000220: 6736 13be 9f84 08be 703d bebb 4d1e e9bd
00000230: bed0 f1bd 2043 4c3a 92b8 27bd 4afc 90bd
00000240: 6dd0 d0bd 9f6b 2ebe 2077 2b3d 6d1b 33be
00000250: 61f5 07bc 94de 6cbd b431 1ebd daf9 3dbd
00000260: 22ff 9bbd 607d 37be 9f07 953c edd3 12be
00000270: 39e1 013d 9bdf 813d 95da 43be 186a 93be
00000280: 0c46 bcbd fd51 47bd 3262 14be 7d36 52bd
00000290: 9937 5bbc 3c2b 06bd dab7 71bc 7cf4 453d
000002a0: 1b30 0fbe 86cb 03be f468 02be 77ca fe3c
000002b0: d68e 5a3c df8e 0f3c 1bf5 2abe c2d2 b83c
000002c0: b1f2 2cbe 014a ea3b f013 5dbe bb93 72bd
000002d0: a37d a53d 9921 6dbd 5031 58bb 1be5 43be
000002e0: 785c 4cbe d900 0dbc bba2 47bd e0cb e4bd
000002f0: ced7 d63d 4717 59bd 909d 7fbd 7aca 4ebe
00000300: 5718 26bc 15d7 a2bd 41cc 3ebe 09ae a33d
00000310: dfb8 9d3c 1d9a 8abc 90eb 0abd 027d d1bd
00000320: b804 f2bd 962c 493c 914f a73a 81a9 713d
00000330: 9bcb d73c b6f6 883d 8a7d babc b9d2 00bd
00000340: 8b6e 923c d62d bbbc c2ae e6bd fb2a 2dbd
00000350: 314f 01be 5715 9cbd d053 793c 3290 f6bd
00000360: 4d5e debb f15d 8fbe 8d23 e73d dc5c 8dbd
00000370: 0210 0fbe fb79 adbd 1c40 a43b d87a 923d
00000380: 9d78 ffbd 112f 123e 6f3b 0ebd 6728 2fbe
00000390: bc99 ba3d 6c86 b43c b4ea 81bc 9799 653c
000003a0: 85bb d3bc 9e39 4a3d ea34 763d a5a1 19be
000003b0: ed69 79bc 64b7 d3bd 2772 7b3c bec6 6abd
000003c0: 52d5 f8bd d064 d33c 12ee e239 041d b3bd
000003d0: 8722 57bd b7cb db3d 406d 9c3b 47e5 d43d
000003e0: 8c4f a4bd 85b3 17bd c55d 69bd 46c3 653d
000003f0: 5b95 4a3d 31ee 233d 990c 3f3d d462 9abd

action_model._discrete_distribution.branches.0.bias f4 [3]
-0.2494016 0.3092508 -0.12021754
00000000: 2263 7fbe 1f56 9e3e 9d34 f6bd

action_model._discrete_distribution.branches.1.weight f4 [3, 128]
0.11876467 0.1074624 -0.05815212 0.04672195 -0.025168728 -0.1433134 0.030626107 0.04280093
0.061439972 0.13583192 0.08351532 0.029343916 0.19021946 -0.042968053 0.1420217 0.10117898
0.07781977 0.20972191 0.039084136 0.04101502 0.13180718 0.115177475 0.14168166 -0.03473148
0.010123086 0.03166885 -0.071380086 -0.03143636 -0.017691683 -0.016980195 0.09500406 0.14868349
0.16980015 0.07755686 0.026183946 0.027579155 0.0068479492 0.08183611 -0.019884972 0.054693468
0.036617536 0.008079166 0.0059376047 -0.007362566 0.126386 0.049525164 0.113105446 -0.05490923
0.007883557 -0.08987391 0.12176291 0.095809735 0.005214775 0.14874388 -0.03821973 0.07135728
0.07753827 -0.11022224 0.11466489 -0.0104789715 0.012533235 0.027090196 0.074924506 0.097354464
-0.018864784 0.07711386 0.30836797 -0.033781298 -0.014237028 0.021782797 0.15229754 0.1107122
0.1750586 0.09062507 -0.0803288 0.046845824 -0.006529416 -0.004343401 0.072016224 -0.008974837
-0.10607938 0.02176641 0.06778554 0.044891737 0.06539578 0.12357374 0.0014272467 0.17555624
0.09460175 0.18502474 -0.04111429 0.071086526 0.114997484 0.09087938 0.07201449 -0.032348648
0.0752845 -0.037766553 0.014052576 0.13597132 -0.12462124 -0.033789717 0.13324057 0.035748214
-0.0010080887 -0.08890193 0.046476383 0.060211204 0.14623003 -0.060516033 -0.0006627291 0.10602343
-0.03372642 -0.07135794 -0.028985731 0.14849748 0.017428668 -0.013800359 -0.0051414166 -0.10561891
-0.045821104 0.1144754 0.041649055 -0.011796976 0.020031476 0.0022997467 -0.06867141 0.04100463
-0.09482277 -0.09200658 0.019067878 -0.014516478 -0.035147887 -0.06311466 -0.073314175 -0.043845277
-0.019247571 -0.11605223 -0.043853834 -0.080398515 -0.20396593 0.012826843 0.064627044 -0.102174394
-0.06908277 -0.2130568 -0.18415087 -0.12537847 -0.053645164 -0.14484017 -0.044517335 -0.002034231
0.037120447 -0.035691068 0.06437541 -0.064206 -0.06695563 0.05245439 -0.055426788 -0.099644646
-0.16747704 -0.080221735 -0.030463684 -0.020191813 -0.021216992 -0.08991604 -0.14826074 -0.14816386
-0.08231209 -0.08217485 -0.11272994 -0.021199828 -0.030138517 -0.12135961 -0.02687349 -0.0065216636
-0.049090933 -0.026115274 -0.16869247 -0.027201151 0.04958969 -0.2078112 -0.012394162 -0.21961407
-0.07818528 -0.019030303 -0.07621134 -0.06865083 0.049961142 -0.24837638 0.006691157 -0.16418912
-0.022267858 -0.18458146 -0.16511557 0.03087347 -0.06450936 -0.11206754 -0.025573403 -0.11135369
-0.24078637 -0.18155798 -0.017245488 -0.17675018 0.020609751 0.055956535 -0.1900676 -0.021828344
-0.009159331 -0.02898412 -0.08821587 0.010616299 -0.17451079 -0.05317418 -0.025846073 -0.20626415
-0.023019329 -0.1986989 -0.01387594 -0.18106751 -0.14648016 -0.10450897 -0.09885313 -0.008313748
-0.1369408 -0.0112110255 -0.06965108 -0.12978336 0.07915064 -0.010223863 -0.099906884 0.029650837
-0.016865874 -0.055516694 -0.1020288 -0.09805526 -0.11700788 0.0991521 -0.08657886 -0.03346941
-0.042476177 0.0011601048 -0.057342466 -0.15752211 -0.021441821 0.005478087 -0.036727484 0.014037276
-0.096440144 -0.08376576 -0.11183612 0.036911253 0.027823083 0.032659035 -0.04359498 -0.0021539591
00000000: e43a f33d 3f15 dc3d eb30 6ebd 845f 3f3d
00000010: a62e cebc bfc0 12be 9ae3 fa3c 0750 2f3d
00000020: 7ba8 7b3d 8617 0b3e 150a ab3d a762 f03c
00000030: e4c8 423e 45ff 2fbd 236e 113e ed36 cf3d
00000040: f95f 9f3d 57c1 563e b016 203d 5eff 273d
00000050: 76f8 063e 2be2 eb3d ff14 113e 9942 0ebd
00000060: 4ddb 253c 32b7 013d b92f 92bd 6ac3 00bd
00000070: 26ee 90bc 0d1a 8bbc 7d91 c23d 7c40 183e
00000080: 17e0 2d3e 22d6 9e3d b77f d63c aeed e13c
00000090: c364 e03b b199 a73d cfe5 a2bc 4206 603d
000000a0: 45fc 153d 7a5e 043c 3d90 c23b ae41 f1bb
000000b0: 556b 013e e6da 4a3d d4a3 e73d 80e8 60bd
000000c0: 092a 013c d00f b8bd d55e f93d e537 c43d
000000d0: b4e0 aa3b 5150 183e 4b8c 1cbd c423 923d
000000e0: 62cc 9e3d 33bc e1bd 6dd5 ea3d feaf 2bbc
000000f0: 3358 4d3c 42ec dd3c 0572 993d c761 c73d
00000100: 528a 9abc dfed 9d3d 68e2 9d3e 425e 0abd
00000110: 6c42 69bc d671 b23c e3f3 1b3e 14bd e23d
00000120: 9042 333e a399 b93d 6d83 a4bd 68e1 3f3d
00000130: b6f4 d5bb 1753 8ebb 3e7d 933d 320b 13bc
00000140: 2540 d9bd 784f b23c 25d3 8a3d 66e0 373d
00000150: 39ee 853d 3b14 fd3d 7412 bb3a 04c5 333e
00000160: 90be c13d 2077 3d3e 7567 28bd d095 913d
00000170: cd83 eb3d f81e ba3d 557c 933d 0480 04bd
00000180: c32e 9a3d 1ab1 1abd c73c 663c 113c 0b3e
00000190: 6c39 ffbd 1667 0abd 3770 083e b86c 123d
000001a0: d821 84ba 3712 b6bd 055e 3e3d 06a0 763d
000001b0: 53bd 153e a9df 77bd ffba 2dba d022 d93d
000001c0: b724 0abd 1d24 92bd 7c73 edbc b90f 183e
000001d0: 91c6 8e3c e71a 62bc 5479 a8bb ba4e d8bd
000001e0: e9ae 3bbd 1472 ea3d 3398 2a3d 1b48 41bc
000001f0: 0d19 a43c 59b7 163b 99a3 8cbd 79f4 273d
00000200: 7132 c2bd f26d bcbd 3d34 9c3c 86d6 6dbc
00000210: 3bf7 0fbd 4242 81bd be25 96bd 1b97 33bd
00000220: 15ad 9dbc cbac edbd 14a0 33bd faa7 a4bd
00000230: 72dc 50be ae27 523c 2f5b 843d cf40 d1bd
00000240: 447b 8dbd 902b 5abe 0c92 3cbe 3763 00be
00000250: 08bb 5bbd fb50 14be cf57 36bd bc50 05bb
00000260: 9c0b 183d cc30 12bd 41d7 833d 6f7e 83bd
00000270: 0920 89bd 6ada 563d 3307 63bd 7e12 ccbd
00000280: 1a7f 2bbe 4b4b a4bd fa8e f9bc 4d69 a5bc
00000290: 42cf adbc e725 b8bd aad1 17be 44b8 17be
000002a0: 3e93 a8bd 4a4b a8bd f4de e6bd 43ab adbc
000002b0: 0de5 f6bc 638b f8bd cb25 dcbc aeb3 d5bb
000002c0: 9313 49bd b3ef d5bc b8bd 2cbe f3d4 debc
000002d0: 8f1e 4b3d 76cc 54be e210 4bbc 83e2 60be
000002e0: 9b1f a0bd 70e5 9bbc b114 9cbd ce98 8cbd
000002f0: 0ea4 4c3d 6156 7ebe 7e41 db3b 3121 28be
00000300: 156b b6bc ec02 3dbe 0e14 29be 5cea fc3c
00000310: 7c1d 84bd ab83 e5bd 507f d1bc 670d e4bd
00000320: b490 76be 56ea 39be 6946 8dbc 00fe 34be
00000330: c8d5 a83c ae32 653d 15a1 42be 5bd1 b2bc
00000340: 0511 16bc 1b70 edbc 86aa b4bd fcef 2d3c
00000350: f5b2 32be 2bcd 59bd 25bb d3bc e936 53be
00000360: 0893 bcbc b977 4bbe e957 63bc c369 39be
00000370: e5fe 15be cd08 d6bd 8373 cabd 6336 08bc
00000380: 363a 0cbe 73ae 37bc 3aa5 8ebd eee5 04be
00000390: bb19 a23d fd81 27bc fb9b ccbd 50e6 f23c
000003a0: 4d2a 8abc 7965 63bd 7af4 d0bd 32d1 c8bd
000003b0: d4a1 efbd 4210 cb3d 4250 b1bd 3817 09bd
000003c0: 80fb 2dbd a80e 983a efdf 6abd 7a4d 21be
000003d0: c2a6 afbc 8681 b33b 8f6f 16bd 9afc 653c
000003e0: 6982 c5bd 628d abbd 560a e5bd 4130 173d
000003f0: 3ced e33c 7bc5 053d a690 32bd 7029 0dbb

action_model._discrete_distribution.branches.1.bias f4 [3]
-0.24279942 0.33232915 -0.12993105
00000000: 69a0 78be 0c27 aa3e a50c 05be

exp_avg f4 [128, 36]
-3.784055e-05 -6.0556213e-05 -4.323286e-05 -7.234227e-05 -3.0435729e-05 -6.316964e-05 -6.265544e-05 -8.492736e-05
-1.6950704e-05 -6.029485e-05 -6.914753e-05 -7.033749e-05 -5.7467376e-05 -6.606954e-05 -6.6441484e-05 -7.8950776e-05
-3.531596e-05 -6.867749e-05 -7.031503e-05 -7.428532e-05 -6.526219e-05 -6.285051e-05 -7.0535454e-05 -6.875322e-05
-5.364318e-05 -5.7462566e-05 -3.091094e-05 -4.4965047e-05 -2.4322242e-05 -3.691388e-05 -3.6527337e-05 -3.335923e-05
-3.6527337e-05 -3.335923e-05 -0.009201069 -0.008732274 2.0539794e-06 2.0337116e-06 2.287123e-06 2.2629074e-06
2.413275e-06 2.3110874e-06 1.9481824e-06 1.8654006e-06 1.881534e-06 1.8728553e-06 1.6175096e-06 1.5193491e-06
6.6897644e-07 6.9104345e-07 4.4831225e-08 1.463665e-06 3.387597e-07 8.386961e-07 1.1216226e-06 1.3180576e-06
1.6897121e-06 7.847832e-07 -6.0016063e-09 7.932295e-07 1.0244997e-06 1.502315e-06 -5.517423e-07 2.1767623e-07
-1.6436545e-07 7.12512e-07 -1.0798258e-07 4.8456957e-07 -1.0798258e-07 4.8456957e-07 4.8249763e-06 3.8141494e-05
-3.2754182e-05 -4.3933418e-05 -5.590664e-05 -4.965553e-05 -6.831995e-05 -5.2162824e-05 -5.1822488e-05 -5.4182077e-05
-6.293966e-05 -6.502138e-05 -5.021106e-05 -5.826043e-05 -5.358574e-05 -5.8472895e-05 -1.6664926e-05 -5.282694e-05
-4.21582e-05 -5.8094665e-05 -3.9747618e-05 -4.7655227e-05 -5.2562697e-05 -5.517344e-05 -3.0794195e-05 -4.414023e-05
-5.129012e-05 -5.4638094e-05 -2.1489177e-05 -3.6516096e-05 -4.8467067e-05 -5.5181783e-05 -8.951812e-07 -4.0354324e-05
-8.951812e-07 -4.0354324e-05 0.0013801039 -0.0013838804 2.6082054e-05 6.091624e-05 4.6992594e-05 5.7970934e-05
5.345366e-05 6.607231e-05 3.0464065e-05 6.141656e-05 4.5195895e-05 5.002547e-05 -9.605688e-06 3.253266e-05
5.6752084e-05 5.3882042e-05 -2.8815795e-05 4.4637713e-05 0.0001003303 5.716459e-05 9.70403e-06 4.3630633e-05
4.451763e-05 5.5121913e-05 7.547361e-05 7.5134e-05 0.00010424381 8.21015e-05 0.00012354249 8.6889806e-05
0.0001042716 8.100951e-05 0.00010389124 9.489624e-05 0.00010389124 9.489624e-05 -0.0063892705 -0.0038073778
-2.8428265e-05 8.8479246e-05 1.0488358e-05 9.710626e-05 -2.1434975e-05 9.552712e-05 3.988688e-05 0.00011511546
6.279914e-05 0.00012967266 2.8437125e-05 0.000100347745 0.00012135878 0.00012150617 7.2024304e-05 9.8136254e-05
5.8621816e-05 0.000102000085 7.326148e-05 0.000113859576 3.325053e-05 6.469368e-05 0.00016003053 0.00014541163
6.9434835e-05 8.659353e-05 0.00021626135 0.00016817285 0.00012732264 0.0001112579 0.0001748336 0.00014928133
0.0001748336 0.00014928133 0.0070871715 0.0089762965 5.42013e-06 3.7509722e-05 4.7968474e-06 3.5449306e-05
1.0748978e-05 4.087174e-05 3.300081e-05 5.1706444e-05 1.6062533e-05 5.4406013e-05 5.4575186e-05 4.800191e-05
5.687772e-05 4.6302895e-05 6.720984e-05 6.890528e-05 8.794787e-06 4.3752894e-05 5.6979887e-05 5.669867e-05
5.6845958e-05 3.972299e-05 3.9650295e-05 5.0951316e-05 2.1862541e-05 3.7111982e-05 2.5938942e-05 3.950705e-05
3.7403635e-05 4.448953e-05 3.4771176e-05 3.6504338e-05 3.4771176e-05 3.6504338e-05 0.008539763 0.006611496
3.6346737e-05 3.8703634e-05 7.251814e-05 5.7248515e-05 7.9595615e-05 5.6249326e-05 4.8982023e-05 4.6499357e-05
2.6053558e-05 3.353667e-05 4.0504667e-05 4.618011e-05 4.389829e-05 1.7997423e-05 -3.40829e-05 3.9592254e-05
2.7546752e-05 4.0378483e-05 3.1888554e-05 5.201895e-05 0.00010682697 4.787194e-05 4.01392e-06 2.4211791e-05
3.3110682e-05 4.566265e-05 -6.664257e-05 -1.51572995e-05 -3.483059e-05 2.2389862e-05 -4.277542e-05 -1.9683143e-06
-4.277542e-05 -1.9683143e-06 0.00035527305 0.0022531757 -3.4526288e-06 -1.3087131e-06 5.963099e-06 -3.7613927e-07
00000000: fbb6 1eb8 bdfd 7db8 ee54 35b8 76b6 97b8
00000010: 3b50 ffb7 f179 84b8 e265 83b8 071b b2b8
00000020: 5c31 8eb7 1ae5 7cb8 4c03 91b8 2782 93b8
00000030: 2009 71b8 d08e 8ab8 8056 8bb8 6092 a5b8
00000040: 3920 14b8 f206 90b8 1876 93b8 a1c9 9bb8
00000050: 5fdd 88b8 9cce 83b8 6fec 93b8 9b2f 90b8
00000060: edfe 60b8 f603 71b8 5ea6 01b8 da98 3cb8
00000070: 9e07 ccb7 fad3 1ab8 ee34 19b8 33eb 0bb8
00000080: ee34 19b8 33eb 0bb8 15c0 16bc d011 0fbc
00000090: 19d7 0936 e67a 0836 797c 1936 74dc 1736
000000a0: c0f3 2136 2e18 1b36 85bd 0236 ad5e fa35
000000b0: 0489 fc35 d15e fb35 3519 d935 70ec cb35
000000c0: b693 3335 2580 3935 748c 4033 2573 c435
000000d0: c7de b534 c222 6135 a98a 9635 1de8 b035
000000e0: 11ca e235 e4a9 5235 b036 ceb1 51ee 5435
000000f0: 8b81 8935 26a3 c935 711b 14b5 63ba 6934
00000100: 6e7c 30b4 7443 3f35 0de4 e7b3 5e13 0235
00000110: 0de4 e7b3 5e13 0235 3be6 a136 1efa 1f38
00000120: 8961 09b8 2645 38b8 4c7d 6ab8 3845 50b8
00000130: fe46 8fb8 68c9 5ab8 f95b 59b8 9041 63b8
00000140: 79fe 83b8 165c 88b8 b799 52b8 a95c 74b8
00000150: 40c1 60b8 cb40 75b8 a8cb 8bb7 7f92 5db8
00000160: 06d3 30b8 acaa 73b8 aeb6 26b8 69e1 47b8
00000170: c476 5cb8 086a 67b8 0429 01b8 3623 39b8
00000180: 5920 57b8 352b 65b8 a843 b4b7 dc28 19b8
00000190: 1e49 4bb8 fd72 67b8 624c 70b5 2042 29b8
000001a0: 624c 70b5 2042 29b8 9ae4 b43a 5263 b5ba
000001b0: c9ca da37 5180 7f38 ea19 4538 d125 7338
000001c0: 6e33 6038 4d90 8a38 158d ff37 c4cc 8038
000001d0: b990 3d38 70d2 5138 1e28 21b7 ad73 0838
000001e0: 1609 6e38 67ff 6138 73b9 f1b7 6139 3b38
000001f0: 6b68 d238 03c4 6f38 7ece 2237 0900 3738
00000200: 71b8 3a38 b432 6738 9647 9e38 4291 9d38
00000210: 789d da38 e82d ac38 2f8b 0139 9c38 b638
00000220: 64ac da38 a6e3 a938 2fe0 d938 0803 c738
00000230: 2fe0 d938 0803 c738 165d d1bb 3385 79bb
00000240: 3c79 eeb7 ef8d b938 28f7 2f37 87a5 cb38
00000250: 42cf b3b7 bb55 c838 364c 2738 246a f138
00000260: 08b3 8338 bdf8 0739 438c ee37 c971 d238
00000270: 0082 fe38 21d1 fe38 c10b 9738 80ce cd38
00000280: b2e0 7538 e1e8 d538 f5a3 9938 e5c7 ee38
00000290: 7c76 0b38 28ac 8738 decd 2739 a379 1839
000002a0: 8b9d 9138 8c99 b538 37c4 6239 8e57 3039
000002b0: e981 0539 2153 e938 8a53 3739 6788 1c39
000002c0: 8a53 3739 6788 1c39 813b e83b 5111 133c
000002d0: 90de b536 c253 1d38 9bf4 a036 67af 1438
000002e0: 8256 3437 b26d 2b38 5a6a 0a38 5fdf 5838
000002f0: 07be 8637 0332 6438 a9e7 6438 a955 4938
00000300: fd8f 6e38 5b35 4238 02f3 8c38 3e81 9038
00000310: 538d 1337 5083 3738 b0fd 6e38 bccf 6d38
00000320: e26d 6e38 3c9c 2638 2e4e 2638 8fb4 5538
00000330: 7365 b737 b0a8 1b38 7497 d937 5fb4 2538
00000340: d9e1 1c38 459a 3a38 44d7 1138 3c1c 1938
00000350: 44d7 1138 3c1c 1938 5dea 0b3c 40a5 d83b
00000360: 0373 1838 b655 2238 e114 9838 201e 7038
00000370: 92ec a638 41ed 6b38 0c72 4d38 4e08 4338
00000380: 978d da37 baa9 0c38 8ee3 2938 84b1 4138
00000390: 6e1f 3838 2cf9 9637 3cf4 0eb8 dc0f 2638
000003a0: 3314 e737 115c 2938 13c0 0538 ec2e 5a38
000003b0: 4b08 e038 1bca 4838 4faf 8636 6d1a cb37
000003c0: 53e0 0a38 e685 3f38 75c2 8bb8 1b4c 7eb7
000003d0: 1017 12b8 ddd1 bb37 c269 33b8 6217 04b6
000003e0: c269 33b8 6217 04b6 f143 ba39 04aa 133b
000003f0: b6b3 67b6 0aa7 afb5 a116 c836 30f0 c9b4

exp_avg_sq f4 [128, 36]
1.8160954e-08 2.6761844e-08 2.1040174e-08 2.7206799e-08 2.1035017e-08 2.7661114e-08 2.659222e-08 2.9464763e-08
2.3842372e-08 2.9618535e-08 2.986569e-08 3.1052586e-08 1.2257089e-08 2.6816116e-08 2.984988e-08 3.192557e-08
6.973085e-09 2.4389466e-08 2.963203e-08 3.188819e-08 1.22022366e-08 2.62405e-08 2.677386e-08 3.057777e-08
2.2537941e-08 2.832994e-08 2.251552e-08 2.7922463e-08 2.2124661e-08 2.7381727e-08 2.0292639e-08 2.688132e-08
2.0292639e-08 2.688132e-08 0.00043777752 0.0006529295 5.0235097e-11 5.0850695e-11 5.2736652e-11 5.2766975e-11
5.1460305e-11 5.183017e-11 5.483375e-11 5.5043487e-11 5.2157327e-11 5.3420397e-11 5.621509e-11 5.6619712e-11
5.3928073e-12 4.3846357e-11 5.316277e-11 5.6447496e-11 2.1825922e-12 3.8131456e-11 4.9348386e-11 5.3474416e-11
5.763345e-12 4.3936865e-11 3.6474708e-12 2.4453842e-11 3.133234e-12 2.3590517e-11 4.762952e-13 1.4453981e-11
5.3534255e-13 1.4519485e-11 2.533295e-13 1.2558432e-11 2.533295e-13 1.2558432e-11 1.4937711e-09 1.7258026e-08
7.343983e-09 1.4480021e-08 1.0579463e-08 1.5423502e-08 1.0648534e-08 1.5253567e-08 1.5307e-08 1.7372695e-08
1.1549264e-08 1.5284765e-08 1.7777282e-08 1.811218e-08 8.983887e-09 1.4117573e-08 1.6131397e-08 1.7937795e-08
4.602163e-09 1.3394632e-08 1.8043233e-08 1.8324995e-08 9.666653e-09 1.4464834e-08 1.722835e-08 1.771285e-08
1.3232883e-08 1.5913693e-08 1.635296e-08 1.7480499e-08 1.5703922e-08 1.7150084e-08 1.4370304e-08 1.728102e-08
1.4370304e-08 1.728102e-08 0.00024726597 1.8864246e-05 3.489358e-08 5.1994384e-08 4.0580137e-08 5.3987716e-08
4.0875065e-08 5.4657864e-08 5.4128588e-08 5.8861968e-08 4.8188774e-08 5.667055e-08 5.7407963e-08 6.052286e-08
2.5239194e-08 5.0359855e-08 5.3697374e-08 5.96728e-08 1.4166845e-08 4.57881e-08 5.4989517e-08 5.9248638e-08
2.5865353e-08 4.9614016e-08 5.3605376e-08 5.7772116e-08 4.8943303e-08 5.4907268e-08 4.560698e-08 5.647842e-08
4.4723237e-08 5.503949e-08 3.957879e-08 5.4399983e-08 3.957879e-08 5.4399983e-08 0.0008658985 0.00049741357
5.998035e-08 9.7352384e-08 7.3616626e-08 1.0231794e-07 7.409944e-08 1.0179083e-07 9.885772e-08 1.1030781e-07
8.464996e-08 1.04468185e-07 1.1006907e-07 1.15464836e-07 3.6470635e-08 8.968029e-08 1.0149103e-07 1.1408172e-07
1.752673e-08 8.046538e-08 1.0679208e-07 1.1368718e-07 3.5769407e-08 9.00855e-08 1.00887064e-07 1.115106e-07
8.295735e-08 1.0286966e-07 9.157162e-08 1.0875755e-07 8.489264e-08 1.0367183e-07 7.711501e-08 1.0556931e-07
7.711501e-08 1.0556931e-07 0.00082169694 0.0011847805 1.1220321e-08 1.9431187e-08 1.3274012e-08 1.9640721e-08
1.2893708e-08 1.941284e-08 1.9277623e-08 2.1700483e-08 1.6882604e-08 2.0472434e-08 2.0913541e-08 2.1806603e-08
1.3376483e-08 1.903612e-08 2.0572319e-08 2.2107125e-08 7.568442e-09 1.7803265e-08 2.0959941e-08 2.1894122e-08
1.3373547e-08 1.89859e-08 1.9832067e-08 2.1254145e-08 1.916227e-08 2.0909843e-08 1.7666592e-08 2.0835811e-08
1.7785323e-08 2.051299e-08 1.6100495e-08 2.0305702e-08 1.6100495e-08 2.0305702e-08 0.0005441169 0.00033326977
7.888164e-08 9.141765e-08 8.976776e-08 9.6197915e-08 8.603007e-08 9.3406776e-08 1.0171212e-07 1.0357067e-07
8.348421e-08 9.5777516e-08 1.0424963e-07 1.0734153e-07 2.0009752e-08 7.9290196e-08 9.21291e-08 1.0078196e-07
1.1224479e-08 6.994901e-08 9.0646274e-08 9.629756e-08 2.1050033e-08 7.919101e-08 6.601504e-08 8.2745956e-08
5.2380724e-08 7.81537e-08 3.9661547e-08 6.9832865e-08 3.6487897e-08 6.7909404e-08 2.959518e-08 6.377139e-08
2.959518e-08 6.377139e-08 3.3248054e-06 0.0008316114 9.717788e-10 1.4475648e-09 1.0729374e-09 1.4649895e-09
00000000: 5c00 9c32 ebe1 e532 d5bb b432 62b4 e932
00000010: 7eb0 b432 6f9b ed32 e96c e432 b319 fd32
00000020: eecd cc32 d96b fe32 ac45 0033 ae5e 0533
00000030: 3f93 5232 4359 e632 4a34 0033 891e 0933
00000040: e897 ef31 0181 d132 8689 fe32 70f5 0833
00000050: 01a2 5132 7867 e132 57fc e532 9d54 0333
00000060: 7599 c132 325a f332 2768 c132 25da ef32
00000070: a50c be32 0e35 eb32 fc4f ae32 a6e8 e632
00000080: fc4f ae32 a6e8 e632 8185 e539 5b29 2b3a
00000090: b1ef 5c2e cba4 5f2e 31f0 672e 5512 682e
000000a0: 2753 622e 95f3 632e 5029 712e 7515 722e
000000b0: ee63 652e 05f2 6a2e 913c 772e 2104 792e
000000c0: 17be bd2c 9cd6 402e f5cf 692e 3b42 782e
000000d0: 1696 192c 34b4 272e 5809 592e d72e 6b2e
000000e0: 99c7 ca2c 833c 412e 7f55 802c 2819 d72d
000000f0: 537b 5c2c 1f81 cf2d b010 062b f246 7e2d
00000100: 7faf 162b f26d 7f2d a19c 8e2a 26ee 5c2d
00000110: a19c 8e2a 26ee 5c2d 664d cd30 cd3e 9432
00000120: 5c56 fc31 cec3 7832 f8c0 3532 a47c 8432
00000130: bff0 3632 f306 8332 737c 8332 f63a 9532
00000140: 336a 4632 8e4b 8332 a8b4 9832 1b95 9b32
00000150: 8e57 1a32 be89 7232 5191 8a32 a115 9a32
00000160: 0e21 9e31 371e 6632 7dfd 9a32 1769 9d32
00000170: 6412 2632 0381 7832 8bfd 9332 f826 9832
00000180: d656 6332 95b2 8832 8a78 8c32 0628 9632
00000190: 4ae5 8632 6f51 9332 44e1 7632 5d71 9432
000001a0: 44e1 7632 5d71 9432 7aa3 8139 a93e 9e37
000001b0: e6dd 1533 6e50 5f33 554a 2e33 1fe0 6733
000001c0: 9c8e 2f33 f5c0 6a33 037b 6833 6bcf 7c33
000001d0: 1ef8 4e33 ee65 7333 b990 7633 cbf8 8133
000001e0: 93cd d832 3f4b 5833 e3a0 6633 7825 8033
000001f0: 7162 7332 8ca8 4433 9d2d 6c33 9178 7e33
00000200: 832e de32 3017 5533 bc3b 6633 1d21 7833
00000210: bb35 5233 2ed3 6b33 68e1 4333 ae92 7233
00000220: b815 4033 8f64 6c33 57fd 2933 6aa5 6933
00000230: 57fd 2933 6aa5 6933 77fd 623a dc64 023a
00000240: 8cce 8033 0a10 d133 2b17 9e33 e2b9 db33
00000250: 9920 9f33 1a98 da33 9b4b d433 5ce2 ec33
00000260: cfc8 b533 fe57 e033 1c5f ec33 77f5 f733
00000270: e3a3 1c33 4396 c033 49f3 d933 17fd f433
00000280: b08d 9632 4fcc ac33 9155 e533 3024 f433
00000290: e1a0 1933 0775 c133 40a7 d833 9a77 ef33
000002a0: 4926 b233 32e9 dc33 08a6 c433 188e e933
000002b0: 394e b633 31a2 de33 6d9a a533 58b5 e233
000002c0: 6d9a a533 58b5 e233 2667 573a a34a 9b3a
000002d0: 7ec3 4032 a2e9 a632 b90b 6432 67b6 a832
000002e0: 2183 5d32 49c1 a632 f197 a532 de67 ba32
000002f0: 3d05 9132 5cdb af32 5da5 b332 3a51 bb32
00000300: 65ce 6532 df84 a332 02b7 b032 15e6 bd32
00000310: 5c06 0232 cbed 9832 660b b432 af11 bc32
00000320: 7bc1 6532 7016 a332 2d5b aa32 5c92 b632
00000330: 479a a432 3b9d b332 3fc1 9732 6ffa b232
00000340: 57c6 9832 8b34 b032 5d4d 8a32 b66c ae32
00000350: 5d4d 8a32 b66c ae32 11a3 0e3a b6ba ae39
00000360: a465 a933 6251 c433 59c6 c033 5d95 ce33
00000370: 88bf b833 eb96 c833 d46c da33 946a de33
00000380: ee47 b333 3fae cd33 d7df df33 a183 e633
00000390: e9e1 ab32 3f46 aa33 82d8 c533 786d d833
000003a0: c8d5 4032 e036 9633 51a9 c233 25cc ce33
000003b0: 83d1 b432 b80f aa33 27c4 8d33 12b2 b133
000003c0: 37f9 6033 73d5 a733 5558 2a33 06f7 9533
000003d0: deb6 1c33 97d5 9133 7d38 fe32 b1f2 8833
000003e0: 7d38 fe32 b1f2 8833 b91f 5f36 7f00 5a3a
000003f0: 6d8f 8530 a9f3 c630 a176 9330 bc58 c930

exp_avg f4 [128]
-7.413735e-05 1.5770354e-06 -5.6824843e-05 5.3126914e-05 0.0001202625 5.751149e-05 4.2589127e-05 -5.2807104e-06
2.3871246e-05 -8.643625e-05 -3.0379062e-05 1.983924e-06 -3.457953e-05 7.1190814e-05 -3.1171055e-06 6.7608766e-05
-1.8776305e-05 3.638e-05 -9.834454e-05 5.0372037e-05 2.8989956e-05 1.1471818e-06 -2.3540179e-06 9.269738e-07
-4.789233e-05 4.5171008e-05 3.4164335e-05 3.7772643e-05 -1.6720354e-05 1.8826675e-05 2.8980732e-05 5.2345736e-06
2.4191077e-06 2.5832764e-05 1.0896867e-06 -1.2517828e-05 1.1730149e-06 -1.5231655e-06 -4.585684e-05 1.4653848e-06
3.0070143e-05 5.197502e-05 1.0275148e-05 3.6097033e-05 7.8846504e-05 5.6106215e-05 -3.2685264e-05 4.244961e-07
1.2568686e-05 9.629681e-07 1.0047685e-06 -0.00021876693 1.8289762e-06 2.1907372e-05 7.5361004e-06 5.166002e-05
-0.00015391914 -2.8832636e-05 4.1485e-05 -7.756601e-09 1.3705237e-05 1.2605064e-05 -1.4588244e-05 -1.06719845e-05
4.365213e-05 1.1958982e-06 7.470021e-05 5.382098e-05 -0.00013368744 -4.811794e-05 -3.3750664e-05 2.1219512e-07
3.2068058e-06 3.380864e-06 -5.5696557e-05 -5.201618e-05 -5.3598724e-05 5.902804e-06 5.5769273e-05 -3.2055188e-05
-5.854254e-06 1.0330946e-06 -4.2214047e-06 3.4680465e-06 0.00013178743 8.24334e-05 -2.935968e-05 1.9412135e-05
1.6895742e-06 -2.2092645e-05 -7.1539565e-05 -2.964e-05 -2.2080647e-05 -4.059929e-07 4.0869495e-06 2.9735305e-05
1.2255337e-05 4.57358e-05 3.1313597e-05 5.41929e-06 -1.0244364e-05 1.1632686e-05 -5.0001227e-06 6.1947365e-05
5.3222e-05 1.3563654e-06 1.1106191e-05 2.442168e-05 3.5434874e-05 -5.431466e-05 -0.00020253535 -0.0001064519
3.300236e-05 -1.596193e-05 7.785271e-05 2.3582322e-06 0.00012650342 4.503636e-06 8.505183e-06 -5.56273e-05
1.5060391e-05 3.6855865e-05 8.157044e-06 2.7711776e-05 8.1386876e-05 -4.95614e-05 0.0001174306 2.53973e-06
00000000: 307a 9bb8 86aa d335 3657 6eb8 97d4 5e38
00000010: 7035 fc38 7e38 7138 baa1 3238 f530 b1b6
00000020: 1c3f c837 1c45 b5b8 8ad6 feb7 8e23 0536
00000030: 7d09 11b8 474c 9538 772f 51b6 2ec9 8d38
00000040: cf81 9db7 ba96 1838 533e ceb8 9046 5338
00000050: 752f f337 def8 9935 b8f9 1db6 28d5 7835
00000060: ffdf 48b8 0076 3d38 ad4b 0f38 116e 1e38
00000070: b042 8cb7 faed 9d37 a61b f337 a5a4 af36
00000080: f457 2236 70b3 d837 5a41 9235 a903 52b7
00000090: 7c70 9d35 916f ccb5 6856 40b8 3dae c435
000000a0: 243f fc37 c1ff 5938 6d63 2c37 e566 1738
000000b0: 655a a538 9753 6b38 8917 09b8 4de6 e334
000000c0: 18de 5237 553f 8135 95db 8635 cd64 65b9
000000d0: 257b f535 b9c5 b737 9cde fc36 86ad 5838
000000e0: 5b65 21b9 9ddd f1b7 2e00 2e38 e441 05b2
000000f0: 8bef 6537 567a 5337 08c0 74b7 d30b 33b7
00000100: 1e17 3738 c082 a035 5fa8 9c38 d6bd 6138
00000110: 732e 0cb9 3fd2 49b8 808f 0db8 c0d7 6334
00000120: 8134 5736 cde2 6236 b99b 69b8 f32b 5ab8
00000130: 31cf 60b8 b310 c636 cde9 6938 ff72 06b8
00000140: a96f c4b6 dca8 8a35 97a5 8db6 96bc 6836
00000150: 6b30 0a39 18e0 ac38 6f49 f6b7 3ed7 a237
00000160: 54c5 e235 9853 b9b7 8307 96b8 6aa3 f8b7
00000170: d439 b9b7 3df7 d9b4 a122 8936 1570 f937
00000180: 469c 4d37 71d4 3f38 b856 0338 59d7 b536
00000190: 35df 2bb7 022a 4337 bac6 a7b6 bde9 8138
000001a0: b03a 5f38 5c0c b635 ba54 3a37 29dd cc37
000001b0: e89f 1438 eccf 63b8 ab5f 54b9 ee3e dfb8
000001c0: 046c 0a38 fce5 85b7 db44 a338 1f42 1e36
000001d0: 01a6 0439 f01d 9736 7cb1 0e37 5c51 69b8
000001e0: e3ab 7c37 af95 1a38 3dda 0837 9676 e837
000001f0: 3fae aa38 26e0 4fb8 1345 f638 3b70 2a36
