results/DodgeAgentBulletsTest10/Dodge/checkpoint.pt (torch, 538871 bytes, 40 tensors)

discrete_act_size_vector f4 [1, 2]
3.0 3.0
00000000: 0000 4040 0000 4040

network_body._body_endoder.seq_layers.0.weight f4 [128, 36]
0.054299287 -0.008997566 -0.10216579 -0.18492974 0.14371014 0.19660974 0.42585915 -0.020286418
0.1294951 -0.15407462 0.07183268 0.12510026 -0.24018228 0.12522031 0.06357365 -0.014977299
0.11280719 0.045843378 -0.21804444 0.08859364 -0.090959325 0.016614253 0.36260632 0.020306502
0.08577715 0.0031963186 -0.24283874 0.010494828 0.2317023 -0.20897894 0.24138433 0.0484694
-0.042944297 0.069776654 0.015570153 -0.110775724 0.1363132 0.04422569 0.21118511 0.2779132
0.28241953 0.05951329 0.26515988 0.16407365 0.16958362 0.19763179 0.12974864 -0.05353777
-0.05206904 0.12787482 -0.1652787 0.055213004 -0.47082585 -0.06443815 0.06828344 0.15206507
0.18431865 0.004735735 -0.07131757 0.18459654 -0.2842853 0.12145597 0.033000853 0.27903205
0.08439359 0.23788124 0.21104972 0.18414159 -0.09541382 0.010420694 -0.32916152 -0.010809965
0.077943064 0.087262824 0.11005679 0.38167164 -0.078812614 0.09663562 0.004303135 0.07359779
0.012015474 0.055646498 -0.2294425 0.12892038 -0.006988064 -0.014229458 0.1350122 0.06921706
-0.09142068 0.07444073 -0.19746798 -0.07575814 -0.110644266 -0.27175224 0.19844463 0.18992959
-0.11194889 -0.38357484 0.10413206 -0.30263215 -0.0067960047 -0.175283 -0.0551742 0.14881766
-0.13167438 -0.08430142 -0.26896533 -0.25926796 0.025176495 0.091926545 -0.02813604 -0.05240945
-0.16424212 -0.41654295 -0.15295996 -0.1766349 -0.35628474 0.21553549 0.25227332 -0.042115413
-0.26190242 -0.18498889 0.1142746 0.1921175 -0.25296745 -0.24770351 0.5478255 -0.0228578
0.2852395 -0.28430814 0.114587486 0.14860114 -0.15739441 -0.19608183 -0.1889483 -0.1495886
-0.040423647 -0.19645645 -0.07988079 0.019709885 0.06535778 -0.12787083 -0.10029625 0.15984415
0.14491865 -0.00867783 0.06822037 0.32578784 0.17533869 0.07850654 0.11842213 0.21116456
0.079795495 -0.1622423 -0.046495378 0.25633827 -0.11985374 -0.06730215 0.17688847 -0.06476144
-0.09635196 -0.1897097 -0.18841684 -0.00346789 -0.14248812 0.12505835 0.17165637 0.054381423
-0.28193164 0.050614733 0.091359645 0.10245543 -0.17135231 0.10114488 -0.11336588 -0.101530366
0.15250836 -0.047330685 0.14554094 -0.08626915 0.26751247 -0.055843778 -0.009806052 -0.14082511
-0.090988435 -0.08095865 0.003712821 -0.0654669 -0.023870712 0.21824344 0.20098275 -0.19903131
0.124830276 0.14812692 -0.13571648 0.13349105 0.22125812 0.1244015 -0.023660956 0.115179546
-0.1929028 0.11450764 0.06788661 -0.026824856 0.17231321 0.16742225 0.056312818 0.33735865
-0.26532087 0.034753677 0.18007836 -0.30338123 -0.13330202 0.18727173 -0.20443852 -0.0058820834
0.06276263 -0.06608559 -0.10326954 -0.1667094 -0.11496289 -0.15933925 -0.105694726 0.09311119
-0.25827062 0.10212946 -0.00870293 -0.07614285 -0.24419153 -0.032299127 -0.042234313 0.06477604
-0.17034003 -0.065472364 0.037678227 -0.0786689 -0.15425207 -0.19436517 0.14128171 0.009691823
-0.05057999 -0.29177374 0.002650315 0.076606475 0.015063327 -0.1935343 0.11144695 0.082832634
-0.030992467 0.03656004 0.064245954 -0.005019833 0.1153198 0.32505658 -0.11867082 -0.077541724
00000000: ee68 5e3d 876a 13bc 4c3c d1bd 395e 3dbe
00000010: c028 133e 1054 493e 360a da3e b42f a6bc
00000020: 5d9a 043e bdc5 1dbe 031d 933d 481a 003e
00000030: 58f2 75be c139 003e e732 823d 5863 75bc
00000040: 7507 e73d 44c6 3b3d 0b47 5fbe 9570 b53d
00000050: e248 babd 9d1a 883c 89a7 b93e d259 a63c
00000060: eeab af3d 5479 513b b8aa 78be 80f2 2b3c
00000070: 5e43 6d3e 93fe 55be 742d 773e d987 463d
00000080: 5ce6 2fbd 10e7 8e3d f419 7f3c 62de e2bd
00000090: b095 0b3e ff25 353d e940 583e a44a 8e3e
000000a0: 4b99 903e 35c4 733d 09c3 873e ec02 283e
000000b0: 54a7 2d3e fd5f 4a3e d4dc 043e 6c4a 5bbd
000000c0: 5846 55bd 9ef1 023e d23e 29be 0827 623d
000000d0: 1610 f1be 26f8 83bd 30d8 8b3d f2b6 1b3e
000000e0: 07be 3c3e 392e 9b3b f20e 92bd e006 3d3e
000000f0: d88d 91be e8bd f83d e72b 073d 4add 8e3e
00000100: 8cd6 ac3d 2497 733e 6b1d 583e 9d8f 3c3e
00000110: 5268 c3bd 8fbb 2a3c dc87 a8be 481c 31bc
00000120: 9da0 9f3d dab6 b23d 7465 e13d 776a c33e
00000130: 8268 a1bd e5e8 c53d 5001 8d3b 70ba 963d
00000140: 8ddc 443c 95ed 633d faf2 6abe b403 043e
00000150: 21fc e4bb ac22 69bc a340 0a3e adc1 8d3d
00000160: c43a bbbd 6274 983d 0c35 4abe 1527 9bbd
00000170: 7699 e2bd 1c23 8bbe 1235 4b3e e77c 423e
00000180: 7645 e5bd ec63 c4be 3143 d53d 9af2 9abe
00000190: 05b1 debb 637d 33be 58fe 61bd a863 183e
000001a0: a6d5 06be 39a6 acbd d3b5 89be c5be 84be
000001b0: f03e ce3c fc43 bc3d 8d7d e6bc 4bab 56bd
000001c0: 162f 28be 1e45 d5be 89a1 1cbe c7df 34be
000001d0: f46a b6be 56b5 5c3e f829 813e 3681 2cbd
000001e0: 1318 86be ba6d 3dbe cd08 ea3d 73ba 443e
000001f0: f384 81be fda5 7dbe 4b3e 0c3f 4840 bbbc
00000200: e90a 923e d690 91be d8ac ea3d e62a 183e
00000210: 002c 21be adc9 48be aa7b 41be c12d 19be
00000220: 4493 25bd e12b 49be 8a98 a3bd a076 a13c
00000230: 4dda 853d 92f0 02be 1f68 cdbd 2fae 233e
00000240: 8e65 143e 752d 0ebc 1fb7 8b3d aacd a63e
00000250: fc8b 333e 09c8 a03d 4d87 f23d 863b 583e
00000260: d26b a33d d822 26be f071 3ebd c53e 833e
00000270: e175 f5bd b6d5 89bd 4022 353e a5a1 84bd
00000280: 2d54 c5bd 4243 42be 58f0 40be 8a45 63bb
00000290: 68e8 11be 4c0f 003e b0c6 2f3e 0ebf 5e3d
000002a0: 5859 90be 6551 4f3d c41a bb3d 27d4 d13d
000002b0: fb76 2fbe 0c25 cf3d 5f2c e8bd 27ef cfbd
000002c0: 272b 1c3e d2dd 41bd af08 153e e1ad b0bd
000002d0: 65f7 883e 72bc 64bd 90a9 20bc 7534 10be
000002e0: 2558 babd a6cd a5bd cd52 733b 8313 86bd
000002f0: 838c c3bc 357b 5f3e 6cce 4d3e ddce 4bbe
00000300: 04a7 ff3d 95ae 173e 43f9 0abe e1b1 083e
00000310: 7d91 623e 37c6 fe3d 9fd4 c1bc 41e3 eb3d
00000320: 5088 45be fb82 ea3d 2308 8b3d cdbf dbbc
00000330: e072 303e bd70 2b3e 45a8 663d 46ba ac3e
00000340: 23d8 87be df59 0e3d 7666 383e c954 9bbe
00000350: 5380 08be 29c4 3f3e 5558 51be 7ebe c0bb
00000360: b289 803d e257 87bd fb7e d3bd deb5 2abe
00000370: aa71 ebbd d429 23be 7a76 d8bd 14b1 be3d
00000380: 0c3c 84be 4029 d13d bc96 0ebc c8f0 9bbd
00000390: 580d 7abe 174c 04bd e3fd 2cbd 4da9 843d
000003a0: 9e6d 2ebe 6016 86bd 7c54 1a3d 291d a1bd
000003b0: 41f4 1dbe aa07 47be 27ac 103e 74ca 1e3c
000003c0: f72c 4fbd 5e63 95be e8b0 2d3b dbe3 9c3d
000003d0: 2ccc 763c db2d 46be 4c3e e43d 28a4 a93d
000003e0: eae3 fdbc fbbf 153d 6293 833d 697d a4bb
000003f0: ca2c ec3d d16d a63e b009 f3bd 32ce 9ebd

network_body._body_endoder.seq_layers.0.bias f4 [128]
0.0070300465 0.021487238 0.007916686 -0.046276305 0.0074956142 -0.005735051 -0.031858124 0.07766172
0.09929989 0.013086444 -0.06543814 -0.017646162 0.011751081 -0.047020387 0.0034254284 0.06825711
0.08314383 0.021171108 0.021304762 -0.022794902 0.08285244 -0.027534222 0.011264523 0.031679023
-0.047449954 0.0379677 -0.018227484 0.00014184779 -0.048453353 0.054493725 -0.010020594 -0.05708119
-0.0017513881 0.054296408 -0.016704038 0.003663918 0.0033161633 0.01269395 -0.044117615 0.055421654
-0.02208376 0.00025817877 -0.046411447 0.012670494 -0.02070912 -0.028497273 0.020890737 0.011992853
-0.043260094 0.024227489 0.007141006 -0.01205271 -0.022688765 0.013262758 -0.019951617 -0.029934878
0.022193544 -0.053294916 -0.0069054994 -0.05165197 -0.049347732 0.035296366 -0.090692826 -0.018626181
0.0391598 -0.0151996855 0.013800425 0.021633804 -0.022156425 0.006238121 -0.017957758 0.020556863
-0.020499025 -0.023398848 0.0024041203 -0.00026002614 0.031146696 0.050176267 -0.012407428 0.0020054057
-0.06505711 0.009987856 0.027050659 0.009056882 0.0226129 7.486297e-05 -0.039761532 -0.027636085
0.028755005 0.049730163 0.020085493 -0.008172713 -0.0418027 -0.06144296 -0.032273978 0.012969951
0.0175289 0.002201351 -0.024006324 0.0075360076 -0.03505186 -0.01704449 0.04977393 -0.005078299
0.028327925 0.014700265 -0.010206652 -0.026603555 -0.01412402 0.0492434 0.0517314 0.0061936197
-0.01068234 0.019621613 0.00070331467 -0.007968354 -0.0018155155 -0.015738877 -0.030870827 0.013176275
0.0030970457 0.024587877 -0.0058474625 -0.014302064 0.011543692 0.0017956906 0.0034187771 -0.007041262
00000000: 4e5c e63b 0106 b03c fdb4 013c 398c 3dbd
00000010: c59d f53b 18ed bbbb aa7d 02bd 1c0d 9f3d
00000020: be5d cb3d 8668 563c 6e04 86bd af8e 90bc
00000030: 9b87 403c 7398 40bd 277d 603b 62ca 8b3d
00000040: 5047 aa3d 086f ad3c 5387 ae3c 60bc babc
00000050: 8aae a93d 738f e1bc d58e 383c ddc1 013d
00000060: e25a 42bd 0584 1b3d ce51 95bc fabc 1439
00000070: 0677 46bd d034 5f3d 6b2d 24bc f7cd 69bd
00000080: d58e e5ba e965 5e3d e8d6 88bc 581e 703b
00000090: fd53 593b 49fa 4f3c acb4 34bd d101 633d
000000a0: 00e9 b4bc 2b5c 8739 ee19 3ebd e797 4f3c
000000b0: 2ca6 a9bc 1d73 e9bc 0d23 ab3c ac7d 443c
000000c0: 7f31 31bd ba78 c63c 1aff e93b bb78 45bc
000000d0: cadd b9bc 0a4c 593c 9371 a3bc fd39 f5bc
000000e0: 3ccf b53c c54b 5abd 8747 e2bb 0491 53bd
000000f0: d920 4abd ec92 103d 29bd b9bd ef95 98bc
00000100: 0766 203d 1a08 79bc 2e1b 623c 6039 b13c
00000110: 6481 b5bc 2769 cc3b 261c 93bc de66 a83c
00000120: 92ed a7bc f1ae bfbc 728e 1d3b 1e54 88b9
00000130: 5b27 ff3c a185 4d3d 8648 4bbc 206d 033b
00000140: a93c 85bd 1ba4 233c 5899 dd3c 5163 143c
00000150: b03e b93c c0ff 9c38 fddc 22bd 1265 e2bc
00000160: 9e8f eb3c dbb1 4b3d 558a a43c d8e6 05bc
00000170: 4f39 2bbd 9dab 7bbd b831 04bd eb7f 543c
00000180: c598 8f3c 8b44 103b e9a8 c4bc 9df0 f63b
00000190: 8a92 0fbd e3a0 8bbc c0df 4b3d dc67 a6bb
000001a0: f70f e83c 61d9 703c cd39 27bc b3ef d9bc
000001b0: 6f68 67bc 73b3 493d 4ee4 533d d9f3 ca3b
000001c0: fb04 2fbc 81bd a03c a65e 383a b38d 02bc
000001d0: 97f6 edba d1ee 80bc d1e4 fcbc 4ee1 573c
000001e0: cef7 4a3b 846c c93c 129c bfbb 3453 6abc
000001f0: c121 3d3c 615d eb3a 900d 603b 63ba e6bb

network_body._body_endoder.seq_layers.2.weight f4 [128, 128]
0.03682672 0.039630134 -0.038422182 -0.21411188 0.016403627 0.07682467 0.04790925 -0.06386254
-0.029307561 -0.030887311 0.0828154 0.04810849 0.050278313 -0.06272716 0.045256205 -0.023983983
0.17212099 -0.019497374 0.015690874 0.0155749805 -0.067609094 -0.066233896 -0.033863045 -0.07728096
0.079437286 0.052695844 -0.0996309 -0.035464283 0.12949432 -0.001925115 0.06402407 0.09344558
-0.12264882 0.22878216 0.04276524 -0.033986274 0.13460007 -0.07924454 -0.006240604 0.0915108
-0.046789926 0.08213552 -0.023638215 0.041888066 0.09714778 0.04391168 0.0867108 -0.2891898
0.03210328 0.06198453 -0.046014696 -0.07115788 -0.11458093 -0.028439632 -0.13000418 0.06834639
-0.009075409 -0.017287675 0.052149903 0.08796106 0.0112484 0.06239585 -0.022818925 -0.09341534
-0.20079215 -0.092902474 0.076989435 0.15274084 -0.06315925 -0.02357649 -0.097701654 0.044226713
-0.124399796 0.0015737612 0.025357367 0.24771443 0.09045686 -0.25941288 -0.05783938 0.039956227
0.15531442 -0.09271751 0.1974531 0.10454427 0.13063161 -0.0938311 0.1089418 0.05832977
-0.012367911 0.14767675 -0.03948749 0.11993517 0.0018475134 -0.07461164 0.08959621 0.017148465
-0.080133215 -0.103998944 -0.10516956 0.06454856 0.008185623 0.08880143 0.15671234 0.051665194
0.20533074 0.041717116 0.018757468 0.18858436 0.032920487 0.12455476 -0.03500758 0.086520605
0.06354763 0.041326758 -0.12008901 -0.08473162 0.071082756 -0.11550265 -0.019135676 0.28501493
-0.0005296279 -0.18480654 -0.045966122 0.064293966 -0.0070752474 -0.09887895 -0.110638134 0.059922505
-0.00095493667 0.036725283 0.09494988 -0.15775354 0.14253733 0.17173822 -0.014945607 0.17778422
-0.13521142 0.16480309 0.14804442 0.03055514 -0.088028915 0.028704725 -0.0022494162 0.019243779
0.06056298 -0.05559228 -0.04497853 0.0135270655 -0.2113124 -0.13028933 -0.024188241 -0.05714326
-0.017862992 0.2907564 -0.008397921 -0.10817779 -0.031030001 -0.022726543 0.003609338 -0.20329952
-0.011232662 0.065328754 -0.03765674 -0.0017081859 0.09624126 -0.09766586 -0.010446742 0.15853025
0.027765779 0.066188805 0.0066705523 -0.023073876 -0.14144419 0.029827166 0.1585633 -0.022480728
-0.11763849 -0.0049425364 -0.090547316 0.049016926 0.025780482 0.1042757 0.11180531 0.0029294724
0.005076097 -0.13488567 0.060055252 -0.03957589 -0.0011826484 -0.012988822 -0.07841666 -0.15361634
0.23255667 -0.058893867 0.042960975 -0.06869744 0.22902976 0.09432712 0.034394227 -0.037876736
0.08725247 0.08897229 -0.059895 -0.049960606 0.11548733 -0.04596502 0.010640127 0.20248231
-0.00078939815 -0.011056805 0.18207444 0.0072194464 0.14612268 0.09819207 0.12927654 0.11619715
-0.016485272 0.04223988 -0.08778066 0.027339162 0.012974019 0.0070032547 0.24233864 -0.064808324
-0.047474146 -0.0718459 -0.20391126 -0.004372977 0.02285354 -0.00012285903 0.1213398 0.06364667
-0.01696728 -0.12122244 0.04929513 0.03941863 0.08978634 -0.03450232 -0.076018125 -0.007986632
0.049999915 0.0070411935 0.063402236 0.12824503 -0.091612466 0.025381789 0.009208393 0.06888285
-0.013479888 -0.0745997 -0.028733319 -0.025009895 -0.08572685 0.0038439047 -0.02971754 -0.038285643
00000000: 9dd7 163d 3553 223d 9460 1dbd 2540 5bbe
00000010: e660 863c 4156 9d3d 7d3c 443d 5dca 82bd
00000020: 6916 f0bc 6307 fdbc 1f9b a93d 680d 453d
00000030: a2f0 4d3d 1977 80bd 925e 393d 0f7a c4bc
00000040: 7c40 303e f5b8 9fbc 268a 803c 342e 7f3c
00000050: a376 8abd a3a5 87bd fab3 0abd 7b45 9ebd
00000060: 04b0 a23d 99d7 573d 490b ccbd ff42 11bd
00000070: 299a 043e 2454 fcba 0d1f 833d 6560 bf3d
00000080: 4e2f fbbd df45 6a3e 9b2a 2f3d 3135 0bbd
00000090: 9ad4 093e f64a a2bd fb7d ccbb 046a bb3d
000000a0: cba6 3fbd ab36 a83d eea4 c1bc d292 2b3d
000000b0: 6af5 c63d bcdc 333d 6f95 b13d af10 94be
000000c0: bb7e 033d 7ee3 7d3d e879 3cbd 39bb 91bd
000000d0: 68a9 eabd 3bfa e8bc d11f 05be 31f9 8b3d
000000e0: 06b1 14bc e29e 8dbc 239b 553d ee24 b43d
000000f0: 364b 383c ca92 7f3d c1ee babc 8b50 bfbd
00000100: 759c 4dbe a743 bebd a3ac 9d3d 1868 1c3e
00000110: a359 81bd 7c23 c1bc ce17 c8bd 1227 353d
00000120: 52c5 febd aa46 ce3a 41ba cf3c daa8 7d3e
00000130: 7241 b93d c4d1 84be fce8 6cbd 24a9 233d
00000140: be0a 1f3e aee2 bdbd 2531 4a3e 4e1b d63d
00000150: 4bc4 053e 852a c0bd e11c df3d 32eb 6e3d
00000160: c7a2 4abc 9338 173e a2bd 21bd 92a0 f53d
00000170: 4328 f23a fdcd 98bd 387e b73d f07a 8c3c
00000180: e21c a4bd 66fd d4bd 2363 d7bd 0932 843d
00000190: fe1c 063c 86dd b53d 3379 203e e29e 533d
000001a0: 3942 523e 91df 2a3d 43a9 993c 421c 413e
000001b0: a2d7 063d 9116 ff3d 1c64 0fbd b731 b13d
000001c0: 4325 823d 3f46 293d 3af1 f5bd c687 adbd
000001d0: d693 913d a78c ecbd 6cc2 9cbc 7aed 913e
000001e0: bad6 0aba ed3d 3dbe f946 3cbd 8eac 833d
000001f0: 7ad7 e7bb 0c81 cabd 3f96 e2bd 4d71 753d
00000200: b754 7aba 406d 163d 1575 c23d 258a 21be
00000210: 4ef5 113e 25dc 2f3e 6bde 74bc 110d 363e
00000220: dd74 0abe 24c2 283e f598 173e c64e fa3c
00000230: 8148 b4bd 2c26 eb3c f16a 13bb 21a5 9d3c
00000240: e310 783d bbb4 63bd 683b 38bd a0a0 5d3c
00000250: 4762 58be 916a 05be 6b26 c6bc 0d0f 6abd
00000260: 6955 92bc 06de 943e 6f97 09bc 518c ddbd
00000270: a132 febc 042d babc a58a 6c3b c02d 50be
00000280: 3309 38bc 15cb 853d f43d 1abd 35e5 dfba
00000290: 231a c53d 0a05 c8bd d028 2bbc c155 223e
000002a0: 0f75 e33c ff8d 873d a694 da3b 6d05 bdbc
000002b0: bfd6 10be 1a58 f43c 6b5e 223e 8129 b8bc
000002c0: 73ec f0bd 00f5 a1bb df70 b9bd f9c5 483d
000002d0: 9731 d33c 808e d53d 2ffa e43d 64fc 3f3b
000002e0: 6355 a63b 781f 0abe 7ffc 753d 541a 22bd
000002f0: 1803 9bba 11cf 54bc ea98 a0bd 9a4d 1dbe
00000300: 5623 6e3e b23a 71bd d9f7 2f3d 3eb1 8cbd
00000310: c786 6a3e 942e c13d f6e0 0c3d a324 1bbd
00000320: 6cb1 b23d 1b37 b63d 7654 75bd 7ea3 4cbd
00000330: 9f84 ec3d d145 3cbd ed53 2e3c 8657 4f3e
00000340: 9def 4eba 9a27 35bc b971 3a3e 1b91 ec3b
00000350: 2fa1 153e ed18 c93d 1261 043e c5f8 ed3d
00000360: 1f0c 87bc b903 2d3d 59c6 b3bd 61f6 df3c
00000370: fb90 543c 8f7b e53b 9f27 783e 3aba 84bd
00000380: 4074 42bd f123 93bd 1dce 50be 314b 8fbb
00000390: 5937 bb3c b8d3 00b9 0081 f83d 2f59 823d
000003a0: f7fe 8abc 7843 f8bd b1e9 493d 6e75 213d
000003b0: e7e1 b73d 4e52 0dbd 64af 9bbd 5dda 02bc
000003c0: b6cc 4c3d d0b9 e63b 08d9 813d aa52 033e
000003d0: 519f bbbd 78ed cf3c cdde 163c 7412 8d3d
000003e0: c0da 5cbc bac7 98bd 2362 ebbc 8de1 ccbc
000003f0: 8f91 afbd 05ea 7b3b 3372 f3bc 68d1 1cbd

network_body._body_endoder.seq_layers.2.bias f4 [128]
-0.047689166 -0.03569758 -0.045451123 -0.05421854 -0.013109023 0.047626365 -0.028247638 -0.029561415
0.003700741 0.00037907754 0.020652713 -0.025324438 0.007048913 0.05732458 0.023566537 0.009053665
0.008069166 0.0031821108 -0.02789128 -0.018557416 -0.045057103 -0.0028880322 0.08080152 -0.0045803487
-0.040188473 0.008934221 0.023824504 0.016728338 -0.023696747 0.0019828635 -0.025159089 -0.0069697145
0.004888655 -0.00065412157 -0.0026376087 -0.016926397 -0.023292242 0.02537313 0.04076182 0.00311771
-0.037476126 -0.0044149566 -0.005175953 0.013932833 -0.009907589 -0.005660042 -0.030108007 -0.0013728817
-0.009472119 0.03163059 0.014809315 -0.06849222 -0.00745948 -0.061448995 -0.01714048 0.05150917
0.0035290727 0.00939845 -0.036347862 0.0053085065 -0.056613114 0.029210426 -0.030601475 -0.02694473
0.004267267 0.025253017 -0.0145746125 -0.004817823 -0.004856424 -0.009190687 0.01106472 0.0059379223
-0.07108119 0.051432963 -0.00039791162 0.10492009 -0.0087655345 -0.022027079 -0.008704552 0.04878823
0.0067051314 0.030621296 -0.04391614 -0.007921191 0.025541143 -0.016270382 0.025365941 -0.015240599
-0.014372262 0.014059212 0.02181483 0.0029321117 -0.0144092925 -0.009079158 -0.045450963 0.02724311
-0.00068156293 -0.030787002 0.03772142 -0.05954708 -0.00042537224 -0.06607783 -0.03181536 -0.0016801115
-0.019211723 -0.031782676 0.019861767 -0.012042147 -0.010796684 -0.029964363 0.008919855 -0.03731124
-0.030441256 0.010351878 -0.012959402 0.035425864 -0.012051852 -0.029930696 0.030517647 0.0025372996
0.0026049234 -0.0022205152 0.058620326 0.010728652 0.0078103873 -0.013830987 0.013014257 0.026582057
00000000: b755 43bd a037 12bd f52a 3abd 4314 5ebd
00000010: 3ac7 56bc dd13 433d 9767 e7bc c82a f2bc
00000020: 2288 723b edbe c639 e12f a93c 3275 cfbc
00000030: 91fa e63b 2ecd 6a3d 9c0e c13c d355 143c
00000040: 8934 043c f68a 503b 417c e4bc b905 98bc
00000050: cc8d 38bd 2445 3dbb 447b a53d c016 96bb
00000060: ab9c 24bd d760 123c 9b2b c33c de09 893c
00000070: ae1f c2bc eef2 013b 6f1a cebc 3462 e4bb
00000080: 0331 a03b 5b79 2bba bbdb 2cbb 3aa9 8abc
00000090: 5fcf bebc 4fdb cf3c def5 263d 7e52 4c3b
000000a0: 9180 19bd 57ab 90bb 0a9b a9bb 8a46 643c
000000b0: 7153 22bc e077 b9bb 11a5 f6bc 44f2 b3ba
000000c0: f230 1bbc 148f 013d c5a2 723c a645 8cbd
000000d0: a76e f4bb f1b1 7bbd 316a 8cbc 48fb 523d
000000e0: 0448 673b f5fb 193c 7fe1 14bd fbf2 ad3b
000000f0: 27e3 67bd b44a ef3c f2af fabc 32bb dcbc
00000100: 6ed4 8b3b 6adf ce3c 5bca 6ebc d4de 9dbb
00000110: a322 9fbb 8994 16bc cd48 353c e792 c23b
00000120: 0493 91bd 5fab 523d cb9e d0b9 58e0 d63d
00000130: 519d 0fbc 2272 b4bc 8a9d 0ebc 2bd6 473d
00000140: b8b6 db3b 83d9 fa3c 69e1 33bd e2c7 01bc
00000150: a93b d13c 7749 85bc 3ccc cf3c b5b3 79bc
00000160: a379 6bbc 9c58 663c 04b5 b23c ac28 403b
00000170: f414 6cbc c0c0 14bc ca2a 3abd f12c df3c
00000180: eaaa 32ba 0635 fcbc c781 1a3d a4e7 73bd
00000190: 7f04 dfb9 d053 87bd d350 02bd 3037 dcba
000001a0: e761 9dbc 8d2e 02bd 25b5 a23c 6d4c 45bc
000001b0: 93e4 30bc d377 f5bc 9524 123c acd3 18bd
000001c0: f15f f9bc ec9a 293c ac53 54bc b61a 113d
000001d0: 2275 45bc 3831 f5bc 2500 fa3c d348 263b
000001e0: 5db7 2a3b 1086 11bb de1b 703d 3ac7 2f3c
000001f0: 47ee ff3b 5d9b 62bc c039 553c 9dc2 d93c

action_model._discrete_distribution.branches.0.weight f4 [3, 128]
0.0031199793 0.009225663 0.011067704 0.014060343 0.0066522206 -0.04441924 0.025698625 0.0025140264
-0.0022411693 -0.0017620798 0.060628958 0.0008971186 -0.02551434 -0.075804874 -0.0057051815 -0.031801183
0.00045629256 0.0010938626 0.021076355 -0.0005324195 0.006078256 -0.031049568 -0.03877114 -0.0007269723
0.011611828 -0.009115081 -0.028046591 -0.006548706 0.03207237 0.028922362 0.0044392296 -0.020419665
0.0320631 5.307787e-05 0.003027755 -0.004977304 0.002387969 -0.0014059561 -0.004719934 -0.005078436
0.008903492 0.0030410113 -0.0058035697 0.011721122 0.0059966696 -0.049134776 0.00470262 -0.0030516144
0.009527912 0.024306113 -0.012119921 0.008095513 0.008504945 0.009523947 0.01798588 -0.03396611
-0.0023659423 -0.0024656316 -0.0035732167 0.0021627815 0.008218648 -0.012173476 0.0136733595 0.019464107
-0.031579215 -0.03891468 0.005048447 0.012759852 0.012571437 -0.009827899 0.0059996406 0.0120889805
0.0055173934 0.0060116732 0.001463994 -0.018110007 0.01460619 -0.015637096 0.0068870937 -0.018323444
0.0075230505 -0.010034898 0.019760476 -0.009941431 -0.006291914 0.004414577 -0.04012735 -0.0017372466
0.01639267 0.020462368 0.014170271 0.0038101075 0.005883412 0.01229597 0.003731669 0.06259257
-0.0117654065 -0.0032155665 -0.008792834 0.014505994 0.007562735 0.0018975202 0.009305325 0.004887071
-0.016029416 0.033882122 0.035365567 0.0035192731 -0.0009314362 0.013618038 0.029291745 0.019064019
0.004323442 0.03736924 -0.002590568 -0.0034324063 -0.0011004981 0.019175168 0.0026424434 -0.019022603
-0.0001939388 -0.0041340706 0.025313294 -0.004495755 0.0070918933 0.0007975 0.028170012 -0.055347417
-0.0025549654 0.016862072 -0.0036570153 -0.0059087253 0.022027528 -0.012471047 -0.048400063 -0.015325244
-0.00060573063 0.004935256 -0.048563227 -0.023611376 -0.00066878565 0.0643903 0.005666141 0.008807173
0.016805796 0.0035494352 -0.014745574 0.0024192051 -0.0060125813 -0.0051140995 0.0059984094 0.006144029
-0.009145733 -0.0006207443 0.030608008 0.0074725277 -0.013762777 -0.005940347 -0.0032526823 0.0040472923
-0.026860645 0.009922279 0.006150152 -0.0052034487 -0.0031259651 0.0056003043 -0.060540203 -0.008699756
-0.0052129314 -0.007848272 -0.0065013915 0.0015886695 0.006945381 0.016504781 0.0025814294 -0.006603337
-0.004167402 0.0021012337 0.011239087 0.005401333 -0.0072621237 0.0057495907 0.006437079 0.0026076622
-0.0052756895 -0.0013581287 -0.010506059 0.0088804625 -0.010880685 -0.006262078 -0.0024748973 0.012833432
-0.013687928 0.026229814 -0.0020758153 0.0068669883 0.027953852 -0.013545411 0.009427633 -0.027206782
-0.0013317394 -0.032504287 -0.003928831 0.01219542 0.010387369 0.022655426 -0.0057028313 0.012674905
0.0134753985 0.014540647 -0.006261132 0.021988573 0.001440662 0.005188237 0.048249483 0.0029678203
0.0017608423 -0.003462419 -0.054845367 -0.0012230454 -3.2017793e-05 0.020779511 -0.0047965297 -0.059247352
-0.0060415952 -0.0065037925 0.000105911764 -0.0031860464 0.006224603 -0.0092781205 0.0065766512 0.007222712
0.011811214 -0.023503512 -0.027570408 0.004556985 -0.0030273662 -0.0077630216 -0.014070853 0.0075915344
-0.0008156086 -0.04828654 -0.0003259935 0.0057956027 0.0013747986 0.0027239772 0.010363875 0.013228491
0.00444338 0.009345162 -0.002465914 0.006974555 0.008797646 0.007890039 -0.011022039 0.02325255
00000000: 9178 4c3b 3c27 173c 5155 353c 5a5d 663c
00000010: dffa d93b f3f0 35bd ec85 d23c 5dc2 243b
00000020: 95e0 12bb 96f5 e6ba 1256 783d 9c2c 6b3a
00000030: 7303 d1bc 963f 9bbd 88f2 babb f541 02bd
00000040: 8d3a ef39 f05f 8f3a 52a8 ac3c 1192 0bba
00000050: 1b2c c73b aa5b febc 7dce 1ebd 4992 3eba
00000060: 893f 3e3c 6c57 15bc f7c1 e5bc 8796 d6bb
00000070: 515e 033d 97ee ec3c f576 913b 2447 a7bc
00000080: 9954 033d ee9f 5e38 4d6d 463b a718 a3bb
00000090: 797f 1c3b 0f48 b8ba ada9 9abb 0269 a6bb
000000a0: f4df 113c b44b 473b df2b bebb f309 403c
000000b0: b67f c43b 8c41 49bd 7018 9a3b 98fd 47bb
000000c0: f61a 1c3c 9d1d c73c a292 46bc 0ba3 043c
000000d0: 5358 0b3c 540a 1c3c 2057 933c 0c20 0bbd
000000e0: ed0d 1bbb 6f96 21bb a12c 6abb 74bd 0d3b
000000f0: 82a7 063c 4273 47bc 3a06 603c 3173 9f3c
00000100: 3559 01bd 0065 1fbd 716d a53b b30e 513c
00000110: 6ef8 4d3c 3205 21bc a298 c43b dc10 463c
00000120: 40cb b43b 92fd c43b 7de3 bf3a 705b 94bc
00000130: cd4e 6f3c 5e19 80bc 21ad e13b 0c1b 96bc
00000140: ec83 f63b 6a69 24bc b9e0 a13c 62e1 22bc
00000150: 662c cebb 28a8 903b 935c 24bd 53b4 e3ba
00000160: ec49 863c b2a0 a73c 6d2a 683c ffb2 793b
00000170: a3c9 c03b 0975 493c 048f 743b 8930 803d
00000180: b1c3 40bc 41bc 52bb d20f 10bc 8caa 6d3c
00000190: d2d0 f73b 36b6 f83a 5d75 183c b923 a03b
000001a0: 1f50 83bc fbc7 0a3d 7cdb 103d 9ba3 663b
000001b0: a02b 74ba 311e 5f3c 3ef5 ef3c 252c 9c3c
000001c0: a9ab 8d3b 7d10 193d 85c6 29bb 39f2 60bb
000001d0: 973e 90ba 3e15 9d3c d82c 2d3b 4ad5 9bbc
000001e0: 0d5c 4bb9 1977 87bb d35d cf3c 2051 93bb
000001f0: 1d63 e83b 520f 513a ccc4 e63c f9b3 62bd
00000200: 3571 27bb 5422 8a3c 89aa 6fbb fb9d c1bb
00000210: 1373 b43c 5d53 4cbc 253f 46bd bb16 7bbc
00000220: e5c9 1eba eeb7 a13b 3cea 46bd a56c c1bc
00000230: 7251 2fba 10df 833d 09ab b93b f64b 103c
00000240: 4fac 893c a49d 683b 6c97 71bc 878b 1e3b
00000250: 3005 c5bb 2d94 a7bb 4e8e c43b da53 c93b
00000260: fcd7 15bc 72b9 22ba a5bd fa3c 1bdc f43b
00000270: 457d 61bc 3ea7 c2bb f42a 55bb 269f 843b
00000280: db0a dcbc 0e91 223c 3787 c93b b181 aabb
00000290: fedc 4cbb c282 b73b 01f9 77bd 6c89 0ebc
000002a0: 3dd1 aabb 0a96 00bc a009 d5bb e73a d03a
000002b0: 1496 e33b 0935 873c 332d 293b ce60 d8bb
000002c0: b48e 88bb dab4 093b 2624 383c aafd b03b
000002d0: 1cf7 edbb 1067 bc3b 22ee d23b 50e5 2a3b
000002e0: b1df acbb 3d03 b2ba 9b21 2cbc 5c7f 113c
000002f0: e744 32bc 1e32 cdbb e331 22bb 5143 523c
00000300: 5543 60bc e8df d63c 670a 08bb 7904 e13b
00000310: 7aff e43c 92ed 5dbc 5c76 1a3c c2e0 debc
00000320: c28d aeba 3723 05bd 6cbd 80bb 4dcf 473c
00000330: c92f 2a3c df97 b93c d1de babb 68aa 4f3c
00000340: ebc7 5c3c e53b 6e3c 2f2a cdbb 6121 b43c
00000350: 98d4 bc3a 1602 aa3b 40a1 453d c37f 423b
00000360: 10cc e63a c0e9 62bb 89a5 60bd 984e a0ba
00000370: d84a 06b8 cb39 aa3c 352c 9dbb 5aad 72bd
00000380: 93f8 c5bb c41d d5bb f21c de38 fdcc 50bb
00000390: c1f7 cb3b 4203 18bc f380 d73b 80ac ec3b
000003a0: d283 413c 708a c0bc 56db e1bc c352 953b
000003b0: c766 46bb f260 febb 6f89 66bc 68c2 f83b
000003c0: 91ce 55ba 1bc8 45bd 1bea aab9 0ae9 bd3b
000003d0: 9632 b43a c184 323b 3ecd 293c 50bc 583c
000003e0: c699 913b 731c 193c 2c9b 21bb cf8a e43b
000003f0: 0024 103c 3945 013c c895 34bc 227c be3c

action_model._discrete_distribution.branches.0.bias f4 [3]
-0.047018733 0.034990955 0.031361364
00000000: b796 40bd ad52 0f3d c674 003d

action_model._discrete_distribution.branches.1.weight f4 [3, 128]
-0.0016543742 -0.011697265 0.0073893038 0.00055495964 -0.0029054987 -0.0061318744 0.0061287354 0.013828545
0.010119786 -0.00774927 -0.004424192 0.008699313 0.0010866815 -0.047114175 -0.0014537795 0.029166674
0.0006321362 -0.0010509696 -0.03190997 -0.0040792883 -0.00018491111 0.025810732 -0.06132289 0.003501756
0.0020326953 -0.0029010605 -0.020699104 -0.00747235 -0.01782833 -0.0020360174 -0.008786069 0.01478172
0.0040981346 0.007871163 -0.008498656 0.0059237033 0.0048153982 0.007903107 -0.014855834 -0.002455812
-0.0011588329 0.0062729963 -0.0021465996 -0.0057533244 0.0023250945 0.012000948 0.0009389601 -0.0012924047
0.019472111 0.11714166 0.0044022296 -0.0055002356 -0.0012789918 0.005285355 0.005099341 -0.0062468043
0.008259261 0.005572489 0.0020229141 0.026537796 -0.0052075097 -0.0026083386 -0.0023907432 -0.012689764
-0.0022770953 0.0684376 -0.0028518813 -0.0002748235 0.0070637204 0.026614705 0.018229097 -0.035634145
-0.0042696036 -0.041554306 0.0051499167 0.008436959 0.0018177609 0.026190877 -0.0047493144 0.01837939
-0.0054799286 -0.009504929 0.01408827 0.01353211 0.012958809 -0.0075612892 0.053721666 0.026021346
0.009840739 0.020732941 0.01623494 0.007828242 -0.015950628 0.021396346 -0.013766502 0.035250153
-0.0009960415 -0.006941871 0.016618796 0.0057298583 -0.0009100901 -0.003718854 0.0011295443 -0.006823905
0.039167922 -0.00752616 0.04276691 -0.0033621278 0.029230943 0.003658907 0.005188794 0.0004130457
-0.010944241 -0.017003926 -0.009753798 0.0026386187 0.019051194 -0.0051568537 -0.010879881 0.009959244
0.0034373116 0.03565421 0.12035687 -0.0033149975 -0.02424457 0.011047924 0.007140734 0.09191064
0.002240138 -0.00661388 -0.0016288062 0.018973261 0.004971146 -0.057666257 -0.046369165 -0.007821805
-0.019784806 -0.0016899187 0.012662787 -0.0038579355 -0.026318496 -0.02816478 0.007091568 -0.011381536
0.0054418296 0.009065496 0.030873485 0.02033179 0.00874399 -0.012246967 0.005281213 0.026204553
-0.010971216 -0.0130520845 -0.0008646912 0.0037767538 -0.022836056 0.0008859664 0.0032638106 0.03633318
0.00096651784 0.005699831 0.016174711 -0.024581317 0.011076372 0.004211449 -0.010170254 -0.006751197
-0.005137089 -0.013148367 0.003761534 0.018603375 0.0023310545 0.019923083 0.006838806 -0.010393331
0.0175869 -0.027446158 0.07481926 -0.0027723 -0.006552413 0.012903565 0.004134081 -0.0022243636
0.005462681 -0.056316115 -0.0049623903 0.049296662 0.012366473 -0.0040808977 -0.0112956595 0.009450782
-0.020501832 -0.03855302 -0.008035016 -0.029261766 -0.05483623 0.009651127 -0.027636286 0.0063045365
0.0037820928 0.062267773 -0.020291792 -0.0013314852 0.005317636 -0.043037098 -0.0026957064 -0.005957685
-0.005482347 -0.0025454832 0.015284369 -0.025771013 0.021182805 0.0051216697 0.08262756 -0.030076543
-0.00631046 0.028096784 0.023959449 -0.016143875 -0.01772711 -0.03905364 -0.006316924 0.08703542
0.013980902 0.0064188507 0.018996526 0.012023944 0.012006896 0.0026688965 -0.007814567 -0.010599812
-0.03200729 -0.017387293 0.0959265 0.010035752 0.0022229946 0.014522178 -0.03128816 -0.010857445
0.012431893 -0.0069942535 -0.012218202 0.0006934246 -0.0406008 0.0031454826 -0.011664721 0.04201461
-0.008331472 -0.0019382626 0.06962182 -0.015619242 -0.020504279 -0.01550209 -0.01948774 -0.051525913
00000000: 96d7 d8ba e3a5 3fbc f921 f23b b67a 113a
00000010: 2e6a 3ebb e4ed c8bb 8fd3 c83b 1f91 623c
00000020: 75cd 253c 97ed fdbb d0f8 90bb 9087 0e3c
00000030: fb6e 8e3a cbfa 40bd bf8c beba f3ee ee3c
00000040: f1b5 253a b0c0 89ba 07b4 02bd 8dab 85bb
00000050: b3e4 41b9 0771 d33c b62d 7bbd b77d 653b
00000060: f836 053b b81f 3ebb 2b91 a9bc 9dda f4bb
00000070: b80c 92bc b46e 05bb 72f3 0fbc 072f 723c
00000080: a549 863b 0df6 003c f23d 0bbc a01b c23b
00000090: 7dca 9d3b 097c 013c e265 73bc b0f1 20bb
000000a0: fbe3 97ba b58d cd3b f7ad 0cbb 6286 bcbb
000000b0: 9d60 183b a09f 443c 8c24 763a e865 a9ba
000000c0: fa83 9f3c f7e7 ef3d 9440 903b 523b b4bb
000000d0: d8a3 a7ba c530 ad3b 5f18 a73b feb1 ccbb
000000e0: da51 073c 6d99 b63b de92 043b cb65 d93c
000000f0: c2a3 aabb a9f0 2abb 04ae 1cbb bae8 4fbc
00000100: 523b 15bb 0329 8c3d a1e6 3abb 3016 90b9
00000110: c876 e73b 1507 da3c 3055 953c 1cf5 11bd
00000120: 08e8 8bbb d934 2abd a2c0 a83b 2c3b 0a3c
00000130: ef41 ee3a 408e d63c 23a0 9bbb 6090 963c
00000140: f990 b3bb 90ba 1bbc 7dd2 663c c8b5 5d3c
00000150: 2f51 543c b1c4 f7bb 400b 5c3d b82a d53c
00000160: 0d3b 213c 21d8 a93c 23ff 843c 0742 003c
00000170: e4aa 82bc 6447 af3c e58c 61bc 7762 103d
00000180: 9b8d 82ba a278 e3bb 2424 883c 89c1 bb3b
00000190: 1d93 6eba 04b8 73bb 380d 943a 109b dfbb
000001a0: 8b6e 203d 029e f6bb 5b2c 2f3d 2557 5cbb
000001b0: bb75 ef3c 46ca 6f3b c206 aa3b 0e8e d839
000001c0: 794f 33bc d14b 8bbc 65ce 1fbc adec 2c3b
000001d0: 4011 9c3c d3fa a8bb 8741 32bc 192c 233c
000001e0: 8544 613b 260a 123d aa7d f63d 6e40 59bb
000001f0: 8c9c c6bc 5a02 353c d1fc e93b a53b bc3d
00000200: 47cf 123b 3fb9 d8bb ab7d d5ba d06d 9b3c
00000210: ffe4 a23b 7433 6cbd 98ed 3dbd 0727 00bc
00000220: bf13 a2bc 4380 ddba 9477 4f3c 6bd5 7cbb
00000230: e399 d7bc d3b9 e6bc 6260 e83b 9f79 3abc
00000240: 6051 b23b 7287 143c 64ea fc3c db8e a63c
00000250: f442 0f3c 81a7 48bc 070e ad3b eeaa d63c
00000260: 9dc0 33bc 69d8 55bc 72ac 62ba 6a83 773b
00000270: ae12 bbbc 3340 683a a8e5 553b 1ad2 143d
00000280: ea5d 7d3a a6c5 ba3b d480 843c c25e c9bc
00000290: ac79 353c 3200 8a3b 23a1 26bc 2539 ddbb
000002a0: 0755 a8bb 406c 57bc 1284 763b 1b66 983c
000002b0: 9bc4 183b bc35 a33c 1018 e03b ca48 2abc
000002c0: 6712 903c c4d6 e0bc d73a 993d 7aaf 35bb
000002d0: a0b5 d6bb 7969 533c 2f77 873b a1c6 11bb
000002e0: 4a00 b33b baab 66bd 8c9b a2bb 4ceb 493d
000002f0: bf9c 4a3c 0db9 85bb 6e11 39bc 74d7 1a3c
00000300: 75f3 a7bc c6e9 1dbd 4da5 03bc 5fb6 efbc
00000310: f49b 60bd c31f 1e3c 7e65 e2bc 4996 ce3b
00000320: fddc 773b 7e0c 7f3d f93a a6bc 3b85 aeba
00000330: 903f ae3b ab47 30bd 73aa 30bb af38 c3bb
00000340: 43a5 b3bb 1fd2 26bb 4a6b 7a3c bb1d d3bc
00000350: 9087 ad3c aed3 a73b a338 a93d 1563 f6bc
00000360: fac7 cebb 3a2b e63c 9b46 c43c 2940 84bc
00000370: 7238 91bc b6f6 1fbd 33fe cebb a03f b23d
00000380: 2710 653c 3955 d23b 9a9e 9b3c 1400 453c
00000390: 92b8 443c a7e8 2e3b ab08 00bc d5aa 2dbc
000003a0: 131a 03bd cc6f 8ebc 1d75 c43d ff6c 243c
000003b0: a9af 113b 6eee 6d3c 0328 00bd 6de3 31bc
000003c0: 23af 4b3c 0d30 e5bb db2e 48bc f0c6 353a
000003d0: 064d 26bd 7124 4e3b 631d 3fbc 8317 2c3d
000003e0: ba80 08bc 4d0d feba e295 8e3d d9e7 7fbc
000003f0: 97f8 a7bc 7afc 7dbc c1a4 9fbc d60c 53bd

action_model._discrete_distribution.branches.1.bias f4 [3]
0.0071413727 -0.014759274 0.002438678
00000000: 2d02 ea3b e2d0 71bc 3ad2 1f3b

exp_avg f4 [128, 36]
-4.47021e-07 2.2387687e-07 -9.406936e-07 2.7556658e-07 -3.9322944e-07 5.067311e-07 -2.0372785e-07 6.169438e-07
4.6350297e-07 3.9355413e-07 6.4474864e-07 7.5283054e-07 5.1304613e-07 4.125685e-07 9.5280825e-07 9.802011e-07
1.9853187e-06 4.965169e-07 7.1121275e-07 7.8764674e-07 6.614119e-07 6.1351716e-07 7.742656e-07 9.3784547e-07
3.1159718e-07 5.321062e-07 1.0458794e-08 4.0575046e-07 1.2879322e-07 4.29962e-07 8.1103906e-08 6.241793e-07
8.1103906e-08 6.241793e-07 8.084754e-06 7.6721655e-05 -1.8076624e-06 1.8352104e-07 -3.482909e-06 -1.6323337e-07
-1.3019626e-07 3.4598315e-06 -7.713744e-06 1.3045559e-06 8.661315e-06 1.2651671e-05 1.1398769e-06 6.404138e-06
1.500369e-05 1.715219e-05 6.0523557e-06 7.4659933e-06 6.140646e-06 1.5087303e-05 7.601242e-06 8.84841e-06
1.3458812e-05 1.5597878e-05 5.0503536e-06 6.020142e-06 7.862228e-06 8.0187665e-06 -1.3446361e-05 -6.2475706e-06
-2.5369286e-06 2.8028048e-06 -1.0834062e-06 -1.3666291e-06 -1.0834062e-06 -1.3666291e-06 -2.761309e-05 0.0003163033
1.492728e-08 2.2351692e-08 1.5239376e-08 2.325662e-08 1.5239797e-08 2.3037563e-08 1.7651248e-08 2.3318556e-08
2.0034596e-08 2.4747308e-08 2.4447173e-08 2.2455891e-08 -5.4984994e-09 2.5503082e-08 2.0761984e-08 2.064006e-08
-2.763055e-09 2.2594545e-08 2.2434627e-08 2.2081897e-08 -6.6249877e-09 2.49746e-08 1.4317792e-08 1.5468865e-08
2.2391706e-08 2.2864285e-08 1.2725696e-08 1.4867401e-08 1.1231208e-08 1.849915e-08 1.7490303e-08 1.76172e-08
1.7490303e-08 1.76172e-08 -6.9941926e-08 6.432141e-07 -2.810422e-05 -2.8741877e-05 -2.902196e-05 -2.8717242e-05
-3.220444e-05 -3.125286e-05 -2.7422258e-05 -3.3726363e-05 -1.00607085e-05 -9.501945e-06 -3.700358e-05 -4.327291e-05
1.2176569e-05 -5.7393295e-06 -6.314725e-05 -6.3609834e-05 8.984049e-06 -9.5862915e-06 -5.7147798e-05 -6.0313523e-05
1.2731516e-05 -1.387415e-05 -5.939686e-05 -6.287394e-05 -4.4427998e-06 -2.0107547e-05 -4.961256e-05 -6.022936e-05
-1.7628834e-05 -3.662559e-05 -4.4004355e-05 -6.2031795e-05 -4.4004355e-05 -6.2031795e-05 -0.00849775 -0.01198007
-1.2851383e-05 -1.7976656e-05 -1.2171585e-05 -1.8389243e-05 -1.2590109e-05 -1.8850458e-05 -1.4546401e-05 -1.9456782e-05
-2.3425273e-05 -2.2102478e-05 -2.1033225e-05 -1.6869248e-05 3.8359633e-07 -5.1078873e-06 -2.4785182e-05 -2.4506204e-05
-3.6335346e-06 -9.998325e-06 -2.5359752e-05 -2.4754909e-05 -5.372662e-06 -1.0187174e-05 -2.6743563e-05 -2.5864729e-05
-9.2693e-06 -1.1917652e-05 -1.8209588e-05 -2.5215028e-05 -1.2277614e-05 -1.6426988e-05 -1.7281429e-05 -2.1954145e-05
-1.7281429e-05 -2.1954145e-05 -0.004359325 -0.004819767 -6.172286e-06 -3.3487092e-06 -4.1166463e-06 -5.587247e-06
-1.8883553e-06 -2.61993e-06 6.177063e-07 -3.5825817e-06 -6.833586e-06 -4.979827e-06 2.4173446e-06 -1.2059197e-06
-6.323558e-06 -4.7487674e-06 -5.3301424e-06 -4.966484e-06 -1.8728925e-06 -4.1013673e-06 -6.4871188e-06 -5.060479e-06
-4.25237e-06 -5.1881816e-06 -7.954788e-06 -5.5360974e-06 -5.5322566e-06 -4.631739e-06 9.980289e-07 -1.1795944e-06
-4.7661474e-06 -2.6612045e-06 1.3684302e-06 9.628402e-07 1.3684302e-06 9.628402e-07 5.0494575e-05 0.00075064355
4.480863e-05 4.2522615e-06 3.304095e-05 2.5343359e-06 1.7226237e-05 -1.4380946e-05 6.428443e-06 -1.03892835e-05
2.7533217e-05 -1.6141596e-05 -1.815243e-05 -2.7929354e-05 -9.688902e-06 -4.496989e-05 -1.9736384e-05 -2.0595242e-05
-3.2632283e-06 -3.4800665e-05 -1.0482292e-05 -1.544485e-05 -7.3258743e-06 -3.7090915e-05 -2.267352e-05 -1.5289967e-05
-2.1420068e-05 -3.7241432e-05 -1.9074489e-05 -1.2680687e-05 -3.9568353e-05 -3.074917e-05 -3.2153864e-06 -1.1647035e-05
-3.2153864e-06 -1.1647035e-05 -0.0044486728 -0.008043195 5.1541014e-07 -6.732023e-07 4.2814096e-07 -6.620385e-07
00000000: 19fe efb4 ce62 7034 f983 7cb5 95f1 9334
00000010: 0b1d d3b4 4c06 0835 49c0 5ab4 0e9c 2535
00000020: 5dd7 f834 ab49 d334 ca12 2d35 1f16 4a35
00000030: 43b8 0935 fc7e dd34 7cc4 7f35 748f 8335
00000040: 843b 0536 6248 0535 2bea 3e35 ac6e 5335
00000050: e18b 3135 94b0 2435 20d7 4f35 40c0 7b35
00000060: 9749 a734 0fd6 0e35 43ae 3332 ebd5 d934
00000070: 694a 0a34 87d5 e634 582b ae33 468d 2735
00000080: 582b ae33 468d 2735 c1a3 0737 a0e5 a038
00000090: cf9e f2b5 e10d 4534 ecbb 69b6 3f45 2fb4
000000a0: 13cc 0bb4 742f 6836 476a 01b7 3318 af35
000000b0: 1150 1137 8342 5437 dffd 9835 20e3 d636
000000c0: 5cb8 7b37 0ce2 8f37 5715 cb36 6584 fa36
000000d0: bf0b ce36 791f 7d37 2c0e ff36 a273 1437
000000e0: 28cd 6137 30d8 8237 3576 a936 a000 ca36
000000f0: 03e8 0337 5788 0637 ae97 61b7 39a2 d1b6
00000100: 1a40 2ab6 d217 3c36 8e69 91b5 056d b7b5
00000110: 8e69 91b5 056d b7b5 a9a2 e7b7 83d5 a539
00000120: 7039 8032 e4ff bf32 bee7 8232 d9c5 c732
00000130: abe8 8232 23e4 c532 819f 9732 0c4e c832
00000140: 8b18 ac32 e893 d432 e7ff d132 07e5 c032
00000150: 50ed bcb1 df11 db32 1658 b232 f94b b132
00000160: 2de0 3db1 ee15 c232 44b6 c032 9bae bd32
00000170: 02a2 e3b1 ba87 d632 51fa 7532 65e0 8432
00000180: e257 c032 1867 c432 34a0 5a32 856b 7f32
00000190: 60f3 4032 10e8 9e32 953d 9632 a254 9732
000001a0: 953d 9632 a254 9732 fb32 96b3 56a9 2c35
000001b0: 5ac1 ebb7 b61a f1b7 2f74 f3b7 cfe5 f0b7
000001c0: 4113 07b8 8115 03b8 da08 e6b7 6875 0db8
000001d0: 6aca 28b7 8b6a 1fb7 4b34 1bb8 ef7f 35b8
000001e0: f749 4c37 7794 c0b6 ec6d 84b8 4566 85b8
000001f0: 32ba 1637 cfd4 20b7 fbb1 6fb8 27f9 7cb8
00000200: 7299 5537 05c5 68b7 e520 79b8 31db 83b8
00000210: 5c13 95b6 a1ac a8b7 1517 50b8 c89e 7cb8
00000220: a2e1 93b7 6e9e 19b8 5191 38b8 1117 82b8
00000230: 5191 38b8 1117 82b8 263a 0bbc 0e48 44bc
00000240: 459c 57b7 93cc 96b7 8f34 4cb7 9942 9ab7
00000250: 1b3a 53b7 0d21 9eb7 510c 74b7 1f37 a3b7
00000260: 6481 c4b7 b668 b9b7 8270 b0b7 6f82 8db7
00000270: 14f1 cd34 6b64 abb6 c6e9 cfb7 ac92 cdb7
00000280: a6d7 73b6 7bbe 27b7 a7bb d4b7 c3a8 cfb7
00000290: d146 b4b6 94e9 2ab7 5d57 e0b7 15f8 d8b7
000002a0: 5783 1bb7 edf1 47b7 cbc0 98b7 dc84 d3b7
000002b0: f3fb 4db7 b0cc 89b7 96f7 90b7 2b2a b8b7
000002c0: 96f7 90b7 2b2a b8b7 abd8 8ebb 23ef 9dbb
000002d0: 881b cfb6 63ba 60b6 b921 8ab6 167a bbb6
000002e0: 6573 fdb5 0ed2 2fb6 74d0 2535 496c 70b6
000002f0: 0f4c e5b6 6318 a7b6 aa39 2236 16db a1b5
00000300: f32e d4b6 9a57 9fb6 93d9 b2b6 c6a5 a6b6
00000310: 1960 fbb5 7a9e 89b6 edab d9b6 2fcd a9b6
00000320: 95af 8eb6 2416 aeb6 8e75 05b7 b7c2 b9b6
00000330: b9a1 b9b6 566a 9bb6 03f4 8535 8e52 9eb5
00000340: e5ec 9fb6 2597 32b6 e7aa b735 f03a 8135
00000350: e7aa b735 f03a 8135 23ca 5338 d6c6 443a
00000360: e6f0 3b38 a6ae 8e36 7395 0a38 8f13 2a36
00000370: 1081 9037 b145 71b7 e8b3 d736 a24d 2eb7
00000380: 22f7 e637 d067 87b7 0c46 98b7 d549 eab7
00000390: 848d 22b7 0d9e 3cb8 908f a5b7 f2c3 acb7
000003a0: d6fd 5ab6 eef6 11b8 1add 2fb7 908f 81b7
000003b0: c8d0 f5b6 1192 1bb8 0333 beb7 f442 80b7
000003c0: 3faf b3b7 af33 1cb8 2702 a0b7 23bf 54b7
000003d0: 32f6 25b8 abf8 00b8 ebc7 57b6 a267 43b7
000003e0: ebc7 57b6 a267 43b7 2cc6 91bb 9bc7 03bc
000003f0: b75a 0a35 1cb6 34b5 3fdb e534 f0b6 31b5

exp_avg_sq f4 [128, 36]
1.5618468e-10 3.2158654e-10 2.0247155e-10 3.5161543e-10 1.204233e-10 2.3795374e-10 3.137246e-10 3.9740833e-10
1.1461426e-10 2.0320975e-10 4.0175482e-10 4.274528e-10 6.695341e-11 1.6843345e-10 4.5179444e-10 4.6369655e-10
6.227531e-11 1.6836067e-10 4.0363954e-10 4.2603412e-10 8.559345e-11 1.8289234e-10 3.8936254e-10 4.0940346e-10
1.4339963e-10 2.2609868e-10 3.8254724e-10 4.1394152e-10 2.2109865e-10 2.924131e-10 3.954863e-10 4.2113862e-10
3.954863e-10 4.2113862e-10 2.7556587e-05 4.933708e-07 8.534636e-09 1.1493864e-08 9.0472625e-09 1.2410619e-08
4.741932e-09 7.239971e-09 1.2372545e-08 1.4021603e-08 3.1259806e-09 5.4953886e-09 1.3940258e-08 1.527789e-08
2.0537432e-09 4.3921915e-09 1.706647e-08 1.7482886e-08 1.2324594e-09 3.874653e-09 1.1858298e-08 1.43219685e-08
1.3888244e-09 4.2804045e-09 1.122026e-08 1.2719403e-08 2.6356675e-09 5.642272e-09 8.994833e-09 1.1601996e-08
5.717551e-09 8.69404e-09 8.913198e-09 1.1632351e-08 8.913198e-09 1.1632351e-08 5.097499e-06 0.00037708506
6.2288747e-09 8.318727e-09 8.917737e-09 1.1034501e-08 1.8654325e-11 8.2212165e-10 1.2145214e-08 1.2472309e-08
4.75959e-13 2.6219416e-10 1.2886918e-08 1.2938674e-08 4.4597098e-13 1.599855e-10 1.2971176e-08 1.2970626e-08
4.4104485e-13 1.3857071e-10 1.6504602e-09 5.40529e-09 4.4451248e-13 1.5309108e-10 1.0718852e-09 2.5532065e-09
4.711862e-13 1.8225604e-10 1.0117e-09 1.9108317e-09 1.5179612e-10 4.921854e-10 1.0033383e-09 1.7706606e-09
1.0033383e-09 1.7706606e-09 4.9901523e-06 1.7856398e-06 6.311418e-09 1.0999868e-08 7.2163906e-09 1.2053562e-08
6.331678e-09 1.0342434e-08 9.804039e-09 1.4117412e-08 7.4487327e-09 1.1019206e-08 1.4028625e-08 1.6906677e-08
5.0968096e-09 9.48916e-09 1.9853902e-08 2.0748084e-08 2.8778178e-09 8.560275e-09 1.7355031e-08 1.916152e-08
4.4285295e-09 9.296272e-09 1.7441149e-08 1.8947828e-08 6.5427828e-09 1.164149e-08 1.7809272e-08 1.8882234e-08
1.2058831e-08 1.4958102e-08 1.7955058e-08 1.9105048e-08 1.7955058e-08 1.9105048e-08 0.00027899054 0.0010046074
1.0034783e-09 2.644091e-09 1.1928826e-09 2.8788503e-09 1.4547613e-09 2.7410998e-09 1.903745e-09 3.6605168e-09
2.0924416e-09 3.0195462e-09 4.0841863e-09 4.5375455e-09 1.4484494e-09 2.30749e-09 4.790632e-09 4.982757e-09
7.851436e-10 2.1418831e-09 4.471817e-09 4.812731e-09 1.3709027e-09 2.29198e-09 4.574195e-09 4.8831272e-09
1.6995708e-09 2.7513265e-09 4.8085425e-09 4.973732e-09 3.0093854e-09 3.7133883e-09 4.663179e-09 4.8821653e-09
4.663179e-09 4.8821653e-09 0.00020196116 0.00023858868 2.3412678e-09 3.1670162e-09 2.660656e-09 3.5450283e-09
1.5742173e-09 2.2210371e-09 3.3199121e-09 3.8294306e-09 1.026104e-09 1.691962e-09 3.7378585e-09 4.1120645e-09
8.8338015e-10 1.4693623e-09 4.3949013e-09 4.5796993e-09 7.52681e-10 1.3524906e-09 3.3978702e-09 3.866914e-09
7.6412604e-10 1.4456566e-09 3.222805e-09 3.5999508e-09 1.0264046e-09 1.7810897e-09 2.7323588e-09 3.4397654e-09
1.8100049e-09 2.6023634e-09 2.6115174e-09 3.436183e-09 2.6115174e-09 3.436183e-09 1.5465506e-06 7.820494e-05
8.492188e-09 1.5926226e-08 9.355513e-09 1.6918932e-08 1.0666062e-08 1.6473349e-08 1.2035462e-08 2.0339112e-08
1.3243579e-08 1.754781e-08 2.17061e-08 2.5188758e-08 8.145408e-09 1.3649708e-08 2.8158144e-08 2.9029552e-08
4.237401e-09 1.23654225e-08 2.6053177e-08 2.792585e-08 6.9247346e-09 1.3307769e-08 2.5727566e-08 2.7821724e-08
9.504452e-09 1.6425695e-08 2.6800347e-08 2.8274334e-08 1.6159566e-08 2.0802945e-08 2.6652982e-08 2.8400013e-08
2.6652982e-08 2.8400013e-08 0.0006179951 0.0013104696 7.197598e-11 9.0487e-11 7.8343707e-11 9.630546e-11
00000000: 14ba 2b2f 48cb b02f ad9e 5e2f 794d c12f
00000010: 2568 042f 03d1 822f d078 ac2f 407a da2f
00000020: 180a fc2e 766e 5f2f f7dd dc2f a2fe ea2f
00000030: 6b3b 932e cd31 392f 6a60 f82f 7deb fe2f
00000040: e2f1 882e 511d 392f 37e7 dd2f f936 ea2f
00000050: d438 bc2e 9e17 492f e80d d62f 6a12 e12f
00000060: 68ab 1d2f 1f99 782f bd4e d22f 1791 e32f
00000070: bd19 732f 7cc1 a02f c06b d92f fe85 e72f
00000080: c06b d92f fe85 e72f 5229 e737 2f70 0435
00000090: ba9f 1232 8c76 4532 486e 1b32 7b36 5532
000000a0: 7aee a231 75c3 f831 078f 5432 aae3 7032
000000b0: d5d0 5631 f3d1 bc31 e77d 6f32 6f3c 8332
000000c0: d521 0d31 20ea 9631 9099 9232 462d 9632
000000d0: 4f63 a930 cf21 8531 59b9 4b32 af0c 7632
000000e0: eae0 be30 d612 9331 3ac3 4032 8784 5a32
000000f0: 271f 3531 f3dd c131 b287 1a32 1e52 4732
00000100: 1c74 c431 cb5c 1532 a920 1932 9fd7 4732
00000110: a920 1932 9fd7 4732 2f0b ab36 80b3 c539
00000120: c305 d631 26ea 0e32 9f34 1932 4092 3d32
00000130: ce15 a42d abfb 6130 37a7 5032 cc45 5632
00000140: 76f8 052b 8c24 902f 4465 5d32 e448 5e32
00000150: 310f fb2a eae7 2f2f d6d7 5e32 6bd5 5e32
00000160: 4349 f82a 305c 182f 68d6 e230 6fb9 b931
00000170: 003d fa2a 4f53 282f 9c51 9330 7c74 2f31
00000180: 8ba0 042b 8464 482f 070c 8b30 b54f 0331
00000190: cfe6 262f 784a 0730 d4e5 8930 955b f330
000001a0: d4e5 8930 955b f330 1571 a736 1eaa ef35
000001b0: d2db d831 eef9 3c32 0bf4 f731 2014 4f32
000001c0: 078e d931 81ae 3132 9f6e 2832 0989 7232
000001d0: bfef ff31 fb4e 3d32 8c02 7132 2d3a 9132
000001e0: 0320 af31 c405 2332 318b aa32 8539 b232
000001f0: 1bc3 4531 7d10 1332 1e14 9532 a198 a432
00000200: c229 9831 70b5 1f32 7ed1 9532 b7c2 a232
00000210: edce e031 d1ff 4732 01fb 9832 7932 a232
00000220: 4d2b 4f32 377d 8032 973b 9a32 721c a432
00000230: 973b 9a32 721c a432 7a45 9239 08ad 833a
00000240: c1ea 8930 57b3 3531 d3f2 a330 45d5 4531
00000250: ddf0 c730 f05d 3c31 09d3 0231 7e8c 7b31
00000260: 9fca 0f31 6b80 4f31 e254 8c31 ace8 9b31
00000270: c812 c730 cb91 1e31 d89a a431 cb34 ab31
00000280: 92d1 5730 6830 1331 85a6 9931 3b5d a531
00000290: 5a6a bc30 f080 1d31 0b2b 9d31 71c8 a731
000002a0: 5596 e930 d911 3d31 6338 a531 69e5 aa31
000002b0: abcd 4e31 9e2e 7f31 c239 a031 fbbf a731
000002c0: c239 a031 fbbf a731 89c5 5339 a92d 7a39
000002d0: 05e4 2031 bda2 5931 c1d6 3631 cc9c 7331
000002e0: d95b d830 e6a0 1831 8324 6431 0794 8331
000002f0: d306 8d30 9f8a e830 8d6e 8031 1a4a 8d31
00000300: 5ad2 7230 97f2 c930 f601 9731 765b 9d31
00000310: 37e5 4e30 88e2 b930 f77f 6931 bcdd 8431
00000320: 970a 5230 85b0 c630 2f78 5d31 0163 7731
00000330: 6711 8d30 86ca f430 2ac4 3b31 fe60 6c31
00000340: e3c3 f830 43d5 3231 4d76 3331 f821 6c31
00000350: 4d76 3331 f821 6c31 1393 cf35 f501 a438
00000360: 0ae5 1132 24ce 8832 fbb9 2032 2055 9132
00000370: d63d 3732 4781 8d32 86c4 4e32 2eb6 ae32
00000380: e085 6332 0bbc 9632 3874 ba32 aa5e d832
00000390: e2ef 0b32 0d80 6a32 6ae0 f132 a95c f932
000003a0: 9398 9131 b46f 5432 8bcb df32 98e1 ef32
000003b0: 9cee ed31 30a0 6432 84ff dc32 9efc ee32
000003c0: 0649 2332 7c18 8d32 9636 e632 ebdf f232
000003d0: 43cf 8a32 29b2 b232 87f2 e432 4af4 f332
000003e0: 87f2 e432 4af4 f332 f300 223a 10c4 ab3a
000003f0: e046 9e2e a7fb c62e 9647 ac2e 27c7 d32e

exp_avg f4 [128]
1.1215204e-06 1.0180356e-05 2.1863963e-08 -6.126175e-05 -2.367723e-05 -6.8101663e-06 -1.0896741e-05 -1.6289514e-06
-1.1567461e-05 -3.2207843e-06 -5.8998896e-05 5.323275e-07 -3.7174283e-07 -3.2052838e-05 -3.15237e-07 1.8849702e-05
3.1605094e-07 -7.759313e-06 -1.4705922e-06 4.5501085e-05 3.0456056e-05 -1.13127135e-05 -2.0689333e-05 2.1470305e-05
-1.6285698e-05 -3.944696e-06 1.0908204e-05 9.784474e-07 -2.1214331e-05 -2.637649e-05 -1.9769985e-05 -3.688158e-05
-1.8048155e-05 -1.8411564e-06 1.1305926e-05 2.1346534e-05 -6.1666383e-06 -2.1679858e-05 6.8048536e-08 2.8629026e-08
-2.4368484e-07 3.469875e-05 -2.750458e-06 2.7694537e-07 9.33237e-06 1.9628482e-05 -1.1216749e-06 8.615039e-06
2.8182885e-07 -5.597921e-06 3.6490193e-05 -2.4144523e-05 -6.254363e-06 9.681747e-06 3.5930272e-05 -4.3912944e-05
-6.323012e-07 3.067662e-06 1.9109386e-05 -1.2447974e-05 -3.0130952e-05 4.28717e-05 -3.5206267e-05 9.1833335e-06
-2.4120171e-11 1.9467989e-05 -1.3978345e-05 2.1564738e-07 1.6742168e-05 7.1964773e-06 -2.3475116e-06 -3.1263767e-07
-5.935712e-06 2.2530965e-05 8.771255e-06 -3.4395074e-05 -9.671724e-07 1.1283688e-05 6.9843704e-06 2.8833947e-05
-1.1106413e-05 2.2223297e-09 -1.4399574e-06 3.224241e-05 8.044429e-08 1.9169773e-05 -3.333385e-05 3.1782616e-05
5.0624653e-06 5.9084826e-09 5.0101376e-06 -4.640664e-06 -6.361178e-05 -1.6446093e-06 -5.551521e-06 -2.0336416e-05
1.7340246e-05 -2.0299825e-05 -2.0936088e-05 3.6877278e-05 2.0203426e-05 -1.4229465e-06 -3.6024172e-05 1.5516638e-05
2.9337043e-05 1.4088776e-05 -8.5483316e-07 8.875461e-06 5.939097e-06 -2.2289842e-05 -1.0087626e-08 -5.4863917e-06
-7.008686e-06 -1.5770644e-05 3.2978944e-05 -1.1192033e-05 -6.8811087e-06 -2.6005689e-09 -9.506988e-06 1.8543624e-05
2.1397667e-05 -4.613254e-05 -1.985335e-06 1.3783255e-05 3.1164357e-06 1.7081145e-05 -1.0601043e-06 -6.0162797e-06
00000000: 2687 9635 4ccc 2a37 5dcf bb32 a779 80b8
00000010: 779e c6b7 e282 e4b6 25d1 36b7 58a2 dab5
00000020: de11 42b7 a724 58b6 9575 77b8 44e5 0e35
00000030: f293 c7b4 7970 06b8 d83d a9b4 6d1f 9e37
00000040: b6ad a934 ff2d 02b7 2a61 c5b5 6bd8 3e38
00000050: e27b ff37 bccb 3db7 018e adb7 211b b437
00000060: 459d 88b7 ae5c 84b6 6102 3737 3253 8335
00000070: 6ef5 b1b7 1543 ddb7 b8d7 a5b7 4cb1 1ab8
00000080: 1e66 97b7 a71d f7b5 95ae 3d37 5511 b337
00000090: 05eb ceb6 24dd b5b7 1422 9233 e5eb f532
000000a0: cad3 82b4 8089 1138 8294 38b6 15af 9434
000000b0: 3992 1c37 d8a7 a437 758c 96b5 5089 1037
000000c0: 434e 9734 c6d5 bbb6 0c0d 1938 f889 cab7
000000d0: 92dc d1b6 c96e 2237 d6b3 1638 2a2f 38b8
000000e0: 68bb 29b5 08de 4d36 184d a037 a4d7 50b7
000000f0: bac1 fcb7 23d1 3338 71aa 13b8 1e12 1a37
00000100: cc29 d4ad 304f a337 8984 6ab7 b38c 6734
00000110: 8871 8c37 4579 f136 f189 1db6 98d8 a7b4
00000120: 612b c7b6 e100 bd37 4128 1337 6e43 10b8
00000130: cacf 81b5 124f 3d37 495b ea36 6ee0 f137
00000140: ae55 3ab7 a3b7 1831 8f44 c1b5 063c 0738
00000150: b7c0 ac33 c6ce a037 f3cf 0bb8 534e 0538
00000160: 3fde a936 9003 cb31 c11c a836 00b7 9bb6
00000170: 5067 85b8 58bc dcb5 3447 bab6 1f98 aab7
00000180: e575 9137 8b49 aab7 e89f afb7 adac 1a38
00000190: 877a a937 12fc beb5 a918 17b8 ba29 8237
000001a0: d218 f637 d55e 6c37 b077 65b5 d1e7 1437
000001b0: 7448 c736 12fb bab7 d94d 2db2 bf17 b8b6
000001c0: 282c ebb6 334b 84b7 df52 0a38 6ac5 3bb7
000001d0: 46e4 e6b6 b1b5 32b1 3480 1fb7 218e 9b37
000001e0: 247f b337 707e 41b8 cc3b 05b6 a13e 6737
000001f0: f523 5136 7b49 8f37 e848 8eb5 73df c9b6
