results/GoalAgent23_gamma80_V2/MoveToGoal/MoveToGoal-431628.onnx (onnx, 72639 bytes, 7 tensors)

action_model._continuous_distribution.log_sigma f4 [1, 2]
00000000: 58f5 513d 045c 923c
0.05125937 0.017866142

action_model._continuous_distribution.mu.bias f4 [2]
00000000: 4a26 a43c ce64 263b
0.020037789 0.0025389674

action_model._continuous_distribution.mu.weight f4 [2, 128]
00000000: 33be 21bd 517c 17bd 18de cbbd b479 dcbd
00000010: 9cd7 263c 29ef 42bd ee8d 313d 7c75 30bd
00000020: 3749 34bc 9e75 8bbd 204e 24bd 1014 443b
00000030: 9973 19bb e405 333c 8017 debc b7da 34bd
00000040: 4cbc dcbc 4980 21bd 24f2 e63d 6679 9b3b
00000050: 9b41 263d 47d4 dc3c b013 3fbd ae0d a33d
00000060: aa5d cebd f62d b7bc 9cc4 873d 65a8 80bc
00000070: 918e 363d 359e 0b3b 77dd 983b 4f67 9abd
00000080: c95b 8c3d 3cca f4bd 47ec 5f3d 9d46 c5bc
00000090: 77e6 5e3d 228f 2e3c 42d0 043c efbb 813d
000000a0: 9e97 37bc d1d3 b03d d27b f4bd 8189 dfbc
000000b0: f5a6 6dbb c57e 663d 5998 05bd 3621 083c
000000c0: 167a 91bc 0955 38bd 5bd2 14bd c81e 87ba
000000d0: 8e98 e1bd c2a2 d03b de87 6abd ee05 b03b
000000e0: 9759 80bd a5c7 5b3d d347 e43a 00f6 03bc
000000f0: 691c 273c 436d acbb 9242 4fbd de62 683d
00000100: 1c1e 82bd 9ec1 c93d 12cb 943c f318 62bd
00000110: e276 48bd d995 00bd e30f eebc b223 293d
00000120: 73aa 693d 5dbb 39bd 0fe2 5ebc 135a be3d
00000130: baae 8c3c 2d02 7d3d 110c 893d 5e23 733d
00000140: 8af2 ef3d 5298 a5bd 73a8 a53d 3c18 f5bb
00000150: fe95 8bbd dcde 13bd debd 87bc f1d7 23bd
00000160: 97e0 ec3c c887 e73c 1459 14bd 0ac0 923d
00000170: f292 aabc fb0e 2ebc b50b 3e3a 39b7 cabc
00000180: b170 c5bd ec9c 0bbd df65 803d 281a 4abd
00000190: 9108 2c3d 9e64 0c3d 7e06 99bd 8d6c 18be
000001a0: 5c0c 173d ec04 1cbb 3969 44bd f77e 863d
000001b0: 4db0 af3d da84 f5bc 37e3 d43c 32d5 8e3b
000001c0: ad74 9b3d 935d aa3d 00f4 bdbd 8f9c e93c
000001d0: 911e bfbd f084 abbc 376e 0e3d ccc4 f4ba
000001e0: 9702 133d 5c8d 833c 5d8c 163d 704c 8ebb
000001f0: 6cbb e83d 3a15 2bbd a360 cb3d aa7f 2c3d
00000200: 4f6a afbd 35a2 ed3c 5415 b73c ce09 a63d
00000210: b62e 3d3c 9c87 76ba a854 9dbc dee6 8cbd
00000220: df0e 9abc 8883 dfbd 2946 0abd e4ff da3a
00000230: 3be1 f0bc b254 3a3a d51e 9c3c 62dc ec3c
00000240: 0b70 69bd 7335 203d 6683 903d b164 f13c
00000250: 57e9 1c3d 8b9c 843d dc5e e03c a9be a7bd
00000260: 6597 353c c1a0 863c 318e fc3b e03e 64bc
00000270: 5467 a23d 8912 a7bc c150 d1bd 5cfa a6bc
00000280: 9cd4 553c f8a2 0bbb fc5e dbba b72b 96bc
00000290: e551 96bd 9cdc d43d ca62 a4bc 67d5 ce3c
000002a0: 3d9a 0cbd 7e62 17bd 8f65 043e 7dd9 b73d
000002b0: c619 04bd ca80 3a3d 29a8 193c 4f0d 98bc
000002c0: da26 27bd 250e acb8 7248 febb 3e48 cabc
000002d0: 89fe b8bd aa6a 99bd 48eb 19bd 0134 353d
000002e0: 4414 09be 4338 81bc 77d4 97bc 2116 8a3d
000002f0: 7ddd 3bbd d3f4 193d bd9d bfbc 6b73 063d
00000300: cad9 5e3d fe3a dcbd dd12 d8bd aa65 473e
00000310: 9326 a6bb 7743 ff3b 13fe e73c 424f 7a3d
00000320: 81a7 6cbc 1ddc 893d 60e9 77bd 3452 f5bb
00000330: e884 20bd 503c 0a3d 42a6 87bc 1a55 553a
00000340: e5b4 213d b8d6 1e3d a960 583c be14 1f3c
00000350: be0a 0dbd 70db cd3b bc2e 4a3d f5d7 853d
00000360: 2f58 883d e385 5abd ee33 203d 0a84 23bd
00000370: 4f28 463d f276 7f3d 0603 8cbc 5532 09bd
00000380: d7b8 af3c 5fab 1c3d 2c27 f03b 3345 2a3d
00000390: 86bc 2dbd a815 aabc a52d 703d 305e b7bd
000003a0: f833 63bd 7505 cabc 6853 38bd ff30 d33c
000003b0: 36aa ebbd d1d5 943d 10d8 f2bc 422f f43c
000003c0: a531 103d b286 463d 24ee 983d a7e2 51bc
000003d0: 90de 85bc 57fd d8bd 726e b1bd ac92 0c3b
000003e0: c844 29bc 36d4 1f3c b102 70bb 5ccd 51bd
000003f0: 78ef 1a3d 0789 31be d72c b23d d619 76bd
-0.03948803 -0.03698379 -0.099544704 -0.107654005 0.010183241 -0.047591362 0.043348245 -0.04308079
-0.011003784 -0.06809543 -0.04011357 0.0029919185 -0.002341485 0.010926697 -0.027110815 -0.044153895
-0.026945256 -0.039428983 0.112766534 0.0047446964 0.04058991 0.02695669 -0.046649635 0.079615936
-0.10076459 -0.022360783 0.06629297 -0.015705297 0.044569556 0.0021304016 0.0046650725 -0.07539236
0.06853444 -0.11952636 0.05466869 -0.024081523 0.054419007 0.010654243 0.008106293 0.063346736
-0.011205582 0.08634151 -0.11937679 -0.027287247 -0.0036262844 0.05627324 -0.032615993 0.008308699
-0.01775841 -0.04500297 -0.036333423 -0.0010308856 -0.110154256 0.0063670585 -0.05725848 0.0053718006
-0.06267088 0.053657193 0.0017416425 -0.008054256 0.010199645 -0.0052620484 -0.050600596 0.056734912
-0.06353399 0.09851383 0.018163238 -0.055199575 -0.0489415 -0.031392906 -0.02906031 0.041293807
0.05704732 -0.0453447 -0.013603701 0.09294524 0.01717316 0.061769653 0.066917546 0.0593599
0.117161825 -0.080856934 0.0808877 -0.0074796956 -0.06815718 -0.036101207 -0.016570028 -0.04000086
0.028915687 0.028262988 -0.036217764 0.07165535 -0.020822022 -0.010623689 0.0007249669 -0.02474557
-0.09640635 -0.0340852 0.0626943 -0.04934135 0.042000357 0.034275644 -0.074719414 -0.14885159
0.03687702 -0.0023806645 -0.04795191 0.06567185 0.085785486 -0.029970575 0.02598725 0.004358911
0.075906135 0.08318629 -0.09275055 0.028517036 -0.09332002 -0.020937413 0.034773078 -0.0018674373
0.03589114 0.016058616 0.036754955 -0.004342608 0.11363873 -0.04176829 0.09930541 0.042113937
-0.08565199 0.02900801 0.022349037 0.08107339 0.011546781 -0.00094043626 -0.019205406 -0.06879972
-0.01880592 -0.109137595 -0.033758316 0.0016708341 -0.029404273 0.00071079575 0.01905767 0.02891368
-0.056991618 0.039113473 0.07056312 0.029466959 0.038308468 0.06475171 0.027388982 -0.081906624
0.011083459 0.016434075 0.00770738 -0.013931006 0.079298645 -0.02039458 -0.10220481 -0.020383053
0.013051178 -0.0021306854 -0.0016736682 -0.018331392 -0.07339839 0.103936404 -0.020066638 0.025248243
-0.03432678 -0.036959164 0.12929367 0.089770295 -0.032251142 0.04553298 0.009378471 -0.018561034
-0.040808536 -8.204234e-05 -0.007760101 -0.02469265 -0.09032924 -0.07491048 -0.037577897 0.044239048
-0.13386637 -0.015773898 -0.018533928 0.06742502 -0.045865525 0.037587 -0.023390645 0.032824915
0.05440692 -0.10753439 -0.10550473 0.19472376 -0.0050705164 0.007790025 0.028319394 0.061110742
-0.014444233 0.067314364 -0.060525298 -0.007486606 -0.03918925 0.033748925 -0.01655877 0.00081379863
0.039479155 0.03877899 0.013206639 0.009709535 -0.034434073 0.0062822625 0.049360976 0.06535331
0.06657445 -0.05335034 0.039112024 -0.039920844 0.048378285 0.062369294 -0.017091285 -0.033495266
0.021450443 0.03824937 0.0073288884 0.0415699 -0.042416118 -0.02076228 0.05863728 -0.08953512
-0.055469483 -0.024660805 -0.045001417 0.0257802 -0.115070745 0.07267345 -0.029644042 0.02980769
0.035203595 0.0484683 0.07467297 -0.012810386 -0.016341478 -0.10595196 -0.08663644 0.0021449728
-0.01033134 0.009755185 -0.0036622698 -0.051221237 0.03782603 -0.17337428 0.08699959 -0.060083233

network_body._body_endoder.seq_layers.0.bias f4 [128]
00000000: 7e70 283d a6cf 323d 8eb7 133d c8ab c93c
00000010: 726b bb3d 9ac6 923d 2ea9 893d d796 933c
00000020: dc5b d53c 651f 993d 8edd 453d 57f7 da3c
00000030: ae30 d23d 8198 ddbc 3cd5 313d 03e6 af3c
00000040: 107d a43c 87b6 ad3c 84d0 a53d 3516 053e
00000050: 4484 c03d 7a74 3f3d 4123 913c 2923 c23d
00000060: fbd4 b73d 9248 963d 2bfa baba 7de7 713d
00000070: cd5f 123d c8bc 8e3d 71c2 cc3d 9216 ccbc
00000080: 5985 b43d f478 bf3d 079b de3d 324a 383d
00000090: c065 9dbd 0b17 43bc f01c 76bc caba ad3d
000000a0: 6a26 6f3c fbff ed3d 7b20 8d3d 7eca 153e
000000b0: 8435 a13d 0907 963d 5d1e 353d 6d22 cd3c
000000c0: e61c c53c 8178 e63d 18b2 223d f293 963d
000000d0: f1d5 333d 1871 c23c 3d63 593c 044a 50bd
000000e0: 12cf 973d 1c9a d83b 4106 123d e85e 12bd
000000f0: b9f0 e63d c20b 783d 9b89 cc3d 59b1 163d
00000100: 5b54 743d 8cb1 153c 55ae 973d 9604 d23d
00000110: 9888 ee3d 354e b83c a0b3 c03a 2306 343c
00000120: feda c63d ffb3 be3d fe66 123d 53ed fa3d
00000130: 36e7 253d bfad 443c 1f2d b73c 992f 103d
00000140: 5f34 073e 9618 1b3d c228 983d 83ef 3dbd
00000150: a806 c43c 4bc1 ef3d 5b3a 84bc b5cb 993d
00000160: f2e3 093d 3f27 583d 44fa 9e3d ea0b 82bc
00000170: 09c2 0f3d 0259 2ebb a838 693d d206 6a3d
00000180: 6597 823d 8a8a 343d a1d8 d23d 81c9 2bbd
00000190: 77cf 8ebc 8b43 7f3d 1f37 a23d 4d7d 963d
000001a0: 6ce1 b1bc a4b3 223c 7642 b83c e751 903c
000001b0: 11d3 f43c 7f1e ea3c dcb5 3e3d b9f9 513d
000001c0: b382 c83d 0328 a13d 647d a53d ce7d 103d
000001d0: fd6c 853c 5879 a7bb 5241 8c3c efe8 773d
000001e0: 99ec 573d fdd2 cf3c f136 f03d 67a4 003d
000001f0: d466 353d 95df 673c d1b2 f43d 1efe a43d
0.041122906 0.04365506 0.036063723 0.024618044 0.09151353 0.071667865 0.067217216 0.018016262
0.026044779 0.07476691 0.048306994 0.026729269 0.10263191 -0.027050259 0.043416247 0.021471983
0.020079166 0.0212052 0.08096412 0.12996753 0.09400228 0.04674194 0.017717006 0.094793625
0.0897617 0.073380604 -0.001426523 0.059058655 0.035735894 0.06969601 0.09998024 -0.024913106
0.088144965 0.09349242 0.10869413 0.044992633 -0.07685423 -0.011907349 -0.015021548 0.08482893
0.014596561 0.1162109 0.06890961 0.14628026 0.078715354 0.073255606 0.04421841 0.02504083
0.024061631 0.11253453 0.039720625 0.07352437 0.043905202 0.023735568 0.013268289 -0.050851837
0.074125424 0.006610168 0.035650495 -0.03573504 0.11276383 0.060558088 0.09987184 0.036790226
0.05965076 0.009136569 0.07406298 0.10254781 0.11647147 0.02249823 0.001470197 0.010987791
0.09709738 0.09311675 0.035742752 0.12252297 0.040503703 0.012004315 0.022360383 0.035201643
0.13203572 0.037865244 0.07429649 -0.046370994 0.023928955 0.117067896 -0.016141107 0.07509557
0.03366465 0.052771803 0.07762578 -0.015874822 0.035097156 -0.0026603346 0.056938797 0.05713541
0.063765325 0.044077434 0.10295225 -0.041940216 -0.017432911 0.062320273 0.0792067 0.07348118
-0.021713935 0.009930525 0.022492629 0.01761718 0.0298858 0.028578995 0.046560153 0.051263545
0.09790554 0.0786896 0.08080557 0.035276227 0.016287321 -0.005110901 0.01712099 0.060524877
0.05271587 0.025369162 0.11729229 0.031406786 0.044287518 0.014152427 0.11948169 0.080562815

network_body._body_endoder.seq_layers.0.weight f4 [128, 6]
00000000: 5d21 33be 626c d53e 6a66 60be bab8 873d
00000010: 3381 b1be a623 393e 7d12 263d 1b74 7ebe
00000020: 03cb 883d 0af3 183e b591 363e 6480 1bbf
00000030: f711 afbe 327f d6bd b8a9 3a3f b144 303e
00000040: b032 e9be 6c32 b2bd e78d 603e 5d9a 2f3f
00000050: a5ee 09be 1561 e83e f719 893d 8cc4 4b3e
00000060: f2a2 ac3e 98f1 a1bd 1b06 a63e 1ff6 df3e
00000070: fea4 0d3f 3515 ce3e e222 393e da97 2b3d
00000080: d411 abbe 6d45 72be 01a1 dd3e c4bf ee3d
00000090: cdf9 3dbf 3e89 c3be 014d 27bf d584 903e
000000a0: b11d 6abd e8f5 4fbe ccbd 353f 1c4d 953d
000000b0: e233 d63e 6ff1 e13e d7dc 44be 3bff 8b3e
000000c0: bdd6 b7be 5bea 7abe c5c7 03be 2ba8 223f
000000d0: 42ce 123f b7d5 f3be bb98 a3bd a155 43be
000000e0: 33fb 383e 4f52 b33e 7c29 d03e 124c c1be
000000f0: 6d16 c2be 420c f0bd e719 453f 02d2 f33d
00000100: de2a e3bd fc67 4ebf 5214 71bf 5774 a23e
00000110: 4cef 82be 47ec 94be 2556 c4be ce25 8e3e
00000120: de63 09bf bba2 0d3e 1ed1 d73d 3673 433e
00000130: 3f2b 093f b8db 83bd 05b0 2abf 8783 01bf
00000140: 4c82 94be f0bd 46be 12a1 44bf ee67 dabd
00000150: c83c e5bd fb53 b9be 996b 96bf 5bd4 d2be
00000160: 9f78 adbe 5a75 423c 331e cf3e d574 f33e
00000170: 77ac 433e 671a 743e 4bb5 893e 29f3 10be
00000180: 97a1 00bf c8b5 8c3e dc8d d23e 803e b8be
00000190: 3d08 433f c434 a53e 83c4 953e 42cd e23d
000001a0: 3846 7a3d 9c0f 1d3f 33e1 f1be 92f6 35be
000001b0: ee3b 5c3d 98e3 003d 6644 7e3f 0417 01bf
000001c0: 9a89 2a3f a4ad 5f3d 56fc 08bf 4340 8a3e
000001d0: a92e 1fbe 2f02 463f fd61 31be bde9 2f3e
000001e0: 4fba 283e 3788 fd3e cb29 f7be a2bb dbbc
000001f0: acce 62be c14a c1be 0177 94bd a9d9 dd3d
00000200: b745 15bf a54c fbbc c93d 2fbf 0f16 b4be
00000210: d188 babe 5542 173f 9b6b b0bd 7902 63be
00000220: 31b6 1a3e 5e76 153f 3416 1d3f ea7e 933e
00000230: 7613 513e 9a74 303e 77d3 d03e 4ff8 233e
00000240: 4f9f 04bf 6d61 533d dbad 9bbc 6c8f 063f
00000250: 56bc b13e e200 cbbe 1a4a 57be fc3a 333e
00000260: 2b92 2f3e c4a4 e13e 39fb 4f3f 7a4c 03be
00000270: 114f 343e 4b56 043f e2f6 07be b36c 83be
00000280: 1944 34be 5c63 fa3e 574e 903e 7e8f d6be
00000290: d210 ff3d c17e b93e 0db8 933e ae9c 82bd
000002a0: 69f6 8c3e b12c 01be d450 603d 021c 8d3e
000002b0: acaf c93e 9bf4 fa3e 5859 dd3e cae6 dbbb
000002c0: f678 08bf 522b 84bd aa52 293f 385e b9be
000002d0: 25e4 ed3e 8de2 073f 806d bc3d 8b70 b8be
000002e0: 666a a73e 6da9 3bbb 055f 1ebf 0060 563d
000002f0: 0b82 a1be 6ad2 8bbe ccd1 4abe 2672 52bf
00000300: 30f0 203e d16c 60be dc87 31bf 5dad 6fbd
00000310: 9378 2f3e 1610 ba3e d4c6 28be 2577 d2be
00000320: eb1a 4cbd 5320 e33d 20ac 94be 1db2 34be
00000330: 1876 3bbe dbcb 173f 540a 52be 79be 153e
00000340: f1f9 97be 6ce4 8a3e 5d82 bbbd 881a dd3c
00000350: e606 11be dcba 9abe 84b6 54bd c4c2 dabe
00000360: c538 79be a65e 87be 890b 8b3f 8009 1fbf
00000370: 02a0 373d c731 b6be e40b ce3e 1cef a13e
00000380: d512 093f 68bc ddbe 8081 413c 4b75 163f
00000390: e669 823c a5f3 21bf 1926 043d d020 e0be
000003a0: 664d e33c 7ada 223f 4a6f 603d 22c8 3a3f
000003b0: 6733 223f 0535 28be 0e31 3abe 0dcf 1dbe
000003c0: e25d f5be f591 35bf 0153 4dbd 4ea7 1cbf
000003d0: a9e2 cf3e 1d4b 153f 24c0 c6be 56f6 b43d
000003e0: 9a76 6d3e 121b 003f edf1 9b3d e27e e2be
000003f0: dc80 a4be f6c5 f53e 444f dabe 097b b1bd
-0.17493196 0.41684252 -0.21914068 0.06627031 -0.34668884 0.18080005 0.040544976 -0.24848978
0.066793464 0.14936462 0.1782902 -0.60742784 -0.34193394 -0.10473479 0.7291522 0.17213704
-0.45546484 -0.087010235 0.21929131 0.68594915 -0.13469942 0.45386568 0.066944055 0.19899195
0.33718067 -0.079074085 0.32426533 0.43742463 0.55329883 0.40250555 0.18079713 0.041892864
-0.3341204 -0.23659296 0.432869 0.1165767 -0.7420929 -0.38190645 -0.65351874 0.28226343
-0.057157222 -0.2030865 0.7099273 0.07290098 0.41836458 0.44129512 -0.19224869 0.27343163
-0.3590602 -0.24503462 -0.12869175 0.63537854 0.57345974 -0.4762399 -0.079881154 -0.19075634
0.18064575 0.35023734 0.4065665 -0.3775335 -0.37907735 -0.11721088 0.7699265 0.1190529
-0.11092161 -0.8062742 -0.9417163 0.31729385 -0.25573194 -0.29086515 -0.38346973 0.27763218
-0.5366801 0.13831608 0.10537933 0.19086918 0.53581613 -0.064383924 -0.66674834 -0.5059132
-0.2900566 -0.19408393 -0.76808274 -0.10664354 -0.11193234 -0.36196885 -1.1751586 -0.4117764
-0.3388109 0.011868799 0.40452728 0.47550073 0.19108759 0.23838197 0.26896128 -0.14155258
-0.50246567 0.27482438 0.41123855 -0.35985184 0.76184446 0.3226682 0.2925149 0.11074306
0.061102122 0.61351943 -0.47242126 -0.1776984 0.05376809 0.03146705 0.9932312 -0.50425744
0.66616213 0.054608956 -0.53510034 0.27002153 -0.15545143 0.7734708 -0.17322536 0.17179008
0.16477321 0.49517986 -0.48274073 -0.026822869 -0.22149152 -0.37752345 -0.07249261 0.10832531
-0.583095 -0.030676195 -0.6845365 -0.3517308 -0.36432508 0.5908559 -0.08614274 -0.22168912
0.15108563 0.5838374 0.61362004 0.28807765 0.2041758 0.1723198 0.40786335 0.16012691
-0.51805586 0.051606584 -0.0190038 0.52562594 0.34714 -0.3964911 -0.21024361 0.1750297
0.17145602 0.4407102 0.8124271 -0.12822142 0.17608286 0.5169417 -0.13277772 -0.25668868
-0.17604102 0.4890393 0.2818477 -0.4190635 0.1245438 0.36229518 0.28851357 -0.063775405
0.27531746 -0.12614705 0.054764584 0.2756043 0.3939184 0.49014744 0.43232226 -0.006710862
-0.5330957 -0.06453575 0.6614176 -0.36204696 0.46463123 0.53080064 0.09200573 -0.36023363
0.32698363 -0.0028634921 -0.6186374 0.052337646 -0.31544527 -0.2730897 -0.19806594 -0.82205427
0.15716624 -0.2191651 -0.6934793 -0.05851494 0.17135839 0.36340398 -0.16482097 -0.41106525
-0.04983036 0.1109015 -0.2903757 -0.1764607 -0.18306768 0.59295434 -0.20511752 0.14623441
-0.29682878 0.27127397 -0.09155724 0.02699019 -0.14162788 -0.30220687 -0.051931873 -0.4272672
-0.24338062 -0.264394 1.0862895 -0.6212387 0.04483033 -0.35584852 0.40243447 0.31627738
0.5354436 -0.43307805 0.01181066 0.58772725 0.015919637 -0.632624 0.032262895 -0.43775034
0.027746867 0.6361462 0.054793634 0.7296163 0.63359684 -0.16426475 -0.18182775 -0.15411015
-0.4792319 -0.7092584 -0.050127987 -0.61192787 0.40602615 0.5831774 -0.38818467 0.08836047
0.23189774 0.50041306 0.07614503 -0.4423743 -0.32129562 0.48002595 -0.426386 -0.08666045

network_body._body_endoder.seq_layers.2.bias f4 [128]
00000000: 932f 243d c77a 223b d29e 3a3d 3d70 7a3d
00000010: fd99 45bb 2a82 1fbc e09a 293d f6a6 433d
00000020: 014b 883b d584 4e3d bc78 aa3b a192 7bbb
00000030: 608f 4f3b 5ee4 433c 2b08 3dba 9584 21bc
00000040: 0552 a5ba 04a7 f2ba 8b18 ce3d a112 0e3c
00000050: 9531 363d dd3e b13d 1bd4 bd3a caa7 ad3d
00000060: 7cfb 473d d2f7 aabc 2912 873d 22f8 b83b
00000070: a116 c03d bc39 953c b64d 863d 01ef 353d
00000080: 6c8e 243d 80f0 503d 8bd2 233d ea63 86bc
00000090: f3e9 8b3d 28f9 a13d 26cc f03c 9b00 7d3d
000000a0: 05c8 d33b cc0c 913d 5add 6c3d 5e49 363d
000000b0: 3136 cf3c 7df4 523d 87ae aa39 b4ea 8e3c
000000c0: 1ced d33c dc06 4f3b fd23 80bb c6ac cdbb
000000d0: a546 2f3d 0a93 9a3d c018 493d b4d2 933c
000000e0: fa17 ab3d 1df5 6b3d 8e18 bcbb dee0 413b
000000f0: ff8e 5dbb fb1a 9cba 11de 413c 7072 533d
00000100: 39b6 183c b69b c73d 97c9 a03d e14d ef3d
00000110: c73f e83b b46a 213c 661c 16bc 7e78 7b3d
00000120: ac75 803d 6168 fc3c 4fa9 e03c dc51 c93d
00000130: c1cc 523d afa6 893d ec4c d13c f199 153d
00000140: 9afd ce3d dea8 2a3d b8c4 803d f327 4fbc
00000150: f546 f73c 77fc 7d3b e8bf b83c 1038 f53c
00000160: 2675 203d cdc1 a33c 27d6 693c e183 6f3d
00000170: 00fa 053d 2454 443d f498 27bc 9e7b 843c
00000180: 9031 183d eb09 763c 2450 0a3d a5c7 773c
00000190: 70cc 5a3d bb0c e13c 5360 433d aae0 933d
000001a0: e34d 963d e01f 503c e5ca f23c 3d4b 3f3d
000001b0: 2fb9 a53d a599 8e3c db74 983c e2e9 423c
000001c0: 3f43 a43d 64bf a93d cbe1 0d3d 5a87 e53c
000001d0: fe79 e53c 3c89 6b3d 2f38 3d3d 7c8b a7bc
000001e0: 9898 e33c 95c3 193c a323 413d 3b46 273d
000001f0: 6a98 e33d 66f5 c13d 0dae 0c3e 0479 133d
0.040084433 0.002479242 0.04556162 0.061142195 -0.0030151599 -0.009735623 0.041407466 0.04776665
0.004159332 0.050419647 0.005202381 -0.0038386958 0.0031671152 0.011956302 -0.0007210995 -0.00985827
-0.0012612945 -0.0018512909 0.10063275 0.008671434 0.04448088 0.08654568 0.0014482768 0.08479269
0.04882382 -0.020870123 0.06595261 0.005644814 0.09379316 0.018216006 0.06557791 0.044417385
0.040174887 0.05101061 0.03999571 -0.016405065 0.06831732 0.07908851 0.02939422 0.061768156
0.006463053 0.07082519 0.057828285 0.044503562 0.025294395 0.051502693 0.0003255496 0.0174459
0.025869898 0.0031589782 -0.00391054 -0.0062766997 0.04279198 0.07547577 0.04909587 0.018044807
0.083541825 0.057606805 -0.005740232 0.0029583494 -0.0033807156 -0.0011909896 0.01183273 0.051622808
0.009320789 0.097464964 0.0785095 0.11684776 0.007087681 0.0098521 -0.009162044 0.061394207
0.06272444 0.03081149 0.027424483 0.098300666 0.0514648 0.067212455 0.025549375 0.036523763
0.101069644 0.04166495 0.06287521 -0.012643802 0.030185202 0.0038755217 0.022552446 0.02993396
0.03917422 0.019989872 0.014272249 0.05847538 0.03270912 0.047931805 -0.010229338 0.016172227
0.03715664 0.015017013 0.033767834 0.015123283 0.053417623 0.02747189 0.047699284 0.07220586
0.073390745 0.012702912 0.029637763 0.046702612 0.080919616 0.017407248 0.018610409 0.011896582
0.08020639 0.08288458 0.03463916 0.028018642 0.028012272 0.057503924 0.04619616 -0.020452254
0.027782723 0.009385009 0.047153126 0.04083846 0.11113055 0.09470634 0.1373827 0.03600408

network_body._body_endoder.seq_layers.2.weight f4 [128, 128]
00000000: a0d2 6f3c 678d 843d 3dad 89bc b76e ca3d
00000010: 426c 3b3d 6907 d4bc 8138 e9bd a70b 4e3c
00000020: b8f4 ffbd c7ec 9d3d d9af 583e aa93 d13c
00000030: 4bd9 9bbc 5d8b a93d 8a81 cf3c b2c0 5b3d
00000040: 5a1e 383d 6a33 b03d c127 c9bd c19c 273d
00000050: 57ec 58bc 9795 843c ca0d 253e e0d8 63bc
00000060: fd77 143c f433 e43a fa35 15be 5f0b 343d
00000070: af17 b9bb 7726 a93c 0f9e 9e3d 957c 8dbc
00000080: 1b19 fdbd 0971 ba3d f0c7 0cbe 4daa 133d
00000090: 125b 153e 75d9 863b e1b2 09be 4a16 273e
000000a0: 8f69 01bd c0c4 f53d 8584 f2bc a8d1 f53d
000000b0: 1edf 58be 3897 1f3d dafd a93d 78cd eb3d
000000c0: 1606 053d 833a 993d 43c8 a2bd 80b3 ec3d
000000d0: 5b59 8e3c 5cf6 eabc 371e 863d e132 acbd
000000e0: 0b56 1bbb 8835 f13d 98f4 5fbe 5e06 9b3d
000000f0: e717 8f3e e4fc 523d af97 d43d 8061 2d3d
00000100: 1b8f bebc f31b a23d 8782 35be c037 b83c
00000110: e9e6 9fbd ff2a 98bc 25c1 d8bb 5405 96bd
00000120: e852 973d 18d0 cebd 6fd7 f1bc 4d06 9bbd
00000130: 1524 f5bd d126 7a3e 479c cebc 9af4 673d
00000140: 7f88 863c 556f 05bd 2cc0 21bd 18a0 c4bd
00000150: 3fb0 a4bd 83c8 48bc a8a3 13be 04b8 033c
00000160: 712c 1d3d 6034 5bbd bb0f f23c 6db1 033e
00000170: 83b4 22be 86c1 2a3b 96b2 a63d 7c52 3f3d
00000180: 9262 843d 74c1 36bd 783d 823d 46f6 02be
00000190: 4838 2d3e 9b21 4dbd 2f71 8a3d 33ae fa3d
000001a0: ada8 10bd 0b84 8f3d a5c5 893d b123 dcbd
000001b0: cf3f 8fbd 9a5c b0b9 be88 bd3b 5f12 263e
000001c0: 4fbd 813d fb1d 683d 612e f4bd cd3e 803c
000001d0: 78d4 463d 3aba e3bc c04a 683c 4384 4ebd
000001e0: be49 163d 8b86 e03d 1414 0bbd 030e 90bd
000001f0: ba64 6cbd 9bdf d13d dda9 cdbd 54d9 5d3c
00000200: fb20 e4bd 248e c53c 2fe9 febd 0230 9f3c
00000210: b0d9 fdbd 410d a93c 9cc5 c4bc f507 f0bd
00000220: f3ff 88ba 19fa f93a 0105 c9bb 8e44 08be
00000230: a2b3 e83c 99a9 a3bd 975f 94bd 3b44 bebd
00000240: 4d2a bebd f2d2 023e 26fc 133c e3c7 23bd
00000250: 3856 2cbd 03bc 0b3e 49f2 2b3d ccb1 a5bc
00000260: 43d9 e9bd acac dbbd c53a 3fbc 2952 5c3d
00000270: 66b2 7d3d 4936 84bd a220 e33c 192b 743d
00000280: 2a88 a23d f675 f73d 8dba bfbc dbf7 bbbd
00000290: 48be 993c 523f 7fbc 0e08 3dbd fcb3 d6bc
000002a0: 0395 cabd 0d32 dbbd 2c95 003e a597 82bd
000002b0: dccb debd 5641 073e fe91 fdbc c56a 493d
000002c0: b758 d43d 5388 a83d 4e34 4c3d 066c 6c3d
000002d0: 35e9 17be ba6f a2bc c065 9e3d 86e3 c33d
000002e0: 6788 97bd 77f1 d33d 7699 cd3d 8cf8 f93d
000002f0: 2ffc 8d3d 6e6d 63bd a0ea ddbc b9e0 02be
00000300: b581 1a3e c424 4a3c 4ca8 973e 2e80 553c
00000310: bbfc c3bd d6b6 1d3c 34e4 8e3d 4fa0 8cbc
00000320: 8c5d f33d 967f a7bd f876 b33d b3e4 02be
00000330: 6ac7 38bc 4d63 64be 559a 9d3d 7bbf ffbb
00000340: 88dc 263d 1fce 2abe eaaa d2bd 0e37 6cbd
00000350: b372 6ebd cd01 1abe 1d45 d43d 126a 33be
00000360: 8c5d 823d 4394 a53d 2c55 803d cfb9 85bd
00000370: 8f26 ccbd 1ce9 d4bd 68cf 2a3d 88d3 33be
00000380: e123 acbd 2ecf 8fbd 333b 4abe 2af9 32be
00000390: 93e9 a23d adc7 eebb e402 053d 8cb0 7a3d
000003a0: 4832 da3c f631 79bd 743b d6bd 92b7 64bd
000003b0: b46d 2ebe d328 c93b 7261 dd3d 4199 373d
000003c0: e260 883d 2aa5 d4bb a74c 9bbd a4ae ce3d
000003d0: 965e c03d 9aee 823d 3a7f b83b 6c15 63bd
000003e0: 06c4 8a3d 62e6 0d3e 5fd9 7e3d 1b19 64bc
000003f0: 0ad3 7e3d 0bdc 913c 4291 ae3d e755 a23d
0.014637619 0.06472283 -0.01680624 0.098843984 0.04575754 -0.02588244 -0.113877304 0.01257602
-0.12497848 0.07711177 0.2116083 0.025583107 -0.019024512 0.082785346 0.025330324 0.053650565
0.04495082 0.086035565 -0.098220356 0.040920977 -0.013239942 0.016184611 0.16118541 -0.0139066875
0.009061811 0.0017410503 -0.14571372 0.043956157 -0.0056485753 0.020648224 0.07744991 -0.01727132
-0.12358304 0.09103591 -0.13748145 0.036051083 0.14585522 0.0041152784 -0.13447143 0.16317096
-0.03159481 0.12000418 -0.029604206 0.120028794 -0.21178862 0.038962573 0.083003715 0.115137994
0.032476507 0.07481863 -0.07948353 0.115576744 0.017376592 -0.028681926 0.06548732 -0.08408142
-0.0023702409 0.117777884 -0.21870649 0.07569574 0.27947924 0.051510707 0.10380494 0.04232931
-0.023261597 0.07915487 -0.17725573 0.022487521 -0.078077145 -0.01857519 -0.0066148215 -0.07325235
0.0738886 -0.100982845 -0.029521672 -0.07569561 -0.11969773 0.2442887 -0.025221003 0.056629755
0.016422508 -0.032576878 -0.03948991 -0.09600848 -0.08041429 -0.012254837 -0.14417899 0.008039478
0.03837246 -0.053516746 0.029548516 0.12860651 -0.15889172 0.002605529 0.08139531 0.046709523
0.06464113 -0.044618085 0.063593805 -0.12789258 0.16916001 -0.050080877 0.06759869 0.12240257
-0.03531711 0.07007607 0.06727151 -0.10748995 -0.069945924 -0.0003363833 0.005784123 0.16217946
0.06334936 0.056669217 -0.119229086 0.015654946 0.04854247 -0.02779876 0.014177978 -0.050419103
0.03669142 0.10963162 -0.033954695 -0.070339225 -0.057713248 0.102477275 -0.100421645 0.013540585
-0.11139103 0.02411563 -0.1244682 0.019432072 -0.12395036 0.020636203 -0.024020009 -0.11720268
-0.0010452255 0.0019071727 -0.0061346297 -0.13307402 0.028405968 -0.079913326 -0.07244795 -0.09290358
-0.09285412 0.12775782 0.009032285 -0.03998555 -0.042074412 0.1364594 0.041979108 -0.020226382
-0.114183925 -0.10726294 -0.011671727 0.05378929 0.061937712 -0.064556666 0.027725521 0.059611414
0.079361275 0.12083046 -0.023404384 -0.09178134 0.018767491 -0.015579062 -0.04615026 -0.02620887
-0.09891703 -0.10702906 0.12556905 -0.0637658 -0.10878727 0.13208517 -0.030953404 0.04917409
0.103684835 0.08229127 0.04985457 0.057720207 -0.14835055 -0.019828666 0.07734251 0.09564881
-0.073990636 0.1034879 0.10039036 0.1220561 0.06932866 -0.055524282 -0.027089417 -0.12781037
0.15088542 0.012337867 0.29620588 0.013031049 -0.09569689 0.009626111 0.0697712 -0.017166285
0.11883077 -0.08178632 0.08762926 -0.12782554 -0.011278013 -0.22303505 0.07695452 -0.0078048087
0.04073766 -0.16680191 -0.102865055 -0.05766969 -0.058214854 -0.1503975 0.10364745 -0.17520931
0.06365499 0.08084919 0.06266245 -0.06529581 -0.09968292 -0.103960246 0.041701704 -0.17561162
-0.08405281 -0.07021938 -0.19749145 -0.17477861 0.07954707 -0.007286987 0.03247346 0.061203524
0.026635304 -0.060838662 -0.104605585 -0.05583913 -0.17034036 0.0061389 0.10809602 0.04482389
0.06659104 -0.0064894157 -0.0758298 0.10091904 0.09393041 0.06393166 0.005630401 -0.05544035
0.0677567 0.13857415 0.06221902 -0.013922001 0.06221298 0.01780512 0.085237995 0.07926541
