results/DodgeAgentBulletsTest4/Dodge/Dodge-499867.onnx (onnx, 91145 bytes, 9 tensors)

action_model._discrete_distribution.branches.0.bias f4 [3]
000000 e1 4c bb bc 63 13 fc bc ae 39 5a 3d
       -0.022863807 -0.030770963 0.053277664

action_model._discrete_distribution.branches.0.weight f4 [3, 128]
000000 5e 72 73 bc 17 b5 82 3b 7c 6f 56 bb f5 c5 60 39
       -0.01485881 0.0039888727 -0.0032720258 0.0002143605
000010 07 4f 8e 3c f4 6e c4 b9 3f e6 a9 3a d4 81 33 ba
       0.017371668 -0.000374667 0.0012962295 -0.0006847654
000020 68 d5 8e b9 e8 e7 2f 3b a0 17 c8 b9 a7 34 5f 3b
       -0.0002724335 0.0026841108 -0.00038164575 0.0034058483
000030 bc cc 2c 3d 81 8f 8f bc 0d 6d d5 bb ea 44 4e bc
       0.042187437 -0.017524483 -0.006513244 -0.012589673
000040 f1 fd 36 3c c3 93 c6 3c be 33 66 bc 8c 0a 1d bb
       0.011168943 0.02424038 -0.014050422 -0.0023962585
000050 bf 71 c6 b9 4d 20 3d ba 88 ef 98 bb e1 07 a3 3b
       -0.0003785025 -0.0007214591 -0.004667226 0.0049753045
000060 69 9c cd 3b 0a 39 db 39 f4 b6 ae 3c 0e 97 08 3b
       0.006274749 0.00041813432 0.021327473 0.0020841989
000070 f7 ee bf bd 9c 37 3b 3c 96 d4 7c 3d 0e 09 78 bb
       -0.09371751 0.0114268325 0.061726175 -0.0037847194
000080 d1 5a 03 bd e3 8e e7 3c f1 ca e8 ba dd b4 60 bd
       -0.03206903 0.028266376 -0.0017760677 -0.054859985
000090 e8 c4 c7 3b 14 e9 c4 3c 9f 17 03 be 5e 59 86 bd
       0.006096471 0.024036922 -0.1280198 -0.06560014
0000a0 bf 34 03 3c bc 4a 8f 3c 92 7f 0d 3c ee ce 48 3c
       0.008008181 0.01749169 0.008636372 0.012256367
0000b0 f1 36 2c bd d1 a1 bc bc 03 1c 8f bd ac fa e3 bb
       -0.042044584 -0.023026379 -0.06987765 -0.0069573727
0000c0 2d b2 8e 3b 47 1d 02 bd 64 bc 7b 3c 71 5b 12 be
       0.0043547363 -0.031766202 0.01536474 -0.14292695
0000d0 2d 3b 10 bc 3c ca 56 bc b2 f6 8b bb b8 54 c0 bb
       -0.008803171 -0.01310974 -0.0042713517 -0.0058694743
0000e0 e1 33 31 bd d4 6e 45 bd 5c 4c e6 bb 7d 76 83 bd
       -0.043262366 -0.048201397 -0.0070281457 -0.06419084
0000f0 d6 1f 9b bc 0d b5 81 ba fa 59 bf b9 9c dd 86 3b
       -0.018936079 -0.0009895876 -0.00036497397 0.0041157734
000100 d8 f2 95 bb 70 10 4f bc f9 2e 78 3c 99 42 6b bd
       -0.0045760684 -0.012638196 0.015147918 -0.05743656
000110 31 21 2f 3d dc 34 06 3d dc 76 b7 bc 7a 80 ba 3b
       0.042756263 0.032765254 -0.022395544 0.005691585
000120 3d d5 30 bd 78 0a 5a bc b0 17 4d bd 1f 99 19 3b
       -0.04317211 -0.01330816 -0.05007142 0.0023437215
000130 73 8d 9d bd a7 ab 9f bb a2 e2 58 3c e1 ec 67 3b
       -0.07692995 -0.0048727575 0.013237627 0.0035388994
000140 a4 b3 86 bd c6 43 32 bd 6c 37 81 bc 66 9a 01 be
       -0.065772325 -0.043521665 -0.015773498 -0.12656555
000150 34 fd 3c bc 9d b0 40 bc 86 be db bd dc b5 93 3c
       -0.011534978 -0.011760858 -0.10729699 0.018031053
000160 9e b4 10 3d 21 a1 e2 b9 b7 de d7 b9 a9 bb d3 bc
       0.0353285 -0.0004322613 -0.0004117393 -0.02584632
000170 3e 22 4b 3c fd e7 30 3c fc 19 10 3c 47 9f 63 bc
       0.012398301 0.010797498 0.008795258 -0.013892955
000180 ae 39 17 bc 2d c9 22 3c 3e 63 c3 bb e2 39 01 3d
       -0.0092300605 0.009935659 -0.0059627583 0.031549342
000190 b7 00 dd bc a6 10 35 bc d9 4e e2 3b 70 5a c7 3a
       -0.02697788 -0.011051333 0.006906372 0.0015209448
0001a0 b1 41 e4 bd 8d 84 23 be 90 d5 9b bc eb 9a 04 bd
       -0.11145342 -0.15968533 -0.019022733 -0.032374304
0001b0 13 16 89 3c 13 f9 16 bc 8c 55 56 bd f1 33 0a bc
       0.016734159 -0.009214657 -0.052327678 -0.008435235
0001c0 e4 c8 b9 3c 0f c4 9c bb f9 04 ad bc 6b 2b 92 bc
       0.0226788 -0.004784114 -0.021120535 -0.017842969
0001d0 12 b4 a1 3c 12 06 de 3c d6 68 05 bd 86 6c d0 bb
       0.019739185 0.027102504 -0.032570682 -0.0063605933
0001e0 df 8e 8b bb fb 60 61 3c f5 cf 2b bc 2f e8 94 b9
       -0.004258975 0.013756032 -0.010486593 -0.0002840175
0001f0 d5 0b 5a bc 07 02 19 bd de 67 9d bb 84 d9 9a bc
       -0.013308485 -0.03735545 -0.0048036417 -0.018902548
000200 43 0c d7 bb d7 c5 04 3d 86 38 ce bb 29 4f 3b 3c
       -0.006562741 0.032415237 -0.006293359 0.0114324475
000210 a3 c3 3c 3d 7f 00 9f bc 4c d3 e7 bb f8 e8 82 3c
       0.04608501 -0.019409416 -0.007074749 0.015980229
000220 b0 34 3a 3c 4a d9 f7 ba cf 1e 39 bb 5b 3c 3d 3c
       0.011365101 -0.0018909362 -0.0028247123 0.011550034
000230 6a 7b 5d 3d 39 cf 2a 3c 60 ae 13 3c dd a9 ba 39
       0.054072775 0.010425382 0.009013742 0.00035603243
000240 fb db 03 3c 38 1b 30 3d 16 64 c1 3b 07 f4 95 3b
       0.008048053 0.042994708 0.0059018238 0.0045762095
000250 29 c2 97 3b c5 bd 73 3a 9d 0d c9 bb af 3d 60 3b
       0.0046313 0.0009297992 -0.006135656 0.0034216454
000260 d3 9a 86 3c 5f db 96 3c 6c 89 57 3c c0 77 db 3b
       0.016431248 0.018415151 0.0131553225 0.006697625
000270 24 43 be 3d fb da 9f 3a 6f 4a 22 bd eb aa d6 bb
       0.0929015 0.0012195999 -0.039621767 -0.0065511367
000280 c1 ff 29 3d 66 72 b4 3c 3c a0 4e bc 21 42 41 3d
       0.04150367 0.022027206 -0.012611445 0.047182206
000290 3e 0e ea ba a4 52 11 3c 65 a1 35 3e 84 e3 2c 3d
       -0.0017857028 0.008869801 0.17737348 0.042209163
0002a0 d1 b1 17 bb 8f 91 12 3d bb 6e a1 3d 8d e2 ac 3d
       -0.0023146758 0.035783347 0.07882448 0.08441649
0002b0 39 1c c3 3c 8c dd c3 3d 7b f5 ad 3d 28 ed 21 3c
       0.023817169 0.09563741 0.08494087 0.009883203
0002c0 5f 04 e2 3b 34 f9 4c 3c fa e3 ea 3c 14 33 1b 3e
       0.0068974937 0.0125105865 0.02867316 0.15156204
0002d0 60 19 54 3c 36 27 74 3d ff b9 6f bb 28 e6 1c bb
       0.012945503 0.059607707 -0.0036579368 -0.0023940895
0002e0 fc 7c bf 3d 70 fd 9c 3c a3 cd c6 3c f9 f2 63 3d
       0.09350011 0.019163817 0.024267977 0.05565164
0002f0 34 54 79 b8 72 2e 99 ba e2 ae 0d 3b a0 1f f9 3b
       -5.9444646e-05 -0.0011686815 0.002161913 0.007602647
000300 c9 ee ad 3b 30 54 2e 39 2f 21 19 3b b6 3c 74 3d
       0.0053080064 0.00016625295 0.0023365726 0.05962821
000310 a1 31 21 3d c6 42 f5 bd ba 63 5d bb 82 6a 60 3d
       0.03935397 -0.11975627 -0.0033781365 0.054789074
000320 5e 2b 83 3d a1 57 d0 3c ef 96 c5 3d a4 ad 34 3d
       0.06404756 0.02543241 0.09647929 0.04411091
000330 7d ef c9 3c 5c 67 24 3c 1a 4c 82 3c 70 ef 05 3c
       0.02465033 0.010034408 0.015905429 0.008174762
000340 bd 12 71 3d 4c d9 d6 3d d3 c6 53 3c cc 65 af 3d
       0.05885576 0.10490665 0.012925821 0.08564338
000350 32 dc 6d 3c 02 41 49 3d bd 9f b0 3d fa c6 a1 bc
       0.014517831 0.049134262 0.08624218 -0.0197482
000360 2b 71 31 bb 16 91 80 bb d2 2e cc 3b 33 67 1d 3d
       -0.002707551 -0.0039235456 0.0062311674 0.038428497
000370 06 fb 8f 3b fe a4 8a 3a 6c 08 ab 3c ef 7f 98 3c
       0.004393938 0.0010577736 0.02087804 0.018615691
000380 58 1c 57 3d 70 e6 86 3c e3 74 56 bb fd 32 10 3d
       0.052517265 0.016467303 -0.0032723479 0.035204876
000390 54 32 c8 3d 25 44 5d 3c ea 13 31 bb f5 88 b8 bb
       0.09775224 0.013505016 -0.0027019926 -0.005631561
0003a0 ae 8e aa 3d 52 c1 bd 3d 71 4c 63 3d cb fb 7d 3d
       0.08327995 0.092653885 0.055492822 0.062007707
0003b0 e4 e7 7a 3c b4 e1 78 3c 96 c6 8d 3d 94 16 4e bc
       0.015314076 0.015190531 0.06922643 -0.012578625
0003c0 5b 73 39 3d 73 d0 77 3a f2 d0 c9 3b e0 bc 09 3d
       0.045276027 0.00094533636 0.0061589414 0.03362739
0003d0 15 82 cc 3b 67 46 1e 3d 88 e6 95 3c e2 13 ed 3b
       0.006241093 0.03864136 0.018298402 0.007235036
0003e0 5d 19 a8 3a 1e 3d 8b bc 5c f4 47 3b 0f 66 6b bb
       0.0012824942 -0.016996916 0.003051064 -0.0035918986
0003f0 0c d1 9d 3c 3b 03 65 3c 69 6c f5 ba e6 b5 4f bb
       0.01926472 0.013977821 -0.0018724325 -0.0031694113

action_model._discrete_distribution.branches.1.bias f4 [3]
000000 8f bf 27 bd 07 c4 ba 3d 0c dc 94 bd
       -0.04095417 0.091194205 -0.07268533

action_model._discrete_distribution.branches.1.weight f4 [3, 128]
000000 20 73 5a bd 55 08 77 3c 7e 17 32 3c bd e2 90 bb
       -0.053332448 0.01507767 0.010869859 -0.0044215606
000010 97 96 42 3d c0 82 fc bc e8 99 25 bb 18 56 ca bc
       0.047506895 -0.030824065 -0.0025268737 -0.024699256
000020 ac 00 74 b9 45 fb 80 3a 42 a6 82 bc 93 64 38 ba
       -0.00023269904 0.0009840509 -0.015948419 -0.00070340297
000030 36 ec 33 3d 14 a8 18 bd bd f1 e1 3c 95 9a 55 bc
       0.04392644 -0.037269667 0.02758109 -0.0130373435
000040 ce c5 0d 3a cb 7c 7b bb 31 97 4c 3b dc 1d 1e 3b
       0.00054081983 -0.0038373943 0.0031218047 0.0024126684
000050 22 e0 c3 bb 64 22 b4 bc ca b1 91 b9 20 e9 d1 3b
       -0.0059776464 -0.021989055 -0.00027789018 0.0064059645
000060 c3 8c 61 bb c6 51 24 3b 1a 69 9c 3c a0 5f af bc
       -0.0034416176 0.0025073155 0.019093085 -0.021407902
000070 aa d8 02 be 69 3f 4d 3c 87 a3 82 bd d2 d4 d2 3b
       -0.12777963 0.012527325 -0.063788466 0.0064340616
000080 aa e8 ee bc d9 b7 b3 3b 03 7a ad bb 09 ce b1 bb
       -0.029163677 0.005484563 -0.005294086 -0.0054261726
000090 c1 48 3c bc e9 87 cd 3c d5 c3 81 bd 50 4f 22 3d
       -0.011491955 0.025089221 -0.0633618 0.03962642
0000a0 7a 44 2c 3c d3 b7 85 bd 35 6b 81 3c 05 68 b2 bd
       0.010514373 -0.06529202 0.01579819 -0.087112464
0000b0 7a a7 bf 3b 66 72 2d 3d 76 e3 85 bb 7a 8f a8 bb
       0.005848822 0.042345427 -0.0040859533 -0.005144057
0000c0 d9 3b 0e 3c 6a bd 30 3c 3b af b5 3b 74 ab bc 3d
       0.008681261 0.010787347 0.0055445707 0.092123896
0000d0 17 83 86 bc ca 5c 26 3c c9 d2 a0 bb 65 3b 78 3c
       -0.01641993 0.010153959 -0.00490794 0.0151508795
0000e0 66 eb 89 3d 03 6d 13 bd f0 de b8 3b e7 c8 5e 3c
       0.06734352 -0.035992634 0.0056418106 0.013597704
0000f0 42 f5 eb 3a 7e 0a 53 3b 05 0d 88 3b ce 34 ae bc
       0.001800217 0.0032202299 0.0041519427 -0.021265414
000100 97 b5 5e 3c ca 50 6c bb e8 ec fe 3b ad b1 78 bc
       0.013593099 -0.0036058896 0.0077797063 -0.01517908
000110 d4 62 f9 bc df be a2 bd 2d ab 29 bd 60 cb 89 bd
       -0.030442633 -0.07946562 -0.04142301 -0.06728244
000120 fd 42 e6 bc 89 29 d9 bc d5 d4 b9 bb 18 74 47 3c
       -0.028108114 -0.026509063 -0.0056711235 0.012173675
000130 16 1e e5 bd dd f9 65 3c 66 66 06 bc 53 86 1e 3c
       -0.11187379 0.014036623 -0.008203125 0.00967558
000140 68 1d 82 3b 30 28 a6 bb 69 8b 1c bc 67 79 85 ba
       0.0039707907 -0.0050707087 -0.009554722 -0.0010183275
000150 36 5a 25 bb 1f b5 4e bd 5d de 7e bd 35 9b 80 3d
       -0.0025230772 -0.0504657 -0.06222378 0.062796034
000160 fe 44 b1 3c 0a d2 72 bb 30 b5 d8 bb 1a 04 18 bc
       0.021639343 -0.0037051463 -0.006613396 -0.009278322
000170 a3 07 0e bc a8 a1 c2 bb 0b 1e c5 bc fa 05 9c bc
       -0.008668813 -0.005939681 -0.024062177 -0.019045819
000180 3c c4 c3 3c 13 f1 ce 3c 73 f8 20 3c ff f9 87 3d
       0.023897283 0.025261438 0.00982486 0.0663948
000190 2e 46 5a 3b f9 46 a3 3b 57 24 02 bc fa 66 07 bb
       0.003330599 0.004982826 -0.007943234 -0.0020660744
0001a0 db d0 a7 3b 40 5e a1 3c c5 ed 1d 3d 95 ee 23 3c
       0.005121333 0.019698262 0.038556833 0.010005613
0001b0 90 c2 aa 3b bc f8 0a bc 90 79 db 3c c6 87 50 3b
       0.005211182 -0.008482154 0.026791364 0.0031819209
0001c0 dc 6e 6a 3a 4b 87 e3 bc a2 7b d1 bb 2d 08 64 bd
       0.0008942911 -0.027774474 -0.006392912 -0.05567186
0001d0 4f 10 cf 3c 52 d3 9a bc ca d5 4a 3c be 5b 6d bc
       0.025276331 -0.018899594 0.012380073 -0.014487205
0001e0 8f 73 18 bc 58 49 23 3d f0 79 54 bc e3 d1 05 3c
       -0.009304895 0.039864868 -0.012968525 0.008167717
0001f0 9c ac c8 3a 9e 12 cc bc 75 3a 87 bc df 6f 7a bb
       0.0015310231 -0.024911221 -0.016507367 -0.0038213653
000200 44 88 03 3d 1d 98 3b bc f5 5e 0e bc 45 fe 86 bb
       0.032112375 -0.011449841 -0.008689632 -0.0041196668
000210 86 c7 83 bc 76 4a ae bc 4c 0c 4a bc 83 45 fc bb
       -0.016086351 -0.02127574 -0.012332033 -0.007698716
000220 9e 65 4f 3c ea c6 1b 3c 8d 62 08 3b 25 2d d1 3b
       0.012658505 0.009507874 0.0020810694 0.0063835555
000230 d2 d0 9e bc dd c8 24 3c 7a 05 5a 3c fe 39 ab bb
       -0.019386683 0.010057655 0.01330697 -0.005225419
000240 09 bb c2 bb f0 99 4b bd 34 78 5c 3c 80 28 a8 ba
       -0.0059427065 -0.049707353 0.013456393 -0.0012829453
000250 86 95 5c 3b 35 ce f6 3b a6 96 e6 3c c6 0f fc 3b
       0.003365846 0.007531906 0.028148007 0.00769231
000260 08 8d 40 3c d9 23 11 ba 30 c2 8a bc 42 e8 8b 3c
       0.0117523745 -0.0005536653 -0.016938299 0.017078523
000270 5f f8 bf 3c 0e f4 e9 3b ed ee 33 3d b6 cf b0 bb
       0.023433862 0.0071396893 0.04392903 -0.005395855
000280 2f 35 a5 bc bf 68 a6 3b 73 ae b8 bc fc 5a cd bc
       -0.020166961 0.0050784047 -0.022544121 -0.025067799
000290 22 0b 55 ba f5 d0 4f bc 6e f5 2f 3c 91 9c b9 bc
       -0.0008126964 -0.012684097 0.010739667 -0.022657664
0002a0 4d 05 c8 3b 31 0b a1 3c df 34 50 bc f8 34 e1 bc
       0.0061041475 0.019658657 -0.012707918 -0.027491078
0002b0 5f 0c cc 3c a6 73 d6 3b 0e 90 59 3d 72 22 95 bb
       0.024908243 0.006544548 0.053115897 -0.0045512253
0002c0 d4 d4 21 3c 79 84 54 bc 14 d1 fb bb 6c 9d 16 be
       0.009877402 -0.012971037 -0.007684836 -0.14708489
0002d0 e8 63 0c 3c 6c 88 e3 3c 5c f4 df bb 86 a5 4e bd
       0.008568741 0.027775012 -0.00683455 -0.050450824
0002e0 3b 2e 2c bd e1 e1 60 3c 89 c6 8a 3c 0a 1b 50 3c
       -0.042036276 0.013725729 0.016940372 0.012701759
0002f0 92 94 dc 3c 01 83 a0 3c 87 c4 f6 3b 18 62 e4 bb
       0.026926313 0.019593718 0.007530752 -0.0069697015
000300 ca 72 48 3c 47 63 9f 3c 6f 92 34 bc fc 78 5f 3d
       0.012234399 0.019456519 -0.011021241 0.05455874
000310 17 4b bc 3c 7d 2d 8f 3c 91 2a 63 3c 7c 1b 8b bc
       0.022985024 0.017477745 0.013865129 -0.016980879
000320 36 3e ba bc 14 43 83 3b 00 84 d9 bc d3 22 e2 bc
       -0.022734743 0.004005799 -0.0265522 -0.027604496
000330 5a 3d 18 bc 10 ed b3 3c 8d 5f cd 3c 10 47 a9 ba
       -0.009291971 0.021963626 0.025069976 -0.0012914855
000340 4c 59 99 3c c7 84 61 bb 7e cf 5f bc 15 2b bb 3b
       0.018719338 -0.0034411417 -0.01366031 0.005711923
000350 9f d1 47 3c 2f b6 59 bd db 36 31 bc 90 71 5a bc
       0.012195974 -0.05315226 -0.010816301 -0.0133327395
000360 44 ce 1a bd 55 95 3f 3b d7 7a 8b 3c 28 c4 5f 3c
       -0.037794366 0.0029233296 0.017026348 0.013657607
000370 44 19 2d 3a f9 cd cb 3a dc fe a3 3a c5 15 14 3c
       0.0006603191 0.0015549056 0.0012511867 0.009038393
000380 51 0a 8f bd c0 de 44 3d 28 a0 84 3b 69 63 8f bd
       -0.069843896 0.048063993 0.0040474124 -0.07001383
000390 4e ec 29 bc 9b 2e 2b 3a 45 7f b1 bb 06 03 fc b9
       -0.010371281 0.0006530077 -0.005416783 -0.00048067438
0003a0 cd 66 b6 3c c6 4b 92 3d de a4 a0 bd 75 5f 64 bc
       0.022265816 0.07143359 -0.07843946 -0.013938774
0003b0 54 d5 1b bc f3 91 4b 3c c8 7d 0c 3d 77 65 43 3c
       -0.009511311 0.012424934 0.03429964 0.011926047
0003c0 81 9e 71 bc 36 82 a8 bb ef 81 e7 3b b3 f1 71 3c
       -0.014747263 -0.0051424755 0.00706505 0.014767098
0003d0 0d 10 b8 ba d9 77 bf 3c b5 6d d8 bb fb 0b f2 38
       -0.001404287 0.023372578 -0.006604875 0.00011541691
0003e0 9b ce 67 3c 42 f9 00 bd 69 0f a8 3c e4 be 81 3c
       0.01414838 -0.03148771 0.02051516 0.015838094
0003f0 a5 59 e7 3b 39 ad 82 bc e6 a4 7d 3c 89 d2 b7 bb
       0.007060247 -0.01595174 0.015481209 -0.0056098145

discrete_action_output_shape f4 [1, 2]
000000 00 00 40 40 00 00 40 40
       3.0 3.0

network_body._body_endoder.seq_layers.0.bias f4 [128]
000000 ef d9 0f 3d fc c2 8a bc 6b 8d ad 3c fa 4f 9b bc
       0.035119947 -0.016938679 0.021185597 -0.018959034
000010 00 44 26 3d f6 8b 3f 3d db 52 11 3d f2 72 c1 3b
       0.040592194 0.046764337 0.035479408 0.005903595
000020 54 97 22 3d 6f 4d b8 bd f0 ea ca 3d 9e 3d e0 bd
       0.0396951 -0.08999144 0.09908092 -0.109492525
000030 76 7b d2 bc 88 28 73 bd 52 53 db bd 10 2a a7 bb
       -0.025693636 -0.059364825 -0.107092515 -0.00510145
000040 45 89 6d 3d f9 fe c1 3d ae 1a 51 3d 3b c6 ca 3b
       0.05799224 0.0947246 0.051050834 0.0061881817
000050 91 90 1b 3d 4a a8 49 3d 1d 2e 3d 3c 49 0a ce 3d
       0.037979666 0.04923276 0.011546639 0.100605555
000060 3c e4 ba 3c a5 30 ac 3d ff 7b 03 bd 8b 45 a1 3d
       0.022813909 0.08407716 -0.032100674 0.078745924
000070 b7 29 ff 3c ad 13 a2 bc 89 7e d0 bc 29 b7 39 3c
       0.03114782 -0.019784773 -0.025450962 0.011335173
000080 67 02 97 3b 82 35 68 3d 8f f0 63 3d 91 d8 d0 3c
       0.0046084407 0.056691654 0.055649336 0.025493892
000090 19 42 79 3b ea f4 44 3d e3 35 ca 3c 00 c8 f9 3d
       0.0038033782 0.04808513 0.024683898 0.1219635
0000a0 da 1e 89 3c 08 68 49 3d 89 e5 2c 3d 1b 1b cd bc
       0.016738344 0.049171478 0.04221109 -0.025037339
0000b0 86 81 85 bd 4e 67 64 bd 88 95 10 bc 43 7c f4 bc
       -0.06518845 -0.05576258 -0.0088247135 -0.029844409
0000c0 bf 32 46 bd f8 22 89 bd 9b 0e 34 3d 59 e5 cf bd
       -0.04838824 -0.06696123 0.04395924 -0.101511665
0000d0 01 d9 bf 3d 3a 7b 64 bd 82 9a 10 bc 83 a6 9b 3c
       0.09367562 -0.05578158 -0.0088259 0.019000297
0000e0 35 c3 fd ba 71 f5 c3 3d f9 49 a1 bc bf 31 f2 bd
       -0.0019360544 0.095682986 -0.019688593 -0.118258946
0000f0 d8 3f e1 3c ff c1 87 bc 8b 99 0c bd db f0 03 3d
       0.027496263 -0.016571997 -0.034326117 0.03221212
000100 d2 dc f8 3c 07 88 2e bd 8e bb 42 bd 43 bb 8f 3d
       0.030378733 -0.042610195 -0.047542147 0.07018139
000110 77 45 9e bc 3e 7d bc 3d 06 3a b4 bd d6 80 75 bd
       -0.019320233 0.092035756 -0.088001296 -0.05993732
000120 c0 ad 93 bd 48 71 6e 3d 6a 4e ca bd a1 11 d0 bd
       -0.072108746 0.058213502 -0.098782375 -0.101596124
000130 61 45 60 3d 78 ab d6 bd 58 25 60 3c 7c 2c 70 3c
       0.054753665 -0.10481924 0.013680778 0.014659043
000140 99 74 e8 3c 2a 5b 18 be 84 ef 74 3d ac de d0 bd
       0.02837591 -0.14878526 0.059798732 -0.10198721
000150 41 59 c6 3c 77 80 00 3d 2b 7c 32 3d 38 ab b5 bc
       0.024212481 0.031372514 0.043575447 -0.02217637
000160 38 8e c7 3d cb 95 4b 3b 72 64 f4 3c 47 d0 d8 bc
       0.09743923 0.0031064625 0.029833052 -0.026466502
000170 c1 5e 02 bd 3b 33 4d bd a1 24 1b 3d 7b f2 11 3d
       -0.031828646 -0.050097685 0.03787673 0.035631638
000180 60 1c 84 bd 99 8e 35 3d 46 68 db 3c f4 2d 16 3c
       -0.064507246 0.044325445 0.02678312 0.0091662295
000190 61 58 9f 3d 4f fb 32 bd 7a ce 37 3d 38 d3 cc 3d
       0.07780529 -0.043696698 0.044874646 0.10001224
0001a0 ef 40 dc 3d e3 e4 9f 3d 2d 97 11 3e 72 94 96 bb
       0.107545726 0.078073286 0.14217825 -0.004595333
0001b0 96 89 c9 bd 85 b1 18 3d 5e 29 c4 3d 5c 39 ad bc
       -0.098406956 0.03727867 0.09578203 -0.021145515
0001c0 1c 02 9b bd 11 65 a0 bd 2a e7 d2 bb ef ec 8c 3d
       -0.07568762 -0.07831777 -0.0064362483 0.06881129
0001d0 94 82 e9 bb 59 8c c8 bc 2d 8c e3 3c 99 4e aa bd
       -0.007126162 -0.024480985 0.027776802 -0.083157726
0001e0 36 f8 c7 ba 34 7c 6d 3b 0e a8 46 bc 10 91 ba ba
       -0.0015256468 0.003623736 -0.012125028 -0.0014233906
0001f0 5a 8d c4 bc a7 b7 14 bd 6a 8b 1d bd 19 0c 08 3d
       -0.023993183 -0.036307957 -0.038463034 0.033214662

network_body._body_endoder.seq_layers.0.weight f4 [128, 36]
000000 d1 56 a5 3d d2 9e 0b 3e 05 50 6f bd 4e 33 e5 3d
       0.080731995 0.13634804 -0.058425922 0.11191426
000010 18 4f 17 bc 03 b8 a7 3d 13 2c 37 be e6 ef 09 be
       -0.009235166 0.08189394 -0.17887907 -0.1347042
000020 75 a9 8a 3d df eb 38 3e ce 7b 06 3e 3c a2 04 3e
       0.067706026 0.18058728 0.13133165 0.12952513
000030 9e 38 e3 3d a4 0a 81 3d 7b 12 63 3e 43 b2 94 bd
       0.11094783 0.06300858 0.22175018 -0.07260563
000040 71 f5 f4 3e b8 68 3b 3e 79 92 2d be 91 f9 af bd
       0.47843507 0.18301666 -0.16950406 -0.08592523
000050 a6 b4 5e bc b7 10 aa 3c 41 a6 b6 3d 84 42 23 bd
       -0.013592875 0.020759923 0.08918429 -0.039858356
000060 b4 8e ad 3d b6 6c 5c be c6 f6 8b 3e fa 66 11 3d
       0.08474484 -0.21525845 0.2733671 0.035498597
000070 c9 16 c3 3e 0f dd cd bd 62 73 09 bd 60 fd 01 bd
       0.3810332 -0.10051929 -0.033557303 -0.031735778
000080 40 c0 5e bd 49 33 15 be 68 e1 32 be 4a 36 a4 bd
       -0.054382563 -0.14570345 -0.17468798 -0.08018167
000090 b2 66 5d be 26 3a 3b 3e 10 40 7f bd 2a 0e 3a bd
       -0.21621206 0.182839 -0.062316954 -0.045423664
0000a0 f8 89 34 3d 6c 2b 5c be ed 22 16 be 87 fd 91 be
       0.04407689 -0.21500939 -0.1466176 -0.2851374
0000b0 00 f9 9a 3d 08 da 98 be 63 73 3b be 69 86 d9 3d
       0.07567024 -0.29853845 -0.18305735 0.1062134
0000c0 cb 87 31 be f3 c8 a0 3c 98 73 64 bd 4b 58 7b 3e
       -0.17336957 0.01962707 -0.0557743 0.245454
0000d0 2e f8 a0 3d a7 9d 0c 3d 1b f1 1e bd b5 c2 5e 3e
       0.078598365 0.034330036 -0.038804155 0.21753962
0000e0 36 8f bf bc c0 d3 0e 3e 38 5b 58 3e 9b f7 ec bd
       -0.023383718 0.13947964 0.21128547 -0.115706645
0000f0 15 cf c7 3a c9 9d 17 3e 0e d1 18 3e f7 f3 97 3d
       0.001524421 0.14806284 0.14923498 0.074195795
000100 aa 03 e1 3d d5 6a 04 3e e6 22 79 3e 9b 05 87 3d
       0.10987027 0.12931378 0.24329719 0.06592866
000110 8a a8 fb 3d a2 eb 4a 3d b6 99 cf 3c 30 82 39 3e
       0.12288006 0.049541123 0.02534185 0.18116069
000120 fa f9 a1 bd 56 47 07 3e 5d c3 3a be 1c 97 20 3e
       -0.07909007 0.13210806 -0.18238588 0.15682644
000130 ce b3 b6 3e 27 88 2c 3e 15 0a 06 be a2 f2 d4 bd
       0.35684055 0.16848813 -0.13089783 -0.10397841
000140 9b 7e 50 3d 3c d6 34 3b 0a 2e 64 3c 8b b8 da 3d
       0.05090199 0.0027593514 0.013926992 0.1067973
000150 25 38 19 3e 86 3a 89 3e b1 a3 2e be e4 24 81 3e
       0.14962824 0.26802462 -0.17054631 0.25223458
000160 56 8d 18 be 9d 47 c1 3e 18 f9 46 bd 43 7f 22 3e
       -0.14897665 0.3774995 -0.048577398 0.15868859
000170 dd 44 3f 3d b2 58 59 3d a3 81 06 bd bd 5e 4e 3e
       0.046696533 0.053063102 -0.032838475 0.20153327
000180 17 a9 47 3e 03 b6 93 3e 2b 94 92 3e a4 8e 2e 3e
       0.19498096 0.288498 0.28628668 0.170466
000190 ea 37 b1 3e 65 6e 26 bd 05 78 14 3e e4 de f9 bd
       0.34612972 -0.040632624 0.14498909 -0.12200716
0001a0 1c 8e eb 3d 3c 33 2c 3e 6e 7d 7d 3d 3d 7a 29 be
       0.115017146 0.1681642 0.061887197 -0.16550536
0001b0 7c b9 68 3e f3 65 2e bd 5f e5 83 3e 88 60 a7 be
       0.22727007 -0.042577695 0.25760934 -0.32690835
0001c0 15 37 52 bd cf 47 01 3d b6 37 2e 3e 13 b7 5a 3e
       -0.05132206 0.031562623 0.1701344 0.213589
0001d0 de f0 27 3c f9 b5 66 3e 9c 1e 35 be 6d 89 2f 3d
       0.010250298 0.22530355 -0.17687458 0.04285567
0001e0 9c 50 81 be 3c 84 b8 bd b5 fe 47 bb 84 6b 2d 3e
       -0.25256813 -0.09009597 -0.0030516807 0.16935545
0001f0 cc a5 3c 3e bc 5a 2e be a8 84 be bd 01 4a 44 3e
       0.18422621 -0.170268 -0.09302646 0.19168855
000200 d0 68 59 be 38 9a 1e bc e8 e2 55 3d 6c 13 ac bd
       -0.21231389 -0.009680323 0.052218348 -0.08402142
000210 d8 ed 18 bc be 36 63 3e 84 d9 0c bd e5 d0 6f 3d
       -0.00933405 0.22188851 -0.034387127 0.058548827
000220 ff ad dd bd 90 fd 84 bd 63 93 8e be b5 fa 18 be
       -0.10824203 -0.06493676 -0.27846822 -0.14939387
000230 a4 bf 68 be dd ae 80 3e 53 d5 1a 3d 14 35 08 3e
       -0.22729355 0.2513341 0.037801098 0.13301498
000240 4f 0e 39 3e bd 4b 7e 3c 06 ca 37 3d 8d 5d 6e bd
       0.18071865 0.015520987 0.0448704 -0.058194686
000250 79 50 5c 3e 5f 97 40 bd 68 07 05 bd e4 97 99 bd
       0.21515073 -0.04701936 -0.032477766 -0.07499674
000260 d9 53 1b be 5c 46 35 3e b3 bb bd 3d 80 5c 61 3d
       -0.15168704 0.17702621 0.092643164 0.055019855
000270 fe 69 8b 3e 8a ba 6a 3e c3 2b b0 3e 70 dc 0c be
       0.27229303 0.22922722 0.34408388 -0.13755965
000280 ac 93 a6 3d c3 15 d6 3d ea 54 02 3e 3c 53 db 3e
       0.08133635 0.104533695 0.12727705 0.4283694
000290 6d ec e9 bc c3 11 26 3e c4 7c 30 3c 96 00 eb 3d
       -0.02855512 0.16217713 0.010771934 0.11474721
0002a0 e4 61 0c 3e 1e 94 cf bb 66 95 02 be ae 23 d7 3d
       0.13709217 -0.0063347956 -0.12752303 0.10504852
0002b0 af 49 b4 3d ff 21 46 3e 15 60 09 3d c5 31 85 3d
       0.088031165 0.19348906 0.033538897 0.065036334
0002c0 1b 11 aa bd 3f 61 8b 3d 9a 0e bd be c6 9b 46 be
       -0.08304044 0.068056576 -0.36925203 -0.1939536
0002d0 30 2b 2f 3e 28 e7 14 be f9 99 03 3e 45 2b d0 bc
       0.17106318 -0.14541304 0.12851705 -0.025411258
0002e0 8a fb 92 3e f1 cc 3c 3e 11 d7 60 bd 49 d1 4f 3e
       0.28707534 0.18437554 -0.054892603 0.2029468
0002f0 19 e3 00 be aa ba 4b 3e 7b 11 aa bc 1a a6 02 be
       -0.12586631 0.19895425 -0.020760288 -0.12758675
000300 f9 63 7a 3e ca 09 43 be 8a 0b 06 be 81 7b 1d be
       0.24452199 -0.19046703 -0.1309034 -0.15379144
000310 f5 2d 5a 3d 79 09 b0 3d 29 5e 1b 3d 3c d2 8e 3e
       0.053266484 0.08595557 0.037931595 0.2789477
000320 1b 31 00 3e da 2c b6 bd 9e c7 0c 3e 6a 4a 6a 3e
       0.12518732 -0.088952735 0.13748023 0.22879949
000330 6e 7e 08 3b b6 66 3d 3e 1b 01 9a bc 60 96 96 3d
       0.002082731 0.18496212 -0.018799355 0.073529005
000340 05 cb 13 3e 67 19 5e be b3 ad af be 32 a0 d9 bd
       0.14432915 -0.21689378 -0.3431221 -0.10626258
000350 7e 3f 15 be 50 c0 c2 3d 77 f7 b5 bd d2 59 39 3d
       -0.14575002 0.09509337 -0.08885091 0.045251675
000360 c3 f1 90 3e ba c0 5d 3e c9 60 d1 bd e6 d3 86 be
       0.2830945 0.2165555 -0.102235384 -0.2633354
000370 f9 7b 0a be d8 9c e8 3c 63 b3 a3 3e 59 08 fa 3e
       -0.13523854 0.028395101 0.319728 0.48834494
000380 db 2e fa 3c 6a 6f be bd 50 cf 1b 3e 16 61 cd bd
       0.03053992 -0.09298594 0.15215802 -0.10028283
000390 c8 5c 81 3b a7 c3 ab be a9 da a6 3d 91 fa b3 bd
       0.003947828 -0.33547708 0.08147175 -0.08788026
0003a0 37 a3 f1 bd 2a b1 ee 3e 83 47 9a bd a6 95 c9 3d
       -0.11798709 0.4661954 -0.07533171 0.09842996
0003b0 d1 c6 ee bd 74 33 01 be 2a 32 8f bc 30 bb 87 bd
       -0.11659015 -0.12617284 -0.017479975 -0.066275
0003c0 33 84 65 3e 63 dc c7 bd 20 cf 34 3e b9 54 e4 bc
       0.22413711 -0.09758832 0.17657137 -0.02787243
0003d0 92 b2 c3 be 64 d6 34 be 02 e4 b2 be 33 51 82 3d
       -0.38222176 -0.17659909 -0.3493958 0.06363144
0003e0 1c b6 30 3e 64 b5 42 bd 54 d6 79 3d c3 04 a7 3d
       0.17256969 -0.04753627 0.060995415 0.08155205
0003f0 83 f8 ff 3d 6a 5b 1a 3c 4c 10 1b 3e 6a ac 75 3e
       0.12498572 0.009421209 0.15142936 0.23991552

network_body._body_endoder.seq_layers.2.bias f4 [128]
000000 18 1e 4d 3d ff 4e 4d 3d 18 88 ef 3a 0b 44 ec 3b
       0.050077528 0.050124165 0.0018274812 0.00721026
000010 ea c7 c3 3c a2 49 2a 3b bb 2c f6 bb 6d 52 0d 3d
       0.023899037 0.002598383 -0.0075126565 0.034502435
000020 87 ee 4f bc 37 f9 0d 3d 82 b7 54 bc eb 7e 33 3c
       -0.012691147 0.034661498 -0.012983205 0.010955553
000030 d8 cd b0 3c 22 5d 0a 3d 59 45 a5 3d 60 fd e1 3a
       0.021582529 0.033780225 0.08069868 0.0017241649
000040 71 c9 f2 bc 4e ab 8e 3d 79 fd 64 3c 73 a2 ac 3c
       -0.02963707 0.069662675 0.013976448 0.021073556
000050 c0 0b 2d bc 18 89 b5 3c 34 4f 35 3d 19 b5 cc 3c
       -0.010561883 0.022160098 0.044264987 0.024988698
000060 59 0b 4c bd 48 fe f6 bc 29 89 40 bd ee c8 4f 3d
       -0.04981551 -0.030150548 -0.047005806 0.05072873
000070 de fe 9b 3d a6 93 a1 3c 5c 13 7c 3c 49 41 57 bc
       0.076169714 0.019723725 0.015385475 -0.013138124
000080 2e 4c 0c 3d 77 31 73 3b 3e 64 f8 ba d9 51 4a 3b
       0.034252338 0.003710834 -0.0018950773 0.003087154
000090 00 56 59 3c 40 d6 74 3b 32 aa 82 3d 25 3f 4a 3d
       0.013265133 0.0037359148 0.063801184 0.049376626
0000a0 12 cb a0 3c b7 ce 6c 3a ba de 08 3d 27 da 32 3d
       0.019628081 0.00090334885 0.033415534 0.043665078
0000b0 37 5b a0 3c 9e 92 bf 3c 51 38 2f 3d b0 b3 76 bd
       0.019574745 0.023385342 0.042778317 -0.060229957
0000c0 c2 a5 4a 3d 47 98 b2 bb 83 b5 9e 3c 1c 7a 20 3e
       0.049474485 -0.005450282 0.01937366 0.15671581
0000d0 17 50 e7 3b 75 fa a2 3c 9a f2 6b bd 59 1d 3a 3d
       0.007059108 0.019894818 -0.05760441 0.045438144
0000e0 c9 84 20 3c 7f 91 95 3d 6d f3 63 3b fe b5 b4 3c
       0.009797283 0.07303142 0.0034782544 0.022059437
0000f0 8e 10 9c 3d 52 88 2e bd a7 3a da 3c d2 e1 b0 bd
       0.07620345 -0.042610474 0.026639296 -0.08636822
000100 6c 0a ff b9 3a 59 2d 3d 92 9e 84 bd fa 8c 17 3d
       -0.00048645155 0.04232142 -0.064755574 0.03699968
000110 9f 23 c6 3b 44 40 9b 3d 31 45 84 3d 3c fb 2c 3c
       0.006046727 0.07580617 0.0645851 0.010557946
000120 8f ff 73 3c 7f d9 92 bc 71 fd d0 3c bd f0 01 3d
       0.014892473 -0.017925976 0.025511475 0.031723727
000130 97 a3 46 3d ec 42 83 3d b6 09 de 3c cc c6 b3 3c
       0.048495855 0.06409249 0.02710424 0.02194538
000140 93 37 39 3c c0 56 68 3b 47 c6 96 3c b2 72 3c bb
       0.011304754 0.0035452098 0.018405093 -0.0028754887
000150 06 05 60 bc 61 e5 89 3c 75 5b 1a 3d bf 59 c3 3d
       -0.013673073 0.01683301 0.037684876 0.09538602
000160 20 07 b0 3c 0a b3 b4 b9 31 91 08 3d 73 29 7c 3c
       0.021487772 -0.0003446567 0.03334159 0.015390742
000170 3f 06 7b 3c e1 ef 90 bc 54 d2 83 bc 48 a5 07 bd
       0.015321313 -0.017692508 -0.016091503 -0.03311661
000180 95 c2 bd 3c 3e b0 8c 3d fb 69 af bc 84 ca 3f 3d
       0.023164073 0.06869553 -0.02141284 0.046823993
000190 4f 50 0d 3c 21 37 ed 3c 0f 59 de 3c b8 1d 8b 3c
       0.008625104 0.028956952 0.027142076 0.016981944
0001a0 ac 83 5d 3d f6 76 8d 3c 77 4f 13 3d aa 8c e0 3b
       0.05408065 0.017268639 0.035964455 0.006852706
0001b0 74 aa 0f 3b c0 6f 36 bc 6f 09 0e 3d 6b 0a c6 3b
       0.0021921666 -0.011135042 0.034676965 0.0060437224
0001c0 ce 9f d1 3c 1b 4e 7d bd 7b 7c d5 3c c4 9e a7 bc
       0.025588896 -0.061842065 0.026060333 -0.020461448
0001d0 f6 cb 1d bd f3 8a 50 3b 97 38 bd 3c 3c d2 5f 3c
       -0.03852459 0.0031821101 0.023098273 0.013660964
0001e0 4d 69 ba 3c 4a 01 0b bd 1b 75 8c 3d f3 da 1a 3d
       0.02275529 -0.033936776 0.068582736 0.037806462
0001f0 f2 0e 19 bc b7 e4 14 3d bb cb 0d bd 45 b1 66 3d
       -0.009341942 0.036350932 -0.03461812 0.0563214

network_body._body_endoder.seq_layers.2.weight f4 [128, 128]
000000 c0 c3 5f bc 60 e3 8e 3d a7 42 49 bd b8 97 cf 3d
       -0.01365751 0.06976962 -0.04913583 0.1013636
000010 38 b0 43 3d 1a 49 bb bd a1 23 b1 bd 88 a8 92 bd
       0.047775477 -0.091448024 -0.08649374 -0.07161051
000020 81 8d 94 bc 0a e1 93 3c 86 f2 84 bd 0b 4c cf 3d
       -0.01813388 0.018051643 -0.0649157 0.10121926
000030 07 38 b8 bd 10 ee 5a 3c 33 18 b0 bd 20 60 3f be
       -0.08995061 0.013362423 -0.08598366 -0.18689013
000040 eb ea 31 3e fa 76 15 bc 6e 94 93 bc 93 99 3e bd
       0.1737477 -0.0091226045 -0.018015113 -0.04653318
000050 b6 27 d5 bd 8a b2 9e 3c 8c db bc bd 5c 50 88 bd
       -0.10407965 0.019372243 -0.09221563 -0.06655952
000060 bb 9f 23 bd f4 f6 a4 3d 41 f6 26 be 9f 0c c2 bc
       -0.039947253 0.08054915 -0.16304876 -0.023687659
000070 01 3a cb 3d 8f 4b 7f 3d 71 c4 01 bd 62 5a f6 bd
       0.09923173 0.062327918 -0.03168148 -0.12028958
000080 48 a3 c8 ba ee 11 76 3d 00 20 6c 3d 6a 78 e9 3b
       -0.0015307451 0.060075693 0.057647705 0.00712495
000090 57 f7 d9 3c 6b a5 ee 3c 72 10 5b bd 1c 58 0b 3d
       0.026607199 0.029131612 -0.05348248 0.034019575
0000a0 2f 33 fa 3c ab c5 39 3e b3 16 02 3d b7 84 57 be
       0.030541984 0.1814181 0.03175993 -0.2104672
0000b0 f3 d2 28 3e 82 b9 e2 bd cc 8f 0a be 83 bb a0 3c
       0.1648672 -0.11070539 -0.13531417 0.019620663
0000c0 8f de d5 bc 81 7c 9a 3d 67 b9 c5 bd b0 b9 c8 3d
       -0.0261071 0.075432785 -0.09654503 0.09801042
0000d0 0c 02 2b 3d 3d 96 61 3d 96 21 1f bd 72 3b d1 bd
       0.04175 0.05507492 -0.03885039 -0.102164164
0000e0 43 11 c3 bd 57 2e be bd f4 40 35 3e 2f ff b5 3d
       -0.09524777 -0.092861824 0.17700559 0.08886563
0000f0 3f ce 07 bd 07 2c 6b bd 0c 1b 3b be 06 2a 24 be
       -0.033155676 -0.057415035 -0.18272036 -0.16031656
000100 5a 9a c3 3c 6c ea 6c bd c6 ec a7 bd b7 cf 20 be
       0.023877311 -0.05784075 -0.08199458 -0.15704237
000110 ad b5 35 bd 22 2e d0 bc 63 51 69 be 33 b5 cf 3c
       -0.044362713 -0.025412623 -0.22784953 0.025354957
000120 ee bf 8c bc ff 11 a3 bd 13 e3 79 3c 95 c0 19 be
       -0.017181363 -0.07962417 0.015251893 -0.1501487
000130 09 ac 6b bd d8 fc 38 3d ed 5c 71 3d ab ec e1 bc
       -0.057537112 0.045163006 0.05892651 -0.027578672
000140 f0 52 62 bd 37 30 28 3c b9 59 c1 3a c5 6a 85 bd
       -0.055254877 0.010265402 0.0014751471 -0.06514505
000150 f6 12 33 be e5 d8 14 bd 6a 9e db bc e6 44 5c be
       -0.17487702 -0.03633966 -0.026808936 -0.21510658
000160 dd 71 77 bd 7a 33 df bd c9 e5 a7 bc af c9 71 bd
       -0.060411323 -0.1089849 -0.020495312 -0.05903023
000170 7e 80 76 bc ef ce ba bc d6 ed 0b be 0a c1 b2 3d
       -0.015045283 -0.022803752 -0.13664946 0.087282255
000180 3f fc 24 be 7f 1d 49 3e 20 9a b9 bd f4 79 d6 3d
       -0.16111849 0.19640158 -0.090626 0.104724795
000190 d0 cf 27 be f0 44 7d 39 eb 61 55 be 43 98 6c 3d
       -0.16387868 0.00024153641 -0.20838134 0.057762396
0001a0 7e cb 03 bd 7c 2e 59 bd e3 cd 38 be 0d 46 84 bd
       -0.032176487 -0.053022847 -0.1804729 -0.064586736
0001b0 96 37 a0 bd f6 1c 2b bd 47 6b 1c be ba 31 73 bd
       -0.07823102 -0.041775666 -0.15275298 -0.059373595
0001c0 62 8d 93 3c f9 c8 91 3c b9 4f 79 be 37 3c 18 3d
       0.018011753 0.017796027 -0.24346818 0.0371668
0001d0 9a ce f0 bc 54 4c 9b bd d5 62 9b bb f1 0d 4e 3d
       -0.02939539 -0.07582918 -0.0047420063 0.050306264
0001e0 66 a9 2f be 2b 58 71 be 00 c2 97 bd 29 80 d9 bd
       -0.17154464 -0.2356879 -0.074100494 -0.10620148
0001f0 a8 72 17 3d c4 02 07 3b 22 1f a5 bc 15 d1 95 bd
       0.03697458 0.0020601014 -0.020156447 -0.0731527
000200 f0 ee 43 3d 42 e7 21 bd a9 57 99 bd 29 e0 2f 3e
       0.04783529 -0.039527185 -0.07487423 0.17175354
000210 36 17 ee 3d 5e 36 31 3d c3 99 6a bd 0e 20 86 3d
       0.11625521 0.04326474 -0.057275545 0.06549083
000220 2a 1f 4d bd 07 77 24 be ea 20 0c bd 0a 97 ab bd
       -0.05007855 -0.1606103 -0.034211077 -0.08378418
000230 e2 a9 45 bc c4 c8 b5 3d c8 72 8b 3d fe 7f 05 39
       -0.012064429 0.08876184 0.06809002 0.00012731549
000240 c5 dc 70 3e 3e 84 1d be 84 0d d0 3c ce c8 0e 3d
       0.23521717 -0.15382478 0.02539707 0.03485947
000250 86 0e 4c be 19 7c b7 3c ea 3a b7 3c 8b 75 e5 3d
       -0.19927415 0.022398042 0.02236696 0.1120406
000260 b3 55 0d ba 87 89 b8 3d 20 45 0e 3e 8d 10 23 be
       -0.00053914933 0.09010606 0.13893557 -0.15924282
000270 8b 56 5c 3d 1e 3c 23 3d 0f c3 d6 bc 4c 66 71 3c
       0.05379347 0.039852254 -0.026216058 0.014733862
000280 30 3d 99 bd 1d c1 50 be 22 ee 70 3d 70 3e 4a bd
       -0.07482374 -0.20386167 0.05882085 -0.04937595
000290 74 ca 8b bd 0f e3 a8 bd 1a f3 2a 3e 49 bf 24 bc
       -0.06825724 -0.08246433 0.16694298 -0.010055372
0002a0 15 a6 7d 3d 8a 7e f7 3c 41 9c 04 bd 54 6b 64 bd
       0.061925966 0.030211706 -0.032375578 -0.05576642
0002b0 ad c4 f8 bd e5 42 af 3c 1a b7 49 bd 81 d4 92 bd
       -0.12146888 0.021394202 -0.049246885 -0.07169438
0002c0 0e 93 ba bd 93 7f 03 bd 9d 0e 5b bc c4 34 e9 bc
       -0.0911008 -0.032104086 -0.013370183 -0.028467543
0002d0 0d d9 0d 3e ac 8d 90 3c e5 92 b5 3d 96 33 ae bd
       0.1385233 0.01764568 0.088659085 -0.08505933
0002e0 7c e6 52 bd ef 2f 46 bc be 13 34 be 12 0d 8d 3b
       -0.05148934 -0.012096389 -0.17585656 0.0043045366
0002f0 d8 ff 0b 3d 78 d5 fb bc c8 b5 87 3c f0 40 a6 bc
       0.03417954 -0.030741438 0.016566172 -0.020294636
000300 c5 db 25 bb 83 d0 a6 3d 76 ec 81 bd 6c 85 28 3e
       -0.0025307995 0.08145239 -0.063439295 0.16457146
000310 2c 4a 9c 3b 42 76 d6 bd de 02 90 3d ae d3 b8 bd
       0.004769584 -0.10471775 0.07031797 -0.0902475
000320 ac 7d b2 bd 31 b5 ab 3d 3e a5 b7 bd ec 95 fc 3d
       -0.08715376 0.08384169 -0.08967064 0.12333283
000330 74 47 99 bc fc a6 ea ba 6f 3e 18 3e 5a a1 34 bc
       -0.01871083 -0.0017902548 0.14867567 -0.011024797
000340 d6 30 cd 3c 73 84 ff 3c da 9b 92 bd b3 fb c5 bd
       0.0250477 0.031191086 -0.071586326 -0.096671484
000350 94 5b 9f bc d2 7e c1 3d ba d0 86 be 08 bb f6 3c
       -0.019452848 0.09448017 -0.2633112 0.03011848
000360 5f d4 79 bc bf 68 81 bd 84 c4 a7 3d 42 2f f6 3c
       -0.015248387 -0.06318807 0.08191779 0.030051831
000370 fd 7b 73 bc df 48 1d be d9 9f de 3d 93 76 db 3c
       -0.014861104 -0.1535983 0.10870332 0.026789939
000380 a4 f3 37 be a0 e0 12 3b 56 a6 71 bd c3 67 27 3e
       -0.17964035 0.002241172 -0.05899652 0.16348176
000390 5c 25 9f bd 85 92 0b bd 5f cf 7e 3d 69 69 65 bd
       -0.077707976 -0.03407528 0.062209483 -0.05600873
0003a0 74 42 c8 bc ec 0b e8 bd 87 77 ea ba 1c 6e bd 3d
       -0.02444575 -0.11330399 -0.0017888405 0.09249517
0003b0 0e 73 d6 bd c6 cc a2 bd 18 33 94 3d 6e 9a 91 3d
       -0.10471164 -0.07949214 0.07236308 0.07109533
0003c0 08 f5 3f bc e6 75 1d bc 5d 6b a3 3d d1 3c a3 3d
       -0.011716135 -0.009610629 0.07979462 0.07970584
0003d0 54 4d 43 3d 48 62 38 3d 61 c4 86 bd a5 7b d8 3d
       0.047681168 0.045015603 -0.06580425 0.10570458
0003e0 e7 4c 44 3d 33 9d bb 3d 8c 12 a1 3d ac 45 1c 3e
       0.047924902 0.09160843 0.07864866 0.15260953
0003f0 0d 6e 56 be 93 a0 9f 3d 3c 3f 6a bd 7b 13 83 bd
       -0.20940419 0.07794299 -0.05718921 -0.064002
