results/DodgeAgentBulletsTest11_Improved4/Dodge/Dodge-28401201.onnx (onnx, 91145 bytes, 9 tensors)

action_model._discrete_distribution.branches.0.bias f4 [3]
-0.34113914 0.29664573 -0.015042595
00000000: caa9 aebe f3e1 973e 3775 76bc

action_model._discrete_distribution.branches.0.weight f4 [3, 128]
0.22364381 0.019893924 -0.104265936 0.13596456 0.0038673277 -0.17980994 -0.0063316706 -0.005694093
0.10001093 0.2621434 0.0109726535 -0.37525016 0.21415633 -0.03425236 0.10828851 0.07232833
-0.067680895 0.032507513 0.01150615 0.28600332 0.083841816 0.10559234 -0.12703906 0.098004445
-0.07664807 0.16146168 -0.03470221 0.18000762 -0.037470017 0.02935871 0.037347086 0.30440024
-0.16981794 0.045857385 -0.04247967 0.05884769 -0.04349547 -0.37428617 0.120053984 0.099131145
0.11891415 0.016309652 0.2429728 -0.15077968 0.24355197 -0.08786985 0.17456648 -0.046333477
0.12584086 0.0050948923 0.13541992 0.08253898 -0.15446624 -0.04055069 -0.060028143 0.05475579
0.055007346 -0.016884917 0.025302982 0.20847917 -0.20046693 -0.13480905 0.029963387 0.03963903
0.079777524 0.016886177 0.17943755 -0.22292721 0.11658517 0.008965396 0.3678272 0.06396807
-0.06934187 -0.011989619 0.03973442 -0.14102568 -0.052895628 -0.2776435 -0.09828155 0.0253586
0.02998249 0.1580524 0.058084313 -0.023138927 0.03159291 0.2817476 0.07507835 0.20744334
-0.07955741 0.21487916 -0.08699113 -0.08307465 0.23946188 0.1835828 0.22364882 -0.2260859
0.15720859 -0.2103753 -0.00092087884 0.26632428 -0.3951264 -0.1779462 -0.046563786 -0.075887024
0.14103808 -0.023796597 -0.04332867 0.07805426 0.43777364 -0.13206895 0.15729685 0.07190969
0.004621391 -0.11795594 0.27316615 -0.2869038 -0.067541756 -0.3521496 0.026471645 -0.011011213
0.19610763 -0.08154386 0.23749666 -0.041163646 0.039330818 -0.03521393 -0.064677335 0.17115714
0.06999542 -0.01048938 -0.08194614 -0.030126259 -0.078422725 -0.013292993 -0.0714308 -0.044900503
-0.16489588 -0.06532863 0.2675341 0.21931432 0.04302522 -0.020231593 0.13375469 0.059941236
0.025051493 -0.07515415 0.19436617 -0.1584408 -0.0024477702 0.07434326 -0.0048191915 0.01163233
0.025414731 -0.12586607 -0.048341032 -0.057838034 0.12539709 0.04993593 -0.06721417 -0.2454464
-0.07102241 -0.024674788 -0.15332013 0.04056771 0.068682365 0.058320686 -0.13266104 0.11340562
-0.10262793 0.03923394 -0.015349511 0.13630807 -0.044644583 0.06773316 -0.27730182 0.014530239
-0.25238264 0.073166706 -0.24591745 -0.03549349 0.060910556 0.035038896 0.09173249 -0.19762132
-0.2375862 0.04863922 -0.07267421 -0.065478615 0.21957798 -0.032415114 -0.12580392 -0.16285124
-0.1226744 0.043972168 -0.22691935 0.14443538 -0.041316546 0.052331965 0.09196273 -0.021140797
-0.037280045 -0.0034616922 0.0742467 0.13769421 0.03519065 0.15327442 0.14028835 -0.026142728
-0.00466271 -0.049062345 -0.04738066 0.08315566 -0.049502783 -0.07264881 -0.00057951926 -0.1331532
0.10937155 -0.080632396 0.1446692 0.030179612 -0.13676414 -0.081875496 0.029452356 0.20816806
-0.13402098 0.1814555 -0.09475013 0.009273718 0.23729973 0.079062484 0.110036716 0.0667836
0.018231295 0.017011048 0.15995589 0.0065038633 0.2899383 -0.0746594 0.05316261 0.069643125
-0.04151508 0.049236406 0.41909435 0.09240014 -0.024040323 0.18969959 0.003720259 0.06608838
-0.03115307 0.04202329 -0.05497162 0.034685157 0.09663672 -0.0017945302 0.07871152 0.0027120663
00000000: e202 653e 95f8 a23c 6189 d5bd 4b3a 0b3e
00000010: fe72 7d3b 1920 38be e779 cfbb 8495 babb
00000020: 88d2 cc3d a937 863e a5c6 333c ca20 c0be
00000030: cc4b 5b3e 344c 0cbd 5ec6 dd3d e020 943d
00000040: 489c 8abd 9926 053d 4a84 3c3c 076f 923e
00000050: 42b5 ab3d cc40 d83d 8716 02be 8eb6 c83d
00000060: aaf9 9cbd 3656 253e e823 0ebd eb53 383e
00000070: 297a 19bd ad81 f03c 42f9 183d 59da 9b3e
00000080: c1e4 2dbe f4d4 3b3d 2aff 2dbd 460a 713d
00000090: 4e28 32bd 70a2 bfbe ddde f53d 4505 cb3d
000000a0: 4389 f33d d29b 853c ddcd 783e fd65 1abe
000000b0: b065 793e 1cf5 b3bd 8ec1 323e 2cc8 3dbd
000000c0: 6ddc 003e 0ef3 a63b 85ab 0a3e 320a a93d
000000d0: 662c 1ebe 7b18 26bd 12e0 75bd 9b47 603d
000000e0: 624f 613d 3d52 8abc 3348 cf3c 907b 553e
000000f0: 3447 4dbe 620b 0abe c775 f53c 895c 223d
00000100: 6662 a33d e154 8a3c 7abe 373e 0847 64be
00000110: 35c4 ee3d 99e3 123c d953 bc3e b101 833d
00000120: 1c03 8ebd 1b70 44bc 8fc0 223d 0969 10be
00000130: 16a9 58bd 4a27 8ebe d647 c9bd d7bc cf3c
00000140: d79d f53c 7dd8 213e d1e9 6d3d d98d bdbc
00000150: 9167 013d 3941 903e aec2 993d 076c 543e
00000160: ffee a2bd 4809 5c3e 6828 b2bd 0b23 aabd
00000170: 7f35 753e 21fd 3b3e 3204 653e 1083 67be
00000180: 4afb 203e 9f6c 57be 2267 71ba a85b 883e
00000190: 024e cabe 8737 36be abb9 3ebd a86a 9bbd
000001a0: 496c 103e 15f1 c2bc 6779 31bd e9da 9f3d
000001b0: de23 e03e 153d 07be 6d12 213e 6345 933d
000001c0: 0a6f 973b e292 f1bd 6fdc 8b3e 0ee5 92be
000001d0: 5553 8abd f44c b4be 10db d83c 6068 34bc
000001e0: 70d0 483e 7800 a7bd 5332 733e 369b 28bd
000001f0: 5a19 213d 7b3c 10bd 8d75 84bd d143 2f3e
00000200: c259 8f3d a6db 2bbc 61d3 a7bd 58cb f6bc
00000210: 189c a0bd dbca 59bc 504a 92bd 97e9 37bd
00000220: 77da 28be 04cb 85bd 3bfa 883e ef93 603e
00000230: 373b 303d babc a5bc fdf6 083e f184 753d
00000240: ca38 cd3c 6bea 99bd ed07 473e 4e3e 22be
00000250: c56a 20bb 4741 983d 4fea 9dbb 8795 3e3c
00000260: 8e32 d03c 09e3 00be 3f01 46bd 93e7 6cbd
00000270: 1868 003e 9e89 4c3d 95a7 89bd 4d56 7bbe
00000280: 3374 91bd c822 cabc f4ff 1cbe 542a 263d
00000290: 57a9 8c3d ace1 6e3d 4cd8 07be 3541 e83d
000002a0: 982e d2bd c5b3 203d 847c 7bbc 5894 0b3e
000002b0: 3ddd 36bd afb7 8a3d 81fa 8dbe 3d10 6e3c
000002c0: 4c38 81be 6dd8 953d c9d1 7bbe 9f61 11bd
000002d0: 597d 793d f284 0f3d 3ede bb3d 3e5d 4abe
000002e0: cc49 73be eb39 473d 37d6 94bd a719 86bd
000002f0: 0dd9 603e b6c5 04bd bed2 00be 7ac2 26be
00000300: b73c fbbd 291c 343d 8c5d 68be dee6 133e
00000310: 8a3b 29bd 0b5a 563d f556 bc3d 772f adbc
00000320: f6b2 18bd 8fdd 62bb a70e 983d b6ff 0c3e
00000330: 1224 103d f8f3 1c3e c0a7 0f3e 4629 d6bc
00000340: a5c9 98bb 99f5 48bd 3912 42bd 844d aa3d
00000350: 6ec3 4abd e6c8 94bd e1ea 17ba 5059 08be
00000360: 31fe df3d 9922 a5bd 2a24 143e 3c3b f73c
00000370: e60b 0cbe 57ae a7bd 1146 f13c 022a 553e
00000380: cc3c 09be 78cf 393e 5b0c c2bd cbf0 173c
00000390: b3fe 723e 83eb a13d ee5a e13d d7c5 883d
000003a0: cc59 953c c15a 8b3c 7acb 233e 5c1e d53b
000003b0: cb72 943e 07e7 98bd 09c1 593d 0ea1 8e3d
000003c0: b70b 2abd 1dac 493d 8993 d63e 493c bd3d
000003d0: 36f0 c4bc 9c40 423e 97cf 733b 5859 873d
000003e0: b934 ffbc 9d20 2c3d ec29 61bd 0612 0e3d
000003f0: 79e9 c53d 7136 ebba 8133 a13d ecbc 313b

action_model._discrete_distribution.branches.1.bias f4 [3]
-0.12462581 0.17304552 -0.047324546
00000000: d13b ffbd d832 313e 62d7 41bd

action_model._discrete_distribution.branches.1.weight f4 [3, 128]
0.066022635 0.041597024 0.009518184 -0.0047013117 0.029400615 -0.18844722 -0.029827056 -0.02526602
0.09620233 0.12544735 -0.15050067 -0.2904125 0.07256789 -0.074802995 0.1153035 0.05138042
-0.021578245 0.13993269 0.09915567 -0.10639155 0.1915689 -0.06518377 0.18144256 0.02577111
0.054844443 -0.02045807 0.011914874 0.058777828 -0.008603556 0.025765473 0.17597015 0.1723756
0.0411923 -0.0353236 -0.044970725 0.11834188 0.1298799 0.033827208 -0.098634146 0.1257529
0.076512076 -0.006313914 0.052694157 -0.0033026855 0.11934092 0.036479697 0.13255157 -0.0147688
-0.11338997 -0.05373577 -0.13066943 -0.069757745 -0.027593885 0.12021245 -0.060882196 0.17555694
0.12571722 -0.2474467 0.03217512 -0.014517032 0.12874326 -0.06853508 0.09729057 -0.009636365
-0.0065999245 0.06469233 0.60128313 -0.019840375 -0.046482485 0.098309904 0.12607396 0.15819249
0.03887594 0.03160482 0.017837742 0.121190004 0.015527934 -0.012833916 0.014716056 0.018227275
-0.03738041 -0.00022787254 0.08687388 -0.0015709217 0.0074613127 0.11210642 -0.1226901 0.13602346
0.05535832 0.17400874 0.016549878 0.06735732 0.09898323 0.08719001 0.042188216 0.02005735
0.064690046 0.040576898 0.09256505 -0.021929108 -0.1420796 -0.01331173 0.0637316 0.097864375
-0.017602576 -0.048521828 -0.004533336 0.068156645 0.090860516 -0.021715047 -0.020771934 0.03542104
-0.09243551 0.004296808 -0.2006205 0.19735114 0.08433006 -0.016681466 0.11516853 -0.2710865
-0.18637408 0.16847101 -0.03499552 0.0728999 0.036681067 0.0034455827 -0.07129029 0.024059437
-0.0005989263 -0.019754829 -0.029645896 0.07513338 -0.07492336 0.005438535 -0.025737707 0.15083699
0.014190344 0.0638608 0.06537224 0.22435768 -0.016644856 -0.025604444 0.2890259 -0.0928109
0.06965046 -0.1399238 -0.1245034 0.08321163 -0.044129323 0.056290176 0.0145077 -0.00493973
0.12119615 0.11369691 -0.0011711431 -0.12411506 0.024474742 0.0598748 -0.066691846 -0.1582278
-0.07723994 -0.014947965 -0.006512366 -0.08299593 -0.07657731 0.0057126503 0.01636476 -0.13395007
-0.10833908 -0.12948216 0.0068521295 0.103673235 -0.051426575 -0.24346289 0.23340733 0.012488221
0.047624335 0.050004177 0.06972741 0.008841258 0.088246696 -0.14817806 0.07976246 -0.1259874
-0.048259098 0.034850027 0.012085425 -0.013874367 -0.009757459 -0.17973055 -0.08421843 -0.035790432
0.089534566 -0.19050585 0.01724434 -0.02022495 -0.07605744 -0.056696296 -0.01571026 -0.037527885
-0.13777944 -0.038140636 0.047917273 -0.18507056 0.026975838 -0.0067690294 -0.19891496 -0.0073926817
0.008884094 -0.022979425 -0.013090153 0.06401923 -0.22558011 -0.020740101 0.038155615 -0.15224048
0.07007253 -0.13298728 -0.04998943 -0.15682577 -0.0017088618 -0.08910261 -0.10796285 -0.040165316
-0.11687285 -0.022640195 -0.062062547 0.1245418 0.045900386 -0.040195704 -0.08934188 0.054415748
0.049863745 -0.007463182 -0.12145563 -0.124294624 -0.0076895864 0.11936817 0.014596862 -0.038944185
0.024501063 0.09101078 0.15838839 0.055319346 -0.048110172 -0.042862985 -0.14317691 0.033096734
-0.054070637 -0.09019342 0.009186789 -0.028826984 0.016290147 0.035638716 0.06277314 -0.0138498545
00000000: e036 873d a461 2a3d 28f2 1b3c 760d 9abb
00000010: 8fd9 f03c 4ff8 40be df57 f4bc affa cebc
00000020: ba05 c53d 4575 003e d91c 1abe f2b0 94be
00000030: 799e 943d 5032 99bd 3e24 ec3d 4674 523d
00000040: dcc4 b0bc 844a 0f3e 2112 cb3d d0e3 d9bd
00000050: a32a 443e 127f 85bd 14cc 393e ef1d d33c
00000060: 91a4 603d af97 a7bc 9b36 433c 05c1 703d
00000070: eef5 0cbc 1d12 d33c 8531 343e 3b83 303e
00000080: 42b9 283d 7baf 10bd 3933 38bd 3a5d f23d
00000090: 3dff 043e 668e 0a3d b300 cabd 5ec5 003e
000000a0: 5db2 9c3d f3e4 cebb d4d5 573d de71 58bb
000000b0: 0369 f43d bc6b 153d 99bb 073e d6f8 71bc
000000c0: 0039 e8bd 0a1a 5cbd 35ce 05be 26dd 8ebd
000000d0: 920c e2bc f231 f63d 9c5f 79bd 33c5 333e
000000e0: 04bc 003e ab62 7dbe 0fca 033d d8d8 6dbc
000000f0: 46d5 033e 1f5c 8cbd 4740 c73d d8e1 1dbc
00000100: 2e44 d8bb 6a7d 843d b1ed 193f 4888 a2bc
00000110: 6b64 3ebd b456 c93d 8819 013e 36fd 213e
00000120: 613c 1f3d 0e74 013d 7520 923c 7732 f83d
00000130: e068 7e3c 5845 52bc 9d1b 713c 5e51 953c
00000140: 331c 19bd 12f1 6eb9 efea b13d 63e7 cdba
00000150: 077e f43b 0d98 e53d f244 fbbd bc49 0b3e
00000160: 68bf 623d 592f 323e 9c93 873c a2f2 893d
00000170: b8b7 ca3d ad90 b23d 8dcd 2c3d 504f a43c
00000180: 377c 843d f633 263d bf92 bd3d aca4 b3bc
00000190: 517d 11be 7119 5abc b785 823d 1e6d c83d
000001a0: 4733 90bc d3be 46bd 618c 94bb b695 8b3d
000001b0: 1415 ba3d c1e3 b1bc e729 aabc a715 113d
000001c0: d44e bdbd 3dcc 8c3b 766f 4dbe 6b16 4a3e
000001d0: 3db5 ac3d 92a7 88bc 7add eb3d dacb 8abe
000001e0: d9d8 3ebe aa83 2c3e 7657 0fbd 8b4c 953d
000001f0: e33e 163d 49cf 613b a500 92bd 4c18 c53c
00000200: 4301 1dba e1d4 a1bc f3db f2bc 88df 993d
00000210: 6b71 99bd bd35 b23b e2d7 d2bc 0375 1a3e
00000220: 9e7e 683c 73c9 823d e2e1 853d 05be 653e
00000230: cb5a 88bc 69c0 d1bc 34fb 933e a413 bebd
00000240: e6a4 8e3d 2f48 0fbe a3fb febd dc6a aa3d
00000250: f3c0 34bd 8790 663d b4b1 6d3c 75dd a1bb
00000260: b035 f83d edd9 e83d 0b81 99ba 0930 febd
00000270: 417f c83c 473f 753d bc95 88bd 7806 22be
00000280: f92f 9ebd 4fe8 74bc af65 d5bb c5f9 a9bd
00000290: 91d4 9cbd 2f31 bb3b 640f 863c 352a 09be
000002a0: e1e0 ddbd f996 04be d487 e03b a252 d43d
000002b0: aca4 52bd 564e 79be 5502 6f3e 659b 4c3c
000002c0: bc11 433d 2ed1 4c3d 3fcd 8e3d ecda 103c
000002d0: afba b43d fdbb 17be 805a a33d d702 01be
000002e0: 55ab 45bd e7be 0e3d f201 463c 5051 63bc
000002f0: c0dd 1fbc 490b 38be b67a acbd fd98 12bd
00000300: e65d b73d f713 43be 0144 8d3c cbae a5bc
00000310: 01c4 9bbd 603a 68bd ceb2 80bc d7b6 19bd
00000320: 0e16 0dbe 5b39 1cbd e744 443d 2383 3dbe
00000330: 6ffc dc3c bcce ddbb 5db0 4bbe 4f3e f2bb
00000340: 978e 113c 593f bcbc 1578 56bc 841c 833d
00000350: 79fe 66be 25e7 a9bc 1049 1c3d eee4 1bbe
00000360: 3082 8f3d d12d 08be b7c1 4cbd ef96 20be
00000370: e3fb dfba 6e7b b6bd a01b ddbd 6384 24bd
00000380: 085b efbd ee77 b9bc 4c35 7ebd c50f ff3d
00000390: 0b02 3c3d 40a4 24bd e0f8 b6bd 0ce3 5e3d
000003a0: ed3d 4c3d b58d f4bb bbbd f8bd 2e8e febd
000003b0: edf8 fbbb 4d77 f43d ad27 6f3c f083 1fbd
000003c0: 74b6 c83c dc63 ba3d 9130 223e 8a96 623d
000003d0: 2c0f 45bd 1991 2fbd f89c 12be 7190 073d
000003e0: 2c79 5dbd 54b7 b8bd 3084 163c 9126 ecbc
000003f0: ea72 853c e7f9 113d 348f 803d 80ea 62bc

discrete_action_output_shape f4 [1, 2]
3.0 3.0
00000000: 0000 4040 0000 4040

network_body._body_endoder.seq_layers.0.bias f4 [128]
0.1665027 0.107825994 0.16032079 0.42356685 -0.17047271 -0.20697396 0.1398844 0.16001412
-0.13340212 0.21132699 0.09271512 0.07489512 -0.011375585 -0.3168478 -0.15630797 -0.5143241
-0.021614736 -0.014929164 0.23430267 -0.14426528 -0.19199468 -0.042440943 0.0925832 0.1098499
-0.17165522 -0.24410759 0.12063005 0.07559197 -0.2622674 -0.35336554 0.017111368 0.016712194
-0.21904495 0.044012364 0.017693045 -0.22291566 0.014192263 0.086223 0.21453756 0.114802726
-0.020443672 0.08710261 -0.14932932 -0.095618516 -0.15535706 -0.22943975 -0.03690458 0.06809086
-0.0300342 0.07624912 0.020438744 0.21032712 0.0053934585 -0.10756079 0.009752893 -0.028839938
0.18431428 0.008778608 -0.30504027 0.0299974 -0.23483534 -0.11626476 -0.0041316682 -0.18614024
-0.019414509 -0.039298847 -0.110027894 0.014431513 -0.10550872 -0.0092254495 -0.046983503 -0.14844257
0.008938564 -0.07659499 -0.08300761 0.09157745 0.04086149 -0.026697604 0.0032618255 -0.04874132
-0.016720114 -0.03842122 -0.2881611 0.16779996 -0.1604417 0.02840334 -0.011809233 -0.24460292
0.08097974 -0.22921696 -0.004381039 0.015753103 0.1296731 0.12555169 -0.33330467 0.059250113
-0.22490121 -0.42080036 -0.3570659 0.05852836 0.081898265 -0.1779637 -0.19736977 -0.015417323
-0.06365656 0.11886711 -0.33971226 -0.3661134 0.1315616 0.08434881 0.11765359 -0.00310378
-0.03900934 0.04654496 -0.42855126 0.005402274 -0.31881064 -0.16531931 -0.4012174 0.22123516
-0.14364403 0.022971107 -0.2287252 -0.49612725 0.09816971 -0.05423723 -0.031991567 -0.12408235
00000000: af7f 2a3e e0d3 dc3d 222b 243e c1dd d83e
00000010: 6690 2ebe fbf0 53be db3d 0f3e beda 233e
00000020: 919a 08be 1a66 583e 6de1 bd3d 9d62 993d
00000030: a960 3abc e039 a2be 320f 20be bfaa 03bf
00000040: 6311 b1bc 7499 74bc 0aed 6f3e 47ba 13be
00000050: 419a 44be 8ed6 2dbd 439c bd3d fcf8 e03d
00000060: 63c6 2fbe 57f7 79be e30c f73d f6cf 9a3d
00000070: ea47 86be 54ec b4be 242d 8c3c 03e8 883c
00000080: 524d 60be 4f46 343d 01f1 903c 0144 64be
00000090: aa86 683c af95 b03d bcaf 5b3e b11d eb3d
000000a0: 7d79 a7bc da62 b23d c9e9 18be a4d3 c3bd
000000b0: ec15 1fbe 41f2 6abe 4229 17bd 3973 8b3d
000000c0: 480a f6bc 8028 9c3d 276f a73c fe5f 573e
000000d0: 9cbb b03b d548 dcbd 99ca 1f3c bc41 ecbc
000000e0: e2bc 3c3e 27d4 0f3c 3d2e 9cbe 1bbd f53c
000000f0: ad78 70be 381c eebd f262 87bb 8c9b 3ebe
00000100: 2d0b 9fbc d4f7 20bd 4e56 e1bd 2772 6c3c
00000110: f514 d8bd 5726 17bc c671 40bd 5401 18be
00000120: 0e73 123c d6dd 9cbd e5ff a9bd f58c bb3d
00000130: 615e 273d efb4 dabc 5ac4 553b faa4 47bd
00000140: 9ff8 88bc 925f 1dbd da89 93be c1d3 2b3e
00000150: d44a 24be 1fae e83c 837b 41bc 3079 7abe
00000160: b5d8 a53d dab7 6abe d28e 8fbb a70c 813c
00000170: 06c9 043e 9f90 003e e9a6 aabe 3fb0 723d
00000180: 814c 66be 2573 d7be 57d1 b6be 6fbb 6f3d
00000190: 47ba a73d 1e3c 36be 4d1b 4abe f198 7cbc
000001a0: 5f5e 82bd 9970 f33d c4ee adbe 3773 bbbe
000001b0: 16b8 063e 12bf ac3d 5ef4 f03d ca68 4bbb
000001c0: 42c8 1fbd eea5 3e3d 126b dbbe 8f05 b13b
000001d0: 263b a3be 7749 29be 5e6c cdbe 788b 623e
000001e0: 6c17 13be e72d bc3c f036 6abe 6404 febe
000001f0: 330d c93d dc27 5ebd 9709 03bd e31e febd

network_body._body_endoder.seq_layers.0.weight f4 [128, 36]
-0.4444326 -0.6375652 -0.5096625 -0.23780778 -0.8921942 -0.7556289 -0.34980166 -0.1363238
-0.7525467 -0.5785048 -0.2966795 -0.2008632 -0.17867793 -0.5967529 -0.22616741 0.33646616
0.13558841 -0.15939684 0.23689453 0.4137492 -0.024488438 -0.5369043 -0.24439572 0.40242982
-0.6742195 -0.3487921 0.53334266 -0.13031171 -0.425615 -0.331402 0.048923828 -0.35569352
0.10199862 -0.26927438 0.036209404 -0.0109775495 0.37105578 0.15366948 -0.18123913 0.3681563
0.004831313 -0.052922383 -0.06579189 0.20607151 0.1784604 -0.023554845 0.32051957 0.08962674
-0.12166744 0.042278957 0.00021743604 0.3262922 -0.08819744 0.05815282 -0.23153369 0.27403694
0.004703218 -0.12899852 -0.22572307 0.04204153 -0.32034978 0.02335129 -0.47207496 -0.31741905
-0.492899 0.02649696 -0.1282041 -0.20078902 -0.52239406 -0.35561296 0.018960783 -0.10100132
-0.27932933 -0.3958505 -0.23202641 0.06725795 -0.16594458 0.06440714 -0.015407832 -0.18641149
0.064878985 0.2004699 0.20039378 0.17300239 0.33582795 0.27966464 -0.037667062 -0.09289314
0.59839076 0.58020556 0.22044978 0.007832662 0.6234444 0.2962628 0.014030615 0.164459
0.092273615 0.38093626 -0.06623839 -0.10581892 0.3365767 0.078507006 -0.02333584 0.3210579
-0.092517495 0.21247013 0.033426195 -0.27022073 -0.07739197 0.18562622 0.07178583 0.21054223
-0.3900518 -0.46374872 0.5031628 0.7078587 -0.2701104 -0.33659473 0.5876892 0.7352992
0.098506235 0.0014458284 0.4511553 0.6082867 0.51348627 0.043216232 0.17955887 0.525682
-0.2760325 -0.59201086 0.3253296 0.36376044 -0.28304198 -0.8184007 0.13418472 0.22505179
-0.28077227 -0.562696 0.115426384 0.05471156 0.081163466 0.01565757 0.042186618 0.015150021
-0.007893431 0.1600696 -0.042409908 0.2648905 0.33310196 0.60074097 -0.15303409 -0.23190726
-0.017592564 0.75929636 -0.37802225 -0.32110775 0.07624139 0.48140264 -0.2656574 -0.6237784
0.5855726 0.10248277 -0.21806948 -0.786031 0.2273383 0.058929767 -0.12100564 -0.4157917
0.6381504 0.05978197 -0.04445902 -0.5079657 0.19035009 -0.16582127 -0.15174098 -0.4285308
-0.06009186 -0.36392552 0.09843913 0.004132544 -0.29517806 -0.29430476 -0.2008227 -0.6633223
-0.060575724 -0.8573874 0.03350201 -0.35997802 -0.29350778 -0.80580276 -0.26655674 0.11566771
-0.5639018 -0.8198975 0.07239375 0.112617336 -0.5779084 -0.4231461 0.21025376 -0.1429902
-0.8842066 -0.34769672 0.08274147 0.19823296 -0.43000445 -0.3046926 0.05275938 0.08361532
0.06484047 -0.3320497 0.17381755 -0.02689621 0.25751734 0.25190398 0.10474464 -0.022247434
-0.17078592 -0.13063037 0.37750673 0.5055906 -0.2954985 -0.04619912 0.46804345 0.22734879
-0.00915493 0.40543702 0.3418711 0.3344794 -0.12749213 -0.2726188 0.4771465 0.5957404
-0.036519334 -0.4153417 -0.23961928 0.16085117 -0.20083912 -0.14422484 -0.016959779 0.124278285
0.084843636 -0.20964547 -0.14311317 -0.32053044 0.16988315 -0.32747045 0.15209486 -0.18130583
-0.44056964 -0.101913154 -0.110361174 0.03664483 0.18307856 0.12020338 -0.36123475 -0.22836791
00000000: ab8c e3be 7937 23bf 3e79 02bf e283 73be
00000010: d766 64bf e570 41bf 3419 b3be 7798 0bbe
00000020: e7a6 40bf e418 14bf 60e6 97be 15af 4dbe
00000030: 59f7 36be ccc4 18bf 6e98 67be 4b45 ac3e
00000040: b0d7 0a3e ed38 23be 7b94 723e efd6 d33e
00000050: fa9b c8bc 8f72 09bf df42 7abe 480b ce3e
00000060: a699 2cbf e194 b2be 2589 083f 6f70 05be
00000070: 36ea d9be 86ad a9be 5a64 483d 761d b6be
00000080: a7e4 d03d 55de 89be 5050 143d 2edb 33bc
00000090: 06fb bd3e 885b 1d3e c096 39be fc7e bc3e
000000a0: fe4f 9e3b 24c5 58bd e6bd 86bd 6904 533e
000000b0: 53be 363e 17f6 c0bc 241b a43e 398e b73d
000000c0: c72c f9bd b32c 2d3d 8bff 6339 c50f a73e
000000d0: dca0 b4bd a731 6e3d 2b17 6dbe 924e 8c3e
000000e0: 741d 9a3b 3018 04be f323 67be bd33 2c3d
000000f0: e304 a4be 344b bf3c cfb3 f1be c084 a2be
00000100: 425d fcbe 2710 d93c f047 03be a39b 4dbe
00000110: 9ebb 05bf e712 b6be a553 9b3c c8d9 cebd
00000120: 4104 8fbe ebac cabe 5598 6dbe 89be 893d
00000130: 60ed 29be e4e7 833d 2271 7cbc a7e2 3ebe
00000140: 46df 843d fb47 4d3e 0734 4d3e 8a27 313e
00000150: a4f1 ab3e 3430 8f3e c748 1abd c23e bebd
00000160: 2330 193f 5a88 143f 96bd 613e 9154 003c
00000170: 0d9a 1f3f c2af 973e aae0 653c f167 283e
00000180: f3f9 bc3d 140a c33e fea7 87bd 97b7 d8bd
00000190: c853 ac3e 48c8 a03d ce2a bfbc b361 a43e
000001a0: d079 bdbd c591 593e e8e9 083d 5f5a 8abe
000001b0: ae7f 9ebd cd14 3e3e 7304 933d 6298 573e
000001c0: dfb4 c7be 7970 edbe 47cf 003f 3a36 353f
000001d0: e94b 8abe 2556 acbe cd72 163f 923c 3c3f
000001e0: a3bd c93d f381 bd3a d4fd e63e adb8 1b3f
000001f0: d673 033f 8103 313d 48de 373e 1893 063f
00000200: 2254 8dbe 068e 17bf 9a91 a63e cf3e ba3e
00000210: e1ea 90be b582 51bf b867 093e fa73 663e
00000220: 62c1 8fbe d80c 10bf ab64 ec3d 3b19 603d
00000230: 0839 a63d 4e44 803c e0cb 2c3d cb37 783c
00000240: 7353 01bc 49e9 233e 03b6 2dbd ba9f 873e
00000250: 578c aa3e 29ca 193f f8b4 1cbe 1979 6dbe
00000260: 481e 90bc 3f61 423f 228c c1be 3c68 a4be
00000270: 7224 9c3d 687a f63e 3f04 88be f1af 1fbf
00000280: 16e8 153f 7de2 d13d 9b4d 5fbe 5439 49bf
00000290: 5fcb 683e 5760 713d ced1 f7bd a6e2 d4be
000002a0: d35d 233f f0dd 743d a91a 36bd 0a0a 02bf
000002b0: 22eb 423e 0dcd 29be fd61 1bbe 6468 dbbe
000002c0: e222 76bd 7254 babe 749a c93d 4b6a 873b
000002d0: 9421 97be 1daf 96be 77a4 4dbe 7ecf 29bf
000002e0: 401e 78bd be7d 5bbf 6739 093d 0a4f b8be
000002f0: a746 96be 1749 4ebf 207a 88be 31e3 ec3d
00000300: de5b 10bf cde4 51bf 2d43 943d eba3 e63d
00000310: cef1 13bf 9ba6 d8be c34c 573e 066c 12be
00000320: 5d5b 62bf 4e05 b2be 5c74 a93d 95fd 4a3e
00000330: 8b29 dcbe ab00 9cbe 381a 583d 823e ab3d
00000340: 15cb 843d 6b02 aabe 3afd 313e 7155 dcbc
00000350: 50d9 833e 8ff9 803e 5c84 d63d 4040 b6bc
00000360: 81e2 2ebe f8c3 05be 9048 c13e 636e 013f
00000370: 944b 97be 4a3b 3dbd 64a3 ef3e 1fce 683e
00000380: 8ffe 15bc 7195 cf3e bb09 af3e e240 ab3e
00000390: 4c8d 02be b194 8bbe 8c4c f43e 7182 183f
000003a0: 4c95 15bd aba7 d4be c25e 75be 2bb6 243e
000003b0: c5a8 4dbe adaf 13be 3cef 8abc 9d85 fe3d
000003c0: 80c2 ad3d 4dad 56be 428c 12be 911c a4be
000003d0: d9f5 2d3e 35aa a7be c1be 1b3e 3ca8 39be
000003e0: 5892 e1be d8b7 d0bd 0a05 e2bd e418 163d
000003f0: f278 3b3e 312d f63d c3f3 b8be 47d9 69be

network_body._body_endoder.seq_layers.2.bias f4 [128]
-0.04237377 -0.07575892 0.005808416 -0.102952845 0.24848258 0.23807256 -0.09517857 -0.016182696
-0.000578533 0.035021115 0.08086189 0.014006578 0.07822714 -0.029453013 0.11023501 0.015315193
-0.09269412 -0.025842333 -0.024776878 -0.023127763 -0.020601992 0.091601916 0.21525666 0.068306915
0.073376976 0.02616513 -0.06694785 0.033475827 -0.020963196 0.3432908 -0.010551224 0.1336941
0.1282146 -0.08973148 0.108738795 0.03309949 0.06324616 -0.09909853 0.04518097 0.02785697
-0.037568443 -0.040414285 0.09990254 -0.16446236 0.027225586 0.053123426 0.0782826 0.03490472
0.06814982 0.08718065 0.08861479 0.0062024794 0.0681999 -0.054835785 -0.05754861 0.02865554
0.049356483 0.19198933 0.035655312 0.0027300802 0.1699947 -0.0069537805 0.26632705 -0.0082983915
-0.008150701 0.035846703 0.013810865 0.012350199 -0.04607174 0.033622924 0.056527764 0.029326873
0.13279371 -0.120353915 0.0082295695 0.04495008 -0.078912005 -0.010282314 0.020828687 -0.07640952
0.09801196 -0.041046426 -0.009961648 0.01237223 0.06844226 -0.034561392 -0.026884729 0.084702834
0.069367245 0.07939146 -0.028925955 0.027984811 0.08718726 -0.010750414 0.005473486 0.050658654
0.043993153 -0.008629241 0.13005945 0.027387412 -0.03935115 -0.09928338 -0.0579402 -0.005085175
0.036318965 0.13271919 0.015465667 -0.03751819 0.120026 0.057895485 0.053747308 -0.12567908
-0.06910483 -0.032750122 0.07727045 -0.0371648 -0.036064547 -0.05168677 -0.033383146 0.121066704
-0.06998929 0.06974463 0.112377636 -0.012594732 -0.07873438 0.11920085 -0.037176687 0.032123134
00000000: 1e90 2dbd 7e27 9bbd 8654 be3b f1d8 d2bd
00000010: 3872 7e3e 4bc9 733e fbec c2bd 9391 84bc
00000020: b1a8 17ba 4d72 0f3d eb9a a53d d97b 653c
00000030: 8d35 a03d 7247 f1bc e5c2 e13d 93ec 7a3c
00000040: 6ad6 bdbd 4db3 d3bc e1f8 cabc 6f76 bdbc
00000050: 82c5 a8bc c999 bb3d 3e6c 5c3e 7fe4 8b3d
00000060: ab46 963d 4158 d63c f41b 89bd f31d 093d
00000070: 02bb abbc d0c3 af3e 0bdf 2cbc 1be7 083e
00000080: b04a 033e 23c5 b7bd 72b2 de3d 5593 073d
00000090: 3487 813d 2cf4 cabd ae0f 393d 4d34 e43c
000000a0: 5ee1 19bd 7389 25bd b499 cc3d d268 28be
000000b0: 3108 df3c f397 593d a152 a03d 40f8 0e3d
000000c0: 2292 8b3d c58b b23d ac7b b53d 2b3e cb3b
000000d0: 64ac 8b3d 7d9b 60bd 17b8 6bbd 06bf ea3c
000000e0: 062a 4a3d da98 443e 4e0b 123d 25eb 323b
000000f0: 1713 2e3e 8adc e3bb 055c 883e faf5 07bc
00000100: 858a 05bc fed3 123d f746 623c 7d58 4a3c
00000110: b9b5 3cbd 31b8 093d a889 673d e93e f03c
00000120: 13fb 073e 1d7c f6bd 51d5 063c 931d 383d
00000130: 9e9c a1bd 2777 28bc eca0 aa3c 987c 9cbd
00000140: 7fba c83d 4c20 28bd 2e36 23bc e5b4 4a3c
00000150: 752b 8c3d 3f90 0dbd 5d3d dcbc ae78 ad3d
00000160: 6a10 8e3d fd97 a23d 20f6 ecbc 6740 e53c
00000170: 3c8f b23d 8122 30bc ee5a b33b 737f 4f3d
00000180: 2a32 343d a961 0dbc 4e2e 053e 915b e03c
00000190: ac2e 21bd 1655 cbbd b452 6dbd 8aa1 a6bb
000001a0: 32c3 143d 8ae7 073e b563 7d3c acac 19bd
000001b0: 31d0 f53d d123 6d3d 2326 5c3d 04b2 00be
000001c0: d586 8dbd fe24 06bd f83f 9e3d 1e3a 18bd
000001d0: 6bb8 13bd 82b5 53bd c4bc 08bd d2f1 f73d
000001e0: 8b56 8fbd 46d6 8e3d 3f26 e63d 235a 4ebc
000001f0: 7e3f a1bd 931f f43d 9546 18bd 8c93 033d

network_body._body_endoder.seq_layers.2.weight f4 [128, 128]
0.057577815 -0.12642346 0.15071422 0.059193153 0.01611348 0.060062796 -0.029517496 0.085563526
-0.078964114 -0.059402768 -0.06977597 -0.2162362 -0.27997506 -0.08561657 0.028187003 -0.048332132
-0.2713341 -0.052856114 0.10948867 -0.04307587 -0.13088875 -0.15218757 0.052186187 -0.04913093
-0.15109642 -0.027780835 -0.20355669 0.029611649 0.025982356 -0.03644781 -0.118779875 0.15443534
0.06427717 -0.08134918 -0.049990773 -0.08104628 0.0036655047 -0.085609086 -0.03582673 -0.08033306
-0.040146124 0.3680332 -0.20029451 0.0059108394 0.087514974 -0.15158209 -0.012985971 -0.15463081
0.077452 0.07614736 0.080291 -0.015840517 -0.22670175 0.19242604 0.123688094 0.0334312
0.0033893613 -0.176159 -0.014828596 -0.27902842 0.09618801 -0.17419337 0.13382745 -0.18791166
-0.16157636 -0.11276753 -0.14478366 -0.07411181 -0.13860145 0.10235953 -0.033442527 -0.0897662
-0.12671345 0.0196892 -0.042572748 0.022033367 -0.14210086 -0.099132776 -0.0872593 -0.28558505
-0.019370072 0.028476624 -0.08266219 -0.24993847 0.05307686 -0.084449105 -0.099975884 -0.19579239
0.13771091 0.09327464 -0.050923537 -0.14326724 -0.07384079 -0.19452855 -0.05202435 -0.13505411
-0.09388001 0.101271145 0.06828927 -0.1351849 -0.27840722 -0.013190021 0.0043448377 -0.31236172
0.13109842 -0.18481584 0.19992907 0.114046164 0.034433212 -0.057968326 -0.011668607 -0.14775904
-0.053794492 0.03214476 -0.02027195 0.06129382 -0.055840995 -0.1208109 0.2299264 0.07429564
-0.25228554 0.041162077 0.019872308 -0.022380497 0.15638687 0.02446043 -0.09855639 0.16582523
0.025538545 0.25852677 0.06792782 -0.14303818 -0.011082229 -0.027819015 0.10996792 0.035525467
-0.14665873 -0.07492486 0.15346815 -0.053742055 0.2822471 0.1611503 0.050177034 0.074525416
0.27158707 -0.30596295 -0.15578632 0.115812175 0.0015226554 0.22394599 0.0101328185 0.11923648
-0.06229548 -0.17374851 0.18812402 0.23448111 0.009418895 0.07031466 0.036977224 0.23492108
0.029675176 0.22564791 0.0050444514 0.011763349 0.029857464 2.5475945e-05 -0.025386209 0.15530477
-0.05520513 -0.05650961 -0.0172234 0.124179006 -0.16063534 -0.026848152 0.110194966 0.009372292
0.04474333 -0.038917262 0.05563998 0.12149824 0.08840579 -0.087174684 -0.22594334 0.14996845
-0.13611111 -0.2527692 0.051815677 -0.02879232 0.013196103 0.20828307 0.24175419 0.15709049
0.022542318 -0.09260203 0.094208114 0.046608802 -0.27630726 0.08045135 -0.11223051 0.09441426
0.117724374 -0.11546287 0.024844084 0.29324952 -0.1324065 -0.23565476 -0.093457736 0.028919285
0.008485803 0.3756696 0.025763078 0.096000426 -0.02573196 0.14007887 0.076726094 0.14273433
0.071818255 -0.13153335 -0.047727074 -0.12391254 0.008786914 0.17345771 -0.019143248 0.07952969
-0.1439729 -0.09363729 -0.36682764 0.029417977 0.14855441 0.11251041 0.050526224 -0.3814086
0.2000582 0.1386544 0.14768328 -0.076058954 -0.15613373 -0.08103047 0.20570421 0.011450524
-0.20974243 -0.1678605 -0.040529348 0.17414132 -0.18623611 0.14234981 0.023190271 -0.09240448
0.08145517 0.0072219307 0.15619849 0.07235952 -0.09357328 -0.18006113 0.2676215 0.14747481
00000000: b7d6 6b3d 2775 01be d454 1a3e 8574 723d
00000010: 6b00 843c 6804 763d adce f1bc ee3b af3d
00000020: f0b7 a1bd 5150 73bd b4e6 8ebd 066d 5dbe
00000030: e458 8fbe be57 afbd 6ee8 e63c eaf7 45bd
00000040: 4eec 8abe a77f 58bd 993b e03d 5370 30bd
00000050: b307 06be 0fd7 1bbe 2fc1 553d 843d 49bd
00000060: 05b9 1abe a294 e3bc 2a71 50be 2194 f23c
00000070: f3d8 d43c 4c4a 15bd dd42 f3bd 4c24 1e3e
00000080: c0a3 833d 669a a6bd 20c3 4cbd 98fb a5bd
00000090: f738 703b d153 afbd 0dbf 12bd a985 a4bd
000000a0: 4370 24bd d96e bc3e 011a 4dbe b7af c13b
000000b0: 0d3b b33d 5638 1bbe 1cc3 54bc 8a57 1ebe
000000c0: 279f 9e3d 26f3 9b3d 9c6f a43d f9c3 81bc
000000d0: 8124 68be 550b 453e 2f50 fd3d 27ef 083d
000000e0: 0c20 5e3b 0663 34be a4f3 72bc d0dc 8ebe
000000f0: 38fe c43d bf5f 32be 100a 093e ea6b 40be
00000100: 4674 25be aaf2 e6bd 2b42 14be efc7 97bd
00000110: 8aed 0dbe e0a1 d13d 08fb 08bd 57d7 b7bd
00000120: 2cc1 01be 3f4b a13c c360 2ebd 527f b43c
00000130: e382 11be 2006 cbbd 01b5 b2bd 3438 92be
00000140: fcad 9ebc cf47 e93c cb4a a9bd dfef 7fbe
00000150: 1f67 593d a7f3 acbd 28c0 ccbd cd7d 48be
00000160: 1704 0d3e c606 bf3d 3395 50bd a6b4 12be
00000170: d739 97bd 7e32 47be 7c17 55bd a04b 0abe
00000180: 2a44 c0bd 3f67 cf3d 3fdb 8b3d e96d 0abe
00000190: 648b 8ebe f51a 58bc 245f 8e3b e0ed 9fbe
000001a0: aa3e 063e 5d40 3dbe 35ba 4c3e 0991 e93d
000001b0: d709 0d3d 3270 6dbd af2d 3fbc 254e 17be
000001c0: 9d57 5cbd 39aa 033d 5c11 a6bc 3b0f 7b3d
000001d0: 87b9 64bd b56b f7bd d471 6b3e 5028 983d
000001e0: 922b 81be 9199 283d 40cb a23c 4e57 b7bc
000001f0: e123 203e 3d61 c83c efd7 c9bd 17ce 293e
00000200: 3636 d13c 9f5d 843e be1d 8b3d 9a78 12be
00000210: 3d92 35bc b4e4 e3bc dc36 e13d 2783 113d
00000220: b52d 16be 3472 99bd c126 1d3e a120 5cbd
00000230: b182 903e 9604 253e 6f86 4d3d c8a0 983d
00000240: 760d 8b3e 2da7 9cbe 7386 1fbe ef2e ed3d
00000250: d693 c73a 1952 653e 1f04 263c 4132 f43d
00000260: 8c29 7fbd 21eb 31be 95a3 403e d11b 703e
00000270: b551 1a3c 2201 903d 6e75 173d 278f 703e
00000280: 5b19 f33c 3f10 673e ed4b a53b 10bb 403c
00000290: a497 f43c 2db5 d537 bdf6 cfbc 3708 1f3e
000002a0: c61e 62bd 9f76 67bd 1618 8dbc 9051 fe3d
000002b0: 977d 24be a8f0 dbbc e6ad e13d 3e8e 193c
000002c0: c844 373d b567 1fbd bfe6 633d 12d4 f83d
000002d0: 180e b53d a488 b2bd b15d 67be 5491 193e
000002e0: b660 0bbe f76a 81be ad3c 543d dfdd ebbc
000002f0: 7834 583c 2848 553e 698e 773e 54dc 203e
00000300: abaa b83c 22a6 bdbd 2ff0 c03d dfe8 3e3d
00000310: 2578 8dbe adc3 a43d 1cd9 e5bd 435c c13d
00000320: 7a19 f13d cc77 ecbd d285 cb3c cd24 963e
00000330: 9295 07be 7b4f 71be c566 bfbd 23e8 ec3c
00000340: 0a08 0b3c c457 c03e 170d d33c df9b c43d
00000350: d5cb d2bc d670 0f3e 9222 9d3d f328 123e
00000360: 7315 933d aeb0 06be 777d 43bd dcc5 fdbd
00000370: fdf6 0f3c e69e 313e 4dd2 9cbc 76e0 a23d
00000380: a26d 13be e8c4 bfbd d5d0 bbbe f8fd f03c
00000390: a61e 183e dc6b e63d 96f4 4e3d fd47 c3be
000003a0: 0fdc 4c3e 6bfb 0d3e 493a 173e ccc4 9bbd
000003b0: 85e1 1fbe 4ef3 a5bd 20a4 523e fb9a 3b3c
000003c0: b8c6 56be 9fe3 2bbe 1a02 26bd 1a52 323e
000003d0: aeb4 3ebe 26c4 113e 86f9 bd3c 8f3e bdbd
000003e0: f8d1 a63d f2a5 ec3b 7ff2 1f3e 3a31 943d
000003f0: 59a3 bfbd f261 38be af05 893e a303 173e
