results/DodgeAgentBulletsTest11_Improved4/Dodge/Dodge-26998727.onnx (onnx, 91145 bytes, 9 tensors)

action_model._discrete_distribution.branches.0.bias f4 [3]
000000 d5 c9 ae be 79 35 98 3e c7 40 7e bc
       -0.3413836 0.29728296 -0.015518374

action_model._discrete_distribution.branches.0.weight f4 [3, 128]
000000 d3 a0 63 3e c7 8d a3 3c 5d 9c d5 bd ad fd 09 3e
       0.22229318 0.019965066 -0.104302146 0.13475676
000010 0d b4 98 3b 18 0f 38 be ee a9 b0 bb 7c cb ec bb
       0.0046601356 -0.17974508 -0.005391351 -0.0072264057
000020 28 cc ca 3d 9c a3 85 3e 5c 8e 40 3c 39 e7 be be
       0.09902221 0.26101387 0.011752691 -0.37285784
000030 b4 22 5c 3e ee 76 0d bd 15 9e dd 3d b9 3b 92 3d
       0.21497613 -0.03453725 0.108211674 0.071402974
000040 22 59 8c bd 74 eb 00 3d d2 81 40 3c a5 77 91 3e
       -0.06852938 0.031474546 0.011749702 0.28411594
000050 28 c2 aa 3d e6 6d d5 3d f3 1e 02 be 36 38 c6 3d
       0.083378136 0.10421352 -0.12707119 0.0967869
000060 16 5a 9e bd 2d b1 23 3e 3b 85 0f bd 21 df 35 3e
       -0.07732026 0.15985556 -0.035039168 0.17760898
000070 09 b4 1c bd 58 0e e1 3c 58 f6 16 3d 9d 41 9b 3e
       -0.038257632 0.02747266 0.036856025 0.30323496
000080 12 68 2e be cd d3 37 3d 41 20 2c bd f9 52 70 3d
       -0.17031887 0.044879723 -0.042022947 0.05867288
000090 57 8b 36 bd 49 bb be be 33 a7 f8 3d f8 97 cf 3d
       -0.04456648 -0.37252262 0.12141266 0.101364076
0000a0 a6 0f f4 3d 2f 90 76 3c f1 af 77 3e f1 88 1b be
       0.11917047 0.0150490245 0.2418821 -0.15188958
0000b0 6a 66 79 3e 6d c5 b0 bd 4a 3e 33 3e 36 fa 3b bd
       0.24355474 -0.08631406 0.1750423 -0.045892917
0000c0 d3 ca 01 3e ea 7c 6a 3b 68 22 0a 3e 3a 7d a6 3d
       0.12675028 0.003578002 0.13489687 0.08129354
0000d0 70 64 1f be 14 ca 24 bd 87 27 77 bd fb 88 5d 3d
       -0.15565658 -0.04023178 -0.06034043 0.054085713
0000e0 b7 fe 66 3d 7a df 8f bc 30 0f c4 3c a3 0e 57 3e
       0.05639526 -0.017562617 0.023933023 0.21001677
0000f0 75 68 4d be b3 0c 09 be 05 f3 f3 3c ec 59 25 3d
       -0.20059378 -0.1338375 0.029778967 0.04036896
000100 09 ee a4 3d d8 36 82 3c 8d 55 39 3e 4a d5 63 be
       0.08053214 0.015895292 0.18099041 -0.22249332
000110 b0 ad ed 3d 30 e7 15 3c 22 be bc 3e 27 b2 83 3d
       0.11605394 0.009149358 0.3686381 0.06430464
000120 6c d2 88 bd cd 0e 57 bc a2 01 22 3d 68 2c 10 be
       -0.0668076 -0.013126087 0.03955234 -0.1407944
000130 8a bc 5d bd d0 b6 8e be b0 13 c9 bd 48 08 cf 3c
       -0.054134883 -0.2787385 -0.09818208 0.025272503
000140 10 63 01 3d 4d 79 21 3e 23 f4 67 3d 9f 96 cd bc
       0.031588614 0.15768929 0.05662931 -0.025096236
000150 74 10 06 3d 56 b7 90 3e 7a c0 98 3d 79 d2 53 3e
       0.032730535 0.28264874 0.07458587 0.20685758
000160 33 53 9e bd 07 a5 5b 3e 72 bd b0 bd 42 5c a8 bd
       -0.07730713 0.21449672 -0.08629884 -0.08220722
000170 0c 1a 74 3e 76 d5 3b 3e aa f1 64 3e c1 2d 68 be
       0.23838061 0.18343148 0.22357813 -0.22673704
000180 0d b5 1f 3e 57 3a 58 be 03 41 7b ba af d3 87 3e
       0.15596409 -0.21116005 -0.00095845776 0.2652869
000190 99 ce ca be 37 0e 35 be 96 16 42 bd bb 05 99 bd
       -0.39610747 -0.17681204 -0.04738482 -0.07471796
0001a0 e2 86 13 3e af e4 bb bc fd e6 31 bd 31 10 9f 3d
       0.14406922 -0.022936193 -0.04343318 0.0776676
0001b0 1c d0 df 3e 5a 73 06 be 0e 6a 23 3e a0 4b 92 3d
       0.43713462 -0.1312994 0.15958425 0.071433306
0001c0 fa 13 6f 3b b6 ba f1 bd 51 6c 8b 3e fc 6e 92 be
       0.0036480413 -0.118031904 0.27231076 -0.286003
0001d0 cc 0f 89 bd ed c2 b4 be 9b 59 da 3c c4 cb 21 bc
       -0.06692466 -0.35304967 0.026654055 -0.009875242
0001e0 48 4f 4a 3e 9f eb a9 bd 65 3e 75 3e e7 25 25 bd
       0.19756806 -0.08296894 0.23949583 -0.04031935
0001f0 d4 c5 1e 3d be aa 08 bd 14 18 79 bd dd bd 2e 3e
       0.038762882 -0.033365957 -0.06081398 0.17064615
000200 58 4a 8e 3d 9a 13 37 bc 32 2e a7 bd bf 8e ef bc
       0.06947774 -0.011174107 -0.08163108 -0.029242871
000210 e9 74 a1 bd f3 f9 56 bc 4b 16 92 bd a8 6a 35 bd
       -0.07883627 -0.013121116 -0.07133158 -0.04429117
000220 60 9f 26 be f1 cc 82 bd e4 32 88 3e 2c fb 5e 3e
       -0.16271734 -0.06386746 0.26601326 0.21775502
000230 36 6f 36 3d be f5 a5 bc 93 b1 07 3e 5b 0a 75 3d
       0.044539653 -0.02025878 0.13251333 0.05982433
000240 1d c9 cc 3c 69 56 99 bd 7d 9d 47 3e a7 e3 1f be
       0.024998242 -0.074871846 0.19493671 -0.15614186
000250 c1 ae 72 bb 33 9b 9a 3d 27 f0 86 bb ed f0 46 3c
       -0.003703043 0.07549133 -0.004117984 0.012142402
000260 55 23 c7 3c 1b 66 fe bd fd ae 44 bd 56 fe 6c bd
       0.02430884 -0.12421819 -0.048018444 -0.05785974
000270 8b 20 01 3e 1a d1 4e 3d b2 42 89 bd 3f 24 79 be
       0.1261007 0.050492384 -0.06702174 -0.24330233
000280 8f 0a 91 bd 8d 50 c1 bc 25 ae 1d be ae 74 28 3d
       -0.07082092 -0.02359798 -0.15398462 0.0411269
000290 3a ef 8c 3d c7 1d 6a 3d 8c 6b 08 be 9d 99 e7 3d
       0.06881566 0.057157304 -0.13322276 0.11308596
0002a0 49 31 d7 bd 96 c4 22 3d 77 7c 8b bc 19 28 0c 3e
       -0.10507447 0.03973826 -0.017027123 0.13687171
0002b0 38 e2 2f bd 30 58 88 3d 66 64 8e be 3c 2b 67 3c
       -0.04294035 0.066574454 -0.27810973 0.014109429
0002c0 5d 4a 81 be 82 5c 98 3d 03 5b 7a be e2 c9 0f bd
       -0.25252047 0.074395195 -0.2444878 -0.03510464
0002d0 52 f2 7e 3d 62 a0 0e 3d c7 1c be 3d d9 5c 49 be
       0.062242813 0.03482092 0.092828326 -0.19664325
0002e0 b3 dd 72 be ac 5b 47 3d d3 b9 95 bd ec 23 85 bd
       -0.23717384 0.04867141 -0.07310834 -0.06500992
0002f0 6a 7e 60 3e 3d f8 02 bd 2f d8 00 be e6 3e 26 be
       0.21923223 -0.03197502 -0.12582467 -0.16234931
000300 cc 26 fc bd 18 83 35 3d cd 55 6a be 26 76 12 3e
       -0.123120874 0.044314474 -0.22884293 0.14302883
000310 39 0c 2b bd dd c2 5a 3d 77 1a ba 3d 81 e0 a1 bc
       -0.041759703 0.053408492 0.09087079 -0.019760372
000320 c6 96 25 bd e3 a5 21 bb 00 6c 9c 3d 32 69 0d 3e
       -0.040426992 -0.0024665527 0.07637787 0.1380966
000330 3d 56 14 3d 1f da 1d 3e 9e 42 0e 3e 21 00 cc bc
       0.036215056 0.15415238 0.138926 -0.024902405
000340 35 f2 ae bb 06 86 44 bd 86 5c 3c bd 14 53 a7 3d
       -0.005338932 -0.047979377 -0.045986675 0.08170143
000350 47 08 53 bd c2 4b 94 bd 8e 60 3d 38 77 67 07 be
       -0.051521566 -0.07241012 4.5151035e-05 -0.13223062
000360 ba 8d db 3d d0 43 a5 bd 6b a2 13 3e 53 34 f2 3c
       0.107203916 -0.08069575 0.14417426 0.029565966
000370 52 fb 09 be 2c a9 a5 bd d8 34 fc 3c eb 9e 54 3e
       -0.13474777 -0.080889076 0.030786917 0.20763747
000380 b6 60 09 be 61 fa 3a 3e 8a 0a c0 bd 6f c8 fd 3b
       -0.13415799 0.18259574 -0.0937701 0.007744841
000390 58 04 74 3e 0d 9d 9e 3d d0 67 e2 3d 7e 89 88 3d
       0.23829782 0.07744799 0.11054957 0.066668496
0003a0 8d 59 8d 3c 68 bb 89 3c fd 10 23 3e 5d 09 d9 3b
       0.017254615 0.016812995 0.1592445 0.0066234306
0003b0 9b 1c 94 3e 87 fc 9a bd 26 52 57 3d 37 56 8f 3d
       0.28928074 -0.07567697 0.052568577 0.06998866
0003c0 34 6c 2c bd 35 77 4c 3d da 7f d5 3e ae 4d bd 3d
       -0.042095378 0.049918372 0.41699106 0.09243332
0003d0 7f f6 b4 bc 1c ca 42 3e 30 16 48 3b 2b 5d 83 3d
       -0.022090195 0.19022411 0.0030530803 0.06414255
0003e0 6d ac 00 bd 1c c2 29 3d 8b a5 67 bd 77 b6 0b 3d
       -0.031414438 0.041444883 -0.05655436 0.03410956
0003f0 29 69 c6 3d 65 98 83 bb b6 8e 9c 3d a2 d0 52 3b
       0.096880265 -0.0040159696 0.076444075 0.0032167812

action_model._discrete_distribution.branches.1.bias f4 [3]
000000 87 fd fd bd da 30 31 3e 9b 7a 44 bd
       -0.12401872 0.17303792 -0.04796849

action_model._discrete_distribution.branches.1.weight f4 [3, 128]
000000 03 23 8a 3d de 46 28 3d ea bb 17 3c 3d 46 93 bb
       0.06744959 0.04108321 0.009261111 -0.004494457
000010 2b af f7 3c 14 8d 40 be 28 d1 03 bd 78 c7 d0 bc
       0.030234894 -0.18803817 -0.03218189 -0.02548574
000020 f6 66 c2 3d b9 81 ff 3d fa 30 19 be 27 4d 95 be
       0.094922945 0.124759145 -0.1496009 -0.29160425
000030 d5 e8 95 3d df fd 9a bd 9f 71 ea 3d 7b 77 53 3d
       0.073198 -0.07567953 0.11447453 0.051627617
000040 16 d4 af bc 1f b6 0f 3e 8f 25 cb 3d 45 b1 d9 bd
       -0.021463435 0.14034317 0.09919273 -0.106295146
000050 b3 54 44 3e c6 f6 84 bd e2 30 39 3e fb 69 d4 3c
       0.19172935 -0.06492381 0.18085054 0.025929442
000060 ca a6 63 3d 45 cd b0 bc 7f f9 50 3c d8 e5 6e 3d
       0.055578984 -0.021582255 0.012754797 0.058324665
000070 1c 22 04 bc c6 89 d3 3c c1 80 35 3e c9 da 2f 3e
       -0.008064773 0.025822531 0.17724897 0.17173304
000080 1c 33 21 3d 40 82 0d bd ac 58 30 bd 23 49 f2 3d
       0.039355382 -0.034548044 -0.043053314 0.11830356
000090 b6 fb 05 3e 21 ef 0a 3d 7b 38 d1 bd 48 52 02 3e
       0.13084301 0.033919457 -0.10215851 0.127267
0000a0 e4 93 9d 3d f1 47 bc bb 6a ef 53 3d b8 94 25 bb
       0.076942235 -0.005745881 0.051741995 -0.0025265645
0000b0 14 47 f1 3d eb 65 0c 3d 95 91 06 3e 93 9f 71 bc
       0.11781135 0.034276884 0.13141473 -0.014747518
0000c0 89 83 ea bd ba 8b 5a bd d2 18 06 be 37 a1 8d bd
       -0.114508696 -0.05335591 -0.13095406 -0.06915515
0000d0 86 d7 e0 bc de 1e f6 3d 17 97 80 bd 63 e4 31 3e
       -0.02744652 0.12017606 -0.06278818 0.17372279
0000e0 4f 33 01 3e 99 47 7c be 68 71 01 3d 88 82 68 bc
       0.12617229 -0.24636687 0.031602293 -0.014191277
0000f0 cd 4b 03 3e 7e 63 8f bd 1a df c8 3d 23 3b 16 bc
       0.12821884 -0.070013985 0.09808178 -0.009169373
000100 fd 26 db bb 03 03 86 3d 0c 81 19 3f 8c 9a 9e bc
       -0.0066879974 0.06543543 0.59962535 -0.019360803
000110 5c 38 43 bd 90 d9 c7 3d 43 46 00 3e 16 99 22 3e
       -0.04766117 0.09758294 0.12526803 0.1587871
000120 ce 31 27 3d 40 ca 01 3d ba 6a 8c 3c 78 24 f9 3d
       0.04081898 0.03168702 0.017140735 0.12165159
000130 b8 67 88 3c e7 2b 43 bc be ce 7e 3c 7d dc 99 3c
       0.01665102 -0.011912323 0.015552221 0.018781895
000140 5b e4 10 bd a1 e0 13 ba e1 ee b0 3d fd fa 1f bb
       -0.035374027 -0.00056410773 0.086393125 -0.0024411075
000150 00 4a fe 3b 9f 76 e6 3d c4 a7 fb bd d4 9e 0a 3e
       0.0077602863 0.11253094 -0.12287858 0.1353715
000160 04 5c 64 3d 95 61 32 3e c6 5b 71 3c 9f e2 8b 3d
       0.055751815 0.17420037 0.014731353 0.06830334
000170 71 70 c9 3d 7d b4 b0 3d 2f 85 2f 3d ec d9 97 3c
       0.098358996 0.086281754 0.042851623 0.01853653
000180 e4 ca 85 3d a8 c2 2a 3d 19 eb ba 3d 9e a6 ac bc
       0.06532839 0.041689545 0.091268726 -0.021075543
000190 98 1b 10 be 8b fd 66 bc 40 b0 83 3d 7b b5 c7 3d
       -0.14073026 -0.014098535 0.064301014 0.097514115
0001a0 3c 67 96 bc 50 da 41 bd bb 7e 8b bb 95 08 8c 3d
       -0.018359773 -0.04732734 -0.004257051 0.068375744
0001b0 f5 57 bd 3d 26 31 ac bc d8 64 aa bc 0b ca 11 3d
       0.09245292 -0.02101953 -0.02080004 0.035593074
0001c0 d9 f3 bb bd a1 03 b9 3b 67 6b 4b be 21 f8 49 3e
       -0.091773696 0.0056461846 -0.1986519 0.1972356
0001d0 65 24 ab 3d 35 49 85 bc 3a a5 e9 3d 96 70 89 be
       0.08356551 -0.01627026 0.114084676 -0.2684371
0001e0 45 4f 3d be 81 a5 2c 3e b9 78 0d bd fa 76 97 3d
       -0.1848727 0.1686001 -0.03453896 0.0739574
0001f0 32 6e 16 3d db 0e 88 3b cd 54 8e bd 92 14 c9 3c
       0.036726184 0.0041521615 -0.06949768 0.024545942
000200 9a 96 24 bb af 89 a5 bc fd 58 f6 bc ee 03 9a 3d
       -0.002511418 -0.020207254 -0.03007173 0.07520281
000210 9b 9e 97 bd 61 f7 92 3b 83 e0 c2 bc a1 62 1a 3e
       -0.074032985 0.0044850563 -0.023788696 0.15076686
000220 b6 fe 65 3c 7c fc 82 3d ad b6 88 3d 37 f0 66 3e
       0.014037779 0.06395814 0.06675468 0.22552572
000230 d8 50 90 bc 3f 7c d8 bc 61 63 93 3e b5 eb c0 bd
       -0.017616674 -0.026426433 0.28786758 -0.094199575
000240 03 2a 8f 3d d3 7a 10 be 15 5d fe bd 14 1c a8 3d
       0.06990435 -0.14109354 -0.12420098 0.082084805
000250 21 9b 38 bd 42 fd 64 3d 3c 09 66 3c c7 09 c9 bb
       -0.045069817 0.055905588 0.014040288 -0.0061351988
000260 84 0f f9 3d 83 e5 e7 3d 71 b6 a5 ba c6 58 fb bd
       0.121611625 0.11323073 -0.0012642873 -0.122727916
000270 18 06 bf 3c f1 71 74 3d 45 f6 8b bd 3e cd 26 be
       0.023318335 0.059678975 -0.068340816 -0.16289231
000280 b7 f1 9e bd 32 48 8d bc c2 32 c5 bb 22 0e ad bd
       -0.07760947 -0.01724634 -0.0060180137 -0.08449961
000290 8b 72 9f bd 36 1f 9d 3b ac 3b 89 3c c1 63 0a be
       -0.07785519 0.0047949804 0.016752087 -0.13514616
0002a0 c4 ba e2 bd 85 80 05 be 5c 57 f2 3b 3a 0b d3 3d
       -0.11070779 -0.13037308 0.007395668 0.10304876
0002b0 b4 56 54 bd cf 09 78 be 85 81 6e 3e 86 4b 3a 3c
       -0.0518405 -0.24222492 0.23291595 0.011370545
0002c0 cd 95 48 3d 86 c2 4b 3d 6f 8d 8c 3d 63 6e 05 3c
       0.048970986 0.04974606 0.06862914 0.008143994
0002d0 d2 16 b1 3d 5a 27 19 be fc 0e a3 3d a3 9d 00 be
       0.08646931 -0.14956418 0.079618424 -0.12560134
0002e0 ce e7 49 bd 6b 6f 0c 3d ec 7f 37 3c 9d 34 73 bc
       -0.04929333 0.034285944 0.011199933 -0.014844087
0002f0 4a c7 41 bc 2a 51 36 be 26 65 a8 bd 0b fe 17 bd
       -0.011827299 -0.17804399 -0.082224175 -0.03710751
000300 8b fc b7 3d b8 0e 45 be f5 2d 8d 3c 3a 3b b1 bc
       0.089837156 -0.19243896 0.017233828 -0.021634687
000310 fe 37 98 bd 19 d3 64 bd 05 b3 84 bc ac 55 1d bd
       -0.07432555 -0.05586538 -0.016198644 -0.03841178
000320 82 cc 0a be df 5a 21 bd ea 1f 4c 3d 58 98 3e be
       -0.13554576 -0.039393302 0.049835123 -0.18612802
000330 3e 1d dc 3c cc ad 0b bc 65 48 4d be 9c 96 15 bc
       0.026869413 -0.008525323 -0.20047148 -0.009130146
000340 01 58 07 3c 09 18 ca bc 5c ae 52 bc bf d5 85 3d
       0.008260728 -0.024669664 -0.012858953 0.065349095
000350 ce bf 68 be 9b 34 ae bc 48 49 29 3d 45 29 1d be
       -0.22729418 -0.021265319 0.041329652 -0.15347774
000360 c9 a1 95 3d 2d 74 09 be 89 40 4d bd ba 38 22 be
       0.07306249 -0.13423224 -0.050110374 -0.15841952
000370 24 0c ca ba d0 95 ba bd 6b ed da bd 11 cf 26 bd
       -0.0015414995 -0.09110606 -0.10689815 -0.040724818
000380 84 91 f1 bd d5 77 c8 bc 63 1d 80 bd 20 f2 fe 3d
       -0.11795333 -0.024471203 -0.06255605 0.124485254
000390 7a 52 36 3d 7c 69 21 bd 5e 02 b9 bd 72 5e 59 3d
       0.04451225 -0.03940724 -0.09033655 0.053068586
0003a0 be 91 44 3d 7d 10 04 bc 6a bc f9 bd 9c 4e 01 be
       0.047990553 -0.008060572 -0.1219414 -0.12627643
0003b0 b5 41 2d bc 07 a4 f3 3d 4a 75 5e 3c 01 53 23 bd
       -0.010574748 0.1189652 0.013577769 -0.03987408
0003c0 fb 4a c3 3c aa 66 ba 3d bc ca 21 3e 2e 14 60 3d
       0.023839464 0.09101613 0.15799993 0.054706745
0003d0 73 10 49 bd c7 4a 34 bd 0c cf 11 be ca ba 01 3d
       -0.049087953 -0.044016626 -0.14239138 0.031672277
0003e0 1f fd 5d bd 64 b5 b6 bd 8e f2 27 3c 07 81 f8 bc
       -0.054196473 -0.08921316 0.010250701 -0.030334963
0003f0 91 e7 85 3c ff 29 1d 3d 54 0a 7a 3d fc b0 63 bc
       0.016345771 0.03837013 0.061045006 -0.013897177

discrete_action_output_shape f4 [1, 2]
000000 00 00 40 40 00 00 40 40
       3.0 3.0

network_body._body_endoder.seq_layers.0.bias f4 [128]
000000 bc 16 2a 3e 90 93 da 3d 1c 8a 23 3e 61 d6 d8 3e
       0.16610235 0.106726766 0.15970653 0.42351058
000010 aa fa 2d be e4 a6 52 be bc 0b 0f 3e ba 84 23 3e
       -0.16990152 -0.20571476 0.1396932 0.159686
000020 66 09 08 be 4d 44 57 3e 1e 63 bf 3d a2 bf 98 3d
       -0.13284835 0.21022148 0.09345077 0.07458426
000030 20 38 45 bc ca 6d a2 be a1 56 20 be 3c 70 03 bf
       -0.012037307 -0.31724387 -0.15658046 -0.5134313
000040 28 d6 b1 bc fc 40 78 bc ad 22 70 3e 59 70 13 be
       -0.021708563 -0.015152212 0.23450728 -0.14398326
000050 f4 ec 44 be 2e ce 28 bd 4f c7 ba 3d ab 53 e1 3d
       -0.19231015 -0.041212253 0.09120046 0.110022865
000060 b2 ab 2f be 00 53 7a be b3 5c f7 3d 3e 44 9b 3d
       -0.1715534 -0.24445724 0.12078228 0.075813755
000070 97 d8 85 be 6f 95 b4 be 73 a5 92 3c 39 2d 88 3c
       -0.26141807 -0.3527026 0.017901158 0.016623126
000080 ef 76 5f be 8a 8c 2f 3d bc 66 94 3c 9a e0 66 be
       -0.21822713 0.042858638 0.018115394 -0.22546616
000090 a3 47 60 3c 7c cc ad 3d 4b b5 5c 3e d8 69 eb 3d
       0.0136889545 0.08486268 0.21553533 0.114947975
0000a0 9c 71 b3 bc 3b a1 af 3d b4 36 18 be d1 d6 c3 bd
       -0.02190476 0.08575674 -0.14864618 -0.09562457
0000b0 25 b4 21 be 56 a7 6a be 99 68 17 bd 0e 7e 8a 3d
       -0.15791376 -0.22915396 -0.036964986 0.06762324
0000c0 76 17 f8 bc 4b ea 9a 3d 04 dd 9c 3c 6a b8 57 3e
       -0.030284625 0.07564219 0.019148357 0.21066442
0000d0 d1 a3 aa 3b 15 f7 db bd fa 96 16 3c 07 23 ea bc
       0.0052075167 -0.107404865 0.009191269 -0.028581155
0000e0 c1 a1 3c 3e 3e 88 06 3c 7d 89 9b be e2 3c f4 3c
       0.18421079 0.008211194 -0.30378333 0.029814187
0000f0 d2 d5 6f be 0f da eb bd ff e9 63 bb 07 2d 3d be
       -0.2342141 -0.11516201 -0.0034776924 -0.18474208
000100 62 84 a8 bc 04 42 2a bd c3 7e dc bd 7e f6 77 3c
       -0.020570938 -0.041566864 -0.107663654 0.015134452
000110 30 32 d9 bd 92 c9 23 bc 30 da 46 bd c3 a9 18 be
       -0.10605276 -0.009996789 -0.048547924 -0.14908509
000120 ab 3f 18 3c c4 49 9c bd 62 b3 a7 bd 2a 1e bb 3d
       0.009292523 -0.07631257 -0.081885114 0.09136613
000130 19 f8 20 3d b3 f3 d5 bc 27 6e 43 3b bd 3f 49 bd
       0.039299104 -0.026117181 0.0029820295 -0.04913305
000140 95 c7 89 bc 1a 9f 21 bd a6 1e 94 be 61 28 2c 3e
       -0.016818801 -0.03945837 -0.28929633 0.16812278
000150 1e 7b 24 be b5 8b e6 3c 69 3b 3c bc 49 4f 7c be
       -0.1606259 0.02814279 -0.011488774 -0.2463962
000160 86 02 a6 3d 31 b1 6a be 8a a1 8d bb 98 79 69 3c
       0.0810595 -0.22919156 -0.0043222355 0.014250182
000170 b8 3f 04 3e bf 13 fd 3d 58 ee aa be 2d f4 6f 3d
       0.12914932 0.12357282 -0.33384967 0.058582474
000180 9c 36 66 be 6d 54 d7 be 51 af b6 be a2 16 67 3d
       -0.2248177 -0.420566 -0.3568063 0.05641807
000190 98 b2 a6 3d 6b 6d 36 be 3f d0 48 be 77 ef 81 bc
       0.08139533 -0.17815177 -0.1961069 -0.015861256
0001a0 e6 e9 80 bd e8 1d f3 3d e0 8a ae be 9e 80 bb be
       -0.062946126 0.118709385 -0.34090328 -0.36621565
0001b0 00 47 06 3e 65 c1 af 3d ad 4b f2 3d e5 24 31 bb
       0.13113022 0.08581809 0.1183084 -0.0027030047
0001c0 6c fd 21 bd f5 b6 41 3d 6a 72 db be ac 90 95 3b
       -0.039548323 0.047293622 -0.42860729 0.0045643654
0001d0 8a 2c a3 be 39 ea 2a be a2 b0 cd be df 82 63 3e
       -0.31869918 -0.16690911 -0.40173823 0.22217892
0001e0 fc 4c 13 be 2c bc b5 3c ae 68 69 be 02 60 fe be
       -0.14384836 0.022184454 -0.22793838 -0.49682623
0001f0 fd a8 c7 3d 6f 0e 61 bd 15 e7 02 bd 75 63 01 be
       0.09749029 -0.054945406 -0.03195866 -0.12635596

network_body._body_endoder.seq_layers.0.weight f4 [128, 36]
000000 d7 3f e3 be cb 47 23 bf d1 49 02 bf 9a a0 73 be
       -0.44384643 -0.6378142 -0.50893885 -0.23791733
000010 6e 72 64 bf 24 96 41 bf b8 ff b1 be fd 7a 0b be
       -0.89237106 -0.7561972 -0.3476541 -0.13621135
000020 d2 0f 41 bf a1 45 14 bf d5 fb 97 be b0 b5 4e be
       -0.75414765 -0.57918745 -0.2968432 -0.20186496
000030 7b b4 37 be 38 fe 18 bf 96 0a 69 be 0e 6d ab 3e
       -0.17939942 -0.5976291 -0.22757944 0.3348164
000040 6f 8e 0a 3e 9e 74 23 be e5 ed 71 3e 4a 5c d3 3e
       0.13530897 -0.15962455 0.23625906 0.41281348
000050 63 8d bf bc d8 5e 09 bf a4 1c 7a be 5f d8 cd 3e
       -0.023382848 -0.53660345 -0.24424988 0.4020414
000060 54 a3 2c bf 93 ba b2 be 02 f5 07 3f bf 38 06 be
       -0.6743672 -0.3490797 0.5310823 -0.13107584
000070 54 b0 da be 0e 0d aa be 99 c4 41 3d 43 78 b6 be
       -0.42712653 -0.33213085 0.04730663 -0.35638627
000080 cf 94 cd 3d 22 39 8a be 89 23 13 3d d7 7e 39 bc
       0.100381486 -0.26996714 0.03592256 -0.011321745
000090 01 48 be 3e 44 b2 1c 3e 50 09 39 be f7 35 bc 3e
       0.3716431 0.15302378 -0.18069959 0.36759922
0000a0 2f 05 a5 3b 80 55 5b bd 83 75 8b bd 7e ec 50 3e
       0.0050360183 -0.053548336 -0.06809523 0.20402715
0000b0 3e 49 36 3e 4d 35 cd bc 45 ae a2 3e 4e 8a b3 3d
       0.17801377 -0.02504983 0.31773582 0.08766614
0000c0 bf 3d fd bd 44 6f 26 3d 0c 2c b4 b9 09 b5 a6 3e
       -0.12365293 0.040633455 -0.00034365093 0.32559994
0000d0 48 22 b8 bd cb 3a 67 3d cb 1b 6e be 0b b8 8b 3e
       -0.08990914 0.056452554 -0.2325279 0.2728885
0000e0 9a 14 82 3b d7 10 06 be 69 67 69 be 77 66 23 3d
       0.003969741 -0.13092361 -0.22793354 0.03989264
0000f0 ed 78 a4 be 7d 56 b4 3c dd d2 f2 be 97 83 a3 be
       -0.3212351 0.022013897 -0.474265 -0.31936333
000100 00 7f fd be 78 ff cc 3c 1b b2 04 be 4c 75 4f be
       -0.49510956 0.02502416 -0.12958567 -0.20259589
000110 3a 16 06 bf c3 ff b6 be 37 c6 95 3c 74 d8 d1 bd
       -0.52377665 -0.35742006 0.018282993 -0.10246363
000120 8d 54 8e be fa 87 ca be 3c 96 6c be 27 07 89 3d
       -0.27798882 -0.39556867 -0.23104185 0.06690817
000130 21 bc 29 be 35 20 84 3d 15 99 86 bc db 36 40 be
       -0.16575672 0.064514555 -0.016430417 -0.18770926
000140 bc 4a 85 3d 3d bb 4c 3e 29 05 4c 3e 6f 9e 2f 3e
       0.06508395 0.199933 0.19923843 0.17150281
000150 10 5c ab 3e 41 c9 8e 3e c6 a2 1c bd e1 ed bf bd
       0.33468676 0.2788792 -0.03824117 -0.09371544
000160 fc 18 19 3f c1 62 14 3f a0 fc 61 3e 5f e1 d5 3b
       0.5980375 0.57963187 0.22069025 0.0065271105
000170 63 6d 1f 3f 99 25 97 3e d2 42 40 3c aa 90 26 3e
       0.62276286 0.29520872 0.011734681 0.16266122
000180 8b 1e bb 3d a0 96 c2 3e fa 17 89 bd d9 35 db bd
       0.09136685 0.38005543 -0.06694026 -0.1070363
000190 3f 8d ab 3e 6c ca 9e 3d 43 a3 bc bc 72 1d a4 3e
       0.335062 0.07753453 -0.023027068 0.32053715
0001a0 f8 d7 bc bd bd 08 59 3e 0a 49 09 3d 68 f7 8a be
       -0.0922088 0.2119474 0.03351692 -0.2714188
0001b0 7d 00 9d bd c9 8d 3d 3e ea 55 95 3d 79 7f 57 3e
       -0.07666109 0.18511118 0.072917774 0.2104472
0001c0 bd 29 c8 be 9f 08 ee be 36 5c 01 3f 11 50 35 3f
       -0.39094344 -0.46490952 0.5053133 0.70825297
0001d0 77 11 8b be 48 99 ac be 29 6c 16 3f 24 14 3c 3f
       -0.27161762 -0.33710694 0.5875879 0.7346823
0001e0 57 a8 cb 3d c6 9b ba 3a 2b 6c e6 3e b7 60 1b 3f
       0.09944218 0.0014237098 0.450044 0.6069445
0001f0 49 d4 03 3f b3 91 33 3d 4e 23 37 3e 46 3e 06 3f
       0.51495796 0.04384012 0.17884561 0.5243877
000200 89 44 8d be c1 89 17 bf 25 30 a6 3e ec c3 b9 3e
       -0.2759135 -0.5919457 0.32458606 0.3628229
000210 7d 1f 91 be 8b 80 51 bf 6a 27 07 3e d3 40 66 3e
       -0.28344336 -0.81836766 0.13198629 0.22485666
000220 da 03 91 be 31 3e 10 bf cb df ec 3d 0c 45 62 3d
       -0.2832325 -0.56344897 0.115661226 0.05524163
000230 28 b4 a6 3d 04 9c 84 3c 8d c2 2e 3d 89 0a 74 3c
       0.08139831 0.016187675 0.042666007 0.01489509
000240 3e ca 2b bc 86 12 24 3e 09 48 3a bd 06 a6 87 3e
       -0.01048523 0.16022691 -0.045478854 0.26493853
000250 df b9 a9 3e d0 fb 19 3f 4e 10 1d be a3 d7 6c be
       0.3314962 0.6014986 -0.15338251 -0.23129134
000260 af e1 85 bc 53 9f 42 3f e9 3a c1 be a7 b2 a3 be
       -0.016342966 0.7602436 -0.37740257 -0.31972238
000270 c8 3c 9e 3d 3d 0c f7 3e dd 6c 87 be b2 39 1f bf
       0.07726437 0.48251525 -0.26450244 -0.6219741
000280 50 dd 15 3f 79 51 d2 3d 78 f4 5e be a5 b5 48 bf
       0.5854082 0.10269446 -0.21772945 -0.7840217
000290 78 83 68 3e b7 a5 71 3d 0e bb f3 bd fb 01 d4 be
       0.22706401 0.05899593 -0.11900912 -0.4140776
0002a0 ea cb 23 3f 49 99 77 3d 35 34 2b bd 42 c8 01 bf
       0.63983023 0.06044892 -0.041797835 -0.50696194
0002b0 bd 9d 46 3e 0f ec 27 be 29 99 1a be f3 2d db be
       0.1939611 -0.16398643 -0.15097488 -0.42808494
0002c0 02 00 73 bd 01 1a ba be eb 17 c9 3d 7a d9 91 3b
       -0.05932618 -0.36347964 0.09819015 0.004450974
0002d0 c9 3c 96 be ee a4 95 be ae f8 4b be a4 62 29 bf
       -0.2934325 -0.29227394 -0.19919083 -0.6616614
0002e0 9d 74 70 bd 93 0a 5b bf 44 e6 14 3d eb 32 b7 be
       -0.05870496 -0.8556301 0.03635241 -0.35781035
0002f0 4e 26 95 be a8 c5 4d bf 86 ae 87 be ae 72 f0 3d
       -0.29130787 -0.80379725 -0.26500338 0.117406234
000300 d4 d1 0f bf 98 5e 51 bf 44 df 92 3d fb 91 e7 3d
       -0.5617955 -0.81784964 0.07171491 0.113071404
000310 98 59 13 bf d6 8e d7 be cb 30 59 3e 48 2d 11 be
       -0.57558584 -0.42101163 0.2121002 -0.1417743
000320 78 be 61 bf 77 e7 b0 be 19 84 ac 3d b2 61 4c 3e
       -0.8818126 -0.34551594 0.08423633 0.19959143
000330 89 5c db be c8 c5 9a be 46 ae 5c 3d e0 7c af 3d
       -0.42844036 -0.3022902 0.053877138 0.0856874
000340 bd 52 87 3d 9d e8 a8 be 1a c9 34 3e 8c 31 c6 bc
       0.06607578 -0.3298997 0.17654839 -0.024193548
000350 10 3f 85 3e c7 5b 82 3e 11 1a d8 3d f0 5a b0 bc
       0.26024675 0.25460646 0.10551847 -0.021527737
000360 b5 bf 2e be 55 2a 06 be 39 66 c1 3e 7a 58 01 3f
       -0.17065318 -0.13102086 0.37773302 0.5052563
000370 a2 49 97 be 84 03 40 bd 30 1e f0 3e 7d 27 68 3e
       -0.29548365 -0.046878353 0.4689803 0.22671314
000380 7a c7 03 bc d4 6c cf 3e ff 00 af 3e 5a c8 aa 3e
       -0.008043164 0.40512717 0.34180447 0.3335598
000390 d6 cc 01 be 4c b3 8b be 22 73 f4 3e d7 50 18 3f
       -0.12675795 -0.2728523 0.4774409 0.5949835
0003a0 70 16 17 bd 63 c1 d4 be 63 e2 76 be d3 36 23 3e
       -0.036886632 -0.41553792 -0.24109797 0.15938883
0003b0 a8 19 4e be 90 73 14 be 27 7b 8b bc 74 3d fc 3d
       -0.20126975 -0.14497209 -0.017026497 0.12316409
0003c0 17 65 ab 3d 4b 84 57 be 0c c9 12 be 20 29 a4 be
       0.08368891 -0.2104656 -0.14334506 -0.32062626
0003d0 d6 fb 2d 3e ec de a7 be 07 c7 1b 3e 0f 9f 39 be
       0.16990599 -0.32787263 0.15212642 -0.18127082
0003e0 24 8e e1 be eb a5 d0 bd ec d9 e2 bd 3c af 14 3d
       -0.44053757 -0.10187896 -0.110767215 0.03629993
0003f0 0b b7 3c 3e e0 ae f6 3d 9d 59 b8 be 66 c5 69 be
       0.184292 0.120450735 -0.3600587 -0.22829208

network_body._body_endoder.seq_layers.2.bias f4 [128]
000000 81 da 33 bd a0 9d 9a bd ba 10 c8 3b 14 ab d4 bd
       -0.043909553 -0.07549596 0.0061055096 -0.10384193
000010 43 ff 7c 3e b7 54 73 3e da a4 c2 bd 85 5a 84 bc
       0.2470675 0.23762785 -0.09504099 -0.016156444
000020 c3 83 24 bb 3c 1a 0d 3d af 67 a2 3d a1 10 49 3c
       -0.002510295 0.034448847 0.07929932 0.012272031
000030 6b 17 a2 3d fd e2 e1 bc d3 f3 de 3d 1c d2 6f 3c
       0.07914623 -0.027574057 0.108863495 0.014637496
000040 17 7f bb bd 38 b8 ca bc 80 c9 c9 bc 4d 6a ce bc
       -0.091551 -0.024746045 -0.024632215 -0.025197173
000050 82 77 ad bc 5b 58 ba 3d e2 cf 5c 3e b7 bc 8a 3d
       -0.02117515 0.09098884 0.21563676 0.06774276
000060 72 a1 98 3d 43 8c c7 3c 5e 0f 89 bd 84 e4 f7 3c
       0.07452668 0.024358874 -0.06692384 0.030260332
000070 85 75 ac bc bc b5 af 3e 7b 83 16 bc 55 7b 09 3e
       -0.021052131 0.3431834 -0.009186621 0.13425954
000080 69 8f 03 3e 38 1a b8 bd a1 23 dc 3d e0 e2 09 3d
       0.12847675 -0.08989376 0.10748983 0.03366363
000090 c9 08 83 3d d0 b3 cb bd f9 90 44 3d c4 52 f9 3c
       0.0639816 -0.09946406 0.04798982 0.030434974
0000a0 ed 34 0e bd 9f 25 26 bd 69 09 cc 3d 13 a4 27 be
       -0.034718443 -0.040563222 0.09962732 -0.16371183
0000b0 ad e1 df 3c e2 88 54 3d 57 54 9f 3d c9 2f 0e 3d
       0.02732929 0.051888354 0.077797584 0.03471354
0000c0 12 87 8c 3d ed 05 b3 3d 84 0f b5 3d c6 97 09 3c
       0.068617 0.08741365 0.0884085 0.008398002
0000d0 eb 79 8c 3d 54 83 5d bd 8b 46 6b bd 8f 75 e9 3c
       0.068591915 -0.054080322 -0.057440322 0.02849844
0000e0 5a 89 49 3d ca 34 44 3e 17 44 0e 3d a4 62 c4 3b
       0.049203254 0.19160762 0.034732904 0.005993204
0000f0 b1 19 2d 3e 9f 38 20 bc bf b2 88 3e 4b 0d 0d bc
       0.16904332 -0.0097791245 0.26698872 -0.008609126
000100 5c 7d fc bb ab fd 17 3d 78 ef 6f 3c 29 55 46 3c
       -0.0077053737 0.03710715 0.014644496 0.012105265
000110 d9 56 3e bd 9a 7c 0a 3d 5c 74 62 3d 62 bf f5 3c
       -0.046469543 0.033810236 0.05528675 0.029998485
000120 23 5c 06 3e e4 97 f6 bd 86 ee 1b 3c 4e c8 39 3d
       0.13121085 -0.120406896 0.009517318 0.04535704
000130 2c 30 9f bd b7 83 1a bc 2e 91 a9 3c f6 5d 9e bd
       -0.0777286 -0.009430817 0.02069911 -0.077327654
000140 8a ad c4 3d 1b 54 28 bd e2 89 33 bc 4a e7 57 3c
       0.096034124 -0.041095834 -0.010958167 0.013177702
000150 df d9 8c 3d f7 4b 09 bd 9c 5c e0 bc dc cb b1 3d
       0.06877493 -0.03351971 -0.02738791 0.08681461
000160 03 db 8d 3d a1 33 a2 3d ee 5e f5 bc 3e 33 dd 3c
       0.06926539 0.07920004 -0.029952493 0.027001973
000170 5f 53 b0 3d 8e d7 2f bc 2e 5a b5 3b b9 3b 4e 3d
       0.08609652 -0.010732545 0.005534432 0.050349925
000180 0a 9d 31 3d 65 64 f4 bb ac d5 04 3e 8c c6 d6 3c
       0.043362655 -0.007458257 0.12972134 0.026217721
000190 a6 09 1f bd 41 9a cd bd d6 af 6a bd ae 03 c7 bb
       -0.03882756 -0.10039187 -0.057296596 -0.0060734367
0001a0 cc e0 21 3d 32 17 07 3e f0 f9 7a 3c d3 28 15 bd
       0.039521024 0.13192442 0.015318379 -0.036415886
0001b0 2f 44 f2 3d fe d5 6e 3d 1f e6 5d 3d c0 c3 00 be
       0.11829411 0.058309548 0.05417454 -0.12574673
0001c0 48 33 8b bd a3 9d 08 bd 83 9a 9a 3d 4d 2b 18 bd
       -0.067968905 -0.03335346 0.07549002 -0.03715067
0001d0 17 d0 19 bd 27 8b 50 bd d8 30 14 bd 4e ac f3 3d
       -0.037551966 -0.050913956 -0.036179394 0.11898099
0001e0 8d d8 8f bd cd bb 8a 3d 90 f8 e8 3d 24 97 46 bc
       -0.07023726 0.067741014 0.113755345 -0.012120996
0001f0 b6 8c a0 bd ac 9c f6 3d 45 b0 1f bd 93 4b 04 3d
       -0.078393385 0.120416015 -0.038986463 0.032298636

network_body._body_endoder.seq_layers.2.weight f4 [128, 128]
000000 ad 9a 65 3d a8 0f 02 be 17 f7 19 3e 2d 92 6b 3d
       0.056055713 -0.12701285 0.15035664 0.05751245
000010 fd bc 6e 3c 8c 67 6f 3d 68 d3 eb bc bd 0a ae 3d
       0.0145714255 0.05844836 -0.02878733 0.08498142
000020 81 e6 a4 bd 73 9d 79 bd 87 7b 92 bd 75 1c 5e be
       -0.08051778 -0.06094117 -0.07152467 -0.21690543
000030 09 b9 8f be 7d 00 b2 bd a1 22 de 3c 8f fc 4a bd
       -0.28070858 -0.086914994 0.027116122 -0.049557265
000040 42 07 8b be 1e fd 5e bd 54 0f dd 3d 06 43 31 bd
       -0.27153975 -0.05444061 0.10793939 -0.04327681
000050 dd b0 06 be 54 f6 1c be 8d cd 4d 3d 2e 88 49 bd
       -0.13153405 -0.15328342 0.050244857 -0.049202137
000060 f1 1d 1c be 5d b2 ee bc ca 4f 52 be 7b 07 e8 3c
       -0.15245797 -0.029137785 -0.2053825 0.02832388
000070 34 85 c8 3c 4c 4c 16 bd ed 02 f6 bd dd 20 1d 3e
       0.024477579 -0.036693856 -0.12012277 0.15344568
000080 81 6c 83 3d 38 3d a8 bd 49 6a 4f bd 2d 65 a6 bd
       0.0641718 -0.082148015 -0.05063847 -0.081247665
000090 fa 21 47 3b 95 06 af bd 7b 49 16 bd 43 37 a5 bd
       0.0030385242 -0.08546177 -0.03669117 -0.08067181
0000a0 e1 16 25 bd 74 27 bc 3e 3c 4e 4e be 37 f6 8b 3b
       -0.040305022 0.3674885 -0.20147032 0.0042712945
0000b0 34 1a b1 3d c3 75 1c be 76 0e 5f bc 20 f1 1e be
       0.08647576 -0.15279298 -0.013614288 -0.1552167
0000c0 84 4b 9b 3d c7 3b a0 3d e6 4c a3 3d f2 c5 8e bc
       0.07582763 0.078239016 0.079736516 -0.017428372
0000d0 52 e3 68 be 7d ec 43 3e 5e b1 fa 3d 74 bb 03 3d
       -0.22742966 0.19133182 0.12240861 0.03216119
0000e0 a6 34 e4 3a 75 33 36 be e4 1e 67 bc d1 3e 8f be
       0.001741071 -0.17793067 -0.014106486 -0.27977613
0000f0 cf fa c2 3d 12 4b 32 be c7 28 08 3e 0e 19 40 be
       0.09520494 -0.1741145 0.13296805 -0.18759558
000100 90 94 25 be e3 95 e5 bd 3d 56 15 be a1 fa 9a bd
       -0.16169953 -0.11210229 -0.14583679 -0.07567335
000110 92 16 0f be 9f 23 d4 3d a1 e2 09 bd 0d 6c b6 bd
       -0.13973454 0.10358357 -0.033663396 -0.08907328
000120 90 a0 02 be 2a 2a 9d 3c e1 9c 34 bd a5 36 ac 3c
       -0.12756562 0.019185144 -0.044094924 0.02102215
000130 09 59 10 be 72 c4 cd bd 11 a7 b5 bd 41 ad 92 be
       -0.14096464 -0.100472346 -0.08869756 -0.28647807
000140 76 b1 a5 bc d7 38 e0 3c 61 99 ad bd a6 17 7f be
       -0.020226222 0.027370853 -0.0847652 -0.24911365
000150 4c 04 53 3d 44 e3 ac bd 78 91 cf bd 74 f3 46 be
       0.05151777 -0.08441785 -0.10135168 -0.19428807
000160 f9 28 0b 3e a6 ff bc 3d 7a b5 53 bd 60 4c 12 be
       0.13589849 0.092284486 -0.05168674 -0.14286947
000170 dd 9d 9a bd 56 e6 46 be ad 23 5a bd 45 35 07 be
       -0.07549641 -0.19423804 -0.05325668 -0.13203914
000180 0f d5 c2 bd bd 5e cc 3d de 70 88 3d cb 13 0c be
       -0.09513294 0.099790074 0.06662153 -0.13679425
000190 d2 5c 8e be d8 41 48 bc f4 1a 84 3b d0 c1 a0 be
       -0.2780519 -0.01222273 0.0040315334 -0.31397867
0001a0 22 d2 04 3e 8d 87 3d be 21 00 4c 3e 06 b4 e6 3d
       0.12970784 -0.1850874 0.19921924 0.112648055
0001b0 d2 c2 08 3d 43 aa 72 bd ef 2f 5a bc 4f 69 18 be
       0.03338892 -0.059244405 -0.013317092 -0.14883922
0001c0 5d 46 60 bd 20 44 fa 3c 0c a3 b1 bc cb 2e 7a 3d
       -0.054754604 0.030550063 -0.021684192 0.06107978
0001d0 46 3e 69 bd 62 76 f4 bd b9 4a 6a 3e 4d 08 95 3d
       -0.056944154 -0.11936642 0.22880067 0.07276974
0001e0 87 8e 80 be 92 ff 21 3d 93 b1 9d 3c 3b 6d bf bc
       -0.2510874 0.03955037 0.019249713 -0.023367515
0001f0 e8 85 1e 3e 3e 56 be 3c b2 57 cc bd 6a 45 2a 3e
       0.15480769 0.023234483 -0.09977664 0.16628042
000200 88 c4 c9 3c da 59 83 3e 1a 37 86 3d f1 ea 12 be
       0.024629846 0.2565449 0.065534785 -0.14347436
000210 2b d5 21 bc c3 db e8 bc 25 ce df 3d 5c c9 0a 3d
       -0.009877483 -0.028425103 0.10927991 0.033883438
000220 7f 95 16 be c6 f7 9a bd f1 59 1b 3e 87 d2 60 bd
       -0.14705466 -0.0756679 0.15171029 -0.054888275
000230 f2 88 8f 3e 22 cf 24 3e fb c9 49 3d ba 65 96 3d
       0.28034168 0.1609464 0.04926489 0.073436216
000240 6e 0f 8a 3e 8b 25 9c be 22 f4 1f be 2c 20 eb 3d
       0.26964897 -0.30497393 -0.15620473 0.11480746
000250 15 e4 2e 3a 9b 07 64 3e 82 d0 11 3c 0c 4d f1 3d
       0.000667156 0.22268526 0.00889981 0.11782274
000260 86 66 80 bd 20 02 32 be bc 1f 40 3e 97 21 6f 3e
       -0.06269555 -0.17383623 0.18762106 0.23352657
000270 e0 9f 0e 3c 5c 48 8e 3d c7 bd 16 3d d4 e3 6f 3e
       0.008705109 0.06947395 0.03680208 0.23426753
000280 97 45 f1 3c 00 76 64 3e 55 42 58 3b 1f eb 36 3c
       0.029452128 0.22310638 0.0032998521 0.011164456
000290 f0 90 e5 3c 15 01 a5 3a 78 1a e7 bc 4e 6e 1d 3e
       0.028023213 0.0012588823 -0.028210863 0.15374109
0002a0 81 7e 63 bd 25 55 6a bd d1 5c 93 bc 75 0e ff 3d
       -0.055540565 -0.057210106 -0.017988594 0.12453929
0002b0 f7 33 25 be 32 96 df bc 25 6d e1 3d d7 0c eb 3b
       -0.16133104 -0.027293298 0.11007146 0.0071731615
0002c0 30 19 35 3d f8 7e 22 bd 80 5c 5d 3d 30 67 f8 3d
       0.044213474 -0.039671868 0.054043293 0.121290565
0002d0 bf 09 b2 3d 6a a0 b2 bd 40 36 67 be 99 17 1a 3e
       0.08693265 -0.08722003 -0.22579288 0.15048064
0002e0 80 ab 0b be 28 0e 81 be a1 e5 51 3d c1 e6 f6 bc
       -0.13639641 -0.25206113 0.05124438 -0.030139329
0002f0 08 88 48 3c 0a 9e 54 3e ae f7 76 3e 14 4e 1f 3e
       0.012239464 0.20763412 0.2411792 0.15557128
000300 26 80 b3 3c 81 82 c0 bd ba 39 c0 3d 62 69 41 3d
       0.021911692 -0.09399892 0.093860105 0.04721964
000310 01 b8 8d be 93 ad a7 3d 26 61 e7 bd 92 fc bf 3d
       -0.27679446 0.081874035 -0.112978265 0.09374346
000320 e0 53 f0 3d e3 f2 ed bd ec 4d ca 3c 09 25 95 3e
       0.11734748 -0.116185926 0.02469536 0.29129818
000330 0d ba 07 be 40 73 71 be de dd c0 bd 3d 4d fd 3c
       -0.13254566 -0.2357912 -0.09417318 0.03092062
000340 f0 2f f9 3b b9 75 bf 3e 5e f3 cd 3c 7f 6b c3 3d
       0.0076045915 0.37394503 0.02514046 0.09541988
000350 f0 80 cd bc df 78 10 3e 28 9f 9c 3d a1 90 11 3e
       -0.025085896 0.14108609 0.07647544 0.14215328
000360 3c 92 92 3d 91 8e 07 be f6 af 3f bd d0 38 fd bd
       0.07156798 -0.13237979 -0.04679867 -0.12364352
000370 fb 6c 1b 3c d8 1e 31 3e ba 30 a2 bc 7f c0 a0 3d
       0.009486432 0.17296922 -0.019798625 0.07849216
000380 bc 15 15 be ac c6 bf bd 85 b7 bb be 21 68 f1 3c
       -0.14559072 -0.093640655 -0.36663452 0.029468598
000390 77 fd 17 3e 2f 6d e5 3d 1c 13 4e 3d 5a 0c c3 be
       0.14842783 0.11202466 0.050311193 -0.3809536
0003a0 da f2 4b 3e aa 20 0c 3e 2c 2a 16 3e d2 6e 9e bd
       0.1991686 0.13684335 0.14664525 -0.07735981
0003b0 2c 9c 20 be 0b 7d a7 bd 9d 15 52 3e 46 af 3b 3c
       -0.15684575 -0.08178147 0.20516057 0.011455363
0003c0 db 29 57 be fb e8 2a be 44 0a 29 bd 2e e9 30 3e
       -0.2101206 -0.16690437 -0.041269556 0.17276451
0003d0 df 75 3f be c5 0c 11 3e 9b 59 b8 3c 04 d3 bd bd
       -0.18697308 0.14165027 0.022503665 -0.09268764
0003e0 58 df a7 3d 30 27 12 3c b2 ad 1f 3e 83 c0 92 3d
       0.08196896 0.008920476 0.15593603 0.07165625
0003f0 15 0d c2 bd c2 fc 38 be f2 c2 88 3e 6c 96 16 3e
       -0.094751514 -0.1806517 0.2671123 0.14705819
