results/GoalAgent23_gamma20/MoveToGoal/MoveToGoal-463177.pt (torch, 439199 bytes, 36 tensors)

network_body._body_endoder.seq_layers.0.weight f4 [128, 6]
0	0x3d5420b1	0.05178899
1	0xbe1613bf	-0.1465597
2	0xbe5475d8	-0.20748079
3	0xbc0d441c	-0.008622196
4	0x3d622c8c	0.055218264
5	0x3e8d3647	0.27580473
6	0x3e383356	0.17988333
7	0x3eed2cf7	0.46323368
8	0x3e875cf7	0.26438114
9	0xbf0a633f	-0.5405769
10	0x3d2a21a0	0.041535974
11	0xbf04cb41	-0.5187264
12	0xbeb934de	-0.36173147
13	0xbeac02e3	-0.33595952
14	0xbf023b94	-0.5087216
15	0xbd2a253f	-0.041539427
16	0x3c6d78d4	0.01449414
17	0x3ef5cae1	0.48006347
18	0xbed0542d	-0.4068922
19	0x3f2edd70	0.68306637
20	0xbe51f28c	-0.2050268
21	0x3f59931b	0.8499009
22	0x3eba50a5	0.36389652
23	0xbf081ea7	-0.5317177
24	0x3dc72fcf	0.09725916
25	0xbf08a175	-0.53371364
26	0x3ebdf317	0.37099525
27	0xbe73eda4	-0.23821121
28	0xbeb6b300	-0.3568344
29	0xbe98c15a	-0.29835016
30	0x3ef08e87	0.4698374
31	0xbe8f8b83	-0.28036126
32	0x3f2c1849	0.67224556
33	0x3d4266b7	0.047461238
34	0x3f91c070	1.1386852
35	0x3eb90f8d	0.36144677
36	0xbf4eeee7	-0.80833286
37	0xbf665133	-0.8996765
38	0x3ddb41cd	0.1070591
39	0xbe957f17	-0.29198524
40	0x3f816450	1.0108738
41	0x3d53bf46	0.051696084
42	0xbe93d0be	-0.28870195
43	0x3ee64114	0.44971526
44	0xbe9de26a	-0.30836803
45	0xbd93ffdc	-0.07226536
46	0xbd2819b8	-0.041040152
47	0xbddb2992	-0.10701288
48	0x3bcdb3ec	0.006277552
49	0x3ec4295f	0.38312814
50	0xbe6c2f79	-0.23064984
51	0x3f145221	0.5793782
52	0x3ce35d9c	0.027754597
53	0xbe158d0d	-0.14604588
54	0xbec812dd	-0.39076892
55	0x3e86ed01	0.26352695
56	0x3e6ea962	0.23306802
57	0x3ee07055	0.43835703
58	0xbf8adfcd	-1.0849549
59	0x3e6e921f	0.23297928
60	0xbe8e5263	-0.2779723
61	0xbe666344	-0.22498804
62	0xbea0e29d	-0.31422892
63	0x3e906d1f	0.28208253
64	0xbdfa371c	-0.122175425
65	0xbe2cfbde	-0.16892955
66	0xbdc35973	-0.095385455
67	0xbeca0c92	-0.39462715
68	0x3e815d34	0.2526642
69	0xbe44d8f2	-0.19223383
70	0xbefee0d3	-0.49780902
71	0x3b026920	0.0019899085
72	0xbe8271d4	-0.2547747
73	0xbe38b40a	-0.1803743
74	0x3e981492	0.29703194
75	0x3f1facf3	0.62373275
76	0xbf4eadd9	-0.8073402
77	0x3c8c2e96	0.017112058
78	0xbd268188	-0.040650874
79	0xbe4ee86a	-0.20205846
80	0xbf151f0b	-0.5825049
81	0x3eee5715	0.46550813
82	0x3f0b2ce5	0.5436538
83	0x3e6bf59f	0.23042916
84	0xbe4a19a4	-0.19736344
85	0x3ed282dd	0.41115466
86	0x3ec9c7c8	0.39410233
87	0x3ef62d3c	0.48081386
88	0x3e2979b9	0.1655034
89	0xbf0cb306	-0.5496067
90	0xbed47c15	-0.41500917
91	0xbec26383	-0.37966546
92	0x3ea0197d	0.31269446
93	0xbe8380d2	-0.2568422
94	0xbf43d1ad	-0.76491815
95	0x3d4a65b2	0.04941339
96	0xbf0d1d7d	-0.5512312
97	0x3ec0b189	0.3763545
98	0xbec548ba	-0.38532048
99	0x3ed45c53	0.41476688
100	0x3ed73128	0.4202969
101	0x3e4783c8	0.19483864
102	0xbe85f41e	-0.2616281
103	0xbdefb7b7	-0.11704963
104	0xbeec0d36	-0.4610383
105	0xbdef2c6a	-0.11678393
106	0xbdc8462c	-0.09779009
107	0x3f5db657	0.86606354
108	0x3d8df728	0.06931907
109	0xbe9782ba	-0.29591924
110	0xbcace994	-0.021107472
111	0xbe4f9d6f	-0.202749
112	0xbd46b9d7	-0.048517074
113	0xbee07049	-0.43835667
114	0xbe4cf2fb	-0.20014565
115	0x3ef93a7c	0.48677433
116	0xbec4a3bd	-0.38406172
117	0xbedae0d2	-0.4274965
118	0xbd9dda6c	-0.07707676
119	0xbe9af4be	-0.30264848
120	0x3f38435c	0.7197778
121	0x3e8793f8	0.2648008
122	0xbe34af70	-0.17645049
123	0xbeca583f	-0.3952045
124	0xbf059322	-0.5217763
125	0x3e122d27	0.14275037
126	0xbd2f6ad3	-0.042826485
127	0xbf16741b	-0.5877091
128	0xbdb37646	-0.08762793
129	0x3bbe31e6	0.005804288
130	0xbef7fa3b	-0.48433098
131	0xbeb1f489	-0.34756878
132	0xbeae445e	-0.34036535
133	0xbe3faa9f	-0.1871743
134	0xbdc2efb4	-0.09518376
135	0x3ebda34e	0.37038654
136	0x3f07ca6d	0.5304325
137	0x3de2845e	0.11060403
138	0x3f162d60	0.58662987
139	0xbccc4de1	-0.02493948
140	0xbd607847	-0.054802205
141	0xbd3d61ad	-0.04623573
142	0xbe369672	-0.17830828
143	0x3ee4cbfc	0.44686878
144	0x3ebbf28d	0.3670849
145	0x3d25b3d4	0.0404547
146	0x3e9430d1	0.28943494
147	0xbe290d4a	-0.16508976
148	0xbd25deca	-0.04049567
149	0xbed393d2	-0.41323715
150	0xbef059a2	-0.46943384
151	0x3d96be08	0.07360464
152	0xbd989687	-0.07450586
153	0xbebe13ad	-0.37124386
154	0x3f1d7e3b	0.6152074
155	0x3eb1ae8e	0.34703487
156	0xbecabb80	-0.39596176
157	0x3ebed96b	0.37275252
158	0x3e27a7d1	0.1637261
159	0x3d846e08	0.06466299
160	0xbcb84405	-0.022493372
161	0xbea5bcad	-0.3237051
162	0xbe2b135a	-0.16706601
163	0xbde7c465	-0.11316756
164	0xbf033575	-0.51253444
165	0x3d0791f2	0.03309817
166	0xbf8fd995	-1.1238276
167	0x3eaf0eb8	0.34190917
168	0xbeca4617	-0.395066
169	0xbf70308c	-0.93824077
170	0x3df2fbfd	0.11864469
171	0x3dfd8c7d	0.12380312
172	0x3e109cf2	0.1412237
173	0xbe4aaf07	-0.1979333
174	0xbe3ca819	-0.18423499
175	0xbd15e1a2	-0.036592133
176	0xbe07e870	-0.13272262
177	0x3eef342f	0.467195
178	0x3def91a1	0.116976984
179	0xbde230d4	-0.110444695
180	0x3edf3d94	0.43601668
181	0x3f1e08bf	0.61732095
182	0x3ee85cdd	0.4538335
183	0xbee9537d	-0.4557151
184	0xbca2914c	-0.019844674
185	0x3dcd2fe4	0.100189
186	0xbe0b9f47	-0.13634978
187	0x3ee92e31	0.45543054
188	0xbe84c21f	-0.25929353
189	0x3f00f49b	0.5037324
190	0xbe11b669	-0.1422974
191	0xbf06bced	-0.5263203
192	0xbd11a1a0	-0.03555453
193	0xbd46416e	-0.048402242
194	0x3d0b152e	0.033955745
195	0x3e5eb0cb	0.21747129
196	0xbedba2f5	-0.42897764
197	0xbe74290f	-0.23843788
198	0xbd80b911	-0.062852986
199	0xbd9df486	-0.07712655
200	0xbeb1eef7	-0.34752628
201	0xbd5dcace	-0.054148488
202	0x3c460f36	0.0120885875
203	0xbea8a905	-0.32941452
204	0xbf2c623c	-0.67337394
205	0x3e1a8635	0.15090258
206	0x3e393e35	0.18090136
207	0xbe80333b	-0.25039086
208	0xbcfc73e9	-0.030816989
209	0xbe9b640d	-0.3034977
210	0xbf8c16d2	-1.0944464
211	0xbd87a953	-0.06624093
212	0x3d0c91b3	0.034318637
213	0xbe8a5055	-0.27014413
214	0xbdb6cd4f	-0.08925878
215	0x3f04db40	0.5189705
216	0xbe1bf351	-0.15229537
217	0x3e301768	0.17196429
218	0xbed9ab44	-0.42513478
219	0xbef71c16	-0.48263615
220	0xbdd0dae6	-0.101980016
221	0xbd68a054	-0.056793526
222	0xbf4cc234	-0.7998383
223	0x3f0f9652	0.56088746
224	0x3ebc079c	0.36724555
225	0xbe971d6a	-0.2951463
226	0xbe1d1876	-0.15341362
227	0xbf1cf870	-0.61316586
228	0xbe8624f3	-0.26200065
229	0x3e1406ac	0.1445567
230	0x3f04601c	0.5170915
231	0xbe44a4c6	-0.19203481
232	0x3f02604b	0.5092818
233	0x3d9ea890	0.077469945
234	0xbf8768f8	-1.0578909
235	0x3df3cbd0	0.119041085
236	0x3ec4058f	0.3828549
237	0x3ed20350	0.41018152
238	0xbf1c558b	-0.6106803
239	0x3f95662c	1.1671805
240	0x3ed5fae1	0.41792968
241	0xbe34ad37	-0.17644201
242	0x3ed26d0d	0.41098824
243	0xbeca5c91	-0.39523748
244	0x3eeca13b	0.4621676
245	0xbf16480d	-0.5870369
246	0x3e2aef35	0.16692813
247	0xbe0a3366	-0.1349617
248	0xbe42d1dd	-0.19025369
249	0x3e79ef35	0.24407656
250	0x3dcf81ac	0.10132155
251	0x3e7ca1e6	0.24671134
252	0x3d135919	0.035973642
253	0xbc6e2953	-0.01453622
254	0xbf6f9d5c	-0.93599486
255	0x3cf7df55	0.03025786

network_body._body_endoder.seq_layers.0.bias f4 [128]
0	0xbcf9c68b	-0.03049018
1	0x3e00f378	0.12592876
2	0xbb284aac	-0.0025679274
3	0x3d7e282e	0.062050037
4	0x3c83b533	0.016077613
5	0x3e3657a0	0.17806864
6	0x3d6311db	0.05543695
7	0x3dfa59b0	0.12224138
8	0x3cbd47bf	0.0231055
9	0xbdf38e15	-0.11892334
10	0xbad6d572	-0.0016390516
11	0xbe7faaad	-0.24967451
12	0xbda893e1	-0.08231331
13	0x3cb9fcc3	0.022703534
14	0x3d81fa68	0.06346589
15	0xbdd8d7d0	-0.10588038
16	0x3d33d563	0.043904673
17	0xbc20d27f	-0.009815811
18	0xbd28ebce	-0.041240506
19	0x3d11193b	0.035424452
20	0x3dc0d8f3	0.0941638
21	0xbc5e23d6	-0.013558349
22	0x3a6c8b06	0.00090234017
23	0x3db1d95b	0.086840354
24	0x3e2fe043	0.17175393
25	0xbd519b19	-0.051173303
26	0x3c98ce9a	0.018653203
27	0xbd631d90	-0.055448115
28	0x3d2e35cd	0.042531777
29	0x3c5483c2	0.012970867
30	0x3e159675	0.14608176
31	0x3d3b6c4f	0.045757588
32	0x3d82ed7f	0.06392955
33	0xbdfbfcb2	-0.12304057
34	0x3cdf15b7	0.027232034
35	0x3d0ff502	0.035145767
36	0x3d8c9fcf	0.068664186
37	0x3d79d8b4	0.06099768
38	0x3d8b93b4	0.068152815
39	0xbc6a46ba	-0.014299089
40	0x3e2a17cc	0.1661064
41	0xbbd29c53	-0.0064273267
42	0x3d6b71fe	0.05748176
43	0xbcf7a244	-0.030228741
44	0x3d9c87b1	0.076430686
45	0x3e1c099a	0.15238038
46	0xbbb7c6c1	-0.00560841
47	0x3b32083e	0.0027165557
48	0x3de06828	0.10957366
49	0x3e402ebb	0.18767826
50	0x3e13cd0d	0.1443369
51	0x3da2dbde	0.079520926
52	0x3d55b60f	0.052175578
53	0xbd4cfdea	-0.05004684
54	0x3e1a2cf7	0.15056215
55	0xbbb4910e	-0.005510456
56	0xbc018dcc	-0.007907342
57	0x3d8e90cb	0.06961211
58	0x3cf16d52	0.029471073
59	0x3d7d6d25	0.061871666
60	0x3cbc1e67	0.022963716
61	0x3c9dfd13	0.019285714
62	0x3d8b1bda	0.06792422
63	0x3d4b6f31	0.049666587
64	0xbdb545a2	-0.08851172
65	0xbe3e78b9	-0.1860074
66	0x3bd2bb8c	0.0064310487
67	0x3dc1f2b7	0.09470122
68	0x3e9c804e	0.3056664
69	0xbd2051d0	-0.039140522
70	0x3caba391	0.020952018
71	0x3d489511	0.048970286
72	0x3dcc02d8	0.0996148
73	0x3ddb2b8c	0.10701665
74	0xbc96f04f	-0.018425135
75	0x3dcc9c6d	0.09990773
76	0x3d688139	0.05676386
77	0x3d02d3dd	0.03194033
78	0xbdca821c	-0.09888098
79	0x3d9eebc8	0.077598155
80	0xbcd5a7aa	-0.026080925
81	0x3d3ab4f8	0.04558274
82	0x3d446157	0.047944393
83	0x3d74bb6e	0.05974906
84	0x3d62f5c3	0.055410158
85	0x3db78cab	0.08962377
86	0x3d92edae	0.0717424
87	0xbdbf4e7d	-0.09341142
88	0x3e0188c3	0.12649827
89	0x3d5fdb64	0.054652587
90	0x3d427290	0.047472537
91	0xbb5db8f5	-0.0033832167
92	0x3d134844	0.03595759
93	0x3e05cfb7	0.13067518
94	0x3cee9bdc	0.029127054
95	0xbd291210	-0.04127699
96	0x3d221b4a	0.039576806
97	0x3db3b54b	0.08774813
98	0x3ca68bb3	0.020330286
99	0xbe14a7e4	-0.1451717
100	0x3d1efa86	0.038813137
101	0xbd4bf34f	-0.049792584
102	0xbdf419b3	-0.11918964
103	0xbd9309e0	-0.07179618
104	0x3e5f15f3	0.21785717
105	0x3d841575	0.06449405
106	0x3da2e3c2	0.079535976
107	0x3cbeccc2	0.023290996
108	0xbd71f5a0	-0.059072137
109	0xbdaf9441	-0.08573199
110	0x3d429b18	0.04751119
111	0x3d508c94	0.050915316
112	0xbdfd870e	-0.12379275
113	0x3e33b8c9	0.17550959
114	0x3c2c1acc	0.010504436
115	0x3df045a0	0.1173203
116	0x3db3180e	0.087448224
117	0xbd55df65	-0.052215
118	0x3d95642d	0.07294498
119	0xbe61f84b	-0.22067373
120	0x3dd12311	0.102117665
121	0xbd08f935	-0.033440787
122	0x3e141011	0.14459254
123	0x3e122c8a	0.14274803
124	0xbc957e59	-0.018248724
125	0xbcd775f5	-0.026301363
126	0x3dbfdc5f	0.09368204
127	0x3e25d8f4	0.16196042

network_body._body_endoder.seq_layers.2.weight f4 [128, 128]
0	0x3e48081d	0.19534345
1	0x3d82116c	0.06350979
2	0x3dbe35d7	0.09287613
3	0xbe4db636	-0.20089039
4	0xbcd4f064	-0.025993533
5	0x3d961662	0.07328488
6	0x3ddfab41	0.10921336
7	0x3e0ca556	0.13734946
8	0xbd2cdac6	-0.042200826
9	0x3e4e44e2	0.20143464
10	0xbd3565fb	-0.04428671
11	0xbcce1e13	-0.025160825
12	0x3ca667cf	0.020313172
13	0x3e01c5b5	0.12673075
14	0xbe3acdfd	-0.18242641
15	0xbddf6960	-0.109087706
16	0xbdf28996	-0.11842649
17	0xbd5e4d23	-0.054272782
18	0xbd912f3a	-0.07089086
19	0x3d84ca61	0.06483913
20	0x3e46cfb5	0.19415171
21	0xbd4db80d	-0.050224353
22	0xbe147cf7	-0.14500795
23	0x3c7e83c1	0.015534342
24	0xbd45ba42	-0.048273332
25	0x3cc9c1db	0.02462857
26	0xbdf43c96	-0.11925618
27	0xbd935d87	-0.07195573
28	0xbe6a177f	-0.22860526
29	0xbd372008	-0.04470828
30	0x3dea0c55	0.114281334
31	0x3b1dba66	0.00240674
32	0x3c26da21	0.010183842
33	0x3d32ec54	0.04368241
34	0xbdd0b577	-0.10190862
35	0xbd478d1c	-0.048718557
36	0xbc3556ac	-0.0110680275
37	0x3d5588a5	0.052132268
38	0x3daae623	0.08344676
39	0xbe257905	-0.16159447
40	0xbe10f981	-0.14157678
41	0x3df122a5	0.11774186
42	0xbdc7d3db	-0.09757205
43	0x3c005f00	0.00783515
44	0x3e2e4e3e	0.17022035
45	0x3dd66331	0.10468138
46	0xbdb8e976	-0.09028904
47	0x3dc9c2b5	0.098515905
48	0xbe8ea3b0	-0.2785926
49	0x3e015e28	0.12633574
50	0x3e31ffef	0.17382787
51	0x3b5572f5	0.003256974
52	0x3dc6546d	0.09684072
53	0x3b39486e	0.0028271931
54	0xbd3eb197	-0.04655608
55	0xbc9bcc89	-0.019018428
56	0xbd74dbee	-0.059780054
57	0xbe60565e	-0.21907946
58	0x3d7d668e	0.061865382
59	0xbdc66122	-0.09686495
60	0xbdcf622c	-0.10126147
61	0xbe33462a	-0.17507234
62	0x3d799976	0.060937367
63	0xbce3e956	-0.027821224
64	0x3dc52f4c	0.09628162
65	0xbd7efc0f	-0.0622521
66	0x3c3c0f64	0.011478279
67	0xbd5efe7e	-0.05444192
68	0xbbb5a0b9	-0.0055428413
69	0xbdf8ab0f	-0.12142002
70	0x3e37c4a2	0.17946103
71	0x3dcb1ef8	0.09918016
72	0xbcaa9133	-0.02082119
73	0x3dfb66cd	0.12275467
74	0xbc4550d7	-0.0120431995
75	0xbdd63819	-0.104599185
76	0x3ccb0dbf	0.024786828
77	0x3cd74bff	0.026281355
78	0x3d4b59cd	0.049646188
79	0x3debb569	0.115092106
80	0xbd55b58d	-0.052175093
81	0x3e04d95c	0.12973541
82	0x3d8e55f6	0.069499895
83	0x3e48a453	0.19593935
84	0x3bea72c5	0.007154795
85	0x3cf6d404	0.030130394
86	0x3d29cf0e	0.04145723
87	0xbd1b2148	-0.037873536
88	0xbe178737	-0.14797674
89	0x3e2587cd	0.16165085
90	0xbdfa3573	-0.12217226
91	0x3af48a0c	0.0018656864
92	0x3c1c182a	0.009527246
93	0x3dfb6e0f	0.122768514
94	0x3e44e2a0	0.19227076
95	0xbcdda164	-0.027054496
96	0x3d8f7d60	0.07006335
97	0x3e64e370	0.22352386
98	0x3d0c45c2	0.034246214
99	0xbdc4e5da	-0.09614153
100	0x3a84eef8	0.0010142019
101	0x3dea88d8	0.11451882
102	0x3de29c1d	0.110649325
103	0x3bb9b01c	0.005666746
104	0x3d857aa8	0.065175354
105	0xbe22498d	-0.1584837
106	0x3d46e2cc	0.048556134
107	0xbc3bac52	-0.011454659
108	0x3c3ffefb	0.011718507
109	0xbd0b336c	-0.033984587
110	0xbd106be5	-0.035259146
111	0xbb960146	-0.0045777885
112	0x3d205b19	0.039149377
113	0x3de034a8	0.109475434
114	0x3e4bce4c	0.19902915
115	0x3dcd1446	0.100136325
116	0x3d8c0021	0.06835962
117	0xbdc79c1c	-0.097465724
118	0xbdb538ca	-0.08848722
119	0xbd8c30e4	-0.06845263
120	0xbc836d83	-0.01604343
121	0xbd927d13	-0.07152762
122	0xbe1baa1c	-0.1520161
123	0xb9bd0541	-0.00036052804
124	0xbd4e80ae	-0.050415687
125	0x3de0c8b6	0.109757826
126	0xbd3c8f6f	-0.046035226
127	0x3e481cf9	0.19542302
128	0xbdda3955	-0.106554665
129	0x3db0bae5	0.08629397
130	0xbe8f6911	-0.28009847
131	0x3d3e9f3f	0.046538588
132	0xbd9a3a83	-0.075306915
133	0xbe221514	-0.15828353
134	0x3d201b0c	0.039088294
135	0xbdda2c5c	-0.10652992
136	0xbd0f0698	-0.034918398
137	0x3dbc732a	0.09201653
138	0xbe8afa11	-0.2714391
139	0xbc8d48f5	-0.017246703
140	0xbcfd72b2	-0.03093848
141	0xbd67faae	-0.05663555
142	0x3dffaa37	0.12483638
143	0x3c606ea4	0.013698254
144	0xbd9f3174	-0.07773104
145	0x3d41c685	0.047308464
146	0xbe6e6696	-0.23281321
147	0x3d097cd9	0.03356633
148	0xbc5725a5	-0.013131534
149	0xbe7d16c5	-0.24715717
150	0x3ddfa824	0.10920742
151	0xbe0ed3c2	-0.13947967
152	0x3da995b7	0.08280509
153	0xbe86e9ca	-0.26350242
154	0xbdea384f	-0.11436521
155	0xbe4fc5b0	-0.20290256
156	0x3cffff0a	0.031249542
157	0xbdba61a7	-0.09100657
158	0x3d89398d	0.0670043
159	0xbce61fb0	-0.028091282
160	0x3e2b3502	0.1671944
161	0xbe7ea3f7	-0.24867235
162	0x3dda8eb2	0.10671748
163	0x3dd7f5a1	0.10544897
164	0x3d432b54	0.047648743
165	0xbcae863b	-0.02130424
166	0x3d52c884	0.051460758
167	0xbbaec1a0	-0.0053331405
168	0xbd31e06e	-0.043426923
169	0xbd4ee606	-0.050512336
170	0xbe16d6e6	-0.14730415
171	0xbcf443dd	-0.029817516
172	0x3a875d62	0.0010327513
173	0x3b8f9cf8	0.004382726
174	0xbce9fcda	-0.028562952
175	0x3de74932	0.11293258
176	0x3d274a9e	0.040842645
177	0x3d9a8428	0.07544738
178	0xbe800854	-0.25006354
179	0xbd81454c	-0.063120455
180	0x3dfff9b3	0.12498798
181	0x3d9d6804	0.07685855
182	0x3cdad62e	0.026713457
183	0xbd0bc3a5	-0.034122128
184	0x3dcea707	0.10090452
185	0x3c46d6d0	0.012136176
186	0xbe021a10	-0.12705255
187	0xbd9915c3	-0.07474854
188	0x3df3a598	0.11896819
189	0x3c102a41	0.008799137
190	0xbe0b8cf3	-0.13627987
191	0x3dc23fc1	0.09484816
192	0x3c1d4ccc	0.009600829
193	0xbdaa74f8	-0.08323091
194	0xbc5aaa19	-0.0133462185
195	0xbe3a9b82	-0.18223384
196	0x3e1ffb52	0.15623215
197	0xbd783732	-0.060599513
198	0xbde08aa0	-0.109639406
199	0xbdd401e7	-0.10351925
200	0xbd7bfb4c	-0.061518952
201	0xbe00db2c	-0.12583607
202	0xbe626075	-0.22107108
203	0xb7e1c6cf	-2.6914668e-05
204	0x3d37c6ea	0.044867434
205	0x3cf91420	0.030405104
206	0xbeaf49d4	-0.34236014
207	0xbd3cdcc3	-0.046108972
208	0x3c97cb9d	0.018529708
209	0xbe43fe76	-0.19140038
210	0xbdfafcca	-0.12255247
211	0x3ca408f4	0.0200238
212	0xbcd28aa9	-0.025700884
213	0xbced73b8	-0.028985843
214	0x3d75cd63	0.060010325
215	0xbe469801	-0.19393922
216	0x3d9dec49	0.077110834
217	0x3def3d71	0.11681641
218	0xbd522b19	-0.051310632
219	0xbe04d215	-0.12970765
220	0xbd7bb99f	-0.06145632
221	0x3e014e6d	0.12627573
222	0xbd86f7a4	-0.065902025
223	0x3dd72921	0.105058916
224	0x3cdcf435	0.026971916
225	0xbe040fee	-0.12896702
226	0x3c004d8c	0.007830989
227	0x3c518264	0.012787435
228	0xbdd4f8dd	-0.103990294
229	0xbdad3b36	-0.08458559
230	0xbe3575ee	-0.17720768
231	0x3e27df73	0.16393833
232	0x3d738b63	0.0594591
233	0x3c030f4a	0.007999251
234	0xbcc9b684	-0.024623163
235	0xbdff455c	-0.12464401
236	0xbd9dd5f0	-0.07706821
237	0xbb43ea78	-0.0029894393
238	0xbe944acf	-0.28963324
239	0x3dd57458	0.104225814
240	0x3e233b2c	0.15940541
241	0xbc506118	-0.012718461
242	0xbe01c9fe	-0.1267471
243	0xbdf78a7c	-0.12086961
244	0xbe2b6235	-0.16736682
245	0x3e93e870	0.28888273
246	0x3cc49a6c	0.023999415
247	0xbe19ab29	-0.15006699
248	0x3e1d4565	0.15358503
249	0x3dd0a912	0.101884976
250	0x3d5a9fe4	0.05337514
251	0x3d78bad7	0.06072506
252	0x3db3ba17	0.08775728
253	0xbd461311	-0.048358027
254	0xbc53cb37	-0.012926868
255	0xbdbeae60	-0.09310603

network_body._body_endoder.seq_layers.2.bias f4 [128]
0	0x3d61b80d	0.055107165
1	0x3de595ae	0.1121019
2	0x3c1c766a	0.0095497165
3	0x3df4978c	0.11942968
4	0x3db23605	0.0870171
5	0x3d9e27d3	0.077224396
6	0x3d21a705	0.039465923
7	0x3dd60b42	0.10451366
8	0x3d9baad2	0.07600941
9	0x3da20d59	0.07912702
10	0x3e22868f	0.15871643
11	0x3dae273e	0.085035786
12	0x3d2bb68c	0.041922137
13	0x3cfddcb5	0.03098903
14	0x3dbbfaf6	0.091787264
15	0x3d9d6e21	0.07687021
16	0x3e02e4ea	0.12782636
17	0x3d511d8c	0.05105357
18	0x3da43d40	0.08019495
19	0x3da9f8c5	0.08299402
20	0x3e011426	0.12605342
21	0x3d67daca	0.056605138
22	0x3e33352f	0.17500757
23	0x3dec4caf	0.11538064
24	0x3dcf2ae8	0.101156056
25	0xba031ecd	-0.0005001843
26	0x3d4e5d81	0.05038214
27	0x3d2455d5	0.04012092
28	0x3e441821	0.1914983
29	0x3d087e81	0.03332377
30	0x3c859cad	0.01631006
31	0x3d9d4e04	0.07680896
32	0x3e0e8519	0.1391796
33	0x3d67cd39	0.0565922
34	0xbc041943	-0.0080626635
35	0x3e0229aa	0.12711206
36	0x3ddd26fe	0.10798453
37	0x3d877d3c	0.066156834
38	0x3d496dd8	0.04917702
39	0x3dc0c54e	0.09412633
40	0x3dc33342	0.09531261
41	0x3e2c4320	0.16822481
42	0x3cbdcff8	0.023170456
43	0x3e1336f4	0.14376432
44	0x3de83a0a	0.11339195
45	0x3da65c9b	0.08123132
46	0x3d43579b	0.04769097
47	0x3bc70722	0.0060738483
48	0x3e2ac3c3	0.1667624
49	0x3c968ffa	0.0183792
50	0x3e0811c8	0.13288033
51	0x3d8d0327	0.06885367
52	0x3d22c512	0.039738722
53	0x3d85cfbf	0.06533765
54	0x3df4ba85	0.11949638
55	0x3d60da1e	0.054895513
56	0x3d40ed66	0.0471014
57	0x3da45c36	0.080254
58	0x3e09e86a	0.13467565
59	0x3c311d5c	0.0108102225
60	0x3c9a7dcf	0.018858818
61	0x3daa04e4	0.08301714
62	0x3db651dd	0.08902333
63	0x3d20643d	0.039158095
64	0x3c7d98b3	0.015478301
65	0x3d754829	0.05988327
66	0x3dd52abb	0.10408541
67	0x3e000db1	0.12505223
68	0x3ac6cc06	0.0015167005
69	0x3b2f7a80	0.0026775897
70	0x3d118da5	0.035535473
71	0x3d9f5de5	0.07781581
72	0x3d155fd8	0.036468357
73	0x3e1228ba	0.14273348
74	0x3cc6733f	0.024224875
75	0x3d8b7198	0.06808776
76	0x3d5c8f75	0.05384775
77	0xba98be76	-0.0011653441
78	0x3e6372ee	0.22211811
79	0x3da65dbb	0.081233464
80	0x3d783a5e	0.06060254
81	0x3d733133	0.059373092
82	0x3cc4fcf3	0.024046397
83	0x3dbd8e2f	0.09255635
84	0x3d5be2d4	0.053683117
85	0x3d223345	0.039599676
86	0x3c2806b9	0.010255509
87	0x3c6868f2	0.014185177
88	0x3dc6043b	0.09668776
89	0x3df607d3	0.12013211
90	0x3df4fac8	0.11961895
91	0x3d63463d	0.055486906
92	0xbc2f7275	-0.010708441
93	0x3c83f66b	0.016108712
94	0x3e03a5b4	0.1285618
95	0xbc5aa7a7	-0.0133456355
96	0x3d361a7d	0.044458855
97	0x3c4ae788	0.012384303
98	0xbc8c7b10	-0.017148525
99	0x3d770833	0.060310554
100	0x3da5d41a	0.08097096
101	0x3d6b1150	0.057389557
102	0x3e2b72ab	0.16742961
103	0x3d13a821	0.036049012
104	0x3e02895d	0.12747712
105	0x3e4953b1	0.19660832
106	0x3d24e127	0.040253785
107	0x3d6332b2	0.05546827
108	0x3e498ac6	0.19681844
109	0x3e2b51e2	0.16730455
110	0x3d147920	0.036248326
111	0x3d4dc3ce	0.050235562
112	0x3d66f3e7	0.056384947
113	0x3c894abb	0.016759267
114	0x3be7420c	0.007057434
115	0x3d9361fa	0.07196422
116	0x3dc273a0	0.0949471
117	0x3d9743aa	0.07385953
118	0x3d30ac36	0.043132983
119	0xbbebd55f	-0.0071970667
120	0x3c0e0d79	0.008670204
121	0x3e24e0c4	0.16101366
122	0x3d0dc5f8	0.034612626
123	0x3e373497	0.17891155
124	0x3d901faf	0.07037293
125	0xbc8643f1	-0.016389819
126	0x3d68442d	0.056705642
127	0x3dfb2a04	0.12263873

action_model._continuous_distribution.log_sigma f4 [1, 2]
0	0x3da3d107	0.07998853
1	0x3c40eca9	0.011775174

action_model._continuous_distribution.mu.weight f4 [2, 128]
0	0xbd8947e6	-0.06703167
1	0x3d4755c4	0.048665777
2	0x3ca186da	0.019717623
3	0x3dda7a0d	0.106678106
4	0xbd82475c	-0.06361267
5	0x3dc8a9bc	0.09797999
6	0x3ab8d4ff	0.0014101564
7	0x3c825449	0.01590933
8	0x3d964b4b	0.0733858
9	0x3db9c7c9	0.09071309
10	0xbe375a3c	-0.17905515
11	0x3d827f39	0.06371922
12	0x3d58cb57	0.052928295
13	0x3d506631	0.050878707
14	0x3dad98be	0.08476399
15	0xbd45ee62	-0.048323043
16	0xbdeccc20	-0.11562371
17	0xbd1d31c4	-0.03837754
18	0xbda66155	-0.08124033
19	0x3dcd35f6	0.10020058
20	0xbce513a6	-0.02796347
21	0xbd5ed41b	-0.0544015
22	0xbdc7eaec	-0.09761605
23	0x3dfeecfc	0.12447545
24	0xbdb1657f	-0.08661937
25	0xbc9e5452	-0.019327316
26	0xbcd88cc7	-0.026434315
27	0x3d7ab9d6	0.061212383
28	0xbdd26423	-0.10273006
29	0x3c76cb31	0.015063093
30	0xbd3d8d26	-0.046277188
31	0x3de84e56	0.113430664
32	0xbd418c94	-0.047253206
33	0xbcb2a4cc	-0.021807097
34	0x3d53f614	0.05174835
35	0xbdad069b	-0.084485255
36	0x3dad4aab	0.084615074
37	0x3c4835d4	0.012219865
38	0x3ceaad4a	0.028647084
39	0xbccfbfdf	-0.025360046
40	0xbd37b50f	-0.044850405
41	0xbe802da5	-0.25034824
42	0x3d309353	0.04310925
43	0x3e002e8e	0.12517759
44	0xbdb2c1a7	-0.087283425
45	0x3dd6b1ab	0.10483106
46	0x3d93241e	0.07184623
47	0x3a74b4c6	0.00093347987
48	0xbe29bac8	-0.16575158
49	0xbc4f1132	-0.012638377
50	0xbdb300bd	-0.08740375
51	0x3d686f7b	0.05674694
52	0x3d5fd6fd	0.05464839
53	0xbd1d602e	-0.038421802
54	0xbdb18879	-0.08668608
55	0x3d2298a7	0.039696362
56	0x3d9f8f1a	0.07790966
57	0xbc0d2970	-0.0086158365
58	0x3d1af63a	0.037832476
59	0x3d332e0f	0.043745097
60	0xbd9ac4a9	-0.07557041
61	0xbd6427fa	-0.055702187
62	0xbd90117b	-0.07034584
63	0xbd3f800c	-0.046752974
64	0x3d4292c3	0.047503244
65	0xbb961dbc	-0.0045811813
66	0x3da18fb4	0.07888737
67	0xbd5b2d73	-0.05351014
68	0xbceca9a3	-0.028889483
69	0x3d121291	0.035662238
70	0xbd592be2	-0.053020366
71	0x3cb824ae	0.022478428
72	0x3d156cf9	0.036480878
73	0xbd3ea08f	-0.04653984
74	0x3d7d8a93	0.061899733
75	0x3ce5db65	0.028058717
76	0x3c7a788c	0.01528753
77	0xbc9dc81c	-0.019260459
78	0xbe542e6c	-0.20720834
79	0xbac173ad	-0.0014759206
80	0xbd53c430	-0.05170077
81	0xbdc4ea25	-0.09614972
82	0x3d349b93	0.04409368
83	0xbd436ed1	-0.047713105
84	0xbd0da9f8	-0.034585923
85	0xbda14a92	-0.07875551
86	0xbd330447	-0.04370525
87	0x3d17f506	0.037098907
88	0x3c05b357	0.008160434
89	0xbdd42b4f	-0.10359823
90	0xbd066b22	-0.032817014
91	0x3d5fda5b	0.0546516
92	0x3d0ba253	0.03409035
93	0x3d3a279a	0.045447923
94	0xbd8b0ef2	-0.0678996
95	0x3d43fff3	0.047851514
96	0x3d284bcb	0.041087907
97	0xbcfe578a	-0.031047601
98	0xbb91c784	-0.004448833
99	0x3d805037	0.062653
100	0xbd9a7f96	-0.07543866
101	0xbdd0e32f	-0.10199582
102	0xbe228921	-0.15872623
103	0x3d836f2f	0.06417691
104	0xbe0d1531	-0.13777615
105	0xbe6a2549	-0.22865786
106	0x3d4f28ed	0.05057614
107	0x3cc1014f	0.023560194
108	0x3e8afae7	0.27144548
109	0xbe0b4873	-0.13601856
110	0xbc8e908a	-0.017402906
111	0x3ceb7ab1	0.028745027
112	0x3d661770	0.056174695
113	0x3d82d635	0.06388513
114	0xbd1dc55d	-0.0385183
115	0xbd3863a2	-0.045016892
116	0xbba0c347	-0.0049060914
117	0x3d8d49e9	0.06898863
118	0x3bcf90a9	0.0063343835
119	0xbc99810b	-0.01873829
120	0x3db37176	0.08761875
121	0xbe4ac3b0	-0.19801211
122	0xbd3e2d97	-0.046430197
123	0xbdc4f38c	-0.096167654
124	0x3d103e0b	0.03521542
125	0x3a14120c	0.0005648441
126	0xbd3b7bfe	-0.045772545
127	0xbde35e5c	-0.11101982
128	0x3df0d3be	0.117591366
129	0xbe2a4e6f	-0.16631483
130	0xbd12b0d4	-0.035813168
131	0x3ca43c1d	0.020048195
132	0xbd351703	-0.0442114
133	0x3c85bb72	0.016324732
134	0xbd6cfe15	-0.0578595
135	0xbdd75248	-0.10513741
136	0xbcb4d890	-0.022075921
137	0x3cf57b6b	0.029966077
138	0x3d525c74	0.0513577
139	0x3cc94f0e	0.024573829
140	0x3c145aaa	0.009054819
141	0x3b9b876d	0.0047463686
142	0x3d9837c7	0.07432514
143	0xbd7ca5c9	-0.061681543
144	0x3cb08e3f	0.021552203
145	0x3b9f5d75	0.004863436
146	0x3cf4b192	0.029869828
147	0xbb9d1d9b	-0.004794789
148	0xbdf0bec3	-0.11755135
149	0x3cefcb6d	0.029271806
150	0xbe5efde6	-0.21776542
151	0xbda8f9d4	-0.08250776
152	0xbd19ff97	-0.037597265
153	0xbb31c63f	-0.002712622
154	0xbd7cfb21	-0.061762933
155	0x3d2e047b	0.04248474
156	0xbe1bc7c8	-0.15212929
157	0x3d1878b1	0.037224475
158	0x3d7e5872	0.062096067
159	0xba16bec0	-0.000575047
160	0xbe07d208	-0.13263714
161	0xbd3f6645	-0.04672839
162	0x3c9f8cc2	0.019476298
163	0xbe1f2637	-0.15541922
164	0xbdb019c3	-0.08598664
165	0xbd8999d5	-0.06718794
166	0x3cd26fda	0.0256881
167	0xbda2f95f	-0.0795772
168	0x3daf6659	0.08564443
169	0xbd3d91d3	-0.046281647
170	0xbc029fda	-0.007972682
171	0x3d799b09	0.06093887
172	0x3d941cc0	0.07232046
173	0x3d46c0f3	0.048523854
174	0xbd45f431	-0.048328582
175	0x3d21126b	0.039324205
176	0x3e266128	0.16248
177	0xbd589993	-0.052880835
178	0xbd92954b	-0.071573816
179	0xbde07c0b	-0.10961159
180	0xbd65a379	-0.056064103
181	0x3d560031	0.052246276
182	0x3d7c8168	0.06164685
183	0xbda98b19	-0.08278484
184	0x3d965162	0.07339741
185	0x3dba3f0b	0.09094056
186	0xbe2b97fa	-0.16757193
187	0xbca0cca0	-0.019628823
188	0x3cc7a456	0.024370354
189	0xbdc70624	-0.09717968
190	0xbdb04c85	-0.08608345
191	0x3d559192	0.05214078
192	0x3c6723db	0.01410767
193	0xbddb7599	-0.10715789
194	0x3da2a774	0.079420954
195	0x3e053f28	0.13012373
196	0x3cea1da4	0.028578587
197	0x3c44cc54	0.012011606
198	0xbd169cb1	-0.036770526
199	0x3e018424	0.12648064
200	0x3d624a6e	0.055246763
201	0xbe08409f	-0.13305901
202	0xbb9008e9	-0.0043955934
203	0x3da8ca6c	0.08241734
204	0xbda73a32	-0.08165397
205	0x3caddac2	0.021222476
206	0xbdc2d9ea	-0.0951422
207	0x3e100351	0.14063765
208	0x3c9279ab	0.017880281
209	0x3c6b0464	0.0143443085
210	0xbc0a6499	-0.008446836
211	0x3db92371	0.09039963
212	0xbd5d6905	-0.054055233
213	0x3da161da	0.07879992
214	0x3d1199f3	0.035547208
215	0xbd43e3b3	-0.047824573
216	0xbe353b60	-0.17698431
217	0x3e263379	0.16230573
218	0xbe27611a	-0.16345635
219	0xbb71399a	-0.0036808015
220	0xbc7b1ef3	-0.015327203
221	0x3d448e65	0.04798736
222	0xbe0fff34	-0.14062196
223	0x3b7b52eb	0.0038348984
224	0xbdc7d675	-0.09757701
225	0xbd45e533	-0.048314285
226	0xbc899f09	-0.016799467
227	0x3ceb9455	0.028757254
228	0x3cac1729	0.021007137
229	0xbcda8e6c	-0.02667924
230	0x3e19ebf6	0.15031418
231	0xbd95e5ce	-0.073192224
232	0x3caf1abc	0.021375053
233	0xbc14cac9	-0.009081551
234	0x3d163c5f	0.036678668
235	0x3d737cf1	0.059445325
236	0x3dac998a	0.08427723
237	0xbe180ff1	-0.14849831
238	0xbd749d19	-0.059720132
239	0x3d930d19	0.071802326
240	0xbc42924a	-0.011875698
241	0xbc873789	-0.016505973
242	0x3cf71cd1	0.030165108
243	0xbdb52113	-0.08844199
244	0xbdea5131	-0.11441267
245	0xbd92cb95	-0.071677364
246	0xbd734f7d	-0.059401978
247	0xbc275df2	-0.010215269
248	0x3b131e4e	0.0022448483
249	0x3dbd93a0	0.09256673
250	0xbda05556	-0.078287765
251	0xbe2a37e6	-0.16622886
252	0xbd582e32	-0.05277843
253	0x3b5ec66d	0.0033992783
254	0xbd086473	-0.03329892
255	0x3d2ebab4	0.042658523

action_model._continuous_distribution.mu.bias f4 [2]
0	0xbb83bbcb	-0.0040201894
1	0x3a298781	0.000646703

exp_avg f4 [128, 6]
0	0x3b3a8fa4	0.0028466964
1	0x39466dbc	0.0001892363
2	0xb6b9ad43	-5.5336e-06
3	0x3b340831	0.0027470703
4	0x39907132	0.00027550157
5	0xba5ca153	-0.0008416373
6	0x3a89a0e9	0.0010500225
7	0xb91bfb46	-0.00014875559
8	0x3b8b2764	0.004246639
9	0x3901603f	0.00012338253
10	0xb963165c	-0.00021656736
11	0x3b95389d	0.004553868
12	0xbaa70237	-0.0012741749
13	0x38f318cf	0.00011591764
14	0x39fd6817	0.00048333473
15	0xba6689b5	-0.00087943237
16	0x3930f520	0.00016875984
17	0xb9f4d7fe	-0.00046700233
18	0xbbc0f993	-0.0058891266
19	0xb8a68653	-7.940517e-05
20	0x3b713dcd	0.0036810518
21	0xbbcc776b	-0.0062398217
22	0xb8f26fc7	-0.000115602794
23	0x3b83eba3	0.004025893
24	0x39cece09	0.0003944489
25	0xb89579fc	-7.127595e-05
26	0xbaf1dde3	-0.0018452968
27	0x3a6e6dd8	0.00090953475
28	0xb8d99df2	-0.00010376786
29	0xbab0ee85	-0.0013498819
30	0xb9d503c2	-0.00040629326
31	0xb7aab957	-2.0351885e-05
32	0x3a1dd4bb	0.0006020774
33	0xba20d8bd	-0.0006135812
34	0xb7f88cdc	-2.9629497e-05
35	0x3a148b82	0.000566654
36	0xb9b437ca	-0.00034373841
37	0x37812258	1.539399e-05
38	0xb9492f10	-0.00019186386
39	0xb7a9b78f	-2.0231846e-05
40	0x37bc0059	2.2411508e-05
41	0xb99dce20	-0.0003009895
42	0xb9ceea88	-0.0003946612
43	0x38396754	4.420367e-05
44	0xbaab4e7e	-0.0013069657
45	0xb9efeee4	-0.0004576362
46	0x3886f5fd	6.435437e-05
47	0xbad51f15	-0.0016259874
48	0xbab40dac	-0.0013736985
49	0xb6e1313a	-6.7112533e-06
50	0x3ad012e8	0.0015874775
51	0xbac01b0e	-0.00146565
52	0xb723ec6a	-9.7706015e-06
53	0x3acaa46f	0.0015460382
54	0x3a80d658	0.0009829504
55	0x3887e636	6.480182e-05
56	0x3a5efd75	0.0008506396
57	0x3afc5a8f	0.0019253063
58	0x38c5d9b4	9.4342424e-05
59	0x3a8d3741	0.0010773913
60	0xbb369436	-0.0027859337
61	0x3835c422	4.3336426e-05
62	0xb907e2c2	-0.00012959077
63	0xbb5360ae	-0.003225367
64	0x3884501d	6.309173e-05
65	0xba0c48d5	-0.0005351429
66	0x3a03af35	0.00050233613
67	0x381e8f4d	3.7803595e-05
68	0xba51e2e8	-0.0008006529
69	0x3ac09a92	0.0014694503
70	0x3866d738	5.503671e-05
71	0xba2f6ed2	-0.0006692234
72	0xbab88bd2	-0.0014079756
73	0xb7c16d98	-2.3058426e-05
74	0x3ac3789c	0.0014913264
75	0xbabee4bf	-0.0014564021
76	0xb80ccd58	-3.3569842e-05
77	0x3ae9e164	0.0017843661
78	0x3aa22184	0.0012369608
79	0x389ef19f	7.5790325e-05
80	0xbb1f6de9	-0.0024326986
81	0x3a600924	0.0008546284
82	0x38e7665e	0.00011034006
83	0xbb40d039	-0.0029420985
84	0xbc143ee8	-0.009048201
85	0xb9889bd6	-0.00026056048
86	0x3c0bc3bb	0.0085305525
87	0xbc1a6ff8	-0.0094261095
88	0xb9c6e219	-0.0003793396
89	0x3c1e7746	0.009671992
90	0x3a0bd1d3	0.00053336954
91	0x3819227d	3.6510162e-05
92	0xb9bfbbb9	-0.00036570223
93	0x3aa02f7c	0.0012221183
94	0x385ef153	5.3153675e-05
95	0xb9b56ed1	-0.00034605575
96	0xbae5c2b8	-0.0017529344
97	0x392c2198	0.00016415713
98	0xba271c7d	-0.00063747895
99	0xbb06e33e	-0.0020582224
100	0x397a9957	0.00023898981
101	0xbb0ccea6	-0.0021485477
102	0xb99f7cde	-0.00030419877
103	0x38e0256a	0.00010688121
104	0x3b404944	0.0029340545
105	0x3a5c521e	0.00084045704
106	0x392329a9	0.00015560411
107	0x3b247ecc	0.002509999
108	0xb9fe7206	-0.0004853161
109	0xb81e0fcd	-3.768485e-05
110	0x3ae850fa	0.0017724328
111	0xb9e43113	-0.00043524112
112	0xb8661d98	-5.4863835e-05
113	0x3b0147a1	0.0019726532
114	0x3a964cc9	0.0011466976
115	0xb80dd7ae	-3.3817887e-05
116	0x38a7dd45	8.004395e-05
117	0x3a9b9fb1	0.0011873153
118	0xb84e80b8	-4.9234106e-05
119	0x385ac283	5.2156403e-05
120	0x3b9278f8	0.004469987
121	0x39014651	0.00012328594
122	0xbb7b0603	-0.0038303144
123	0x3b86192a	0.0040923553
124	0x393c34b9	0.00017948718
125	0xbb8cda0a	-0.004298453
126	0xba5f2f7e	-0.0008513852
127	0xb7d25e15	-2.5077761e-05
128	0x3aa4af9f	0.0012564546
129	0xba78fcc5	-0.0009498115
130	0xb81921ff	-3.6509704e-05
131	0x3aaefe4c	0.0013350933
132	0xbb8ad9a4	-0.0042373706
133	0x392a85e9	0.00016262349
134	0x3b75c452	0.003750105
135	0xbb931789	-0.0044888896
136	0x39784205	0.00023675717
137	0x3b435428	0.00298048
138	0x3abcbe75	0.0014400022
139	0x38959d10	7.134129e-05
140	0x3a3b0b50	0.00071351696
141	0x3a997bb4	0.001170984
142	0x38d9d102	0.00010386297
143	0x39bf4b6c	0.00036486553
144	0xbb262ba4	-0.0025355602
145	0xb983e5c9	-0.0002515747
146	0x3b622461	0.0034506547
147	0xbb2e070c	-0.0026554493
148	0xb9c00642	-0.00036625756
149	0x3b8b7b26	0.004256624
150	0x393bf008	0.00017923128
151	0x38b4e998	8.626579e-05
152	0x3b500975	0.0031743918
153	0x39a9361f	0.00032274515
154	0x3903b10f	0.00012559093
155	0x3b3ef112	0.0029135388
156	0xba99ac61	-0.0011724347
157	0xb80e6543	-3.3949746e-05
158	0x389f662a	7.60074e-05
159	0xba99f6f3	-0.001174657
160	0xb84f4ee4	-4.942612e-05
161	0x39b8c2a0	0.00035240222
162	0x3ab9d2b7	0.0014177178
163	0x39189253	0.0001455036
164	0xbb2adf1a	-0.002607292
165	0x3a99b6a3	0.0011727404
166	0x395e1f73	0.00021183286
167	0xbb67d870	-0.003537681
168	0xbad02e59	-0.0015882953
169	0x37a0aab3	1.9152974e-05
170	0xba3b018b	-0.0007133714
171	0xbac294cc	-0.001484537
172	0x37e9e878	2.7884016e-05
173	0xba1b2e3f	-0.0005919672
174	0xbb5f12a0	-0.00340382
175	0x377c6ed4	1.5046175e-05
176	0x3b449eb6	0.0030001826
177	0xbb7dd37f	-0.0038730798
178	0x37b7c0e3	2.190512e-05
179	0x3b3b0091	0.0028534273
180	0xb99e1d2b	-0.0003015784
181	0xb8fc8de4	-0.000120427256
182	0xbb213da3	-0.0024603389
183	0xb9f4c4e6	-0.00046686007
184	0xb937d781	-0.00017532521
185	0xbb1bfdc9	-0.002380239
186	0xbbbc6a46	-0.0057499735
187	0xb9049a94	-0.00012646086
188	0x3b878db5	0.004136766
189	0xbbc69ea9	-0.0060613942
190	0xb9410d77	-0.0001841093
191	0x3b90538b	0.0044044903
192	0xbb6c1c7f	-0.0036027727
193	0xb8b0a2ec	-8.4226805e-05
194	0x3b6b5836	0.0035910732
195	0xbb79dc84	-0.0038125822
196	0xb9009436	-0.00012262244
197	0x3b85c419	0.0040822146
198	0xb9786829	-0.00023689926
199	0x372cd45c	1.0301443e-05
200	0xb7a06211	-1.9119152e-05
201	0xb9a7af26	-0.00031983218
202	0x377b9d99	1.4997459e-05
203	0xb8abd565	-8.193663e-05
204	0xb9ff94fb	-0.0004874839
205	0x373a8f13	1.1119776e-05
206	0xba1e35fe	-0.0006035267
207	0xb9ec6876	-0.00045091257
208	0x3787cd36	1.6188813e-05
209	0xba19ffa8	-0.00058745826
210	0x395bc9b7	0.00020960612
211	0x386533b8	5.464602e-05
212	0x3b03cfd8	0.0020112898
213	0x39c8a8a5	0.00038272623
214	0x38a6d7d2	7.9556965e-05
215	0x3ae7e446	0.0017691932
216	0x39c66c1b	0.00037846048
217	0x36eeb06f	7.1134923e-06
218	0xba70a548	-0.0009179902
219	0x398f7a9d	0.0002736644
220	0x372dbfb7	1.0356241e-05
221	0xba8fb8f4	-0.0010965155
222	0x36904ddc	4.3005984e-06
223	0xb7c8a89d	-2.3920375e-05
224	0xb985344c	-0.000254067
225	0x384036cb	4.5827397e-05
226	0xb81210cb	-3.4824752e-05
227	0xb8b9b0fa	-8.854452e-05
228	0x39c82d16	0.00038180564
229	0xb7dd5133	-2.6383064e-05
230	0xb9f1c06a	-0.00046110462
231	0x39d1462c	0.0003991587
232	0xb8211a7c	-3.8410057e-05
233	0xb9a57bef	-0.0003156359
234	0x3a172e8a	0.0005767128
235	0x37cda180	2.4513109e-05
236	0x395cb706	0.00021049017
237	0x3a88e375	0.0010443764
238	0x3815af57	3.5687666e-05
239	0x393f8ca1	0.00018267568
240	0xbae5d6f1	-0.0017535371
241	0xb9a3f3ea	-0.00031271513
242	0x3bbeac09	0.005818848
243	0xbb116ce6	-0.0022190153
244	0xb9eeb13f	-0.00045526956
245	0x3bde1e39	0.006778505
246	0x3a88c001	0.0010433198
247	0x384c5c93	4.8723607e-05
248	0xb9076f42	-0.0001291605
249	0x3a75d192	0.0009377237
250	0x3894c2d2	7.093478e-05
251	0xb9b613e0	-0.00034728553
252	0x3b369954	0.0027862387
253	0x3884bd53	6.329515e-05
254	0xbb0b8471	-0.0021288658
255	0x3b49e002	0.0030803685

exp_avg_sq f4 [128, 6]
0	0x38d43bd7	0.00010120094
1	0x34553786	1.985737e-07
2	0x38bbc68d	8.953838e-05
3	0x38eb5ec5	0.000112233254
4	0x34e1f5ad	4.2088269e-07
5	0x38af542a	8.360327e-05
6	0x38ee9956	0.000113772854
7	0x34a33ef0	3.040691e-07
8	0x391165ba	0.00013866174
9	0x39081d4c	0.00012980885
10	0x352d0088	6.4448295e-07
11	0x391c12de	0.00014884348
12	0x388238d6	6.2094696e-05
13	0x342a0625	1.5834719e-07
14	0x386c530e	5.6344135e-05
15	0x389a14da	7.347176e-05
16	0x34b42f71	3.356213e-07
17	0x38753a3a	5.846678e-05
18	0x38dd9b2f	0.000105670064
19	0x347fffef	2.3841834e-07
20	0x38ed41a9	0.00011313271
21	0x38dc4a58	0.00010504265
22	0x3507a64b	5.0533407e-07
23	0x3902d450	0.00012476859
24	0x37c53d50	2.351278e-05
25	0x335a5a24	5.0839063e-08
26	0x37d8b5ea	2.5833917e-05
27	0x37e999c2	2.7847364e-05
28	0x33e766e5	1.0775492e-07
29	0x37c1509b	2.3044928e-05
30	0x35d88bc2	1.6133929e-06
31	0x317da1df	3.6908359e-09
32	0x3586633a	1.0012657e-06
33	0x36007257	1.914004e-06
34	0x32066530	7.822834e-09
35	0x357cfcab	9.4244996e-07
36	0x374a7fe0	1.20699115e-05
37	0x32f1bada	2.8141063e-08
38	0x373f4ca6	1.1402333e-05
39	0x376e1dc7	1.41928385e-05
40	0x338016a2	5.9645814e-08
41	0x3730fb11	1.0548873e-05
42	0x37351771	1.0793899e-05
43	0x32c14202	2.2498174e-08
44	0x36e60155	6.854689e-06
45	0x374456ee	1.170275e-05
46	0x334ccec8	4.7685518e-08
47	0x36e806b2	6.9149182e-06
48	0x37fb31e5	2.9944766e-05
49	0x338679c6	6.262012e-08
50	0x37ea992b	2.7966298e-05
51	0x37ff79a8	3.045502e-05
52	0x340e8337	1.3272516e-07
53	0x380297f8	3.1135947e-05
54	0x380c8b8d	3.3508568e-05
55	0x33b00cca	8.197965e-08
56	0x386fb43d	5.71499e-05
57	0x3815fb03	3.575814e-05
58	0x343a922b	1.7375775e-07
59	0x38528ce8	5.019913e-05
60	0x38865c34	6.406792e-05
61	0x341f0bdd	1.4812345e-07
62	0x38b10aeb	8.442051e-05
63	0x388a40d5	6.592429e-05
64	0x34a88d3c	3.13952e-07
65	0x38c28afa	9.276527e-05
66	0x368344cb	3.912113e-06
67	0x3276cbb8	1.4365405e-08
68	0x3728c079	1.0058394e-05
69	0x36d535fd	6.3541797e-06
70	0x3302c5d1	3.0447897e-08
71	0x36ef18c7	7.1256395e-06
72	0x3811cb9e	3.4760327e-05
73	0x33612e0c	5.2428774e-08
74	0x379642fa	1.7912582e-05
75	0x3818e969	3.6457004e-05
76	0x33eea339	1.1112429e-07
77	0x379f0c71	1.896007e-05
78	0x384e303f	4.915916e-05
79	0x33bc11ae	8.757648e-08
80	0x38271e30	3.9844017e-05
81	0x384a3301	4.8208054e-05
82	0x34474f15	1.8562089e-07
83	0x383c288e	4.4860462e-05
84	0x3986dd38	0.00025723292
85	0x34fed749	4.7467827e-07
86	0x39554cd4	0.00020341884
87	0x3988af72	0.00026070658
88	0x3587092b	1.0060952e-06
89	0x3968d2bd	0.0002220375
90	0x36e36266	6.7765823e-06
91	0x3298a109	1.776836e-08
92	0x3721eebc	9.6519325e-06
93	0x371e6abc	9.442385e-06
94	0x3321c031	3.766053e-08
95	0x3707923c	8.080675e-06
96	0x3911329c	0.00013847131
97	0x34b12e44	3.3002482e-07
98	0x39126477	0.00013961071
99	0x39215b6a	0.00015388211
100	0x353bc51b	6.9949755e-07
101	0x391dab42	0.00015036485
102	0x3889b998	6.5672386e-05
103	0x34348d94	1.6815312e-07
104	0x38cbd965	9.720287e-05
105	0x38a6c8b1	7.9528785e-05
106	0x34bf57fe	3.5640545e-07
107	0x38a8adec	8.04326e-05
108	0x3772a89d	1.4463582e-05
109	0x331ebf66	3.6961318e-08
110	0x37c3fc70	2.3363362e-05
111	0x37781af1	1.4788225e-05
112	0x33a83c2b	7.834054e-08
113	0x37d126ae	2.4932753e-05
114	0x37e20201	2.6942233e-05
115	0x33971b54	7.0364564e-08
116	0x380fbe49	3.4271074e-05
117	0x37fefcab	3.0396817e-05
118	0x34202330	1.4913962e-07
119	0x381dcafc	3.762076e-05
120	0x39126ecc	0.0001396492
121	0x3488bc86	2.5469143e-07
122	0x38ef9e41	0.00011425885
123	0x3913ac13	0.00014083115
124	0x3510e899	5.3982654e-07
125	0x38f232eb	0.000115489434
126	0x36c1f649	5.7805196e-06
127	0x3264d588	1.3319898e-08
128	0x37101fe3	8.590493e-06
129	0x36c78b73	5.946896e-06
130	0x32f2829e	2.8231906e-08
131	0x3714ed61	8.8767565e-06
132	0x39d4a2de	0.00040557137
133	0x355b881e	8.1781934e-07
134	0x39aa432d	0.00032474977
135	0x39e75b4d	0.00044127778
136	0x35e8a6e6	1.7333921e-06
137	0x39b19058	0.00033867615
138	0x37fafa93	2.9919005e-05
139	0x338534da	6.202909e-08
140	0x380c6d9f	3.3480694e-05
141	0x38046845	3.156836e-05
142	0x340d2ae6	1.3147255e-07
143	0x38023af5	3.1049323e-05
144	0x390b90f9	0.0001331008
145	0x348d2a72	2.629418e-07
146	0x390df045	0.00013536315
147	0x390d13ce	0.00013454186
148	0x35159a39	5.573125e-07
149	0x39130b3d	0.00014023199
150	0x36c9efe8	6.0181956e-06
151	0x32b3077d	2.0841748e-08
152	0x37438500	1.1653872e-05
153	0x36f4025d	7.272042e-06
154	0x333dba86	4.4174634e-08
155	0x372264e3	9.679442e-06
156	0x3833aba7	4.283679e-05
157	0x33d34dba	9.8395915e-08
158	0x383b29f7	4.4623357e-05
159	0x384d9a24	4.9019363e-05
160	0x345fee9a	2.0855296e-07
161	0x38475586	4.7524947e-05
162	0x383c9246	4.495892e-05
163	0x34037b59	1.22452e-07
164	0x38797b3b	5.9480994e-05
165	0x3854fc61	5.0779785e-05
166	0x348b5701	2.595407e-07
167	0x3887c043	6.473113e-05
168	0x38938378	7.033994e-05
169	0x3427172c	1.5561517e-07
170	0x38912df5	6.922699e-05
171	0x38a89b61	8.039806e-05
172	0x34b113a9	3.2983124e-07
173	0x3898676d	7.267189e-05
174	0x38bb4984	8.930548e-05
175	0x343dee72	1.7688743e-07
176	0x38a9d3bc	8.0979866e-05
177	0x38b86fd4	8.794633e-05
178	0x34c9485f	3.7491824e-07
179	0x38bc9f0d	8.994164e-05
180	0x3855496e	5.0851544e-05
181	0x33e8b901	1.0836994e-07
182	0x38748534	5.829819e-05
183	0x3860c038	5.358478e-05
184	0x3476a198	2.2969323e-07
185	0x3862357c	5.393241e-05
186	0x389f7c65	7.604881e-05
187	0x3435d739	1.6935236e-07
188	0x38b9aa56	8.853215e-05
189	0x389e7f51	7.5577416e-05
190	0x34c0b552	3.5894715e-07
191	0x38cb0657	9.680975e-05
192	0x3826e921	3.9794602e-05
193	0x33b20e0c	8.291326e-08
194	0x381fde3e	3.8115533e-05
195	0x382b99d5	4.0912844e-05
196	0x343cb23d	1.7573707e-07
197	0x38317d82	4.2316977e-05
198	0x35a6a969	1.2417269e-06
199	0x3141ed29	2.8220006e-09
200	0x35c99a06	1.5020494e-06
201	0x35a7b02f	1.2493746e-06
202	0x31cd843a	5.9813177e-09
203	0x35d08b5f	1.553777e-06
204	0x378d6f79	1.6860418e-05
205	0x3326204b	3.8679257e-08
206	0x3796ed7c	1.799198e-05
207	0x37a22c31	1.9332483e-05
208	0x33b00dfe	8.198184e-08
209	0x379b8234	1.853807e-05
210	0x36f1a2a3	7.201293e-06
211	0x32a9b9d8	1.9758701e-08
212	0x372fba13	1.0474137e-05
213	0x370b80d9	8.315045e-06
214	0x3333de90	4.1879105e-08
215	0x371abe36	9.223402e-06
216	0x374a5267	1.2059324e-05
217	0x330ec686	3.3242507e-08
218	0x3781ddcb	1.5481279e-05
219	0x376bd534	1.4056732e-05
220	0x33974ef2	7.0458455e-08
221	0x3788f7bb	1.6327822e-05
222	0x373f5954	1.14052855e-05
223	0x33033833	3.0551927e-08
224	0x374c0f57	1.2162919e-05
225	0x37653aea	1.3663181e-05
226	0x338b0fca	6.475564e-08
227	0x3755c6d2	1.2742081e-05
228	0x36133d68	2.194045e-06
229	0x31ddbd31	6.453455e-09
230	0x361499bd	2.2143206e-06
231	0x363c4b82	2.8058134e-06
232	0x326afdac	1.3678271e-08
233	0x35edefa0	1.7727616e-06
234	0x37c511b3	2.3492472e-05
235	0x3383c988	6.136821e-08
236	0x37f3d0ba	2.9065053e-05
237	0x37eb48c9	2.8048076e-05
238	0x340ba9d7	1.3007171e-07
239	0x37d72153	2.5645515e-05
240	0x3994648c	0.00028303673
241	0x352bd6a4	6.401481e-07
242	0x39b0bfe0	0.00033712294
243	0x399870fb	0.00029075876
244	0x35b61ba5	1.3568102e-06
245	0x39b8a724	0.00035219744
246	0x376199f5	1.3446891e-05
247	0x32adca6b	2.02319e-08
248	0x3714455d	8.837637e-06
249	0x37662e8f	1.3719909e-05
250	0x33382d48	4.288202e-08
251	0x370de3a5	8.4572575e-06
252	0x37cf4c04	2.471172e-05
253	0x33543423	4.9407515e-08
254	0x37b3c319	2.1429312e-05
255	0x37d1b103	2.4997169e-05

exp_avg f4 [128]
0	0x3ad0abbb	0.001592032
1	0xbaa40867	-0.0012514711
2	0x3a7fa510	0.0009752074
3	0xba2f1ec2	-0.00066803035
4	0xba1d3129	-0.00059964
5	0xb9338943	-0.00017121904
6	0x3907ccbe	0.00012950876
7	0x39c2f93e	0.00037188263
8	0xb86cd0c5	-5.6461216e-05
9	0x3a0ee9ff	0.0005451738
10	0x39bf2603	0.0003645868
11	0x39a6be7c	0.0003180391
12	0xb94b6979	-0.0001939888
13	0x3a2725e5	0.0006376191
14	0xbb0fa8f7	-0.002192078
15	0x39a109fd	0.00030715755
16	0x3ab5041d	0.001381043
17	0x3a6bb746	0.00089918484
18	0xb9a63862	-0.00031703996
19	0xb99529fb	-0.00028450773
20	0x3a87f28e	0.001037197
21	0xb95d39d7	-0.0002109775
22	0x3ab35334	0.0013681413
23	0x3a1d560f	0.00060018984
24	0xbb0ab4aa	-0.0021164813
25	0x3a3e4027	0.0007257484
26	0xb995bee7	-0.00028561728
27	0x3aa07262	0.001224112
28	0x3928f5ac	0.00016113248
29	0x3904bb60	0.00012658304
30	0xba84cb8e	-0.0010131465
31	0xba8b72c8	-0.0010639066
32	0xba39c0f7	-0.0007085944
33	0x38b5c01d	8.6665365e-05
34	0x38c43030	9.354984e-05
35	0x39f1085d	0.00045973333
36	0x387b0262	5.9845283e-05
37	0xb9530417	-0.00020124052
38	0xb968bdaa	-0.000221959
39	0x39583ea8	0.00020622707
40	0xbb2c6a62	-0.0026308526
41	0x39d6e8fc	0.00040990848
42	0x3a0b9753	0.0005324978
43	0xb8455f70	-4.7057343e-05
44	0xba31047d	-0.0006752683
45	0xb9bc708e	-0.00035942014
46	0xb9ca58f3	-0.00038594715
47	0xb9e8bd48	-0.00044391514
48	0xbac435f3	-0.0014969691
49	0xba723103	-0.00092388707
50	0x39ba2625	0.00035505104
51	0x3adfbee6	0.0017070442
52	0xb8c2e4db	-9.2932685e-05
53	0xb9c18a90	-0.00036915066
54	0xb82f2f8f	-4.1767544e-05
55	0xba26fad4	-0.0006369774
56	0x37e3759d	2.7115277e-05
57	0x3ae126f2	0.0017177744
58	0x3a9faba5	0.0012181891
59	0xb9966620	-0.0002868632
60	0x39b0f262	0.00033749925
61	0xb9d24c37	-0.00040111106
62	0x3b01684d	0.0019746006
63	0xba09c848	-0.00052559795
64	0x3995cdd6	0.00028572854
65	0xb972462f	-0.00023105064
66	0xb9de0d5d	-0.00042353096
67	0x3a7fc8f4	0.00097574224
68	0xba0a047b	-0.000526495
69	0x3a41a915	0.0007387561
70	0xba15b2b7	-0.00057105295
71	0x3a079286	0.0005171675
72	0x3ad51181	0.0016255827
73	0x3a6007fa	0.00085461105
74	0x39bd1599	0.0003606498
75	0xba0c3fe4	-0.00053500966
76	0x39d7e2e7	0.0004117705
77	0x38a79e0b	7.992618e-05
78	0x392bc700	0.00016381964
79	0x39778fd9	0.00023609343
80	0xb9c767bb	-0.00038033523
81	0x3a21f4b5	0.0006178127
82	0x3912ac08	0.00013987732
83	0x3acaf869	0.0015485409
84	0xba7fb345	-0.0009754191
85	0xb8f87193	-0.000118467164
86	0xbac3b549	-0.0014931347
87	0x39a125c6	0.00030736456
88	0xbb451a3f	-0.0030075458
89	0x3a5c434d	0.00084023626
90	0xb70742c5	-8.062173e-06
91	0x3a6de59d	0.00090750476
92	0xba0d73f4	-0.00053960015
93	0xbafb0166	-0.0019150197
94	0x3984f5d4	0.00025360158
95	0x3a33f11e	0.00068642374
96	0xba126b25	-0.0005585424
97	0x3ab55a4f	0.0013836118
98	0xb78b8c6d	-1.6635482e-05
99	0x3a0230ab	0.00049663585
100	0xba545aac	-0.00081006694
101	0xb8636210	-5.4212345e-05
102	0x3554daaf	7.929438e-07
103	0x3901d6f1	0.0001238247
104	0xb814927e	-3.542238e-05
105	0xbad8368e	-0.0016495751
106	0xb9cd6cfe	-0.00039181852
107	0x3911cd75	0.00013904816
108	0xb9430be0	-0.00018601073
109	0x39fc11e5	0.00048078518
110	0x38fd28b6	0.00012071563
111	0x37b830d9	2.1957256e-05
112	0x3a0e5bb3	0.00054305344
113	0xbaaf647e	-0.001338139
114	0x399fd7bd	0.0003048758
115	0x3b134976	0.0022474206
116	0xb8c31e1d	-9.3039336e-05
117	0xbb111677	-0.0022138634
118	0x3a70e192	0.0009188886
119	0x39e12107	0.00042939952
120	0xbb22089e	-0.0024724375
121	0x38c91d02	9.58983e-05
122	0xb9621f0d	-0.00021564607
123	0xb92a5ab1	-0.00016246249
124	0xb8e50e9e	-0.000109222936
125	0x3a64351e	0.0008705425
126	0xba13501b	-0.00056195416
127	0x3a248dea	0.00062772504

exp_avg_sq f4 [128]
0	0x376bcbcd	1.4054543e-05
1	0x37b48885	2.1521244e-05
2	0x373c077a	1.1207414e-05
3	0x378d8e02	1.6874637e-05
4	0x367179a7	3.598261e-06
5	0x348c3ee9	2.6122805e-07
6	0x3605aa10	1.9917534e-06
7	0x35d5b932	1.5923636e-06
8	0x3694b760	4.4320914e-06
9	0x36c2b16e	5.802306e-06
10	0x372fe397	1.0483803e-05
11	0x35887724	1.0167464e-06
12	0x367906a2	3.7107752e-06
13	0x36cffc3e	6.1984456e-06
14	0x380ce9f9	3.3596505e-05
15	0x35a8cac2	1.2575986e-06
16	0x37c3f19e	2.3358323e-05
17	0x3747ac60	1.19014585e-05
18	0x362f8f00	2.616027e-06
19	0x36a71bb8	4.9802147e-06
20	0x37973777	1.802643e-05
21	0x357d112c	9.4274833e-07
22	0x3872c78b	5.7883135e-05
23	0x36935010	4.390262e-06
24	0x379c1d6e	1.8610353e-05
25	0x35c5fceb	1.4751253e-06
26	0x36e9ae19	6.9642088e-06
27	0x371167d1	8.666845e-06
28	0x3738c8f7	1.1014045e-05
29	0x37520b80	1.2519653e-05
30	0x3700af07	7.670146e-06
31	0x374918e7	1.1986332e-05
32	0x36c4e916	5.86839e-06
33	0x34567678	1.9973402e-07
34	0x3637b7f7	2.7376207e-06
35	0x35bbb312	1.3984702e-06
36	0x361de51e	2.3528187e-06
37	0x36111d80	2.1623855e-06
38	0x34f53878	4.5675893e-07
39	0x3691be47	4.343488e-06
40	0x383e0922	4.5308036e-05
41	0x35c031d6	1.4319619e-06
42	0x366aacf4	3.496939e-06
43	0x354b0d92	7.564314e-07
44	0x378d1797	1.6819495e-05
45	0x35a8a4c6	1.2564931e-06
46	0x3586f416	1.0054816e-06
47	0x35f243ef	1.8050176e-06
48	0x37136dc0	8.787436e-06
49	0x364b2629	3.027157e-06
50	0x368dbb6e	4.223947e-06
51	0x3814f5cd	3.551487e-05
52	0x35a24cf3	1.2092336e-06
53	0x3693a281	4.3998593e-06
54	0x3728a7cc	1.0052649e-05
55	0x360b555b	2.0762297e-06
56	0x372a4674	1.0149193e-05
57	0x38449a8d	4.6873978e-05
58	0x373ae3e4	1.1139524e-05
59	0x366ba8a9	3.5115902e-06
60	0x3618156f	2.266224e-06
61	0x3725c53c	9.880689e-06
62	0x3804aac4	3.163029e-05
63	0x37b5ec21	2.1686837e-05
64	0x358f9dc5	1.0700247e-06
65	0x35841b5e	9.842731e-07
66	0x36979ad5	4.5181755e-06
67	0x37b2302d	2.1241687e-05
68	0x35ff0333	1.8999912e-06
69	0x36a7ad23	4.9971436e-06
70	0x36e3f00d	6.7930728e-06
71	0x3733ba14	1.0712556e-05
72	0x3866b5da	5.5005636e-05
73	0x37a83d8e	2.0055824e-05
74	0x365c003d	3.2782693e-06
75	0x361a3f57	2.2984657e-06
76	0x36320d5d	2.6531845e-06
77	0x37206f19	9.56261e-06
78	0x3612f418	2.1897777e-06
79	0x37282967	1.002322e-05
80	0x3588ba2d	1.0186974e-06
81	0x37037c65	7.837171e-06
82	0x35bdd987	1.4144906e-06
83	0x37c342bc	2.3276887e-05
84	0x3717113b	9.004313e-06
85	0x362be5e1	2.5614793e-06
86	0x372bd185	1.0241177e-05
87	0x355b4fcc	8.169998e-07
88	0x38b1ed70	8.484244e-05
89	0x370e0efa	8.467347e-06
90	0x35ea7dd4	1.7470979e-06
91	0x3691e483	4.347939e-06
92	0x37014316	7.704619e-06
93	0x37a4d4c7	1.9649406e-05
94	0x36b92e74	5.5188375e-06
95	0x373804a1	1.0968332e-05
96	0x3741ce6b	1.1551757e-05
97	0x38a2c64b	7.761697e-05
98	0x34de3fc8	4.139713e-07
99	0x365c489c	3.2824819e-06
100	0x36debf74	6.6384036e-06
101	0x3500de53	4.800724e-07
102	0x35717f5e	8.996484e-07
103	0x3482fbc4	2.439757e-07
104	0x35f1665b	1.7985689e-06
105	0x37837b22	1.5673755e-05
106	0x36e9f58e	6.9725274e-06
107	0x356f2ca9	8.909943e-07
108	0x362085f8	2.3919838e-06
109	0x365fab6b	3.3329368e-06
110	0x368c84bb	4.187777e-06
111	0x34796533	2.3226748e-07
112	0x36a52a05	4.922275e-06
113	0x37491ce5	1.1987261e-05
114	0x37265cb0	9.9159515e-06
115	0x38af0011	8.344663e-05
116	0x369ca469	4.668302e-06
117	0x380a0491	3.2906017e-05
118	0x38a00815	7.6309e-05
119	0x363ec38e	2.8426034e-06
120	0x37cdf6b1	2.4552779e-05
121	0x362ed10e	2.6049706e-06
122	0x361016c1	2.1470917e-06
123	0x3625c626	2.4702254e-06
124	0x37c9c426	2.4052406e-05
125	0x371814b7	9.064729e-06
126	0x35c3daf1	1.4592352e-06
127	0x3722062d	9.65739e-06
