results/DodgeAgentBulletsTest11_Improved9/Dodge/Dodge-87499692.pt (torch, 538935 bytes, 40 tensors)

discrete_act_size_vector f4 [1, 2]
000000 00 00 40 40 00 00 40 40
       3.0 3.0

network_body._body_endoder.seq_layers.0.weight f4 [128, 36]
000000 72 d9 d0 bd 94 70 0f bf c2 87 71 be 4b e6 a3 bd
       -0.101977244 -0.56031156 -0.23586944 -0.08002909
000010 94 ab 94 bf f3 48 a6 bf ee e3 1d 3e d8 07 37 3e
       -1.1614861 -1.2991012 0.1541898 0.17874086
000020 ab ec a6 bf fa 1c ef bf 4e d5 db be df 71 12 3e
       -1.3040975 -1.8680718 -0.42936176 0.14301251
000030 a9 c7 03 bf e1 9d d0 bf 4f 6a 8c bc 2e 8c 53 3f
       -0.5147653 -1.6298181 -0.017140536 0.8263577
000040 17 c9 cd be 98 ae 89 bf 48 dc d4 3e 68 b1 6b 3f
       -0.40192482 -1.0756407 0.4157431 0.92067575
000050 a5 80 f3 be 56 70 c6 bf e1 e9 75 be cd 20 3d 3f
       -0.47559085 -1.5503032 -0.24014999 0.73878175
000060 b5 ae a7 bf 61 9e af bf 07 27 c8 3e 65 cf b8 bc
       -1.3100191 -1.3720208 0.39092276 -0.02255983
000070 1b 1f 63 bf ec 3c 5e bf d1 e4 c4 bd 98 00 a8 be
       -0.8871934 -0.8681171 -0.09613956 -0.32812953
000080 50 65 30 bd 56 7e 77 be 36 5f 3b 3c e0 33 19 bd
       -0.04306537 -0.24169287 0.011436274 -0.037402987
000090 4e 49 89 3e bf 2d 2b 3c 3c 6e 60 be fc 7c 8a 3e
       0.2681374 0.010447918 -0.21917051 0.2704848
0000a0 42 b8 9d bd 0a 0d 5e be 79 a6 0b be 3c dd df 3b
       -0.0770116 -0.21684662 -0.13637723 0.006831793
0000b0 58 b2 ab bc 75 9f 9e bd 25 07 da 3e 18 dc 8f bd
       -0.020959064 -0.07745258 0.42583576 -0.070244014
0000c0 85 fd dd be 24 92 19 be 78 58 44 bd 5d 28 fa 3d
       -0.43357483 -0.14997154 -0.047935933 0.1221473
0000d0 fe 46 d5 be 04 19 61 be 5b fe b7 be b7 6c 1f 3e
       -0.41655725 -0.21982199 -0.35936245 0.15568815
0000e0 af 21 bd bb b6 b3 8a be 8a 0f ad be d6 fc 19 be
       -0.0057718377 -0.27090234 -0.33800918 -0.15037856
0000f0 ad 22 ae be 72 21 fe bd f9 2e 07 bf 9d b7 fd be
       -0.3401083 -0.12408723 -0.5280605 -0.49554148
000100 b5 76 38 bf ef 5f 6d be 22 7b b4 be ec ec eb be
       -0.7205613 -0.23181127 -0.35250193 -0.46079195
000110 fe 27 3f bf 22 98 1d bf 73 81 79 be 5c 69 69 be
       -0.746704 -0.6156026 -0.24365787 -0.22794098
000120 33 6d 02 bf 4a 0b 22 bf f5 10 b1 bd 13 14 5a 3c
       -0.50947875 -0.63298476 -0.086458124 0.01331045
000130 db af 14 bf 10 94 6b be c7 23 e1 3d 48 29 12 be
       -0.58080834 -0.230057 0.10993152 -0.1427356
000140 77 bc 22 be bd a0 7d 3e d2 a5 86 3e 80 26 4d 3e
       -0.15892206 0.24768348 0.26298386 0.20034218
000150 98 42 9a 3e 46 05 d7 3e fb 32 c8 bd 8f 54 f1 bc
       0.30128932 0.4199621 -0.09775349 -0.029459266
000160 dd c6 4e 3f 69 f4 50 3f 1d ac d4 3e 5b e5 65 3e
       0.8077219 0.8162294 0.41537562 0.22450773
000170 50 05 26 3f 3e 20 08 3f 59 44 25 bc 66 25 aa 3e
       0.64851856 0.531742 -0.010087096 0.33231658
000180 94 c0 28 3e 8e 7e 04 3f 1a ed ab 3d 3f e0 07 3d
       0.16479713 0.5175561 0.08394833 0.033172842
000190 d4 13 0d 3f 1a 96 48 3e 71 0c 49 3e a7 3f da 3e
       0.5510838 0.19588509 0.19633652 0.42626688
0001a0 41 36 02 3e 9f a6 a2 3e 55 d5 99 bd fc 7a 6b be
       0.12716009 0.31767747 -0.07511393 -0.22996134
0001b0 46 57 11 3e f3 c5 08 3d 13 3d 84 3f 40 98 10 3f
       0.14193448 0.033391904 1.0331138 0.56482315
0001c0 24 c9 d0 be d9 98 86 bf d2 e2 8c 3d e6 d1 b8 3f
       -0.40778458 -1.0515395 0.068792 1.4439056
0001d0 8e fe 32 be 22 07 96 bf 30 11 8e be 37 ab df 3f
       -0.17479917 -1.1720927 -0.27747488 1.7474126
0001e0 8f 96 02 3f 32 39 43 bf ba ac 07 3f 55 3c e8 3f
       0.51010984 -0.7625915 0.52997935 1.8143412
0001f0 78 7b 14 3f c7 82 4a bf 67 a9 06 bc 1a 8f be 3f
       0.580009 -0.791058 -0.0082191 1.4887421
000200 84 9b 8b ba 05 15 b4 bf f3 c5 3e bd 1f 80 78 3f
       -0.0010651206 -1.4068915 -0.046575498 0.970705
000210 67 75 96 be 2c 1f c2 bf 34 ac e5 3e 45 c0 ce 3e
       -0.29386446 -1.5165763 0.44857943 0.40381065
000220 25 93 b2 be 31 41 6a bf 41 8a b7 bd 90 8f 2c be
       -0.34877887 -0.91505724 -0.08961917 -0.1685164
000230 d2 b3 fd bd 15 8e 54 be b4 4b 0e bb a1 85 12 3c
       -0.12387814 -0.20757325 -0.0021712603 0.008942992
000240 d8 be 1d 3f ba 00 16 3f 6c 13 8f 3e 7c 17 fd 3e
       0.6161933 0.5859486 0.27944505 0.4943198
000250 b9 62 6c 3f 82 cb 8e 3f e5 23 22 3e bc aa 71 be
       0.9233814 1.1155856 0.15834005 -0.23600286
000260 dc cd 80 3e c2 d3 a7 3f 76 01 11 be ce 04 09 bf
       0.25157058 1.3111498 -0.14160714 -0.53522956
000270 55 bf a6 3e 4c 71 8e 3f 1a ef fd 3d 70 3a 5a bf
       0.3256785 1.1128325 0.12399121 -0.8524542
000280 7e d5 25 3f 87 9c 25 3f 61 62 88 3c 8c a7 93 bf
       0.6477889 0.64691967 0.016648473 -1.1535506
000290 07 5a a2 3e 62 e3 02 3f 0b 47 6e 3e 10 21 1d bf
       0.3170931 0.5112821 0.23269288 -0.61378574
0002a0 dd 11 24 3f 7d 16 9e 3e 12 99 50 bd a8 b2 10 bf
       0.6408976 0.30876532 -0.05092723 -0.5652261
0002b0 e0 d9 0e 3d 0d d1 14 be 7a 05 9c 3d 7d 66 d5 be
       0.03487575 -0.14532872 0.07618232 -0.41679755
0002c0 eb d9 2b 3e c7 52 b4 be 21 5c 7a bd 38 af 19 be
       0.16782348 -0.35219404 -0.061123017 -0.15008247
0002d0 16 a8 ca be a1 d2 c2 be 51 91 31 be 2f f9 25 bf
       -0.39581364 -0.38051322 -0.1734059 -0.6483335
0002e0 2c bd 2b be 62 d8 94 bf 49 52 dd ba af 65 f7 bd
       -0.16771382 -1.1628535 -0.0016885485 -0.120799415
0002f0 a9 66 0d bf 95 57 da bf 02 e4 9b bf 27 3f 93 3e
       -0.5523477 -1.7057978 -1.2178957 0.2875912
000300 a8 f4 21 be ef ab f5 bf 99 67 37 bf 4b 4e 98 3e
       -0.15815985 -1.9193095 -0.7164245 0.29747233
000310 b2 15 03 bf 32 42 ba bf 33 54 34 bf 7b 68 c2 3d
       -0.5120498 -1.4551451 -0.7044098 0.09492584
000320 5c e3 43 bf 5e 82 99 bf 56 d0 6d be e9 39 e4 3e
       -0.765188 -1.199291 -0.23224005 0.44575432
000330 ce a3 ba be e2 d9 35 bf 86 f2 e0 3e 0c ad d7 3e
       -0.36453098 -0.7103559 0.4393503 0.42124212
000340 f2 a2 e6 3e 9b 12 88 be 45 55 1c 3f 0a 0f 56 3e
       0.45046192 -0.26576695 0.6106761 0.20904174
000350 98 c1 31 3f f5 c4 f9 3e dc 8b d7 3b f9 2d 1e be
       0.69436026 0.4878308 0.006577952 -0.15447225
000360 90 33 54 be 71 a4 34 be f4 6a 0d 3f 03 2a 0f 3f
       -0.20722795 -0.17640854 0.5524132 0.5592348
000370 89 4f 3b be b6 36 15 be a6 17 11 3f e9 b5 74 3e
       -0.18292059 -0.14571652 0.5667671 0.23897518
000380 1e e5 9f 3d 0f 1a 8a 3e b2 5b 61 3e 88 49 89 3e
       0.078073725 0.26973006 0.22007635 0.26813912
000390 a4 73 01 bf 86 50 d7 be 63 32 05 3f 8b 15 0f 3f
       -0.5056708 -0.42053622 0.5203001 0.55892247
0003a0 21 b5 e7 be ed 98 0c bf 78 bb a7 be c0 3c 6d 3e
       -0.45255378 -0.54920846 -0.32760215 0.23167706
0003b0 ca 15 bc be 62 2d 90 be f5 4a 23 bf a4 5c cd 3d
       -0.36735374 -0.28159624 -0.6378625 0.100274354
0003c0 c6 40 cd be be ba c1 be e6 d9 2f be 67 73 c5 be
       -0.4008848 -0.37837785 -0.17172965 -0.38564608
0003d0 57 12 1b 3e 31 28 12 bf 35 ec b6 3e 00 d1 8d be
       0.15143715 -0.5709258 0.35727087 -0.27698517
0003e0 85 0e 71 be 71 59 4a be cb dc 9e be 06 0e b4 bd
       -0.23540695 -0.19760682 -0.31027827 -0.08791737
0003f0 4f 40 8f 3e 19 bd fe 3d f6 a5 10 bf 12 d0 c7 be
       0.2797875 0.12438411 -0.56503236 -0.39025933

network_body._body_endoder.seq_layers.0.bias f4 [128]
000000 f5 ae f9 3e fa c1 6c bd 1d 47 8f 3e e9 d7 fb 3e
       0.48766294 -0.057802178 0.27983943 0.49188164
000010 d8 58 b4 bd 82 72 9c bd 0b 3c 0a 3e 07 81 7c 3e
       -0.08806008 -0.07639028 0.13499467 0.24658595
000020 6c 26 0a be 59 08 a9 3e 95 38 34 be f3 bd b4 3d
       -0.1349122 0.3301418 -0.1759971 0.088252924
000030 39 f1 39 be 0d ac 8b be a4 88 ab be 13 41 46 bf
       -0.18158425 -0.27279702 -0.33502686 -0.77443045
000040 e4 f3 0f be 14 02 27 3e 6f 69 24 3d f2 88 d3 bd
       -0.1405788 0.16309386 0.04013961 -0.103288546
000050 19 15 3c b9 f2 73 a3 be 26 ed 81 3d 24 72 78 3e
       -0.00017936937 -0.31924397 0.063440606 0.24262291
000060 1e 49 0c be 45 d0 d9 bd a0 92 dd 3d a1 8c 8a 3a
       -0.13699767 -0.106354274 0.10818982 0.0010570475
000070 e3 02 0a bf ce 6b ed be 4a b3 a9 3d dc 77 74 3e
       -0.53910655 -0.4637131 0.0828615 0.23873848
000080 52 9e c8 bd 26 a0 11 3e c5 f2 93 3d 62 39 a0 be
       -0.09795822 0.14221248 0.07224039 -0.3129378
000090 e6 ab a3 bd b5 99 0b 3c 32 6f f8 bb 4d 5c 8e 3e
       -0.079917714 0.008520533 -0.007581615 0.27804795
0000a0 e2 c8 fc be 80 13 95 3d 46 b2 96 be 5b 51 b2 3d
       -0.4937201 0.0727911 -0.29432887 0.087069236
0000b0 c1 65 82 be 4b 77 37 be fd e7 a0 be 0c b6 10 bd
       -0.25468257 -0.179166 -0.31426993 -0.035329863
0000c0 2c c5 11 3e 77 a8 c9 bb 5d c1 14 3e 2c ae 40 3e
       0.14235371 -0.006154116 0.14526887 0.18816441
0000d0 be d0 1f bb 44 f4 ca 3d 4d d3 56 be 86 3a fb 3d
       -0.0024385895 0.09909871 -0.20979042 0.12267022
0000e0 7f ea 63 3d 57 5e 4c be a2 fd 53 be 66 3e 34 3e
       0.055643555 -0.19957863 -0.20702222 0.17601928
0000f0 ad 37 ad be b7 2c af bd 65 4d a1 3c 29 bd ff bd
       -0.3383154 -0.085534506 0.019690225 -0.12487251
000100 d3 2e 60 be 66 7e 4d 3d 92 ec f9 bd 4a 49 81 bd
       -0.21892862 0.05016937 -0.12203325 -0.06312807
000110 2a 9e 9a be b9 21 8f 3d 44 65 8e 3d 41 70 03 3d
       -0.30198795 0.06988854 0.06952909 0.032089476
000120 cd 40 fc bd e0 88 84 3d 96 6d 5d 3e 5c 66 3a 3e
       -0.12317047 0.06471419 0.21623835 0.1820311
000130 c2 6b 0c be fd 3a b6 3d a2 0d c9 bc 9c 61 cd bd
       -0.13712981 0.0889797 -0.024542633 -0.10028383
000140 ee d5 43 3e 51 15 a2 bd a0 0d e9 be 52 d3 8e bc
       0.19124576 -0.07914222 -0.45518208 -0.01743475
000150 5a 5d 85 be 1a 53 55 3e 8e 20 3c 3e 5c 12 2b be
       -0.26047784 0.20832482 0.18371794 -0.16706222
000160 ee 06 59 3e 01 17 d0 bd 18 b2 9d 3e 6e 8d 11 be
       0.2119405 -0.10160638 0.30799937 -0.14214107
000170 04 07 25 be 79 75 8e 3e 81 45 dd be bc 34 97 bd
       -0.16115957 0.27824 -0.4321709 -0.07383105
000180 ab e1 8c be 98 0f 3e bf a8 12 fc be ea e6 2c bd
       -0.2751592 -0.74242544 -0.49232984 -0.042212404
000190 7c 9c e1 3d aa 15 81 be a3 ff 6c be 47 c1 a1 be
       0.11016175 -0.2521184 -0.23144393 -0.3159277
0001a0 bb 1a 39 bd d7 f1 88 3e b6 ee c7 be 1d b9 00 bf
       -0.045191508 0.2674701 -0.3904931 -0.5028246
0001b0 76 92 eb 3d 70 5a 0e 3d 06 fe 03 ba 81 36 8a be
       0.115025446 0.034754217 -0.0005035106 -0.26994708
0001c0 ba 5a 19 be 78 32 91 3e 26 27 2c bf 66 c6 07 bb
       -0.14976016 0.28358817 -0.67247236 -0.002071762
0001d0 6f 4e 88 be 4f eb ba be c5 21 71 be 99 c7 db 3c
       -0.2662234 -0.3650765 -0.23548038 0.026828574
0001e0 27 f2 14 be f9 26 65 3e 9c ee 98 be e9 7b 23 bf
       -0.14545499 0.22378148 -0.29869545 -0.63860947
0001f0 fb 0e 4c 3d 67 54 02 bf 3e fb 19 3a 0a 24 f2 3d
       0.049818974 -0.5091004 0.0005873925 0.1182328

network_body._body_endoder.seq_layers.2.weight f4 [128, 128]
000000 a7 9e b1 3e e5 bd 86 be d6 36 64 be 22 a9 a8 bd
       0.34691355 -0.26316753 -0.22286543 -0.082353845
000010 e3 f4 b5 3d 49 8a 5d 3e 89 65 ae bd 19 52 4d bd
       0.08884599 0.21634783 -0.0851546 -0.050127123
000020 af 26 5c 3c 2b 15 23 bd 7d 0e 57 be 67 d7 2e bf
       0.013436957 -0.03981511 -0.2100162 -0.6829743
000030 84 4e cd be d3 b7 1c be b9 43 50 bd 06 9f 3d be
       -0.40098965 -0.15304498 -0.050845835 -0.18517694
000040 a6 69 df be 43 bd 38 be bf 69 2b bd c7 d3 c5 be
       -0.4363529 -0.18040948 -0.041848894 -0.38638136
000050 6d 90 29 be 16 d5 40 3d b0 b5 3f bc f2 be ac 3e
       -0.16559 0.047078215 -0.0117010325 0.3373943
000060 eb 61 4b be 60 65 99 3d db d8 19 be af 17 55 3d
       -0.19861571 0.07490039 -0.1502413 0.05202454
000070 34 c4 4d be 91 22 a2 3d 06 aa af be d8 b0 c1 3e
       -0.20094377 0.07916749 -0.34309405 0.37830234
000080 3b 04 0c be 39 74 ae be 42 74 92 be 3d 46 87 bd
       -0.13673489 -0.34073046 -0.28604323 -0.06605194
000090 4a 62 78 3c d4 77 81 bd 8b 03 ab be 7e 01 93 be
       0.015160153 -0.063216835 -0.3340114 -0.28712076
0000a0 80 40 08 bd 0c c7 01 3f dd e1 a0 be 8e c2 b4 bd
       -0.033264637 0.50694346 -0.3142232 -0.08826171
0000b0 47 30 95 be a2 2b aa be 09 c1 ea be 5b d7 6c be
       -0.29138395 -0.33236414 -0.458504 -0.23129027
0000c0 37 9b ed 3c a3 27 01 3f 8b bb ae be 8c 88 0f 3d
       0.029004676 0.50451106 -0.3412746 0.03504233
0000d0 39 95 da be ce ec b4 3e 15 f1 ac 3d aa ca 7f bd
       -0.42691973 0.35336918 0.0844442 -0.062449135
0000e0 94 16 80 3e 0f 33 43 be 92 fe 82 be 43 b4 f5 be
       0.25017226 -0.19062446 -0.25584847 -0.4798909
0000f0 76 1a 0f 3e ac 21 a5 be 87 54 d3 bd 66 00 3a bd
       0.13974938 -0.32252252 -0.10318857 -0.045410536
000100 eb 29 52 be d4 81 90 bd 9d 69 ba 3d 90 97 26 be
       -0.20523803 -0.07056013 0.091021754 -0.16268754
000110 96 6a 68 be c5 bb e6 3d 83 18 98 3e 3f 46 31 be
       -0.2269691 0.11266283 0.297062 -0.17311953
000120 60 1b 80 bd 84 91 46 be f2 fe a8 3d 8a ec fe bc
       -0.06255221 -0.19391447 0.08251752 -0.03111865
000130 16 fe 4a 3d 80 6a 22 3e 2a 8d 06 be f3 34 01 bf
       0.04955872 0.15860939 -0.13139787 -0.5047142
000140 25 56 8c 3d 93 f3 05 3e 6e 43 fe bd dd 97 9a bd
       0.06852368 0.13081197 -0.12415205 -0.07548497
000150 80 f7 8f bd 1e 75 b8 bc 4d c7 fc bd 19 b1 60 bd
       -0.07029629 -0.022516783 -0.12342701 -0.054856393
000160 1d 35 2b 3e fe 53 1f bc 07 64 45 be d2 aa d4 3d
       0.1671948 -0.009724615 -0.19276439 0.10384144
000170 df 72 af 3e 59 f0 30 3c b8 7e 20 be 5e 06 48 3e
       0.34267327 0.010799491 -0.1567334 0.19533679
000180 a1 28 db bd b5 4a 0a be cc 7d 34 3d b4 65 be 3d
       -0.10701109 -0.13505061 0.04406528 0.09296742
000190 d5 95 cb bd 10 fb 59 bd 0d a4 80 bd 8a ae ba be
       -0.099406876 -0.053217947 -0.0628129 -0.36461288
0001a0 e0 06 83 bc 14 b2 ea bc 70 f6 48 3e ba 0c dc bd
       -0.01599449 -0.028649367 0.19625258 -0.10744615
0001b0 8a 10 95 3d 1b f1 77 3d 22 2e 90 be 78 ea ee be
       0.07278545 0.06053267 -0.28160197 -0.4666326
0001c0 d1 d2 41 be bd c0 16 bf 66 fe bb 3d f8 9d 1d be
       -0.18928076 -0.58887845 0.09179382 -0.15392292
0001d0 f6 25 7b bd 5b 19 a8 bd 60 1a 66 3e 72 39 11 bc
       -0.0613155 -0.08207961 0.22470999 -0.008863794
0001e0 e3 cf f7 bd b4 da 82 3c 56 79 76 3c 9f c7 b7 3d
       -0.12100198 0.015973426 0.015043577 0.089736216
0001f0 d1 e3 bb bb f7 86 d2 bd c6 45 70 3e 14 fa 17 be
       -0.005733945 -0.10279649 0.23464116 -0.14841491
000200 09 04 8e be a6 66 b2 3e 7e 71 eb 3e f3 f9 64 3d
       -0.27737454 0.3484394 0.45985025 0.055902433
000210 de 14 8d 3e ce 50 17 be 2f a0 ad 3e 49 02 cd 3a
       0.27554983 -0.14776918 0.33911273 0.001564094
000220 bb fe 96 be 4f 1e f4 3d 6b 5e a4 3e 2a 0f 80 bc
       -0.2949122 0.119198434 0.32103285 -0.01563223
000230 41 11 6d 3e 33 19 93 3e 78 ce 9f 3e 36 f4 a3 3d
       0.23151113 0.28730163 0.3121221 0.08005564
000240 a8 71 ef 3e 73 64 42 bf 2a 12 5e be aa ee 22 3e
       0.467664 -0.75934523 -0.21686617 0.15911356
000250 3a eb e2 3e 97 df 20 3e 38 95 6b be 56 51 ab 3e
       0.4432009 0.15710293 -0.23006141 0.33460492
000260 01 b2 13 3e 76 d5 a1 bd 09 1c 83 3c 4b 73 cf 3e
       0.14423372 -0.079020426 0.01600458 0.4051765
000270 76 e1 85 bd cf dc 46 3e 31 24 0e 3f bc 93 87 3e
       -0.06537144 0.1942017 0.55523974 0.264799
000280 8d c7 b8 be 99 a4 8b 3e b0 6c b2 3e ec d5 0a bd
       -0.36089745 0.27274016 0.34848547 -0.033895418
000290 66 74 87 3d 27 92 39 bd f1 78 29 3e 0d a0 e3 3e
       0.06613998 -0.045305397 0.16550042 0.44458047
0002a0 4e 91 6c bd d5 d9 ec bd d5 50 f6 3c e1 d7 04 3f
       -0.05775576 -0.11564986 0.03006784 0.51891905
0002b0 6e 1b 16 be 87 d9 88 3d fe 4c b5 3e ff 22 8e bb
       -0.14658901 0.06682115 0.35410303 -0.004337668
0002c0 9f 4b 15 3d 9a 25 a9 be 90 fb b2 3e 32 0e f2 3d
       0.03644907 -0.330365 0.34957552 0.11819114
0002d0 3d 88 dc 3e 70 fd 3d bf 8c bb 3a be d3 9d 80 be
       0.43072692 -0.7421484 -0.18235606 -0.2512041
0002e0 16 b8 09 bf f7 45 6e be ce ce b9 3e 95 72 2d 3e
       -0.5379652 -0.23268877 0.36290592 0.16938241
0002f0 47 07 8f be 24 71 02 3f 4d 41 e8 3e 23 ef bb 3c
       -0.2793524 0.5095389 0.4536232 0.022941178
000300 ac dc 84 3e bb c2 9e be c2 22 93 bd db 29 28 3e
       0.2594961 -0.31007943 -0.07184364 0.16422217
000310 f8 f0 18 bf 28 7f df bb a6 f3 43 be d4 21 7d 3e
       -0.5974269 -0.006820578 -0.19135913 0.24719936
000320 d8 6d 32 3e 03 a4 4b bb 99 84 5f 3e b4 1d fb 3e
       0.17424715 -0.00310731 0.21827926 0.490461
000330 5a 65 bc be 5a 3c f0 3c 4d 2b d2 be ca 31 82 3e
       -0.36796075 0.029325653 -0.4104866 0.2542861
000340 86 58 8c 3c c8 b5 c9 3e 09 07 ce 3b 31 b0 23 bd
       0.017132055 0.393965 0.0062874597 -0.03996295
000350 a4 93 49 be ab 7d 65 3e 7e bb 6a 3a 44 57 10 3e
       -0.19685227 0.2241122 0.000895433 0.14095789
000360 31 06 b1 3e 30 ab 7e bd d0 5b d7 be 5b 34 2e be
       0.34575036 -0.062174976 -0.42062235 -0.1701216
000370 f8 3b 63 be 15 39 45 3c 03 8f 63 bd a2 4f 0d 3e
       -0.22190845 0.012037535 -0.05555631 0.13799909
000380 a4 26 b3 bc 5e 82 1f bd 9c cb e4 be 8b 48 3c be
       -0.021869011 -0.038942687 -0.44686592 -0.18387048
000390 4b 5e 01 3d 7b 96 9d 3e ca 17 cd 3e c7 87 0a bf
       0.031584065 0.3077887 0.40057212 -0.5411343
0003a0 17 1b 05 3f 5b 7f b5 3e 9c 79 1d be bb 56 57 be
       0.5199446 0.35448727 -0.15378422 -0.21029179
0003b0 53 e0 90 be 47 4e 2a be 26 a9 38 3e 4e 43 14 be
       -0.28296146 -0.16631423 0.18033275 -0.144788
0003c0 5d 0f f1 be 1c 37 15 3f 5e a9 ea be 2e 1c f4 3e
       -0.47082034 0.58287215 -0.45832342 0.4767775
0003d0 2e 0f 43 be 78 04 14 3f f8 f8 92 bd 5f 57 ac be
       -0.1904876 0.5781932 -0.07176393 -0.3366041
0003e0 a3 89 f2 3d 93 ef 6a 3d 9b 07 0c 3d 2d 81 0e be
       0.11842658 0.057357382 0.03418694 -0.13916464
0003f0 16 a0 f8 bc f5 34 b6 be d8 aa d8 bd 37 ef 9b be
       -0.030349772 -0.35587278 -0.10579461 -0.30455944

network_body._body_endoder.seq_layers.2.bias f4 [128]
000000 61 90 b8 bd 6a 13 4d bd f6 f4 2f bd 14 23 86 be
       -0.09011913 -0.050067343 -0.042958222 -0.26198637
000010 89 0d 44 3e fc ea b6 3e 1e 94 00 3e 87 fc 67 be
       0.19145788 0.35726154 0.12556502 -0.22654925
000020 9d b9 14 bd 2b 4f 34 3c b7 90 7b 3d 9c cc 8d be
       -0.036309827 0.011005203 0.061417308 -0.27695167
000030 96 8e 80 3d 0c 0c 5d bd 65 a2 1c bd 9a b4 15 3e
       0.06277196 -0.053966567 -0.03824081 0.14619675
000040 03 23 8f bd 7c 2b 6c be 24 15 61 be 71 32 69 bd
       -0.069891 -0.23063463 -0.21980721 -0.05693287
000050 38 8a 97 3e 4f 18 9f 3e 16 b0 e4 3e 5c ec ba bd
       0.2959764 0.31073233 0.44665593 -0.09127113
000060 da 57 98 bd c0 93 63 3e 2b 45 6e 3d 78 83 01 3d
       -0.07438631 0.22224331 0.058171432 0.03161952
000070 60 32 10 bd 3c 1e 0c 3e 47 ef 6b be 05 e8 3f 3e
       -0.03520429 0.13683408 -0.23040496 0.18740852
000080 4f b0 07 3f 37 37 49 3e e0 ff b3 bc d0 ae 96 bd
       0.530034 0.19649969 -0.021972597 -0.073575616
000090 b3 96 51 3e 3a b6 6d be b9 b5 9b bd 25 7f 82 3e
       0.20467643 -0.23214045 -0.0760302 0.2548763
0000a0 9c 80 6e be 96 a8 91 3d b5 aa 48 3e 5a 26 5a be
       -0.23291248 0.07112233 0.1959637 -0.21303692
0000b0 61 18 71 3e ba ed 30 3e 3c c6 0c 3d 75 e2 aa bc
       0.23544456 0.17278185 0.03436874 -0.020859936
0000c0 03 a0 74 bd ee e8 ac 3e cd 34 ba bd e7 13 42 3e
       -0.05972291 0.3377146 -0.09092102 0.18952905
0000d0 b5 b3 d8 bd 4a b9 07 be 90 b3 01 bd 2b 43 40 3e
       -0.105811514 -0.13254276 -0.031665385 0.18775623
0000e0 b7 77 24 be 56 69 95 3e 09 f3 2c be 0d d5 6c bd
       -0.16061293 0.29181927 -0.16889586 -0.05782037
0000f0 e9 e2 15 3e 5e 80 39 3e e1 8c 81 3e 33 11 84 3d
       0.1463734 0.18115374 0.25302795 0.06448593
000100 e3 40 9c bd a3 e5 2c 3e 77 54 e8 ba 3a aa 1d bd
       -0.07629564 0.16884474 -0.0017725368 -0.03849242
000110 63 03 3d be e9 93 1f 3c 50 06 60 bb 10 4d d4 bd
       -0.18458323 0.009739854 -0.003418345 -0.10366261
000120 43 24 a6 bc 5e da 0f be 7e 6d 48 bd 9c 5b 1b 3e
       -0.020280963 -0.14048144 -0.048932545 0.15171665
000130 98 d2 0e be 8a 6d 58 be 4e 14 e7 3c 47 74 aa 3d
       -0.13947523 -0.21135536 0.028207924 0.083229594
000140 0d 3d ec bd b8 15 a0 bd 8a 18 e3 bc 7c dd ce 3c
       -0.11535082 -0.078166425 -0.027721662 0.025252096
000150 0a 54 ce bd 87 94 6f be 74 a2 d6 bd f0 75 24 3e
       -0.10074623 -0.23396502 -0.10480204 0.16060615
000160 d4 d9 51 bc b2 c8 94 3d 31 d9 34 bd 5b 90 21 be
       -0.012808282 0.07264842 -0.044152442 -0.15777723
000170 d3 15 b1 bd 4c 7d 81 bd 84 74 39 be 11 a1 16 3e
       -0.08646741 -0.063227266 -0.18110853 0.1470988
000180 6b c4 e1 3d 0e 84 53 bd f8 d4 96 3e cd 04 1f 3e
       0.11023792 -0.05163961 0.29459357 0.15529175
000190 16 6c 2a be f8 ad 24 3e df b8 4e bd c2 8d 8d bc
       -0.16642794 0.16081989 -0.050469276 -0.01727951
0001a0 bb c3 31 3e 86 83 82 bd ec 94 17 3e 1a 98 d5 bb
       0.17359821 -0.06372742 0.14802903 -0.006518376
0001b0 76 ed 19 3e db 83 77 bd de 1f 8e 3d f6 07 fe bd
       0.1503199 -0.06042848 0.06939672 -0.12403862
0001c0 67 7d 6f be ee b7 81 be 4e 5f 0d 3e 20 d5 25 be
       -0.23387681 -0.2533564 0.13805887 -0.16194582
0001d0 74 90 94 bb 1e bf 83 bd 4d 6f f8 bd c9 de fa 3d
       -0.0045338217 -0.06432937 -0.12130604 0.12249524
0001e0 c0 5d 2c bd 58 a0 a1 bd 52 51 be 3e 9f ad a6 bd
       -0.042081594 -0.07891911 0.37171417 -0.08138584
0001f0 06 7f 00 bf 6e 69 35 3e 54 ca c3 3d 2a f4 63 3d
       -0.5019382 0.17716 0.095600754 0.055652775

action_model._discrete_distribution.branches.0.weight f4 [3, 128]
000000 ae 1b 21 3f ba fd 9c be 3f 45 59 bb c1 3d 76 3c
       0.6293286 -0.30662328 -0.0033152846 0.015029372
000010 d4 d3 b9 3e 69 81 90 bd c6 6d 8f be f8 2a 6e be
       0.36294425 -0.07055933 -0.28013438 -0.23258579
000020 92 ad 02 3e d2 1e 8a 3e 8f 43 3f be 2a 51 44 be
       0.12761524 0.2697664 -0.18678115 -0.19171587
000030 08 9d 9c 3d b1 47 19 be d1 bc 88 3e 86 63 3e 3e
       0.07647139 -0.14968754 0.26706555 0.18592653
000040 45 57 f9 bd cd 9f 7b 3e 18 5f 09 3f be 94 b6 3e
       -0.121748485 0.24572678 0.53660727 0.35660356
000050 48 d4 2e be 90 49 73 3e 77 85 07 be 23 de 31 3e
       -0.17073166 0.2375853 -0.13234507 0.17369895
000060 d5 b4 9d bd b0 21 47 3e 93 f0 30 be da 85 82 3e
       -0.077005066 0.19446445 -0.17279272 0.25492746
000070 c8 3b 17 be 33 97 51 bd 76 be 76 3e 06 9d e0 3e
       -0.14768898 -0.051169585 0.24096093 0.438698
000080 b7 e7 66 bd 5f 3f 12 3e 42 ba 37 3e 0e 49 e6 bd
       -0.056373324 0.14281987 0.17942145 -0.11244403
000090 87 9d 02 be 3b e8 2e bf 1b 7c 33 bd ae 8f 0e 3f
       -0.12755404 -0.68323106 -0.043819528 0.5568799
0000a0 c5 9e 80 3e f9 67 8f 3e 2c a9 86 3e a7 92 59 3d
       0.25121132 0.28009012 0.26300943 0.053118374
0000b0 32 dc ef 3e 79 ba 54 3e 15 8c 96 3e 8e ac 0d bd
       0.46847683 0.20774259 0.2940375 -0.03458839
0000c0 3c c7 65 3e b4 d7 75 3d 8c 35 7e 3e dc 11 89 bc
       0.22439283 0.060020164 0.24825114 -0.016732149
0000d0 ed 8f 9a be 82 bc ee 3e 35 24 b6 3d bc 23 ef 3d
       -0.30187932 0.46628195 0.08893625 0.11676738
0000e0 19 f6 ef 3e 7c 95 b6 bd b8 e7 59 3e 26 25 a0 3e
       0.46867445 -0.08915231 0.212798 0.31278342
0000f0 a1 2c 26 be 45 89 ad bd e7 97 82 be 04 2f 75 3e
       -0.16227962 -0.08473448 -0.25506517 0.23943716
000100 e4 22 99 3d cd b9 44 be de 46 e2 3e e6 f7 94 3e
       0.07477358 -0.19211502 0.44194692 0.29095381
000110 92 d4 7c 3e d7 c0 92 3d 8d d8 1b 3f d5 77 f2 3e
       0.24690464 0.071656875 0.60877305 0.4735705
000120 50 79 be 3e 88 6d 15 bd 1b 86 d2 3e cf 87 13 3d
       0.3720193 -0.03648141 0.4111794 0.03601819
000130 8e fd 1a be 25 58 9b bd bd 8d 19 3e f3 29 21 be
       -0.15135786 -0.075851716 0.14995475 -0.15738659
000140 c0 3e d2 3e 4e 71 60 3e dd 0f 6c 3e f9 e5 df bd
       0.410635 0.21918222 0.23052926 -0.10932536
000150 28 6a 0c 3d a2 d6 1f 3f 1a fc 00 be f6 f5 2e 3e
       0.034280926 0.6243688 -0.12596169 0.17086014
000160 a8 3e 9f bd e6 57 69 3e 6d f1 92 be b0 ab 20 3e
       -0.077756226 0.22787437 -0.28699818 0.15690494
000170 2c 2a 3b 3e 83 48 24 3f 36 47 13 3e be f8 12 3e
       0.18277806 0.64173144 0.14382634 0.143527
000180 b8 90 c2 3c e5 f0 d8 be 69 5d 81 3e 19 d6 da 3e
       0.023750648 -0.42371288 0.2526658 0.4274147
000190 ea 0e 49 be 98 52 14 be 5c c1 36 be 6c 26 61 3e
       -0.19634596 -0.14484632 -0.17847198 0.21987313
0001a0 9d f6 b6 3e 75 7d 45 3e 0d c5 46 3d 9c 16 bb 3e
       0.35735026 0.1928614 0.048527766 0.36540687
0001b0 55 2e 50 3f 0b 11 81 3e 66 d1 84 3e f2 68 84 3c
       0.813207 0.25208315 0.25941008 0.016163323
0001c0 11 09 6a 3e 7a 1c dd 3e 46 b6 1a 3f 81 b8 72 be
       0.22855021 0.43185788 0.6043438 -0.23703195
0001d0 3b 21 71 3c b5 3c cc be 36 78 20 be 17 18 08 be
       0.014717395 -0.39890066 -0.15670857 -0.1329044
0001e0 a0 10 c4 3e 9f a9 20 be 13 0d 9e 3e 05 28 f3 3e
       0.38293934 -0.15689705 0.3086935 0.4749147
0001f0 f6 e4 48 bd 24 56 25 3e de 27 31 be 41 4f af 3e
       -0.04904648 0.16146141 -0.17300364 0.34240153
000200 cc a2 d4 3e ed 32 cb 3e e0 d6 da 3d 76 2e 83 be
       0.41530454 0.3968729 0.106855154 -0.25621384
000210 59 dc ed bd 89 0d 7e 3d cb d2 9f 3e 9b 49 b8 3e
       -0.116142936 0.062024627 0.3121551 0.35993657
000220 22 08 83 bc 18 89 c2 3e 88 17 c8 3e 7e 7e 26 3d
       -0.015995089 0.3799522 0.39080453 0.040647976
000230 d6 aa 94 3e 41 85 2d 3e a2 b0 e1 3b 97 bd 15 3e
       0.29036587 0.16945364 0.0068875114 0.14623104
000240 e6 0d a7 3e 1e 35 bc bc 70 ce 7e 3e f8 b7 90 3e
       0.3262779 -0.022974547 0.24883437 0.28265357
000250 19 14 bd 3e c7 52 ed bd 89 86 40 3d 25 b8 7a 3e
       0.36929396 -0.11588054 0.047003303 0.24484308
000260 fa 5d 10 b8 d5 64 a6 be 34 f1 25 3e 65 a6 66 3e
       -3.4419798e-05 -0.32498804 0.16205293 0.22524412
000270 d1 7e 79 3e 3a ca 15 3e e5 1a 75 bd d4 b0 49 bd
       0.24364783 0.14627925 -0.0598401 -0.049240902
000280 47 59 f6 bd 11 1c 15 3e 0d 86 be bb ce 67 9b 3e
       -0.12028747 0.14561488 -0.00581432 0.30352634
000290 2a ce 12 3e 33 36 c2 3e d3 94 d8 3d ba 1b 05 3f
       0.14336458 0.37931976 0.10575261 0.5199543
0002a0 b7 c5 c8 3d 45 35 85 3b bc a3 18 3e 84 cd 07 bd
       0.09803336 0.004065188 0.1490621 -0.03315498
0002b0 37 6b b5 bd ad b0 16 3d ae 3b 17 be a9 37 23 3e
       -0.0885834 0.036789585 -0.1476886 0.15939201
0002c0 16 73 dc be 81 73 d6 3b 52 c1 83 be 2a 65 1f bd
       -0.43056554 0.006544531 -0.2573343 -0.038914837
0002d0 d6 8c 6e 3e 5b 4f 20 3d 24 d6 9c bd 3a d2 3c be
       0.23295912 0.03913818 -0.076580316 -0.1843957
0002e0 12 e6 b9 be d9 85 ce bd 27 b6 9b bd 9d 81 53 3e
       -0.36308342 -0.10084123 -0.07603102 0.20654912
0002f0 7f f1 88 3e 79 4b a0 3d 3b c9 4c 3e 17 cb fe 3b
       0.26746747 0.07826895 0.19998638 0.007775675
000300 3f 69 9f 3c 28 9f 5f 3e 63 04 1f be e9 96 5d 3e
       0.019459365 0.21838057 -0.15529017 0.21639599
000310 3e 44 21 be 2a 74 d4 3d 61 ab db 3e 31 b5 2f 3d
       -0.15748689 0.10373719 0.4290419 0.042897407
000320 d7 ca 3c 3e 84 aa b8 3d a2 6e aa 3e 07 4a ba 3e
       0.18436752 0.09016898 0.3328753 0.36384603
000330 06 6e 06 bc c0 9e a4 3d f2 02 8a bc 3f 5c f6 3c
       -0.008204943 0.08038092 -0.016847108 0.030073283
000340 c0 ae 93 be 52 17 6f be 94 b7 10 3e 38 ac 50 3e
       -0.2884426 -0.2334874 0.1413253 0.20378196
000350 0a 92 cf 3e fb ab 9c 3e fd 30 34 3e e5 a2 c6 bc
       0.40541106 0.3059996 0.17596813 -0.024247596
000360 36 56 29 bd 2a d5 ab 3e 47 54 62 3e 2e 79 6c be
       -0.041341983 0.3356107 0.22102462 -0.23093101
000370 98 37 a5 bd 0c 08 68 3d c4 33 8d 3e 8c e0 5f 3e
       -0.08067244 0.0566483 0.27578557 0.21863002
000380 23 cb 5c 3e c7 bb fa 3e 21 04 7f ba 33 83 8a 3e
       0.21561866 0.48971388 -0.0009728093 0.27053222
000390 7e 65 e0 3d 03 a1 1b 3e 10 41 a7 3e a0 4f 88 3e
       0.10956858 0.1519814 0.32666826 0.2662325
0003a0 f9 09 dc ba ea ac b9 3a e8 a6 2b 3e b3 43 43 3d
       -0.001678764 0.0014165912 0.16762888 0.047671985
0003b0 89 e8 27 3f fb 46 33 3d 83 7b a5 3e c5 40 8f 3e
       0.65589195 0.043768864 0.32320794 0.27979103
0003c0 cf bc 2c 3d 8c 29 12 be 05 d9 3a 3f 2b 4d 6a 3e
       0.04217225 -0.14273661 0.72987396 0.22881
0003d0 8c 44 03 3f 41 c2 08 3e 49 45 d0 3e 9e 93 a2 3e
       0.5127647 0.13355352 0.4067786 0.31753248
0003e0 a5 7f 2a 3e 2a b0 3e 3e b8 05 a4 3d 8f 5b 33 3d
       0.16650255 0.18621889 0.08008903 0.04378849
0003f0 83 1d b7 3d 06 af 01 be 6e 2c 9c 3e 4d ce c8 bd
       0.08941176 -0.12664422 0.30502647 -0.09804974

action_model._discrete_distribution.branches.0.bias f4 [3]
000000 bf f8 fa bd 81 fa eb be 27 b9 0c 3f
       -0.12254476 -0.46089557 0.5497002

action_model._discrete_distribution.branches.1.weight f4 [3, 128]
000000 7b 98 d4 be c6 ef 52 3e 19 58 e4 3d be 07 22 3d
       -0.41522583 0.20599279 0.11149616 0.039558165
000010 8a e5 e5 3d ed 04 0e be f2 4d a5 3e 7a 8b 0e be
       0.11225422 -0.13869067 0.3228603 -0.13920394
000020 dc d9 9b 3e 14 26 ef 3e 18 86 91 bd 33 91 62 be
       0.3043965 0.4670874 -0.071056545 -0.22125702
000030 a1 b6 8d 3e c1 22 c9 3d c4 12 69 3e c6 d0 a1 3d
       0.27678397 0.09821082 0.22761065 0.079011485
000040 0f 67 9f bd 9e f8 e0 be 17 3e 0f be 49 a5 8d be
       -0.07783329 -0.4393968 -0.13988529 -0.27665165
000050 b5 43 e1 3e 53 4e a4 3d 19 2e 38 3e 39 38 72 be
       0.4399697 0.08022752 0.17986335 -0.2365426
000060 17 7f 0f 3f 21 af 02 be 54 3b 00 3f 2c b5 14 3e
       0.560533 -0.12762119 0.5009053 0.14522237
000070 62 8e 44 3d 4c 93 34 3f 2b 00 4d 3c ab 8c ab 3e
       0.04798735 0.7053726 0.012512247 0.3350576
000080 07 71 81 be 4e 9f c9 bd e5 d7 66 3e e7 5a 92 be
       -0.25281546 -0.09844838 0.22543295 -0.28584978
000090 b6 0e aa 3e 7e 53 b0 bd 5f 94 8e be a5 5d b0 3e
       0.3321435 -0.08609675 -0.27847573 0.34446445
0000a0 fe a5 8b be 86 fe f6 bd f2 0f bc be f5 88 41 bd
       -0.2727508 -0.12060265 -0.36730915 -0.047249753
0000b0 60 6c ad 3e ff 95 af 3e e7 2c 30 3f d4 5e 14 be
       0.33871746 0.34294125 0.68818516 -0.14489299
0000c0 39 fa 4b be 5d 14 3e 3e 9a 52 16 3c 49 c6 d6 3e
       -0.19919671 0.18562455 0.009174967 0.41948155
0000d0 a9 92 1f bd 2c 91 d7 3e 9a b7 8d 3e fb b5 06 3e
       -0.038958225 0.42102945 0.2767914 0.13155358
0000e0 44 65 d6 3e d8 c2 6c be 56 94 e3 be 37 64 8d 3d
       0.41874135 -0.23121202 -0.4444911 0.0690388
0000f0 33 0e 5f 3f 60 70 42 3e 48 da 07 be 73 ba 72 be
       0.8713104 0.1898818 -0.13266861 -0.23703937
000100 39 17 22 3a 14 3a c8 bd e7 a7 f5 3e 0e 11 65 be
       0.000618327 -0.097767025 0.47979662 -0.22369787
000110 16 2a 67 3d 7e 9a 2c 3e f0 74 80 be a2 d9 62 3e
       0.05643662 0.16855809 -0.25089216 0.22153333
000120 4b e1 f1 3e d4 55 4d bc 99 1b b5 3e 45 77 a2 3e
       0.47242197 -0.01253267 0.35372618 0.3173162
000130 47 73 29 3f 4a f6 c9 3d f1 bb 4b bc 12 2f 16 3e
       0.66191524 0.09861429 -0.012434945 0.14666393
000140 99 c2 b8 3d bd 56 4e 3e f2 d9 e1 3e e1 37 7a 3e
       0.090214916 0.20150276 0.44111592 0.24435379
000150 4a e5 06 be a5 24 e3 3e 04 62 7d 3e e2 51 52 3e
       -0.13173404 0.44363895 0.24744421 0.20539048
000160 ab d7 74 3c b8 97 05 3f 8a 9e 8b 3e d3 e6 1f 3e
       0.014943997 0.5218463 0.27269393 0.15615396
000170 ac 28 48 be 28 35 10 3e 40 cc 28 be d5 93 66 3e
       -0.19546765 0.14082778 -0.16484165 0.22517331
000180 10 44 5a 3e c6 0a 51 be a6 a7 60 3e 68 7c 02 3e
       0.21315026 -0.20414266 0.21938953 0.1274277
000190 22 41 a2 bd 50 1e 1d 3e 10 3e d2 3e f0 04 ee 3e
       -0.07922579 0.15343595 0.41062975 0.46488142
0001a0 04 6b 75 be 25 71 d4 ba 2e 8c 19 3d 57 a4 6f be
       -0.23966604 -0.0016208036 0.0374872 -0.23402534
0001b0 67 1c e4 3d 06 45 c7 3e b9 64 51 3e 2e 4a 86 bd
       0.1113823 0.38919848 0.20448579 -0.065571174
0001c0 53 96 db bd 51 a1 00 bd d3 15 be be ea 36 22 3f
       -0.107220314 -0.031403843 -0.37126026 0.6336504
0001d0 ad 56 17 3e 0d ec 34 be 43 69 8a 3e 0e 1e 81 be
       0.14779158 -0.17668171 0.27033433 -0.25218242
0001e0 f1 a4 09 bf 71 73 c1 3e ec 1c 19 3e 15 04 ad 3e
       -0.53767306 0.37783387 0.14952439 0.33792177
0001f0 12 ee c5 3d ec f0 7f 3d 21 f5 f2 3d 17 7f 01 bd
       0.09664549 0.06248562 0.11863161 -0.031615343
000200 07 2e 1a 3e 3b 22 94 be 19 0c 7b 3e a2 ae 31 3d
       0.1505662 -0.28932366 0.24516334 0.043379433
000210 07 5f c5 3d c6 ae 53 3e 61 f1 54 bd 5e 51 9d 3e
       0.09637266 0.2067214 -0.05198801 0.3072614
000220 88 d0 3f 3c b4 a5 00 bd cb b6 2e bd 6b a1 02 3e
       0.011707433 -0.031408027 -0.042654794 0.12756889
000230 8e c2 90 bd 7c 53 19 bd 0f 0f 9b 3e dc 86 9a 3d
       -0.07068358 -0.037433133 0.30284926 0.07545254
000240 4b 2d bb 3e ca 91 d5 3e 71 5e 18 bd c6 25 fa bd
       0.36557993 0.4171279 -0.03719944 -0.12214236
000250 40 c2 ee bd 4e e5 30 3e 86 c4 70 3c e9 b0 7d 3e
       -0.11658144 0.17274973 0.014695292 0.24774517
000260 8f 3c 17 3e bb 42 84 3e 4c dd b8 bd 32 e7 83 3e
       0.14769195 0.2583216 -0.09026584 0.25762326
000270 23 c5 21 3e 88 f6 fc bc 2a 18 6b 3e cb 44 d3 3d
       0.15797858 -0.030879274 0.22958437 0.103158556
000280 69 24 fa 3c b8 d3 b0 be 7d d1 b9 bd 2b 37 25 3e
       0.03053494 -0.3453653 -0.0907316 0.16134326
000290 21 85 e9 bd 6f 59 cd bd a8 d7 97 3e b6 f6 d6 be
       -0.114023454 -0.10026824 0.2965672 -0.419851
0002a0 f4 1a 81 3e 3d 0c d8 bd d6 59 64 3e ce 79 79 3e
       0.25215876 -0.10549209 0.22299895 0.24362871
0002b0 dd 06 83 3d 92 a8 07 be 00 1b 54 bb 80 fa 51 3e
       0.063977934 -0.13247898 -0.0032364726 0.20505714
0002c0 7d 64 13 3e 8b d0 26 3e c3 93 4b 3c f6 37 1a bd
       0.14393802 0.1629049 0.012425366 -0.037651025
0002d0 95 99 b3 3e be 05 11 be 83 25 42 3d d2 a9 da 3e
       0.3507811 -0.14162347 0.047399055 0.42707688
0002e0 d9 60 66 be c2 12 d1 bd 05 e7 12 3f f4 e7 be 3c
       -0.22497882 -0.10208656 0.5738376 0.023303963
0002f0 5f 18 57 bd 07 43 0c bd 10 9a 88 bd fc 53 1a 3e
       -0.052513476 -0.03424361 -0.0667001 0.150711
000300 a7 3c 99 3e e1 5b 5b be 3b ee 51 3e f9 7d e9 3e
       0.29929087 -0.21421768 0.20501034 0.45603922
000310 20 77 cd bd 15 1d 64 bc 42 7e 5b 3e 6d 93 dc 3d
       -0.10032487 -0.013922949 0.21434882 0.10770307
000320 95 04 8f bd 3a f1 e2 be 91 13 35 3e b4 e7 b3 be
       -0.06983296 -0.44324666 0.17683245 -0.35137713
000330 94 21 20 bc 48 0c 38 3d 3a 36 87 3e ab f4 b2 3e
       -0.009773631 0.044933587 0.2640856 0.34952292
000340 db c5 b0 bb e5 d0 16 be db a7 ce be fa c6 01 bd
       -0.00539468 -0.14728124 -0.4036244 -0.0316839
000350 c4 cc 19 be ea 37 7e 3e 25 be 0f bd b3 4a 31 be
       -0.15019518 0.24826017 -0.035093445 -0.17313652
000360 66 b9 88 3e 79 7f 02 bd 64 92 03 3d 92 e0 85 be
       0.26703948 -0.03185985 0.03212203 -0.26147896
000370 81 2c ac 3e d4 74 cf bd 5d 3c d5 bd 18 5e 4c 3e
       0.33627704 -0.10129705 -0.10411904 0.19957769
000380 99 83 55 be d5 1d 64 3e e5 94 a0 3e f8 a8 31 3f
       -0.20850982 0.22277005 0.31363598 0.6939845
000390 0d 13 ab 3d fb 26 1b 3e 80 e7 00 3c 0f a3 89 bd
       0.08353243 0.15151589 0.007867694 -0.06720554
0003a0 cc b6 b4 3c 0b 55 0e 3d 6f fc a6 3b 2f 2a 53 3e
       0.02205982 0.034749072 0.0050960104 0.2062156
0003b0 1a c4 8f 3d c8 cd d4 3e 78 35 cc 3d 4b fc 52 be
       0.07019825 0.4156325 0.09971136 -0.20604055
0003c0 ba f8 9d 3e 2d 8e df 3d 58 ff 88 3e 56 5c 1a 3e
       0.30853826 0.1091579 0.26757312 0.15074286
0003d0 ba fb 7f 3e bc 96 3d be 1c ca b9 3d 7e 06 b3 3d
       0.2499837 -0.18514532 0.090717524 0.08741473
0003e0 57 90 00 3f e5 1c 40 be 6f 2c d4 3d 44 76 26 bc
       0.50220245 -0.18761022 0.103600375 -0.010160033
0003f0 81 9b 61 bd 2a a9 49 be 5e 07 f9 bd e5 a5 c8 3d
       -0.05507994 -0.19693437 -0.12159608 0.09797267

action_model._discrete_distribution.branches.1.bias f4 [3]
000000 1c a2 8d bd 2a 28 d8 bd c1 da 50 3e
       -0.069156855 -0.10554536 0.20395948

exp_avg f4 [128, 36]
000000 fc 86 42 36 e0 0d 44 36 d6 89 9b b6 91 1a 97 b6
       2.8986824e-06 2.9214352e-06 -4.635406e-06 -4.5032434e-06
000010 c3 67 85 35 15 51 69 35 9c da f3 b6 67 b3 b9 b6
       9.939471e-07 8.6917254e-07 -7.267414e-06 -5.534315e-06
000020 ee 39 71 b5 5e 4a 70 b4 ec 96 48 b6 ec c7 0a b6
       -8.9863795e-07 -2.2378796e-07 -2.989017e-06 -2.0679972e-06
000030 3f 15 4d 36 f6 38 46 36 3a c2 1b b6 be 5a 3e b7
       3.0559747e-06 2.9537455e-06 -2.3209855e-06 -1.134601e-05
000040 f5 fc dc 36 4d 38 d5 36 6d 45 56 b7 51 ca 44 b7
       6.585959e-06 6.354449e-06 -1.2771558e-05 -1.1729616e-05
000050 9d 4a 20 b6 97 27 36 b6 99 2c 19 36 eb d0 2b b7
       -2.3885289e-06 -2.7143158e-06 2.2824736e-06 -1.0241037e-05
000060 2e d0 7a 36 22 c4 12 b7 72 28 95 b4 f8 1a 08 b7
       3.737408e-06 -8.747944e-06 -2.778284e-07 -8.112511e-06
000070 26 58 53 35 2d c2 fd b6 6c 55 fe b4 63 a0 fe b6
       7.87319e-07 -7.5625926e-06 -4.737334e-07 -7.5884614e-06
000080 6c 55 fe b4 63 a0 fe b6 b4 f1 80 bb 53 13 79 ba
       -4.737334e-07 -7.5884614e-06 -0.0039350633 -0.0009501476
000090 1b e5 c9 26 95 91 10 27 96 2b 03 27 b4 68 26 27
       1.4009276e-15 2.0062935e-15 1.820353e-15 2.3093887e-15
0000a0 cd 1c c2 26 4a 56 2a 27 b9 8a 90 25 53 82 0e 27
       1.3469261e-15 2.3639017e-15 2.507402e-16 1.9777108e-15
0000b0 0c 15 88 27 a2 0e 91 27 ab 7a 81 27 ce c2 ad 27
       3.77704e-15 4.026145e-15 3.593769e-15 4.8228353e-15
0000c0 d4 44 b7 a6 c6 1e 35 27 33 91 24 27 6c 01 9b 27
       -1.2716832e-15 2.5135478e-15 2.2838285e-15 4.3022684e-15
0000d0 d9 40 51 a5 e1 9d 27 27 7f 5e 54 27 f0 5a 93 27
       -1.8149832e-16 2.3261492e-15 2.9472137e-15 4.089929e-15
0000e0 bc 3c 9e 25 24 ff 63 27 dc f2 ac 27 69 90 a7 27
       2.7449786e-16 3.164089e-15 4.80029e-15 4.650838e-15
0000f0 0e c8 b2 27 c6 d3 8a 27 fc 0e 5a 27 a3 5b 99 27
       4.9621824e-15 3.85323e-15 3.02617e-15 4.2565383e-15
000100 cd 9f 63 27 21 34 85 27 5d ff b5 a5 02 0c 90 27
       3.1589207e-15 3.6971434e-15 -3.1571536e-16 3.9981048e-15
000110 5d ff b5 a5 02 0c 90 27 d1 f7 aa 2a bf 33 04 2a
       -3.1571536e-16 3.9981048e-15 3.0370023e-13 1.1741908e-13
000120 64 72 3c 32 e8 06 55 36 04 ea 35 34 9d b4 a5 36
       1.096905e-08 3.1743493e-06 1.6942073e-07 4.9384093e-06
000130 ad d0 36 b3 17 02 3f 36 87 d7 a8 36 bf 28 c2 36
       -4.2564967e-08 2.8462434e-06 5.031881e-06 5.786394e-06
000140 5f cd 96 36 06 7f b5 36 26 43 f4 35 e6 e9 c3 36
       4.4942567e-06 5.409008e-06 1.8198959e-06 5.8386822e-06
000150 bd e1 d9 36 cb 56 d1 36 98 dc 11 36 c9 dc c6 36
       6.4933834e-06 6.2387894e-06 2.1735086e-06 5.9265626e-06
000160 a2 42 db 36 b9 d6 d2 36 86 72 12 36 2e a4 db 36
       6.5344657e-06 6.2834847e-06 2.1822357e-06 6.5458216e-06
000170 09 3b da 36 84 2a d3 36 d8 62 07 37 2c a5 f3 36
       6.503779e-06 6.2932395e-06 8.069641e-06 7.261193e-06
000180 14 39 e0 36 34 9f db 36 f7 05 cf 36 2d 3f d2 36
       6.682365e-06 6.5452423e-06 6.169775e-06 6.2658423e-06
000190 3b 2b da 36 02 62 d9 36 85 ba d2 36 5b 93 d1 36
       6.501939e-06 6.4785136e-06 6.2802014e-06 6.24584e-06
0001a0 85 ba d2 36 5b 93 d1 36 57 f6 e6 39 5d b0 69 39
       6.2802014e-06 6.24584e-06 0.00044052556 0.00022286312
0001b0 a4 e0 7e ba ea 57 37 ba ce 49 3c ba 9a b4 08 ba
       -0.0009722805 -0.0006993996 -0.00071826286 -0.00052149
0001c0 9c 7c 35 ba dc 9d 1a ba d6 3f cd 39 f3 49 c7 b9
       -0.00069231703 -0.00058981567 0.00039148208 -0.00038011334
0001d0 1f 42 f9 b9 0e a4 28 ba f2 30 92 b9 d3 bb 5d b9
       -0.00047542245 -0.00064331375 -0.00027883757 -0.00021146172
0001e0 0b 53 da b9 6e 61 06 ba 98 f2 1d 39 4e 3c 57 b7
       -0.00041642072 -0.00051262125 0.0001506306 -1.2829039e-05
0001f0 ea 62 12 b9 e1 91 e0 b9 6b a6 ca b9 f7 54 8c b9
       -0.00013960493 -0.00042833298 -0.00038652433 -0.00026766185
000200 09 02 a5 b9 6d c0 9c b9 d9 9b d8 38 f4 d8 ab b9
       -0.0003147277 -0.00029898007 0.000103287115 -0.00032777304
000210 ec 5e 21 ba 45 e5 01 ba 49 bf 75 39 8c 98 ab b9
       -0.0006155807 -0.00049551233 0.0002343628 -0.00032729318
000220 d0 93 c0 39 c8 d4 97 b9 2f cb ac 39 26 90 65 b9
       0.00036731223 -0.000289595 0.0003295778 -0.00021892841
000230 2f cb ac 39 26 90 65 b9 c2 4a 6c be 24 c8 ec bd
       0.0003295778 -0.00021892841 -0.23075393 -0.11561611
000240 5c 63 7f 35 f4 50 f0 36 54 0d c9 35 92 75 f2 36
       9.513949e-07 7.1619816e-06 1.4979546e-06 7.225849e-06
000250 3a 5e c4 35 12 98 04 37 84 75 ad b5 24 a6 11 37
       1.4630562e-06 7.90322e-06 -1.2923706e-06 8.681356e-06
000260 37 ad 03 b5 84 9e 1a 37 5c 40 46 37 73 90 29 37
       -4.9053364e-07 9.216023e-06 1.18167045e-05 1.0106817e-05
000270 b0 78 4e 37 bb 63 48 37 d8 79 c7 35 af e3 a6 34
       1.2306657e-05 1.1944149e-05 1.4862117e-06 3.108557e-07
000280 aa ff 40 37 b0 ce 44 37 0c 53 ce 35 b7 50 bc 34
       1.1503618e-05 1.1730634e-05 1.5372366e-06 3.5076457e-07
000290 5c 6b 40 37 ec c5 42 37 f2 ab 73 b5 5a 26 90 34
       1.1469088e-05 1.1609383e-05 -9.077477e-07 2.6849995e-07
0002a0 4f 51 3b 37 29 da 40 37 b9 b4 db 36 92 3a 0e 37
       1.1165e-05 1.1494886e-05 6.5477475e-06 8.4774965e-06
0002b0 c1 3b 29 37 00 94 3c 37 7c d4 16 37 26 a9 30 37
       1.00870975e-05 1.1240132e-05 8.99017e-06 1.05298e-05
0002c0 7c d4 16 37 26 a9 30 37 8c 3d 4e 3a a4 05 e4 39
       8.99017e-06 1.05298e-05 0.00078674476 0.0004349175
0002d0 f2 87 12 34 00 33 ee b5 04 1a 42 34 46 ed 03 b6
       1.3646766e-07 -1.7747225e-06 1.8077122e-07 -1.9658632e-06
0002e0 dd fd 12 34 0d 1f 9e b4 4c f0 10 b6 82 79 07 b6
       1.3689665e-07 -2.9452386e-07 -2.1597543e-06 -2.0187294e-06
0002f0 6a f8 3a b4 0a 72 af b4 75 e7 7c 33 89 f6 d7 b5
       -1.7412972e-07 -3.2679264e-07 5.888383e-08 -1.60905e-06
000300 c6 9b 4c 33 6e 90 dd b3 f3 d7 d9 b2 a9 23 d2 b5
       4.7639126e-08 -1.0317386e-07 -2.5360327e-08 -1.5656598e-06
000310 a5 e5 44 33 10 20 51 b4 b6 8b d1 b2 2d fe e1 b5
       4.5843667e-08 -1.9476306e-07 -2.4394335e-08 -1.6837781e-06
000320 d6 af 03 b6 78 64 08 b6 76 b0 15 b6 52 f7 0b b6
       -1.9622871e-06 -2.032406e-06 -2.2305444e-06 -2.0856573e-06
000330 d0 04 f9 b5 73 b2 fb b5 9a 4f 15 b6 54 82 0d b6
       -1.8553346e-06 -1.8752893e-06 -2.2249064e-06 -2.1086498e-06
000340 71 77 0a b6 13 41 0b b6 15 2f 15 b6 f2 14 0e b6
       -2.0633126e-06 -2.0750492e-06 -2.2230136e-06 -2.117184e-06
000350 15 2f 15 b6 f2 14 0e b6 c0 13 1e b9 5f 15 93 b8
       -2.2230136e-06 -2.117184e-06 -0.00015075412 -7.013487e-05
000360 76 3c c5 30 57 d0 d8 31 a3 43 37 31 56 cd b2 31
       1.435082e-09 6.310113e-09 2.6668452e-09 5.203826e-09
000370 d1 a0 af 31 60 7c d3 31 bc dc d1 31 e3 70 da 31
       5.111453e-09 6.155048e-09 6.107795e-09 6.3574688e-09
000380 41 65 1a 30 0e 11 66 31 3b cf d9 31 61 a4 df 31
       5.6168764e-10 3.34791e-09 6.3390906e-09 6.508842e-09
000390 27 f2 f9 ae 80 9f 89 31 2e 75 eb 31 78 03 ec 31
       -1.1366224e-10 4.005358e-09 6.852722e-09 6.8688983e-09
0003a0 25 ee 85 ab 57 6b 78 31 08 f7 ed 31 a7 91 ed 31
       -9.516317e-13 3.6149765e-09 6.925692e-09 6.9141666e-09
0003b0 2e 92 8d ad 9f 21 6b 31 b7 94 f6 31 b6 06 ef 31
       -1.6094761e-11 3.4216112e-09 7.176449e-09 6.9565784e-09
0003c0 76 05 57 30 97 f0 a3 31 e1 af f1 31 15 e6 ed 31
       7.8224305e-10 4.7712763e-09 7.0340183e-09 6.923765e-09
0003d0 3f 6c e0 31 11 ed ed 31 0d d0 9e 31 8a df ed 31
       6.531564e-09 6.924559e-09 4.622058e-09 6.9230213e-09
0003e0 0d d0 9e 31 8a df ed 31 f6 cf b3 b3 16 cf 9b 35
       4.622058e-09 6.9230213e-09 -8.373165e-08 1.160867e-06
0003f0 a1 cc 09 b2 33 91 b4 31 23 0a e5 31 09 dc 5e 32
       -8.020977e-09 5.2551967e-09 6.6659296e-09 1.2972131e-08

exp_avg_sq f4 [128, 36]
000000 3a bc c0 32 ac 89 14 33 a2 41 f3 33 ee 9d 09 34
       2.2437337e-08 3.4584147e-08 1.1327508e-07 1.2816574e-07
000010 fc 66 f0 30 33 6b 0f 32 97 67 5c 33 7a e6 05 34
       1.7491568e-09 8.34807e-09 5.1316956e-08 1.2470437e-07
000020 92 07 4f 30 66 d5 15 32 f5 0c 63 33 28 6d e5 33
       7.531692e-10 8.721463e-09 5.286434e-08 1.0683499e-07
000030 4a 07 87 2f f2 6a 19 31 e3 14 35 33 0a 55 d5 33
       2.4561536e-10 2.2325222e-09 4.2161343e-08 9.934054e-08
000040 f2 d9 3b 2f 74 72 0d 31 56 0a 7a 33 bb 19 e8 33
       1.708498e-10 2.058326e-09 5.821706e-08 1.0808022e-07
000050 30 a6 bb 30 d6 56 67 31 e8 95 8a 33 ad c1 13 34
       1.3653274e-09 3.3664285e-09 6.4533936e-08 1.37609e-07
000060 0a 46 0f 32 44 26 a9 32 c3 6b 33 33 f8 26 13 34
       8.3396205e-09 1.969159e-08 4.1774694e-08 1.3704619e-07
000070 0f 02 3f 32 27 23 e6 33 86 a7 13 33 9d a7 fa 33
       1.1118131e-08 1.0716604e-07 3.4378466e-08 1.1672021e-07
000080 86 a7 13 33 9d a7 fa 33 38 8b 31 3c b6 69 4b 3a
       3.4378466e-08 1.1672021e-07 0.010836415 0.00077595876
000090 e3 5e ad 2c 8c 76 b3 2c ee 6b b5 2c 4a 2c b6 2c
       4.9274903e-12 5.1006473e-12 5.156312e-12 5.177668e-12
0000a0 36 3c b0 2c 31 0c b2 2c 09 9e c0 2c 41 76 c0 2c
       5.0089056e-12 5.060418e-12 5.4745136e-12 5.470097e-12
0000b0 a2 6f 84 2b f3 05 80 2c 7e 31 bf 2c a8 3e bf 2c
       9.410148e-13 3.6386393e-12 5.4340412e-12 5.4355027e-12
0000c0 8b e8 0f 2b f6 00 25 2c 34 7e bf 2c 17 b0 bf 2c
       5.1126524e-13 2.3448444e-12 5.442558e-12 5.4480964e-12
0000d0 6c 91 bc 29 8b 8e 1b 2c 76 9b 13 2c bf 50 27 2c
       8.374104e-14 2.2105952e-12 2.0976255e-12 2.377695e-12
0000e0 a7 bd a1 2a 92 dc 3e 2c d2 0f b3 2b 96 10 e8 2b
       2.8730943e-13 2.7123065e-12 1.2723106e-12 1.6489195e-12
0000f0 80 47 75 2b 3a da 82 2c 24 30 47 28 e9 82 b7 2b
       8.714071e-13 3.7190502e-12 1.1057158e-14 1.3039267e-12
000100 fe 10 84 29 24 dc 8a 2c 7a 50 52 26 5d 63 d4 2b
       5.864925e-14 3.9466364e-12 7.296745e-16 1.5091085e-12
000110 7a 50 52 26 5d 63 d4 2b 86 3c f3 2f 1a 03 4b 31
       7.296745e-16 1.5091085e-12 4.4244447e-10 2.954215e-09
000120 58 94 cb 30 2a 36 1f 31 f0 d2 e4 30 34 e9 57 31
       1.4812356e-09 2.3168334e-09 1.6649135e-09 3.1419178e-09
000130 e3 b4 b3 30 ac b4 06 31 30 a3 db 30 ba d1 2d 31
       1.3075375e-09 1.9602266e-09 1.5980728e-09 2.529403e-09
000140 4c 1a 16 31 cd 48 29 31 47 a3 10 31 b0 9e 37 31
       2.184282e-09 2.463412e-09 2.104757e-09 2.6720208e-09
000150 94 49 5a 31 cf 52 6f 31 9a 32 13 31 c1 62 39 31
       3.1765e-09 3.4826149e-09 2.142008e-09 2.6977178e-09
000160 d6 f4 56 31 7a 2d 8c 31 88 73 17 31 bd f9 42 31
       3.1280272e-09 4.0797064e-09 2.2039064e-09 2.8372675e-09
000170 61 dd 82 31 af 9f 95 31 1c 51 0c 31 9a 4c 56 31
       3.808666e-09 4.3546247e-09 2.0418787e-09 3.1184642e-09
000180 35 59 88 31 b7 c7 93 31 37 24 27 31 38 fc 83 31
       3.9682626e-09 4.300968e-09 2.4322284e-09 3.8412757e-09
000190 b6 21 36 31 70 f8 87 31 ef e3 0d 31 e1 fc 76 31
       2.6503648e-09 3.957261e-09 2.0647766e-09 3.5941456e-09
0001a0 ef e3 0d 31 e1 fc 76 31 3e f8 96 35 09 f3 86 36
       2.0647766e-09 3.5941456e-09 1.1248119e-06 4.021804e-06
0001b0 96 ff 2b 37 1a 7b 65 37 a6 0a 41 37 2f 8b 74 37
       1.02519025e-05 1.36781255e-05 1.1506176e-05 1.45759395e-05
0001c0 78 13 40 37 34 cb 6c 37 9b 75 05 37 d0 bb 63 37
       1.1448625e-05 1.4114008e-05 7.9548e-06 1.3573983e-05
0001d0 61 4d 52 37 a8 ff 7d 37 63 46 de 36 c6 12 49 37
       1.2534992e-05 1.51395e-05 6.6243097e-06 1.1984905e-05
0001e0 5d a6 40 37 0f 73 78 37 74 dc cd 36 43 b3 40 37
       1.1482826e-05 1.4808741e-05 6.13514e-06 1.1485829e-05
0001f0 7b 86 3a 37 6b 9c 76 37 51 9f e0 36 47 14 4c 37
       1.1117775e-05 1.46991615e-05 6.694267e-06 1.2164069e-05
000200 f7 50 45 37 be 82 80 37 5e 3c 02 37 0f c6 65 37
       1.1760966e-05 1.531967e-05 7.762659e-06 1.3695578e-05
000210 54 ea 66 37 a7 dd 86 37 57 95 2c 37 2c ee 80 37
       1.3763627e-05 1.607726e-05 1.028677e-05 1.5369696e-05
000220 ec 44 1f 37 ab 18 7a 37 d0 cf 08 37 52 36 72 37
       9.493186e-06 1.4906905e-05 8.154617e-06 1.44369715e-05
000230 d0 cf 08 37 52 36 72 37 9b 2f 3c 3f 0a 5d 4a 3f
       8.154617e-06 1.44369715e-05 0.7351014 0.79048216
000240 8f d9 21 34 26 94 48 34 96 40 43 34 4d 21 48 34
       1.5073441e-07 1.8680348e-07 1.8184286e-07 1.8638566e-07
000250 9e 64 49 34 45 30 4b 34 b2 72 14 34 44 fb 27 34
       1.8756188e-07 1.8923409e-07 1.38253e-07 1.5644497e-07
000260 c2 d3 47 34 94 a2 4a 34 26 ce 12 34 cf ca 1e 34
       1.8610356e-07 1.8871862e-07 1.3672306e-07 1.4788678e-07
000270 af cd 33 34 46 21 3f 34 a3 2e 11 34 1a 9e 1c 34
       1.6745501e-07 1.7800366e-07 1.3521144e-07 1.4586149e-07
000280 af 4c 7a 33 9e 4c 3a 34 35 03 0f 34 cd 61 1b 34
       5.8277404e-08 1.7350473e-07 1.331908e-07 1.447108e-07
000290 af 4c 0e 34 21 b9 24 34 f4 11 0f 34 ed a5 23 34
       1.3252678e-07 1.534104e-07 1.3324444e-07 1.5240921e-07
0002a0 36 27 23 34 b9 44 27 34 ac 8f 54 33 80 47 35 34
       1.5194823e-07 1.5578088e-07 4.9490765e-08 1.688295e-07
0002b0 1a 9d 88 32 f5 6d 15 34 ce c3 c8 31 cc d2 00 34
       1.5903925e-08 1.3916708e-07 5.8430265e-09 1.1997616e-07
0002c0 ce c3 c8 31 cc d2 00 34 e9 d4 ad 37 bd 45 09 39
       5.8430265e-09 1.1997616e-07 2.0722351e-05 0.00013091318
0002d0 7a cd a7 2f 1b ea b6 2f 7e 03 ac 2f 98 f0 d1 2f
       3.0523123e-10 3.327195e-10 3.12891e-10 3.818783e-10
0002e0 29 a4 84 2e ee 80 9e 2e 52 c3 80 2f 72 0d e8 2f
       6.031826e-11 7.207911e-11 2.3421848e-10 4.2210108e-10
0002f0 1e 24 cf 2d 95 7f f8 2d 0d 9d 49 2f 95 86 bf 2f
       2.3549215e-11 2.8250994e-11 1.8336639e-10 3.4838324e-10
000300 aa 65 37 2c 36 39 1d 2d 8a 5b fc 2d 4a 53 ad 2f
       2.60623e-12 8.93712e-12 2.8689735e-11 3.1527697e-10
000310 36 5e fe 2d 45 99 27 2e 01 ca 54 2f 63 01 c5 2f
       2.8918295e-11 3.8107534e-11 1.9353054e-10 3.5835077e-10
000320 22 72 5e 2e 78 97 89 2e 10 2d 8e 2f bc ed f7 2f
       5.0578326e-11 6.256945e-11 2.5861668e-10 4.509796e-10
000330 8b f3 63 2f 68 a2 7d 2f d2 29 87 2f d6 a1 06 30
       2.0732054e-10 2.3067914e-10 2.4586072e-10 4.89789e-10
000340 d0 49 63 2f 53 a3 ea 2f 3d bc 7f 2f 96 f3 f6 2f
       2.0671753e-10 4.26804e-10 2.325899e-10 4.4920218e-10
000350 3d bc 7f 2f 96 f3 f6 2f 60 e1 4b 38 48 af f2 34
       2.325899e-10 4.4920218e-10 4.860887e-05 4.5203547e-07
000360 54 3a 5d 31 57 81 68 31 6b 34 66 31 57 57 6c 31
       3.2192888e-09 3.3833965e-09 3.3499201e-09 3.4392167e-09
000370 f1 95 4e 31 2f b3 67 31 69 32 6d 31 07 24 6f 31
       3.0062177e-09 3.3716778e-09 3.4516694e-09 3.4799557e-09
000380 2e b3 c0 30 39 bf 44 31 7a 56 6d 31 ed bc 6e 31
       1.4020765e-09 2.8630451e-09 3.4537195e-09 3.474095e-09
000390 c0 ee d4 2e e9 65 01 31 3c 78 6e 31 d2 c2 6f 31
       9.6830544e-11 1.88299e-09 3.4701904e-09 3.488982e-09
0003a0 cc 13 ac 2d 09 2d e0 30 f0 cd 4a 31 47 7c 4a 31
       1.9562928e-11 1.6310945e-09 2.951193e-09 2.9465512e-09
0003b0 d7 95 09 2f 4c f6 03 31 ce 26 cf 30 a0 73 e2 30
       1.2513311e-10 1.9203013e-09 1.5072261e-09 1.6476527e-09
0003c0 3c ac 59 30 33 7d 1b 31 ba d7 21 2f 90 8b 9a 30
       7.91889e-10 2.2626636e-09 1.4719506e-10 1.1244641e-09
0003d0 bf 6b 49 30 73 fe 24 31 a8 51 0a 2f c4 52 eb 30
       7.327649e-10 2.4009779e-09 1.2580037e-10 1.7122024e-09
0003e0 a8 51 0a 2f c4 52 eb 30 ec 7c 7a 34 c1 93 20 36
       1.2580037e-10 1.7122024e-09 2.332851e-07 2.3927862e-06
0003f0 5c da c3 32 c8 bc c5 32 7a 93 8c 32 53 0f aa 32
       2.2800286e-08 2.3019666e-08 1.636521e-08 1.9797573e-08
