results/dodgeAgent1/Dodge.onnx (onnx, 91145 bytes, 9 tensors)

action_model._discrete_distribution.branches.0.bias f4 [3]
000000 e6 3e 63 3d f8 cb f7 bc db 32 b4 bc
       0.055479906 -0.030248627 -0.021996906

action_model._discrete_distribution.branches.0.weight f4 [3, 128]
000000 8a 6f d2 bc 35 f9 69 bd 58 8e 29 3c cb 91 8e bd
       -0.025687952 -0.057122428 0.010348879 -0.069614016
000010 50 43 87 3b e9 70 ca 3c d2 95 6d 3c ab ce be bc
       0.0041278973 0.024712043 0.014501052 -0.023291906
000020 83 1f 56 bd 4b f1 4e 3d 3d 38 bb bd 19 13 2e 3d
       -0.052276146 0.050523084 -0.09141586 0.04249868
000030 97 68 07 bc 6a 04 07 bc 67 01 1a bd 5f ed d3 3b
       -0.008264682 -0.0082407985 -0.037598994 0.006467506
000040 08 c6 a8 3c c6 ed 4a 3d eb 6a c5 3b 2e 10 33 bd
       0.020602241 0.049543165 0.0060247085 -0.043716602
000050 b9 7f 0e 3d eb bd 3c 3a 0a 75 88 bd 18 15 2a 3d
       0.034789775 0.0007199931 -0.066629484 0.041524023
000060 31 92 5a bb a3 9a 63 bd 72 7e f2 3b 92 1e 33 bd
       -0.0033351297 -0.055567395 0.0074003274 -0.043730326
000070 74 6e 38 3c 9c fa 1b 3d ed 70 b2 bc bc f4 fe 3c
       0.011256803 0.038080797 -0.021782363 0.031122558
000080 b6 70 1d 3d b6 02 4e bd 62 1e 80 bd 7b 52 0c 3d
       0.038437568 -0.050295554 -0.06255795 0.034258347
000090 54 c4 0d bd 8a 44 97 3c a7 81 16 3c 97 3d 8d bc
       -0.03461106 0.0184653 0.009186185 -0.017241282
0000a0 01 05 aa bc b5 a7 76 3d d5 1c 58 3d 94 c0 6c 3d
       -0.02075434 0.06021853 0.05276187 0.057800844
0000b0 af 88 d0 3a 2c 16 a1 3d 24 c2 85 bd 81 df 1f bd
       0.0015909876 0.07865557 -0.0653117 -0.03903151
0000c0 d5 52 3a 3d 74 c7 fa 3c 07 e3 c5 3d 45 6a 67 3c
       0.04548915 0.030612685 0.09662443 0.014124458
0000d0 94 d5 2f bd 17 17 ab 3c 2c 21 82 bb 93 c6 c5 3c
       -0.042928293 0.020885034 -0.0039712396 0.02414254
0000e0 d3 b9 22 bd 5a 4c 3d bd e7 a1 af bd 77 8e 20 3b
       -0.039727997 -0.046215393 -0.08575802 0.0024498978
0000f0 92 cb 5e ba 0b d4 e8 bc 43 89 7d bc 23 67 9c bd
       -0.0008498962 -0.028421422 -0.01547462 -0.07636859
000100 5b 7f 2a bb 52 50 3f bd 61 53 89 3b c6 19 94 3c
       -0.0026015851 -0.04670746 0.0041908477 0.018078696
000110 c6 39 0b bc 4b 63 e6 3c 94 4b 43 3c 02 04 f3 bc
       -0.008497661 0.028123518 0.011919875 -0.029664997
000120 2d ca 9b bd a3 6b d4 bc 44 24 a0 bd c3 4b 9c 3c
       -0.07606921 -0.025930231 -0.07819417 0.019079095
000130 09 40 9f bd 61 05 2e 3d dc 5e ba 3b 25 ca 52 bc
       -0.077758856 0.0424856 0.0056875776 -0.012865578
000140 23 c7 25 be 28 0d d5 3c cc c1 3e bc 4d 6c 06 bd
       -0.16189246 0.02600725 -0.011642884 -0.032818127
000150 4f da 66 bc 47 ea 1d 3d da e8 7d 3d b4 65 1b bc
       -0.014090135 0.038553502 0.061989643 -0.009484697
000160 81 66 55 bd 09 b2 39 bd 7b 66 1d be 43 38 ba bb
       -0.05209971 -0.045335803 -0.15371124 -0.0056829765
000170 ec 10 0c 3d f6 bb 25 bd ef 24 09 bd b3 ef d1 3c
       0.034195825 -0.040462457 -0.03348249 0.025626993
000180 63 76 92 3c 43 9d a9 3d 52 e4 9d bc d9 82 82 bc
       0.017878717 0.082819484 -0.01927391 -0.015931534
000190 7b d0 bb bb f3 9e c2 bd f4 c2 13 bd f4 29 4e bd
       -0.00573164 -0.095029734 -0.036074594 -0.05033298
0001a0 e8 b1 e8 bc fd 3a 33 bd bb eb c9 3c d0 87 14 3d
       -0.028405145 -0.043757427 0.024648538 0.036262333
0001b0 56 45 c6 bd f6 fa 05 3c db 41 22 bc 23 01 33 3b
       -0.096811935 0.0081775095 -0.0099033965 0.002731391
0001c0 09 7f 82 bb 8c 58 0a 3d 12 43 f3 3c 3c b4 fb bc
       -0.003982429 0.03377585 0.029695068 -0.03072559
0001d0 0e 0a e6 bc e9 92 69 3c 7b 2a bf bc 4b f8 dc ba
       -0.028080966 0.0142562175 -0.023335686 -0.0016858665
0001e0 36 ee ed bc f5 02 79 3c 32 62 08 3c 66 70 3a 3d
       -0.029044252 0.015198459 0.008324193 0.045517348
0001f0 a8 9d 6b 3c cd a0 b9 bc d8 b1 13 bc 60 2c 28 bd
       0.01438085 -0.022659684 -0.009014569 -0.041057944
000200 07 bb 65 3d 9d 62 3b 3d d3 dd cd 3a 12 5f cb 3c
       0.056086566 0.04574834 0.0015706368 0.024825606
000210 32 4c f8 b8 a7 f4 82 bc 91 3b 16 bc 10 d1 d8 3c
       -0.00011839754 -0.0159858 -0.009169475 0.026466876
000220 20 59 f3 3b e3 67 3a bd 17 5e 07 3d 6d 42 9d bc
       0.007426396 -0.04550923 0.033048715 -0.019196713
000230 61 51 3c bc 81 31 44 3c 1c 8a d1 3c fd be 67 bc
       -0.011494012 0.011974693 0.025578551 -0.014144656
000240 60 be 53 3a 86 3e 31 bd 40 1b 0d bd b2 55 05 3d
       0.00080773793 -0.043272518 -0.034449816 0.03255243
000250 65 29 ae bb 5b b9 7a bc 0f 50 0a 3d ec a9 dc bc
       -0.005314993 -0.015302981 0.033767756 -0.026936494
000260 5c 20 9a 3b e7 c5 1d 3d c1 fc c3 ba 53 08 68 3d
       0.0047035646 0.038518813 -0.0014952646 0.056648564
000270 8e e3 39 3d d8 b4 43 bd 6a c5 da bc d6 e8 df bc
       0.04538303 -0.047779888 -0.026705462 -0.027332705
000280 d8 f1 20 bd 7b 42 2e 3d 9c b3 15 3d 8a 25 34 bb
       -0.03929314 0.04254387 0.036548242 -0.0027488195
000290 65 9a 0b 3d 1f f0 4b bc 8c 76 95 bb 87 e7 76 ba
       0.03408279 -0.012447386 -0.004561251 -0.00094186555
0002a0 bd 6a 99 3c e1 74 29 bd 3e d5 71 bd e9 68 83 bc
       0.018727655 -0.04137123 -0.059041254 -0.016041236
0002b0 a4 ef 6f bc 5b 0d 95 bd b2 96 44 3d 06 e5 65 3c
       -0.014644537 -0.07277938 0.047995277 0.014031654
0002c0 38 d3 b0 bb 22 61 2b bd 3a fa 9d bd e6 0f 23 3c
       -0.005396273 -0.04184068 -0.077137426 0.009952521
0002d0 c8 d1 39 3d e0 d2 c9 bc 67 46 f6 3b c7 4b 16 bc
       0.04536608 -0.024636686 0.007515717 -0.00917334
0002e0 c5 c5 8b 3c db 3e 8e 3d a2 63 39 3d 23 3b d4 3a
       0.017062077 0.069455825 0.045261033 0.001619194
0002f0 e2 e4 24 bc 93 83 aa 3d 76 a8 87 3c 06 25 e6 3c
       -0.010064336 0.08325877 0.01655982 0.028093826
000300 bb ad 43 3c 30 56 2f 3d f6 85 7d bc e5 ff 88 bc
       0.011943276 0.042806804 -0.015473833 -0.016723583
000310 4e ff 82 3c d9 eb d4 bb 8d 87 48 3c 47 8c 34 3b
       0.01599088 -0.006497842 0.012239349 0.0027549432
000320 f1 4e 7d 3d 35 64 18 bc ee ed 6a 3d f5 84 b5 bc
       0.061842863 -0.009301235 0.057355814 -0.022158125
000330 b5 4d a1 3d de cf 16 bd 41 da cd bb 68 88 9b 3b
       0.078761496 -0.03681933 -0.0062821214 0.0047464855
000340 f0 e4 0e 3e 7e f1 af bb f1 38 8a 3c 8a 6d 18 3d
       0.1395452 -0.0053693643 0.016872855 0.03721384
000350 39 76 ad 3b 1b 0c f7 bc eb 7c 92 bd 01 43 0b 3c
       0.0052936343 -0.03015714 -0.071527325 0.008499862
000360 69 62 a0 3c be 37 85 3d 4a 80 ce 3d c6 8c 93 3c
       0.019578176 0.065047726 0.10083063 0.018011462
000370 e5 21 ec bc 63 e1 5f 3a a9 8d ec 3c bf 62 61 bc
       -0.028824756 0.000854036 0.028876143 -0.013756453
000380 f7 82 cb 3b ed 2e 9a bc de cc 9d 3c 56 48 28 3d
       0.0062106806 -0.018821204 0.019262727 0.04108461
000390 95 81 dd 3c a0 3f 42 3d a5 6c 8a 3c 1d 0f 97 3c
       0.027039329 0.04742396 0.016897509 0.018439824
0003a0 03 44 f8 3c 68 84 8e 3c a7 a0 d2 bc f4 28 b9 bc
       0.030305868 0.01739712 -0.02571137 -0.022602536
0003b0 5f cd 81 3d 1d a8 84 bc 72 4e 8f bc b0 04 19 3d
       0.063379996 -0.016193444 -0.01749346 0.037357986
0003c0 8e 21 26 3c db cb d1 3a 03 48 d0 3b 64 a4 1a 3b
       0.010139836 0.0016006188 0.0063562407 0.002359652
0003d0 b6 ca bc 3c da 9b 9e bc 8a cf c6 3c 57 24 01 3d
       0.023045879 -0.019361425 0.024268884 0.031528797
0003e0 b2 99 08 3c da e5 d0 3c 60 52 4e 3c 95 a8 a6 b9
       0.008337425 0.025500227 0.012592882 -0.0003178759
0003f0 41 2f b7 bc 00 ad 3d 3d e3 4e bc 3c b0 52 08 3d
       -0.0223614 0.046307564 0.022986835 0.033281982

action_model._discrete_distribution.branches.1.bias f4 [3]
000000 fd 52 e5 3d cc 4c 49 bd 1e 77 1e bd
       0.111974694 -0.049145505 -0.038687818

action_model._discrete_distribution.branches.1.weight f4 [3, 128]
000000 74 6c a9 bd 03 46 cd bc 6c af cd bc ee 70 d5 bd
       -0.08272639 -0.025057798 -0.025108062 -0.1042193
000010 0f c1 a4 3c 93 43 27 bd 4d 39 54 bd 7a 3f ea bd
       0.020111589 -0.04083593 -0.05181246 -0.114378884
000020 3d bf 01 bd 6b be a4 3a 08 e0 0c bd a3 69 64 bd
       -0.03167652 0.0012568956 -0.03439334 -0.055764806
000030 77 ab 84 bc 1e e6 4e ba 72 94 00 bd 45 04 e7 bc
       -0.016195042 -0.00078925665 -0.03139157 -0.028200278
000040 87 34 71 3c c5 b7 ce bd 24 70 cb bd 03 81 98 bb
       0.014721996 -0.10093645 -0.099334985 -0.0046540513
000050 27 1f ca bd 97 29 a6 bc 59 f9 82 bd 76 8a df bc
       -0.09869223 -0.020283503 -0.063952155 -0.027287703
000060 3b 48 d2 bb db f4 3e bd df 9c a4 bc 4b 73 b6 bd
       -0.006417302 -0.04662023 -0.020094333 -0.08908709
000070 11 8b b8 3b be 3b dc 3b 15 5c c9 bd a8 5a f5 bc
       0.0056318124 0.006720989 -0.098320164 -0.029950455
000080 7f 2a 03 bd 1b 7d ab bc 78 03 21 be ec 8c c7 3c
       -0.03202295 -0.020933678 -0.1572398 0.024359189
000090 ab ed 2a bd 02 09 39 bd 75 a7 67 bc 39 b1 19 3c
       -0.041730564 -0.045174606 -0.014139046 0.009380632
0000a0 cf 9f cf bd 85 ec 33 bd c5 06 6e bd a9 a8 ed bc
       -0.10137903 -0.043926734 -0.058111925 -0.029011087
0000b0 e5 01 09 bd 7c 69 99 bd 48 5b ab bd d3 b7 62 bd
       -0.033449072 -0.07490823 -0.0836702 -0.05535109
0000c0 dc 57 c2 bc 7c 20 0d 3c 8d b1 23 bd f8 b2 b0 bd
       -0.023723535 0.008613702 -0.039964247 -0.086278856
0000d0 a1 84 63 bd 2d 98 44 bd 1f c9 0c bd 34 ba 21 bc
       -0.055546407 -0.04799669 -0.03437149 -0.009871054
0000e0 11 ca 02 bd b8 b9 02 be 93 a5 d1 bd be 64 ff bc
       -0.031930987 -0.12766159 -0.10236659 -0.031175967
0000f0 6f 64 b1 bd 2c 30 d7 bd 27 47 9c bc 9d 31 51 3c
       -0.08661734 -0.10507235 -0.019076897 0.012768176
000100 85 0d ac bd 2d 09 79 bd 83 f1 90 bc 56 f6 60 bc
       -0.08401016 -0.060799766 -0.017693287 -0.013730606
000110 c0 6f 0c bc 9d 74 53 bc 27 fe 51 bc f5 02 36 bd
       -0.008571565 -0.012906221 -0.012816942 -0.044436414
000120 e8 de e1 bd ab 81 b0 bd 06 58 fd bd 59 33 99 bc
       -0.11028844 -0.08618482 -0.12370305 -0.018701242
000130 25 d6 d0 bd c2 b1 ac bc 1d fc 0a bd 2d c5 09 bd
       -0.10197095 -0.021080855 -0.03393184 -0.033635307
000140 89 ab 90 bd 13 6b a1 bc d1 59 31 bc a4 e7 60 bd
       -0.07063968 -0.019704377 -0.010824637 -0.05490841
000150 9c 63 dd bc 3b 4f 12 bd eb 03 60 bd e1 cb b3 bc
       -0.027025037 -0.03572009 -0.054691236 -0.021947803
000160 03 78 91 bd 1c 0f eb bc d8 fd 32 be 19 00 48 bd
       -0.071029685 -0.028693728 -0.17479646 -0.048828218
000170 d9 cb 2d bd 9c 81 24 bd 6e 8a 1a bd 0f 6e a7 bd
       -0.042430732 -0.040162668 -0.037729673 -0.08175289
000180 4f 5c b6 3c 28 d0 b7 3b 34 ea 9d bc ea 6f 2e bc
       0.022260813 0.005609531 -0.019276716 -0.0106468
000190 6a a8 de bc 3d f4 85 bd da 30 65 bd 8f 8f 2b bd
       -0.027179915 -0.065407254 -0.05595479 -0.041884955
0001a0 d6 4e ba bc ec 14 c4 bd 62 5b 88 bd 57 d8 1f 3c
       -0.02274267 -0.09574303 -0.06658055 0.009756169
0001b0 e5 a2 e5 bd e5 84 0b 3d b5 81 fb bc 9d bd 09 bc
       -0.1121271 0.034062285 -0.030701498 -0.008407024
0001c0 95 cc 09 bc 3c d0 bc bb 65 94 bc bc 22 f9 de bb
       -0.008410593 -0.005762128 -0.023019979 -0.0068046013
0001d0 e7 4a 90 bd cf 52 2e bc 0e 5d 70 bc 23 f7 ed 3c
       -0.070455365 -0.01063986 -0.0146706235 0.029048508
0001e0 27 b4 01 bd d9 5c 2d bc 7a 28 a3 ba 5b 36 ff 3c
       -0.031665947 -0.010581219 -0.0012447976 0.031153848
0001f0 84 49 60 bb b7 55 85 bd bf db af bd f5 2c f3 bb
       -0.0034223506 -0.065104894 -0.08586835 -0.007421131
000200 a4 90 d8 3c e8 4e 84 3b 87 1f e6 bc 46 d5 2a 3d
       0.026436158 0.0040377267 -0.028091205 0.0417073
000210 13 5f cc 3b b2 2a b8 3c 93 42 8a 3d a7 5f 96 3d
       0.0062369197 0.022481296 0.06750979 0.07342463
000220 56 58 b5 3a 4e 11 02 bc 78 c7 31 3d bc c1 e3 3c
       0.001383553 -0.007938696 0.04340312 0.02780234
000230 44 1b bf 3c c7 53 a0 3b 16 70 c7 3c d4 0b 62 bc
       0.023328431 0.0048927995 0.024345439 -0.013796765
000240 c4 f6 bd ba 8f 28 e2 3c b6 51 25 3d 21 7e cf 3c
       -0.0014493098 0.02760723 0.04036113 0.025328698
000250 b6 86 35 3d f9 52 24 3a 46 45 3a 3d 1a d8 2b 3d
       0.044317923 0.00062684674 0.04547622 0.041954137
000260 25 72 7a 3c f8 08 df 3c 0c b6 58 bc 94 d0 45 3c
       0.015286003 0.027225956 -0.013226997 0.012073655
000270 b5 0b 81 bc 95 c9 3a ba 80 67 a2 3d 43 b6 ea 3c
       -0.015752653 -0.0007125375 0.07929897 0.028651362
000280 0a b8 db 3c a3 20 65 3c fa c7 de 3d 91 81 ae bb
       0.026821155 0.013984832 0.10877986 -0.005325504
000290 cf 5d b4 3c 19 f3 28 3d 54 ba 37 3c 30 6b 1a bc
       0.022017388 0.04124746 0.011213858 -0.00942497
0002a0 f3 3d b0 3d 6f ff af 3c 92 7e 52 bc 83 fd 29 bc
       0.08605566 0.021484105 -0.0128475595 -0.010375383
0002b0 22 1d 8d 3c 4b d3 ce bb 88 dc 70 3d 43 30 18 bb
       0.017225806 -0.006311809 0.058804065 -0.0023222126
0002c0 08 79 74 3d 47 b2 b6 3b ac 1f 71 bd d4 1a a5 bc
       0.059685737 0.0055754515 -0.058868095 -0.020154394
0002d0 56 78 94 3c a0 fb 0d 3d 45 f5 e3 3b 68 30 a3 3c
       0.018123787 0.034663796 0.0069567286 0.019920543
0002e0 f4 a4 c0 3c 3e b2 96 3d 34 69 90 3d 5e dc 17 bc
       0.023516156 0.07358216 0.07051316 -0.009268848
0002f0 fc 2b 21 3d ac 05 cf 3d e3 73 cb b9 bb ce 81 3c
       0.039348587 0.10108504 -0.0003880552 0.015845647
000300 ae 7e 44 3d b5 a6 a0 3d 41 cc 58 bc ff 52 3e 3c
       0.047972374 0.07844297 -0.013232292 0.0116164675
000310 56 bb 3e 3c b5 79 31 bc a0 9b e6 3c ca 2e a9 3c
       0.011641344 -0.01083224 0.02815038 0.020652194
000320 90 f9 ac 3d 58 67 98 3d c5 8b ef 3d 5b 0c e4 3c
       0.08446038 0.07441586 0.11696581 0.027837923
000330 fa 0b 71 3d 03 d0 06 3d 77 c5 90 3c ca e6 29 3d
       0.058849312 0.03291322 0.017672284 0.041479863
000340 22 45 e5 3d f0 88 ce 3c 10 02 ec 3c 4c d0 12 3d
       0.11194827 0.025211781 0.028809577 0.03584318
000350 df b4 9d bb 5a 5a 2b bd ca 7a 0f 3d b7 86 3b bc
       -0.0048128213 -0.041834213 0.03502921 -0.011445693
000360 a5 c6 5d 3d 7b 00 38 3d 5f 61 00 3e 6e c8 f2 3b
       0.05414452 0.044922333 0.12537144 0.007409147
000370 6a ea 18 3d a4 a1 8a 3c c4 8e a6 3c e3 27 43 3d
       0.03733293 0.01692278 0.020331748 0.04764546
000380 c3 9f 7d bb 3d 9f 91 bd a7 9f 42 3c eb 33 23 3d
       -0.0038699962 -0.071104504 0.011878884 0.039844435
000390 ef 91 8e 3a a0 2c 95 3d 61 da b0 3c e3 fb 27 3d
       0.0010877232 0.07283902 0.021588506 0.041011702
0003a0 be 12 6c 3b 00 cd ab 3d 56 f6 0b 3d 8a 1e b3 3c
       0.0036021913 0.0838871 0.03417047 0.021865148
0003b0 8b 16 b1 3d 73 0f 95 bc 60 e6 c1 3c 72 f9 61 bc
       0.08646878 -0.018195843 0.023669422 -0.013792383
0003c0 15 71 d7 3c f0 ef 2f 3c 1c b8 d0 3a 1b 54 5b bc
       0.026299039 0.010738358 0.001592401 -0.0133867515
0003d0 b8 cb a6 3d 5c 37 1a 3c 1f 5b 9d 3c 8f 0b c6 bc
       0.08144325 0.009412613 0.019208489 -0.024175433
0003e0 0d 67 f8 bb d2 25 d4 3b 8f a9 9f 3c 4c 40 6d bc
       -0.007580644 0.006474235 0.019490032 -0.014480662
0003f0 93 1a 06 3c ca c5 89 bc 2d 10 55 3d bc 9c 20 bb
       0.008185047 -0.016817946 0.05201738 -0.0024507483

discrete_action_output_shape f4 [1, 2]
000000 00 00 40 40 00 00 40 40
       3.0 3.0

network_body._body_endoder.seq_layers.0.bias f4 [128]
000000 06 bc a1 bd 14 26 35 bc de ba 23 3d 25 84 f2 bb
       -0.07897191 -0.011056442 0.039973132 -0.0074010068
000010 05 3c 78 bd 58 82 f8 3c f8 ea 14 3c 5d e9 01 3d
       -0.060604114 0.03033559 0.009089224 0.031716693
000020 29 5b 79 bc 84 32 3f 3c 85 d7 3c 3d de 2f be bc
       -0.015219488 0.011669759 0.046103973 -0.023216184
000030 f4 d1 e4 3b ba d6 bb 3d 8a 3f 14 bc 3f 4e 48 bc
       0.006983036 0.09171815 -0.009048352 -0.012225687
000040 33 6c 9c 3d c8 8c b6 bd f0 91 9f 3d 34 53 4f bd
       0.07637825 -0.08913571 0.07791507 -0.050616458
000050 bb a1 7e bd 35 18 d7 3d 4e 99 df bc f6 56 95 bc
       -0.062165957 0.10502664 -0.027294781 -0.018229943
000060 c5 6c 8c bd 3f da 3a bc 52 ba a5 3c d9 cd b8 bc
       -0.06856684 -0.011404573 0.020230446 -0.022559093
000070 b0 ca e7 3c 50 54 bb 3c 27 78 8f 3d 48 0d d2 bc
       0.028294891 0.022867352 0.07005339 -0.025641099
000080 79 b4 d9 3b 8e 9a a8 bc fc f9 ae 3a 0b 6f b2 3c
       0.0066438285 -0.02058151 0.0013349648 0.021781465
000090 21 a8 9f 3b b7 b9 d0 3c 4a fe 70 3d 75 b4 15 3d
       0.0048723374 0.02547918 0.05883626 0.03654905
0000a0 a6 49 50 bd 9e 39 85 3d eb b6 81 3d 26 5f 16 3b
       -0.050851487 0.0650513 0.06333717 0.0022944896
0000b0 e5 e6 82 bd 09 67 1c 3d 4a a4 ab bc 55 72 b3 3c
       -0.06391696 0.0381842 -0.020952363 0.021905104
0000c0 98 84 16 3c 21 97 f6 3c f1 aa 3a bd 91 66 7a bd
       0.009186886 0.03010136 -0.04557318 -0.06113297
0000d0 6d 32 0f bd 05 7b e3 3c 44 2c a1 3d 86 7e 94 3d
       -0.0349602 0.027768621 0.07869771 0.07250695
0000e0 c8 ad 6e bd 54 c5 bc bb c4 1e 0f bc a6 b7 8e 3d
       -0.0582712 -0.005760828 -0.008735362 0.06968622
0000f0 1f 52 cd 3d ed 55 5e bc e6 06 a2 bd aa 00 5f 3d
       0.10025429 -0.013570291 -0.07911472 0.054443993
000100 f3 e3 1f 3d ad 1f b0 3c 93 dd ea bd df c3 9c bd
       0.03903575 0.02149948 -0.11468043 -0.07654547
000110 9f 7a 21 bd 10 9a cd 3c 19 ca 9b 3d 0d 29 31 3c
       -0.03942358 0.025097877 0.076069064 0.01081301
000120 c2 11 eb bd d0 47 65 bd e8 51 b2 3d 6e 38 9b bb
       -0.114779964 -0.05597669 0.087070286 -0.0047369516
000130 ff 67 97 3d 64 8b dd 3c bf 33 83 ba 95 fe 28 3d
       0.073928826 0.027044006 -0.0010009928 0.041258413
000140 1e 5c 74 3c fc b1 19 3d 43 cf a1 3c c0 07 f6 3c
       0.014914541 0.037523255 0.01975215 0.030032992
000150 83 fc 63 bc 37 c1 f1 bc 24 ea a4 bc 7b cf aa 3c
       -0.013915184 -0.029511077 -0.020131178 0.020850888
000160 57 af 81 3a a2 68 db bc 38 c7 15 bd 31 65 71 3c
       0.0009894174 -0.026783291 -0.036566943 0.014733599
000170 21 34 b4 3d 05 07 5f 3d 81 e6 81 3d 3a b1 77 3d
       0.08799005 0.054450054 0.06342793 0.06047175
000180 5b be 6e 3d 68 20 ad 3a 09 1d 43 bd 80 d2 af bd
       0.058287006 0.001320851 -0.047635112 -0.085850716
000190 52 8f d6 ba 61 ed 7f bd 70 e9 63 3d 92 6e 28 3d
       -0.0016369617 -0.06248224 0.055642545 0.041121073
0001a0 db f1 8d bd 7d 3d 93 bd 7f 32 39 3d aa e4 9c 3d
       -0.06930896 -0.07189462 0.045214172 0.07660802
0001b0 b7 71 d7 bd 87 14 97 bd db e0 3f 3d 55 52 bc 3c
       -0.10519736 -0.07376962 0.0468453 0.022988478
0001c0 ab 38 26 bd ea 1a a3 bc 91 91 40 3d 9b dc 8d 3c
       -0.040581387 -0.019910295 0.047013823 0.017317107
0001d0 f7 be ac 3d 6f e6 c5 3d 25 e3 88 bd ef 6e be bc
       0.08434861 0.09663092 -0.066839494 -0.023246257
0001e0 c0 b7 9a 3c 77 c0 84 3d 91 b8 57 bb e9 3b 96 3d
       0.018886447 0.06482022 -0.0032916407 0.07335646
0001f0 a3 5a 04 bd f9 fb 7c 3d 0b bc 8c 3d cd e3 22 3c
       -0.032313 0.061763737 0.06871804 0.009942007

network_body._body_endoder.seq_layers.0.weight f4 [128, 36]
000000 93 e4 cf be e5 35 46 3e bb 06 dc 3e bc cf d8 bd
       -0.40604076 0.19356497 0.42973885 -0.10586497
000010 0e 66 b7 3d 80 6e 00 be cd dd a3 bc 59 cb 6b 3e
       0.08955012 -0.12542152 -0.020003224 0.2302679
000020 a8 c4 13 bd b7 76 8e 3e 63 27 62 3d 92 f9 0e bd
       -0.036076218 0.27824947 0.055213343 -0.034905978
000030 02 84 20 bc 89 e7 f8 bc e8 b1 3b be af 56 a9 bd
       -0.009797098 -0.030383842 -0.18329585 -0.08268487
000040 46 e3 66 be 6e 00 0a bd 21 a9 0d bf 4b ae 05 3f
       -0.22547635 -0.033691816 -0.55336195 0.52219075
000050 f6 84 4c be d4 68 31 be 4d 12 bf bd 4e 19 06 be
       -0.19972596 -0.17325145 -0.093296625 -0.1309559
000060 d2 66 82 3e 9d 14 60 be 76 d0 65 be 79 7f 89 3d
       0.2546907 -0.21882863 -0.22442803 0.067137666
000070 89 c0 e0 bd 0b df 5e 3d eb e8 32 3d 41 ed 75 3e
       -0.10974223 0.05441193 0.04367916 0.24016286
000080 85 85 c2 bd e6 e8 17 3d eb 40 fa bc b4 0b 0b 3e
       -0.09498123 0.037087344 -0.030548533 0.13578683
000090 5c ff a1 3d 58 11 fd 3c 93 8c 92 be 24 17 37 be
       0.07910034 0.03089206 -0.28622875 -0.17879921
0000a0 18 95 52 3d 23 ba a7 be 8f 57 81 be 86 6d 28 be
       0.051411718 -0.327592 -0.25262114 -0.1644803
0000b0 cd bf de 3c 17 23 db 3d d5 d9 53 be 43 f8 7b bd
       0.027191067 0.10700052 -0.20688565 -0.061516058
0000c0 20 3c 2d be 41 60 14 bd 5b 5d 74 be 72 28 8a bd
       -0.16917467 -0.036224607 -0.23863737 -0.067459956
0000d0 5c 8f 8a 3d eb 5e 05 3e c2 10 9c 3e 22 c5 f5 be
       0.06765625 0.1302449 0.30481535 -0.48001963
0000e0 48 1e 09 3e c2 e9 4d 3e a3 d8 6e 3e 57 b0 15 bc
       0.13390458 0.20108703 0.23324828 -0.009136281
0000f0 eb 2f 91 3d 76 0b 93 3d 06 b3 99 be 1f 8a 8b be
       0.07089218 0.071799204 -0.30019397 -0.27253816
000100 fb 4d 17 bd 13 37 a3 bd 9b 34 81 3d 7d 0d 35 be
       -0.036939602 -0.07969489 0.06308862 -0.17680927
000110 31 a2 80 bd f8 f9 8b be f5 c9 fe 3d b7 e5 05 3e
       -0.062809356 -0.2733915 0.12440864 0.1307591
000120 45 94 21 3d 29 1b db 3d 0e ac 8f be 2a 1a ce 3c
       0.03944804 0.1069854 -0.28060955 0.02515896
000130 1f d2 0a bd e4 4e f9 bd bb 0e e2 3c 76 ef 88 be
       -0.033891793 -0.1217325 0.027594915 -0.26745194
000140 c1 7b f0 bd cf 29 d9 3d 48 b2 d7 be 71 3c 14 be
       -0.11742354 0.106036775 -0.42128205 -0.14476182
000150 28 1a b8 3e cf 70 e7 3d 32 c0 33 be 3e b9 48 3e
       0.35957456 0.113008134 -0.17553785 0.19601914
000160 c5 ad 91 bd 47 f6 2f be 07 95 97 be bd 12 58 3d
       -0.07113222 -0.17183791 -0.29605886 0.052752245
000170 11 64 bb 3e 7d 79 ea 3d be 60 28 3e 2a 15 66 3b
       0.36599782 0.11448953 0.16443154 0.003510783
000180 a7 ba 8b 3e 4f d0 b0 bc 56 56 d2 bd 65 eb b1 bd
       0.27290842 -0.021583704 -0.102703735 -0.08687476
000190 be 23 84 3d c3 72 01 be 2a aa 4d bd 97 8b 99 3e
       0.0645213 -0.12641434 -0.05021111 0.2998931
0001a0 b5 e5 ba 3e ff 4d ca 3d b6 13 89 be 12 46 4a 3e
       0.36503378 0.09878158 -0.2677285 0.19753292
0001b0 b2 53 be 3d 2d aa 1e be 8d a1 8e be f1 43 96 bd
       0.09293307 -0.15494604 -0.27857628 -0.073371775
0001c0 3b a5 b2 3d ff 9f 86 be 91 fc 51 3e 8f b9 65 be
       0.087229215 -0.26293942 0.20506503 -0.22434066
0001d0 56 e7 f1 3e d1 03 a2 be c0 af ec bc 77 01 6f bd
       0.47246808 -0.31643537 -0.028892398 -0.058351006
0001e0 79 7b c7 bd 3e b6 d7 bb 20 37 76 bc ca 96 de 3d
       -0.097403474 -0.0065830043 -0.015027791 0.108686045
0001f0 f4 25 21 bd 92 26 34 3e fa 19 5b 3e 72 cf bb bd
       -0.039342836 0.17592838 0.21396628 -0.091704264
000200 12 c8 b7 3d 16 fd ba 3e 86 33 55 3d f7 b1 58 be
       0.08973707 0.36521214 0.05205109 -0.21161638
000210 ff 91 74 3e 2a d7 30 be b4 2d 3b bd 63 58 b2 3d
       0.23883818 -0.17269579 -0.045697883 0.08708265
000220 1e ed 31 be 0c c2 75 3d cb 3b 2d be bd d5 25 bd
       -0.1737561 0.05999951 -0.1691734 -0.04048704
000230 b3 cd 60 bd e7 86 aa 3d 94 52 75 be c5 12 53 be
       -0.05488367 0.08326512 -0.23957282 -0.20612629
000240 1c d0 cf be 99 58 93 bc 22 6c 25 be f2 b6 74 3d
       -0.40588462 -0.017986583 -0.1615453 0.059744783
000250 ca 8e 00 bf 4c f8 1c 3e 5c 81 61 3e cc a6 6d 3e
       -0.5021788 0.15329093 0.22022003 0.23208159
000260 31 3b a5 be a1 99 6c be 40 40 d8 3c d6 71 a1 3e
       -0.32271722 -0.2310548 0.026397824 0.31532162
000270 5b dc 49 3d 80 89 28 3e 6f 97 94 3e 90 4b e7 3b
       0.049282413 0.16458702 0.29021785 0.0070585683
000280 14 50 0b bc 2e fd db be 5b 34 3a be b9 f1 e9 3d
       -0.008502979 -0.42966598 -0.18184035 0.11423058
000290 c6 b3 af 3d 6f 29 5a be a9 be 76 3e 89 2b 83 3e
       0.08579211 -0.21304868 0.24096169 0.25619152
0002a0 ed de 28 bd 98 da a0 3e c6 0f 2d 3e f2 f4 21 3e
       -0.041228224 0.31416774 0.16900548 0.15816095
0002b0 98 8c 53 be fb 10 3d 3e 0d 7d 2a be dc 4c 1e be
       -0.20659101 0.18463509 -0.16649266 -0.15459007
0002c0 3a b9 d4 bd 88 b7 4c be b9 58 11 3e 44 63 ab 3e
       -0.10386892 -0.19991887 0.14194001 0.3347417
0002d0 4d 0b b1 bb c7 ea 35 3e a1 55 a0 3c 7b b0 be 3e
       -0.0054029585 0.17765342 0.019572081 0.3724402
0002e0 d3 f0 c9 3d a5 ce aa 3d 1c ef 54 be 2c ac ab 3d
       0.09860387 0.083401956 -0.20794338 0.083824486
0002f0 bd 03 fa 3c 6f 69 80 be ab 3c 76 3e b0 be f9 3d
       0.03051936 -0.2508044 0.2404658 0.12194574
000300 c9 cc 83 bd f8 c7 ae 3e a1 fe 37 3d 90 83 5b be
       -0.06435544 0.3413694 0.044920567 -0.21436906
000310 a6 10 e0 3b ce 7b 12 be 7d a3 83 bd 6a 06 fa 3d
       0.006837922 -0.1430504 -0.06427667 0.12208255
000320 14 fb 89 3e 59 07 2c 3e 52 de 39 3d d6 2b a4 3c
       0.2694937 0.16799678 0.045378037 0.020040434
000330 86 93 8e bd b9 d5 1b bb 61 7f 9c bd 8e 28 19 3e
       -0.069617316 -0.0023778512 -0.07641483 0.14956877
000340 6f da b8 bd e1 65 21 be 34 b8 05 3e 3b a9 28 3d
       -0.09026038 -0.1576152 0.13058549 0.041177016
000350 b7 93 77 be 39 0d 8e 3d 3a 05 92 be 2f 39 43 38
       -0.24177442 0.06936116 -0.28519613 4.654488e-05
000360 1b a6 0f be 4d 8d b1 3d da 7d a1 3d 24 90 72 be
       -0.14028208 0.08669529 0.078853324 -0.23687798
000370 51 ea 44 3d 73 27 28 3e d5 04 ef bc 82 14 91 be
       0.048075024 0.16421299 -0.029177109 -0.2833596
000380 57 95 a5 3d 35 c8 ac bd 2d 4e 1c 3e 22 65 8d be
       0.08085125 -0.08436624 0.15264197 -0.2761622
000390 24 9d 2d be 1f 14 a9 be a0 35 a8 3d 01 98 29 bd
       -0.16954476 -0.33023164 0.08213353 -0.041404728
0003a0 bc 6d 77 3e 1b 6f a7 bd e0 d1 02 be ec b5 4a be
       0.24162954 -0.081754886 -0.12775373 -0.1979596
0003b0 fc c9 d7 bc 08 0a 35 be 5d e6 a8 3c fd b5 a9 be
       -0.02634143 -0.17679608 0.020617658 -0.3314666
0003c0 2f aa 1d be 76 6e 8e 3e 5f a4 e2 bd f2 26 cf 3d
       -0.15396951 0.2781865 -0.110665075 0.1011485
0003d0 c6 5d 3d 3e 31 03 bf 3d 72 10 4b be 8c 10 b8 be
       0.18492803 0.093267806 -0.19830492 -0.35950124
0003e0 ef 8f 32 3e f9 e8 42 be e1 27 6c 3e 51 5f 72 be
       0.17437719 -0.19034185 0.23062088 -0.23669173
0003f0 b9 67 14 bd 4f ee ba 3d 41 84 27 be 55 6b 90 be
       -0.03623173 0.09127485 -0.16359045 -0.28206888

network_body._body_endoder.seq_layers.2.bias f4 [128]
000000 fc fa d0 3c db b3 25 3d 77 e7 33 3b 8f 1b da 3c
       0.025510304 0.040454727 0.0027451196 0.02662447
000010 e2 96 d8 bb 7a e7 4c bc d7 7d ed 3c 56 a1 3b 3d
       -0.0066097835 -0.01250636 0.02899067 0.04580816
000020 9d 22 bb 3c cc 35 af 3b 3c 18 1e 3d 78 1c 53 3c
       0.022843653 0.0053469893 0.03859733 0.012885205
000030 df b1 23 bd 79 35 84 bc c4 6a 77 bc 14 f0 9f bc
       -0.039964553 -0.016138779 -0.0151011385 -0.019523658
000040 c2 f4 6d 37 09 4e f8 3c 34 32 50 3d fa 7e 3b bd
       1.4183288e-05 0.030310648 0.050829127 -0.04577539
000050 64 1d 9b 3d a4 5a c7 bc 4c 36 6c 3b df af 40 bc
       0.07573965 -0.024335213 0.0036043106 -0.011760681
000060 57 77 86 bd e9 84 aa 3b d7 37 00 bd ed de 01 3d
       -0.06565731 0.0052038324 -0.031303253 0.03170674
000070 11 61 95 3c 18 e4 4e bc cf a3 45 3d a9 a9 86 bb
       0.018234761 -0.012627624 0.048251923 -0.0041095805
000080 08 44 90 ba 82 51 67 bd 90 ca 3a 3d 2c dc 3f 3d
       -0.0011006603 -0.056474216 0.045603335 0.04684083
000090 7e 54 2a bd d0 08 f5 3c 1f 81 26 bc 79 f4 52 bc
       -0.041584484 0.029911429 -0.010162621 -0.01287567
0000a0 fd c7 c5 3c d2 74 9b 3c af 15 67 bc 8e 9f 45 3c
       0.024143213 0.018976603 -0.014104291 0.012061967
0000b0 d1 2c 0b bd ad 38 9b 3a c1 68 82 3d 04 cb 34 bb
       -0.033978287 0.0011842452 0.063676365 -0.0027586827
0000c0 df fc c0 3c d4 db ea 3a a0 1b d4 3c 09 6b 38 3c
       0.023558078 0.0017918297 0.025892079 0.011255988
0000d0 a9 5d 98 3b 0d cb 58 38 0c 23 48 bd df 18 c7 bc
       0.004649837 5.168752e-05 -0.04886155 -0.024303852
0000e0 9a 0f a2 3c b4 91 95 3d f6 7f 8c 3d 8e a6 6a bd
       0.01978283 0.07303181 0.06860344 -0.057287745
0000f0 7c ea 1d bc 4e 06 1e 3d 48 4e fe bc 42 e3 88 3c
       -0.009638425 0.03858023 -0.031043187 0.016709927
000100 f5 a8 22 3d 25 ae 1e 3d 54 d0 05 bd 61 1e a1 bd
       0.03971191 0.038740296 -0.03266938 -0.078671224
000110 27 e3 ca bd 74 62 ec bc eb 47 0f 3d f4 4e 30 bd
       -0.09906607 -0.02885554 0.034980696 -0.043044046
000120 c9 ef 31 3d 49 98 6e 3b f6 37 5c 3d 3c be 2b 3d
       0.043441568 0.0036406687 0.053764306 0.04192947
000130 8a 88 37 3d d4 8e 5a bc 4e 4c be bc 70 e5 39 3b
       0.04480795 -0.013339717 -0.023229744 0.0028365515
000140 81 0e 78 3d fc 8f 91 bb ee 34 8f bd 1a b8 4e 3d
       0.060560707 -0.004442213 -0.069925174 0.05046854
000150 0f 44 2a bd f7 88 41 3c 9d 94 76 3c 58 ce 06 bd
       -0.041568812 0.01181244 0.015050081 -0.03291163
000160 88 8d 1a 3d 21 dc 80 3c 13 f0 09 3d ba c9 7f bc
       0.03773263 0.015729966 0.03367622 -0.01561206
000170 69 38 c1 3c ff c1 d0 3c 0c 02 af 3c 4f 9b 53 3d
       0.023586469 0.02548313 0.02136328 0.051661786
000180 2f 21 8f bc 22 3f ee 3d dd e8 38 bd 91 23 3a bd
       -0.017471878 0.116331354 -0.04514395 -0.045444075
000190 6f 8a 0b 3b 0e 40 2f 3d d8 d6 38 3d f1 b2 ee 3c
       0.002129223 0.042785697 0.045126766 0.02913806
0001a0 b2 80 a2 bd 73 0a d2 3c 75 9c 45 bb b5 2a d2 3b
       -0.07934703 0.025639748 -0.003015307 0.0064137825
0001b0 c4 88 11 3d 12 48 c6 3c 53 37 34 bd 15 8e d5 bc
       0.03553082 0.024204288 -0.043998074 -0.026068727
0001c0 10 1f 56 bd 00 73 9a 3b a2 95 9f bc 00 7f 96 3c
       -0.052275717 0.004713416 -0.01948053 0.018371105
0001d0 bb 91 c2 3c de 06 e9 bc 29 ed a0 bc 61 40 06 bb
       0.02375113 -0.028445657 -0.019644337 -0.002048515
0001e0 e2 47 9a 3c ed fb dc 3b 0c 07 8a 39 62 1e a1 3d
       0.018833105 0.006743899 0.00026326661 0.07867123
0001f0 24 d6 a8 bb 3f 60 31 3d a3 a0 39 3d 53 1e 1d bd
       -0.0051524807 0.043304678 0.04531921 -0.038358998

network_body._body_endoder.seq_layers.2.weight f4 [128, 128]
000000 35 7c e2 3d f2 6b ac 3d 2d 3f 67 bc 3c 36 a0 3d
       0.11058847 0.084190264 -0.014114183 0.078228444
000010 b6 ba 8d 3d 78 b1 53 bd 4b 17 aa 3c 34 71 a8 bd
       0.06920378 -0.05168292 0.02076306 -0.08224717
000020 7c 83 86 bc ba 07 0a 3e 6c fe eb 3d a6 42 c9 3c
       -0.016420119 0.1347951 0.115231365 0.024567913
000030 2d 06 78 3e 4e a7 18 3c d9 a4 c2 bd df d5 cb bc
       0.24221106 0.009317232 -0.095040984 -0.024882255
000040 33 67 1c bd 1d cf 95 3c 49 2c 35 3e 0a e5 c4 bd
       -0.038184356 0.018287236 0.17692675 -0.09613998
000050 92 ff 0c be 1d 1a f2 bd c5 78 e7 bc e6 0c 0c be
       -0.13769367 -0.11821387 -0.02825583 -0.13676795
000060 2a 35 af 3c 61 41 22 3e 55 9c 11 be e9 0b 3f 3e
       0.021387655 0.15845253 -0.14219792 0.18656887
000070 dc 9a d5 bd 8e 7e 07 3d 87 97 0f 3e 24 ac b6 3d
       -0.10429928 0.033079676 0.14022647 0.08919552
000080 11 6c 48 be 84 de 39 bc cf 03 13 be 6f d0 bb 3d
       -0.19572474 -0.011344556 -0.14356922 0.09170615
000090 ca d2 cf bd e6 0b ba bd 52 40 ce 3c 54 96 eb bd
       -0.10147627 -0.09084301 0.025177155 -0.11503282
0000a0 db 54 94 3d f6 76 f7 3d 73 0f 5e bd fe 2e 1d 3d
       0.072427474 0.12083237 -0.054213952 0.038374893
0000b0 f8 6e 20 be d3 99 a4 3d ea 78 e7 bc 22 b6 62 3d
       -0.15667331 0.08037152 -0.028255899 0.055349477
0000c0 54 6e 2d be 9f 6e ce bd 71 ee 5c bc ac 86 cb bd
       -0.16936618 -0.10079693 -0.013484583 -0.09937796
0000d0 d9 0f 06 be 69 f6 00 3e 17 33 55 bb 41 03 96 bc
       -0.13091983 0.12593998 -0.0032531673 -0.018312098
0000e0 fc 50 65 3c 18 d1 b0 3d f8 db cb 3d 67 31 3b 3d
       0.013996359 0.086336315 0.09954065 0.04570141
0000f0 be 93 09 bb 43 74 52 3d bc 6e 19 bd 56 66 6f bd
       -0.0020992602 0.051380407 -0.03745912 -0.058447205
000100 ad a7 8b bd 6d 17 23 bd f5 0f 85 3d 93 c7 f7 bd
       -0.06819091 -0.039817262 0.06497184 -0.12098613
000110 a8 81 0f 3c 52 6f 91 bc 86 d7 76 3d f7 75 1d 3d
       0.00875894 -0.017753277 0.060264133 0.03844258
000120 7c 0e ff bd 80 7d 1d bd 31 a2 a6 3d 16 8c 6b 3c
       -0.124539346 -0.038449764 0.08136404 0.014376661
000130 bb 22 42 3e df cb 0e 3d 33 1c e1 3d bc 0d 6b be
       0.18958561 0.034862395 0.10991707 -0.22954458
000140 13 0d b7 bd b4 84 06 3e 86 74 22 3e 9c 79 bb bd
       -0.089380406 0.1313656 0.15864763 -0.091540545
000150 00 51 28 be 4c ec 57 bd 2d 2d 2f 3d bb 31 dd 3d
       -0.16437149 -0.052715585 0.042767692 0.10800501
000160 7f 9b fc bb 7f ac ac bd 49 d3 1c bd 29 3f 84 be
       -0.0077089663 -0.084313385 -0.038287435 -0.25829437
000170 7f 24 0e be 06 a9 04 3d 0c 9c 06 bd 84 36 ad 3c
       -0.1388111 0.032387756 -0.03286366 0.02114416
000180 c6 63 1e bc 6a 8d d8 3d 5f 5e ad 3d 90 dc 59 3d
       -0.0096673425 0.105738476 0.084652655 0.05318886
000190 7c cd 91 3d 0a 05 b6 ba c9 34 2a 3e e1 8b cf ba
       0.07119271 -0.0013887 0.16621698 -0.0015834534
0001a0 c6 4a 8d be 45 4f 0e 3e ce 7e 21 bd 02 1e df bd
       -0.2759611 0.13897426 -0.03942757 -0.108943954
0001b0 8c a7 96 39 33 aa 10 3e ea 9f da bd 43 0d b3 bd
       0.00028735062 0.14127426 -0.106750324 -0.08742764
0001c0 5f 1b e4 3d da f8 20 3d 17 bd 4b bd c8 68 64 bd
       0.11138033 0.039299823 -0.049740877 -0.05576399
0001d0 0e db f7 3c 39 58 2b 3a a3 b7 8d 3d 85 56 5f 3d
       0.03025582 0.00065362785 0.069197915 0.05452587
0001e0 1c 30 b0 3c 5e 28 33 be 5a 49 3f 3d 79 ac c7 bc
       0.021507315 -0.17495868 0.046700813 -0.024374234
0001f0 45 57 d7 bd b1 fe bb bd 13 82 9b bd d1 df 2f bc
       -0.10514692 -0.09179438 -0.07593169 -0.010734514
000200 79 54 16 3e 4b 99 c3 3c ec a0 ba bc e4 be bf 3d
       0.14680661 0.023876807 -0.022781812 0.09362581
000210 53 ca 6e bd 28 99 72 bd 9b 59 c6 bd e3 4a 58 be
       -0.05829842 -0.059228092 -0.0968506 -0.21122317
000220 e2 7b a2 3d ed c9 fd bc 66 31 00 bd 9a 95 7f 3d
       0.07933785 -0.030980075 -0.03129711 0.06239853
000230 1c c2 fb 3d 1f d9 56 bc 97 ef d0 bc 45 c2 b7 bd
       0.12292883 -0.013113289 -0.02550487 -0.08972601
000240 2e d7 b2 3d c0 08 bc 3d 90 41 2b 3e 51 71 89 bd
       0.087324485 0.091813564 0.16724229 -0.067110665
000250 b7 8e ac bd 41 09 27 3e 93 21 15 be 7f e1 9d 3d
       -0.08425658 0.16312124 -0.14563589 0.077090256
000260 df a7 96 3c 9a ac 11 3d 77 ac 8b be e3 57 5d be
       0.018390594 0.035564996 -0.27280018 -0.21615557
000270 07 68 0e bd 48 9b 74 be 07 89 32 3d cd 55 c6 3c
       -0.034767177 -0.2388736 0.04358771 0.024210835
000280 82 7b 84 bd 68 dd 1a be d6 8b a8 bd 4d 61 bb bd
       -0.0646887 -0.15123522 -0.082297966 -0.09149418
000290 a4 4c 10 be 41 04 c4 3d 3f 97 8d bd d6 30 11 bd
       -0.14091736 0.09571124 -0.069136135 -0.035446964
0002a0 55 a1 ce bd 52 cc 0b 3d fd d5 3e 3d 23 12 20 be
       -0.100893654 0.034130402 0.046590794 -0.15631919
0002b0 fd d3 1c 3d 7f 3f d9 3d 15 35 1f 3d 97 24 fd bd
       0.038288105 0.10607814 0.038868982 -0.123604946
0002c0 b9 4c 31 be 56 28 b3 bd 79 4e c0 bd e9 4d 24 be
       -0.17314424 -0.08747928 -0.093899675 -0.16045345
0002d0 69 cc 2f bc 10 c2 bc bc a2 1d 80 3d 5e 18 3b 3c
       -0.0107298875 -0.023041755 0.06255652 0.011419384
0002e0 e2 a8 00 be bf a8 ea 3d ec cb 6b be 78 57 37 3b
       -0.12564424 0.11457967 -0.23027009 0.002797572
0002f0 65 74 cc 3d dd ce 52 be 14 d2 c9 3d 12 b7 26 be
       0.09983138 -0.20586725 0.09854522 -0.16280773
000300 4e f0 2d be 86 00 69 bd 87 0a e6 bd 6d d4 97 3c
       -0.169862 -0.056885265 -0.11232477 0.01853391
000310 74 8b 87 bd 81 cd 81 bd 3b 05 aa 3c 41 3d 64 be
       -0.066183954 -0.06338025 0.020754447 -0.22288992
000320 fc 42 5d bd 78 c5 3b be c6 6e d5 bc c1 51 3f 3d
       -0.05401896 -0.18337047 -0.026053797 0.046708826
000330 08 4d fc 3d b7 52 00 be d2 60 e1 3c 49 41 11 3d
       0.1231938 -0.12531553 0.027511988 0.03546265
000340 e5 50 30 be dc 18 00 bd 63 b7 bd 3d f8 45 b4 3d
       -0.17218359 -0.031273708 0.09263494 0.08802408
000350 f2 9f 23 3d b6 46 7c 3c a5 43 b5 bd 8d e9 1f bd
       0.039947458 0.015397718 -0.08850793 -0.03904109
000360 6f d1 1c be 8a 4d 88 bc 84 d7 b8 3d 5e ac 8a bd
       -0.15314268 -0.016638536 0.09025481 -0.06771158
000370 14 73 93 bd 69 b5 86 bd 94 cc c0 3d 03 17 3b 3c
       -0.07199684 -0.0657757 0.0941402 0.011419061
000380 6d 74 0b be 61 40 05 be d8 82 b4 3d 3e e7 e0 3d
       -0.13618632 -0.1301284 0.08814019 0.10981606
000390 e9 03 36 bd 64 c2 18 3e 23 3f 18 3e 9f 74 df bb
       -0.044437323 0.14917904 0.14867835 -0.0068193222
0003a0 9c f6 77 bd f2 1c a0 3c a4 3c a6 3d 22 9a a3 3d
       -0.06053792 0.019545052 0.08117035 0.07988383
0003b0 c2 f4 16 3d bb 4b c4 bd 37 7c ec bc 22 f3 69 3d
       0.036854513 -0.09584757 -0.028867824 0.057116635
0003c0 eb e5 28 bd ce 1c 6c 3d 80 75 8b bd a7 70 1f be
       -0.04123489 0.057644658 -0.06809521 -0.15570317
0003d0 2b 44 dc 3d a9 39 3e 3e b4 9c 5b bc 32 d2 40 3c
       0.107551895 0.18576683 -0.01340406 0.0117688645
0003e0 33 f3 e4 bd 3f e6 4f 3d af 10 1c bd 42 2c 6b bc
       -0.11179199 0.05075669 -0.03810185 -0.014353814
0003f0 f8 74 14 3d 6b 44 1b 3d e1 56 9f bc 63 40 80 bd
       0.036244363 0.037907045 -0.019450607 -0.06262281
