results/DodgeAgentBulletsTest11_Improved7/Dodge/Dodge-26499543.pt (torch, 538935 bytes, 40 tensors)

discrete_act_size_vector f4 [1, 2]
00000000: 0000 4040 0000 4040
3.0 3.0

network_body._body_endoder.seq_layers.0.weight f4 [128, 36]
00000000: 7387 debe f99a 46bf 7b86 97be c01c 5abe
00000010: 8e52 8ebf b6cd a3bf 9ade f8bd 662e e83d
00000020: 9ffd 8dbf 2f06 b2bf 570c ffbe 2ec8 c33d
00000030: b0a7 6dbe cb5e a5bf d589 0ebe ee36 393f
00000040: 7fa7 d0bb 678a 3ebf 8e66 423e 1f70 4c3f
00000050: f09a 5dbe 8b89 9dbf 5b80 f3be 2db8 193f
00000060: fe00 5fbf cf3d 68bf 3b83 d83e 7e42 8fbd
00000070: cdff 03bf 4c74 0fbf 01f0 70bd e83d c7be
00000080: 5c5e bcbb b4fe 9abe b15b 363d e039 56bd
00000090: 431d 633e 60e2 e5bb 6f62 85be c652 853e
000000a0: 23a2 3ebe cf31 9cbe 257c 9cbe bc24 6ebd
000000b0: b688 013c 3436 3bbe fd0c 7d3e 4171 d2bd
000000c0: 8ecf d1be 2490 4bbe 23a6 f8bd 1db2 f03d
000000d0: ee6a a6be f456 52be 47f5 34be 11dc 173e
000000e0: 08ee aabc 3c55 86be a615 a6be cec3 15be
000000f0: 7ef1 84be 611d 26bd 9de7 dbbe 0922 ecbe
00000100: a3da 28bf aa1f fbbd 89a4 aabe 15ce bbbe
00000110: 4d3c 3abf 0689 05bf c1b5 40bd 4e0a 8cbe
00000120: be27 bcbe 86a7 05bf 2041 48be fa70 7ebc
00000130: 2386 96be 910d a3bd 8436 25bd 887b 93be
00000140: a3c4 aebd f461 0c3e 4f6f 053e 388c 933d
00000150: 75f1 f13d 5f6c 3e3e 0aee 34be e4e6 48be
00000160: b787 203f d07a 173f 313e 1b3e a4dd b6bb
00000170: e52f b03e 7ecc 913e 88f9 16be d450 ab3d
00000180: 0cda 30bc 8ea8 8f3e e7ea 77be 1824 64be
00000190: f879 873e e873 93bd e36c 54be 8f88 393e
000001a0: a5a1 8dbe c7ab 943d 4cd4 96bd 5c97 d0be
000001b0: 1b5d ad3d c691 313e b775 f33e 4119 be3e
000001c0: 0380 6dbe c86c 39bf a2a7 f03e 818a 863f
000001d0: f68e 41be a7aa 4bbf 96d9 933e 2840 9e3f
000001e0: 265b 033e b3e5 15bf 9d0d 903e 393a 8e3f
000001f0: 179f c13e 17f9 11bf d86b 31be 58a3 853f
00000200: 7892 9abe 73a5 95bf 7fa3 123d ea8f 303f
00000210: a034 bdbe d306 a5bf 7f4d 0b3e 3dac a23e
00000220: f25e acbe 1442 55bf e559 293d 9b24 15bd
00000230: 801a e83b 008e 9abd 5577 f43c 4656 b63c
00000240: 7db7 7d3e da8b cd3e 649c 03bd 6bbc a63e
00000250: 0310 333f c587 813f b893 5ebe 6631 a5be
00000260: 8dbf 1b3e 85ba a03f cd07 56be 2d45 ebbe
00000270: 381f ae3e 2e6d 893f 5340 07be df0c 5abf
00000280: 6b86 363f b841 153f 0fae d1bd 222b 92bf
00000290: a718 253e d28b bf3e 8ccb 14bd 4f00 45bf
000002a0: ddf3 0a3f 7958 2a3e 720e 1abe c99f 3fbf
000002b0: 1059 453c a913 54be ad25 76be 6e8e 01bf
000002c0: e14c 18be 6f0a e2be 9b3d 153d 76f8 debd
000002d0: 6c33 f6be 6d63 e9be d7f0 e4bd 2211 3dbf
000002e0: c80a abbd a185 9abf 7dbc 213e 3245 88be
000002f0: b30c f9be 7313 abbf 8829 d2be 7897 8c3e
00000300: e1d9 d6be a76e a9bf 1772 8a3d 013c a43e
00000310: 8904 18bf 3cf1 5bbf 4be7 0a3e dbee 033e
00000320: 0340 38bf 2453 33bf 8146 933c d199 d43e
00000330: c1a5 a8be 3b39 01bf fe61 b63e 4a16 a73e
00000340: c441 b03e 2ac4 94be e222 d63e e898 df3d
00000350: 297e 003f e5a4 c63e 5b93 243d 9b47 c3bd
00000360: 6542 3fbe e756 f2bd b695 493e 55ff f23e
00000370: 2285 b1be 1043 eebd 0dd3 9d3e 4b97 2c3e
00000380: 5a80 73be 3c25 883e ddc7 fe3d af13 683e
00000390: 0f06 98be 7274 c7be a085 d63e 3d11 083f
000003a0: bb19 94be 7543 f9be 22af b8be c776 fa3d
000003b0: 167f 6abe beee 4bbe 3504 0cbf e202 f7bb
000003c0: 44bf 0cbe 2c52 8ebe e768 58be 9351 ddbe
000003d0: bffa 5d3e 5173 03bf f6b9 843e 09f8 a0be
000003e0: a0b8 aabe 6ca5 70be 1ad7 00be f490 103b
000003f0: 8371 0b3e 5ac2 ebbc 3c5a e9be ec21 e9be
-0.43462715 -0.7758022 -0.29594788 -0.2130003 -1.1118944 -1.2797153 -0.12151833 0.11336975
-1.1093024 -1.3908137 -0.49814102 0.095596656 -0.23208499 -1.2919554 -0.13919766 0.7234944
-0.0063676233 -0.74429935 0.18984434 0.79858583 -0.21641135 -1.23076 -0.47558865 0.60046655
-0.8711089 -0.9071931 0.4228762 -0.06995104 -0.51562196 -0.5603683 -0.058822636 -0.38914418
-0.005748553 -0.30272448 0.044521037 -0.052301288 0.22179131 -0.0070155114 -0.2605166 0.26039714
-0.18616538 -0.3050675 -0.30563465 -0.0581405 0.00790613 -0.18282396 0.24711986 -0.10275508
-0.40978664 -0.19879204 -0.12141063 0.117527224 -0.32503456 -0.20540982 -0.17671691 0.14830042
-0.020865455 -0.26236904 -0.3243839 -0.14625475 -0.25965494 -0.04055536 -0.42950144 -0.46119717
-0.65958613 -0.12261899 -0.33328655 -0.36680666 -0.7274826 -0.52162206 -0.047048334 -0.27351612
-0.3674907 -0.52208745 -0.19556093 -0.015529865 -0.29399213 -0.07961572 -0.040335193 -0.28805184
-0.08533599 0.13709241 0.13030742 0.07204479 0.118136324 0.18596028 -0.1766893 -0.19619328
0.62707084 0.5917177 0.15160443 -0.005580621 0.3441154 0.28476328 -0.14743626 0.08365026
-0.010794174 0.28058285 -0.24210702 -0.22279394 0.26460242 -0.07199842 -0.20744662 0.18118499
-0.27662387 0.072593264 -0.07364711 -0.40740478 0.08465024 0.17340764 0.47550747 0.37128642
-0.23193364 -0.7243161 0.47002894 1.0511018 -0.18902192 -0.7955727 0.28876942 1.2363329
0.12827739 -0.5855362 0.28135386 1.1111518 0.37816688 -0.57020706 -0.17326295 1.0440474
-0.30189872 -1.1691116 0.035800453 0.68969595 -0.36954212 -1.2892708 0.13603781 0.31772032
-0.33666188 -0.8330395 0.041345496 -0.036411863 0.007083237 -0.075466156 0.029842058 0.022257935
0.24777026 0.4014576 -0.032131568 0.32565627 0.69946307 1.0119559 -0.21736038 -0.3226425
0.1520979 1.2556921 -0.20901413 -0.45951214 0.34008193 1.0736444 -0.13208131 -0.8517589
0.71298856 0.58303404 -0.10238277 -1.1419413 0.16122685 0.37411362 -0.03632693 -0.76953596
0.54278356 0.16635312 -0.15044573 -0.7485319 0.01204516 -0.20710625 -0.2403781 -0.50607955
-0.14873077 -0.44148585 0.036435705 -0.10887234 -0.48086107 -0.45583668 -0.11178749 -0.7385427
-0.08351666 -1.207203 0.15794559 -0.26615292 -0.486425 -1.336531 -0.4104731 0.2745931
-0.41963103 -1.3236893 0.06760042 0.3207703 -0.5938192 -0.8591497 0.13564794 0.12884085
-0.71972674 -0.7004874 0.017977955 0.41523603 -0.3293896 -0.5047795 0.35621637 0.32634193
0.34425175 -0.2905591 0.41823488 0.109178364 0.50192505 0.3879768 0.04017959 -0.09535142
-0.18677671 -0.118329816 0.19686016 0.47460428 -0.34671885 -0.11633885 0.3082508 0.16854589
-0.23779431 0.26590908 0.12440465 0.22663759 -0.29692122 -0.38956028 0.41898823 0.53151304
-0.2892588 -0.48684278 -0.36071116 0.12229686 -0.22900042 -0.19915292 -0.5469392 -0.0075381855
-0.13744837 -0.27797067 -0.21133767 -0.432263 0.21677683 -0.51347834 0.25923127 -0.31439236
-0.33343983 -0.23500603 -0.12582055 0.0022059055 0.1361752 -0.028779197 -0.45576656 -0.45533693

network_body._body_endoder.seq_layers.0.bias f4 [128]
00000000: 6005 c33e e06d 97bd d0d3 af3d b2ff d83e
00000010: da98 09be e8f7 05be 0bac 893d 93c6 333e
00000020: ca54 73be a09c 633e fc9a 08be 22db 59bd
00000030: 5025 b1bd 9098 55be 3c16 aabe e537 33bf
00000040: 6a86 0cbe b7ef 093d bbcf 043e b51a 0abe
00000050: 40db dfbd ec44 4cbe c2af 033e b9a5 2e3e
00000060: 37b7 71be 83f6 f4bd a56a 2a3e b70f 9c3c
00000070: b874 cebe 6f69 c0be d25e d03d 83de 1e3e
00000080: 8cc4 12be e3a7 9a3d ebc2 b43c f2d8 71be
00000090: 195d a0bd d558 cdbc b425 c23d 41d1 273e
000000a0: 5c76 43be f26a 4a3d d488 b7bd 35e4 e7bd
000000b0: 2d20 87be 9cad ccbd be9a d5bd 1676 43bd
000000c0: b138 193e 6dcc 0dbd 2cf8 333d 61f5 433e
000000d0: 02a7 53bd e912 253d 3fae 19be 45a6 223e
000000e0: 08ff 3a3e a2aa cdbd 1cc6 7fbe d61c 543c
000000f0: 0d8e 98be 5d89 fbbd 21c0 193d 9f68 23be
00000100: 70d6 68be 8858 7d3d 1b75 83bd 6f18 2bbe
00000110: 23bc 56be b3d3 0a3d cf55 00bd b2b8 87bd
00000120: 591f 14bd 5c5b bdbc e644 883d 3392 c4bc
00000130: 2b37 42be 4d9d 353d 6354 c7bd 46b5 a3bd
00000140: 0c67 7b3d 6ef0 813b 854a d0be c203 103e
00000150: 5ad0 10be 416d ea3d 26a5 903c b7f4 9cbe
00000160: 3227 463e 60f3 05be c988 563e 9ba4 adbd
00000170: 962d 8cbd 60af 663e bd99 abbe 0434 c3bc
00000180: 24d9 73be e653 1fbf e585 cfbe c992 43bd
00000190: b76b c0bc 60d3 60be 04cd aabd d6cc aabd
000001a0: eb7e e5bd 749c 1d3e b4a0 99be b2b1 b9be
000001b0: 641a b03d 8ddb f13d 6f20 973d 0f8b c6bd
000001c0: f7ee a3bd 6213 793d 1bd2 35bf a02e e7bd
000001d0: e15f 54be e1bd 5abe 6be1 9bbe 978b 083e
000001e0: 28c5 0dbe f0b4 c13d 9ab8 99be 0fc5 16bf
000001f0: 5f7f e23c 4806 9ebe c8be c5bd 40f1 03bd
0.38090038 -0.07394004 0.08585322 0.4238258 -0.13437214 -0.1308285 0.06722268 0.17556219
-0.23762813 0.22227716 -0.13340372 -0.053187497 -0.08649695 -0.20858979 -0.33220088 -0.70007163
-0.1372315 0.033675876 0.12969868 -0.1348675 -0.109304905 -0.19948167 0.12860015 0.17055406
-0.23605047 -0.11961081 0.16642244 0.019050462 -0.40323424 -0.3758044 0.101743355 0.15514569
-0.14332789 0.07551553 0.0220656 -0.23617914 -0.07830257 -0.025066772 0.094798476 0.16388418
-0.1908812 0.049418397 -0.08961645 -0.11322824 -0.26391736 -0.09994051 -0.10429905 -0.047720037
0.14963032 -0.034618784 0.043937847 0.19136573 -0.051672943 0.040301237 -0.15007876 0.1588374
0.18261349 -0.10042311 -0.24977916 0.012946328 -0.29795876 -0.12282059 0.037536744 -0.15957879
-0.22738051 0.061852008 -0.064188205 -0.1670854 -0.20970206 0.0338933 -0.031331833 -0.06627025
-0.036162708 -0.023114853 0.06653766 -0.023995494 -0.18966357 0.044339467 -0.09732892 -0.079935595
0.06137757 0.003965429 -0.40681854 0.14063933 -0.1414198 0.1144662 0.017656874 -0.30655453
0.1935089 -0.13081121 0.20950617 -0.084786616 -0.06844632 0.22527838 -0.3351573 -0.023828514
-0.23813301 -0.62237394 -0.4053184 -0.047747407 -0.023488862 -0.21955633 -0.08339885 -0.083398506
-0.11205848 0.15391713 -0.3000542 -0.36268383 0.085987836 0.11809454 0.07379233 -0.09694492
-0.08004563 0.0608095 -0.7102372 -0.1128819 -0.207397 -0.21361496 -0.30445418 0.133345
-0.1384474 0.09458339 -0.30023652 -0.5889444 0.027648626 -0.30864167 -0.09655529 -0.032212496

network_body._body_endoder.seq_layers.2.weight f4 [128, 128]
00000000: 2cd4 243e 8092 2fbe fcab 2b3e e0e7 f0bb
00000010: c284 dabd 1994 413e 0af8 3f3e 3a12 933e
00000020: 5bd8 dbbd 4f4c dbbd d7f6 823b bda9 a9be
00000030: 1bdc 6dbe c6f5 9dbd fa79 3b3e c919 9fbd
00000040: 1645 66be 85e5 04be 7638 b33d 9132 76bd
00000050: 58ee 26be 80cb 193d 469e f13c 8e6a f73d
00000060: 56d0 acbd b88e 90bb 0483 c6bd 78d0 ca3d
00000070: 0d5b e83d db7a 9dbc f57b 22bc 1e98 7b3e
00000080: 2028 443c a601 673d 617b 08be 690a 53bc
00000090: 5089 983d f15a ddbd 81a7 1c3c 83f9 cdbd
000000a0: 00ab 803d 6608 de3e 9b43 35be 4f8d 34bc
000000b0: 837f 833d a437 89be fd60 dfbd 9e7c 52be
000000c0: b4b8 513e 3233 633e 6e8f 903d a2f8 09bd
000000d0: 1cab 89be 5b74 673e 654c db3d e44a 17be
000000e0: ab8a 73bd 8980 84be b01b ccbd e0c6 cebd
000000f0: 51a6 473e b4b6 59be e7a9 263e 6968 2fbe
00000100: 66cb 48bd cbbd 283d a25b 98bd 6e67 2fbe
00000110: cae1 22be 6cb7 1b3c a0db d23d 5c16 dbbc
00000120: b8d4 9bbd c9b6 37bc 167f e63c 9fb9 f03d
00000130: 1481 b5bd 4215 b93c a883 b4bd cdaf 89be
00000140: f53d 273d b5fe e63d c716 7e3d 2847 6fbd
00000150: 08a8 dc3c 6d09 52bd d46e 0bbe 8f1a 9cbd
00000160: 6d7f 613d 7d46 21bc 6f53 17be 9432 5dbd
00000170: be4f 1cbc b3a9 a6bd 2fe2 c23b 8bf6 1c3e
00000180: 8eb7 08bd 53f1 363d f585 44bd 89d5 2abe
00000190: a7b9 23be 6512 ab3d 22ac 34bd 74f0 c9be
000001a0: bc4a c53d 054b 3cbe 7243 823e 6a6f d43d
000001b0: ff0d 233d e1e1 8dbd 9de0 57bd 8ae9 17be
000001c0: 07f3 f3bd d7f1 463c 2d6d efbb 4707 443d
000001d0: 87b6 58bd e8e2 9cbc d278 923d 6d3d 333d
000001e0: efd7 24be e0a9 363e da9d d03c 1a35 e0bc
000001f0: 00f4 b63d 6821 89bd 8179 e83c 5329 253e
00000200: a935 10be 2a9b 613e e2fb 1f3e 6954 a1bd
00000210: daca d23d c542 01be ef71 9b3d 47e0 533d
00000220: cc29 62be e122 debd f934 653e 816c 81bd
00000230: b5a9 b83e b5ba 8c3c dd10 1f3d 96ed e9bd
00000240: 0a84 b23e 954a d5be 91e6 3fbe 9fff 2b3e
00000250: 06cc 03bd 6084 7f3e 4162 4cbe 273c 94bd
00000260: 3f23 bbbd 73dc 93be 0b85 073e e8f7 b23e
00000270: bdbf 81be 3709 233d a4c7 543e 2333 843e
00000280: 3bf7 55be 3fdd 443e 78a2 7f3d 20ce 54be
00000290: 3c3d 83b9 8320 c8bd 4f19 873c 8035 553e
000002a0: 6a7a 30be df1f 14be 0dba 08be 7e99 5c3e
000002b0: 35e9 6fbe 700d 93bc 1bb1 103e 92b6 71ba
000002c0: bb8e febb 7291 cfbc ed08 203e 75bd 553e
000002d0: c480 463e 193f 9cbe d62a 5ebe bf5e 4e3e
000002e0: 44c6 32be 941b debe 7fd7 123c c514 d03c
000002f0: aa5f aebd 0262 ac3e f307 3a3e e4d4 9c3e
00000300: cc94 d63d e753 82be 161b 0dbe 2706 09bd
00000310: 16a9 10bf d657 4bbe d4d5 58be 85ad 0b3e
00000320: 8485 d83d e088 b4ba 1947 eebc 5df0 a13e
00000330: f374 17be 2a90 96be 32b4 9ebe 80a8 8bbd
00000340: c2dd cdbd 5213 b03e 81e2 773c e7ac 833d
00000350: 1670 2abe dcfd 903e 84f5 60bd cd26 533e
00000360: 07a6 1d3e 7627 1ebe 1b2a 95be 09f0 5bbe
00000370: be67 14be 669f e93d ecd7 8bbd b534 7cbd
00000380: bc9b adbd f0f4 22be aeb3 f8be 4350 e9bd
00000390: 97a0 d53d 466c 2c3e 1068 203e fa71 1ebf
000003a0: f5c2 b33e 4ab1 f93d 1ffe b4bd d03e b0bd
000003b0: 7c78 3bbe c72e 6cbe 7d9d 683e c6ac b1bc
000003c0: aaad c1be b2f1 91be 9f50 17be 3c80 843e
000003d0: 83a8 96be 38e5 483e 76a9 b3bd 5afe bebd
000003e0: 3b1e 5a3e f1f6 00be 8bf7 afbd f28e 07be
000003f0: be88 11be 97a7 97be 26a5 603e 50d6 d8bc
0.16096562 -0.17145729 0.16764826 -0.0073518604 -0.10669853 0.18904151 0.18746963 0.28724843
-0.10734626 -0.10707914 0.0039967108 -0.33137313 -0.23228495 -0.07712893 0.18308249 -0.0776859
-0.22487292 -0.1297818 0.087510034 -0.060106818 -0.16301858 0.03754759 0.029494416 0.120808706
-0.084381744 -0.0044115447 -0.09692958 0.099030435 0.113454916 -0.019223621 -0.009917249 0.24569747
0.011972457 0.056398056 -0.13328315 -0.0128809 0.07448065 -0.10808361 0.00956142 -0.10057356
0.06282616 0.43365782 -0.1770157 -0.011020019 0.06420805 -0.26800263 -0.10907171 -0.2055535
0.20480615 0.22187498 0.07058607 -0.03368438 -0.2688836 0.2260298 0.107079305 -0.14774662
-0.059458416 -0.25879315 -0.099662185 -0.10096526 0.19497038 -0.21261102 0.1627575 -0.17129673
-0.0490221 0.041196626 -0.074393526 -0.17129299 -0.15906444 0.00950418 0.102957964 -0.02674406
-0.07608932 -0.011213013 0.028136771 0.117541544 -0.0886251 0.022593144 -0.08814174 -0.26891938
0.04083057 0.1127905 0.06203344 -0.05841747 0.026935592 -0.05127852 -0.13616496 -0.07622253
0.055053163 -0.009843466 -0.14777921 -0.054003313 -0.009540496 -0.08137836 0.0059473733 0.15328424
-0.033378176 0.04466374 -0.047979314 -0.1668302 -0.1598879 0.08353118 -0.04410947 -0.39441264
0.09633395 -0.18387993 0.25442082 0.10372813 0.03980827 -0.069278486 -0.052704442 -0.14835182
-0.11911588 0.01214262 -0.007306716 0.047858503 -0.052908447 -0.019151166 0.07151951 0.043759752
-0.16097997 0.1783824 0.025465894 -0.02736907 0.08933258 -0.06695825 0.02837825 0.16129045
-0.1408297 0.22031847 0.1562343 -0.07877428 0.10292597 -0.12623127 0.075900905 0.05172756
-0.22086257 -0.108464964 0.22383489 -0.063195236 0.36066976 0.017178873 0.03883444 -0.11422269
0.34866363 -0.41658464 -0.18740298 0.1679673 -0.032176994 0.24952841 -0.19959356 -0.07238036
-0.09137582 -0.28879127 0.13234346 0.34954762 -0.25341597 0.03980371 0.20779282 0.25820264
-0.20895092 0.19225024 0.0624108 -0.20781755 -0.0002503189 -0.09771826 0.01649156 0.2082119
-0.17234197 -0.14465283 -0.13352223 0.21542928 -0.23428805 -0.017950743 0.1413006 -0.00092206255
-0.0077684796 -0.025337908 0.15628405 0.20873053 0.19385058 -0.3051689 -0.21696028 0.2015333
-0.17458445 -0.43380415 0.008962511 0.025400529 -0.0851434 0.33668524 0.18167095 0.30631173
0.104775995 -0.25454637 -0.13779864 -0.033453133 -0.56508005 -0.19857726 -0.21175319 0.13640411
0.10572341 -0.0013773702 -0.029086636 0.31628695 -0.14790706 -0.29406863 -0.30996853 -0.06819248
-0.100520626 0.3438974 0.015129686 0.06429463 -0.1664432 0.2831868 -0.054921642 0.2062027
0.15395366 -0.1544474 -0.29133686 -0.21478285 -0.144927 0.11407356 -0.06828293 -0.061573703
-0.084769696 -0.15913749 -0.48574585 -0.11392262 0.10431021 0.16838178 0.15664697 -0.61892664
0.35109678 0.12192018 -0.08837532 -0.086057305 -0.1830768 -0.23064719 0.22716327 -0.02168883
-0.37827808 -0.2850471 -0.14776848 0.25879085 -0.2942544 0.1961869 -0.087725565 -0.093258575
0.21300595 -0.125942 -0.08592137 -0.13238123 -0.14212319 -0.29620048 0.21937999 -0.02646938

network_body._body_endoder.seq_layers.2.bias f4 [128]
00000000: 8a48 a1bd 255e c0bd 165b febc c603 35be
00000010: f798 743e 21c4 cc3e 1bb5 08bd bdf4 b7bd
00000020: 4e36 dabb 006c f93c 8b0a a53c bd3d 653d
00000030: f449 703e 5ad9 65be 9db6 dc3d df1c 873d
00000040: 778f 41bd c33d 21bd 77bd b0bc 8e21 293c
00000050: 5c65 2c3e 4b25 833e 3b3e 583e daa5 9c3d
00000060: e275 633d 74ee 933d b7ae d7bd 1253 a13c
00000070: 6551 96bd 5a35 863e 92b1 0ebe db76 3c3e
00000080: 86fc a83e 775e ef3d 5f88 b3bc 67cb 133d
00000090: 381e eb3c fe3a 1abe 5f7a 84b9 b9f6 063e
000000a0: b2fe dbbd 619a 3f3d a570 503e 52b9 eebd
000000b0: db12 803e c224 d73d 104d 96bc a4fb a6bb
000000c0: 3f68 ba3c 9475 153e c249 b93d 4dce cabc
000000d0: f9dd 203d 8ffd 9e3c 1424 dcbd c907 3d3e
000000e0: 098b 66bc 1947 463e a705 293c 5f5e f53b
000000f0: d2f3 0f3e 5c15 f7bc 4717 373e 45bb 5f3d
00000100: 2a58 02bd 9d32 9a3d 40ef 27bd 8962 d23b
00000110: fcf3 19be 8633 2b3e 7627 6d3d b57b 893d
00000120: 48bf 433e a92c 4cbe 0753 e53c eb14 fb3d
00000130: be58 45bc 316e 4abc 232e d43d b0a4 aabc
00000140: cf23 8e3d 0c51 96bd 21f4 ab3c 8131 063d
00000150: 746d d13c 0f03 46bd 68c4 59bd 1054 6c3e
00000160: fc6e 333d 7b6c 553d a916 dbbd f619 b3bd
00000170: 79c9 c73d 3c8d 8cbd 0dcf 9fbd 2484 243d
00000180: a743 c83d c27d eb3c 24b7 423e 21a8 023e
00000190: 1514 8dbd c440 113d dedd b63c 5946 853d
000001a0: 06ed fc3d 9b16 883d 51af d23d 1b46 d73c
000001b0: 9ff8 b13d 62d0 cd3c a0b6 313c fca2 53be
000001c0: 64a6 2cbe f17c c0bd 4d98 e73d e90e bbbd
000001d0: 23ad fbbc b318 ccbd 52ca a4bd c5e7 043e
000001e0: 9758 babd c267 613d 759e 923e 2112 7fbc
000001f0: fa32 c1be d1ef ca3d 1923 163e 7d54 8d3d
-0.07875164 -0.09392957 -0.031049293 -0.1767722 0.23886476 0.39993384 -0.03337584 -0.08982227
-0.0066593057 0.030447006 0.020146629 0.05596708 0.23465711 -0.22446194 0.10777018 0.065973036
-0.04725596 -0.03936554 -0.021574719 0.0103229415 0.1683554 0.2561439 0.21117489 0.07648821
0.055532344 0.07223216 -0.10531371 0.019692931 -0.073397435 0.2621258 -0.13934925 0.18404715
0.3300516 0.116879396 -0.021915613 0.03608265 0.028700933 -0.15061566 -0.00025268176 0.13180055
-0.10741939 0.046778087 0.2035547 -0.11656441 0.25014386 0.10505058 -0.018347293 -0.005095916
0.022754787 0.14595634 0.09047271 -0.024756575 0.03927419 0.019408016 -0.10749069 0.18460001
-0.0140712345 0.19363059 0.010316289 0.0074880566 0.14057854 -0.030161552 0.17879973 0.054621954
-0.03182236 0.07529185 -0.04099965 0.0064204377 -0.15034479 0.16718873 0.05789896 0.06713048
0.19115937 -0.19938911 0.027993692 0.12259849 -0.012045084 -0.012355373 0.103603624 -0.020830482
0.06940424 -0.07339677 0.020990433 0.032762054 0.025564887 -0.04834276 -0.053165823 0.23078942
0.043807015 0.05210541 -0.106976815 -0.08745186 0.09755225 -0.06862876 -0.07803164 0.04016508
0.09778529 0.02874649 0.19015175 0.12759449 -0.06888596 0.035462156 0.022322591 0.065075584
0.12349896 0.06644937 0.10287345 0.026278546 0.08689999 0.025123779 0.010846764 -0.20667642
-0.16860348 -0.09398831 0.11308346 -0.09133703 -0.030722206 -0.099656485 -0.08046402 0.12979038
-0.090989284 0.05503059 0.28636518 -0.015568287 -0.37734205 0.099090226 0.14661826 0.069008805

action_model._discrete_distribution.branches.0.weight f4 [3, 128]
00000000: 2694 0e3f b049 18be 4d6d 8dbe edc9 833a
00000010: 732b 163e 3528 48be c827 8fbe 6b89 8ebe
00000020: f351 2b3e e36d 7c3e 7b6f 2fbe 1dfe 1bbf
00000030: ad4e 8c3e 363a 6bbd f3a3 b93e 2cb7 0fbe
00000040: e3b7 97be 1ac0 40bc 90f3 933e 61f4 033f
00000050: ea23 0ebd da07 a73e a1c3 90bd ba15 e33d
00000060: 22df 6cbe 8b49 9b3e c7e5 303d 1e60 703e
00000070: 049b b2bd c29e bd3d eb2a c5bd 62e6 e43e
00000080: eeaf 9abe 8a25 8c3d e19d b6bd 94ad 65bd
00000090: c62b 55be 3d9b 43bf d115 883d 2b23 b03e
000000a0: b3a0 a43e 6d7c 21be e438 f03d 5643 42be
000000b0: 3275 ae3e 2121 313e 36cd a43d 8acf 313e
000000c0: 12a1 82be 51fc 17be b813 0c3e 0f59 83be
000000d0: 65ae d8be c084 5b3e d371 7abd 4147 c3bd
000000e0: ebd4 f43d 53d9 1bbe 327c 563e 07c3 d13e
000000f0: 0966 bbbe bb8e 9dbe 7bc6 3d3e a90b 403d
00000100: 3e2f 063e 2a64 c2bd 105c 493c 9c4e 543d
00000110: 697e 603e b1ae 93bd 941a 113f 7e6f 713e
00000120: 198c fabd 54d9 1fbe f1b7 be3d 66f2 8dbd
00000130: 61b9 afbe bdc7 c6be d7d7 2f3e 3aef 403d
00000140: 3b4c 8bbc b5b5 443e c280 fd3d 2e6c 8cbd
00000150: d12b 2d3d 1149 003f 1a6c c73c 8434 4f3e
00000160: 77e2 443d 9483 eebc f2b3 27be f9db 45be
00000170: 9740 833e 991b e63e cc05 653e 4963 cabe
00000180: 0bb3 093e 3c31 99be bfbd 30bd bdfe da3e
00000190: d211 28bf c54b aebe 6655 aabe bcfd c83d
000001a0: 55bf bd3e 39bc 3a3e 3910 1cbe 7972 9a3e
000001b0: 73ae 3a3f 432c 263e dc17 1d3e 04be ff3b
000001c0: cec2 82bd 0c14 503e 9600 eb3e 5e63 d2be
000001d0: 8dd6 36bb 07ea c5be 6e8d 003e aff0 8b3d
000001e0: 04d1 843e f7e8 a03c b9a3 973e 9fcc a3bd
000001f0: bf72 d2bb 5b48 313e 447b c63c b141 9c3e
00000200: b1a7 4e3e 4bff 4e3d bf04 883d 90f9 e63d
00000210: 156f 06be 6382 36bd b69e 3fbc 6dcd dc3d
00000220: 8582 9dbd 9a94 c83d 0649 ba3e 17b9 cc3e
00000230: 2e65 273e a1a0 213c 63b0 1ebd 4415 503e
00000240: 485b ac3e a1b9 fcbd e708 473e e835 933b
00000250: 26ca 2a3e 8842 91bd c1c9 30bd 2894 c93c
00000260: 3b95 3e3e 567a 3cbe dd8a f2bd 18e9 853c
00000270: a52a 0e3e f31c 3c3c 4312 503e d2a3 43be
00000280: 6c71 c0bc 4621 433e 2d24 8e3d 7706 fa3d
00000290: b515 f33d c6e8 9c3e 32d9 83bd f644 e63d
000002a0: dcde 7dbe 0662 9d3e 0cc8 2b3e 1f15 dd3d
000002b0: 0fbe 093c d195 153d 765f a23c 8940 26b8
000002c0: 3382 bbbd a3c7 343e 2923 8dbd 4dbe 543d
000002d0: 693a 9e3e dfb1 633c 0620 5d3e 3d2d 13be
000002e0: ef7f 04be 65f9 ee3d 554c 9ebe ea77 f1bd
000002f0: 15a1 b83e 8181 2a3e 906e 97bd e067 1abe
00000300: 444e 73be 20d9 ac3d 7587 47bb 003d e93d
00000310: de83 51be 41cc 2c3e 10e0 a63e 7af7 ff3d
00000320: 5be6 213e bddf 393d 7d99 a13e 764b ff3c
00000330: efa2 643e 33e4 1f3e 2efb a0bd a8b5 013e
00000340: 300c 01bd e348 debd 54e8 6e3d 2d0e 9d3d
00000350: 9f14 dabc 8371 263e 232f 79bd ecf4 38bd
00000360: fae6 4cbd b0f6 5b3e b870 b83d bcc7 be3d
00000370: 75f5 38ba dff2 623d 77b4 1e3e a468 cb3e
00000380: 53d0 c8bd 3d28 2c3e 28fd ffbd 7f28 993e
00000390: 8dc7 d93e 4c85 8b3e 4c8f a43e 3b7f 213e
000003a0: 6dd6 07bd 1b57 5a3d 99fc 253e f849 80bc
000003b0: a410 1d3f 6bb9 01be fb15 323d 0fca 013e
000003c0: 91a6 8abd cdcb 90bd 1e99 243f c268 443e
000003d0: efb7 123d fc26 313e e577 333c a6b4 583e
000003e0: 9930 f3bc 0ec8 233e f3b7 033d b567 803e
000003f0: 0f80 b33d 9b23 0bbe 36b8 213e f2e1 efbd
0.55694807 -0.1487186 -0.27622452 0.0010054685 0.14665012 -0.19546588 -0.27960038 -0.27839217
0.1673048 0.24651293 -0.1713237 -0.6093462 0.27403775 -0.05742856 0.36257896 -0.14034718
-0.29632482 -0.011764551 0.2889676 0.5154477 -0.03470222 0.32623178 -0.07068563 0.110881284
-0.23131993 0.30329546 0.043187883 0.23474166 -0.08720973 0.09258796 -0.096273266 0.44707018
-0.3021235 0.068430975 -0.08916832 -0.05607374 -0.2081748 -0.7640875 0.06644786 0.3440183
0.32153854 -0.15770121 0.11729601 -0.18970999 0.34073788 0.17297794 0.080469534 0.17364326
-0.25513512 -0.14842345 0.13679397 -0.25653884 -0.42320552 0.21437359 -0.061143707 -0.09535075
0.119546734 -0.15219621 0.20945814 0.40969107 -0.36601284 -0.30772957 0.18532746 0.04688612
0.13103959 -0.09491761 0.012290016 0.05183278 0.21923222 -0.07211054 0.5668118 0.23577687
-0.12233753 -0.15610248 0.09312428 -0.069309995 -0.3432112 -0.38824263 0.1717218 0.047103144
-0.017004123 0.1920994 0.12378074 -0.06856571 0.042278115 0.5011149 0.024343539 0.20234877
0.048067536 -0.029115476 -0.16377237 -0.19322194 0.25635216 0.4494293 0.22365493 -0.39528874
0.13447206 -0.29920375 -0.043149706 0.42772475 -0.6565219 -0.34042183 -0.3326828 0.09814021
0.37060037 0.18235864 -0.15240563 0.3016546 0.7292244 0.16227822 0.15341133 0.007804634
-0.06384812 0.20320147 0.45898885 -0.41091436 -0.0027898878 -0.3865511 0.12553951 0.06833016
0.25940716 0.019642336 0.29617098 -0.07998013 -0.00642237 0.17312758 0.0242287 0.3051887
0.20181157 0.050536435 0.0664153 0.11278069 -0.13128312 -0.04455794 -0.0116955545 0.10781369
-0.0769091 0.097939685 0.36383837 0.39984962 0.1634719 0.009864957 -0.038742434 0.20320612
0.33663392 -0.123400934 0.1943699 0.00449251 0.16678676 -0.07092768 -0.043161158 0.02460678
0.18611614 -0.18406042 -0.11842892 0.0163465 0.13883455 0.011481511 0.20319466 -0.19105461
-0.023491584 0.19055662 0.06940494 0.12208264 0.11869375 0.30646342 -0.06437911 0.11243622
-0.24792045 0.30738848 0.1677553 0.10795044 0.00840713 0.03651983 0.01982091 -3.9637587e-05
-0.09155693 0.1765428 -0.06891472 0.051939297 0.30903938 0.013897388 0.21594247 -0.14372726
-0.12939428 0.11668662 -0.30917612 -0.1179045 0.36060396 0.16650964 -0.07394135 -0.15078688
-0.23760325 0.08439851 -0.003044573 0.11388588 -0.2046046 0.16874792 0.3259282 0.12498374
0.1581053 0.04537939 0.31562415 0.031163912 0.22327779 0.15614395 -0.07860409 0.12666953
-0.031505764 -0.10853746 0.058327034 0.076687194 -0.026621161 0.16254239 -0.06083597 -0.04515545
-0.050024964 0.21480823 0.090058744 0.0931544 -0.0007055619 0.0554074 0.1549853 0.39728272
-0.0980536 0.16812225 -0.124994576 0.2991371 0.42535058 0.27250135 0.32140577 0.15771191
-0.033163477 0.053305726 0.1620964 -0.015660271 0.61353517 -0.12668388 0.043477993 0.12674735
-0.06770051 -0.07070122 0.6429614 0.19180587 0.035819944 0.17300028 0.010953878 0.21162662
-0.02968626 0.15994284 0.03215785 0.25079122 0.087646596 -0.13587801 0.15792927 -0.117130175

action_model._discrete_distribution.branches.0.bias f4 [3]
00000000: 4519 25be e19f 89bd 96c4 3e3e
-0.16122921 -0.067199476 0.18629679

action_model._discrete_distribution.branches.1.weight f4 [3, 128]
00000000: 6771 55be c064 4a3e f93d 233e c4c5 b73b
00000010: 3d19 44bd 84df fcbd 0bfc ab3c 3f84 b03d
00000020: 4da7 d63e e3a6 b83e 30c2 4a3d 67f7 d0be
00000030: 4193 8f3e e712 aabc 4b6f be3e 5cd3 193e
00000040: 9bfa 72bd 0e92 653a 6800 2fbe 9cb9 aebe
00000050: 446c b33e 4c82 75bd 7e70 623e d0ed 0dbe
00000060: 2eb7 263e 70df 95bd c6d0 143d 5817 8abd
00000070: 7555 c13c b0c5 953e 47c6 e33d 5e0c 713e
00000080: 3d77 383d f9bc 40be e1ce f7bb 7e38 9a3c
00000090: 3051 0c3e 584a a73c 07bd 8bbe 1f6a 2e3e
000000a0: 5e6c 42bd e422 973d 3eac e5bd aa23 77bd
000000b0: bc4d 053e f346 483d 071e f53e c4be b93d
000000c0: bcb3 e0be 8401 963d d00d e23c 7e37 55bd
000000d0: 678f 393b 9b5c 863e f00b 843e 29f8 75bd
000000e0: db5a 653e e7eb adbe eb15 96be 1b5b 90bd
000000f0: ce29 973e bcdd 01bc f6fb b03a 2bd9 5cbd
00000100: 3a20 15be 0097 643d 43b7 123f c978 dabd
00000110: 5335 ddbd cfa5 e13d b3cd 4ebe 6ab1 043e
00000120: e6cb 8a3e 4f06 493c c5f4 9d3e ed31 123e
00000130: 6535 493e 564d d83d addb 9dbe b1ff 8e3c
00000140: 6e7f 3f3e 8e08 dc3d f25a 5c3e 0c00 e83b
00000150: 5003 69bb 0af3 483e f049 d23c 4f24 983e
00000160: 5b90 52be 2dce b43e 9b62 debd 60d0 193e
00000170: 5439 f63d bc0f 9dbb b60d 353e a8ed cbbc
00000180: 5c7b 243e e54b 91bd 16b1 f13d 20ac 58be
00000190: 04f8 4abb baa9 4b3c 74f0 4d3e 9c4d 6a3e
000001a0: fba8 a5bd 7b46 313d 35fd 45be 95b8 ebbd
000001b0: e304 e7bd 19f8 b23e 7186 f73c a6f3 623c
000001c0: ea92 90be 4e40 023e eda8 e6be 0784 c93e
000001d0: ef7a b13e df17 cebd c8ee 973e 4ba8 41be
000001e0: 000b babe 6374 d33e 4fed 543e 9f53 093e
000001f0: 87a9 41bd 0d2b 273e a2e9 44be 0df8 3bbd
00000200: b481 be3d b994 b2be 5959 98bc 0bc7 9d3d
00000210: 0619 583d ccd2 c53c c8c8 01be 3a80 a63e
00000220: 6eff 09be 8be9 163e 3909 f7bd ca81 363e
00000230: 5ef8 0bbe 5525 34bd 1cf2 9e3e 5862 1abe
00000240: 1929 783e 9199 14ba aba8 f5b9 d60d 903d
00000250: 04a8 59be b6f8 823e ea31 103d e672 113e
00000260: 1920 8a3e e80d ef3d f4f9 843d 23c2 e1bb
00000270: 1597 0cbe 1e58 013d 15b0 a9bd 2218 83bd
00000280: 3385 283e 8318 5ebd 2bcf 96bd 8498 02be
00000290: dd4c 9bbe 6360 0b3e 6f35 523d d0e3 20be
000002a0: 5882 4abe fd59 16be 9067 d3bd c6f1 213e
000002b0: af1a 143e 118d 1abe 8e8e 523e f072 86be
000002c0: be36 7d3e c0cd 0d3d d60e 0e3e 6f78 60bd
000002d0: f36f 433e 6bf0 13be 6b1d 313d 8815 0a3d
000002e0: 8d09 9fbd b5dc fb3c aa5f 513e bdbc 54be
000002f0: abde dfbd b2fd 72be 2879 7f3d 9afd b9bd
00000300: bc42 5a3e d73c b5be bea4 263d 1ff7 5a3e
00000310: 4a8b 00be b544 a43d b54e c33d f0bd 9dbe
00000320: cfd5 8dbd d709 81be 35f9 e43d 8c98 96be
00000330: 2c6c 863c ba77 583e 5d0f ca3d 6894 5c3e
00000340: 5ca6 adbd ef76 9cbe a196 44be 0340 153e
00000350: 4860 00be 446b 233e 62dc b23d ec4b 9ebe
00000360: b521 543e a3c0 2abe 59a5 d53d b17d 36be
00000370: a78f c53d fc81 5abe 3912 41be be05 323c
00000380: a054 83be 5be7 033e 20c6 dc3d e088 a13e
00000390: 2052 03bd c063 bf3c ecaa 74be 4fb4 093c
000003a0: ea25 c4bd f8f8 353d 35ef 4d3c 0d46 05be
000003b0: bec9 563e 4641 7d3e 7cb1 c13d 74c6 32be
000003c0: f18c 923e ca55 eabd f036 bb3e 8646 e53d
000003d0: 81fe 37bd 509e 99be 8c4c 91be 29cd 32bd
000003e0: 6b98 853d 14a8 33be 404c 023e a329 eabd
000003f0: 61b3 df3d b32f 2fbe f6bb 16be 8e6e 043d
-0.20844041 0.19764996 0.1594161 0.0056082923 -0.04787563 -0.1234732 0.020994207 0.08618974
0.41924515 0.36064824 0.049501598 -0.40813753 0.28042033 -0.020760966 0.37194285 0.15022033
-0.059321027 0.00087574206 -0.17089999 -0.34125984 0.35043538 -0.059938714 0.22113225 -0.1386025
0.16280815 -0.07318008 0.036331914 -0.06742734 0.02360032 0.29252386 0.11121803 0.23539874
0.04503559 -0.18822087 -0.0075625037 0.018825766 0.13702846 0.020421192 -0.27292654 0.1703267
-0.04746663 0.07379702 -0.11214493 -0.060336746 0.13017935 0.048895787 0.47874472 0.09069589
-0.43887126 0.07324508 0.027594477 -0.052054875 0.0028314234 0.26242527 0.25790358 -0.060051117
0.2239794 -0.33969042 -0.29313597 -0.07048627 0.29524082 -0.007926401 0.0013502825 -0.053918045
-0.14563075 0.055808067 0.57310885 -0.10667569 -0.108011864 0.110179536 -0.20195656 0.12958303
0.27108687 0.0122695705 0.30850807 0.14276858 0.19649275 0.10561626 -0.30831662 0.017455908
0.18700954 0.10743819 0.21519068 0.0070800837 -0.0035554953 0.19623962 0.025670022 0.297152
-0.2056288 0.3531355 -0.10858651 0.15020895 0.12022653 -0.0047931354 0.17681012 -0.024893597
0.16062683 -0.07094554 0.118013546 -0.2115941 -0.0030970583 0.012430603 0.20111257 0.22881168
-0.08088871 0.043280106 -0.19334872 -0.115098156 -0.11280229 0.34954908 0.030215474 0.013852036
-0.28237087 0.12719843 -0.45050755 0.3935854 0.34664103 -0.10063147 0.29674363 -0.18911855
-0.36336517 0.41299734 0.20793651 0.13410805 -0.047280814 0.16325016 -0.19229749 -0.045890857
0.09302083 -0.3487909 -0.018597292 0.0770398 0.05275824 0.024148367 -0.12674248 0.32519704
-0.13476345 0.14737527 -0.12062306 0.17822948 -0.13668963 -0.043980915 0.3104409 -0.15076578
0.24234428 -0.0005668635 -0.0004685571 0.07033889 -0.21255499 0.25580376 0.03520385 0.14203987
0.26977614 0.11672574 0.06492987 -0.006889598 -0.13729508 0.031578176 -0.08285538 -0.06401087
0.16457061 -0.054222595 -0.07363733 -0.12753493 -0.3033208 0.13610987 0.05132049 -0.15711904
-0.19776285 -0.14682765 -0.10322487 0.15814885 0.14463304 -0.15092875 0.20562193 -0.26259565
0.24727914 0.034620047 0.13872847 -0.054802354 0.19085674 -0.14447181 0.043240946 0.03371194
-0.077654935 0.03074489 0.20446649 -0.20775123 -0.109311424 -0.2372959 0.062371403 -0.09081574
0.2131452 -0.3539798 0.040684454 0.21383332 -0.12553135 0.08020917 0.095364965 -0.30808973
-0.069255464 -0.2520282 0.11180345 -0.2941326 0.016409002 0.21139422 0.098662116 0.21540987
-0.08478996 -0.3055949 -0.19198085 0.145752 -0.12536728 0.15958887 0.08733441 -0.309173
0.20715983 -0.16675048 0.10431928 -0.17821385 0.0964654 -0.21338648 -0.18854608 0.010865627
-0.256505 0.12881224 0.10779977 0.3154974 -0.032060742 0.023362994 -0.23893327 0.008404805
-0.09577544 0.04442689 0.012569238 -0.13015004 0.20975396 0.24731931 0.094576806 -0.17458516
0.28623155 -0.11442144 0.3656535 0.11195092 -0.04492045 -0.30003595 -0.28378713 -0.043652687
0.06523212 -0.17544585 0.127244 -0.11433723 0.10922886 -0.1710804 -0.14720139 0.032331996

action_model._discrete_distribution.branches.1.bias f4 [3]
00000000: 9889 afbd 4450 713b c93b c33d
-0.08571166 0.0036821524 0.095328875

exp_avg f4 [128, 36]
00000000: db99 1639 b05d f438 b397 c138 6c1c d338
00000010: a9b3 9138 d47b bb38 32f9 5038 b28b cb38
00000020: 878c 7938 3a36 a138 6d5e e5b7 8e78 6938
00000030: 6c0a 8e38 768d 9038 edcb a9b7 b1b0 7a38
00000040: 7709 4938 e77c 7338 7cc1 05b8 5939 0938
00000050: c54a aa38 4e8c 7338 30fb 9235 d771 5538
00000060: 4ef0 9338 d22b 9f38 4a1a 8c38 b282 6a38
00000070: 4ddc 5538 cf5f 0238 42a3 1c37 c7e7 8b37
00000080: 42a3 1c37 c7e7 8b37 ce77 fe3c fe41 a53b
00000090: 7b24 a8b6 1172 a1b6 bfc3 97b6 f2aa 99b6
000000a0: 098f 86b4 079d 5fb5 e5a6 95b6 9989 96b6
000000b0: 4b34 bbb3 7960 69b5 e13d 91b6 d326 92b6
000000c0: fa30 73b0 e4a1 30b5 1a37 95b6 9743 95b6
000000d0: 9974 8c30 1aac 45b5 83be a034 3900 8eb6
000000e0: 8a7c 58b1 9d66 17b6 967e 90b0 98f9 19b6
000000f0: 5ccb 8332 c783 1cb6 6bf4 beb1 0130 eeb5
00000100: 04a0 8eae 3c8f f8b5 0849 eb30 80e9 e3b5
00000110: 0849 eb30 80e9 e3b5 0e2c 5a38 b060 8eb8
00000120: f460 e3b5 3475 edb5 e09a 06b6 db1b 08b6
00000130: 59fb 59b5 e840 87b5 29f5 f7b5 2915 fcb5
00000140: e47a 05b4 b42b 6fb5 da8c f8b5 f803 fbb5
00000150: 2219 85b2 7161 4bb5 6eaa fcb5 17ba fdb5
00000160: eafd 2c33 5221 3ab5 3c24 91b4 de40 f6b5
00000170: a7a3 8332 303e 8eb5 9ca9 6ab1 b1aa 90b5
00000180: f0ea bd31 0896 8db5 270c 23b0 b7b9 5db5
00000190: efe6 e32f beb9 64b5 251e bd30 8d9c 53b5
000001a0: 251e bd30 8d9c 53b5 8c4b c437 bca3 ffb7
000001b0: 83c3 f438 7dfb 2639 d556 3c39 e5a8 9638
000001c0: 1c97 7a39 76c1 8338 a886 d437 f63d a538
000001d0: 3303 f0b9 cd75 86b8 875a 98b7 bd05 3cb7
000001e0: a0ad 0939 9a05 fe37 4954 04b9 e923 38b8
000001f0: 3472 8d37 5bc4 34b7 c087 c6b9 b83c c6b7
00000200: 56d8 dd37 92a0 e237 65d3 a1b9 3dd3 8fb8
00000210: a356 e9b8 b809 dd38 00cb a339 0d99 2739
00000220: b0b3 7939 190f 8538 7538 c739 a1e7 0939
00000230: 7538 c739 a1e7 0939 156e 863d aebe 8dbc
00000240: 859a 7039 9474 0539 3fdb 6039 399c 1c39
00000250: c250 5a39 3233 0c39 4861 5b39 19d7 6439
00000260: 6370 6939 b0c8 f638 3b99 06b9 8ec9 4039
00000270: 39b0 7c39 72f7 4739 d556 1b38 8d8e a039
00000280: 5d95 a439 5fb6 3e39 78ea c0b8 ba99 3239
00000290: a848 2139 c75f 0439 cfa9 e538 afd7 0839
000002a0: 39e2 1939 adb0 0d39 31e1 7838 3624 e238
000002b0: 2919 f538 7cc0 1539 80d3 1239 a042 1639
000002c0: 80d3 1239 a042 1639 0039 093d 0878 2d3c
000002d0: 0e1d 0939 8253 3f39 596e f338 04d4 4739
000002e0: be82 0739 a212 4839 3fd9 1b39 cbef 2e39
000002f0: 6f25 2a39 22dc 4739 ae5f a638 7761 1639
00000300: da5c 1e39 8444 1d39 8490 93b6 5e38 1739
00000310: e065 1b39 3fc7 1739 be97 d338 9979 1639
00000320: adc8 6539 2b46 2939 a790 3439 9202 3f39
00000330: 6075 0d39 d91d 2a39 d08b 3939 3a32 3739
00000340: a539 2d39 7860 2339 11f8 3139 0488 1d39
00000350: 11f8 3139 0488 1d39 5acc 953d 3630 573c
00000360: f17b 7b39 25b0 4b39 545a 1239 ed38 0839
00000370: b5ae 6739 820a 4139 16dd 0639 d1dc 0439
00000380: 4d17 8e37 9fac 6638 c5a2 9138 5a70 c638
00000390: 6a63 9c37 8129 3538 1b37 d838 90d9 de38
000003a0: 0fcf f236 25af 2138 20b0 65b9 4908 f138
000003b0: 0f36 7b37 f46b b638 8e78 c2b6 bb67 7138
000003c0: c1a9 7537 5637 9938 03ff dbb7 8694 f637
000003d0: d326 d736 e891 ef37 1200 e0b7 9e35 d237
000003e0: 1200 e0b7 9e35 d237 1d6d b3b9 b105 c63b
000003f0: 54d3 0a36 adf6 f835 cd8c cd35 ac08 c635
0.0001436243 0.00011652277 9.231213e-05 0.00010066558 6.947603e-05 8.93992e-05 4.9823146e-05 9.7058146e-05
5.9497102e-05 7.687179e-05 -2.7342898e-05 5.5663804e-05 6.773029e-05 6.892804e-05 -2.024133e-05 5.97692e-05
4.793095e-05 5.805204e-05 -3.1889867e-05 3.2716755e-05 8.1201586e-05 5.8066384e-05 1.0950953e-06 5.088918e-05
7.0542665e-05 7.589873e-05 6.680617e-05 5.5911667e-05 5.098833e-05 3.1083644e-05 9.336336e-06 1.6678021e-05
9.336336e-06 1.6678021e-05 0.031062987 0.0050432673 -5.011037e-06 -4.811453e-06 -4.5229385e-06 -4.579656e-06
-2.5063517e-07 -8.330248e-07 -4.459975e-06 -4.486367e-06 -8.717378e-08 -8.693965e-07 -4.3285404e-06 -4.355659e-06
-8.8472485e-10 -6.580069e-07 -4.4469607e-06 -4.4484145e-06 1.021948e-09 -7.363866e-07 2.9940938e-07 -4.2319557e-06
-3.150293e-09 -2.2560482e-06 -1.0513357e-09 -2.294406e-06 1.5342884e-08 -2.3322516e-06 -5.557515e-09 -1.7746353e-06
-6.485837e-11 -1.8519127e-06 1.7119257e-09 -1.6980775e-06 1.7119257e-09 -1.6980775e-06 5.201628e-05 -6.789097e-05
-1.6941035e-06 -1.7691987e-06 -2.0057705e-06 -2.0281793e-06 -8.120456e-07 -1.0077174e-06 -1.8474285e-06 -1.8781622e-06
-1.2431298e-07 -8.9098035e-07 -1.8518433e-06 -1.8702112e-06 -1.5494667e-08 -7.576519e-07 -1.8825065e-06 -1.8904128e-06
4.0277804e-08 -6.9338887e-07 -2.703472e-07 -1.8347307e-06 1.5324828e-08 -1.0597923e-06 -3.4147893e-09 -1.0778514e-06
5.5273333e-09 -1.0548983e-06 -5.9316324e-10 -8.2599166e-07 4.1455148e-10 -8.520691e-07 1.3760127e-09 -7.8831437e-07
1.3760127e-09 -7.8831437e-07 2.34002e-05 -3.0474614e-05 0.000116712436 0.0001592468 0.00017961425 7.1840164e-05
0.0002389815 6.282602e-05 2.5335074e-05 7.879354e-05 -0.0004577875 -6.41156e-05 -1.8161967e-05 -1.1207009e-05
0.00013130018 3.0281768e-05 -0.000126199 -4.3902462e-05 1.686169e-05 -1.0774554e-05 -0.00037866645 -2.3631714e-05
2.6445992e-05 2.701607e-05 -0.00030865814 -6.8581176e-05 -0.00011126443 0.000105399115 0.0003124103 0.00015983377
0.0002381343 6.344746e-05 0.00037998302 0.00013151627 0.00037998302 0.00013151627 0.06563965 -0.017302837
0.00022945747 0.00012727297 0.0002144398 0.00014935517 0.00020820185 0.00013370512 0.00020921708 0.00021823905
0.00022262479 0.00011767575 -0.00012836319 0.00018385632 0.00024098241 0.000190703 3.703575e-05 0.00030623787
0.00031391802 0.0001818775 -9.198947e-05 0.0001703267 0.00015381223 0.00012624181 0.000109512 0.00013050319
0.00014675492 0.00013512625 5.9337533e-05 0.000107832646 0.00011687197 0.00014281453 0.00014002435 0.00014329934
0.00014002435 0.00014329934 0.033501625 0.0105877 0.00013076162 0.00018246289 0.00011607697 0.00019057101
0.00012923309 0.00019080428 0.00014862882 0.00016683263 0.00016226408 0.00019060125 7.9333186e-05 0.00014341423
0.00015102644 0.00014998211 -4.397765e-06 0.0001442148 0.00014819903 0.00014474707 0.00010089528 0.00014350413
0.000219139 0.00016143236 0.00017220025 0.00018216137 0.00013490533 0.00016223582 0.00017695059 0.00017470951
0.0001652004 0.00015580829 0.00016972447 0.00015023357 0.00016972447 0.00015023357 0.073143676 0.013134053
0.00023983397 0.00019425208 0.00013957295 0.00012991177 0.0002209496 0.00018409829 0.00012861597 0.00012670761
1.693857e-05 5.499704e-05 6.944457e-05 9.462303e-05 1.8642942e-05 4.3192416e-05 0.00010309947 0.00010626309
7.236267e-06 3.8548507e-05 -0.00021904754 0.00011493319 1.4973352e-05 8.698544e-05 -5.795685e-06 5.7555484e-05
1.4642662e-05 7.305916e-05 -2.6225583e-05 2.9394647e-05 6.412019e-06 2.8558963e-05 -2.6702914e-05 2.5058918e-05
-2.6702914e-05 2.5058918e-05 -0.00034222836 0.006043159 2.0686612e-06 1.8549232e-06 1.5314669e-06 1.4754673e-06

exp_avg_sq f4 [128, 36]
00000000: 9d69 1a34 7d39 b234 0b21 5e34 6c39 c634
00000010: e409 3534 3078 af34 adbb b634 9018 ee34
00000020: ffc2 4b34 c4dd b434 e584 cb34 5551 f134
00000030: 5df0 3434 1ff3 9f34 ede2 b134 1e70 ec34
00000040: 21ea 1634 8b87 9234 c682 cf34 5c8d f634
00000050: 3167 1f34 8660 9234 4247 ef34 cddd fd34
00000060: 15d4 9a34 8c12 c234 fd41 e034 44ba f534
00000070: 3539 bf34 9f3b d434 0c3f c134 9bc2 ea34
00000080: 0c3f c134 9bc2 ea34 a8e2 463d 5bd2 643b
00000090: 0c9c 5e2f 43a1 5e2f 8039 602f a874 602f
000000a0: 793e d52e ab9d e32e 2ac4 5e2f 555a 602f
000000b0: 777f 912b 9c02 0b2e 9b3f 532f 2e1c 5b2f
000000c0: eb51 5829 603c 912d 3c6f 352f 9f71 592f
000000d0: 69ef a728 2c7e 8e2d f158 082d 44ba ae2e
000000e0: 9e7f a529 dcf6 df2d 4320 1f2a 6aac db2d
000000f0: ee07 4928 8ea9 c62d 03cb 0628 8b59 7e2d
00000100: 06f9 b426 c1a2 802d cd12 3125 7a31 5b2d
00000110: cd12 3125 7a31 5b2d b53c 0c33 3ebe 0133
00000120: 17e4 632d 3fc1 652d 24b3 622d 84d4 632d
00000130: 7800 502d 8795 642d 89a7 672d 455d 6d2d
00000140: eb87 042b 065a ae2c 5377 532d 545d 642d
00000150: 0053 842a c3dd 492c 1701 422d 2ecf 612d
00000160: 37cc 812a 7e09 3d2c 4d0b 402c c930 0f2d
00000170: 469e 8c2a 1928 5b2c e925 db29 ace8 5b2c
00000180: 98b6 7529 6fd6 262c 092c d926 03ee 002c
00000190: 7ca0 3f26 4eca ff2b c3cf f425 4c2a df2b
000001a0: c3cf f425 4c2a df2b de20 2f31 782a 3c31
000001b0: 524b 2836 6b7c 9736 ff59 5936 9d71 9e36
000001c0: 45e9 5736 f6aa a136 f326 8d36 85c2 a836
000001d0: 3cad 8436 5be0 a436 8a49 6436 d51d 9a36
000001e0: c4a5 4f36 51b4 9836 226a 4536 b946 9236
000001f0: 436d 3336 f0f9 9036 5039 5936 c448 9936
00000200: bec9 5536 cd52 9c36 b079 7e36 0d62 9d36
00000210: 80e8 9036 5db1 a836 ccef 8136 9057 9b36
00000220: bd74 8836 49ba a036 b3c2 6a36 a9dd 9836
00000230: b3c2 6a36 a9dd 9836 2861 623e 2430 503e
00000240: adab 6034 9631 cc34 c6c4 8634 9cab c834
00000250: 7b32 9134 bd51 e234 7d6c 9b34 0858 d834
00000260: f563 c134 bbf9 0335 f18e 8f34 8e8d ce34
00000270: a057 c734 6db1 ff34 86bb 9034 bebe d834
00000280: 0661 ae34 2de2 f034 3272 a834 b37b e834
00000290: 4156 bf34 dab3 f634 9096 ea34 18e7 0135
000002a0: c3dd ee34 7818 0135 e8ff f334 3bce 0335
000002b0: b448 ef34 e54a 0335 0872 db34 ed4e 0135
000002c0: 0872 db34 ed4e 0135 5c33 033d 405a e73a
000002d0: 9eb0 3134 e19d c534 39e1 6634 a6f6 d534
000002e0: b471 4534 7e59 be34 22f5 d334 1e33 0235
000002f0: 8fd9 7234 d4aa c034 93fb d034 2809 0035
00000300: a224 4134 d1f5 a734 8b8d ae34 9d61 f634
00000310: f9db 2c34 a5a3 9f34 0e5f cc34 d519 fe34
00000320: c803 5434 d317 b334 cb7e fd34 723c 0735
00000330: 62a0 c334 0eeb ef34 4c3c 0135 0c5d 0835
00000340: 6e4b fe34 0ed7 0535 27ba fb34 b32a 0835
00000350: 27ba fb34 b32a 0835 c1f1 3f3d 6e57 ea3a
00000360: c6d5 2035 bf33 2935 e8cc 2535 1088 2c35
00000370: ff01 d234 36c9 0a35 fb9e 2b35 c0b7 2d35
00000380: 0829 7833 e746 8f34 bd57 2935 4a30 2c35
00000390: 7c5e 9731 1207 3234 23cb 2935 4786 2d35
000003a0: bb75 0531 f0d9 1234 0b9b ee34 ed90 1e35
000003b0: b198 1031 4722 2c34 eed2 0534 73e6 bb34
000003c0: 0bc3 a531 cd44 4934 2a1e a133 e388 7b34
000003d0: 6303 4333 3856 5a34 493a 5633 9f86 5334
000003e0: 493a 5633 9f86 5334 5480 fd38 4e9f 973b
000003f0: 5a28 cb2d cb78 cb2d d9fd c42d 2f2d c52d
1.438079e-07 3.3196912e-07 2.0687382e-07 3.6922154e-07 1.6860537e-07 3.2683738e-07 3.4036694e-07 4.4348826e-07
1.8976787e-07 3.3688968e-07 3.790839e-07 4.4948925e-07 1.685125e-07 2.9792952e-07 3.313393e-07 4.4040002e-07
1.4055014e-07 2.729324e-07 3.8651905e-07 4.5923923e-07 1.484557e-07 2.726485e-07 4.4569066e-07 4.7286304e-07
2.8839045e-07 3.614881e-07 4.1771264e-07 4.5770332e-07 3.5618146e-07 3.9531457e-07 3.5994924e-07 4.372749e-07
3.5994924e-07 4.372749e-07 0.048556 0.003491542 2.0246221e-10 2.0248074e-10 2.039311e-10 2.0414126e-10
9.697216e-11 1.0350772e-10 2.0260474e-10 2.0404774e-10 1.0338248e-12 3.160726e-11 1.9212935e-10 1.9927945e-10
4.8032687e-14 1.6511403e-11 1.6501372e-10 1.9776401e-10 1.8644552e-14 1.6199563e-11 7.750454e-12 7.945691e-11
7.34961e-14 2.5461792e-11 1.413323e-13 2.4973985e-11 1.1159461e-14 2.2585291e-11 7.482515e-15 1.4458111e-11
1.2557507e-15 1.4624192e-11 1.5358673e-16 1.2459695e-11 1.5358673e-16 1.2459695e-11 3.2651503e-08 3.0208177e-08
1.2954102e-11 1.3060052e-11 1.288639e-11 1.2950644e-11 1.1823535e-11 1.2993501e-11 1.316803e-11 1.34926e-11
4.7084445e-13 4.955372e-12 1.2020457e-11 1.29810225e-11 2.3505503e-13 2.868692e-12 1.1027865e-11 1.2835772e-11
2.3056706e-13 2.6863785e-12 2.7291114e-12 8.139441e-12 2.497882e-13 3.114403e-12 9.73213e-14 3.125093e-12
5.4559303e-14 2.3709053e-12 1.5069336e-15 1.8322017e-12 6.6483934e-16 1.8174991e-12 4.2468038e-16 1.5856843e-12
4.2468038e-16 1.5856843e-12 2.5484534e-09 2.7381741e-09 2.5077793e-06 4.514635e-06 3.2387904e-06 4.7219933e-06
3.2173277e-06 4.8180764e-06 4.2066617e-06 5.029435e-06 3.9540737e-06 4.9136993e-06 3.4017453e-06 4.5930306e-06
3.0941892e-06 4.5509446e-06 2.9417065e-06 4.3593723e-06 2.6736677e-06 4.320631e-06 3.236888e-06 4.5682264e-06
3.1856903e-06 4.6588016e-06 3.791978e-06 4.6903792e-06 4.318601e-06 5.027438e-06 3.8724156e-06 4.6295536e-06
4.066706e-06 4.790058e-06 3.4982047e-06 4.5557576e-06 3.4982047e-06 4.5557576e-06 0.22107375 0.20330864
2.0924081e-07 3.803404e-07 2.5102617e-07 3.7377765e-07 2.7045084e-07 4.2155253e-07 2.8949935e-07 4.0297186e-07
3.602178e-07 4.916471e-07 2.673983e-07 3.8473485e-07 3.7130394e-07 4.7626546e-07 2.695853e-07 4.0371918e-07
3.248062e-07 4.4868048e-07 3.1375527e-07 4.330337e-07 3.563928e-07 4.595193e-07 4.3695445e-07 4.839253e-07
4.4492307e-07 4.809185e-07 4.5448473e-07 4.910141e-07 4.4570118e-07 4.891029e-07 4.0874897e-07 4.8171097e-07
4.0874897e-07 4.8171097e-07 0.032031402 0.0017650798 1.6548663e-07 3.6808981e-07 2.1502355e-07 3.9853802e-07
1.838842e-07 3.5455372e-07 3.948017e-07 4.850316e-07 2.2617154e-07 3.588708e-07 3.8926063e-07 4.769704e-07
1.7987853e-07 3.128503e-07 3.2513012e-07 4.5892094e-07 1.6098774e-07 2.9735125e-07 3.8067122e-07 4.7329982e-07
1.9745414e-07 3.3358683e-07 4.7217176e-07 5.037938e-07 3.6438274e-07 4.4688244e-07 4.814399e-07 5.079935e-07
4.736607e-07 4.9859307e-07 4.6887837e-07 5.0726084e-07 4.6887837e-07 5.0726084e-07 0.046861414 0.0017878839
5.9915726e-07 6.3032707e-07 6.176547e-07 6.427299e-07 3.9117e-07 5.1701807e-07 6.393381e-07 6.4714914e-07
5.7779317e-08 2.6687414e-07 6.308508e-07 6.4145263e-07 4.40542e-09 1.6580114e-07 6.325301e-07 6.464292e-07
1.942097e-09 1.3676595e-07 4.4443763e-07 5.907048e-07 2.1041553e-09 1.6031218e-07 1.2463326e-07 3.4999138e-07
4.824306e-09 1.8744613e-07 7.5026335e-08 2.3425996e-07 4.5405056e-08 2.0334198e-07 4.9878768e-08 1.9699881e-07
4.9878768e-08 1.9699881e-07 0.00012087883 0.004627145 2.3096348e-11 2.3132071e-11 2.2395351e-11 2.2416373e-11

exp_avg f4 [128]
00000000: e753 8e38 b016 9bb6 7bce 08b6 8d92 2b39
00000010: 38d7 0239 8dde 3839 649a f738 a491 b635
00000020: 000f b0b6 76fc a5b9 2242 5836 46f1 35b5
00000030: 10ea 7438 4e41 bb36 50ca 42b9 d0a6 dab6
00000040: 87d2 3737 c85c 7238 0e23 48b9 9906 19b6
00000050: 0089 6236 4117 8d37 8925 65b9 09fc e036
00000060: 06f7 21b8 adee ea37 49aa bf38 9196 8537
00000070: eaf5 1ab8 2df3 31b5 4622 2fb8 ffee dd39
00000080: 7225 b3b7 f831 9436 3cfa adb6 5582 de38
00000090: ce59 a9b4 0a62 25b8 f850 8db8 564b a5b7
000000a0: ba3c b6b8 2cb7 98b7 362f 9c39 2350 8537
000000b0: 9e3e 1cb8 ab24 52b9 531b 33b8 c73e 60b6
000000c0: a9f8 cf37 022a 79b7 5f7d b8b7 179a 8a3a
000000d0: c1cd 22b7 8120 1637 5acf 1bb4 f7eb bab9
000000e0: a12c 9d38 13b2 8cba 38a4 1938 82a4 e437
000000f0: 8140 1c39 6fca 55b8 ac94 4eb8 017d cc36
00000100: ec66 b1b5 e950 2d38 c2f7 82b9 add6 c5b9
00000110: 258d 64ba d676 ceb9 dbaa 1db8 5004 6fb7
00000120: 7543 013a 41cd 1b39 cddf c3b9 7cc3 f5b6
00000130: 4331 72b8 b9ff 7737 8813 adb9 621d 27b9
00000140: fb1a 69b8 c928 a3b7 a3f4 e6b7 4673 0e39
00000150: 8d5d 8c39 42ca 5839 bc6f 6238 6832 0bb9
00000160: 86c9 d7b4 0b32 59b5 9c53 1439 1ae4 d137
00000170: 5a91 4cb9 0921 b5b7 e516 9734 e503 ae37
00000180: eda1 32b6 f92d c832 25c6 e0b6 6b85 26b9
00000190: 82ba 5638 d7e3 0f38 66a8 0c39 9464 8fba
000001a0: 4095 64b6 ecc9 9838 5c1f ec38 b362 18b8
000001b0: b681 e738 27a9 18b8 5bdd 7c3a e254 053a
000001c0: 292e c5b8 f4b2 dbb6 8775 5a3a 17a3 6db6
000001d0: 92ed 0739 c463 0539 8020 25b1 8ecc 1639
000001e0: 419f 3b39 6766 7bb8 fbc7 9338 800e 5835
000001f0: 8061 18b9 0aa6 c9b9 b32c de38 d882 2fb8
6.786716e-05 -4.622001e-06 -2.0385767e-06 0.00016362425 0.00012477941 0.00017630514 0.00011806635 1.3602444e-06
-5.246955e-06 -0.0003165935 3.2225003e-06 -6.7778853e-07 5.839212e-05 5.5806368e-06 -0.00018576649 -6.516326e-06
1.0956667e-05 5.7783705e-05 -0.00019086545 -2.2802617e-06 3.3756369e-06 1.6819338e-05 -0.00021853125 6.705061e-06
-3.861545e-05 2.8006116e-05 9.139308e-05 1.5924948e-05 -3.6945486e-05 -6.6291506e-07 -4.175517e-05 0.0004233047
-2.13559e-05 4.416561e-06 -5.184933e-06 0.00010610061 -3.1544045e-07 -3.943037e-05 -6.7384855e-05 -1.9704614e-05
-8.6897475e-05 -1.8205108e-05 0.00029789814 1.5892152e-05 -3.7251615e-05 -0.0002004082 -4.2702373e-05 -3.3415142e-06
2.4792114e-05 -1.4851337e-05 -2.199289e-05 0.0010574487 -9.703858e-06 8.948265e-06 -1.4510934e-07 -0.00035652492
7.494656e-05 -0.0010734223 3.6630983e-05 2.7256323e-05 0.00014901349 -5.097169e-05 -4.925269e-05 6.094226e-06
-1.3217482e-06 4.1321768e-05 -0.00024980126 -0.00037734714 -0.0008718542 -0.00039379922 -3.759084e-05 -1.4246514e-05
0.00049310114 0.00014858415 -0.00037360043 -7.3243264e-06 -5.7743175e-05 1.4781887e-05 -0.00033011683 -0.00015937307
-5.5576656e-05 -1.9450106e-05 -2.7532054e-05 0.00013585118 0.00026772582 0.00020674712 5.398666e-05 -0.00013274851
-4.0193498e-07 -8.091162e-07 0.00014145527 2.502096e-05 -0.00019509104 -2.1592265e-05 2.81426e-07 2.074423e-05
-2.661832e-06 2.330397e-08 -6.6987873e-06 -0.00015880696 5.1195275e-05 3.430605e-05 0.00013414174 -0.0010940009
-3.4061522e-06 7.285536e-05 0.00011259198 -3.6331545e-05 0.00011039099 -3.639716e-05 0.00096460216 0.0005086196
-9.40229e-05 -6.5475415e-06 0.0008333553 -3.5410683e-06 0.00012963105 0.00012721034 -2.4029134e-09 0.00014381317
0.00017893036 -5.9938433e-05 7.0467555e-05 8.048737e-07 -0.00014532171 -0.00038461416 0.00010594111 -4.184511e-05
