results/GoalAgent22/MoveToGoal/MoveToGoal-499994.onnx (onnx, 72639 bytes, 7 tensors)

action_model._continuous_distribution.log_sigma f4 [1, 2]
00000000: 111c cfbd 4828 b5bd
-0.10112775 -0.08845574

action_model._continuous_distribution.mu.bias f4 [2]
00000000: 5795 8fbb 7f1e 0c3d
-0.0043818164 0.03420877

action_model._continuous_distribution.mu.weight f4 [2, 128]
00000000: aaa9 9bbd cf25 d53d baa7 f6bd f9ee c73c
00000010: 74e8 e1bd 2f88 8a3c 1427 26bd 6908 6a3c
00000020: 1cc2 0c3c afee 5fbd 0bad e03d dff7 2d37
00000030: 9d70 483d 18c6 403d 9381 7a3d 29f1 7cbd
00000040: 942b dbbc 57d2 11bb 37ed be3d 356c 7c3d
00000050: 96bd db3c 2b06 dcbc 2820 6b3d 0e39 633d
00000060: 17fe 29bd 7ac6 873c 77f8 593d 6e0d 813c
00000070: 2c26 4cbd e8f9 ba3d 48cf 933c 742e f3bb
00000080: 9c00 833d 9e03 0abd adbb e93b 58b0 f13c
00000090: 92f1 713d b916 0b3e 8ced 013a b34c abbc
000000a0: 0bee 073d 389e fc3d fe2c 123e f6e8 80bd
000000b0: 05b2 0dbd 7db4 54bd 1961 0fbe dc65 f7bc
000000c0: 27b1 9b3d f2ad 89bd e5f4 e73d 2b6b e63d
000000d0: e4d0 34bb 5427 53be a385 3fbc 87b1 d93d
000000e0: dadf b3bc c83f 073d 98cc 2f3d 94ed 813d
000000f0: 15b3 76bd 7a0e edbb f686 b93c ee4f b6bd
00000100: d445 483d 078e a1bc 1c64 10be 1b71 943d
00000110: 9708 d93c 1ec3 10bd 9ce9 123d 68de 2a3d
00000120: 7ee1 b23d 2c78 16be eab5 123e 7eb8 003d
00000130: ca12 9fbd 97b0 853d 25dc 8e3d 4710 d93d
00000140: 8e4f dd3c 8e0e 4b3d 26cb 383d fb6b 2c3c
00000150: 252d 743d 5568 b9bd 53b9 383e 1c23 a7bd
00000160: f327 383d fe96 703d 30a6 22bc 3509 fc3c
00000170: 0b64 adbc f0bf 943d 4316 7ebb 5cde a53c
00000180: 7639 8dbd 9797 cfbd bf41 cabc d633 97bd
00000190: ea23 5f3d d8a2 ec3d 0b98 1f3c d851 143d
000001a0: 4295 ddbc a100 78be 3c6b a0bd ef1c 1b3d
000001b0: c7f8 fbbc 6f34 12bd 06e2 35bd 8548 343d
000001c0: 75d3 f3bd 302d fbbd 59b5 3dbd fbb5 81bd
000001d0: c507 1e3d 38da 573c 4caf fa3d ca2e ffbc
000001e0: 8039 2fbe 1e84 33bd 33b9 1ebd d933 10bd
000001f0: e9ab 10bd 622d cfbc 857d 79bd 5b56 c13d
00000200: 5a2c 1b3d ed8c 80bc 5631 963a 5c2b b93c
00000210: da26 b53d b115 7f3d 3220 3fbd 4d1e 783d
00000220: 31e2 3cbd 21c0 eabc c67a e23d 2dbe 073c
00000230: ea01 043c 61f4 e5bc d875 c43c 8e7c 623c
00000240: 1650 42be 5864 d5bd 680e 17be 6083 413d
00000250: e87b bfbc 1b79 0cbe cc75 a0bd 68f2 3abd
00000260: 8140 7e3d a667 433c c2b6 013d a468 b0bc
00000270: 833d dcbb a5f6 abbd b865 0bbd 212f b03c
00000280: 5d95 46be e8d6 0cbc 89a5 4a3d 3f9b 80bc
00000290: daba 98bd fd6b bc3d 0524 20bd 9c67 00be
000002a0: 9ac0 d93c 3158 883d d573 b0bd 2885 9c3c
000002b0: 9b8f 963c 248a f2bb 7e27 8abc 30e4 ac3d
000002c0: 7823 de3d 0ef4 613d 5208 c73c d8fe bebc
000002d0: 86ec 8d3d 05d7 4d3d 515f 55bd fd5a cabd
000002e0: d0ce 1c3c c75b 3c3d cf26 20bb 3b6d a5bd
000002f0: accb 28bd 4933 443e d9b0 7ebc 47de cc3c
00000300: 5353 20bd 0d0e 5f3d e5f1 bb3d 5ae0 a1bd
00000310: 3943 f83b 3b3e aabd c7c8 d63d 99a6 f2bd
00000320: 3763 c7bc 43e9 1cbe 1751 e0bc d8e6 b5bd
00000330: c0ed b33d 9b5e cfbd 7b0b 79bd 927b 82bd
00000340: 5823 89bd eb34 e4bd 7999 20bc 8f7e 513d
00000350: cf02 6dbd 25cc b73d d73d 8e3c 3c25 b13c
00000360: e2a4 bb3d 9aef 9f3b 0ab2 5f3c d5bc aa3c
00000370: f8d2 e53c c978 14bb 366a 19bd 37b3 a63d
00000380: 0616 b0bd d7b8 cd3c 7bcd 01bc 11ce 253e
00000390: 18bd 4f3c b10c 803c 742a d9bc 89c4 533d
000003a0: 7c21 953d eddc 84bd 1032 bbbd 58d7 de3d
000003b0: 8232 7b3c 15b4 05be 19fa e3bd 0e65 a03d
000003c0: 0747 e2bd 9788 533c 868c 173d 75e5 453d
000003d0: b140 15bd 3d2c 83bc 1da3 c83d ebae 923d
000003e0: bd07 113d 62e7 30be 2eea db3d 317b 86bc
000003f0: b9eb e7bc afc7 c43c 8115 1abc 3c18 8c3c
-0.0760072 0.10407602 -0.1204371 0.024405943 -0.11030665 0.01691064 -0.04056461 0.014284232
0.008591201 -0.054670986 0.10970505 1.03693155e-05 0.04893552 0.047063917 0.061158728 -0.061753426
-0.026754178 -0.0022250616 0.09322589 0.06162663 0.0268238 -0.02685841 0.057403713 0.055474333
-0.041502085 0.016574133 0.05321547 0.015753474 -0.04984109 0.09129697 0.018043175 -0.007421309
0.063966006 -0.033694856 0.0071329684 0.029503033 0.05906827 0.13582887 0.0004956357 -0.020910596
0.033186 0.12334865 0.14274976 -0.06294434 -0.0345936 -0.05192994 -0.14001884 -0.030199938
0.076021485 -0.067226306 0.11326007 0.112509094 -0.0027590329 -0.20620471 -0.011689576 0.10629564
-0.021957327 0.03301981 0.042919725 0.063441426 -0.06022938 -0.0072343918 0.022647362 -0.08901964
0.04889472 -0.019721044 -0.14100689 0.07248136 0.026493354 -0.03534233 0.03586732 0.04171601
0.087344155 -0.1469428 0.14327207 0.031425945 -0.077672556 0.065278225 0.06975583 0.10598808
0.027015474 0.049574427 0.045115612 0.010523791 0.059613366 -0.09053103 0.18039446 -0.081609935
0.044959974 0.058737747 -0.0099273175 0.030766109 -0.021165868 0.07263172 -0.0038770593 0.02024763
-0.068957254 -0.10136335 -0.024689553 -0.07382934 0.05447761 0.115544975 0.00974084 0.036210865
-0.02704871 -0.2421899 -0.07832953 0.03786939 -0.030758275 -0.035694536 -0.044405006 0.044014473
-0.119055666 -0.12264478 -0.046315525 -0.06333538 0.03858163 0.013174586 0.122404665 -0.03115024
-0.17111778 -0.04382717 -0.03875084 -0.035205696 -0.035320196 -0.025290195 -0.06091072 0.09440299
0.037884094 -0.015692199 0.0011458795 0.022603683 0.08845301 0.062276546 -0.046661563 0.060575772
-0.04611415 -0.028656067 0.110585734 0.0082850875 0.008057097 -0.02807063 0.023981974 0.013823641
-0.18975863 -0.1041953 -0.1475159 0.04724443 -0.023374513 -0.13718073 -0.07834968 -0.045641333
0.062073234 0.011926567 0.031668432 -0.021534272 -0.0067212 -0.08396653 -0.034032553 0.021506848
-0.19392915 -0.0085961595 0.049474273 -0.015699027 -0.07457514 0.09200285 -0.03909685 -0.12539524
0.026581097 0.06657446 -0.08615843 0.019106463 0.018379023 -0.0074017216 -0.016864534 0.08441961
0.10846609 0.05516439 0.02429596 -0.023314878 0.06929879 0.050253887 -0.052092854 -0.09880636
0.009570792 0.045985963 -0.0024437194 -0.08077475 -0.04120986 0.19160189 -0.015545093 0.025008334
-0.039141964 0.05445676 0.09176997 -0.0790412 0.007576373 -0.08312651 0.10487514 -0.11848182
-0.024339302 -0.15323357 -0.027382417 -0.088819206 0.087855816 -0.101254664 -0.060801964 -0.063712254
-0.066961944 -0.11142906 -0.009802216 0.051146086 -0.057864007 0.08974484 0.017363472 0.0216242
0.09162308 0.0048808577 0.013653288 0.020841995 0.0280547 -0.0022655001 -0.037454806 0.08139651
-0.08597951 0.025112553 -0.0079225255 0.1619189 0.012679361 0.015631052 -0.026509501 0.051701102
0.07281777 -0.06487451 -0.09140408 0.10880917 0.015331866 -0.13056977 -0.11131687 0.07831775
-0.11048704 0.0129109835 0.036999248 0.04831453 -0.036438648 -0.016012305 0.097967364 0.07162269
0.03540777 -0.17275766 0.107380256 -0.016416164 -0.028310644 0.024020998 -0.009404541 0.0171014

network_body._body_endoder.seq_layers.0.bias f4 [128]
00000000: 7126 9c3e 18e9 f43d 43a7 363c f588 973d
00000010: 3676 2abd d056 543d 9101 0dbd 3300 783d
00000020: 4186 313e c5e4 2b3d ba73 ee3d 2e33 2a3d
00000030: 3e40 1c3d d665 c83d 15ab 143c 94a9 9f3d
00000040: 1b3c 343d 1602 5ebc e33a a13d 9093 7c3d
00000050: 04f2 ca3a 9232 363d add9 2ebd ae24 443c
00000060: db62 41bd 575d ba3d 3c25 8f3d f5ef b33d
00000070: ab08 3c3d a0d7 b43d 0887 f83d a8e6 853d
00000080: 16d7 bc3d 8809 bc3d 2ae8 af3c 7d7f c83d
00000090: a581 c23d 324f babd 0847 973d 52ac e13d
000000a0: a87b bb3d beea a13d d0c8 a33d 1e10 b93c
000000b0: 96c2 543e 57f6 ac3c f2f0 10bd b41b 103d
000000c0: c5b0 15be 3fe9 693d 3c9b 813d 1c43 0ebc
000000d0: 4275 2c3d 2192 be3c 9449 053e d9ca 803d
000000e0: 58a0 6b3d b05a 163d 43b3 c33d 261a 823d
000000f0: 716a c43d 33ec e1bd 3266 0c3d 80af a73d
00000100: 46d0 da3d 9cae 7b3d 9294 543d 0267 883d
00000110: dc5a 1b3d 7217 c43d d4e7 1abe 58f7 ad3d
00000120: 5a89 013d 4fcc 303d b58b d9bc 9058 2a3e
00000130: 8fce 3f3d 671c 22bd 220b 0a3d c7c3 f73c
00000140: b789 e53d 1231 f63b b3fc c73d 4bf9 ec3d
00000150: 354b 32bb 04b6 143d 2da3 393e 8b29 4e3d
00000160: c340 c93d b48f 83bb 7636 d23d 02e5 dc3d
00000170: c99e d43d 3800 b53c 78cb b6bc 3f68 953b
00000180: 1859 983d 1f7f 983d e235 893d 6aee 063e
00000190: 2ae7 da3d 8b9a 453c f0f4 923d 4896 103d
000001a0: a074 323e 7e4c 533c e9a6 003e 13d4 66bd
000001b0: ec2f 523c 506c 36bc 9bc0 c93d ad1c a43d
000001c0: 1163 083e 67b1 ee3d 3979 c83c 6fd0 a83d
000001d0: 34f6 573e 5e63 073e 9462 933d 9e6a 923d
000001e0: f3da 0d3c 3547 74bc b09e 1f3e fda3 aab9
000001f0: 783f a43d 41f9 0b3e a2c6 a23d b27d efbc
0.30498078 0.119585216 0.011148277 0.07399169 -0.04161664 0.051840603 -0.034425322 0.060547065
0.1733637 0.04196622 0.11643167 0.041552715 0.038147204 0.09785049 0.009073992 0.07796016
0.044002634 -0.013550302 0.0787256 0.061664164 0.0015483503 0.04448182 -0.04268806 0.011971636
-0.047213417 0.090998344 0.06989524 0.087860025 0.045906704 0.0883019 0.1213513 0.06538135
0.09220712 0.091815054 0.02147301 0.097899415 0.09497384 -0.090971366 0.07386595 0.110191956
0.09154445 0.07906102 0.07997286 0.022590693 0.20777354 0.021113558 -0.035386033 0.03518267
-0.14618213 0.057107206 0.06328437 -0.008682992 0.042104013 0.023263039 0.13016349 0.0628869
0.057525963 0.03670758 0.09555676 0.06352644 0.095906146 -0.110313796 0.03427715 0.08187771
0.10684256 0.061445817 0.0518995 0.06660272 0.037928447 0.09574784 -0.15127498 0.08494443
0.03162513 0.043163594 -0.026555875 0.16635346 0.04682785 -0.039577868 0.033702023 0.030244721
0.11207908 0.007513174 0.097649954 0.11570986 -0.0027205471 0.036306396 0.18128653 0.050332587
0.098268054 -0.0040149335 0.10264294 0.10785867 0.10381848 0.02209483 -0.022313818 0.0045595462
0.07438868 0.074461214 0.066997305 0.13176885 0.10688622 0.012060772 0.07175624 0.03529957
0.17427301 0.012896655 0.12563671 -0.056354593 0.012828808 -0.011134222 0.0985119 0.08013282
0.13319041 0.116549306 0.024471866 0.082428806 0.21090013 0.132215 0.07196537 0.07149242
0.008658159 -0.014909555 0.15587878 -0.00032547108 0.08019918 0.13669302 0.079480425 -0.02923474

network_body._body_endoder.seq_layers.0.weight f4 [128, 6]
00000000: 000d b5be fa1e d53e 0f75 183e a4b4 b0be
00000010: 3500 363f ee51 263e d932 49be 3145 ddbc
00000020: e004 8fbe 8910 053d e5ea 3a3e ecef a2be
00000030: 0a3b 993e 843d 183f 446c 813e 6e9c d93c
00000040: 4b6f 363e 6f78 5abf f7f7 4ebe f01f 863e
00000050: 4af6 1c3d ce31 433e c5dd 26bf 7699 4abf
00000060: e3d0 493e c7e9 10bf 3f65 723e 8438 5ebd
00000070: abae 0ebe 545a 87be 7516 0e3f 01c6 2fbd
00000080: 0aa7 96be 8728 edbe 2ccd b33e 798c 8dbe
00000090: 2e53 2c3f 3419 c9be c329 913e 708b d13e
000000a0: 60a7 16be c7ec 76be 66ad 183e 8b53 1a3f
000000b0: 2a67 403f 9c26 283d 568d c83e c70b 8d3e
000000c0: b84a 693e 3286 173f afd4 49bf 0722 4abe
000000d0: 32b2 1e3f f7d0 18bf a09c 9d3e 489b 3cbf
000000e0: 69cb c03d 5f47 b9be 82aa 04bd 47f8 25bf
000000f0: 36f4 5cbe d035 49be 164b 55bf bfc9 2b3c
00000100: d48a 08be bea1 87be 79f7 5a3e 2f10 11bf
00000110: f153 16bf bb36 123f 2ddd 063f 815e 37bf
00000120: 5c86 bf3e 7ab8 42be 0860 f93e c025 eabe
00000130: 93f1 6ebe 9edb 883e 9a7b 92be 793a ea3e
00000140: 9139 643e 6300 b1be 51ab e83e ebea a63e
00000150: 268f 95be 604d b63b 785f e8bd 6516 673f
00000160: d275 69be 129b d53e f127 b8be 5867 0dbd
00000170: 5b85 243e cb96 e53d 5416 293e b916 ab3e
00000180: 29a9 1e3f 653b 05be a586 8dbe 94e0 a13e
00000190: 8dfa cfbe b0ca e93e c34c 0d3e 303d 6dbe
000001a0: 5516 61bf f625 253e aa65 a63d ee91 6d3d
000001b0: 5994 e3be 1d0f a4bd 9e49 8f3e db0f 943d
000001c0: e4cf d73e c771 8bbe 10e7 d53e 1ed5 54be
000001d0: 08fc 8dbe c133 5ebe e2ee 4fbe 3669 5fbc
000001e0: 4d6f dabe 9529 6cbe 27dd e43e ce9f e43d
000001f0: a84f 93be f827 8a3e b007 0dbf 751e a13e
00000200: 1fc6 7e3f 0cdc b73e d504 a8bd cd6d ea3e
00000210: 4e15 9b3e f0ed 9bbe 89ea 1bbe d940 99bd
00000220: 95d0 a93d b158 5cbe 0a17 dd3e 7d93 323f
00000230: 9e55 0b3e edc7 323f 2550 903e f05c 263e
00000240: ab30 49bc 3c40 e6be ab34 b6be bfc2 043e
00000250: 6bfc f5bd 410f c93d 8302 723f 0b2f 953e
00000260: 26e7 1e3f a83d 763e 4f6e 523e c145 1f3e
00000270: 849f a73e c52f e33e 79a7 113f bc0e 513e
00000280: 34cf 803f 1dff bbbe a97e 1c3f e2c4 f83d
00000290: 6d93 8a3e 055e 58be 362e 81be f364 65be
000002a0: eec1 e73d 9bab debd 4f84 443f c0ec 353d
000002b0: 3656 483f 9190 cdbe 2804 cdbd 803d e33e
000002c0: 73ff bbbe 83a2 003e 6ca3 e0be ab3a 3e3f
000002d0: 09be 07be f3ba f63e b5a5 8c3d 4a95 643d
000002e0: 7c79 593f ef00 0e3f 96e9 003d 3421 63be
000002f0: 061b 993e 85ff 05bf 79a0 0bbf 94ff 85bd
00000300: fecf c3be 6ea6 623e 0ee2 04bf 334d 223b
00000310: edce 753e 4621 013f 0ee7 86be 763a e43d
00000320: 4a04 753e 59eb 15bf 05fb f5bd 78ac 843e
00000330: 3d21 18be d0c1 e5be d898 223e 626e 87bf
00000340: d086 463d 7f00 213e afd3 da3e dd9f 443f
00000350: cf2a 0b3f 47a6 32bf 2875 233d d2ef bb3e
00000360: 4927 5ebe 7b33 533f 256d c9be b470 083f
00000370: 7eec 70be d4e1 853e 4b04 7bbe f9e4 ba3e
00000380: 79b0 cabe bbe3 a93e 68a2 3ebe ce48 1bbf
00000390: c8f0 d2bd 45b1 6ebe 4c58 da3e 1193 f6be
000003a0: c492 683d 11f6 b83e dd70 1c3f d9f3 3f3e
000003b0: 6d45 27be fee0 61bd 8728 063f 4f48 e63d
000003c0: 734f 733f 4161 fbbe cf60 b23e c958 fd3d
000003d0: 9107 02be 7c6c 01bf efd8 6dbe f86e e8bd
000003e0: dceb cd3e 1467 883e 1c25 083f f1b2 213f
000003f0: 53d9 c1be 97cd c03b 0be8 a23e 8d06 bebc
-0.3536148 0.41625196 0.14888404 -0.34512818 0.71094066 0.16242191 -0.19648303 -0.027010532
-0.27933407 0.032486472 0.18253668 -0.3182367 0.29927856 0.59468865 0.25277913 0.02656385
0.17815892 -0.8534002 -0.20211779 0.2619624 0.038320817 0.19061968 -0.65182143 -0.7914041
0.1970859 -0.56606716 0.23671435 -0.054253116 -0.13933818 -0.26436102 0.55503017 -0.04291344
-0.29424316 -0.46319982 0.3511747 -0.27646235 0.6731442 -0.3927704 0.28352174 0.40926695
-0.14712286 -0.24113761 0.14909896 0.60283726 0.75157416 0.041052446 0.3917033 0.27548048
0.22782409 0.5918914 -0.78840154 -0.19739543 0.61990654 -0.59693855 0.30783558 -0.7367444
0.094137974 -0.36187264 -0.03238917 -0.64831966 -0.21577534 -0.19649434 -0.833177 0.010485112
-0.13334209 -0.26490587 0.21383466 -0.5666532 -0.58721834 0.5711476 0.5268124 -0.71628577
0.37407196 -0.19015685 0.4870608 -0.45731926 -0.23334341 0.26730055 -0.28609926 0.45747736
0.22287585 -0.34570608 0.45443204 0.32601103 -0.29210776 0.005563423 -0.11346334 0.90268546
-0.22798851 0.41719872 -0.35967973 -0.034522384 0.16066496 0.11210402 0.16512424 0.33415774
0.6197687 -0.13010938 -0.27641788 0.31616652 -0.40620843 0.4566245 0.13798814 -0.23167872
-0.879247 0.16127762 0.0812486 0.058000498 -0.44449118 -0.08010695 0.27985853 0.07229587
0.42150795 -0.27235243 0.4177785 -0.20784423 -0.27731347 -0.2169943 -0.2030597 -0.013635924
-0.4266304 -0.23062737 0.44699976 0.11163293 -0.2877171 0.2698362 -0.55089855 0.3146855
0.9952106 0.3591007 -0.08204047 0.45786896 0.30289692 -0.3045497 -0.15226187 -0.07483072
0.08291737 -0.21518208 0.4318164 0.697563 0.13606879 0.6983631 0.28186145 0.1624639
-0.01227967 -0.44970882 -0.35587057 0.12964915 -0.120110355 0.098173626 0.9453508 0.29137453
0.62071455 0.24046957 0.20549892 0.15553953 0.32738888 0.44372383 0.5689617 0.20415777
1.0063233 -0.36718073 0.6113077 0.121469274 0.27065602 -0.21129616 -0.2523057 -0.2240179
0.11316286 -0.10872575 0.76764387 0.044415236 0.7825655 -0.40149358 -0.10010558 0.44382858
-0.3671833 0.12561993 -0.4387468 0.7430827 -0.13256086 0.48189506 0.068675436 0.055806436
0.84950995 0.55470175 0.031472765 -0.22180635 0.2990343 -0.52343017 -0.54541737 -0.06542888
-0.38244623 0.221338 -0.5190743 0.0024765253 0.24004717 0.50441396 -0.26348156 0.11143963
0.23927417 -0.5856224 -0.12010769 0.25912833 -0.1485643 -0.4487443 0.15878618 -1.0580561
0.04846841 0.15722845 0.42739627 0.7680643 0.54362196 -0.6978497 0.03990665 0.36706406
-0.21694674 0.8250043 -0.39341083 0.5329697 -0.23527715 0.26148856 -0.24513356 0.36502817
-0.39587763 0.33181557 -0.1861664 -0.60657966 -0.10299832 -0.2330981 0.4264549 -0.48159078
0.05678059 0.36125234 0.61109716 0.18745364 -0.16335078 -0.05514621 0.5240559 0.112442605
0.95043105 -0.49097636 0.34839484 0.1237045 -0.12698199 -0.5055616 -0.23227285 -0.113492906
0.4021901 0.26641142 0.53181624 0.6316367 -0.37861118 0.005883883 0.3181766 -0.023196483

network_body._body_endoder.seq_layers.2.bias f4 [128]
00000000: 25db a33d a143 5e3c b985 9d3d 852e 9f3d
00000010: afda 2f3e ccb9 103e 32d6 b73b 9643 a83d
00000020: 2c1e 05bd 5bfa dc3c a91d fa3d 37a1 ee3a
00000030: 2faa a03c e64b 603b f640 963d 3fb5 5f3d
00000040: 62e0 9e3d 9d72 aa3d d59c ba3d 5a17 533d
00000050: 9044 dcbb 6357 663d 4a14 da3d d0dd bab9
00000060: c06e dd3d e886 eebb b5da a03d 3a8d 10bb
00000070: fca4 a53c 9acc 293d fa8f e9bc a902 203c
00000080: e020 003e 8202 253d 40ec b73d f3a3 5dbc
00000090: 57ef 263d 8b01 f43d 50fa 50bc 8fbc a73d
000000a0: 9e71 6e3d c1f7 cc3d 6e7c c43d 3bd6 163d
000000b0: b819 443d 4050 413d 1a3e c23d ac3b e73d
000000c0: 1e5c 053e d1b6 9c3d 3f72 a83d 8b69 8c3d
000000d0: 6b13 d43d f558 303e 129e ec3b 1040 f93d
000000e0: 2df9 2d3d b81e 7d3d 7907 dc3c 8edd 983d
000000f0: 0617 203d c499 293e 6ea4 14bc 4a48 9d3d
00000100: 9d03 6abb 49d2 f93c e0a3 223e 3746 2f3d
00000110: 462e 863c f427 ce3d ef22 133e a3fe 6d3d
00000120: 34e5 663d 40f3 f23d f5b5 0d3e 3310 173d
00000130: e927 f13d fffe 3d3d a07e 313d 51f2 863d
00000140: 7eba 413d e102 373d 8e95 ee3c 108d a53d
00000150: a0b7 a93c c007 083e 4901 123e 735d f63c
00000160: 324e f23d 11ce 563d 9548 983c 7fa6 903c
00000170: eb4b 203d 4ef7 ca3c 5255 50bc 16e7 a43d
00000180: 6d2c 253d beba db3d bbdd 573b b489 143e
00000190: ba9a 5d3d f5a8 bc3d 0ad2 4fbc 9fa1 8c3d
000001a0: 4796 0f3e 42eb 1e3e 9015 c33d 73c2 cb3d
000001b0: 286b bb3c abbf 883d c7dd aa3d 8b6d c33d
000001c0: d6bc c43d fc6d be3d 716f 783d fbb5 a83d
000001d0: 5bda 113d 79b9 43bc b7a9 273e 61e3 8d3d
000001e0: ec30 0e3e d9cd f53d 84d4 fc3d fa09 d63c
000001f0: d2a0 153d e639 273d d06d 693d a9c6 493d
0.08000783 0.013565929 0.07691521 0.07772545 0.17173265 0.14133376 0.005610251 0.08216016
-0.032499477 0.026974848 0.122126885 0.0018206005 0.0196124 0.0034224926 0.07336609 0.05461621
0.077576414 0.08322642 0.091119446 0.05153594 -0.0067220405 0.056235682 0.10648401 -0.00035641948
0.108121395 -0.0072792657 0.07854215 -0.0022056834 0.020220272 0.04145489 -0.028511036 0.009766259
0.12512541 0.040285595 0.08980608 -0.013527858 0.040755596 0.11914357 -0.012754992 0.081902616
0.058213823 0.10008193 0.095940456 0.0368254 0.04787609 0.047195673 0.09484501 0.112906784
0.13023421 0.07652057 0.08224916 0.06856068 0.10355266 0.17221434 0.007220992 0.12170422
0.04247396 0.061796874 0.026859032 0.07464133 0.039084457 0.16562563 -0.009072406 0.07679804
-0.003570772 0.03049578 0.15882826 0.04279157 0.016379487 0.10066214 0.14368795 0.05810417
0.05637093 0.118628025 0.13838942 0.036880683 0.117751904 0.04638576 0.04333365 0.06589187
0.047296993 0.04468048 0.029124048 0.08083546 0.020717442 0.13284206 0.14258303 0.030073857
0.11831321 0.052442614 0.018589297 0.017657517 0.0391349 0.024776127 -0.012715654 0.08051889
0.04032557 0.107289776 0.0032938558 0.14505655 0.054102637 0.092119135 -0.012684355 0.06866764
0.1402217 0.15519431 0.09525597 0.099491976 0.022878245 0.06677183 0.08343082 0.09542378
0.0960633 0.092983216 0.060653154 0.08237835 0.03560863 -0.011946076 0.16373335 0.06928135
0.1388585 0.12002153 0.12345222 0.026127804 0.036530323 0.0408267 0.05698949 0.049261723

network_body._body_endoder.seq_layers.2.weight f4 [128, 128]
00000000: 4ed9 e4bd 18a0 d5bc f644 9c3d 3c21 c2bd
00000010: e7c0 f7bc 141d dabd 749a d6bc d716 0e3e
00000020: 5f85 ea3c 100e 8ebc a8ad 883d f63d 313c
00000030: 807d 013d 4c68 ec3d 8e1e 8bbe dcb9 14be
00000040: 4584 b43d 3365 933d fed0 0ebe a15c cf3c
00000050: 7e93 36be 3188 a73d a2ee a23c a774 efbc
00000060: 1df4 3dbd c020 b83d 737d 773b 3f75 afbc
00000070: df74 a43c afee 093c d269 553d 5908 5fbd
00000080: b491 4c3d 8ef8 68bd 30f4 2cbd 1e54 8abc
00000090: 4450 8cbd 7820 a73d 2779 b63d 1cc4 a73d
000000a0: 3cb9 843d 9944 e43d 33b9 37be 2e03 d1bd
000000b0: e9c0 473e 5318 09bd d0a2 01be cdc5 d1bd
000000c0: e0f3 053c e243 3c3e aba0 95bd fcf6 eebc
000000d0: 7be3 f63c a85d 863d 99f3 d6bc cea4 ed3d
000000e0: a40c dcbc 22b3 71bd 2bd9 823d ddb3 8cbd
000000f0: 6387 a93b 781a 0b3d 59e4 683e 77bb 793c
00000100: 03ab d23d af68 533d 92b5 b8bd dc81 b0bd
00000110: c718 49bd 5cd4 9e3d b68d 3d3e 4e49 31bc
00000120: 40e3 55bc 1dfb 883d e01f 9b3d 2fed 223e
00000130: c6b7 04be ac69 a13c 2ca4 8a3b e435 c43d
00000140: 3222 e9bd 9724 bdbc 57af f93d 9b83 303c
00000150: 88e9 ab3d 211d 2cbe 6db9 2e3d d185 54be
00000160: 4742 0c3d 23c3 05be 6256 dfbc eb9d a43d
00000170: 4586 5cbd 532c 8cbd 98b1 c3bd d126 143d
00000180: a64d 143e 4c84 f5bd 263e 3f3b 7772 5b3e
00000190: b34c 043e fed8 40be 5f9b 27bd 64d1 93bd
000001a0: 9286 b9bc a582 1ebb 81de b43d e763 bcbd
000001b0: 78db 213d f8cd 83bc 14ee 063b f421 203d
000001c0: 33cf 3f3e e41b ac3c 01f6 953d 01a4 153e
000001d0: bbc6 09bd e05a 923d 95dd c0bc 278a 273d
000001e0: 5657 81bd f51a aebd 3177 913c ecc1 d9bc
000001f0: face 4c3d 9b1d b63d 4222 abbd 2905 253e
00000200: 679c a73d e698 1abe 016a 413d b8a4 2b3e
00000210: c78a 683d 482b d83b fb93 323d a9c7 1d3e
00000220: a388 13be d21a f03d a443 b33d fed3 03bd
00000230: 8c67 95bd 15b6 7dbd a18d 8fbd 70d4 003e
00000240: 6a4b 58bd 50ee 5d3c cb34 853e 3c3e b3bd
00000250: 0028 61be 8b66 5c3d 7dfa 0d3e 8dfe 8cbc
00000260: 7e58 a33b e6a7 cdbc 52b7 b3bc 4794 3bbe
00000270: b90a 9bbd 9543 09be 3ed7 d5bd b8e1 263d
00000280: e665 bb3c 8147 62bd c0f4 bd3c 61e5 80bd
00000290: a0f6 033d bbe5 8e3d df5b 0ebe 4a2a 9d3d
000002a0: 43ac 8fbd 3bd6 ef3d 4b6f d0bd e5e8 e2bd
000002b0: 0f14 10be 6abe 113b 1381 d03d a286 18be
000002c0: 07cb 75bc dd9f 9ebc dbb9 47bd 1b2e ddbc
000002d0: d339 933c b60e aebc 6b46 20be 72a9 4cbe
000002e0: 6410 be3d b580 b1bd fcb5 12be a82f aa3c
000002f0: b2f9 8dbe 6dd6 79be 3a10 b73c 3c59 473d
00000300: 6623 d83d fa01 34be c6b9 4fbe f348 153d
00000310: 545f f1bd 3bdc 6e3d 9a2f 743d ffd1 f9bc
00000320: 63ae 4abe 5b76 0a3d ea71 883e 7f91 76be
00000330: 9e7e aebd 13c3 14bc be80 8c3d b061 72bd
00000340: f5c7 8e3d 8db8 6e3d d25e 7f3c 7de9 f9bd
00000350: bc74 b5bd 8469 84bd 8730 c93d b815 6b3c
00000360: 0672 9fbb 4d26 bb3c 2368 7ebe 3ecd dabd
00000370: 51aa 54bd e779 9a3d 2cf6 59bd 8693 12bd
00000380: 2311 b3bd 2509 dbbb 6835 4a3d 7e8c 6bbc
00000390: 63de 6e3e 9ef8 0abd 2d4d 523d d305 0b3e
000003a0: e358 70bd e5b4 123d 57fa 49bc 27e2 6dbd
000003b0: 0059 aebd 5c2b 463c b6ac acbd 2d60 36be
000003c0: 83d0 9b3c fea4 fc3d 1a8e 42bd bde8 e5bd
000003d0: 9cc6 41bd ad66 953c 1547 4b3d 8c55 ca3d
000003e0: 6478 013e 1afc a53d 1001 393d fa96 d1bd
000003f0: cabc e1bc 0542 83bd c3ef 2a3d 7ffa eb3d
-0.1117426 -0.026077315 0.07630341 -0.09478995 -0.03024335 -0.106500775 -0.026196696 0.138759
0.02862805 -0.01734069 0.06673747 0.010817995 0.031613827 0.115433306 -0.2717175 -0.14524025
0.08814291 0.071970366 -0.13946912 0.025312724 -0.17829701 0.08180273 0.01988918 -0.029230429
-0.046375383 0.089906216 0.0037763983 -0.021418212 0.02007526 0.008418723 0.05210287 -0.05445132
0.04994364 -0.056877665 -0.042225063 -0.016885813 -0.06851247 0.0816049 0.08909827 0.08191702
0.06480643 0.111458965 -0.17941742 -0.102056846 0.19507183 -0.033470463 -0.12659764 -0.10242806
0.00817582 0.1838527 -0.073060356 -0.029170506 0.030137768 0.06560832 -0.026239203 0.116036996
-0.026861496 -0.059008725 0.06389078 -0.06870244 0.00517361 0.03396079 0.22743358 0.015242449
0.10286524 0.051613506 -0.09019007 -0.08618519 -0.049095895 0.07755348 0.1851109 -0.0108207
-0.013054669 0.06688521 0.07574439 0.15910791 -0.12960729 0.019703709 0.0042309966 0.09580591
-0.11383475 -0.023088736 0.121916465 0.010773565 0.08394152 -0.16807987 0.042657305 -0.20754172
0.034242895 -0.1306272 -0.02726287 0.08037933 -0.053838987 -0.06844392 -0.09555358 0.03616983
0.14482746 -0.11988124 0.002918133 0.21430384 0.12919883 -0.18832776 -0.040919658 -0.072176725
-0.022647176 -0.0024186757 0.08831502 -0.09198742 0.039515942 -0.016089424 0.0020588683 0.03909488
0.18731384 0.021009393 0.07322312 0.14613344 -0.03363679 0.07146239 -0.023543159 0.040903237
-0.06315486 -0.085012354 0.01775703 -0.026581727 0.050002076 0.088923655 -0.083561435 0.1611525
0.08184128 -0.15097389 0.047220234 0.16762054 0.056772973 0.0065969564 0.043598156 0.15408196
-0.14407592 0.117238656 0.08753136 -0.032184593 -0.072951406 -0.061941225 -0.070094354 0.12581038
-0.052806295 0.013545588 0.2601684 -0.08752105 -0.21987915 0.05380873 0.13865085 -0.017211223
0.0049849143 -0.025104474 -0.021938 -0.18318282 -0.075704046 -0.13404687 -0.10441445 0.040742606
0.022875737 -0.055243973 0.023187995 -0.062937506 0.03221762 0.06977411 -0.13902234 0.076740816
-0.07015278 0.11710783 -0.101774774 -0.11079577 -0.14070152 0.002223874 0.10180869 -0.14895108
-0.015002019 -0.019363338 -0.04876123 -0.026999524 0.017971909 -0.02124725 -0.15651862 -0.19986513
0.0928047 -0.08667127 -0.14327234 0.020774677 -0.27729565 -0.24398203 0.022346605 0.048669085
0.10553627 -0.17578879 -0.2028571 0.036446523 -0.117857605 0.058315497 0.05961571 -0.030495642
-0.19793086 0.03380428 0.2664941 -0.2407894 -0.08520244 -0.009079712 0.06860493 -0.059175193
0.069717325 0.05828147 0.015586572 -0.122027375 -0.08860156 -0.06465438 0.09823709 0.01434844
-0.0048658876 0.022845412 -0.24844413 -0.10683678 -0.05192024 0.07542782 -0.053213283 -0.03578522
-0.08743503 -0.0066844397 0.04936734 -0.014376758 0.23327021 -0.033928506 0.05134313 0.1357644
-0.05867852 0.035817046 -0.012327752 -0.058077004 -0.08513069 0.012095299 -0.084313795 -0.17810126
0.019020325 0.12336157 -0.0474988 -0.11226032 -0.04730855 0.018237436 0.049628336 0.09879598
0.12643582 0.08104725 0.04516703 -0.102338746 -0.027555842 -0.064090766 0.04173256 0.11522388
