results/FlappyAgentDificulty1.23/FlappAndSwitch.onnx (onnx, 92844 bytes, 7 tensors)

action_model._continuous_distribution.mu.weight f4 [1, 128]
00000000: 9025 053d 5fc9 f7bb 7257 3539 12dc cdb9
00000010: 05a7 a53b 1d4d c2ba 0257 40ba e4cc bdbb
00000020: b7f8 8fbb 54fc 04bc 1729 cd3c 1881 e4bb
00000030: 896f 0cbc 6e37 4bbc 30de 243b 597e d43a
00000040: 7ed9 2f3d 7e70 453a 458f 14bc 223f 753d
00000050: acac cf3b 5e77 2b3d 3ad8 8b3d 4907 47bb
00000060: 5486 bbbb 5c60 cd3c fab2 423d a68b af3a
00000070: f9de 3e3c 5dcd a4bb 1113 043c 1dfa 16bc
00000080: 09d6 69bc 9ba7 a5bc 9726 94bc d13a 133c
00000090: 1dd5 c0bc 49b3 c53a bc15 103c 8bf7 4e3d
000000a0: 87bd 8dbc 77c8 83bb b742 813c b974 753b
000000b0: 7837 a9bc e15b 6fbc 645a 25bd ec67 32bd
000000c0: 1866 0bbc d620 50bb 3eb3 b73b 2655 c53c
000000d0: c885 b13b 2977 23ba 5fa5 973c c5a6 0dbb
000000e0: a835 34bb ccaa 08bc 6eca b53b b525 403d
000000f0: a94a a5bb f165 4bbd 227a 3dbc cbf2 42bb
00000100: af71 d6bc 8d83 05bb 399f 993b 24dc 293c
00000110: 8f32 a13c 8e26 8bbb 9aae 8bbc a2b2 11bc
00000120: 50f9 123c 81a8 e23b eef6 2d3d f84e e63a
00000130: e3cb 46bc cc5e 1e3c fc24 6bbc efb5 1dbc
00000140: 679c 92bb c63e 4fbc 78a7 46bc 6b1f 783b
00000150: 4376 3a3c 645d d53c 635d 7a3c 92d0 5f3c
00000160: f638 d83c 4fb5 58ba c3da a3bd 4baa c43c
00000170: 65a9 373b df8a 2e3b 9d64 d1ba 449f f2bb
00000180: cbe7 0fbb c2a2 08bd eeb0 54bd dd2b 313c
00000190: 69f1 8fbc d26b 99bc 90fc 9ebb 76be efbc
000001a0: 2046 0a3c fd4b 443b ca9c 033d 187b 073c
000001b0: 2eba 4bbd a3d9 15bc e8f2 0b3d 9ed5 183c
000001c0: 4630 c1bb 62b1 c5bb 29c1 9ebb dfa5 423b
000001d0: 48e5 9bbc 13ca b93b fe96 1fbc 419c b8bc
000001e0: 8216 f539 58dd a53c caf7 4abc 9654 383d
000001f0: bc4e 79bd 0c6f 6bbb ac61 e43b 0ef9 52ba
0.032506526 -0.007561847 0.00017294081 -0.00039264612 0.0050553107 -0.0014824007 -0.0007337184 -0.005792247
-0.004393663 -0.0081168 0.025044007 -0.006973397 -0.008571514 -0.012403352 0.0025156848 0.0016211971
0.042932026 0.0007531716 -0.009067361 0.05987466 0.0063377228 0.041861884 0.06828351 -0.0030369333
-0.0057228003 0.025070362 0.047533967 0.0013393059 0.0116498405 -0.005029364 0.008061186 -0.009214905
-0.014272221 -0.020221522 -0.018084807 0.008986191 -0.02353912 0.0015083338 0.008794244 0.050529044
-0.017302288 -0.0040217 0.015778882 0.0037453605 -0.020656332 -0.014609308 -0.040369406 -0.04355614
-0.008508228 -0.0031757853 0.005606084 0.024088454 0.0054175593 -0.0006235713 0.018511472 -0.0021614295
-0.0027497802 -0.008341502 0.005547813 0.04691096 -0.0050443006 -0.049657766 -0.011564763 -0.0029746767
-0.026177255 -0.00203726 0.0046881703 0.010367427 0.019677429 -0.0042465394 -0.01705103 -0.008892687
0.008970574 0.00691706 0.04247182 0.0017571142 -0.012133571 0.009666156 -0.0143520795 -0.009625896
-0.004474211 -0.012649244 -0.012124889 0.0037860523 0.011380735 0.026045509 0.015281054 0.013660567
0.026394349 -0.0008266763 -0.0800071 0.024006983 0.002802455 0.0026633067 -0.001597542 -0.00740424
-0.0021958228 -0.033358343 -0.051926546 0.0108136805 -0.017571168 -0.01872817 -0.004851885 -0.029265624
0.008439571 0.002995252 0.032131948 0.008269094 -0.0497381 -0.009146127 0.0341672 0.009328274
-0.005895647 -0.0060331086 -0.004844804 0.0029700918 -0.019030228 0.005669841 -0.009740589 -0.022535445
0.0004674681 0.020247146 -0.012388179 0.045002542 -0.060866103 -0.0035924343 0.006969651 -0.00080479763

action_model._discrete_distribution.branches.0.bias f4 [2]
00000000: fb73 223d e973 22bd
0.03966139 -0.03966132

action_model._discrete_distribution.branches.0.weight f4 [2, 128]
00000000: 6bec a23d 6e8e 4e3d 2216 5bbd 1fe7 1cbe
00000010: 51e9 78bd 8102 9bbd 6996 87bd f051 b13d
00000020: bd7c 933c 5ec7 073e 1517 92bd c945 743d
00000030: 4ea7 c33d fb96 503d 02f7 6c3c c68e 333c
00000040: 01d3 35bd 4c36 163d f8d4 0f3e 045c 86bd
00000050: 1b32 58bc 384d aabd b71a bfbc 609c 0ebe
00000060: bc03 de3d 606c 84bd 39ad d8bc 74a3 e93b
00000070: 3365 34bd 0a3e ccbc 1169 1c3e 53e4 72bd
00000080: 8e39 64bc 9368 093c da47 93bd f067 39bd
00000090: d03b 11bd aa49 f13d db15 20bd e868 173e
000000a0: 56bc 84bd 9eca 9abd 2e7b e9ba 152e bbbd
000000b0: 5c6a cabc 58b6 1c3b 3466 85bc af02 e8bc
000000c0: 946d 98bb 0fb3 9b3d 63a0 debd ff35 eabd
000000d0: 42b0 bfbd c30d 8436 b3ea 66bd 8fb9 febd
000000e0: 577a 18bd 9b5f c9bd 2da2 123d e113 3abd
000000f0: 89d6 74bb 44d9 263d 79c1 b4bd 4a20 a9bc
00000100: 771d af3d 9740 f3bd acfe b8ba c313 57bd
00000110: fc38 053e b779 cbbd 3ea5 173e 94e3 073e
00000120: d8bb 5a3a c991 e6bd 1f95 cdbb 7d46 483c
00000130: df4b 373c 3bfc 5f3b 7926 3b3d ac7b 0c3d
00000140: 05e2 203d 991b 753c e33a 76bd f2a4 07be
00000150: 0c1e e03d 89ec 70bd 1745 393a 3f5d fd3b
00000160: 5fa2 29bc 7cdc e13d 5579 30bd e10e 9f3d
00000170: bfa7 aa3a 2319 fa3d e67e debd d6b5 8f3d
00000180: 7586 84bd 1179 293c 7ecd 81bd cbf1 483d
00000190: 46f4 6ebb 1d3d 96bd 87e1 92bd ef36 7f3c
000001a0: 2e6b 023e 610f c1bd caf2 ee3c e1aa 5cbb
000001b0: 6d8a 37bd cff4 8bbb 4360 db3b e0a7 883d
000001c0: a6b1 04bd c862 383d cf88 b1bd e7af 533d
000001d0: 9c1c 2cbd 93f3 e5bd 7755 093b 7bf0 cebd
000001e0: 074a 5f3d eec1 02be 9734 e8bd cec0 04bd
000001f0: e662 3dbd 53fd 9e3c 7a8d a2bb 0086 c8bd
00000200: 8e63 babd 4107 61bd 4b18 093d 9407 203e
00000210: 48ba 683d 2a2b b33d 7553 8e3d c51b a8bd
00000220: 3702 12bc a161 02be 293c a23d 6e87 64bd
00000230: 68da 9fbd 4c13 3dbd f5a3 92bc bb28 be3a
00000240: 6b8e 793d 1ae7 4fbd b6ea 0ebe 7cb7 ab3d
00000250: 91b3 813c 7d08 a33d 7e88 143d fa5d 063e
00000260: 290d c9bd 43b1 a13d 8a97 813c 5ad1 163b
00000270: 6718 183d 6386 b33c 260f 12be 39d2 1d3d
00000280: 92df 733c 7f2c 68bb 9631 7c3d da76 fa3c
00000290: e323 ec3c 8273 c6bd 695d 6b3d 1757 1abe
000002a0: d82d 8a3d 1631 733d 919a fc3a 13ea e13d
000002b0: 4523 bf3c e548 01bc 0743 383c 2e50 1a3d
000002c0: 10e4 4a38 f9b0 6fbd c3e9 f93d 9215 133e
000002d0: c80d c73d b9cb 6bbc 894d 563d 6bfd f93d
000002e0: 3e72 2c3d a591 b43d 7162 3ebd 776e 643d
000002f0: 6891 56bc 5fb7 27bd 44ea c13d 0f3f 773c
00000300: 583b 8dbd 928c 043e 3f07 493c 05bb 903d
00000310: 160c d8bd 6509 cf3d 4b50 1fbe 9577 0bbe
00000320: 1e5d 5ebc 9480 013e 274b 0d3c f157 a9bc
00000330: fdce 02bc d381 05bc b1e9 26bd 29f8 19bd
00000340: 5ae1 39bd 43c9 03bd 960f 933d 2a69 153e
00000350: 3c78 ecbd 0099 703d 50d8 253b 01a8 553c
00000360: f247 dd3c 755f 09be 79ab 5f3d ac16 87bd
00000370: 4b0b 723a 631f ebbd 9b18 ac3d 90f2 c8bd
00000380: 44d3 a93d 9587 4bbc 9071 513d dbc6 93bd
00000390: 3108 ad3c f7b2 923d e54a 943d 71fc 37bc
000003a0: f64c 08be 93e6 b23d db58 03bd a76a 04bc
000003b0: 14bc 273d 3132 30bb c46b 3ebc 38dc 5cbd
000003c0: 587e 533d 7acc 43bd 09ba a63d 4793 68bd
000003d0: 207b bb3c 8909 063e 6656 703c 46c9 c43d
000003e0: beca 52bd 6af8 0b3e a57a d93d eadb 073d
000003f0: c298 903d 91d9 acbc 804f 923b bcd3 ce3d
0.079552494 0.0504288 -0.053487904 -0.1532254 -0.060769383 -0.07568837 -0.06620485 0.086582065
0.018003816 0.13259646 -0.07133309 0.059636865 0.09553395 0.050925236 0.014463188 0.010959333
-0.044390682 0.036672875 0.14046085 -0.06560519 -0.01319554 -0.083155096 -0.023328168 -0.1392684
0.10840556 -0.064659834 -0.026449786 0.007130081 -0.044041824 -0.024931926 0.15274455 -0.05929978
-0.013929738 0.008386749 -0.07191439 -0.04526514 -0.035457432 0.117816284 -0.039083343 0.14786112
-0.06481235 -0.075581774 -0.00178132 -0.09139649 -0.02470892 0.0023912396 -0.016284086 -0.028321592
-0.0046517346 0.07602512 -0.10870435 -0.1143608 -0.093597904 3.9355086e-06 -0.05637617 -0.12437736
-0.037226047 -0.098326884 0.035799194 -0.045429114 -0.0037359318 0.040734544 -0.088259645 -0.02064528
0.08550542 -0.11877554 -0.0014113984 -0.05250908 0.13010019 -0.09935325 0.14809129 0.13270408
0.0008344031 -0.11258275 -0.00627388 0.012223837 0.011187523 0.003417744 0.045690987 0.03429763
0.03927805 0.014960193 -0.060114753 -0.13246515 0.10943231 -0.058819328 0.0007067485 0.007732063
-0.010353654 0.11028382 -0.04308446 0.0776651 0.0013019963 0.12211826 -0.10864048 0.07017104
-0.06470958 0.010343806 -0.06338023 0.049058717 -0.0036461516 -0.07335875 -0.07171922 0.015577062
0.12736198 -0.094267614 0.029168505 -0.0033671188 -0.044809747 -0.004271127 0.006694825 0.066726446
-0.03239598 0.04501608 -0.08668672 0.051681425 -0.04201947 -0.11228099 0.0020955482 -0.10104462
0.054513957 -0.12769291 -0.11338156 -0.032410435 -0.046236895 0.019407904 -0.004960713 -0.097911835
-0.0910102 -0.05493856 0.033470433 0.15627891 0.056818277 0.08748467 0.06949512 -0.082084216
-0.008911661 -0.12732555 0.07921631 -0.05579322 -0.078053296 -0.04616098 -0.017900446 0.0014507988
0.060926836 -0.050757505 -0.13956723 0.08384606 0.015832694 0.079606034 0.03626298 0.13121787
-0.09816963 0.07895138 0.01581933 0.0023012967 0.037132647 0.021914667 -0.14263591 0.038530562
0.014884846 -0.0035426912 0.061570726 0.030574251 0.028825706 -0.0969 0.05746213 -0.15072285
0.06747025 0.059372984 0.0019272139 0.11030974 0.023332248 -0.007890915 0.011246449 0.03767412
4.8372953e-05 -0.058518384 0.1220279 0.14363697 0.097194254 -0.014391833 0.052320037 0.12206539
0.042101137 0.08816842 -0.0464806 0.05576941 -0.013096191 -0.04094636 0.09468511 0.015090718
-0.068960845 0.12944248 0.012269794 0.07066921 -0.1054918 0.10109214 -0.15557973 -0.13619836
-0.013572006 0.12646705 0.008623875 -0.020671817 -0.00798392 -0.008148628 -0.04075021 -0.03759018
-0.045380928 -0.03217436 0.07180707 0.14590898 -0.115463704 0.058739662 0.0025305934 0.0130405435
0.027011845 -0.1341532 0.05460689 -0.06596121 0.000923325 -0.11480596 0.084031306 -0.0981189
0.08292249 -0.012422462 0.051133692 -0.07215663 0.02112207 0.07163041 0.072408475 -0.01122962
-0.13310608 0.08735385 -0.03206716 -0.0080820685 0.04095085 -0.0026885385 -0.011622373 -0.053920954
0.051634163 -0.047802426 0.08140952 -0.05678108 0.022885859 0.13089575 0.0146690365 0.09608702
-0.05146288 0.13668981 0.10619096 0.03316871 0.07060386 -0.021099837 0.0044650435 0.10098979

network_body._body_endoder.seq_layers.0.bias f4 [128]
00000000: 23a2 3ebd 263c 4a3d 95e3 5f3c 800a b33c
00000010: e390 7dbc 6ad3 9639 c49d c13b 67bb 25bc
00000020: 3696 07bd 193f b13c 02cb b6bc c1da c4ba
00000030: 69c7 03bd 84d0 f3bc ab31 ff3c 6c9c 023d
00000040: 50dc 753d d0cf 38bd 4f9a 1a3c f655 17bd
00000050: e062 4ebd 1c03 2f3d 5ea7 7b3d 3d3c b73c
00000060: 8071 6b3c f21e e03b d15b 86bc a99c 3cbc
00000070: da15 8c3c 6bcc 29bd bd55 34bc ef68 27bd
00000080: f696 fcbc f67b 27bb 2525 d3bc 58c9 a03b
00000090: 4d88 1a3b 79b0 2fbd caf6 30bc 2aed 51bd
000000a0: 749c 583c 2c15 bebc 1802 233d ded6 823b
000000b0: acc0 423d a322 de3a 48df 75bc 47fa 923c
000000c0: c6ab 0ebd 213d 0b3d 4a10 a53c 7492 92bc
000000d0: 01db 6a3d 10ad 883c 61c9 d5bc 4243 383d
000000e0: 3f71 74bc 06b4 813d 053b c63b fc08 fa3c
000000f0: ae32 0f3d 78d2 7abc 7a9c 073d 55e9 0c3d
00000100: 0bc1 a43d 2749 163d 753b 413d 9892 e03b
00000110: f033 313d 8d36 083d 1356 71bb 36fe e53c
00000120: 8439 c9bc 6439 02bd a63e 82bd 88ba 96bd
00000130: 324c 0d3d 006c d63b 77f0 6b3c 21b8 0dbd
00000140: 32e3 b23c 4632 13bd ad76 6039 8be9 70bc
00000150: ec80 b13c e90a c13d 314e e63b 5cf4 c83c
00000160: 9749 933c a448 8abc 2b29 75bd 4491 d9bb
00000170: 98e1 4a3c 053b 5f3c 642e 30bd ef69 263d
00000180: f118 d63c ca08 a73c d544 d6bc dd89 973b
00000190: 0c72 413d 7db4 393c d8fa 2ebc 563a 863a
000001a0: 1023 123d bdb8 ac3b 0713 8dbc db2c 0a3d
000001b0: 5c5c 15bd 47ec b8bc 9500 563c 3651 a63a
000001c0: 19fd fcbc e9b2 27bc c859 683c 2447 763b
000001d0: a452 92bc dd84 2cbd 13f9 413c 2ac8 eebb
000001e0: c80a 2e3d 0f9d d03d bc66 7abb 876d 203d
000001f0: 4b88 823c 4af1 173d 0041 933d fb8f 813d
-0.046541344 0.04937377 0.0136651 0.021855593 -0.015476438 0.00028767745 0.0059086997 -0.010115481
-0.033102237 0.021636533 -0.022313599 -0.0015018807 -0.032172594 -0.029762514 0.031151613 0.031887457
0.06002456 -0.04512006 0.009436204 -0.036947213 -0.050387263 0.042727575 0.06143891 0.022367591
0.014370322 0.0068396265 -0.016401203 -0.01151196 0.017100263 -0.041454714 -0.01100677 -0.040871557
-0.030833703 -0.0025556064 -0.025774548 0.0049068145 0.0023579777 -0.042892907 -0.010801027 -0.051251568
0.013220895 -0.023203455 0.03979692 0.0039928993 0.047547027 0.0016947578 -0.015006848 0.017941607
-0.034831785 0.033993844 0.020149369 -0.0178921 0.057337765 0.016684085 -0.026097002 0.044986017
-0.014919578 0.06333165 0.006049516 0.030521862 0.03496044 -0.015308969 0.033108212 0.03440221
0.080446325 0.036690857 0.047175843 0.006853413 0.043262422 0.03325515 -0.0036824986 0.028075319
-0.024563558 -0.031793013 -0.063596055 -0.07359797 0.034496494 0.0065436363 0.014400593 -0.034599427
0.02183685 -0.035936616 0.00021406515 -0.0147041185 0.02166792 0.09425909 0.007028364 0.024530582
0.017979426 -0.01688034 -0.059853714 -0.0066396315 0.012382887 0.013624911 -0.04301299 0.04062837
0.02613494 0.020389933 -0.026155869 0.004624589 0.047227904 0.011334536 -0.010679923 0.0010240774
0.03567797 0.005271046 -0.017220987 0.033734184 -0.036465034 -0.022573603 0.013061662 0.0012688998
-0.030882405 -0.010235527 0.014181562 0.0037579024 -0.017861672 -0.042118896 0.011839169 -0.007287045
0.04249075 0.101862065 -0.0038208207 0.039166953 0.01593413 0.037095346 0.07190132 0.0632629

network_body._body_endoder.seq_layers.0.weight f4 [128, 42]
00000000: 67e2 df3d 2c13 913e 9330 05be 0ade 2a3e
00000010: 91c2 9f3e 5903 aebc ed9c 13be 3005 13be
00000020: 6b35 1a3d 1abd 6dbd 897f 093e 261c c8bc
00000030: 2cb5 b53d 22d4 8fbc c9f5 5f3d 4bea e3bd
00000040: 04e8 503e e454 aabe 0cd9 09be cd9d 013e
00000050: 1392 4d3e 36be 93be 864a 023e 5bd4 ddbd
00000060: 9e86 c4be e653 793e dd54 b53e f478 d1be
00000070: 82d6 42be 858c 823e 4aa8 f1bc 3837 1fbe
00000080: 21f8 40be 4987 e0be 4042 c33e 70a4 38bc
00000090: 151a 94be 539e 32be 697e 81be 97ba b73d
000000a0: 556c 903c b43d b33e 2f73 92bd 6096 993d
000000b0: 6ee9 56be c6fc 833e db58 05be 297c 08bd
000000c0: 0384 a4bd 71d0 b0bb 16a1 5e3c c619 933b
000000d0: 263b 4ebc d631 7abd 158d 8a3d 57a7 40be
000000e0: 73a0 c2bd 9543 5ebe 71ce af3e 642a 1a3e
000000f0: ecfb 3d3e d881 2f3e 222c 78bd f6fc 243e
00000100: ceff e53d e889 373e 2330 223b 641c b0bd
00000110: f1c5 c6be a2c8 2d3d a35d 873d 2361 9c3e
00000120: ccde 1e3e 8d3e e13d 4477 663d e47e ae3e
00000130: d105 fabd 82e5 c03d f11f 62bd 8789 58be
00000140: de04 fb3d fd54 033e 6c39 0bbd cf26 883e
00000150: 3e60 3bbe 58e3 c23d bb49 48be 7773 85be
00000160: f0bd 26bd 3d5e 46be 793a 0abe 5b17 833d
00000170: 5f06 85bd fd1a c33d 0a93 93be ebe2 c5bd
00000180: c47b debe 4790 be3d a4d5 8fbd b8fb 9a3d
00000190: c8a8 a93d eae0 8cbe eb80 41bd e7a7 693d
000001a0: 044b c9bd 3a50 ea3c eb52 c0bd 00ba a2bd
000001b0: 18d7 7abe 4c8e e8b9 5aaf 31be 8033 a9bd
000001c0: 8e23 e5be a8e6 22be 30dd d9bd cab2 8f3d
000001d0: 7e8a d1be 8a8f d3bd 2a2d 893c 6972 98bd
000001e0: 4a3d 163e 93a1 8abe 86fb a2bd 083c 333e
000001f0: a2b3 b63e 5af3 6e3d a4b4 273e 103e 77bd
00000200: 8b54 b5bc 5672 a5bc 1d85 78be 37b2 8e3e
00000210: 5244 3a3e 7473 7bbd f495 6fbe e588 223b
00000220: b0f3 6d3d 17f3 5dbe 9a9a abbe 683e 063e
00000230: 23ad 2fbc be9a c0bd 4319 3a3e 6a73 6c3e
00000240: ca94 adbd 77e5 99bd 0f9c acbd b977 8c3e
00000250: 1089 7a3e 44a4 adbd 9431 95bc ad56 00be
00000260: 51f0 c73c debb d7bd c340 443c f834 153c
00000270: a406 febd 4873 ea3c 5b4d 5e3e 8138 da3d
00000280: 3cba d33c 5743 cebd 3cee 843d e56d 033e
00000290: 6dfe a6bd fd49 4bbd 2787 4bbd eea0 c43d
000002a0: 60ff a73b 17c2 a4be ea15 85bd 7326 a83d
000002b0: 776d 413b dbd0 913e a2ab c23e 8f8f 1abe
000002c0: fed0 e9bd eaa8 663e ee6c 1dbe 116f 913d
000002d0: e144 b6bd 264a 2dbe c40e 543e 0d76 b3bd
000002e0: f345 9ebb 814c 173e 5cab 37be 7e85 17be
000002f0: a99a 0cbc 396e a53e 9387 bc3d 17bd 67bd
00000300: 815a 94bd a093 223e b3a8 e83d a387 a4bd
00000310: ddff a53d e838 9dbe 74c2 243e 47cc 053e
00000320: 6314 00be ca0a 8e3e 537d 3dbd 0a3a a73d
00000330: 3355 95bd 9dac fc3d 37c8 a93e e174 2c3d
00000340: d167 2ebe 153a b1bd f8e1 e53d 30ad b2bd
00000350: 189f 38be a061 c53d d3d2 aa3d 8cf9 88be
00000360: aea3 d23d db46 563e 7a85 cdbd c3d1 22be
00000370: d455 093e 168b 14bc 5690 bfbb 7657 853d
00000380: e81e 94be bd47 cbba b8b5 4dbe 10b4 f43d
00000390: 8bee 603d ec39 fabb da4a e3bd 21f7 023e
000003a0: a46c 8b3d 37b7 88bd a68a 7dbc 2c5f a03e
000003b0: 88ed 213e a5f9 38bd 60ad 8c3e 3c4a 623e
000003c0: 4ddc 093e a21a 893d 245e 58be f108 4d3e
000003d0: c69e 883d ef78 8b3d e3ef b4bd cb15 c23d
000003e0: 29a4 d0bc 4a30 6abd 2514 d83d e1fe b5bd
000003f0: f17b a8bd 3fa6 a8be 75bf a33e 8416 37be
0.10931855 0.2833494 -0.13006811 0.16686264 0.3120313 -0.02124183 -0.14415331 -0.14357448
0.0376486 -0.05804167 0.13427557 -0.024427485 0.088724464 -0.017557207 0.05467776 -0.11128672
0.20401007 -0.3326789 -0.13461703 0.12657852 0.20075254 -0.28856057 0.12723741 -0.10831519
-0.38383955 0.24348411 0.35416308 -0.40912592 -0.1902714 0.25497833 -0.029499192 -0.15548408
-0.18844654 -0.43853214 0.38136482 -0.011269674 -0.2892615 -0.17443208 -0.25291756 0.08971136
0.017629782 0.35008013 -0.07150876 0.07499385 -0.20987484 0.25778788 -0.13022177 -0.033321533
-0.08032992 -0.005395942 0.013588211 0.0044891564 -0.012587344 -0.061082684 0.067651905 -0.18813835
-0.095032595 -0.21705468 0.3433719 0.15055233 0.18553132 0.17139375 -0.060588963 0.16112122
0.112304315 0.17923701 0.002474793 -0.08599165 -0.38822892 0.042427666 0.06609657 0.3054286
0.15514678 0.10998259 0.056266084 0.34081185 -0.12208141 0.09418775 -0.055206243 -0.21146213
0.12256788 0.12825389 -0.03399031 0.2659211 -0.18298432 0.09516019 -0.19559376 -0.26064655
-0.040708482 -0.19371887 -0.13498868 0.06400939 -0.06495356 0.09526632 -0.2882312 -0.09662422
-0.434538 0.093048625 -0.070231706 0.07567543 0.082841456 -0.27515346 -0.047242086 0.05704489
-0.09828761 0.028602708 -0.09390815 -0.07945633 -0.24496114 -0.00044356508 -0.17352048 -0.08261776
-0.4475369 -0.15908301 -0.10637891 0.07016523 -0.40925974 -0.10330112 0.016745169 -0.07443697
0.14671817 -0.27076396 -0.079581305 0.17503369 0.35683924 0.058337547 0.16377503 -0.06036192
-0.02213504 -0.020196121 -0.24269529 0.27870342 0.18190125 -0.0613894 -0.23397046 0.0024800834
0.058093727 -0.21674763 -0.3351639 0.13109744 -0.010722431 -0.09404515 0.18173699 0.23090902
-0.08475645 -0.0751447 -0.08428203 0.2743509 0.24466348 -0.08478597 -0.018212117 -0.12533064
0.024406584 -0.1053388 0.011978331 0.009106867 -0.1240361 0.028619424 0.21709196 0.106553085
0.02584564 -0.10071438 0.06490752 0.1283489 -0.081539966 -0.049631108 -0.04968944 0.096010074
0.0051268786 -0.3217933 -0.064983204 0.082104586 0.002951471 0.28479657 0.3802157 -0.15093826
-0.11416815 0.22525373 -0.15373585 0.07101262 -0.08899856 -0.16922817 0.20708758 -0.08762751
-0.004830116 0.14775278 -0.17936462 -0.14797017 -0.008581796 0.32310656 0.09205546 -0.056576815
-0.07243825 0.15876627 0.11360302 -0.08033683 0.08105443 -0.3070748 0.16089803 0.13066207
-0.12507777 0.27742606 -0.046262097 0.08165367 -0.07291641 0.12337611 0.33160564 0.042103652
-0.1703179 -0.086536564 0.11224741 -0.08724439 -0.1802944 0.09637761 0.08340993 -0.2675289
0.10285126 0.20925467 -0.10035224 -0.1590033 0.13411647 -0.009066364 -0.0058460636 0.065108225
-0.2892983 -0.001550905 -0.20088851 0.11948407 0.054914992 -0.0076362994 -0.11098261 0.12789585
0.06807831 -0.066755705 -0.015474951 0.3132261 0.15813267 -0.045159955 0.27476025 0.2209863
0.13462944 0.06694533 -0.21129662 0.20022942 0.06670909 0.068101756 -0.08834817 0.09476813
-0.025468903 -0.05717496 0.10550717 -0.08886505 -0.08226765 -0.32939336 0.31982008 -0.17879683

network_body._body_endoder.seq_layers.2.bias f4 [128]
00000000: 7c00 a23c 2963 373d 750e 16bd 71f4 b23c
00000010: fda9 dcbc 476a 6bbc b105 ccbc ecfd 7b3d
00000020: e369 77bc 385b 833d 3ee9 673b 3756 0d3d
00000030: 640b 503d 0c8f ac3c 1cc6 1f3c 48f2 babc
00000040: aa7d 5a3b 4d76 313d 6cfa 7b3d 68cf 88bc
00000050: 22dc 6bbd cd16 173c e487 5a3c ba41 d4bc
00000060: e9c8 6f3d 60dd d2bc df1d 5fbb c9e7 65bc
00000070: 2c3d a1bc 7443 34bd 007a 5c3d 1e28 16bd
00000080: 22cc aebc 2301 823c b785 0eba 3703 d1bc
00000090: ee88 b9b9 8f65 443d fc7c a9bc d5f8 1b3d
000000a0: b174 c8bc c181 ceba 1e85 08bd f88a d9bc
000000b0: 17d6 5cbc 8cd9 4bbc 6610 4f3c 8f34 fa3b
000000c0: 831f a0bc 7dc3 273d 1865 56bc 3016 263d
000000d0: a7f1 24bc b253 06bc 00dc febc a544 04bc
000000e0: c20e 19bd 7ee0 8ebb eebf 073a 98a7 e4bc
000000f0: 977d 81bc 2277 163c 56a6 ef3b 712e 50bc
00000100: ae67 643d edc7 683c c7c6 f1bc c423 9fbc
00000110: b2d9 b73d 63dd 653c e2c7 a93d b270 5a3d
00000120: 534a ddbc a53d b3bc 8bd7 44bb 6ec6 fb3a
00000130: 45de 2dba c374 e6bc 6c00 053d da82 db3c
00000140: 8b7a b73c cd64 173d 2758 37bc 7eaf 033d
00000150: b076 223d b217 65bc 672e f2bb b834 8bbd
00000160: 8fb0 0abd de98 543d 93b4 4e3c 0529 6b3c
00000170: c7bc fbbc 05ba 673d dbc7 66bc f9ba 5c3d
00000180: aed0 09bd 4f2f 163c 1581 bf3c 793f 063d
00000190: c963 8639 f4cb 18bc 272d 813c 7153 1e3c
000001a0: a625 9c3d 6840 043b 9ddd 2ab9 56d2 e6bc
000001b0: 4205 513c f4ba 0abd f260 1e3b c987 c93a
000001c0: e612 81bc 040e 1c3d 8b41 b1bc 8831 b63c
000001d0: b66c f6ba 677b da3c 3b1d 22bc 2bae 923c
000001e0: 7954 8a3c 6353 073c 2834 71bc 330d 913c
000001f0: 98ae 6e3c 3db7 723c 9fd7 bfbc d8d9 30bb
0.019775622 0.0447723 -0.03663488 0.021845074 -0.026936525 -0.0143686 -0.024905058 0.061521456
-0.015100929 0.06413883 0.0035386826 0.03450605 0.050792113 0.021064304 0.009751823 -0.022820607
0.0033339062 0.04332571 0.061518118 -0.016700462 -0.057582982 0.009221745 0.013338063 -0.025910247
0.058541212 -0.025740325 -0.0034044904 -0.014032313 -0.01968249 -0.04400964 0.053827286 -0.036659352
-0.021337572 0.015869683 -0.0005436795 -0.025514228 -0.0003538797 0.047948416 -0.02068948 0.0380791
-0.024469705 -0.0015755222 -0.033330075 -0.026555523 -0.013478777 -0.012442004 0.012638187 0.00763566
-0.019546276 0.040957917 -0.013085626 0.040548503 -0.01006738 -0.008198665 -0.031110764 -0.008073007
-0.03736759 -0.0043602576 0.0005178441 -0.027911946 -0.015806956 0.009183677 0.00731353 -0.012706385
0.05576294 0.014207822 -0.02951373 -0.019426234 0.08977069 0.0140298335 0.08290078 0.05333013
-0.02701298 -0.02187998 -0.00300357 0.0019208917 -0.0006632547 -0.028131848 0.032471105 0.026795793
0.0223973 0.036961365 -0.011190451 0.032149784 0.03966397 -0.0139827 -0.0073907855 -0.06797165
-0.033859786 0.051903598 0.012616294 0.014353042 -0.030729664 0.056573886 -0.014085735 0.05388925
-0.033646278 0.009166553 0.02337698 0.032775376 0.00025632817 -0.00932597 0.0157686 0.009663449
0.07624368 0.002017999 -0.00016295021 -0.028176468 0.012757601 -0.0338697 0.002416667 0.001537555
-0.015756082 0.038099304 -0.021637699 0.022240415 -0.0018800709 0.026670171 -0.009894664 0.017905315
0.016885983 0.008259627 -0.014721908 0.01770649 0.014567994 0.014814195 -0.023418246 -0.0026985314

network_body._body_endoder.seq_layers.2.weight f4 [128, 128]
00000000: f9b5 1538 78a6 16be e8b9 243e 61f6 0dbd
00000010: d5e0 5c3c 1b3b 80bd fc52 063e a583 a53d
00000020: 4dae eb3b 270d babd fee3 ecbd 2bf0 8d3c
00000030: 7e67 42be 0e41 ec3c 1c95 84bd 2994 0ebe
00000040: 751e 04bc 52b3 90bd 3ed4 04bc 7be8 e1bd
00000050: 4da7 a73c 5d48 1dbd 630a 713e 02e7 5abd
00000060: f344 12bd e56a da3d 1504 34bc 913f 3b3e
00000070: 9629 aebd 26e5 00be 8aeb d4bd e1d7 073d
00000080: 8d07 543e 45c6 5dbd 0c25 0d3d 7cd9 a8bc
00000090: efc4 663b 9cac 303d f6ab a6ba e1be 17be
000000a0: 1048 923d 6ec4 3dbe 5cf3 1f3d 751d cf3b
000000b0: 7416 733e 38cc 7ebd cb5e f9bd 6bd4 2f3e
000000c0: f528 dbbc d2bc a03d 271c c03d fcac 043d
000000d0: 8db8 763e 0414 4bbc 4b64 673c 9b26 6d3d
000000e0: 748c c43c 545a bebc 9992 fe3c d436 113d
000000f0: e90c 13bd e1de 96bd 4fe6 d4bd aee2 aebd
00000100: 0232 173e 658e 23be d835 143e 675f 90bd
00000110: 2310 5a3d 07f1 453d 0f51 edbd e4cf f3bd
00000120: 2c5a be3d ee5f 99bd 6490 88bd f8a4 ca3d
00000130: b3dd c53c 35cc 2f3d dbe9 b03d ea79 0f3d
00000140: e07a c339 df26 43be bde5 46be 39bc 49bd
00000150: fa54 fc3d d0ae a9bc 5923 6ebd 6a30 01bd
00000160: 0892 cabd 57dd 163e 2ad1 c9bc d9ff 223b
00000170: 453e d6bb 293e b1bd 8a5d d73c b9b5 09bd
00000180: be98 9d3d b5b1 3c3d 48b9 213d 6bf1 a7bd
00000190: cd7c 4a3a 1e5a 063d 0fe4 323d b03d d9bd
000001a0: d07c e23d 1824 853c a172 bf3d 4396 4d3e
000001b0: 2e03 99bc 2e6c 41be 089e e43b 904a e2bc
000001c0: 9a4f 36be c00b d539 d391 953c dd69 3bbb
000001d0: ba0e 19be 1fb5 45bd 0918 1ebd d09a 933c
000001e0: f3fb a33d 005a cd3d 36d9 083d b470 7fbc
000001f0: 89fc bcbc 8425 95bd 88eb 08bd 9f20 af3d
00000200: 6d8f e5bc 8f80 723d a140 853d 53f4 da3d
00000210: 1614 843d b1b8 d73c 7c23 7ebd 0f41 e03d
00000220: a227 09be 7d59 9e3d 2ff4 67bb e975 96bd
00000230: ceec 833d 98d3 42bd ad8a 8dbd ddf3 0abd
00000240: 4033 473c ddfe 9cbc fd8d b13c 625f ebbd
00000250: bf5a e0bd 2547 2c3d 9d48 2b3e 35dd 29bb
00000260: 9dd5 a6bb 3d6e d53d 9da7 263d 264b d2bd
00000270: 5939 a4bd 60a5 e7bd 5f33 2ebe d056 c83d
00000280: d0fb 99bc 9b25 19be de02 65bd 6244 203d
00000290: aaa1 edbd d1c6 c63d 1180 5f3d 5430 823c
000002a0: dac6 ea3c 4b0d d8bd 0bc7 1cbe 6c23 b0bd
000002b0: a66f ff3d ca22 453c 7352 b73d b19b c13c
000002c0: 1351 22be 4975 c6bc 62fc 6c3d dfe4 9ebd
000002d0: 711e a53c 33a3 40bd 3ea5 9abd 00b3 0f3e
000002e0: 282e 63be 18a9 16be 4619 46bd 3230 c63d
000002f0: 1cf7 8d3d 64ec e33d 3755 543d 2124 b33d
00000300: 7d4d e43c 293c 0a3d 164d 383e b8c0 1bbd
00000310: d2cd 353e 37cb 8f3b 58e7 163e fc1c 2ebe
00000320: bc34 dbbd 027d ffbb f1cd d83d 4bfb 76bc
00000330: 552b b7bb eea8 1a3e 222b 84bd 22ba 6f3c
00000340: cecb 0d3e 0e21 22be 2c88 c8bc 42ff 813d
00000350: 6748 12be ee61 8f3d 61c0 a8bd b764 0d3e
00000360: 0fc0 da3d 9ce4 c3bc c072 b4bd d56c e4bd
00000370: 2e3f 21bc 5348 df3d b935 c43d 449f 19be
00000380: d635 9a3c 604d cd3d 6bc1 23be aae8 5fbe
00000390: bfca 3cbe 5e7a 823d 5765 673c ae41 f8bd
000003a0: 395b 86bd bf0e 6d3c c114 493c cf72 9dbd
000003b0: a850 a1bd fae2 193c e89c 783d 06f5 c1bc
000003c0: 0510 e83c ad14 c2bd 8588 063d dbe6 5fbd
000003d0: 4673 ba3c f71b 5dbe f4e8 5c3c b88d 023e
000003e0: fca8 4dbd 9e2b 883e ed00 5dbe 8b42 0c3e
000003f0: cc20 603d 150d bcba 3c87 923d 499c c23c
3.5693844e-05 -0.1471194 0.16086543 -0.034658793 0.0134813385 -0.062612735 0.13117594 0.0808175
0.007192409 -0.0908454 -0.115669236 0.017326435 -0.18984792 0.028839614 -0.06473753 -0.13923706
-0.008063902 -0.07065453 -0.008107243 -0.1103067 0.020465517 -0.03839909 0.23539118 -0.053442962
-0.035710286 0.1066492 -0.010987301 0.18285967 -0.08504026 -0.12587413 -0.10396488 0.033164863
0.20706005 -0.054144163 0.03445916 -0.020611517 0.0035212596 0.043133363 -0.0012716043 -0.14818908
0.07142651 -0.18531963 0.039050445 0.00632065 0.23739034 -0.062206477 -0.121762834 0.17170875
-0.026752928 0.078485146 0.0938037 0.032391533 0.24093838 -0.012394909 0.014123033 0.057898145
0.023992755 -0.023236431 0.031075763 0.03545268 -0.035900984 -0.073667295 -0.103954904 -0.085393295
0.1476517 -0.15972288 0.14473665 -0.070494466 0.053238045 0.048325565 -0.11587726 -0.11904886
0.09294543 -0.07489 -0.06668165 0.098947465 0.024153566 0.042919356 0.086383544 0.035028376
0.00037284847 -0.19057797 -0.19423576 -0.04925177 0.123208955 -0.02071324 -0.05813918 -0.031540312
-0.098911345 0.14732872 -0.02463587 0.0024871735 -0.006538185 -0.08654434 0.02628972 -0.03362057
0.07695149 0.046067912 0.03948334 -0.08200344 0.0007724285 0.032800786 0.043674525 -0.10607469
0.11058962 0.016252562 0.093480356 0.20076852 -0.018678274 -0.18888924 0.0069768466 -0.027623445
-0.17803803 0.0004063528 0.018258011 -0.0028597035 -0.14947024 -0.048268434 -0.03859714 0.018018156
0.0800704 0.10026932 0.033410273 -0.015590835 -0.023069637 -0.07282546 -0.033427745 0.08551144
-0.028022492 0.059204634 0.065064676 0.106911324 0.064491436 0.026333185 -0.06204556 0.10949909
-0.13394025 0.07731912 -0.0035393347 -0.07346708 0.06441651 -0.047565073 -0.06911216 -0.033923972
0.012158215 -0.019164497 0.02167415 -0.11492802 -0.109548084 0.042060036 0.16726919 -0.0025919203
-0.0050913827 0.10421417 0.040687192 -0.1026824 -0.08018751 -0.1131084 -0.17011784 0.09782183
-0.018796831 -0.14955752 -0.055910937 0.039127715 -0.116031006 0.0970589 0.054565493 0.015892185
0.028659273 -0.105494104 -0.15310304 -0.08600506 0.12472467 0.01203222 0.08951273 0.02363381
-0.1585124 -0.024225848 0.05785788 -0.077584974 0.020156117 -0.04703064 -0.07551049 0.14033127
-0.22185576 -0.14712942 -0.048363946 0.09677161 0.06931898 0.11129072 0.05183908 0.087471254
0.02786898 0.03374878 0.17998156 -0.038025588 0.17754295 0.004388239 0.14736688 -0.17003244
-0.10703418 -0.0077968845 0.10586155 -0.015074561 -0.0055898824 0.15103504 -0.064535394 0.01463178
0.13847277 -0.15832922 -0.024478994 0.06347515 -0.14285432 0.070011005 -0.08239818 0.13807951
0.106811635 -0.02391272 -0.08810949 -0.111535706 -0.009841723 0.109024666 0.09580559 -0.15002161
0.0188245 0.10024524 -0.15991752 -0.21866098 -0.18436716 0.06370996 0.014123282 -0.121219024
-0.06560368 0.014468848 0.0122730145 -0.076879136 -0.07876712 0.009392494 0.060696512 -0.023676407
0.028327951 -0.094766 0.03284504 -0.05466352 0.022760045 -0.21592699 0.013483275 0.12749374
-0.050209984 0.26595777 -0.21582384 0.13697259 0.054718778 -0.001434716 0.071547 0.023756163
